our-vTR/10_fold_lightning_logs/dataset1/fold_4/version_1/checkpoints/epoch=29-step=1049_fold4.ckpt (torch, 132433 bytes, 18 tensors)

conv1d.weight f4 [128, 4, 12]
0	0x3d819a74	0.06328288
1	0x3e0efee3	0.13964419
2	0xbdbf6e67	-0.093472295
3	0x3cb8cebb	0.022559514
4	0x3e31cf11	0.17364146
5	0xbe8bcbca	-0.27303916
6	0x3e18960b	0.14900987
7	0xbe0a7cbd	-0.13524146
8	0xbe971490	-0.29507875
9	0x3d06b47a	0.03288696
10	0xbd282615	-0.041051943
11	0xbcf77b2f	-0.030210106
12	0xbd08e87c	-0.03342484
13	0x3da4018f	0.0800811
14	0x3b8c6160	0.004284069
15	0x3d4abb4f	0.049495038
16	0xbdddf761	-0.108381994
17	0xbe8634d4	-0.2621218
18	0x3b18ee10	0.0023335256
19	0xbe62428b	-0.22095697
20	0xbdc1b14a	-0.09457643
21	0xbd339835	-0.043846328
22	0x3e5555d3	0.2083352
23	0xbde26fd9	-0.110564895
24	0xbdca9702	-0.09892084
25	0xbc85c23a	-0.016327966
26	0x3d997247	0.074925
27	0xbded024b	-0.11572703
28	0xbe3496a3	-0.17635588
29	0x3dc52ad8	0.096273124
30	0xbd2175bd	-0.039418925
31	0x3e4ccbf7	0.19999681
32	0xbc842faa	-0.01613601
33	0x3e88bd19	0.2670677
34	0xbe06e960	-0.13174963
35	0x3e7ab1aa	0.24481836
36	0xbe0a1da9	-0.13487877
37	0xbe042b24	-0.12907082
38	0xbcc7f252	-0.02440754
39	0xbcdc3470	-0.026880473
40	0xbda200a4	-0.079102784
41	0xbcd125da	-0.025530744
42	0xbc4d1f8b	-0.012519727
43	0x3e0e7f8a	0.1391584
44	0x3e946b36	0.28988045
45	0xbe2e6ebe	-0.17034432
46	0x3c347048	0.011013098
47	0xbe154102	-0.1457558
48	0x3e4ab142	0.19794181
49	0x3dd57f2d	0.104246475
50	0xbe35858c	-0.17726725
51	0xbe964372	-0.29348332
52	0xbcfd7955	-0.030941645
53	0xbe02515c	-0.12726349
54	0x3e5ca1a2	0.21546033
55	0xbe4ca3e7	-0.19984399
56	0xbe716a31	-0.23575665
57	0xbe35a343	-0.1773806
58	0xbcc75340	-0.024331689
59	0xbe069f34	-0.13146669
60	0xbebc7cb6	-0.36813897
61	0xbcf6552f	-0.030069916
62	0xbc62e8db	-0.013849462
63	0x3e8b1e14	0.27171385
64	0xbc93969d	-0.018016154
65	0xbe20a1bc	-0.15686697
66	0xbc4a3bfe	-0.012343405
67	0xbe8e3b63	-0.27779683
68	0xbdb9bb2a	-0.09068902
69	0x3ad9ebb0	0.0016626026
70	0x3e2c5aa2	0.16831449
71	0xbc944dc5	-0.01810349
72	0xbd437b3e	-0.047724955
73	0x3d2c6699	0.042090032
74	0x3dd761b2	0.10516681
75	0xbd30b200	-0.043138504
76	0x3d62e9f7	0.055398908
77	0x3da14c2f	0.07875859
78	0x3dc76379	0.0973577
79	0x3dfb4bf3	0.122703455
80	0x3e650606	0.22365579
81	0x3e677cb5	0.22606166
82	0xbd959093	-0.07302966
83	0x3dd31d88	0.10308367
84	0xbe81aaca	-0.25325614
85	0xbacd005c	-0.0015640366
86	0xbdd2d720	-0.10294938
87	0x3e492fa8	0.19647086
88	0x3e1abd9f	0.15111397
89	0xbcbe29b4	-0.023213245
90	0xbeae7069	-0.34070137
91	0x3dc979ea	0.098377064
92	0xbde9997f	-0.1140623
93	0xbdcb90e2	-0.099397436
94	0xbe375471	-0.17903306
95	0xbdc203d1	-0.09473384
96	0xbd3def76	-0.046370946
97	0x3e838967	0.25690767
98	0x3d30a9cd	0.043130685
99	0xbe842f81	-0.25817493
100	0x3e664ad6	0.22489485
101	0xbe82a7b9	-0.25518587
102	0xbc837a2a	-0.016049463
103	0xbdcbbb2e	-0.09947811
104	0xbda8530e	-0.082189664
105	0xbd9e8d77	-0.07741826
106	0x3db44126	0.088014886
107	0xbe595803	-0.2122498
108	0x3d191a86	0.03737881
109	0xbc98fa62	-0.01867408
110	0x3d895b78	0.067068994
111	0x3e7b6437	0.24549948
112	0x3d4a5db9	0.049405787
113	0xbd454163	-0.04815806
114	0x3deecc68	0.11660081
115	0xbb88f8c2	-0.004180045
116	0xbdb1e224	-0.08685711
117	0x3d9a2542	0.075266376
118	0x3baed283	0.0053351535
119	0xbd9fb875	-0.07798854
120	0xbe1822e9	-0.14857067
121	0xbe89ef16	-0.2694022
122	0x3e397063	0.18109278
123	0xbe70b851	-0.23507811
124	0xbb78a487	-0.0037939863
125	0x3e2c507e	0.1682758
126	0x3cab64b1	0.020922037
127	0x3e038448	0.1284343
128	0x3e84fa2e	0.25972122
129	0x3d351e57	0.044218387
130	0xbd0253a7	-0.03181806
131	0x3e330dd2	0.17485741
132	0x3d9b5b70	0.075858
133	0x3b999af9	0.0046876636
134	0x3e2746eb	0.16335647
135	0xbde243c9	-0.11048085
136	0xbdb15797	-0.086592846
137	0xbdad18ba	-0.08451982
138	0xbe554800	-0.20828247
139	0x3e0eddf0	0.1395185
140	0x3dc01088	0.09378153
141	0x3c32fd3e	0.010924635
142	0xbe8c2fa6	-0.27380103
143	0xbd5054eb	-0.050862234
144	0x3db8bde0	0.09020591
145	0x3dff0103	0.12451365
146	0xbbc617f7	-0.0060453373
147	0xbed810b5	-0.42200246
148	0xbde23d5f	-0.11046862
149	0x3e7f86b7	0.24953733
150	0x3c44dc69	0.0120154405
151	0x3d29b350	0.04143077
152	0x3e9f82cb	0.31154475
153	0xbe13f6be	-0.14449593
154	0xbe3e30bc	-0.18573278
155	0x3d39448a	0.04523138
156	0x3d48ad04	0.048993126
157	0x3ddf8f3d	0.109159924
158	0xbd439d05	-0.047757167
159	0x3e2924b6	0.1651791
160	0x3dc9a9ef	0.098468654
161	0xbcf2c9f7	-0.02963732
162	0xbdee3e05	-0.11632923
163	0xbe2c5802	-0.16830447
164	0xbeb1677d	-0.34649268
165	0xbe510398	-0.20411527
166	0x3e5d02a8	0.21583045
167	0x3d9e348e	0.07724868
168	0xbc3b748d	-0.011441362
169	0xbd6f6645	-0.05844714
170	0x3e406d5c	0.18791717
171	0x3da401f9	0.08008189
172	0xbe982556	-0.29715985
173	0xbdf25809	-0.118331976
174	0x3d1669c7	0.03672197
175	0x3e72426f	0.23658155
176	0xbd0d20bb	-0.034455042
177	0xbbea9b87	-0.0071596536
178	0x3ddc0840	0.10743761
179	0x3e18f6a5	0.14937837
180	0x3d9b80d5	0.07592932
181	0xbdc96a5b	-0.09834739
182	0xb96e0735	-0.00022700134
183	0x3c2600c0	0.010132015
184	0x3d9725bb	0.073802434
185	0xbe158dde	-0.146049
186	0xbcfb92a7	-0.030709578
187	0xbd2182f7	-0.03943154
188	0x3cc0c980	0.023533583
189	0x3e9abebb	0.3022364
190	0xbe065e2e	-0.13121864
191	0x3df43299	0.11923713
192	0xbbe84754	-0.007088581
193	0x3e356687	0.17714892
194	0x3e04d5eb	0.12972228
195	0x3e34ce66	0.1765686
196	0xbe19a8d3	-0.15005808
197	0x3e4e2f8d	0.20135327
198	0xbd6a96a1	-0.057272557
199	0xbe2050a1	-0.15655757
200	0x3e5c723a	0.21527949
201	0x3e8777d6	0.26458615
202	0x3e3209c5	0.1738654
203	0xbd3613f9	-0.04445264
204	0xbdb5e0d7	-0.088807754
205	0x3d8d8216	0.069095775
206	0x3d650f87	0.05592301
207	0xbe5e5e90	-0.2171576
208	0x3e1ae117	0.15124927
209	0x3ddd4712	0.10804571
210	0x3e4806bd	0.1953382
211	0x3da9e455	0.08295504
212	0xbe9cfe33	-0.3066269
213	0xbe7ad286	-0.24494371
214	0xbdc0a3c4	-0.09406236
215	0x3cf4bd8c	0.02987554
216	0x3d024261	0.031801585
217	0xbd5d0c20	-0.05396664
218	0x3d972e25	0.07381848
219	0x3d0dadc1	0.034589533
220	0xbe45c8b7	-0.19314848
221	0x3d96e668	0.07368165
222	0xbe24e813	-0.16104154
223	0xbd30de4d	-0.043180753
224	0xbe2ed4b1	-0.17073323
225	0xbef28022	-0.47363383
226	0xbe27b2b4	-0.16376764
227	0x3e7d5284	0.24738508
228	0xbd2b8248	-0.041872293
229	0xbd6aa1eb	-0.057283323
230	0xbd9f9b62	-0.07793309
231	0xbd8282fb	-0.06372639
232	0xbe2236cc	-0.15841216
233	0xbd9f464c	-0.0777708
234	0xbe2e5ccb	-0.17027585
235	0xbdc0deb9	-0.09417481
236	0x3e5e1be2	0.21690324
237	0x3db11ec0	0.08648443
238	0xbdf9362f	-0.12168538
239	0xbe21ccfb	-0.1580085
240	0x3e995fd0	0.29955912
241	0x3c27c5d1	0.010240034
242	0xbd6fdd54	-0.058560684
243	0xbdfd94fe	-0.12381934
244	0xbeb94e8f	-0.36192748
245	0x3bc4ab68	0.0060018785
246	0xbe34f5dc	-0.17671913
247	0xbe797378	-0.24360454
248	0x3e211736	0.1573151
249	0x3e60a82c	0.21939152
250	0x3cf07e7b	0.029357186
251	0x3deae712	0.114698544
252	0xbdfa023d	-0.12207458
253	0xbe37b90d	-0.17941685
254	0x3e3381d9	0.17530002
255	0x3e844bb6	0.25839013

conv1d.bias f4 [128]
0	0x3d4ec951	0.05048496
1	0xbbd9f51f	-0.006651535
2	0xbdfbdf03	-0.122983955
3	0x3d0ffad7	0.03515133
4	0xbe25b111	-0.16180827
5	0xbde87414	-0.11350265
6	0xbe045664	-0.1292358
7	0xbd2e2035	-0.042511184
8	0x3d70be44	0.0587752
9	0xbca0f0cd	-0.019646073
10	0x3e19b8d2	0.1501191
11	0xbdf465fa	-0.11933513
12	0xbe4296b1	-0.19002797
13	0x3de8db15	0.113699116
14	0x3d01b16c	0.031663343
15	0xbd9c683f	-0.07637071
16	0xbe00377e	-0.12521169
17	0xbdde443d	-0.10852859
18	0xb71c3bd5	-9.312255e-06
19	0xbdb13ab4	-0.08653775
20	0x3df91194	0.12161556
21	0x3d8cbe00	0.06872177
22	0xbe511455	-0.20417912
23	0xbe0a888b	-0.1352865
24	0xbdca0699	-0.0986454
25	0x3d7375b0	0.059438407
26	0xbdc4ac5e	-0.09603189
27	0xbdcb455d	-0.09925339
28	0xbc0263ce	-0.007958366
29	0xbe07548c	-0.13215846
30	0xbd98ead5	-0.07466666
31	0xbdf6fb73	-0.12059679
32	0xbdda99c3	-0.10673859
33	0xbe0cc9b8	-0.13748825
34	0xbe020126	-0.1269575
35	0x3c6d4d67	0.014483786
36	0x3dab11d9	0.083530135
37	0xbc9ffe6b	-0.019530496
38	0x3cc14303	0.023591524
39	0xbe1ddfa2	-0.1541734
40	0xbd28829b	-0.04114018
41	0xbc57718f	-0.013149633
42	0xbe0a28ea	-0.1349217
43	0x3bc71534	0.0060755257
44	0xbddfa044	-0.1091924
45	0xbdc4ab5c	-0.09602997
46	0x3dd1339a	0.1021492
47	0xbd0e7ca7	-0.034786846
48	0xbd922254	-0.07135454
49	0x3cc9177e	0.024547335
50	0xbd42e795	-0.047584135
51	0x3e08d858	0.13363779
52	0xbd6dbc92	-0.058041163
53	0x3e01729e	0.12641379
54	0x3dec447b	0.11536499
55	0x3bdedc44	0.00680116
56	0x3d23271b	0.039832216
57	0x3e2151e4	0.15753895
58	0xbe047153	-0.12933855
59	0x3da350b3	0.079743765
60	0x3df38267	0.11890107
61	0x3d8da955	0.06917063
62	0xbd93199e	-0.071826205
63	0x3d21d285	0.039507408
64	0x3c282ed3	0.01026507
65	0x3dab83c1	0.083747394
66	0xbdf6fcc4	-0.1205993
67	0xbdcc632b	-0.09979852
68	0xbb7587ea	-0.0037465044
69	0x3dda4e27	0.106594376
70	0xbe361ca5	-0.17784365
71	0xbe251ef6	-0.16125092
72	0x3b6a051d	0.0035708614
73	0x3d87b291	0.06625856
74	0x3c941c1c	0.01807981
75	0x3daa5187	0.08316331
76	0xbddc2b8d	-0.10750494
77	0x3e1ba6b5	0.15200312
78	0xbcda5205	-0.026650438
79	0x3d55f849	0.052238736
80	0x3da21317	0.07913797
81	0xbda35971	-0.07976044
82	0xbda386c1	-0.07984687
83	0x3e1f7cbb	0.15574925
84	0x3dddf3c5	0.10837511
85	0xbdddd185	-0.10830978
86	0xbd9739ae	-0.073840484
87	0xbe13432f	-0.14381097
88	0x3dcc7052	0.09982361
89	0xbc7762db	-0.015099253
90	0xbdc29aa7	-0.09502154
91	0xbe51780c	-0.2045595
92	0xbd49d43e	-0.049274676
93	0xbe2c02ad	-0.16797896
94	0xbd5dc971	-0.054147188
95	0x3e2824a5	0.16420229
96	0xbde10861	-0.10987926
97	0xbc340a4b	-0.010988782
98	0xbb034690	-0.0020031072
99	0xbe0ffef1	-0.14062096
100	0xbc658f2b	-0.014011185
101	0xbd60893c	-0.054818377
102	0xbdfc59bd	-0.12321804
103	0xbd125f14	-0.035735205
104	0x3ca91875	0.020641545
105	0xbe29d6c0	-0.16585827
106	0xbdc4e1fb	-0.09613415
107	0xbdaddeac	-0.08489737
108	0x3de7f274	0.11325541
109	0xbdd5f0ea	-0.10446341
110	0xbc9c465c	-0.019076519
111	0xbe247b0b	-0.16062562
112	0xbe13dc59	-0.14439525
113	0x3d02f69e	0.031973474
114	0xbdfc0481	-0.123055466
115	0xbd4385eb	-0.047735136
116	0xbd52fe9b	-0.051512342
117	0xbdaeb6f7	-0.085309915
118	0x3da7656b	0.08173641
119	0x3d4fe591	0.05075604
120	0x3dbb678c	0.091506094
121	0x3da62128	0.08111793
122	0x3d619006	0.055068992
123	0x3deaccd2	0.114648476
124	0x3dd1b2b5	0.10239164
125	0xbdac7699	-0.08421058
126	0xbd9b69f0	-0.07588565
127	0x3e0afcf1	0.13573052

linears.0.weight f4 [32, 128]
0	0xb8a522e5	-7.874313e-05
1	0xb90e3d7a	-0.00013565077
2	0x39682e29	0.0002214244
3	0x3719f49d	9.176464e-06
4	0xb88e07f1	-6.772567e-05
5	0xb8398d09	-4.4238786e-05
6	0x38f18436	0.00011516402
7	0xb9895ea2	-0.00026201183
8	0xb886d1cc	-6.4286956e-05
9	0x38fe6fbe	0.000121324774
10	0x372f7bdb	1.045965e-05
11	0xb7f71fe1	-2.945954e-05
12	0x38384241	4.3930722e-05
13	0xb8781613	-5.9148366e-05
14	0x3811a003	3.4719716e-05
15	0x39201a3f	0.00015268566
16	0x38aa8ae3	8.132101e-05
17	0x37fa0d69	2.9808567e-05
18	0x3840529d	4.5853307e-05
19	0x3816cd1c	3.595381e-05
20	0xb926f4b8	-0.00015922158
21	0x38d17da0	9.989296e-05
22	0x389a5ede	7.3609626e-05
23	0x3952dfbd	0.0002011051
24	0xb80a0ffa	-3.2916643e-05
25	0x3886e16a	6.4316046e-05
26	0xb88c37ad	-6.686091e-05
27	0x3941faae	0.000184993
28	0xb97dbde3	-0.00024198699
29	0xb98c7eab	-0.00026797256
30	0xb9014207	-0.00012326996
31	0xb9579a11	-0.00020561392
32	0xb86b7c4e	-5.6144134e-05
33	0xb8802eb8	-6.112218e-05
34	0x38f26c16	0.00011559592
35	0xb8fe4cb2	-0.000121259494
36	0x38ce2dd6	9.831383e-05
37	0xb82f5c6a	-4.180932e-05
38	0x37451258	1.1746386e-05
39	0xb9393e84	-0.00017666264
40	0x39073c51	0.00012897073
41	0xb7b033a2	-2.1004878e-05
42	0xb73e1fef	-1.1332318e-05
43	0xb92c004a	-0.00016403306
44	0xb9289a80	-0.00016079284
45	0xb8ac8a68	-8.227379e-05
46	0xb988e18e	-0.00026107993
47	0x36f221ae	7.216083e-06
48	0x369d6a54	4.691343e-06
49	0xb79af277	-1.8471137e-05
50	0xb9cc398e	-0.00038952794
51	0xb75d46f6	-1.3189148e-05
52	0xb941972a	-0.00018462227
53	0x391dd5b2	0.00015052294
54	0xb8b5ae31	-8.663198e-05
55	0xb883c024	-6.282356e-05
56	0x37dbdac3	2.6208703e-05
57	0xb60ee1a0	-2.129098e-06
58	0xb90f411f	-0.00013661802
59	0x38fbc7e0	0.00012005842
60	0x3934089f	0.0001716935
61	0xb861274c	-5.368078e-05
62	0xb79c0b77	-1.8601988e-05
63	0x374a9b0b	1.2076237e-05
64	0xb78f97b4	-1.711757e-05
65	0xb99b023b	-0.00029565566
66	0x377aeaa4	1.4955793e-05
67	0x392b153b	0.0001631574
68	0xb91d759e	-0.00015016503
69	0xb91fddd8	-0.00015246065
70	0x37c51c56	2.3497425e-05
71	0xb9c34e78	-0.00037251762
72	0x39267a11	0.00015876467
73	0xb7e853d4	-2.769559e-05
74	0x38f59a96	0.00011711304
75	0x38cf4d9f	9.884987e-05
76	0x3927a17d	0.0001598652
77	0xb802ed5f	-3.1215484e-05
78	0x38d9699a	0.00010367036
79	0x36f4781b	7.285749e-06
80	0x38d644a7	0.00010217103
81	0xb9869d48	-0.00025675655
82	0xb918d0fa	-0.000145737
83	0xb9424db1	-0.00018530224
84	0xb813338c	-3.5095538e-05
85	0x36143052	2.2081845e-06
86	0x36f42ab0	7.276736e-06
87	0x36a8cd75	5.0307085e-06
88	0x3858326c	5.1545372e-05
89	0x37be9ced	2.272284e-05
90	0xb96b4abd	-0.00022439189
91	0xb8fda3f5	-0.000120945195
92	0x38a660cd	7.9335274e-05
93	0xb8f2f022	-0.000115841875
94	0x37d0f5f9	2.4910072e-05
95	0x380a1749	3.292345e-05
96	0x383caf43	4.4985918e-05
97	0xb8ea5a7c	-0.000111748435
98	0xb80c7abc	-3.3492906e-05
99	0xb6892227	-4.086894e-06
100	0x3861bc9f	5.3819847e-05
101	0xb814fd86	-3.552206e-05
102	0xb925f56c	-0.00015827053
103	0x37822f31	1.5519183e-05
104	0x37fa07d4	2.9805968e-05
105	0xb8a06835	-7.6488046e-05
106	0x39396642	0.00017681069
107	0xb98c7ee1	-0.00026797413
108	0xb7901b81	-1.7178945e-05
109	0x383bc4b2	4.476746e-05
110	0x393af6aa	0.00017830232
111	0x3831f565	4.242863e-05
112	0xb88d3727	-6.733677e-05
113	0xb91d1d3c	-0.00014983577
114	0xb8855e64	-6.359516e-05
115	0x37ee9283	2.8440036e-05
116	0x37a15493	1.9232079e-05
117	0xb8dc7ca4	-0.000105136336
118	0xb88ba1e8	-6.658194e-05
119	0x391e3c94	0.00015090621
120	0x387d7d18	6.0436403e-05
121	0xb8965b91	-7.169613e-05
122	0xb97c8364	-0.0002408154
123	0x39581ceb	0.00020610138
124	0xb9159a87	-0.00014267313
125	0xb85f1647	-5.318809e-05
126	0x376b0c01	1.4009886e-05
127	0xb7b2c75c	-2.1312087e-05
128	0xb8a1583b	-7.6935125e-05
129	0xb8efde29	-0.000114377886
130	0x3694c0d1	4.4331905e-06
131	0x38820116	6.199085e-05
132	0x39177068	0.00014442357
133	0xb727df95	-1.0006032e-05
134	0x391b1067	0.00014788062
135	0x3869f1e3	5.5776803e-05
136	0xb819835c	-3.660038e-05
137	0x38f50bdf	0.000116847215
138	0xb91716d0	-0.0001440898
139	0x39a78ae9	0.00031956218
140	0x3648e019	2.9932764e-06
141	0xb88116da	-6.155456e-05
142	0x38af8363	8.369123e-05
143	0xb8cb6a3b	-9.699581e-05
144	0xb6b1db66	-5.3005524e-06
145	0xb789f37f	-1.644506e-05
146	0x38ca2df2	9.6406686e-05
147	0xb8c29464	-9.278281e-05
148	0x37927ef1	1.7463668e-05
149	0xb8c2f30f	-9.295914e-05
150	0x38228857	3.8750786e-05
151	0x3884b515	6.32798e-05
152	0xb95027ee	-0.00019851301
153	0xb8307dbe	-4.2078776e-05
154	0xb916680c	-0.00014343875
155	0xb81726f8	-3.6037498e-05
156	0xb93c0a13	-0.0001793283
157	0x38866cae	6.409861e-05
158	0xb83a2531	-4.4380493e-05
159	0x37d2167e	2.5044425e-05
160	0xb9163654	-0.00014325354
161	0xb93d61d0	-0.00018060883
162	0xb7e468ff	-2.722861e-05
163	0x37e683af	2.7479457e-05
164	0x370bce2f	8.3330515e-06
165	0xb7880735	-1.621582e-05
166	0x39823841	0.00024837445
167	0xb8aa16b3	-8.11046e-05
168	0xb7a0ae82	-1.9154748e-05
169	0x39396a91	0.00017682674
170	0xb803ed2a	-3.145371e-05
171	0x3913def0	0.00014102063
172	0x393813d6	0.00017554997
173	0xb8ac9b56	-8.230533e-05
174	0xb89e11d6	-7.537349e-05
175	0xb8b4c3c7	-8.619535e-05
176	0xb8a4f8a4	-7.866442e-05
177	0x3907d9cd	0.0001295574
178	0x39279faa	0.0001598584
179	0x396b3712	0.00022431862
180	0xb6c20438	-5.7821417e-06
181	0x39811177	0.0002461781
182	0x38d576ba	0.00010178746
183	0xb8566779	-5.1117942e-05
184	0x38f97ca9	0.00011896465
185	0x38f334ce	0.000115969786
186	0x389f6fad	7.602512e-05
187	0x3816004a	3.5763056e-05
188	0x397e918d	0.0002427755
189	0x385dca8c	5.2879142e-05
190	0xb76cc9d7	-1.4113691e-05
191	0x370c9e70	8.381539e-06
192	0x39821a27	0.00024815017
193	0xb83eefa4	-4.5522713e-05
194	0x392805e3	0.00016023921
195	0x3934966f	0.00017222179
196	0x38549e34	5.0692077e-05
197	0x3964e310	0.00021828362
198	0x3788bfb0	1.6301725e-05
199	0x39748bf4	0.0002332179
200	0xb9076330	-0.00012911553
201	0xb88ee442	-6.813604e-05
202	0xb7dac020	-2.607709e-05
203	0x374e378a	1.2291488e-05
204	0x39045f8d	0.00012624096
205	0x390ae70e	0.0001324678
206	0x38a189bd	7.702734e-05
207	0xb836d6b2	-4.3592132e-05
208	0x3892a257	6.992061e-05
209	0xb8fcc8b7	-0.000120536824
210	0x38378c8c	4.3761494e-05
211	0x38e9359d	0.00011120292
212	0x34a08ecf	2.990623e-07
213	0xb6c4fdfa	-5.870822e-06
214	0xb7073d53	-8.060905e-06
215	0xb856f2a2	-5.1247545e-05
216	0xb9172bff	-0.00014416872
217	0xb9daf458	-0.0004176225
218	0x384ec229	4.9295053e-05
219	0xb7ea8a5d	-2.7959404e-05
220	0xb8680804	-5.5320575e-05
221	0xb8c8edc6	-9.581032e-05
222	0x389bc288	7.42721e-05
223	0xb8915598	-6.930082e-05
224	0x38fbd234	0.00012007766
225	0xb918434e	-0.00014520923
226	0xb987e144	-0.00025917043
227	0x39d84234	0.00041248056
228	0x38d2d16a	0.00010052587
229	0x3902256f	0.00012411711
230	0xb906339a	-0.00012798459
231	0xb7dbb930	-2.6193069e-05
232	0xb9816796	-0.00024681975
233	0x38cbaf45	9.712441e-05
234	0x38638c33	5.4251588e-05
235	0x38cc08d1	9.72912e-05
236	0xb882856d	-6.2237355e-05
237	0x3905252e	0.00012697719
238	0xb6cfd8c2	-6.1943147e-06
239	0xb9200b5f	-0.00015263025
240	0x39b90481	0.00035289305
241	0xb93a6153	-0.00017774598
242	0x37e68ba8	2.748317e-05
243	0xb62d520a	-2.5826762e-06
244	0xb917f3cd	-0.00014491305
245	0xb6c68948	-5.9168415e-06
246	0x397d2c37	0.00024144432
247	0xb928776c	-0.00016066217
248	0x3855505a	5.085799e-05
249	0x38013b92	3.0811476e-05
250	0x38f4d248	0.000116739946
251	0xb90d2e33	-0.00013464018
252	0xb8f14069	-0.00011503773
253	0x39c026a1	0.00036649875
254	0xb8db1cff	-0.00010448135
255	0xb82f1053	-4.1738454e-05

linears.0.bias f4 [32]
0	0xb89f13b4	-7.585381e-05
1	0x381443df	3.534916e-05
2	0x3891dd0b	6.955311e-05
3	0x39572d84	0.00020520954
4	0x372c8568	1.028306e-05
5	0x37aef268	2.0855296e-05
6	0x38748d97	5.8306e-05
7	0x38e9adca	0.000111426765
8	0xb9082b7d	-0.00012986171
9	0x3a267c53	0.0006350923
10	0x3924ce0b	0.00015717016
11	0xb8ebbb9b	-0.000112406175
12	0x3969fdb9	0.0002231513
13	0x3a0aa636	0.00052890496
14	0xb751d4a0	-1.2506876e-05
15	0x38895307	6.548134e-05
16	0x379d47ff	1.8749384e-05
17	0xb81361b4	-3.5138524e-05
18	0x38a1337e	7.6866694e-05
19	0x38293cc0	4.0349318e-05
20	0x39dfa89c	0.00042659498
21	0xb8818e13	-6.177663e-05
22	0x37481c04	1.1927452e-05
23	0x3b8d7225	0.0043165856
24	0x3955a199	0.00020373463
25	0xb9280190	-0.0001602231
26	0xb7ff5839	-3.043945e-05
27	0x38827b38	6.221834e-05
28	0x38bbe51d	8.9595305e-05
29	0x3719a463	9.157785e-06
30	0x3a2dc860	0.00066292845
31	0x3d3d00ea	0.04614345

linears.2.weight f4 [2, 32]
0	0xb35ae57c	-5.0965795e-08
1	0xb8d57f7c	-0.00010180377
2	0x38ac8d82	8.227957e-05
3	0x389f1e2f	7.587333e-05
4	0x38063fe1	3.200758e-05
5	0xb98ea703	-0.00027208784
6	0xb89e58e3	-7.5505835e-05
7	0xb8d2525b	-0.0001002892
8	0x38b03d11	8.4037085e-05
9	0xbf0c6859	-0.5484672
10	0x397729ae	0.00023571283
11	0xb8e9f9ab	-0.0001115681
12	0xb8c1984e	-9.231326e-05
13	0xbf0a9cac	-0.5414531
14	0x38c4c163	9.3820294e-05
15	0xb8a633be	-7.9251346e-05
16	0x3900bac3	0.00012276605
17	0xb7a44059	-1.9580288e-05
18	0x38cddfb0	9.816827e-05
19	0x395c6973	0.00021020118
20	0xbe8a9a94	-0.2707106
21	0x392569bb	0.00015775014
22	0xbc003cca	-0.007826993
23	0x3f2ff311	0.68730265
24	0xb89aaf66	-7.375963e-05
25	0x39612e0e	0.00021474829
26	0xb8e0c827	-0.000107184336
27	0xb982ba9a	-0.0002493456
28	0xb8ed0d1b	-0.00011303482
29	0x3802eba4	3.1213873e-05
30	0xbe9c8551	-0.30570462
31	0x3f5d948c	0.8655479
32	0xb8dd646d	-0.00010556807
33	0x38ebaa08	0.00011237344
34	0x393664a6	0.00017394367
35	0xb85a9c6a	-5.2120922e-05
36	0x38694231	5.5613174e-05
37	0xb8464b19	-4.727682e-05
38	0x392d562b	0.00016530666
39	0xb8af0a76	-8.346599e-05
40	0xb8cdecbc	-9.819257e-05
41	0x3f08b154	0.5339558
42	0xb97f850f	-0.00024368263
43	0xb90e90a1	-0.00013596054
44	0xb8a99a11	-8.087245e-05
45	0x3f150224	0.5820639
46	0x3730603a	1.0512822e-05
47	0x3901635e	0.00012339416
48	0x390574f7	0.00012727441
49	0xb988ac33	-0.0002606824
50	0xb91dbbf9	-0.00015042712
51	0x37e2538a	2.69802e-05
52	0x3dedcb23	0.11611011
53	0x37dfcf02	2.6680067e-05
54	0xbd02c5cd	-0.03192692
55	0xbf35da28	-0.71036005
56	0xb8b2522b	-8.5030064e-05
57	0x379f0760	1.8957711e-05
58	0xb901abf2	-0.00012366453
59	0x39b81f1b	0.0003511839
60	0xb9026609	-0.00012435777
61	0x3935a77a	0.00017323895
62	0x3ed182fd	0.4092025
63	0xbf5ec793	-0.87023276

linears.2.bias f4 [2]
0	0x3da51ac6	0.08061747
1	0x39a17895	0.00030798154

exp_avg f4 [128, 4, 12]
0	0x3a260dc3	0.0006334448
1	0x39a47b53	0.000313724
2	0xb933cc36	-0.00017146845
3	0x39dbdc87	0.0004193524
4	0x3a1510ea	0.00056864193
5	0x3826dde6	3.9784143e-05
6	0x3916facf	0.00014398548
7	0x39e46753	0.0004356453
8	0x38ac02a0	8.202088e-05
9	0xb9b5f4bd	-0.00034705354
10	0x3aa51037	0.0012593333
11	0x3930c6c3	0.00016858712
12	0xb9a390c1	-0.00031197633
13	0x39da3e68	0.00041626696
14	0x38cbf352	9.725116e-05
15	0x39fa92e0	0.00047793146
16	0xba442f02	-0.00074838114
17	0x3a130625	0.00056085206
18	0xb8489766	-4.7824717e-05
19	0xb8b828fb	-8.781437e-05
20	0x39306d3d	0.00016825362
21	0xb9f6d2fd	-0.00047077975
22	0xba098826	-0.0005246423
23	0xb99b3226	-0.00029601267
24	0xba8711b1	-0.0010304955
25	0xb9c61a6f	-0.00037785197
26	0xba6a88dc	-0.0008946785
27	0xb9983fcc	-0.00029039232
28	0xb896306d	-7.1615774e-05
29	0xba134ffa	-0.00056195224
30	0xb849a3d3	-4.8074708e-05
31	0xba0b1803	-0.0005306007
32	0xb90db137	-0.00013512826
33	0x3a253a5f	0.00063029485
34	0xb9fb1bb4	-0.0004789509
35	0x3721d70b	9.646416e-06
36	0x3a39ddfe	0.00070902694
37	0xb9b89f4f	-0.0003521391
38	0x3a7dfd7e	0.00096889574
39	0xba1f17ce	-0.0006068916
40	0x3983c84d	0.00025135503
41	0xb82240a2	-3.8684004e-05
42	0xb849b004	-4.808606e-05
43	0x393fa5ee	0.00018276993
44	0xb8f17aac	-0.00011514625
45	0x3944a5f7	0.00018753843
46	0xb98614dd	-0.00025574016
47	0x38f70037	0.00011777918
48	0xbac6a2da	-0.0015154735
49	0x3958de36	0.00020682145
50	0xbac696ae	-0.0015151107
51	0x3855bdd9	5.0959967e-05
52	0x3a48c768	0.00076591084
53	0x39e68038	0.0004396455
54	0x3a9cde89	0.0011968176
55	0x3995755a	0.00028506928
56	0xb8222b6e	-3.8664257e-05
57	0x3a3cf77c	0.0007208509
58	0x3a07613c	0.00051643304
59	0xb949a223	-0.00019229254
60	0x3958c36d	0.00020672167
61	0x398f436b	0.00027325316
62	0x394df0ac	0.00019639981
63	0xbad2f2e7	-0.0016094119
64	0xb9a15246	-0.00030769611
65	0xb9769e8f	-0.00023519456
66	0x37b3c81a	2.1431642e-05
67	0x39233108	0.00015563157
68	0xb966238c	-0.00021947752
69	0x393a0512	0.00017740231
70	0xb9a663b3	-0.0003173627
71	0x39a05895	0.00030583577
72	0x3a5fd530	0.00085385423
73	0xba4bc23a	-0.00077727775
74	0x3ab9a3c0	0.0014163181
75	0x3a8bad0f	0.0010656434
76	0xbae587b3	-0.0017511755
77	0x3a2d2ed9	0.0006606407
78	0xba9c9f1f	-0.0011949277
79	0xb8a4beb6	-7.855652e-05
80	0x3a0125db	0.00049266004
81	0xbac75569	-0.0015207949
82	0x39f44256	0.0004658873
83	0xb8ba3bb9	-8.880295e-05
84	0x39ee7f54	0.00045489764
85	0x399bd1ed	0.0002972031
86	0xb8ccb273	-9.760717e-05
87	0x3a012fd4	0.00049280864
88	0x3aa97890	0.0012929607
89	0xba62c754	-0.0008650918
90	0xb7c3a2ce	-2.3321623e-05
91	0xb9bdde33	-0.0003621444
92	0xb975e904	-0.00023451826
93	0x3a233212	0.00062254176
94	0xba2e508f	-0.00066495774
95	0xb7cf8920	-2.4740177e-05
96	0x3817dda3	3.620762e-05
97	0xba1de7e5	-0.00060236297
98	0x39509a42	0.00019893891
99	0xb88e6f13	-6.791777e-05
100	0x382a88ed	4.065868e-05
101	0x39cb60d5	0.00038791323
102	0x3a715f9a	0.0009207666
103	0x39784da6	0.0002368005
104	0x39c9f22d	0.00038518143
105	0x38f30de1	0.00011589728
106	0x3a06e17c	0.0005145294
107	0xb83ad7f7	-4.454699e-05
108	0xb9ca9d66	-0.00038645713
109	0x3a200d91	0.0006105537
110	0xba2c8720	-0.00065814145
111	0xb8af3ed5	-8.356354e-05
112	0xb9aaef3d	-0.00032603173
113	0xb9e53d0a	-0.0004372376
114	0xb9b58929	-0.00034625203
115	0xb96a2825	-0.00022330934
116	0x39680a1d	0.00022129012
117	0xba70ae18	-0.00091812154
118	0xba15630a	-0.0005698657
119	0xb9b9f8c5	-0.00035471297
120	0xba035da7	-0.00050112087
121	0x39864aa3	0.0002561408
122	0xba28ecab	-0.00064439577
123	0x38fbc19c	0.00012004675
124	0x3854902e	5.0679017e-05
125	0x39b7a9bc	0.00035030942
126	0xba38e993	-0.0007053848
127	0x3a09f250	0.00052622426
128	0xb9c8855f	-0.00038246342
129	0x3a7ef3fd	0.0009725688
130	0xb96192c0	-0.00021512341
131	0x3a168946	0.0005742501
132	0x3a5f2e81	0.00085137045
133	0xb98a9602	-0.00026433176
134	0x3a90a69e	0.0011035984
135	0x3803d8a5	3.14346e-05
136	0x39761831	0.000234694
137	0xb99dcd88	-0.00030098506
138	0x39093a38	0.00013087026
139	0xba0d7bb2	-0.0005397155
140	0xb96ae3ba	-0.00022400814
141	0xb9329e86	-0.00017034457
142	0x398dcc78	0.00027045957
143	0xb9377d92	-0.00017499019
144	0x3a9f01b0	0.001213124
145	0x3a564568	0.00081737945
146	0xb8250645	-3.9344905e-05
147	0x37b081e5	2.1041322e-05
148	0x3a95c472	0.0011426343
149	0xba78662f	-0.0009475676
150	0xba61b1a8	-0.00086095417
151	0xb6475cb4	-2.970727e-06
152	0x3938bba3	0.00017617508
153	0x38905dd2	6.8839305e-05
154	0x388cecff	6.719864e-05
155	0x39e8d9e0	0.00044412818
156	0x3987f149	0.00025928978
157	0xbab61122	-0.0013890604
158	0x38e6517f	0.000109824345
159	0xba35c5bd	-0.00069340674
160	0xbafa1c71	-0.0019081963
161	0x39225ab6	0.00015483316
162	0xb9dbc3bb	-0.00041916766
163	0x3947bb86	0.00019047977
164	0x38f01938	0.00011448789
165	0x39be65b5	0.00036315402
166	0xb943a514	-0.00018658146
167	0xba3b4b69	-0.0007144721
168	0x399f4557	0.00030378505
169	0x3a449fb8	0.00075006066
170	0x3aa3d9a1	0.0012500772
171	0x3aa097a2	0.0012252221
172	0x394c95d3	0.0001951077
173	0x39cf570c	0.00039546972
174	0x3adcff7f	0.0016860812
175	0xb97f4df5	-0.00024347736
176	0x3a08636c	0.00052028033
177	0xba03f3b7	-0.000503357
178	0x398fbd1b	0.0002741598
179	0xb9b73727	-0.00034945572
180	0xbae8cf57	-0.0017761987
181	0xb93b0b69	-0.0001783796
182	0xbaad1687	-0.0013205566
183	0xba10ed96	-0.0005528567
184	0x3a158a85	0.000570454
185	0x39d047f6	0.00039726467
186	0xb9d4d6f2	-0.00040595938
187	0x386abf98	5.5968383e-05
188	0xba54957f	-0.0008109435
189	0x3895a924	7.1363786e-05
190	0xb9224ba6	-0.00015477705
191	0x3a227a13	0.0006198
192	0xb9e9e411	-0.00044611146
193	0x3a89ac55	0.001050363
194	0xbb2011ee	-0.002442475
195	0x3b68ab04	0.0035502324
196	0xb9c7a81c	-0.0003808149
197	0x3b00d2b0	0.001965683
198	0x3b573b64	0.0032841796
199	0xb9ea4b9d	-0.00044688294
200	0x3ad08832	0.001590973
201	0xbb979679	-0.004626092
202	0xba830536	-0.000999606
203	0x396d276a	0.00022616764
204	0xbb951d62	-0.004550622
205	0xba2abba0	-0.00065129437
206	0xba967611	-0.0011479278
207	0xba0a57db	-0.0005277374
208	0x3b3f1877	0.002915887
209	0xbb125651	-0.002232928
210	0xbaae07b5	-0.0013277443
211	0x3b95c7ac	0.004570922
212	0x39457c29	0.00018833637
213	0x3a7605ab	0.0009385
214	0x38c2d09e	9.289499e-05
215	0x3b1232ab	0.0022308032
216	0x3ba40fb4	0.005006755
217	0xb9bd03e6	-0.00036051794
218	0x3b489bb5	0.0030610387
219	0xbb360da3	-0.0027779124
220	0xbaaa4e47	-0.0012993299
221	0x3814d47e	3.548385e-05
222	0xb9f47192	-0.00046623923
223	0xbb7283a8	-0.0037004743
224	0x3a0716bc	0.0005153229
225	0x393cdade	0.00018010612
226	0xb8874f78	-6.452104e-05
227	0xbaf39b31	-0.0018585679
228	0xb7282258	-1.0021577e-05
229	0xb821b1d4	-3.8551007e-05
230	0x3a0ac509	0.0005293643
231	0xb9803b4a	-0.00024458236
232	0xbaa1f8a2	-0.0012357424
233	0x397304bf	0.00023176054
234	0xbac352ae	-0.001490196
235	0xb9de11d1	-0.00042356414
236	0xbb16618b	-0.0022946324
237	0x3b65ddd9	0.0035074858
238	0x3a7e9a43	0.0009712318
239	0xba1cde22	-0.0005984028
240	0x39aa840a	0.00032523304
241	0xb99672ed	-0.00028695856
242	0xb964a71f	-0.00021806032
243	0xb8da3912	-0.0001040568
244	0x39918c41	0.00027761052
245	0x37f8ba98	2.9650793e-05
246	0x388b7762	6.650273e-05
247	0x38fea72e	0.000121428035
248	0xba0adf69	-0.0005297573
249	0x3ac04997	0.0014670369
250	0xba91d2fa	-0.0011125498
251	0x3ab285b2	0.0013620167
252	0x38758b99	5.8542562e-05
253	0x392f814e	0.0001673747
254	0x3963a3cc	0.00021709426
255	0xbaba7bbe	-0.0014227552

exp_avg_sq f4 [128, 4, 12]
0	0x36eb24ed	7.0078445e-06
1	0x36fa78f1	7.46466e-06
2	0x3621a820	2.4088731e-06
3	0x36cdbbca	6.1313376e-06
4	0x36a756be	4.987086e-06
5	0x34565caf	1.9964021e-07
6	0x36b3b847	5.3560684e-06
7	0x341c9e75	1.4586278e-07
8	0x33c1b0b8	9.019408e-08
9	0x357ecb7b	9.4918477e-07
10	0x35ff49d7	1.9020471e-06
11	0x3690b49c	4.31256e-06
12	0x36e9821d	6.9590883e-06
13	0x36be0dea	5.664061e-06
14	0x36a8bab6	5.028526e-06
15	0x36b54ed3	5.4033967e-06
16	0x36345db9	2.6876644e-06
17	0x3563eef4	8.491181e-07
18	0x36515d20	3.1197633e-06
19	0x34c2cf9e	3.6286377e-07
20	0x35135fbe	5.490109e-07
21	0x3623c474	2.4403244e-06
22	0x36b42f1c	5.3699023e-06
23	0x35e3858d	1.6951686e-06
24	0x36b02d4e	5.250483e-06
25	0x36804721	3.8229778e-06
26	0x36e54092	6.832249e-06
27	0x3645ae0a	2.9456592e-06
28	0x35e02c16	1.6702131e-06
29	0x369f5036	4.747907e-06
30	0x36af8036	5.230332e-06
31	0x36653af5	3.4157977e-06
32	0x36212a1f	2.4015387e-06
33	0x36bf7a22	5.7064617e-06
34	0x36464524	2.9544544e-06
35	0x36cd7ea1	6.1242176e-06
36	0x3627b3a7	2.498951e-06
37	0x3517625c	5.6395015e-07
38	0x365c521d	3.283035e-06
39	0x361dd536	2.3518928e-06
40	0x360708fb	2.0121795e-06
41	0x3677767e	3.687484e-06
42	0x36bc9ee8	5.6213357e-06
43	0x363d7c36	2.8235495e-06
44	0x36360679	2.712388e-06
45	0x36565549	3.1938127e-06
46	0x368f9561	4.279122e-06
47	0x34d60b67	3.9868902e-07
48	0x37723a23	1.443786e-05
49	0x37701484	1.4309891e-05
50	0x3695c425	4.4633803e-06
51	0x3453d7d2	1.9729421e-07
52	0x36b97aa6	5.527708e-06
53	0x3681b34d	3.865373e-06
54	0x378101d6	1.5378853e-05
55	0x36434d2f	2.910219e-06
56	0x3552fb92	7.859718e-07
57	0x3611d667	2.1731482e-06
58	0x3725be5d	9.879089e-06
59	0x3685f0d4	3.991745e-06
60	0x34b120d8	3.2992716e-07
61	0x36d136c5	6.2350614e-06
62	0x37201427	9.541435e-06
63	0x374c947b	1.2193918e-05
64	0x36eeec28	7.120445e-06
65	0x366c37e6	3.5199278e-06
66	0x36b80566	5.484256e-06
67	0x3596c20b	1.1232345e-06
68	0x3669da1c	3.4846662e-06
69	0x3702a3f8	7.786781e-06
70	0x379e8afb	1.8899786e-05
71	0x3729dd69	1.0124736e-05
72	0x376dca67	1.4173426e-05
73	0x378b9eb7	1.6643999e-05
74	0x376462c9	1.3612859e-05
75	0x36986d72	4.542694e-06
76	0x3775af64	1.4643974e-05
77	0x3729aeab	1.0113853e-05
78	0x375d16a5	1.3177899e-05
79	0x3788a40b	1.6288852e-05
80	0x36b7d9c6	5.479177e-06
81	0x3731c8b3	1.0596751e-05
82	0x3741decc	1.155557e-05
83	0x375d3114	1.3184053e-05
84	0x34e6dcc8	4.3001478e-07
85	0x36f76f0e	7.374102e-06
86	0x364eccf2	3.0815686e-06
87	0x373512c3	1.0792809e-05
88	0x3796ba01	1.7968008e-05
89	0x369614a6	4.472752e-06
90	0x33a15f2a	7.514457e-08
91	0x37748374	1.457414e-05
92	0x3599ad3d	1.1449807e-06
93	0x36b48aef	5.380592e-06
94	0x36ecccd3	7.0571928e-06
95	0x364f64d7	3.09041e-06
96	0x3607af28	2.0218522e-06
97	0x36be03a5	5.6628655e-06
98	0x369a6ba8	4.6020905e-06
99	0x33c72d9c	9.274956e-08
100	0x365ba156	3.2727453e-06
101	0x34a1987b	3.009953e-07
102	0x3696f184	4.4984645e-06
103	0x35236b3d	6.0878284e-07
104	0x3519d49a	5.730632e-07
105	0x35645a44	8.506797e-07
106	0x369dc0da	4.7014155e-06
107	0x347ba673	2.343675e-07
108	0x36af47dc	5.223772e-06
109	0x364621ec	2.9524044e-06
110	0x362b9c11	2.5571828e-06
111	0x357efed7	9.4993214e-07
112	0x36268332	2.4812293e-06
113	0x35d3c4e7	1.5778031e-06
114	0x368d360c	4.2084193e-06
115	0x35c73a98	1.4843708e-06
116	0x365a5c8f	3.2538408e-06
117	0x36950140	4.4406916e-06
118	0x36614da8	3.3572815e-06
119	0x35f7951b	1.844633e-06
120	0x359c3cb2	1.164057e-06
121	0x34cebfbf	3.8510004e-07
122	0x368fc612	4.2847905e-06
123	0x35409386	7.174025e-07
124	0x35515758	7.798567e-07
125	0x3629187f	2.519722e-06
126	0x36436cf1	2.9120677e-06
127	0x369f1010	4.740439e-06
128	0x3697a69c	4.5195466e-06
129	0x3695d2b4	4.465075e-06
130	0x35f84b07	1.8499276e-06
131	0x3685eba7	3.9911424e-06
132	0x36af5976	5.225821e-06
133	0x369a7049	4.6026294e-06
134	0x362c7068	2.5695426e-06
135	0x341e78b8	1.4758814e-07
136	0x355552c3	7.946912e-07
137	0x35592f1c	8.090735e-07
138	0x34d9a595	4.0539877e-07
139	0x3689b0d8	4.1035055e-06
140	0x35e8abd4	1.7335356e-06
141	0x362442c6	2.4476772e-06
142	0x352607ee	6.185136e-07
143	0x35e4421a	1.7006562e-06
144	0x37141669	8.826705e-06
145	0x3778d3a6	1.483123e-05
146	0x36b17bb9	5.2894143e-06
147	0x341eccdf	1.4789428e-07
148	0x36893150	4.088659e-06
149	0x37631de4	1.3537214e-05
150	0x37275fc0	9.976269e-06
151	0x368544bb	3.97171e-06
152	0x37473b3e	1.1875118e-05
153	0x35fb1461	1.8706888e-06
154	0x35dd88fd	1.6505652e-06
155	0x3739bc39	1.1070683e-05
156	0x37497bf0	1.200939e-05
157	0x3783feca	1.5735062e-05
158	0x36b5aedf	5.414578e-06
159	0x378cbc6b	1.677704e-05
160	0x3786baeb	1.6061085e-05
161	0x37125af0	8.723451e-06
162	0x36e896f0	6.9317102e-06
163	0x3604c5c6	1.9784652e-06
164	0x34137a90	1.373503e-07
165	0x36524c71	3.1336933e-06
166	0x3768fd15	1.3887203e-05
167	0x371c18a4	9.304062e-06
168	0x3781b8d3	1.5464064e-05
169	0x370266aa	7.772507e-06
170	0x375a2691	1.3002792e-05
171	0x3783fe6e	1.5734895e-05
172	0x35cc68f6	1.5229732e-06
173	0x36bccd3f	5.6267304e-06
174	0x3767d185	1.38174555e-05
175	0x36d8605d	6.44852e-06
176	0x36e64440	6.8624795e-06
177	0x374df275	1.2275404e-05
178	0x3770cdc9	1.4353028e-05
179	0x37701722	1.4310501e-05
180	0x37396ffd	1.1052934e-05
181	0x368110bc	3.8464477e-06
182	0x36adc1d9	5.1783686e-06
183	0x36acfc31	5.1553584e-06
184	0x37800923	1.5263044e-05
185	0x358250a8	9.709229e-07
186	0x36fb9801	7.4980785e-06
187	0x354dbdc6	7.664461e-07
188	0x36b4e045	5.3905264e-06
189	0x379956bd	1.8279412e-05
190	0x35c6ff43	1.482644e-06
191	0x36d484c3	6.333548e-06
192	0x385345f5	5.0371473e-05
193	0x38986c76	7.268127e-05
194	0x388de344	6.7657355e-05
195	0x3896bbc0	7.1875285e-05
196	0x3834624b	4.3006887e-05
197	0x387bd72d	6.004346e-05
198	0x3740449b	1.1460065e-05
199	0x3835debc	4.33612e-05
200	0x387e67d0	6.0655002e-05
201	0x3804fa33	3.170427e-05
202	0x384df78d	4.910636e-05
203	0x371107f7	8.644528e-06
204	0x380417a6	3.1493277e-05
205	0x3879500b	5.9440772e-05
206	0x384a4efd	4.8234117e-05
207	0x3754d428	1.2685581e-05
208	0x38808fc0	6.130291e-05
209	0x38613e46	5.3702177e-05
210	0x37bd12a6	2.253924e-05
211	0x384f3dc8	4.9410184e-05
212	0x37224658	9.672331e-06
213	0x373000b4	1.0490581e-05
214	0x37af1576	2.087162e-05
215	0x38150aba	3.5534358e-05
216	0x386fbaee	5.7156132e-05
217	0x37f7109e	2.9452432e-05
218	0x384ff3c2	4.9579663e-05
219	0x38826314	6.217338e-05
220	0x37a4574f	1.959098e-05
221	0x377ed8b1	1.5190032e-05
222	0x36d878d6	6.451369e-06
223	0x380ff3a2	3.4320758e-05
224	0x378c4926	1.6723363e-05
225	0x35c2bbf5	1.4508829e-06
226	0x37cf72ce	2.4729783e-05
227	0x383a0768	4.4352753e-05
228	0x3806eba3	3.2167543e-05
229	0x3772518f	1.4443313e-05
230	0x3720fe3e	9.5959385e-06
231	0x376975cc	1.3915309e-05
232	0x369e491d	4.7172784e-06
233	0x370ed6d8	8.513882e-06
234	0x36d5fe83	6.3775237e-06
235	0x37611451	1.3415775e-05
236	0x384e6f8a	4.9218106e-05
237	0x37c0ac2a	2.2968354e-05
238	0x36ce3f1e	6.146626e-06
239	0x36aafd9f	5.09592e-06
240	0x36b813a3	5.4859133e-06
241	0x36a16d26	4.8108805e-06
242	0x355bd3af	8.18919e-07
243	0x34a2c1b3	3.0315786e-07
244	0x3398e64d	7.119943e-08
245	0x3631f23a	2.651605e-06
246	0x366ef8fd	3.5609694e-06
247	0x335afc12	5.0986337e-08
248	0x36958b5c	4.4567696e-06
249	0x36a60dec	4.9488062e-06
250	0x365c9aa1	3.287256e-06
251	0x3707d5ba	8.096389e-06
252	0x364e3e22	3.0732558e-06
253	0x35b9de45	1.3848263e-06
254	0x36a8e3f6	5.0333283e-06
255	0x36576c1f	3.2100431e-06

exp_avg f4 [128]
0	0xb93cceed	-0.00018006163
1	0x398316ae	0.00025003165
2	0xb9469e4c	-0.00018941722
3	0x399bf65d	0.0002974746
4	0xba251614	-0.00062975404
5	0x39a3dbc4	0.0003125352
6	0xb92f99ea	-0.00016746638
7	0x3985a407	0.00025489947
8	0xb9f779f2	-0.00047202368
9	0x39ee7427	0.00045481438
10	0x39c12405	0.00036838665
11	0x3a0a8b7b	0.00052850664
12	0xb968a0da	-0.00022185166
13	0xb9c7a725	-0.0003808077
14	0xb9def8b4	-0.00042528438
15	0x39a56a02	0.00031550234
16	0xb8ba018d	-8.86946e-05
17	0xb9fb7750	-0.00047963345
18	0x3a0fa2a8	0.0005479255
19	0xba010f0e	-0.0004923203
20	0xb9902652	-0.0002749437
21	0xb98e0f6f	-0.0002709585
22	0xb9d9a39f	-0.00041511373
23	0xb9ce668f	-0.00039367794
24	0x39e3d53f	0.00043455695
25	0xb92155d1	-0.00015386126
26	0xb9c50ea0	-0.00037585665
27	0xb90a4e2e	-0.0001318983
28	0xb9a916b1	-0.00032251098
29	0x39a31742	0.0003110711
30	0x3a3fb8a5	0.0007313586
31	0x3a02373c	0.0004967337
32	0x39c59d25	0.0003769185
33	0x39cc4b4a	0.00038966007
34	0xb9e6f910	-0.00044054585
35	0x39e799fc	0.0004417448
36	0x39c189d7	0.00036914527
37	0xb984dfa6	-0.00025343633
38	0x3a070517	0.00051506
39	0xba0d3ee2	-0.00053880934
40	0x3991192e	0.00027675316
41	0x39a2caa2	0.0003105002
42	0xb9f5cb3d	-0.00046881466
43	0xb9c8cbf7	-0.00038298938
44	0x39d9cdf5	0.00041542915
45	0xb95faa9b	-0.00021330493
46	0x39bd23b4	0.0003607549
47	0xb9e13678	-0.00042955927
48	0x3a5ab87f	0.0008343532
49	0x39cdc6c8	0.0003924875
50	0xb9dc5554	-0.00042025244
51	0x397497dd	0.00023326227
52	0x39d5da4f	0.00040789178
53	0x39ca904d	0.00038635955
54	0xb9c7dcaf	-0.0003812066
55	0xb901ac13	-0.00012366501
56	0x3a08b9b6	0.00052156614
57	0x39b652fa	0.00034775567
58	0x39d31489	0.00040260356
59	0xb9ebc268	-0.00044967537
60	0x3985d9fe	0.00025530154
61	0x39b659f1	0.00034780757
62	0xb95f30cd	-0.00021285117
63	0x399da947	0.00030071495
64	0xba24ad9a	-0.0006281972
65	0x39fd491d	0.00048310394
66	0x39e65ac8	0.00043936656
67	0x39589cff	0.00020657851
68	0x3978860b	0.00023701058
69	0xba5f702d	-0.00085234904
70	0xb9b30f45	-0.00034152917
71	0xba10c970	-0.00055231806
72	0x39c69747	0.00037878213
73	0x3a0836fe	0.0005196183
74	0xba2fe01a	-0.0006709114
75	0xb9b67f05	-0.00034808382
76	0xba81361a	-0.0009858042
77	0x39b4901a	0.0003443964
78	0x39b65959	0.00034780314
79	0x3a06ab36	0.0005137207
80	0xb9b0fef4	-0.0003375929
81	0xb9b7ed29	-0.00035081178
82	0x39dc5a15	0.00042028786
83	0x39e5f1da	0.00043858477
84	0xb9e7f5ab	-0.0004424279
85	0xb9b50cd5	-0.0003453257
86	0xb98cef7f	-0.0002688132
87	0xba5cbb3f	-0.0008420236
88	0x39b2f45f	0.00034132876
89	0xb9b37dac	-0.00034235173
90	0xb970f8f3	-0.00022980924
91	0xb9303495	-0.00016804256
92	0xb9928137	-0.00027943563
93	0xb9f15cff	-0.0004603639
94	0x39ced235	0.00039447998
95	0x39ac7f3f	0.00032901202
96	0xb9bc6e3d	-0.00035940288
97	0xb9ebbced	-0.00044963454
98	0xb980f758	-0.00024598348
99	0x3a09b069	0.00052524224
100	0x39b0e9e9	0.00033743613
101	0xb9a3d711	-0.0003125002
102	0xb9d1e63a	-0.0004003512
103	0x3a10b78b	0.0005520514
104	0xb9c44dc7	-0.00037441982
105	0xb9db7405	-0.00041857376
106	0xb9cdea20	-0.00039275084
107	0x3a048263	0.00050548295
108	0x39c10a29	0.00036819399
109	0x39a110a6	0.00030720717
110	0x398abdca	0.00026462815
111	0xb70cea07	-8.399139e-06
112	0xb95a3aaa	-0.00020811954
113	0x3a0b403e	0.0005312002
114	0xb9a37dd7	-0.0003118354
115	0xb90f821f	-0.00013686017
116	0x39a5fb7a	0.00031658617
117	0x39e7011d	0.00044060583
118	0xb9a861ad	-0.0003211623
119	0x39da3510	0.00041619735
120	0xb9a24082	-0.0003094711
121	0x39c96787	0.0003841484
122	0x39d11472	0.0003987882
123	0xb9cab7d8	-0.00038665417
124	0xb9cd1aac	-0.0003912052
125	0xba145569	-0.0005658479
126	0x39fd5b3b	0.00048323892
127	0x39b06ce7	0.00033650475

exp_avg_sq f4 [128]
0	0x3818c342	3.6421472e-05
1	0x38b146d6	8.453212e-05
2	0x37cc6c87	2.4369232e-05
3	0x38b4a033	8.612908e-05
4	0x39b9991b	0.00035400022
5	0x38257cb9	3.9455223e-05
6	0x37b88db5	2.2000497e-05
7	0x3841ee9a	4.6237e-05
8	0x395f4adf	0.00021294829
9	0x39135696	0.00014051268
10	0x3908fe5b	0.00013064725
11	0x399dc5a1	0.00030092619
12	0x38024e7f	3.106752e-05
13	0x392b2cb8	0.0001632449
14	0x39519800	0.00019988418
15	0x389935e2	7.305645e-05
16	0x3795869a	1.7824863e-05
17	0x398c7da5	0.00026796493
18	0x39b8cfbb	0.00035249986
19	0x3960a1b6	0.00021422547
20	0x388f3153	6.827959e-05
21	0x3897261c	7.2073395e-05
22	0x392e63e9	0.00016631153
23	0x395cc503	0.00021054228
24	0x3950b4eb	0.00019903823
25	0x379c3021	1.8619061e-05
26	0x38ff2df1	0.00012167905
27	0x37c54051	2.351418e-05
28	0x38ea966e	0.00011186009
29	0x389bcc4b	7.4290285e-05
30	0x3a3c6611	0.000718684
31	0x399c5a77	0.0002982204
32	0x392b9676	0.00016363882
33	0x3930670a	0.00016823053
34	0x39793a1e	0.00023768141
35	0x391f5f4a	0.0001519892
36	0x39020479	0.00012399432
37	0x388a3ec2	6.592042e-05
38	0x39611784	0.00021466432
39	0x39c45a08	0.00037451112
40	0x390fabf8	0.00013701606
41	0x38a30c93	7.774788e-05
42	0x399cf1bd	0.00029934748
43	0x390f5498	0.00013669056
44	0x3913b8b3	0.00014087818
45	0x3822ce06	3.8815684e-05
46	0x39227a54	0.00015495095
47	0x394d7dbd	0.00019597165
48	0x3a4798ec	0.00076140347
49	0x393fa09f	0.00018275015
50	0x393f8f76	0.00018268623
51	0x380ca767	3.3534507e-05
52	0x3910cad4	0.0001380847
53	0x391a2e72	0.00014703887
54	0x38dd1e4f	0.000105437466
55	0x37d4d64e	2.5372163e-05
56	0x395e82ec	0.00021220342
57	0x38ebdbb5	0.00011246597
58	0x394f0daa	0.00019746149
59	0x39637af7	0.00021694215
60	0x38403669	4.582704e-05
61	0x39233b9e	0.000155671
62	0x382e71ef	4.159094e-05
63	0x38b6e293	8.720639e-05
64	0x39f486ff	0.00046639887
65	0x399aad47	0.0002950227
66	0x397a48e5	0.00023869013
67	0x388f5a1e	6.835557e-05
68	0x3802f98f	3.1226835e-05
69	0x3a210593	0.0006142493
70	0x38cbc973	9.717317e-05
71	0x39d35bae	0.00040313363
72	0x38f97e6a	0.00011896792
73	0x39779a46	0.00023613227
74	0x3a05dbe6	0.0005106315
75	0x3913401b	0.00014042894
76	0x3aacddbf	0.0013188644
77	0x39055ab1	0.00012717654
78	0x3908aaf4	0.00013033656
79	0x398556f3	0.0002543252
80	0x3908e7d5	0.00013056335
81	0x39088f1e	0.00013023286
82	0x3978e00e	0.0002373459
83	0x39479ee4	0.0001903731
84	0x39a79b44	0.00031968404
85	0x38daa154	0.000104251
86	0x38e51728	0.00010923884
87	0x3a68501f	0.00088620366
88	0x38b5caab	8.6685024e-05
89	0x391eaed3	0.00015133181
90	0x388f2ece	6.8274894e-05
91	0x37842ff3	1.5757954e-05
92	0x38e02501	0.00010688045
93	0x394afc6f	0.0001935826
94	0x3928e783	0.00016107973
95	0x38fd562c	0.00012080031
96	0x3904fb64	0.00012682151
97	0x390c1758	0.00013360137
98	0x38429ebf	4.6401048e-05
99	0x3965eaa3	0.00021926551
100	0x38bfaf1a	9.140205e-05
101	0x389d7801	7.508696e-05
102	0x39485039	0.00019103372
103	0x39af6ce0	0.0003345972
104	0x397779f5	0.00023601188
105	0x390eef06	0.00013631218
106	0x39156c8f	0.00014250189
107	0x398aa6dd	0.00026445734
108	0x3934a091	0.00017225953
109	0x38a502d8	7.868343e-05
110	0x3890116c	6.8697e-05
111	0x328711d4	1.5724176e-08
112	0x38324078	4.249855e-05
113	0x3989af23	0.00026261163
114	0x3913fe8e	0.00014113841
115	0x37bf0d15	2.2775066e-05
116	0x38bc1058	8.967583e-05
117	0x391194ba	0.00013883683
118	0x390796aa	0.0001293073
119	0x391a3c12	0.00014708962
120	0x38c20f98	9.2535454e-05
121	0x3916d791	0.0001438542
122	0x39164327	0.00014330131
123	0x3936055e	0.00017358872
124	0x394793ca	0.00019033175
125	0x39dbe355	0.0004194031
126	0x396d434e	0.00022627154
127	0x39045cf2	0.00012623126

exp_avg f4 [32, 128]
0	0xb884ca04	-6.331879e-05
1	0x3792db6b	1.750673e-05
2	0x37b59555	2.164642e-05
3	0xb898fb63	-7.294749e-05
4	0xb385e0d2	-6.23419e-08
5	0x37fd6d77	3.0210924e-05
6	0xb9396c57	-0.00017683335
7	0x39906560	0.0002754135
8	0x38900a3f	6.8683636e-05
9	0xb70080ee	-7.659413e-06
10	0xb83815f9	-4.3889482e-05
11	0xb8849a82	-6.32303e-05
12	0xb8caa6cd	-9.66318e-05
13	0xb6c10f33	-5.7536176e-06
14	0xb8cb280f	-9.687256e-05
15	0xb8a673bc	-7.937054e-05
16	0x38a3ab8e	7.8044e-05
17	0xb91fcd58	-0.00015239918
18	0xb8f232cb	-0.0001154892
19	0xb89d2de5	-7.494892e-05
20	0x3986e406	0.00025728362
21	0xb93f1889	-0.0001822432
22	0xb80153ac	-3.0833922e-05
23	0x38e16b98	0.00010748877
24	0x391f84c0	0.00015212875
25	0x379ba249	1.855301e-05
26	0x382b3798	4.0821353e-05
27	0x37b4f3bd	2.1571172e-05
28	0x3909d42d	0.0001314438
29	0xb6e9ff33	-6.97365e-06
30	0x3905134e	0.0001269106
31	0x395f806d	0.0002131478
32	0x36b633ed	5.4300676e-06
33	0xb8fb03b0	-0.000119692995
34	0xb9316348	-0.0001691702
35	0x37ad592b	2.066473e-05
36	0x3883fc30	6.29354e-05
37	0x385c010a	5.2453055e-05
38	0x3883f0ab	6.291395e-05
39	0x37268ae6	9.926711e-06
40	0x38812a51	6.1590814e-05
41	0xb8848906	-6.319773e-05
42	0x3887e82a	6.4805456e-05
43	0x3872b010	5.7861267e-05
44	0x382b7f08	4.0887884e-05
45	0xb8fb5092	-0.0001198362
46	0xb7920685	-1.7407592e-05
47	0x37804679	1.5291605e-05
48	0xb8ffe261	-0.00012201514
49	0x388cf88e	6.722017e-05
50	0x391b2660	0.00014796248
51	0x38ffc717	0.00012196431
52	0x395eb7d0	0.00021240045
53	0xb9681827	-0.00022134242
54	0x39596fb6	0.00020736348
55	0x3691803d	4.3362656e-06
56	0xb91f83cc	-0.0001521252
57	0xb8fba97b	-0.00012000181
58	0x382b8ac8	4.0898827e-05
59	0xb924a744	-0.0001570257
60	0xb876c0d0	-5.883054e-05
61	0x38b7c381	8.7625354e-05
62	0x375eaf46	1.327304e-05
63	0xb8d5b841	-0.000101909514
64	0x38b60928	8.680142e-05
65	0x38dd506c	0.00010553081
66	0xb825c6f0	-3.952434e-05
67	0xb86adb84	-5.5994387e-05
68	0xb7b77be5	-2.1872993e-05
69	0x3959819c	0.00020743016
70	0xb9248655	-0.00015690301
71	0xb8932b34	-7.0175534e-05
72	0xb93c8383	-0.00017978069
73	0x380fe3b4	3.4305922e-05
74	0x38722a88	5.7736906e-05
75	0xb924a614	-0.00015702128
76	0xb8a64338	-7.928017e-05
77	0x391f74c9	0.00015206927
78	0xb93efdc8	-0.00018214353
79	0xb915556f	-0.00014241574
80	0x38740d7e	5.81867e-05
81	0xb71d30a2	-9.369252e-06
82	0x37ac843b	2.0565572e-05
83	0x3844d0d4	4.6924528e-05
84	0x387af76d	5.9835078e-05
85	0xb8d528e8	-0.00010164251
86	0xb8c922fc	-9.590943e-05
87	0xb7b78699	-2.1877977e-05
88	0xb8dc85d9	-0.000105153485
89	0x381a33a2	3.6764548e-05
90	0x3986e033	0.00025725513
91	0xb88476c1	-6.31637e-05
92	0xb8b00db9	-8.39489e-05
93	0xb7f28d09	-2.8914323e-05
94	0xb917e57c	-0.00014485972
95	0x3914c81d	0.00014188928
96	0x38aa4565	8.1191574e-05
97	0x3930f668	0.00016876461
98	0x388f7de0	6.8422174e-05
99	0x391720af	0.00014412658
100	0xb81ac630	-3.6901038e-05
101	0x37f86cd7	2.9614586e-05
102	0x37e84e17	2.7692919e-05
103	0xb837c268	-4.3811655e-05
104	0xb8b73185	-8.735344e-05
105	0xb88491c9	-6.321405e-05
106	0xb9450887	-0.0001879056
107	0xb6ee05a3	-7.093609e-06
108	0x38c48c3c	9.372129e-05
109	0x38aa3c78	8.117495e-05
110	0xb86b4790	-5.6095014e-05
111	0xb899ae55	-7.3280804e-05
112	0xb90d5575	-0.00013478643
113	0xb8e04a76	-0.00010695022
114	0x3890cc65	6.9045265e-05
115	0x36b4a3f3	5.3835042e-06
116	0xb8c54b7e	-9.4077535e-05
117	0x39330f7a	0.00017076536
118	0xb8663a03	-5.48903e-05
119	0x37b52be9	2.1597329e-05
120	0x38032202	3.1264506e-05
121	0x34e335cc	4.2321187e-07
122	0x3909e93c	0.00013152225
123	0x38ae1920	8.3016464e-05
124	0x37d65a6f	2.55529e-05
125	0x36b54e6d	5.4033503e-06
126	0x394c76db	0.00019499233
127	0xb8c40389	-9.346667e-05
128	0x38f9fcec	0.000119203556
129	0x37053ad6	7.941117e-06
130	0xb8c4004e	-9.346065e-05
131	0xb8922edf	-6.970553e-05
132	0xb967b2b2	-0.00022096446
133	0xb8fa91d7	-0.00011948094
134	0xb7c9636f	-2.400737e-05
135	0xb9562477	-0.00020422215
136	0x3638d0c6	2.7539659e-06
137	0x3872eb5c	5.791649e-05
138	0x37db9127	2.6174426e-05
139	0xb8dd5c17	-0.00010555254
140	0xb8d776cf	-0.00010274129
141	0x39071c06	0.00012885043
142	0xb8dba2ca	-0.000104730556
143	0x38dcee12	0.000105347615
144	0x38c3eb83	9.342192e-05
145	0x38390d14	4.4119617e-05
146	0xb8df17de	-0.00010637914
147	0x38e50d31	0.00010922028
148	0xb904ef8a	-0.00012677736
149	0x382e069c	4.149099e-05
150	0x383a4b9f	4.4416283e-05
151	0xb780cd75	-1.5354462e-05
152	0x38b68c27	8.704542e-05
153	0x394f6c03	0.00019781296
154	0x37af5fd4	2.090625e-05
155	0x37d22729	2.5052186e-05
156	0x396f6e66	0.00022833943
157	0xb92409f2	-0.00015643964
158	0xb890aa62	-6.898191e-05
159	0x3892ff4e	7.009377e-05
160	0x38a6615c	7.9336314e-05
161	0x39481ec8	0.00019084953
162	0x392473b6	0.00015683364
163	0xb8b62e01	-8.687005e-05
164	0xb9150159	-0.0001421025
165	0xb903405a	-0.00012517106
166	0x37b39835	2.140934e-05
167	0x3924a5a5	0.00015701966
168	0xb81d9e66	-3.7579237e-05
169	0xb82b2529	-4.0804185e-05
170	0x3811b8fb	3.474297e-05
171	0xb927acae	-0.0001599069
172	0xb82a7f40	-4.064967e-05
173	0x3908112e	0.0001297637
174	0xb6aa5803	-5.0766407e-06
175	0x3924a4ce	0.00015701653
176	0x3548f04c	7.4855484e-07
177	0xb9278420	-0.00015975581
178	0xb8699455	-5.5689674e-05
179	0x37993eee	1.8268325e-05
180	0xb8c2fe2a	-9.2979826e-05
181	0xb98ff799	-0.0002745956
182	0xb701543b	-7.708611e-06
183	0xb8ab6f23	-8.174616e-05
184	0xb92ac8b5	-0.00016287233
185	0x384fb4e0	4.95211e-05
186	0xb4c4caff	-3.6655544e-07
187	0xb91fc235	-0.0001523577
188	0x38af463c	8.3577324e-05
189	0x37cd93ca	2.4506724e-05
190	0x38c97fee	9.608256e-05
191	0xb8db6243	-0.000104610364
192	0x37b80f67	2.1941682e-05
193	0x38b7ae03	8.758532e-05
194	0xb939a7e8	-0.00017705525
195	0xb8b595ab	-8.6586304e-05
196	0xb7fbdd29	-3.0024517e-05
197	0x37983b84	1.8147526e-05
198	0xb8312307	-4.223271e-05
199	0xb8903e05	-6.878007e-05
200	0x382d7795	4.1357784e-05
201	0x370f21da	8.531346e-06
202	0xb8f9ccc5	-0.000119113865
203	0xb8be9d99	-9.089261e-05
204	0xb92a895e	-0.00016263637
205	0x386cfb27	5.650069e-05
206	0xb8f9d653	-0.00011913166
207	0xb8837725	-6.268759e-05
208	0x3884ed4b	6.33845e-05
209	0x39108aaf	0.00013784574
210	0x36c97866	6.004283e-06
211	0xb923f411	-0.00015635813
212	0xb7386dc8	-1.0992815e-05
213	0xb883f611	-6.2924e-05
214	0xb80e0ee0	-3.386929e-05
215	0x37ff963f	3.0468333e-05
216	0x396a4aa5	0.00022343786
217	0x38120324	3.4812037e-05
218	0xb923fa19	-0.0001563806
219	0x39195225	0.00014621818
220	0xb8a9da85	-8.0992504e-05
221	0x374419a2	1.16884785e-05
222	0xb8afa70e	-8.3757666e-05
223	0x382e5275	4.1561627e-05
224	0xb9241e51	-0.00015651553
225	0x395a1436	0.00020797629
226	0xb6a604ba	-4.9477358e-06
227	0xb80a84d8	-3.3025484e-05
228	0x3884f42e	6.3397325e-05
229	0x38e64a52	0.00010981098
230	0xb8e667c8	-0.000109865854
231	0x3917f425	0.00014491433
232	0x38d9854f	0.00010372197
233	0xb982f729	-0.0002497968
234	0xb898235c	-7.254511e-05
235	0xb8f9d85f	-0.000119135475
236	0xb8a47028	-7.84102e-05
237	0x3870a2a6	5.7371937e-05
238	0x38db9f76	0.00010472436
239	0xb7b6fd8b	-2.1814156e-05
240	0xb798a63e	-1.8197225e-05
241	0x382d5370	4.132412e-05
242	0xb882db9c	-6.2397885e-05
243	0xb76222cb	-1.3478751e-05
244	0x39408745	0.00018360939
245	0xb7b40d3d	-2.1463837e-05
246	0x371a072e	9.180787e-06
247	0xb8dda982	-0.000105696745
248	0xb8dbbe81	-0.00010478218
249	0xb8db9109	-0.00010469749
250	0x3850f978	4.98234e-05
251	0xb82f4376	-4.178608e-05
252	0xb87d63e0	-6.0412916e-05
253	0xb919e843	-0.00014677741
254	0x38f18f12	0.000115184244
255	0xb9147116	-0.00014156508
