our-vTR/10_fold_lightning_logs/dataset1/fold_6/version_0/checkpoints/epoch=29-step=1049_fold6.ckpt (torch, 132433 bytes, 18 tensors)

conv1d.weight f4 [128, 4, 12]
0.08497053 -0.094870076 -0.30992544 0.21897477 0.0774327 0.010614135 0.10828882 -0.3242659
-0.19445759 0.027454678 0.03546371 -0.15638342 0.07385963 -0.04600044 -0.1908605 0.046535466
-0.031891454 -0.07761472 -0.114646725 -0.16752818 0.17357072 -0.27339086 -0.16216801 -0.11316549
-0.38536513 0.08212472 0.15331963 -0.26764634 -0.03698423 -0.07199894 0.020199489 0.19809069
-0.061903458 -0.15816481 0.02931503 0.078412645 0.0935134 -0.21849555 -0.3361788 -0.22573519
-0.26262182 0.06912972 -0.02998887 -0.24940297 0.13075724 0.057723224 0.0013116763 -0.14384212
-0.051200513 0.051821105 -0.27380952 0.035518564 -0.16760907 0.075694844 -0.11344758 -0.21172725
-0.11002134 -0.1853809 -0.28345212 -0.04777638 0.08116316 -0.021240694 -0.0012783479 -0.101682164
-0.072617024 -0.011015791 0.074653745 0.03784528 -0.13263458 0.09054639 -0.0024978751 -0.02481373
-0.056628227 0.07421912 0.023328898 0.091527775 -0.12454057 0.012059321 -0.1940908 -0.13360262
-0.32388055 -0.23950225 -0.013303535 0.10329429 0.005031897 0.051409934 -0.2984966 -0.10550797
-0.030141464 0.07537964 -0.1764856 0.06949376 0.13578387 -0.21017513 -0.10076723 0.030048754
-0.03500664 -0.14812998 0.1427155 -0.07849168 0.044729106 0.113507316 -0.13157788 -0.13409238
0.02318256 -0.22087605 -0.092645355 -0.38001055 -0.20933923 -0.0023070695 -0.21633205 -0.08295806
0.08051391 0.16918921 -0.11295201 -0.2418656 -0.069718644 -0.116930775 -0.36818284 -0.17872946
0.07659356 0.09761201 -0.163272 0.14892268 0.15501513 -0.03453058 -0.27383628 0.12215539
-0.07255052 0.112601355 -0.34537545 0.26503533 0.022800477 -0.114447415 0.092512324 -0.051955413
0.025692789 -0.2561076 0.14567555 -0.02351631 0.22353101 -0.072682954 0.20598052 -0.02011383
-0.19334449 -0.061375566 0.12192987 0.054320753 0.18730372 -0.34707302 -0.08767874 -0.2727942
-0.16870324 -0.305873 -0.051403824 0.05414025 0.038878 0.035719305 -0.21445443 0.037908997
-0.36999106 0.25569132 0.005232802 0.09290025 -0.40314794 -0.050205395 -0.3682215 -0.09118625
-0.033237133 0.12149665 0.1483868 -0.22966176 -0.3623054 -0.23863204 -0.33371678 -0.3390526
-0.30205587 -0.2033065 0.18585324 -0.09519167 -0.041669875 0.045338813 -0.25455388 -0.014836573
-0.119579524 -0.31848428 0.093847886 -0.08786392 0.21981466 0.0640715 0.0015857295 -0.2227175
-0.22893552 -0.010622649 0.09491932 -0.035070267 0.16820216 0.10061811 0.13534342 -0.115414456
0.026637737 0.083701886 -0.18890303 -0.08351342 0.20713899 -0.007204452 -0.1430131 -0.075253546
-0.1607224 0.067474045 -0.20445493 0.18111284 0.2129005 0.044426434 0.10065717 -0.030558398
-0.17379491 -0.17799185 0.007892028 0.223216 0.109445505 0.10549179 -0.16966675 -0.07190066
-0.17985989 -0.18201469 -0.15512998 -0.005303095 -0.13284284 -0.13711675 -0.2651585 -0.09357178
-0.076888464 -0.37603924 -0.2692456 -0.35167116 -0.07895839 -0.15237644 -0.079380706 0.2277644
0.14253502 -0.11839416 0.021656461 -0.03927466 -0.1342736 0.107848376 -0.115788236 0.021695644
0.15898591 0.024703814 0.0013659927 0.14217241 -0.036471523 -0.05461477 0.15341237 0.089712
00000000: 0705 ae3d 3e4b c2bd 8cae 9ebe ec3a 603e
00000010: 0995 9e3d e9e6 2d3c 87c6 dd3d 2e06 a6be
00000020: e41f 47be a2e8 e03c 6542 113d fa22 20be
00000030: b843 973d f56a 3cbd ef70 43be f99b 3e3d
00000040: 9da0 02bd 77f4 9ebd e7cb eabd 828c 2bbe
00000050: 86bc 313e e3f9 8bbe 5f0f 26be 4fc3 e7bd
00000060: 944e c5be 0131 a83d d2ff 1c3e f108 89be
00000070: c77c 17bd 2e74 93bd 6679 a53c 49d8 4a3e
00000080: 7b8e 7dbd f5f5 21be 1326 f03c cf96 a03d
00000090: f483 bf3d 4cbd 5fbe a11f acbe 2027 67be
000000a0: 5e76 86be e293 8d3d 38ab f5bc 7e63 7fbe
000000b0: 3ae5 053e 306f 6c3d 8eec ab3a 594b 13be
000000c0: a1b7 51bd 5e42 543d c330 8cbe ea7b 113d
000000d0: b6a1 2bbe e605 9b3d 3457 e8bd 07cf 58be
000000e0: de52 e1bd 7ed4 3dbe a320 91be 2ab1 43bd
000000f0: df38 a63d f700 aebc 3d8e a7ba bd3e d0bd
00000100: 3cb8 94bd 947b 34bc 10e4 983d a703 1b3d
00000110: 5cd1 07be 6370 b93d 64b3 23bb 2a46 cbbc
00000120: 00f3 67bd 3200 983d 3f1c bf3c ea72 bb3d
00000130: 200f ffbd 7594 453c bdbf 46be 20cf 08be
00000140: acd3 a5be 1440 75be 12f7 59bc f58b d33d
00000150: 9de2 a43b 3993 523d 8cd4 98be 9014 d8bd
00000160: 3beb f6bc a460 9a3d a4b8 34be bf52 8e3d
00000170: ed0a 0b3e 2638 57be 0d5f cebd ce28 f63c
00000180: 1f63 0fbd 63af 17be 0324 123e 3fc0 a0bd
00000190: de35 373d 8676 e83d 5abc 06be 834f 09be
000001a0: 5ae9 bd3c 552d 62be d9bc bdbd be90 c2be
000001b0: 065d 56be 3432 17bb 2686 5dbe eae5 a9bd
000001c0: 7ae4 a43d f03f 2d3e 6253 e7bd 9eab 77be
000001d0: a6c8 8ebd 6779 efbd 7682 bcbe db04 37be
000001e0: 16dd 9c3d cee8 c73d c630 27be 307f 183e
000001f0: 49bc 1e3e f06f 0dbd 4534 8cbe 9b2c fa3d
00000200: 5e95 94bd 8a9b e63d 0dd5 b0be b6b2 873e
00000210: 11c8 ba3c 6863 eabd 1a77 bd3d 33cf 54bd
00000220: af79 d23c 8920 83be f92b 153e 47a5 c0bc
00000230: 50e5 643e cdda 94bd 8fec 523e c2c5 a4bc
00000240: 19fc 45be f264 7bbd 5eb6 f93d 707f 5e3d
00000250: 8ccc 3f3e 8eb3 b1be e990 b3bd aeab 8bbe
00000260: 8bc0 2cbe 639b 9cbe d18c 52bd 2bc2 5d3d
00000270: 8a3e 1f3d 684e 123d f199 5bbe 7746 1b3d
00000280: 786f bdbe f9e9 823e ed77 ab3b 7c42 be3d
00000290: 6869 cebe 2ca4 4dbd 8787 bcbe dbbf babd
000002a0: a923 08bd 3cd3 f83d b6f2 173e 742c 6bbe
000002b0: 1880 b9be f55b 74be eddc aabe 4d98 adbe
000002c0: 11a7 9abe 942f 50be 5050 3e3e daf3 c2bd
000002d0: 08ae 2abd 31b5 393d e354 82be 1915 73bc
000002e0: 1ce6 f4bd 5f10 a3be 5233 c03d 00f2 b3bd
000002f0: 1817 613e eb37 833d 41d8 cf3a 0e10 64be
00000300: 136e 6abe 9f0a 2ebc 0f65 c23d d7a5 0fbd
00000310: 303d 2c3e de10 ce3d 7797 0a3e 6a5e ecbd
00000320: 6237 da3c e56b ab3d cc6f 41be 1509 abbd
00000330: 3e1c 543e 5313 ecbb 0772 12be 881e 9abd
00000340: 6a94 24be d52f 8a3d a25c 51be a575 393e
00000350: 9702 5a3e 7ef8 353d 5925 ce3d 9b55 fabc
00000360: 4bf7 31be 7f43 36be 914d 013c bc92 643e
00000370: f724 e03d 140c d83d 1fbd 2dbe a740 93bd
00000380: 312d 38be 0f62 3abe 65da 1ebe 96c5 adbb
00000390: f407 08be 5568 0cbe dbc2 87be 90a2 bfbd
000003a0: b377 9dbd 3788 c0be 8fda 89be 3e0e b4be
000003b0: f0b4 a1bd 9208 1cbe 5a92 a2bd 123b 693e
000003c0: b3f4 113e a378 f2bd e468 b13c 77de 20bd
000003d0: 057f 09be 9cdf dc3d 6222 edbd 10bb b13c
000003e0: 34cd 223e a75f ca3c 1c0b b33a a595 113e
000003f0: 2a63 15bd bdb3 5fbd 2218 1d3e edba b73d

conv1d.bias f4 [128]
-0.13654156 -0.078595206 -0.053412966 0.022081597 -0.032705877 0.0018891965 -0.09293119 0.09656121
0.04458286 -0.025260806 0.0051241335 0.058176942 0.12687825 -0.021447225 0.06733887 0.007390822
0.07194917 0.10469593 -0.05860496 -0.10244287 -0.13220848 -0.11522489 -0.108766474 0.10867875
0.0081662135 -0.11652833 -0.13867223 0.025690246 0.09590813 -0.13940854 -0.12520531 -0.047943972
-0.09821896 -0.053930443 0.051934734 -0.15057924 -0.06347274 -0.116305135 0.03552068 0.046388287
0.016832113 -0.07860211 -0.06996409 0.056341648 -0.10210491 -0.008210637 -0.059872817 0.13907152
-0.07838579 -0.010436341 0.016467258 -0.13757436 -0.0927571 0.025312465 0.041526996 -0.036076985
-0.03492532 -0.094460614 -0.0042221257 0.12024777 0.056006018 -0.018413493 0.083510846 -0.13299696
-0.08427697 -0.09104052 -0.07885081 0.059562832 -0.1403579 0.0014337191 -0.014275243 -0.14332648
0.0955877 -0.16405228 0.08250446 -0.05455744 -0.044026166 0.003430363 -0.04085005 0.037789986
-0.12437241 -0.02663237 0.020305503 0.092141755 -0.0125210835 0.05933702 0.009278835 0.06710521
-0.13105841 -0.055972815 -0.007616713 -0.121416725 -0.12289719 0.042511493 -0.04919728 -0.16454421
-0.053914707 -0.06008761 -0.057108443 0.046848692 -0.041462082 0.006260814 0.08514876 -0.064060755
0.021594048 -0.0670781 0.065089166 0.058773253 -0.12248563 -0.041106436 -0.014473731 -0.061250318
-0.10602668 0.12102144 -0.028611498 -0.062167883 0.004433936 0.051497035 0.08495885 -0.1389432
-0.071172796 0.083168305 -0.11164428 0.13109276 -0.031211799 -0.15550219 0.13213567 -0.004769411
00000000: 8dd1 0bbe 86f6 a0bd 8ec7 5abd 77e4 b43c
00000010: 99f6 05bd ea9e f73a b552 bebd e2c1 c53d
00000020: 849c 363d c0ef cebc 59e8 a73b f24a 6e3d
00000030: 5fec 013e 17b2 afbc f6e8 893d b52e f23b
00000040: 165a 933d d26a d63d c10b 70bd 91cd d1bd
00000050: a961 07be 07fb ebbd f5c0 debd f792 de3d
00000060: 95cb 053c 68a6 eebd 1800 0ebe 5a74 d23c
00000070: 7b6b c43d 1dc1 0ebe d235 00be e660 44bd
00000080: 0627 c9bd 2be6 5cbd 84b9 543d 7231 1abe
00000090: fffd 81bd 6331 eebd 227e 113d a501 3e3d
000000a0: 80e3 893c 25fa a0bd 5549 8fbd 80c6 663d
000000b0: 611c d1bd e885 06bc 333d 75bd c468 0e3e
000000c0: bb88 a0bd 30fd 2abc 58e6 863c 4be0 0cbe
000000d0: 6ff7 bdbd 165c cf3c 3618 2a3d 76c5 13bd
000000e0: da0d 0fbd 9174 c1bd c259 8abb 7644 f63d
000000f0: 9166 653d e5d7 96bc bc07 ab3d 5b30 08be
00000100: 6799 acbd 7473 babd 897c a1bd 28f8 733d
00000110: fbb9 0fbe a1eb bb3a b5e2 69bc 2dc4 12be
00000120: 7cc3 c33d 52fd 27be 19f8 a83d 9f77 5fbd
00000130: c854 34bd f1cf 603b 6252 27bd acc9 1a3d
00000140: f6b6 febd 212c dabc ba57 a63c d1b4 bc3d
00000150: 3b25 4dbc 600b 733d 4106 183c 756e 893d
00000160: 2d34 06be c043 65bd 9f95 f9bb 55a9 f8bd
00000170: 86b1 fbbd 8820 2e3d 1683 49bd 477e 28be
00000180: abd5 5cbd 6d1e 76bd 8bea 69bd 6ae4 3f3d
00000190: 25d4 29bd 8427 cd3b 7962 ae3d 4932 83bd
000001a0: 00e6 b03c 3e60 89bd 784d 853d 39bc 703d
000001b0: bfd9 fabd 395f 28bd 3a23 6dbc 9de1 7abd
000001c0: 8424 d9bd 17da f73d a962 eabc c0a3 7ebd
000001d0: 8d4a 913b 8eee 523d e8fe ad3d 2047 0ebe
000001e0: 0bc3 91bd 2554 aa3d c2a5 e4bd 2e3d 063e
000001f0: e3af ffbc f73b 1fbe 934e 073e b848 9cbb

linears.0.weight f4 [32, 128]
-0.00024856813 -6.687983e-05 -0.00018621216 0.00043948385 -0.00018706538 8.798306e-05 5.6165576e-05 -4.4783046e-05
0.00014135873 -9.2809496e-05 3.2523993e-05 0.00011115871 -0.00011378523 3.5833607e-05 -0.0004148505 -6.277539e-05
8.977634e-05 -0.00010541601 -0.00025794728 5.7815483e-05 0.0001696553 -0.00012690714 0.00015096548 0.00013590646
-8.557034e-05 -6.692241e-05 -0.00018585658 -4.7245503e-05 -2.5474441e-05 0.0001222899 -1.8712928e-05 3.0409054e-05
-3.6059223e-06 -7.7766665e-05 -7.285299e-05 -5.025858e-05 0.00018159929 1.973225e-06 5.837167e-05 -0.0002208766
-0.00026071226 9.788355e-05 2.6026908e-06 3.2338503e-05 -4.2185006e-06 0.00015871349 8.685531e-05 -9.393548e-05
-0.00016270608 -0.00012031351 -4.4527573e-05 -0.00014326442 -0.00014636747 9.0310525e-05 -0.00032599672 -0.00022766422
-9.03708e-05 -1.2608099e-07 -6.295318e-05 -0.00016751557 6.94293e-05 -0.00019771332 1.1796127e-05 3.4930064e-05
9.4947805e-05 -0.00024346594 -0.00012577519 7.863053e-05 0.00015975088 2.6584663e-05 -9.513816e-05 0.00010317032
8.6274784e-05 1.1178035e-05 3.091305e-05 -1.817315e-05 0.00013650213 6.012077e-05 0.000157328 0.000110873676
-0.0002374161 -0.000110230954 -0.00015370504 -6.4708685e-05 -4.4842127e-05 -0.0001237075 -0.00015684329 0.00024338052
3.7950864e-05 4.246289e-05 0.00010645945 -0.00021702354 -4.3584736e-05 0.00019742193 5.572279e-05 1.8015828e-05
0.00018633461 -0.00011080288 2.0003661e-05 5.5937096e-05 0.00012340277 4.7614044e-06 7.568951e-05 -0.00012205455
-1.5066766e-05 0.00016773905 1.9168177e-05 -1.30648905e-05 -4.8763286e-05 5.729673e-07 2.047678e-05 -3.333274e-05
-9.613081e-05 -8.222057e-05 0.00019520023 3.6612662e-05 5.4559132e-05 1.869645e-05 7.710113e-05 -0.00022656895
-0.00017876465 8.104415e-05 0.00014087299 -8.319906e-05 -5.0493058e-05 0.000101004596 -1.2232936e-05 -0.0001358122
0.00015888257 -0.00014217319 7.7796416e-05 -0.0001263499 -5.630401e-05 0.0001860156 -0.00012535414 -0.000106130145
-0.00028007544 0.00017348838 -0.00021599444 8.774444e-05 1.454237e-05 -0.00010303162 -0.00039617709 0.00013241573
1.2644271e-05 -1.336154e-05 2.8065586e-05 -8.362595e-05 6.285982e-07 0.00014156173 0.00026316312 0.00019738688
-0.00017810232 3.9593695e-05 4.0717467e-05 -4.9250604e-05 -9.771938e-05 -0.00011550828 -6.3530395e-05 0.00022639663
-4.089859e-05 -9.850415e-05 -0.00015416622 -5.542273e-05 8.752114e-06 0.00018909134 1.2562674e-05 2.7207132e-05
1.2573642e-05 9.32369e-05 -1.1500551e-05 -0.00013507967 -0.00012319555 -6.0594502e-05 1.1341936e-05 -0.0001195488
0.0002567475 -7.216752e-05 -0.00030379705 5.300691e-05 -5.8629506e-05 3.343313e-05 -0.00020473308 -5.3061012e-05
-0.00011893145 0.00012773949 -0.00013200908 0.00014833048 -2.8786333e-05 -1.7279972e-05 -1.190906e-05 0.00016694049
-2.080474e-05 4.132001e-05 0.00017834669 -9.156093e-05 -0.00017931825 0.00018528805 4.289169e-05 2.8964887e-06
0.00023739047 -0.00020887863 -3.3361741e-06 -6.8107394e-05 -0.00012711907 -7.652813e-05 -9.453491e-05 7.92181e-05
2.856809e-06 0.00018086593 1.1716639e-06 3.1007647e-05 0.00012295209 0.000114721995 0.00019724575 -0.0002032613
0.0001669823 -0.00019573739 -8.774136e-05 -0.0002489727 7.474395e-05 -1.8955105e-05 0.000114589246 -6.6863555e-05
0.00019626082 6.2138235e-05 -4.151152e-05 -5.4816282e-05 -0.0001772455 -0.00026442867 6.8653935e-05 4.311326e-05
-0.00024221696 -0.0001738631 2.6448724e-06 -0.00020615789 4.8217385e-05 -7.481677e-05 -1.4480264e-05 3.8054346e-05
0.00016492406 -2.463523e-05 -8.726004e-05 -0.0001018742 8.7911314e-05 0.00023314015 -0.00016061096 -0.00011286158
-8.416228e-05 -2.661488e-05 7.324126e-06 0.00017374709 -0.00017187216 0.00010881602 -5.1947936e-05 -2.580658e-05
00000000: 4052 82b9 d641 8cb8 f241 43b9 866a e639
00000010: fb26 44b9 8c83 b838 5493 6b38 6ed5 3bb8
00000020: b239 1439 b8a2 c2b8 5f6a 0838 e11d e938
00000030: fb9f eeb8 0b4c 1638 4b80 d9b9 48a6 83b8
00000040: 4e46 bc38 ca12 ddb8 193d 87b9 e77e 7238
00000050: 7fe5 3139 6012 05b9 7d4c 1e39 1d82 0e39
00000060: 3a74 b3b8 b258 8cb8 7fe2 42b9 7929 46b8
00000070: f2b1 d5b7 f23a 0039 b5f9 9cb7 f216 ff37
00000080: 46fd 71b6 a916 a3b8 a7c8 98b8 bdcc 52b8
00000090: b06b 3e39 bf6b 0436 1ad4 7438 1c9b 67b9
000000a0: 35b0 88b9 d546 cd38 e3a9 2e36 34a3 0738
000000b0: a58c 8db6 546c 2639 1726 b638 3aff c4b8
000000c0: 159c 2ab9 d350 fcb8 1ec3 3ab8 4039 16b9
000000d0: 387a 19b9 1865 bd38 8aea aab9 26b9 6eb9
000000e0: 7485 bdb8 e160 07b4 bb05 84b8 1ea7 2fb9
000000f0: 929a 9138 4451 4fb9 fbe7 4537 df81 1238
00000100: b71e c738 e44a 7fb9 85e2 03b9 72e6 a438
00000110: cd82 2739 2102 df37 e984 c7b8 255d d838
00000120: 6cee b438 4b89 3b37 a2a8 0138 8b72 98b7
00000130: 0322 0f39 2f2a 7c38 6af8 2439 da84 e838
00000140: e6f2 78b9 cb2b e7b8 e22b 21b9 36b4 87b8
00000150: de14 3cb8 7bb7 01b9 4d76 24b9 f633 7f39
00000160: 6e2d 1f38 2e1a 3238 fb42 df38 d090 63b9
00000170: c1ce 36b8 0c03 4f39 e4b7 6938 b220 9737
00000180: d162 4339 d85e e8b8 89cd a737 009e 6a38
00000190: ae65 0139 27c4 9f36 7fbb 9e38 8af7 ffb8
000001a0: 44c7 7cb7 1ce3 2f39 59cb a037 4731 5bb7
000001b0: 2e87 4cb8 03ce 1935 8dc5 ab37 c2ce 0bb8
000001c0: d699 c9b8 d56d acb8 aaae 4c39 8c90 1938
000001d0: 6cd6 6438 52d6 9c37 5bb1 a138 2493 6db9
000001e0: c572 3bb9 3ff6 a938 4eb7 1339 287b aeb8
000001f0: 82c8 53b8 6ed2 d338 0f3c 4db7 cf68 0eb9
00000200: b799 2639 5314 15b9 a226 a338 cb7c 04b9
00000210: f827 6cb8 2f0d 4339 7f71 03b9 3092 deb8
00000220: 17d7 92b9 6fea 3539 917c 62b9 7003 b838
00000230: 01fb 7337 ae12 d8b8 fdb5 cfb9 14d9 0a39
00000240: bb22 5437 612b 60b7 636e eb37 5760 afb8
00000250: f0bc 2835 3070 1439 28f9 8939 a3f9 4e39
00000260: fac0 3ab9 6811 2638 0cc8 2a38 6f92 4eb8
00000270: b1ee ccb8 093d f2b8 9f3b 85b8 e264 6d39
00000280: 878a 2bb8 0394 ceb8 aea7 21b9 b475 68b8
00000290: 0bd6 1237 d246 4639 46c4 5237 df3a e437
000002a0: 62f3 5237 2e88 c338 7ef2 40b7 2ca4 0db9
000002b0: 0e2e 01b9 da26 7eb8 3f49 3e37 46b6 fab8
000002c0: 119c 8639 a458 97b8 f346 9fb9 bc53 5e38
000002d0: f4e8 75b8 8d3a 0c38 9ead 56b9 d48d 5eb8
000002e0: d66a f9b8 cff1 0539 eb6b 0ab9 2989 1b39
000002f0: 2e7a f1b7 75f4 90b7 06cd 47b7 bf0c 2f39
00000300: d785 aeb7 064f 2d38 9302 3b39 6604 c0b8
00000310: 6007 3cb9 e249 4239 9ae6 3338 4c61 4236
00000320: 05ec 7839 6e06 5bb9 09e3 5fb6 e1d4 8eb8
00000330: 444b 05b9 ba7d a0b8 0b41 c6b8 e521 a638
00000340: 9bb7 3f36 d4a6 3d39 1142 9d35 350e 0238
00000350: b3ec 0039 e796 f038 c1d3 4e39 8a22 55b9
00000360: f817 2f39 db3e 4db9 c901 b8b8 8d88 82b9
00000370: dabf 9c38 c701 9fb7 a24f f038 1939 8cb8
00000380: 5dcb 4d39 3650 8238 a81c 2eb8 89ea 65b8
00000390: fada 39b9 04a3 8ab9 4dfa 8f38 83d4 3438
000003a0: 9ffb 7db9 054f 36b9 907e 3136 162c 58b9
000003b0: 063d 4a38 f3e6 9cb8 43f0 72b7 8b9c 1f38
000003c0: 77ef 2c39 c1a7 ceb7 61ff b6b8 4ba5 d5b8
000003d0: 075d b838 1577 7439 ad69 28b9 19b0 ecb8
000003e0: 4880 b0b8 0543 dfb7 c3c1 f536 e12f 3639
000003f0: 9538 34b9 2834 e438 ace2 59b8 357b d8b7

linears.0.bias f4 [32]
0.0002864211 0.00013324956 -6.461729e-05 5.637319e-05 -2.7863168e-06 0.0003228926 0.00018281907 5.25862e-05
4.391376e-05 0.00020661237 -0.00019195322 0.00455658 0.052228503 0.00014142909 0.00024143512 -0.00017195618
-1.6815957e-05 2.4682417e-05 -0.00013090711 -7.076712e-05 0.018879412 -8.452928e-05 1.7066208e-05 0.018264903
-8.145142e-05 -0.00012699481 0.051329505 5.248318e-06 0.00020865524 -8.937293e-05 0.00028842682 -4.9179536e-05
00000000: ca2a 9639 e8b8 0b39 2583 87b8 4072 6c38
00000010: 8ffc 3ab6 e949 a939 1fb3 3f39 0190 5c38
00000020: 0a30 3838 16a6 5839 0d47 49b9 5d4f 953b
00000030: 8eed 553d 954c 1439 bf29 7d39 234f 34b9
00000040: fe0f 8db7 160d cf37 1c44 09b9 cf68 94b8
00000050: ffa8 9a3c 5045 b1b8 6729 8f37 47a0 953c
00000060: e6d0 aab8 e929 05b9 e33e 523d b51a b036
00000070: 77ca 5a39 ba6d bbb8 fe37 9739 2046 4eb8

linears.2.weight f4 [2, 32]
0.00013608439 0.00020803505 -0.00017781585 -7.772639e-05 -0.011910752 -0.6368769 -0.00018925518 0.00011877887
0.0001847401 -1.2001336e-05 0.19905047 -0.56044984 0.27693656 -0.06279803 6.471571e-05 0.24167137
2.4444373e-05 -3.3407465e-05 0.23085809 -6.1222586e-06 -0.61834586 0.00021686291 -4.9373142e-05 0.2756706
0.009018445 7.125729e-05 -0.51874626 -0.00017083649 8.2926545e-06 -0.000107043794 -0.5503635 7.949847e-05
8.172133e-05 0.00010376285 -0.0002005392 1.6743748e-05 6.7369174e-06 0.56774276 -3.6711892e-05 -8.21034e-05
7.0260858e-06 -1.0039077e-05 -0.15743698 0.6059737 -0.47967157 -0.059559822 -9.392421e-07 -0.11516326
4.866515e-05 1.8604233e-05 -0.19671308 2.1929745e-05 0.54826325 0.00018700774 0.00013460258 -0.09402787
0.015756942 -6.338164e-05 0.6417996 -1.0140161e-05 -1.4740743e-06 -0.00016832251 0.33274066 -0.0002572727
00000000: e0b1 0e39 fc23 5a39 1474 3ab9 0a01 a3b8
00000010: 5125 43bc 5d0a 23bf cd72 46b9 ec18 f938
00000020: cbb6 4139 5859 49b7 e3d3 4b3e a479 0fbf
00000030: a1ca 8d3e 419c 80bd fbb7 8738 b378 773e
00000040: e40d cd37 fe1e 0cb8 1066 6c3e cd6d cdb6
00000050: ea4b 1ebf b265 6339 0216 4fb8 b224 8d3e
00000060: 1ac2 133c f76f 9538 8ecc 04bf 9222 33b9
00000070: ae20 0b37 b37c e0b8 9fe4 0cbf 6bb8 a638
00000080: ce61 ab38 429b d938 d547 52b9 ed74 8c37
00000090: ae0d e236 9757 113f 18fb 19b8 ed2e acb8
000000a0: 9ec1 eb36 826d 28b7 2937 21be 1821 1b3f
000000b0: 8397 f5be 00f5 73bd 3a20 7cb5 b7da ebbd
000000c0: cf1d 4c38 4910 9c37 276f 49be c5f5 b737
000000d0: fb5a 0c3f 8217 4439 1b24 0d39 af91 c0bd
000000e0: b414 813c c2eb 84b8 fb4c 243f a91f 2ab7
000000f0: cfd8 c5b5 bb7f 30b9 fc5c aa3e 8fe2 86b9

linears.2.bias f4 [2]
-0.0044388506 0.025033977
00000000: c773 91bb 0e14 cd3c

exp_avg f4 [128, 4, 12]
0.001348494 0.0005263048 0.00019373107 0.0006288197 0.0021857023 0.00018633081 0.0005372942 0.00029275377
0.00026250567 -0.00012099413 0.0002151131 -0.0003248256 -0.0007541136 0.00013941248 0.00018976201 0.00026193552
0.0003669388 -0.00039550624 -0.0008238592 -0.0002534235 -0.0007963734 -0.0005828388 0.000103980004 0.00027844156
0.0001438542 0.0002334502 0.00061415526 0.00014386853 -0.0015003235 -0.0013452107 0.0010152939 0.00058411836
0.0006378028 0.00017231841 -8.1690996e-05 -0.00026130595 0.0004926671 0.0003317349 0.000233254 0.00019627852
-0.00020317473 0.0019663027 -0.00031129242 0.0003011422 0.0008989321 0.0014760578 0.0010212224 0.0010722663
-4.014253e-05 -2.5278667e-05 3.0520077e-05 -0.00021207744 -0.00031317677 0.0002914585 0.00014339497 2.8341912e-05
-9.7311444e-05 -5.87751e-06 4.5589036e-06 -3.8594673e-05 -0.00080608734 -0.00017350855 -0.00035925314 -0.00020553912
4.29664e-05 -0.00047940656 -0.00058124977 -0.00035955926 2.565673e-05 -0.00041746136 -0.00031205147 0.0004926813
0.00027977832 -8.7413195e-05 -3.6043435e-05 1.7308348e-05 5.0665778e-05 0.00023236296 1.7319131e-07 -1.8946155e-05
2.2980355e-08 -1.48348045e-05 -7.527087e-05 -0.00073240616 0.00029196483 1.1713653e-05 5.1306608e-05 8.764003e-05
-0.00010162537 -0.00037181817 0.00010687328 -9.291314e-06 -0.0003035048 8.410854e-05 0.00011041386 -1.1150171e-05
0.00052836695 0.00053341687 0.00057488406 0.00035910596 0.0016885705 -0.0012197685 0.0010887109 -0.0003925982
-0.0006807297 -0.00082532177 0.0021084328 2.6465337e-05 0.0007636894 0.000504642 -0.0015811278 -0.0034879565
-0.0020941896 -0.0003579181 -0.0006381092 0.000101839745 0.0005956531 -0.0009345227 0.0001824872 0.0005474593
-0.0004629456 -0.0019684248 0.000583622 0.0018754341 -0.001781396 0.000110973975 -0.000107994216 0.0003709855
0.00025867345 0.00029890626 1.3271034e-05 -0.001548855 -0.0020931768 -0.0003337005 -0.00084144494 -1.0650114e-05
0.00092124054 0.00020093832 -0.0016083822 -0.0013689899 -0.0014323355 0.000205369 -0.0036920125 -0.00040863513
0.0004573756 -0.0006660642 0.0014820828 0.0018702376 -0.0024568473 -7.2869436e-05 -0.001527034 0.0005462651
-0.0002846132 0.00058750587 -0.00055488385 -0.00045977937 0.002369577 0.0035117376 -0.0024267891 -0.0037795177
0.0003946555 -0.0033685644 0.0018565076 -0.0010722313 0.00016264053 0.0007745329 0.00013889374 -0.00029951864
-0.0034607882 -0.0029017315 -0.0015609897 0.0014494457 0.00039143255 0.00059635873 7.913793e-05 -0.000761747
-0.000104354636 -2.2176799e-05 -0.00054640847 -0.0020334637 -0.0016811931 -0.0022589695 0.00019066685 -0.0022086988
-0.0010585407 0.00015923636 -0.003266454 7.323708e-05 -0.0006706847 -0.0028635971 -0.0001827734 0.0005601036
0.00013892041 -0.0007083306 -0.003144402 0.0009872423 -0.0051038517 -0.0009761013 -0.004551491 0.00016037146
-0.0007270906 -0.004358142 -0.0005129943 0.0006031016 -0.0028337154 -0.0007401947 -0.00044282738 -0.00018523814
-0.0003999266 -0.0008188383 3.2127842e-05 -0.0034321924 -0.0012807916 0.0017876122 0.002240891 0.00047717564
0.00033324893 -0.0019548954 0.0009304469 -0.0028235773 0.0030867967 -0.00026922656 0.0020957612 0.001169499
-0.00043772213 -0.00017116516 -0.0036491442 0.00027168746 0.00048729297 0.0015291669 0.0007825283 0.00014732004
0.0005427279 0.00018978582 0.00044099963 0.000113143666 0.000400644 0.0007026463 -8.388921e-05 -0.0034264931
0.00019979099 9.63836e-05 0.00042619757 0.0017476114 -0.0009532724 -0.001052572 0.00020065276 -0.0004825583
0.00085188344 7.510141e-05 0.0012089479 0.0021430908 -0.00024944075 -0.0012527532 0.0020923957 -0.0012798761
00000000: f3bf b03a b8f7 093a 4a24 4b39 60d7 243a
00000010: 003e 0f3b cc61 4339 34d9 0c3a bf7c 9939
00000020: eaa0 8939 3bbe fdb8 fc8f 6139 5b4d aab9
00000030: b5af 45ba 412f 1239 dafa 4639 6454 8939
00000040: b161 c039 f35b cfb9 41f8 57ba eddd 84b9
00000050: b7c3 50ba a6c9 18ba d70f da38 cbfb 9139
00000060: 91d7 1639 50ca 7439 43ff 203a 6adb 1639
00000070: 81a6 c4ba c851 b0ba 9c13 853a 851f 193a
00000080: 3932 273a 5fb0 3439 8551 abb8 e4ff 88b9
00000090: 5426 013a b4ec ad39 a595 7439 1dd0 4d39
000000a0: 4d0b 55b9 16dd 003b f634 a3b9 9fe2 9d39
000000b0: 50a6 6b3a 4878 c13a 8ada 853a 498b 8c3a
000000c0: b75e 28b8 860d d4b7 af02 0038 1b61 5eb9
000000d0: e031 a4b9 e6ce 9839 4b5c 1639 cbbf ed37
000000e0: af13 ccb8 6d37 c5b6 aff8 9836 b7e0 21b8
000000f0: 9b4f 53ba d9ef 35b9 245a bcb9 fd85 57b9
00000100: d236 3438 dc58 fbb9 035f 18ba 3a83 bcb9
00000110: 6839 d737 b7de dab9 d79a a3b9 4827 013a
00000120: 36af 9239 9a51 b7b8 582d 17b8 6531 9137
00000130: f781 5438 75a6 7339 77f6 3934 8fee 9eb7
00000140: 5666 c532 00e3 78b7 beda 9db8 f2fe 3fba
00000150: db12 9939 c285 4437 0d32 5738 62cb b738
00000160: b41f d5b8 97f0 c2b9 2821 e038 e4e1 1bb7
00000170: ba1f 9fb9 6e63 b038 fd8d e738 9f11 3bb7
00000180: 1b82 0a3a 00d5 0b3a d1b3 163a 6346 bc39
00000190: 0653 dd3a a4e0 9fba 13b3 8e3a a3d5 cdb9
000001a0: ff72 32ba 685a 58ba a22d 0a3b e101 de37
000001b0: 5432 483a f449 043a d83d cfba 3396 64bb
000001c0: ac3e 09bb f4a6 bbb9 c946 27ba cc92 d538
000001d0: 9a25 1c3a c2fa 74ba 095a 3f39 5f83 0f3a
000001e0: 82b7 f2b9 b000 01bb 36fe 183a 20d1 f53a
000001f0: bb7d e9ba b3ba e838 f47a e2b8 d580 c239
00000200: 909e 8739 85b6 9c39 a8a6 5e37 f302 cbba
00000210: ae2d 09bb 86f4 aeb9 6a94 5cba e4ad 32b7
00000220: 687f 713a f8b2 5239 5ad0 d2ba ae6f b3ba
00000230: 34bd bbba 5258 5739 b1f5 71bb 143e d6b9
00000240: eacb ef39 d09a 2eba 7242 c23a c322 f53a
00000250: 0f03 21bb 7bd1 98b8 c226 c8ba 3b33 0f3a
00000260: 2338 95b9 da02 1a3a a075 11ba 8b0e f1b9
00000270: e84a 1b3b 2e25 663b c40a 1fbb c9b1 77bb
00000280: c4e9 ce39 22c3 5cbb 0f56 f33a 1d8a 8cba
00000290: 7c8a 2a39 060a 4b3a 01a4 1139 b608 9db9
000002a0: 64ce 62bb fa2a 3ebb 1f9a ccba 54fb bd3a
000002b0: 3039 cd39 f554 1c3a daf6 a538 faaf 47ba
000002c0: f8d8 dab8 5008 bab7 da3c 0fba dc43 05bb
000002d0: 7b5b dcba 380b 14bb beed 4739 d1bf 10bb
000002e0: bbbe 8aba aff8 2639 0112 56bb dc96 9938
000002f0: e3d0 2fba 30ab 3bbb dca6 3fb9 ebd3 123a
00000300: 2aab 1139 43af 39ba 5012 4ebb 5b66 813a
00000310: 363e a7bb 0de1 7fba ac24 95bb 6329 2839
00000320: 399a 3eba bfce 8ebb 777a 06ba 7719 1e3a
00000330: dbb5 39bb a009 42ba 492b e8b9 7c3c 42b9
00000340: 3dad d1b9 4fa7 56ba 02c1 0638 a2ee 60bb
00000350: 3ce0 a7ba 504e ea3a eadb 123b 6e2d fa39
00000360: eab7 ae39 b41d 00bb 3ce9 733a c40b 39bb
00000370: db4b 4a3b fa26 8db9 0a59 093b e049 993a
00000380: 127e e5b9 cc7a 33b9 7b26 6fbb 4671 8e39
00000390: 5b7b ff39 546e c83a 9622 4d3a ec79 1a39
000003a0: da45 0e3a 3e01 4739 f835 e739 8b47 ed38
000003b0: 870d d239 cc31 383a aded afb8 048f 60bb
000003c0: fc7e 5139 8d21 ca38 4573 df39 1c10 e53a
000003d0: 07e5 79ba 75f6 89ba 5166 5239 e1ff fcb9
000003e0: ee50 5f3a c37f 9d38 8f75 9e3a 1973 0c3b
000003f0: 5fc7 82b9 6c33 a4ba 9320 093b 84c1 a7ba

exp_avg_sq f4 [128, 4, 12]
5.5293902e-05 1.649818e-05 8.1982273e-07 0.0001536785 5.6313773e-05 4.0654748e-05 6.091054e-05 4.852465e-07
2.2946967e-06 5.3307806e-05 2.8845267e-05 6.7805413e-06 4.0274826e-05 9.323575e-06 2.7702674e-06 2.5075002e-05
3.3491597e-05 1.9025132e-05 7.020704e-06 2.9135936e-06 6.529063e-05 2.9915302e-06 5.2802234e-06 1.0888689e-05
4.958042e-07 0.00013295271 0.0002238018 4.176918e-06 4.0303632e-05 2.6266094e-05 5.33574e-05 0.00021069996
2.253971e-05 7.859579e-06 7.722531e-05 0.000119904376 4.1504958e-05 5.551847e-06 2.5778849e-07 9.4998063e-07
3.137408e-06 3.6579604e-05 1.1994304e-05 9.4373917e-07 4.0665334e-05 7.125509e-05 1.8362645e-05 1.728688e-05
5.8263294e-07 2.3939338e-06 2.143249e-08 2.7727863e-06 3.2608992e-07 2.9693167e-06 7.507101e-08 4.2553996e-08
1.04966865e-07 7.764397e-08 8.621154e-08 4.4161513e-07 7.675469e-06 1.0762187e-06 3.482948e-06 8.354317e-07
3.6746296e-06 2.3065038e-06 1.5554582e-05 5.404782e-06 2.3719284e-07 1.6356336e-05 6.403542e-06 1.7286154e-06
8.2701257e-07 2.9945113e-06 8.981618e-06 6.5782274e-06 1.4867477e-06 1.3907148e-06 1.6587927e-07 2.0758613e-07
2.0356035e-09 3.8412903e-08 2.8561676e-06 5.166634e-06 1.4171068e-06 2.1877495e-06 9.893598e-08 8.333685e-07
3.5844573e-06 2.5187119e-06 1.4271893e-07 6.3103407e-06 1.5764472e-05 8.134216e-08 1.2631754e-06 2.1535052e-06
3.4998615e-05 1.3911109e-05 0.00012481332 1.6294565e-05 3.5292636e-05 6.708672e-05 2.0988537e-05 5.3439685e-06
2.0778409e-05 2.1012904e-06 1.4317083e-05 2.2282067e-07 7.3044675e-06 5.8188685e-05 2.7538554e-06 1.8633913e-05
6.945561e-05 0.00014036118 1.945596e-05 5.5155656e-06 5.845917e-06 2.3280105e-05 7.014463e-07 1.1906769e-05
0.00013803279 0.0002049121 1.2210015e-05 0.00022131822 9.468672e-05 5.242026e-05 1.3404361e-05 0.0002775144
3.4900582e-05 0.00028466916 5.3012227e-06 0.00031395818 6.688364e-05 1.0975401e-05 0.000119675555 3.815586e-05
2.7909908e-05 1.800836e-06 0.00023616197 3.2336357e-05 0.0002273228 1.0520524e-05 0.0003554617 2.3494225e-05
3.8646576e-05 4.9465983e-05 0.00034410146 0.0001819387 0.0010620718 8.805144e-06 7.019299e-05 8.87822e-06
2.5454636e-05 9.7920965e-06 7.9427424e-05 0.00022595427 0.0003530752 0.00014441069 1.7820326e-05 0.00039475347
1.2125734e-05 0.0011250116 0.0003345751 0.0008946172 5.4104335e-06 0.00018666136 2.5098341e-05 0.00013326427
0.0002410335 0.00037680543 0.0005000181 6.8646805e-05 5.8117944e-06 4.135462e-05 5.745016e-06 2.0651514e-05
7.5601893e-06 6.4147855e-05 0.00057588494 0.0001969447 0.000108597545 0.0001479867 2.2252047e-05 8.9013796e-05
4.1596875e-05 2.7434985e-06 0.00038709302 6.0862756e-05 0.00108913 0.0005015874 0.00010860877 8.5077256e-05
3.4868226e-05 0.00014047623 0.00026904786 1.9007493e-05 0.00026255116 0.00012268474 0.0005750334 2.1678215e-05
4.053048e-05 0.00019795513 4.1219715e-05 4.774054e-05 0.00064452534 0.00025787338 4.7812377e-05 3.24829e-05
6.792761e-06 0.00013341755 2.0925398e-05 0.00067540933 0.0006075829 0.00031157126 0.0005046798 5.866594e-05
1.535822e-05 8.376996e-05 0.00020276713 0.00062945206 0.00023436788 0.0002610921 3.8439026e-05 2.848066e-05
3.4308832e-06 8.901004e-06 3.3890945e-05 5.1901545e-05 1.733299e-05 2.5982146e-05 9.3290455e-06 1.0814178e-05
4.1983923e-05 2.1200647e-06 1.9376057e-05 1.3609555e-06 3.857987e-05 2.1254953e-05 5.091818e-05 0.00040521874
0.00025934333 2.1986381e-05 4.5800618e-05 3.6337125e-05 2.5289333e-05 0.00027517954 3.599401e-05 5.518348e-05
0.000259898 0.00018455146 8.414845e-05 0.00014477533 0.00012539791 4.4919983e-05 0.00029211215 0.00034532766
00000000: 60eb 6738 9265 8a37 ca11 5c35 c224 2139
00000010: 7432 6c38 b484 2a38 327a 7f38 e341 0235
00000020: 97fe 1936 d296 5f38 bdf8 f137 6884 e336
00000030: c4ec 2838 736c 1c37 d5e8 3936 2858 d237
00000040: 5479 0c38 2998 9f37 6393 eb36 2887 4336
00000050: a4ec 8838 19c2 4836 c62c b136 90ae 3637
00000060: 6817 0535 3969 0b39 57ac 6a39 7427 8c36
00000070: b20b 2938 0256 dc37 12cc 5f38 57ef 5c39
00000080: a913 bd37 a2dc 0337 06f4 a138 2c75 fb38
00000090: 9c15 2e38 014a ba36 2e66 8a34 2c02 7f35
000000a0: 428c 5236 0d6d 1938 253b 4937 4355 7d35
000000b0: 1290 2a38 c96e 9538 7b09 9a37 4b03 9137
000000c0: 3b66 1c35 78a7 2036 8b1a b832 1b14 3a36
000000d0: 7511 af34 7944 4736 b936 a133 9dc4 3633
000000e0: 256a e133 39bd a633 4c23 b933 1f17 ed34
000000f0: e3c5 0037 9872 9035 97bc 6936 6e42 6035
00000100: a899 7636 6fc9 1a36 367b 8237 b95a b536
00000110: 12af 7e34 f734 8937 02de d636 c602 e835
00000120: dfff 5d35 50f5 4836 c1af 1637 8bba dc36
00000130: 438c c735 99a8 ba35 8c1c 3234 d7e4 5e34
00000140: b7e2 0b31 6ffb 2433 96ac 3f36 0c5d ad36
00000150: 6b33 be35 40d1 1236 a176 d433 a6b4 5f35
00000160: 828c 7036 2407 2936 483e 1934 6abd d336
00000170: f23d 8437 53ae ae33 608a a935 f084 1036
00000180: 7acb 1238 c263 6937 52e0 0239 50b0 8837
00000190: 2e07 1438 e9b0 8c38 8a10 b037 5750 b336
000001a0: 4b4d ae37 e503 0d36 6733 7037 7b40 6f34
000001b0: e618 f536 a00f 7438 e0ce 3836 0650 9c37
000001c0: b2a8 9138 eb2d 1339 5b35 a337 5912 b936
000001d0: 0b28 c436 a549 c337 064b 3c35 2fc3 4737
000001e0: e5bc 1039 acdd 5639 9dd9 4c37 a811 6839
000001f0: 8c92 c638 d3dd 5b38 4be3 6037 5a7f 9139
00000200: 3762 1238 a63f 9539 28e1 b136 c19a a439
00000210: e143 8c38 fd22 3837 53fa fa38 8b09 2038
00000220: 1220 ea37 41b4 f135 3fa2 7739 e6a0 0738
00000230: 805d 6e39 4e81 3037 435d ba39 7715 c537
00000240: 7218 2238 b279 4f38 8468 b439 ccc6 3e39
00000250: 3735 8b3a ceb9 1337 9334 9338 aaf3 1437
00000260: 6a87 d537 bc48 2437 4692 a638 23ee 6c39
00000270: f31c b939 f36c 1739 dc7c 9537 eaf6 ce39
00000280: a26f 4b37 2075 933a e969 af39 be84 6a3a
00000290: 458b b536 87ba 4339 478a d237 dbbc 0b39
000002a0: f0bd 7c39 f88d c539 a613 033a 79f6 8f38
000002b0: ef02 c336 2f74 2d38 50c5 c036 ca3c ad37
000002c0: 88ad fd36 1e87 8638 fcf6 163a f182 4e39
000002d0: ddbe e338 e12c 1b39 e8a9 ba37 ebac ba38
000002e0: 4e78 2e38 f21c 3836 bff2 ca39 e346 7f38
000002f0: 23c1 8e3a f67c 033a e4c4 e338 816b b238
00000300: 793f 1238 cd4c 1339 fe0e 8d39 4872 9f37
00000310: 05a7 8939 efa4 0039 d7bd 163a 9dd9 b537
00000320: 46ff 2938 2d92 4f39 55e3 2c38 043d 4838
00000330: 5df5 283a 2e33 8739 268a 4838 403e 0838
00000340: 5fed e336 00e6 0b39 f388 af37 f40d 313a
00000350: 3346 1f3a 635a a339 7d4c 043a 1310 7638
00000360: 87d5 8037 a8ad af38 e39d 5439 d001 253a
00000370: a6c0 7539 30e3 8839 9739 2138 c0e9 ee37
00000380: 203e 6636 8555 1537 2026 0e38 dcb0 5938
00000390: 5066 9137 3cf4 d937 f283 1c37 8a6e 3537
000003a0: e517 3038 6f46 0e36 c489 a237 13aa b635
000003b0: d2d0 2138 aa4c b237 fb90 5538 8a73 d439
000003c0: 79f8 8739 656f b837 0a1a 4038 b168 1838
000003d0: 6e24 d437 f945 9039 46f8 1638 cf74 6738
000003e0: eb42 8839 2884 4139 db78 b038 d5ce 1739
000003f0: 3f7d 0339 7768 3c38 a126 9939 180d b539

exp_avg f4 [128]
0.0012309017 -0.00027448687 -0.0012640661 -0.0023150283 -0.0018742549 0.001595585 -0.0009839172 -0.0006006777
-0.0012183734 0.00087521505 -0.0026120036 0.00026070778 0.0010203377 -0.0012672954 0.0013363005 0.0015327032
0.0006812136 -0.0010734091 0.0006868082 0.0012122683 -0.0007802495 0.0015019615 0.0018076831 -0.0014061606
0.0014891907 -0.0011805922 0.00096618535 -0.00053674675 -0.0010666378 -0.0014142332 0.0014977569 0.0012860742
0.0013836601 -0.0013369742 0.0010651683 -0.00061974884 0.001197668 -0.0015038948 0.0016156887 0.0014622799
0.0013495488 0.00075498666 -0.0020249863 0.0010831847 0.00155939 -0.0015447589 -0.0011497124 0.0011504114
-0.0025256937 0.0010358453 0.0014362037 0.0011220911 -0.0012219528 0.0010893961 -0.0012080558 -0.0012107809
-0.0012197548 0.0020649054 -0.0022617187 -0.0018633328 0.001500678 0.0010751836 0.0010527871 0.0012759282
-1.5284682e-05 0.0012267124 0.0020676258 0.0012622299 0.0008980513 0.00068116083 0.0015162538 -0.0012228607
0.0015112628 0.0009043039 -0.0018333574 -0.00059845205 -0.0016576677 -0.0010840652 0.0014691948 -0.0010688227
0.0021973012 -0.00046409963 -0.0008832104 -0.0012701536 -0.0014756505 -0.0006539287 -0.0006639992 0.000986178
0.0011384203 0.0019931213 -0.0009738459 -0.0025253945 -0.0021047874 -0.0014529543 -0.0012625601 -0.0023304552
-0.0011389045 -0.00028333094 0.001277151 0.0012499215 0.00177438 0.0018254792 0.0011789622 -0.0015682695
-0.0012881893 -0.0006747858 0.0015494187 0.0010220908 0.0013596968 0.0007788855 0.0008411517 0.0010409212
-0.0012818376 -0.0017725397 -0.0015160306 0.0016032051 -0.0012615806 -0.003282207 0.00056332874 -0.0008798189
-0.0017289356 0.0012392575 0.0012670129 0.0017416928 -0.00081253186 0.0004967312 0.00080114836 0.0012011932
00000000: 3556 a13a 01e9 8fb9 05af a5ba bbb7 17bb
00000010: 8fa9 f5ba f322 d13a c8f6 80ba cc76 1dba
00000020: d4b1 9fba b06e 653a 262e 2bbb 9baf 8839
00000030: dabc 853a 611b a6ba ce26 af3a fce4 c83a
00000040: 7993 323a a2b1 8cba eb0a 343a f9e4 9e3a
00000050: a889 4cba 77dd c43a c8ef ec3a ec4e b8ba
00000060: f330 c33a 1abe 9aba 9a47 7d3a 77b4 0cba
00000070: 6dce 8bba cb5d b9ba 6250 c43a 7d91 a83a
00000080: ee5b b53a 693d afba 1e9d 8b3a a476 22ba
00000090: 12fb 9c3a 561e c5ba 84c5 d33a f9a9 bf3a
000000a0: 58e3 b03a 4cea 453a a2b5 04bb a6f9 8d3a
000000b0: 7264 cc3a 8279 caba f2b1 96ba 67c9 963a
000000c0: 1c86 25bb 33c5 873a 003f bc3a 2113 933a
000000d0: ef29 a0ba 11ca 8e3a a057 9eba 11b3 9eba
000000e0: 2ee0 9fba 5d53 073b 5839 14bb 133b f4ba
000000f0: 66b2 c43a 2ded 8c3a acfd 893a 0c3d a73a
00000100: 9b37 80b7 a3c9 a03a 0181 073b 6871 a53a
00000110: 346b 6b3a ee8f 323a 09bd c63a 6548 a0ba
00000120: 9115 c63a cf0e 6d3a 444d f0ba 70e1 1cba
00000130: 1946 d9ba 3117 8eba ff91 c03a bd17 8cba
00000140: 9900 103b 6652 f3b9 3f87 67ba 487b a6ba
00000150: 9d6a c1ba 6a6c 2bba 3b10 2eba a542 813a
00000160: 0c37 953a 079f 023b b149 7fba 1781 25bb
00000170: 79f0 09bb 0e71 beba 7d7c a5ba 8dba 18bb
00000180: 4b47 95ba 098c 94b9 1466 a73a 68d4 a33a
00000190: 5092 e83a eb44 ef3a 6887 9a3a 648e cdba
000001a0: 76d8 a8ba 1ce4 30ba dd15 cb3a adf7 853a
000001b0: db37 b23a 1f2e 4c3a bc80 5c3a 856f 883a
000001c0: 5503 a8ba 9054 e8ba 8cb5 c6ba a322 d23a
000001d0: 9f5b a5ba 4c1a 57bb 5aac 133a a6a3 66ba
000001e0: 749d e2ba 956e a23a e611 a63a 8349 e43a
000001f0: 1700 55ba 1137 023a 2804 523a 5b71 9d3a

exp_avg_sq f4 [128]
0.0002450135 1.7926357e-05 0.0004418321 0.0013735024 0.0008931769 0.0005832852 0.0002116309 7.341655e-05
0.00031633064 0.00019503116 0.0018336516 1.0785525e-05 0.0002144017 0.0004301474 0.00032028163 0.0004080364
8.178668e-05 0.00026983608 8.4416344e-05 0.00023052885 7.015693e-05 0.00041824364 0.0006669305 0.00048443332
0.0003725315 0.00027783713 0.00013264296 9.02873e-05 0.0002527138 0.00048011699 0.00049281964 0.0003392523
0.00031507266 0.00045704425 0.0002618626 8.27672e-05 0.00032227085 0.00051963923 0.0005262985 0.0005758046
0.0003323162 0.00010775962 0.0011172596 0.00024664533 0.00057487725 0.00046481076 0.00030863922 0.0003508103
0.0011657614 0.00020932198 0.000513855 0.00023389474 0.00039085606 0.00021290738 0.00042752112 0.0003676039
0.0002971577 0.00072633906 0.0012269455 0.0007771545 0.00035040834 0.0002495385 0.00017926015 0.00027884528
5.5278875e-08 0.00031868066 0.0011609263 0.000287438 0.00013654833 0.00011655705 0.000491811 0.00040607082
0.000562192 0.00012719276 0.0008787504 6.824449e-05 0.0007157011 0.00024113123 0.0004947151 0.00026274598
0.00096217834 5.9480364e-05 0.00018170061 0.00036250995 0.0005367268 7.495893e-05 0.00010351425 0.000113051945
0.00023985656 0.00076081743 0.00019825216 0.0015107793 0.0010856339 0.0004642135 0.00036745658 0.001275752
0.00033362693 1.38022615e-05 0.0003225995 0.00029734892 0.0006141519 0.00093278807 0.0002566162 0.0005860245
0.00037240106 9.215756e-05 0.0005148321 0.00024095264 0.0004440019 0.00018973672 0.00013232141 0.0001802847
0.0003602665 0.0007441681 0.00040518408 0.0005106751 0.0003805336 0.0025928635 5.0062208e-05 0.0001604271
0.00062653574 0.0003760648 0.0003561163 0.00066978007 0.00018782761 3.6562753e-05 0.00017562024 0.00030557322
00000000: 2875 8039 8f60 9637 b3a5 e739 1807 b43a
00000010: 1624 6a3a 9be7 183a 3de9 5d39 36f7 9938
00000020: 2ed9 a539 4781 4c39 2357 f03a 7af3 3437
00000030: 05d1 6039 6885 e139 79eb a739 b8ed d539
00000040: e484 ab38 c978 8d39 ae08 b138 1eba 7139
00000050: 3721 9338 b647 db39 f3d4 2e3a 8afb fd39
00000060: 5550 c339 abaa 9139 1316 0b39 a058 bd38
00000070: ac7e 8439 36b8 fb39 9130 013a acdd b139
00000080: 5630 a539 719f ef39 9a4a 8939 4d93 ad38
00000090: 76f6 a839 6638 083a 4bf7 093a 98f1 163a
000000a0: ba3a ae39 01fd e138 0371 923a 2d50 8139
000000b0: 5cb3 163a d8b1 f339 dbd0 a139 f6ec b739
000000c0: 76cc 983a 717d 5b39 3ab4 063a a441 7539
000000d0: d0eb cc39 e43f 5f39 ea24 e039 f6ba c039
000000e0: d5cb 9b39 ca67 3e3a 76d1 a03a f5b9 4b3a
000000f0: 03b7 b739 7ed4 8239 c8f7 3b39 fb31 9239
00000100: c46b 6d33 9814 a739 392a 983a 46b3 9639
00000110: 6a2e 0f39 1770 f438 e1ec 003a e7e5 d439
00000120: 1160 133a 0c5f 0539 f15b 663a 7b1e 8f38
00000130: e39d 3b3a 2cd8 7c39 c5af 013a 2bc1 8939
00000140: b23a 7c3a 8e7a 7938 e386 3e39 430f be39
00000150: 20b3 0c3a 4533 9d38 ca15 d938 4d16 ed38
00000160: 0182 7b39 9871 473a e9e1 4f39 5705 c63a
00000170: d44b 8e3a ae61 f339 30a7 c039 2237 a73a
00000180: a6ea ae39 4390 6737 9222 a939 7fe5 9b39
00000190: 09ff 203a 5986 743a 718a 8639 709f 193a
000001a0: d33e c339 b744 c138 ccf5 063a 3ba8 7c39
000001b0: edc8 e839 10f4 4639 c2bf 0a39 ce0a 3d39
000001c0: 27e2 bc39 4714 433a e36e d439 d3de 053a
000001d0: 5b82 c739 08ed 293b e3f9 5138 5238 2839
000001e0: 1a3e 243a 902a c539 1fb5 ba39 2e94 2f3a
000001f0: 97f3 4439 f55a 1938 b326 3839 5835 a039

exp_avg f4 [32, 128]
-8.670426e-06 -1.7053784e-05 -0.00016658318 -3.395912e-05 -1.5502623e-05 7.638091e-05 -6.6306486e-05 -8.60776e-05
0.000108166394 -0.00013179584 6.0765953e-05 -0.00013416512 2.3773375e-06 6.075013e-05 0.00014559441 0.00010302033
-0.00010713282 -6.4724045e-05 -1.057963e-05 -6.1864645e-05 -0.00022616719 1.5237607e-05 -5.4582095e-05 2.6826567e-05
3.9166596e-05 -3.211351e-05 0.00020657919 -3.4082586e-05 0.00015341058 0.00011799551 0.00010283257 -7.519192e-05
-4.3845648e-05 3.7802514e-05 -2.7564174e-05 3.9071776e-05 -0.00019007639 -0.0001991674 -0.0001490613 -0.00010171364
7.22087e-05 -0.00015862694 -0.00015261126 -3.985198e-05 0.0001018064 -0.00016446461 -0.00020682905 0.000117119656
0.00017857965 0.0001733704 -0.00012274698 3.9028004e-05 0.00022086804 -0.00017029014 -1.0024538e-06 8.442717e-05
0.00010780551 0.00012138757 3.7221733e-05 0.00018573536 3.9309466e-06 0.00022479825 9.169571e-06 -0.00014010913
-7.598035e-05 -2.2286173e-05 0.00020532863 -0.00012382762 -0.00022383663 0.00012326079 -0.00011217021 6.0380098e-05
5.9583308e-05 4.4121767e-05 -0.00012903735 8.527355e-05 -0.00020981702 -7.079263e-05 -2.5239015e-05 2.694673e-05
6.3907995e-05 0.0001356285 5.543948e-05 -4.5363863e-06 7.00119e-05 0.000132712 0.00018535882 -6.9640126e-05
-4.180255e-05 -0.00011561419 -0.00011466655 5.9217098e-05 -2.1798712e-06 -5.398142e-05 -3.0885276e-05 6.487642e-05
-5.9886035e-05 2.5984175e-06 4.0139144e-05 -0.0002501291 5.904117e-05 7.060552e-05 -0.00014884317 1.858184e-05
1.1838483e-05 2.0304216e-05 3.582376e-05 -4.1924086e-05 -0.00014073915 1.972898e-05 -1.0234302e-05 6.4811844e-05
0.00015433952 8.551768e-05 -8.220735e-05 -1.5294483e-05 -9.780624e-05 9.5935975e-05 -0.00011247663 -0.00010140228
-4.848657e-05 -1.7945362e-05 -0.00016419878 3.821007e-05 3.0179783e-05 -0.00015810419 0.00014292136 0.00014393964
-2.7629952e-05 -0.00011942036 -6.694949e-06 0.00013649894 -8.331517e-05 -5.992096e-05 4.1520398e-05 0.00015689124
-8.301866e-05 2.2638344e-05 -2.1066722e-05 0.00013346413 -6.610882e-05 -2.9563047e-05 1.9569385e-05 -4.02398e-05
-4.178497e-05 5.305134e-05 1.313937e-05 -4.466086e-06 -9.370658e-05 -5.13939e-05 -0.00027674268 -4.1726715e-05
4.172491e-05 6.329442e-05 -9.602312e-05 -8.174538e-05 0.00020810778 0.00015697876 -0.00011870257 0.00010416456
2.8476146e-05 1.3066105e-05 5.3666357e-05 0.000105410116 -9.8863566e-05 4.5167657e-05 -3.447067e-05 -0.00024595682
-9.100528e-05 -1.2302835e-05 -9.8588425e-05 0.00022052658 7.7003555e-05 -6.2568375e-05 -0.00014237095 0.00015780944
-7.0040245e-05 0.00011172718 9.231985e-05 0.00019016546 0.00013929977 -4.2080068e-05 0.00025802114 -4.8690576e-06
3.9818465e-06 -0.00013475491 0.00013494826 0.0001161208 1.401649e-05 3.113527e-05 0.0001036189 -2.6792024e-05
-6.624156e-05 8.205068e-05 4.185632e-05 0.00012568504 0.00018013212 -0.0001232475 -1.4555777e-05 -1.007259e-05
-6.85157e-05 -3.7118647e-05 -5.7716256e-06 9.134157e-05 -4.2249674e-05 -5.4455624e-05 -4.5871434e-06 -6.8665963e-06
-1.519744e-05 -4.0621773e-05 -9.558711e-05 -4.1949694e-05 0.00012031163 -7.2456664e-06 -0.00020932352 -2.142109e-05
-2.6681997e-05 5.889857e-05 4.1336185e-05 8.7163324e-05 -6.495726e-06 8.6361506e-05 -7.3962788e-06 -1.8650217e-05
2.2027723e-05 -0.00012116654 2.4893974e-05 -0.00013579303 5.8804508e-05 0.00010172532 -1.527454e-05 -0.00014610207
6.828873e-05 0.00018747164 9.841314e-05 4.7437963e-05 0.00012070094 8.0186575e-05 7.205e-05 6.378167e-05
-0.00017911001 8.6171734e-05 1.6091171e-05 0.00011984933 3.10866e-05 -6.5143846e-05 -0.000107563676 -0.000111058886
4.161414e-05 -1.34173115e-05 4.2355125e-05 -0.0001773592 5.825053e-05 -0.00011376957 -3.1506155e-05 3.1210104e-05
00000000: 3277 11b7 b90e 8fb7 d5ac 2eb9 546f 0eb8
00000010: a10b 82b7 b02e a038 060e 8bb8 8f84 b4b8
00000020: 64d7 e238 ad32 0ab9 f2de 7e38 adae 0cb9
00000030: 598a 1f36 f5cd 7e38 b4aa 1839 9e0c d838
00000040: 7fac e0b8 75bc 87b8 2a7f 31b7 54bd 81b8
00000050: 4b27 6db9 06a5 7f37 14ef 64b8 9d09 e137
00000060: d046 2438 9eb1 06b8 2e9d 5839 e6f3 0eb8
00000070: d7dc 2039 5b74 f738 d1a7 d738 5bb0 9db8
00000080: e8e6 37b8 248e 1e38 9d39 e7b7 00e1 2338
00000090: 3e4f 47b9 98d7 50b9 574d 1cb9 184f d5b8
000000a0: c06e 9738 1855 26b9 4606 20b9 bd26 27b8
000000b0: e580 d538 2274 2cb9 40e0 58b9 239e f538
000000c0: 1c41 3b39 c3ca 3539 a4b5 00b9 00b2 2338
000000d0: d098 6739 e98f 32b9 0d8c 86b5 7e0e b138
000000e0: a415 e238 7591 fe38 881e 1c38 f5c1 4239
000000f0: 93e6 8336 d2b7 6b39 02d7 1937 42ea 12b9
00000100: a457 9fb8 31f3 bab7 7c4d 5739 b9d7 01b9
00000110: b0b5 6ab9 913f 0139 ec3c ebb8 a340 7d38
00000120: 17e9 7938 630f 3938 334e 07b9 e3d4 b238
00000130: 5402 5cb9 8176 94b8 5fb8 d3b7 a90b e237
00000140: 5806 8638 8037 0e39 b087 6838 4337 98b6
00000150: 5ad3 9238 9b28 0b39 e15c 4239 c20b 92b8
00000160: 2555 2fb8 e575 f2b8 2379 f0b8 e05f 7838
00000170: e749 12b6 1c6a 62b8 d08a 01b8 430e 8838
00000180: 242e 7bb8 7960 2e36 145b 2838 c223 83b9
00000190: f9a2 7738 0d12 9438 c912 1cb9 33e0 9b37
000001a0: e69d 4637 f952 aa37 7841 1638 a5d7 2fb8
000001b0: 6193 13b9 a97f a537 feb3 2bb7 98eb 8738
000001c0: 33d6 2139 f457 b338 bc66 acb8 a74c 80b7
000001d0: 531d cdb8 3c31 c938 6ee1 ebb8 efa7 d4b8
000001e0: 0f5e 4bb8 5f89 96b7 c62c 2cb9 c043 2038
000001f0: 972a fd37 c5c8 25b9 29dd 1539 81ee 1639
00000200: dfc6 e7b7 5171 fab8 2da5 e0b6 2821 0f39
00000210: 7eb9 aeb8 a453 7bb8 3026 2e38 2c83 2439
00000220: 4e1a aeb8 79e7 bd37 71b8 b0b7 81f2 0b39
00000230: e7a3 8ab8 29fe f7b7 ef28 a437 28c7 28b8
00000240: 4542 2fb8 7183 5e38 2a71 5c37 63db 95b6
00000250: 5684 c4b8 c88f 57b8 c617 91b9 b803 2fb8
00000260: c801 2f38 efbc 8438 0560 c9b8 b76e abb8
00000270: 8237 5a39 aa9a 2439 f5ef f8b8 ec72 da38
00000280: 0fe0 ee37 7e36 5b37 d017 6138 a00f dd38
00000290: f954 cfb8 6772 3d38 9a94 10b8 c4f3 80b9
000002a0: 16da beb8 4668 4eb7 42c1 ceb8 273d 6739
000002b0: f87c a138 2437 83b8 6949 15b9 a679 2539
000002c0: 92e2 92b8 134f ea38 d89b c138 2767 4739
000002d0: ff10 1239 217f 30b8 0347 8739 e360 a3b6
000002e0: cd9b 8536 ff4c 0db9 e680 0d39 e185 f338
000002f0: 5e28 6b37 3e97 0238 f94d d938 6fbf e0b7
00000300: 2beb 8ab8 a012 ac38 e28e 2f38 52ca 0339
00000310: d9e1 3c39 003c 01b9 9634 74b7 72fd 28b7
00000320: 16b0 8fb8 d8af 1bb8 e3a9 c1b6 a28e bf38
00000330: 3e35 31b8 4867 64b8 43eb 99b6 9d67 e6b6
00000340: 82f8 7eb7 4c61 2ab8 f075 c8b8 24f3 2fb8
00000350: d14f fc38 cd1f f3b6 db7d 5bb9 71b1 b3b7
00000360: 27d3 dfb7 dc09 7738 6460 2d38 74cb b638
00000370: ddf5 d9b6 fb1c b538 8d2d f8b6 0973 9cb7
00000380: 2dc8 b837 ca1a feb8 67d3 d037 aa63 0eb9
00000390: dca4 7638 5e55 d538 d321 80b7 fa32 19b9
000003a0: 3c36 8f38 0994 4439 2763 ce38 20f8 4638
000003b0: d320 fd38 d729 a838 8d19 9738 86c2 8538
000003c0: 7acf 3bb9 19b7 b438 87fb 8637 9e57 fb38
000003d0: fc62 0238 d69d 88b8 cf93 e1b8 49e8 e8b8
000003e0: d88a 2e38 ea1a 61b7 78a6 3138 7ff9 39b9
000003f0: 0852 7438 9397 eeb8 7a25 04b8 98e7 0238
