our-vTR/10_fold_lightning_logs/dataset1/fold_7/version_2/checkpoints/epoch=49-step=1749_fold7.ckpt (torch, 132433 bytes, 18 tensors)

conv1d.weight f4 [128, 4, 12]
00000000: f937 d8be 7e89 cb3d 6894 07be c935 e4bd
00000010: 3c43 403e e0d2 12be 09e8 753e 3e46 8abe
00000020: 4cb6 63bc 1fa7 353e f664 f23d 9e1d 83be
00000030: 87b4 443e 1126 23be 25ea 323e db54 a9bd
00000040: 3f8d 92bd 8389 e03d cc92 a83d 327c 4d3e
00000050: e5f0 94be 3379 c23d e45c 82be 2520 c93d
00000060: 26c3 84be c52f 5a3e 6cb1 0c3c 3d5f de3d
00000070: 074d 3f3d 736e 29be 353e 443d c9a9 04be
00000080: be2e af3e d1e3 d2bd 7940 8b3d fec0 e4be
00000090: c00e ff3d add8 973d fa71 3bbe e972 09be
000000a0: 64cd 1a3d b27a 59be aca2 adbd 5d21 33be
000000b0: 0451 2cbd ef1c e5bc 252d 85be 2633 6e3e
000000c0: a22f 4b3d bb16 36be 802c ac3d d93a b73d
000000d0: 0ce3 533e cbb9 5dbe 6887 56be a188 51be
000000e0: 5fd0 0dbe 801c f9be 7365 c23d 61b1 18be
000000f0: 97b8 763e 4622 c93c c2ba 05bd 5593 00be
00000100: 1c0d c03d a182 413e 2872 6abd c1bf 8a3d
00000110: a8ee 823e b13e 11be bf3a 30bd 7fdc 4fbd
00000120: f902 5cbe 5b83 6e3c 2fe0 61bc 7d3b 98be
00000130: 2599 8fbe 335d 62be 7622 603d b099 603e
00000140: 0509 5d3d 3d25 56be 4331 5cbd bd56 113e
00000150: d7c3 80be 8050 be3c bf85 bebe 3d67 543e
00000160: 184d 91be 4731 8f3d cf42 6bbe 4cd8 dabc
00000170: ade4 653c 9672 283e 89b4 17be bee2 b0bd
00000180: ec70 03be d275 b2bd 260a c3bd 5191 843e
00000190: 7386 02bd fb2e cf3a c165 5dbe 541c 66be
000001a0: 9520 f53c b878 ffbc 6f81 2f3e 043b bfbd
000001b0: 9438 efbd 2da8 9dbc 49cd 4b3e 5631 babe
000001c0: 66c7 afbe 6486 40be c0e5 743e 361d ce3c
000001d0: b6c5 d4bd fb6f 88be af40 dfbe a291 fb3d
000001e0: 0b21 d13d 0e99 083e cb01 b83d b0f9 d7bd
000001f0: b6b0 003d 100c 323e b3b5 8b3c 1485 9abc
00000200: a9e2 943d 0e90 313e 3658 8e3d c420 483d
00000210: ce47 153e aa61 eebe a0a9 46bc 57d0 76be
00000220: df72 823e 7fde b7be 26e0 64be 52e7 943d
00000230: e995 babd 837f 05be 78ef f2bd ca7f 03be
00000240: 07ae ae3d 4207 d7bc 5205 98be 7352 ee3b
00000250: 9e44 ebbe d9df 943d d361 0ebe fbdc 01bd
00000260: 80a1 acbe a04a 37be 0242 833b afeb de3c
00000270: f96e 30be a8b0 b43d 8ccc 643d 99c9 90be
00000280: 5bdb fdbd cda0 40be ce07 06be e123 5bbe
00000290: 2256 9b3e 3aee 613a be56 c43c 2506 d63d
000002a0: 783d 26bd 9046 c83d a165 1bbd 75b8 c63e
000002b0: 2f14 223e efa0 483e f727 7d3e c613 b43e
000002c0: 3e63 7a3d e6cb 193c 39d4 83bb 0104 2cbd
000002d0: 31e5 323e dae8 c83d c23d 643e 28f6 98bd
000002e0: 19c4 afb8 8a6c d3be 68bc fcbe 4773 0bbe
000002f0: 0037 d1be 2e1a 9b3e 7e9c 2c3e 02a5 debc
00000300: dc7d db3c eba8 d7bd b4b0 37bd 6409 ea3d
00000310: 95f0 743e 6bd8 e03d 70c8 073e 8f1f 8d3c
00000320: 075a 43be d407 14be b3de 853e 498b c8be
00000330: c8f3 19be e944 e6bd 722d 553e 826d 36be
00000340: 4b9f 0e3e 6c90 15be a7e4 2fbe 11a8 6ebd
00000350: 0315 28be 4586 843e d9c1 4dbc c694 e03d
00000360: f073 bd3c 97e3 aa3e 6780 8d3d 5bae 1d3e
00000370: 8790 42be 9ac1 36bd b740 89bd 2ddd 9cbe
00000380: 1712 313e f4f9 fabd 85bf cfbd d70c fd3d
00000390: fe13 3e3e 6c5e 69be 74ca e1bd 2cd4 f3bd
000003a0: 6417 533d dcbe c43b 9c5d cdbd d73d ef3d
000003b0: 54d8 3bbe 1b3c 8b3c 2a16 4d3d 2d99 93be
000003c0: d5d9 873c a953 6a3d b594 83be 0d60 50be
000003d0: 4cf5 8bbd 488f 2dbe 88ad 8ebe fc9a 153e
000003e0: a93d 32be 2503 8fbd 06e6 91be def1 05bc
000003f0: 7498 4ebe 8e26 12be 60fc 173d ef8a 63be
-0.42230204 0.09938334 -0.13240206 -0.11143071 0.18775648 -0.14338255 0.24014296 -0.27006716
-0.013898443 0.17739533 0.11835663 -0.25608534 0.1920949 -0.1593249 0.17472132 -0.08268138
-0.07155847 0.10963728 0.08231124 0.20066908 -0.29090038 0.09495773 -0.25461495 0.09820584
-0.25930136 0.21307285 0.008587223 0.10858009 0.04670432 -0.1654604 0.047910888 -0.12955393
0.3421535 -0.10297359 0.067994066 -0.4467849 0.12453985 0.074143745 -0.18305197 -0.13422741
0.037793532 -0.21238211 -0.08478293 -0.17493196 -0.04206945 -0.027967898 -0.26011005 0.23261699
0.049605973 -0.17782108 0.08406925 0.08946771 0.2069208 -0.21652906 -0.20950091 -0.20462276
-0.13849019 -0.48654556 0.09492006 -0.14911415 0.24093853 0.024552476 -0.03264881 -0.12556203
0.093775004 0.18897487 -0.057237774 0.067748554 0.25572705 -0.14184071 -0.043024775 -0.05074739
-0.21485509 0.014557685 -0.01378636 -0.29732886 -0.28046528 -0.22105865 0.054720365 0.21933627
0.05396368 -0.20912643 -0.053757917 0.14193244 -0.25149414 0.023231745 -0.37211415 0.20742507
-0.2837913 0.06991821 -0.22974704 -0.026714467 0.014031571 0.16449961 -0.14814962 -0.08636998
-0.12836045 -0.08713879 -0.0952342 0.25892118 -0.031866502 0.0015806848 -0.21620847 -0.22471744
0.029922763 -0.031185493 0.17139219 -0.09337428 -0.11680713 -0.019245232 0.19902529 -0.36365765
-0.34331816 -0.18801266 0.23915768 0.025160413 -0.10389273 -0.26647934 -0.43604037 0.12283637
0.102113806 0.13339636 0.08984717 -0.10545671 0.031418525 0.17387414 0.017054414 -0.018862285
0.072697945 0.17340109 0.06950419 0.048859373 0.14578173 -0.46558887 -0.012125403 -0.24102913
0.25478265 -0.3591194 -0.22351131 0.07270683 -0.09110624 -0.13036923 -0.11862081 -0.12841716
0.08529287 -0.026248578 -0.2969156 0.0072730123 -0.45950788 0.07269258 -0.13904504 -0.031704884
-0.33716965 -0.17899561 0.0040056715 0.027211992 -0.17229833 0.08822757 0.055859134 -0.28278807
-0.12395354 -0.1881134 -0.13088915 -0.21400405 0.30339152 0.00086185674 0.023967143 0.10450391
-0.040585965 0.09779084 -0.037938718 0.38812605 0.15828012 0.19592641 0.24722277 0.35171336
0.0611298 0.009386992 -0.0040231016 -0.041996006 0.17470242 0.09810038 0.22289184 -0.074688256
-8.381176e-05 -0.41293746 -0.49362493 -0.13618194 -0.40862274 0.3029341 0.16856572 -0.027178291
0.026793413 -0.105302654 -0.04484625 0.11427572 0.239199 0.109787785 0.13260055 0.017226962
-0.19077311 -0.14456111 0.2614647 -0.39168766 -0.15034401 -0.11243612 0.20818117 -0.17815211
0.13927953 -0.14605874 -0.17177068 -0.05826575 -0.16414265 0.2588369 -0.012558424 0.10965876
0.023126572 0.33376762 0.069092564 0.15398543 -0.19000445 -0.044618227 -0.067017965 -0.30637494
0.17292057 -0.12254706 -0.10143951 0.12355965 0.18562314 -0.22789925 -0.11024943 -0.11905703
0.05153598 0.0060041975 -0.1002762 0.11681717 -0.18344241 0.016996434 0.050069965 -0.288278
0.016583363 0.05720869 -0.25699392 -0.2034914 -0.06833896 -0.16949189 -0.2786677 0.14609903
-0.17406334 -0.06983022 -0.28495806 -0.008175341 -0.20175344 -0.1427252 0.037105918 -0.22220968

conv1d.bias f4 [128]
00000000: 582b c93c f7b2 50bd 9f03 c9bd 4598 05bd
00000010: 9a90 f53b 0406 c83d 45e1 51be 024d 083e
00000020: d906 193d b106 253d b85a 10bb 40c3 b3bc
00000030: 9ec2 813d 8fb8 143e 5d2a 763c e9a9 773d
00000040: 6d53 a4b9 06ff 95bc 28d2 dd3d 97e2 c03d
00000050: 05f3 a13c 525f 3cbd bfd3 703d be91 0d3c
00000060: 7ff6 52bd 2824 9bbc de74 243e 0cd8 e7bc
00000070: 5a5f b73c 34db 05bd da22 1cbe ae9e 3f3d
00000080: 6109 cfbd 16c6 db3c 7058 32bc b88d 153c
00000090: 0672 9fbc 9aa8 93bd fb1a a23d 962f 18be
000000a0: df94 823d f738 99bd da87 6d3d 1be3 cdbd
000000b0: 27a3 c5bd 077c 99bc 963e 423d b768 02bc
000000c0: 6746 8fbc 13d7 2bbe 27f0 36bb b95d b73d
000000d0: b87f dd3c 8298 193d ffe8 27bb 6723 e9bc
000000e0: ad56 cc3d 6ad6 20be 7d3c 93bd 1e55 34be
000000f0: a25c 2c3d ec14 c5bd e2b2 36bd 24e9 203e
00000100: b087 e43d bb29 40bd 5a2e dfbc 12e5 dcbd
00000110: 6d46 a2bd d35d 07be 0baf 8dbd 6ccb e5bb
00000120: 3603 02be aa05 1a3c e088 5e3c 246e b33d
00000130: 2943 a23d 8868 d4bd 297e 6a3d c990 c73d
00000140: fa24 22bd 237a 063e 0183 14bc 7640 29bd
00000150: 582a cfbd 3e62 653d 3ca8 aebd 06b7 40be
00000160: fbca 2abe 6e84 94bd befb 11bd 4e9c 0e3b
00000170: 0c19 d1bb dc87 e6bc 41a7 d6bd e737 d0bd
00000180: 5b66 35be 835f e63c a566 00be 6241 cdbd
00000190: bdab 41be d6b7 813d e63f debd e41c 29bd
000001a0: a153 b4bc 5b14 4f3d d36d 69bd 4a67 04be
000001b0: 923a 133d 6485 ddbd 1d9e c53d 70e2 ffbd
000001c0: dfbd b4bc 648b fcbd c631 c83b 4ad6 c9bc
000001d0: 690c 2c3c 9030 9dbd 3747 813c 0c91 cfbd
000001e0: 6422 13be be0d 02be 157b edbd 1188 21be
000001f0: 4e3e 123e 3fcd 173d fbdb 083e 8ea4 1bbd
0.0245568 -0.050951924 -0.09815144 -0.03261592 0.0074940445 0.097667724 -0.2049609 0.13310626
0.037360046 0.040289585 -0.002202673 -0.021943688 0.063359484 0.14523529 0.015024749 0.060464773
-0.00031342675 -0.018310081 0.108311 0.094182186 0.019769201 -0.045989342 0.058795687 0.008640705
-0.05150461 -0.01893814 0.16060206 -0.028301261 0.022384334 -0.03267975 -0.1524767 0.046782188
-0.10109211 0.026827853 -0.010885343 0.009128027 -0.01946355 -0.072098926 0.07915302 -0.14861903
0.06376051 -0.07481568 0.057990886 -0.100530826 -0.096502595 -0.018735899 0.047422968 -0.007959536
-0.017489625 -0.16781263 -0.0027914138 0.08953423 0.02703844 0.03749896 -0.0025621054 -0.028459264
0.099774696 -0.15706792 -0.071892716 -0.17610595 0.04208053 -0.09623131 -0.04460419 0.15713936
0.11158693 -0.046914797 -0.027243782 -0.10785879 -0.07923589 -0.13219385 -0.069181524 -0.007012775
-0.12696537 0.0094007645 0.013582438 0.08761242 0.07922966 -0.103715 0.057249222 0.097444125
-0.039586045 0.13132529 -0.009064437 -0.04132124 -0.10115498 0.056001894 -0.08528182 -0.18819818
-0.16678993 -0.072518215 -0.03564047 0.0021760645 -0.0063811596 -0.028140955 -0.1048112 -0.101669125
-0.17714827 0.028121715 -0.12539156 -0.100222364 -0.18913169 0.06333892 -0.108520314 -0.041287318
-0.022012534 0.050556522 -0.056989502 -0.12930027 0.03594453 -0.10816458 0.09649298 -0.124943614
-0.022063194 -0.12331274 0.006109449 -0.024638314 0.010501006 -0.07675278 0.015781028 -0.10135087
-0.14368588 -0.12700555 -0.11595742 -0.15774561 0.1428158 0.037060972 0.13365166 -0.03799873

linears.0.weight f4 [32, 128]
00000000: 5521 a8b7 d4c3 4b38 e422 c036 f545 df38
00000010: ea7a 6db8 b194 4338 e05e 2039 1c83 dab9
00000020: 48cd f2b8 1b30 16b9 2eb4 0f39 0515 e3b9
00000030: 3b28 8ab9 89f3 0037 4db8 8eb8 e4dc 0a39
00000040: 6f38 25b9 a436 f738 c2bc 27b8 2a79 12b8
00000050: 230d 8539 e829 26b9 bb61 e338 c763 93b8
00000060: 8527 bc37 0a7a 0639 c528 2d37 94ea 99b8
00000070: ab2a 2eb9 deea 85b9 740c 9a39 c9a0 fc37
00000080: 915b 8139 4a9e f638 9ff5 99b9 d8b7 2eb9
00000090: 623c 2338 9d76 2939 abee 0c39 c422 19b9
000000a0: cc1d c5b8 9537 8bb8 0d88 9b38 7d5c 9d38
000000b0: 342a 1339 373d 8fb8 b19d 9e38 ce28 d538
000000c0: cf79 5e39 602f 7cb8 59a4 06b9 b38a 9ab9
000000d0: f639 e2b8 899b 92b7 d9d4 2039 8954 4eb9
000000e0: 9e49 4cb8 67b0 9639 02d0 2c39 bd64 91b8
000000f0: 4bbe cab7 f15c de37 6a66 1bb9 383d c136
00000100: acb1 bb38 ee5a 0338 865b 4239 f434 b038
00000110: 0b53 ce36 bd5b 3ab8 dfbf a2b8 c9f7 0d39
00000120: 2fee fd37 c733 8ab8 c3b0 84b7 8691 2ab9
00000130: c655 4739 a155 1f39 e469 86b8 f7bd af37
00000140: 7965 d938 7551 1539 f019 cdb8 2300 8cb9
00000150: 8220 da37 fa5e a7b7 4a7d 58b8 427f 0639
00000160: 5bca 0fb9 8bab 0cb8 758e 0e39 2c9c 3eb9
00000170: fb9e acb8 8d85 bdb8 b567 0939 804e 5d38
00000180: f9dd 1a39 0465 9b37 1577 98b5 5aa8 e638
00000190: e64b 5bb7 1193 2fb8 48f0 b439 2584 c5b8
000001a0: dfc9 ceb8 7583 2838 968d 5138 1e50 9839
000001b0: f7bb 6c37 c959 4cb8 336b 88b8 d51f 69b8
000001c0: 42b7 e938 7998 4db8 eec5 25b9 5c11 e338
000001d0: 7d06 bf38 48c6 0d39 e7d7 0137 36a2 9338
000001e0: 8587 6cb9 cdc0 f8b8 3a79 a039 c828 9038
000001f0: f3e9 81b8 d2bc 5eb9 8dd4 a838 71dc 1539
00000200: fb7d 33bd 9bd4 94bc 7b1f e4b9 0cf3 cdbd
00000210: 091a 7b3d c861 95b9 ecd4 fe3d 9423 97bd
00000220: 6939 383d 4ad9 42bd 2741 41bd 5128 b2bb
00000230: 61dc 27ba a99a a7bd f49c 5dbd 8cb1 a33d
00000240: 4543 953d 6ed4 5abc c8fd c6bc 4106 33bd
00000250: 6ec8 b13d 12c0 60bd f3b2 273c 4047 b03d
00000260: 6214 9cbc 68e6 593c 97b4 22bd 2d70 3bbd
00000270: f714 c23d 6b4b 8dbc a6d5 c43d 525e 19ba
00000280: 2b7f 013d fbe5 acbd da46 a43d 6043 b13d
00000290: dd58 6cbc 4e96 ae3d 0db6 08bd d84a d63d
000002a0: 6bcc 6f39 d74f a13d 162c 90bc b694 c73d
000002b0: 771f 3c3d fd86 383d d0df cb3d f1df 41bd
000002c0: c51f b53c 141f 863d 7af5 e0bd 54b7 6dbd
000002d0: 630b 9f3d 0b2f 64bc 0379 2abd 6eb1 bd3c
000002e0: cac5 f8bc dfd5 ed3d e450 783d 37ca 303d
000002f0: 264c 3fbd df8b 4f3e bba4 4f3d 6e11 c5b9
00000300: df31 bdbd d82a 8f3d b129 f1bc fabf 2a3c
00000310: 0952 08bd f9ee 403b 57d1 873d 9be4 cebc
00000320: 3d12 123c e13e 2f3d 7a2a 73bd 50f4 bf3d
00000330: 6421 27bd b874 543d c9ed 753d 6429 1f3d
00000340: 262c 2cba a667 8dbd 5178 433d 3730 a8bc
00000350: 48d6 3538 7b3d f43c 45b2 5b3d 27de 863b
00000360: 98dd ef3c d550 133e 550f cd3c 8202 6abc
00000370: 4a3c 323d 4773 c8b9 e496 f33c 6abb 5d3d
00000380: 7013 473c 2d47 10ba 1a0c 32bd 6d46 d53d
00000390: a7e1 b03d 10e8 5ebd bdf8 aabb 414f f83c
000003a0: c592 da3c 729c eebd 1a45 29bd 15ce 223c
000003b0: c5e8 893d aa59 513b 457e 8f39 d7fb 27bd
000003c0: c70b 413d 5bb7 bd3d 47bf d13c c117 6dbd
000003d0: cc5d 693c 92bf 473d 09cc 6bbb ac52 1cbd
000003e0: 5c5b e23c 2e06 16bd c61f 233c 3b56 bb3c
000003f0: b2b3 dabd b506 233d 114f 9dbc 86e2 6038
-2.0042682e-05 4.858135e-05 5.7261077e-06 0.00010646499 -5.6619676e-05 4.6630103e-05 0.00015294133 -0.00041677884
-0.00011577696 -0.00014323035 0.00013704665 -0.00043312475 -0.00026351385 7.686097e-06 -6.805416e-05 0.00013242994
-0.0001575665 0.000117880554 -3.9991697e-05 -3.4921955e-05 0.00025377524 -0.00015846605 0.00010842407 -7.028091e-05
2.242975e-05 0.00012824699 1.0321096e-05 -7.339302e-05 -0.00016609828 -0.00025542727 0.00029382447 3.0115612e-05
0.0002467302 0.00011759678 -0.00029365436 -0.0001666242 3.8918464e-05 0.00016161283 0.00013440351 -0.00014604168
-9.399242e-05 -6.6383895e-05 7.4163174e-05 7.503571e-05 0.00014034734 -6.8301735e-05 7.5633994e-05 0.00010164232
0.00021216947 -6.0125603e-05 -0.0001284046 -0.00029476508 -0.00010787316 -1.7476983e-05 0.00015338081 -0.00019677183
-4.870595e-05 0.0002874166 0.00016480687 -6.932903e-05 -2.4168889e-05 2.6507741e-05 -0.00014820104 5.758975e-06
8.949949e-05 3.131752e-05 0.00018535377 8.402197e-05 6.148946e-06 -4.4431294e-05 -7.760501e-05 0.00013539115
3.0270863e-05 -6.589997e-05 -1.5817937e-05 -0.00016266675 0.00019010072 0.00015195321 -6.4093416e-05 2.0950085e-05
0.00010366267 0.00014240092 -9.779993e-05 -0.00026702983 2.6002763e-05 -1.9952178e-05 -5.1615098e-05 0.00012826643
-0.00013712926 -3.3538363e-05 0.00013595245 -0.0001817799 -8.2312115e-05 -9.037098e-05 0.00013103972 5.2763615e-05
0.00014769276 1.8524479e-05 -1.135954e-06 0.000109986126 -1.3071089e-05 -4.1860218e-05 0.000345113 -9.418306e-05
-9.860447e-05 4.017675e-05 4.9961345e-05 0.0002905139 1.411046e-05 -4.872101e-05 -6.504953e-05 -5.5581175e-05
0.0001114444 -4.901781e-05 -0.00015809361 0.00010827437 9.108798e-05 0.00013520673 7.739268e-06 7.0397204e-05
-0.00022557199 -0.000118614735 0.000306079 6.874051e-05 -6.194776e-05 -0.00021241911 8.050455e-05 0.00014291868
-0.043821316 -0.018167784 -0.00043511004 -0.10056123 0.061304126 -0.00028492347 0.124429554 -0.07379833
0.044976626 -0.047570504 -0.047181275 -0.005436935 -0.00064033834 -0.08183796 -0.05410476 0.07992849
0.07288221 -0.013356311 -0.024290934 -0.043707136 0.08680807 -0.054870673 0.010235536 0.0860734
-0.019052688 0.013299562 -0.039723005 -0.045761276 0.09476655 -0.017247876 0.09611063 -0.00058505416
0.031615417 -0.08442303 0.08021326 0.08655429 -0.0144254835 0.08524762 -0.033376742 0.10463494
0.00022868968 0.07876556 -0.017599147 0.09745161 0.045928445 0.04505061 0.09954798 -0.047332708
0.022109875 0.065488964 -0.10984321 -0.058036163 0.07765844 -0.013927232 -0.041619312 0.023155894
-0.03036775 0.11613058 0.06062402 0.043161597 -0.04670348 0.202682 0.05069421 -0.00037587754
-0.09238028 0.06990594 -0.029438825 0.010421747 -0.03328136 0.0029439314 0.06631725 -0.025255492
0.008915481 0.042784575 -0.05936668 0.09372771 -0.04080333 0.051869124 0.060041223 0.038857833
-0.0006567858 -0.06904535 0.047722165 -0.020530803 4.3353328e-05 0.029814472 0.053636808 0.004115838
0.029280469 0.14386304 0.025031725 -0.0142828245 0.043514527 -0.0003823286 0.029735036 0.05413381
0.01215063 -0.000550377 -0.043468572 0.10413823 0.0863679 -0.05442053 -0.00521764 0.030311229
0.026681313 -0.11650933 -0.041325666 0.009936829 0.067338504 0.0031944313 0.00027369164 -0.041011658
0.047130372 0.09263488 0.025603903 -0.05788398 0.014243554 0.04876668 -0.0035979769 -0.03816478
0.027631454 -0.036626987 0.009956306 0.022868266 -0.106788054 0.03980132 -0.01920274 5.3616728e-05

linears.0.bias f4 [32]
00000000: 4d69 a939 aff8 2d38 76e9 ceb8 195f dc38
00000010: e85a aeb8 4760 1cb9 fd6e 9938 c3f4 bbb6
00000020: 103e 1238 d198 ceb8 1b27 dcb8 10c9 8738
00000030: 2d41 8939 acde c0b8 a92d 3139 67bf 8138
00000040: 1317 56b9 cc03 9038 8cf9 e43c bea7 d0b8
00000050: 05dc 93b9 69b4 a9b8 d484 6bb9 c096 b537
00000060: b899 98b6 1168 1038 417f 6638 674c 3037
00000070: b873 1d39 e3f9 7238 e100 ceb8 b7d3 99b8
0.00032312647 4.147802e-05 -9.866331e-05 0.00010508131 -8.313899e-05 -0.00014913185 7.316282e-05 -5.6015283e-06
3.4866913e-05 -9.85131e-05 -0.000104977014 6.4747524e-05 0.00026179236 -9.196749e-05 0.00016897045 6.186851e-05
-0.00020417226 6.867162e-05 0.027951024 -9.949457e-05 -0.00028201952 -8.092152e-05 -0.00022460829 2.164708e-05
-4.547848e-06 3.4429195e-05 5.4954788e-05 1.0508206e-05 0.00015015795 5.793002e-05 -9.823009e-05 -7.3350435e-05

linears.2.weight f4 [2, 32]
00000000: 8e23 7638 7c1d 21bf b18a 5d39 41a6 d1b8
00000010: 9105 58b9 8ed7 3039 8c04 74b6 db16 3a3f
00000020: 5ae5 3fbf 091e b437 7cbc ee38 5743 683f
00000030: fb3e 8938 40c4 56b8 1858 57b9 9202 ef38
00000040: ecd6 0eb9 924b 8a38 5166 6f3f a6fe d2b8
00000050: 1475 62b7 2b1b 6eb8 dc57 f338 2c47 00bf
00000060: 60e3 1f38 fb50 1dbf ca7a b6be c439 1bbf
00000070: 22e4 54be 6ed0 0239 79c2 a438 e450 f638
00000080: b1cd b138 298c 013f 1bfe ab38 1b1b 14b7
00000090: 50da 2839 e7c1 06b9 a7df f835 1653 4bbf
000000a0: dd60 373f 2648 8cb7 6266 d638 5cc3 71bf
000000b0: 710b 8db9 a31f c938 84df c536 78b2 8a38
000000c0: 1351 c8b8 28ff be38 2ac0 7ebf 48cf f638
000000d0: c0a1 87b8 54b0 d2b7 ed0b d1b7 120e 073f
000000e0: 6d5d a937 0b7d fd3e 61d1 b53e 6ea2 173f
000000f0: b5ad bf3e 5362 d638 789e 0e39 b5b7 29b9
5.8684083e-05 -0.62935615 0.00021127869 -9.996864e-05 -0.00020601439 0.00016864968 -3.636148e-06 0.72691125
-0.7495934 2.1471658e-05 0.00011383832 0.9072775 6.5444e-05 -5.1204348e-05 -0.00020536815 0.00011396887
-0.0001362224 6.594429e-05 0.935155 -0.00010061012 -1.3497909e-05 -5.6768924e-05 0.00011603508 -0.501086
3.8120314e-05 -0.6145169 -0.35640556 -0.6063502 -0.20790151 0.00012475412 7.856353e-05 0.00011745261
8.478331e-05 0.5060449 8.201246e-05 -8.827798e-06 0.00016103056 -0.0001285147 1.8542531e-06 -0.79423654
0.71632177 -1.6722897e-05 0.000102233855 -0.9443872 -0.0002690214 9.59032e-05 5.897078e-06 6.613595e-05
-9.5518444e-05 9.1074326e-05 -0.9951197 0.00011768803 -6.46743e-05 -2.511606e-05 -2.4920295e-05 0.52755845
2.0189875e-05 0.49509463 0.35511306 0.59232223 0.37437215 0.000102226295 0.0001360121 -0.00016185532

linears.2.bias f4 [2]
00000000: 91cf 10b8 1ce5 98bd
-3.4525587e-05 -0.07465574

exp_avg f4 [128, 4, 12]
00000000: 9a54 6a39 289e 0bb9 555b 9937 033f 0539
00000010: b547 c93a d346 bd39 c44e 8d3a 4fe1 09b9
00000020: 976c 323a 5634 fe39 6e87 c7ba 8696 2539
00000030: 8f76 1dba d61f 8e39 de21 ae39 bd4d a03a
00000040: e42a b339 4e9c ecb9 1c37 a8ba 44ac c3b9
00000050: ee3c 2538 d328 dcba a01d c939 a2bf 4fba
00000060: 814a 86b9 853f 9439 943c b2b9 a9a3 16b9
00000070: f794 f0ba 1bd6 e338 e08e cf38 b2a4 b539
00000080: 9ab1 ebb9 f65e 0c3a 87cc 223a bf32 1538
00000090: a906 263a 4790 dcb9 3460 2fb7 2821 9eba
000000a0: a1ae 2fb8 a300 9ab7 9bf6 de38 75f0 2539
000000b0: 2fcf 8db9 86d8 2c3a 87b3 073a d406 1d3a
000000c0: eefa 4339 392f 1b39 96db 403a c77f fcba
000000d0: cbf4 0d3a e4bf 4f3a a6d3 e438 b7a0 9138
000000e0: 6787 1b38 9dbd 80b7 45a8 beb9 9545 7cba
000000f0: 3b53 8db9 907a 003a 08c1 a0ba d29d a33a
00000100: b671 24ba d8d1 8bba ceeb e4b9 915a 3aba
00000110: d103 2cba 9610 01ba 14e7 59ba 22de 4c39
00000120: 715a e6b6 9f23 2e3a f7af a039 2bea 0839
00000130: 850b 2b38 5b27 0139 84a7 9439 97bc 0e3b
00000140: 52ee e539 0491 40ba 1bd3 633a d6dc 0d3a
00000150: bdbc bb38 01b5 aaba 033a 4139 6089 0f3a
00000160: 11c3 3c38 cf67 1e39 037b 3838 f265 c9ba
00000170: c750 3d39 c2d3 a23a 33d0 aa39 dec4 6c39
00000180: 3c95 9bb8 3430 f639 8fbe dc37 28a1 863a
00000190: 4d89 4ab8 eb63 5239 9eb2 c238 2420 18ba
000001a0: 90fe 5d39 7f4a d939 1537 0438 2b37 81b8
000001b0: 312f 9539 25ed 6839 d294 3739 9f27 25b8
000001c0: 5a84 9238 180d 4db9 ddc8 79b9 0f24 ad38
000001d0: 4094 113a 3763 2939 e5d2 b338 6fab ebb9
000001e0: 3125 09ba b4e1 3cba 416d 33b9 7451 84ba
000001f0: e35f 9539 d887 0bb9 cf04 3739 8c42 a3b9
00000200: 12f8 e738 f36c 88ba c328 a5b8 5997 b739
00000210: 8000 a439 19ca f137 24fb fdb7 3a62 b637
00000220: cdaf a0b9 0731 0639 09aa f4b7 ea1c 543a
00000230: e612 66ba b0b7 f339 508b 21b8 c2c3 2839
00000240: 7c63 09b8 078c 12bb 3f2a 8039 3505 1bb8
00000250: 71af 4d39 2b47 79ba 2d48 11bb 1a91 6e39
00000260: fa33 40b8 6f89 f839 daec 52ba a3f5 b739
00000270: a386 baba 0ad2 65ba b781 2bba a6fd 2b39
00000280: 0017 c3b9 2b6f 28ba 72b9 00b5 deb8 e238
00000290: 3092 d6b8 56f1 6cb9 15d7 13bb 944a 38ba
000002a0: 9d6b 5dba 0b47 a53a 12a9 0b3a 34de 6838
000002b0: e44a 3fba b760 b73a 5e53 0f3b 0214 00b9
000002c0: 12d6 fc38 65c1 0939 a462 833a 235f 68ba
000002d0: c6c3 163b 0dba f23a ebf1 00b9 e573 3fb9
000002e0: 8a6a 6d3a b8d3 4b39 846d fe37 85d9 5fb9
000002f0: 7658 e737 7cf1 c6b9 fae0 063b 7357 a23a
00000300: 604b 933a 0ee7 45b9 d7d7 7bb9 2a28 4738
00000310: f060 443a c095 92ba 207c ef39 d62c 87ba
00000320: e44b 33b8 778d 7b39 a654 e836 8ddd e237
00000330: bcb5 8b36 7f94 a53a 4329 293a 91fe bcb7
00000340: 5b72 84ba 520c 33ba fdca dd38 dd2a d939
00000350: 06ce 5e39 4753 50b7 21d1 abb9 945f f5b9
00000360: 7cf2 98ba 5374 9cba ef7b 4c3a 0f97 3b36
00000370: 9821 45b9 403d a93a ba0b 70ba b06c e7b8
00000380: 7ea7 bab8 dad7 b8b9 a244 2239 6d17 f939
00000390: dd6c 2338 5bcb f938 9f57 9bba adc4 e8b7
000003a0: 5c98 eb39 52bd 053a 9528 b939 d3b1 3e3a
000003b0: a54e a9b8 7327 0339 f71a 2e39 702d 0fb8
000003c0: 1c09 89b8 d38f a1b7 2a2c 80b7 f219 5039
000003d0: 0ff6 a6b9 7693 f4b8 3a87 4538 060f 72ba
000003e0: 1e71 3e39 84b7 a7b6 d1fc a638 80b1 9ab8
000003f0: bee9 79b9 4b7d fdb8 9bab 63ba 441f 91b8
0.00022347496 -0.00013314991 1.8281551e-05 0.00012707342 0.0015356453 0.00036101657 0.001078092 -0.00013149272
0.0006806342 0.0004848565 -0.0015222856 0.000157917 -0.00060067413 0.0002710807 0.000332131 0.0012230199
0.00034173497 -0.00045129884 -0.0012833807 -0.00037321646 3.939581e-05 -0.0016796835 0.0003835978 -0.0007924979
-0.0002561398 0.00028276086 -0.0003399594 -0.00014366083 -0.0018354942 0.00010864084 9.897142e-05 0.00034645718
-0.00044955016 0.00053547265 0.00062102865 3.557163e-05 0.000633339 -0.00042069165 -1.0453212e-05 -0.0012064325
-4.1885887e-05 -1.8358527e-05 0.00010631719 0.00015825203 -0.0002704798 0.0006593544 0.0005176593 0.0005990092
0.00018690128 0.00014799544 0.00073569396 -0.0019264155 0.00054152 0.0007925017 0.0001091131 6.944074e-05
3.7080983e-05 -1.5347085e-05 -0.00036364995 -0.00096234056 -0.00026955627 0.0004901076 -0.0012264559 0.0012482947
-0.0006273048 -0.0010667397 -0.00043663237 -0.00071088324 -0.0006561848 -0.0004923431 -0.00083123264 0.00019537707
-6.865063e-06 0.0006642881 0.00030648682 0.00013057205 4.0780305e-05 0.0001231706 0.0002835357 0.0021779889
0.00043855846 -0.0007345828 0.000869082 0.000541163 8.95201e-05 -0.0013023914 0.00018427525 0.00054754876
4.5004363e-05 0.00015106726 4.3983582e-05 -0.0015365465 0.00018054536 0.0012422728 0.00032580047 0.00022580053
-7.418773e-05 0.0004695669 2.631478e-05 0.0010271417 -4.8288424e-05 0.00020064383 9.283911e-05 -0.0005803129
0.00021171034 0.0004144497 3.152255e-05 -6.161475e-05 0.00028454655 0.00022213587 0.0001750768 -3.9375966e-05
6.986475e-05 -0.00019555201 -0.00023821318 8.255999e-05 0.0005553402 0.00016154056 8.574667e-05 -0.0004495042
-0.0005231677 -0.0007205263 -0.0001711147 -0.0010095076 0.00028490936 -0.00013306679 0.00017454031 -0.00031139364
0.00011061145 -0.0010408446 -7.8754056e-05 0.00035017243 0.0003128089 2.8823548e-05 -3.0276897e-05 2.1741831e-05
-0.0003064856 0.000127975 -2.9166245e-05 0.0008091467 -0.000877662 0.0004648543 -3.8515136e-05 0.00016094654
-3.2755997e-05 -0.0022361295 0.00024445538 -3.695973e-05 0.0001961568 -0.0009509201 -0.0022168264 0.00022751503
-4.5824774e-05 0.00047404642 -0.0008046158 0.00035087494 -0.0014230799 -0.0008766955 -0.00065424613 0.00016402322
-0.00037210435 -0.0006425257 -4.7953574e-07 0.00010810954 -0.00010231545 -0.00022596619 -0.0022558619 -0.0007030156
-0.00084465166 0.0012609673 0.00053276226 5.5520053e-05 -0.00072972314 0.0013990615 0.002186976 -0.00012214485
0.0001205617 0.00013137383 0.0010023904 -0.0008864274 0.0023004874 0.0018518582 -0.00012297153 -0.00018258354
0.0009056708 0.0001943846 3.0330157e-05 -0.0002134797 2.7578539e-05 -0.00037945423 0.0020580874 0.0012385681
0.0011237673 -0.00018873459 -0.00024017632 4.7482703e-05 0.00074912515 -0.0011183545 0.00045678113 -0.0010313045
-4.2747604e-05 0.00023989925 6.923993e-06 2.7044467e-05 4.1636795e-06 0.0012632756 0.0006452987 -2.2529888e-05
-0.0010104881 -0.0006830144 0.00010575911 0.000414214 0.0002124832 -1.2417156e-05 -0.00032771475 -0.00046801253
-0.0011668946 -0.0011936523 0.000780045 2.79531e-06 -0.00018799899 0.0012911931 -0.0009157021 -0.00011035183
-8.900369e-05 -0.00035256037 0.00015475092 0.00047510435 3.8963615e-05 0.00011911123 -0.0011851675 -2.774814e-05
0.0004493621 0.0005101758 0.00035316186 0.00072744227 -8.073197e-05 0.0001250783 0.00016603978 -3.4136174e-05
-6.534366e-05 -1.9259669e-05 -1.5279355e-05 0.00019846091 -0.00031845315 -0.000116622934 4.70944e-05 -0.0009233806
0.00018161951 -4.998352e-06 7.9625876e-05 -7.376354e-05 -0.00023833566 -0.00012087318 -0.0008684934 -6.9199625e-05

exp_avg_sq f4 [128, 4, 12]
00000000: 7afd bc34 4b07 a337 087f 0337 5bb6 b836
00000010: bf29 e937 a132 1d37 2870 0438 d55f ce36
00000020: 8e92 3737 608e f237 b308 1438 ff58 0036
00000030: 8643 dd37 c905 2f37 def2 0338 87ef ae37
00000040: b5f2 0037 fd2a be37 1fb3 0c38 0b94 ec37
00000050: 5ef3 6236 1d45 a137 222e 2f37 e1aa 0238
00000060: 8825 dc36 23ac ff37 dbad cd37 3fe8 0238
00000070: 566f 9b37 b558 7737 2a80 2a37 a54c a137
00000080: 3620 a637 82c6 8f37 7975 f337 d1d2 7935
00000090: f502 d037 16c5 be37 6897 9536 7b85 6c37
000000a0: 3472 8037 7931 2236 576b 6336 8164 8d36
000000b0: 6260 c736 0f6d 0a37 d146 9836 d992 0f38
000000c0: ce69 7a37 66ca 8836 c619 2b38 da2c ae37
000000d0: dc47 5238 eb70 fb35 fabd dc36 6f48 c536
000000e0: eb96 7535 b823 fb34 f76c 3338 6f10 0037
000000f0: fded a637 ac59 1d38 8ab6 1d38 4f3a 6d37
00000100: 531c 5738 3348 c637 bb9c 0038 72b6 d837
00000110: 3cf2 cb37 f2c9 a237 6ee2 1138 7d24 e037
00000120: 62d6 a636 35e1 9f37 f094 cb37 bb72 0236
00000130: 0423 d936 41a6 7636 b872 0438 e823 0a38
00000140: d429 ad37 32b6 e135 7700 c337 47da 0138
00000150: fc26 4d35 8118 bd37 8388 0c36 d15e 0338
00000160: f58d 5b35 060a b337 3f3b 0137 ff5d 9137
00000170: 46f8 bd36 6fb8 b337 6c7e d836 0833 2337
00000180: 2075 a036 d87c b536 0e74 7536 1665 7b37
00000190: b05b a236 7922 2937 6972 2036 f1f3 8036
000001a0: 4686 6e37 6051 ef36 5ee4 d337 e289 cb36
000001b0: ba18 bc36 eb17 8137 24b4 aa37 9347 0236
000001c0: a8ec 1835 6b2c 2f37 f932 b937 6007 7837
000001d0: 9637 da36 a183 cd35 f204 ce34 317e ba37
000001e0: 43f6 a437 4c7f 9637 1e15 a337 66e7 3c37
000001f0: ad34 2938 4f5a 9737 ecb4 a337 8807 8837
00000200: b221 aa37 c464 4337 1281 e137 f7ed cd37
00000210: 97f1 a937 0b95 d934 7b6f 5836 ba58 0536
00000220: 5f4a 3038 6392 0936 f261 8035 9cb1 bb37
00000230: 2f55 f536 9d1f 9a36 93e5 5b36 9bf3 8436
00000240: d8bd 8d38 c4b4 ff37 6973 b036 99f9 ac37
00000250: cebf cb36 a285 a338 06c0 9f37 f864 a837
00000260: e939 5336 54b8 1a37 c235 c437 5b1f 8838
00000270: 2787 9637 519b 8438 bb63 7838 8e37 e536
00000280: 106e da37 1c17 1437 bc5c 1537 5bb2 4937
00000290: da6b 9338 4e5d 4f38 71eb 9d38 f2f9 9338
000002a0: 3963 b238 f32b 9c38 cd1e 8f38 3981 3238
000002b0: 6130 9338 787a ad38 861f e937 6c48 8238
000002c0: 8b4f 8938 5dc6 0a38 748f a938 bcab 8638
000002d0: 54e2 d638 1402 9e38 d452 cc38 dd7a 8137
000002e0: d46e 4738 c1f9 e236 d4e3 1e35 4d21 fc37
000002f0: 05fa 6a35 24ac bb38 53c5 ec38 55c1 0f38
00000300: 3d1a bf37 b218 8a35 7451 df36 1e3a ca37
00000310: 5055 d237 9ae7 d737 f291 2138 453e 9737
00000320: 4a59 6c36 341f 1736 a6ac f437 45b9 1b35
00000330: 3bf9 5c36 22a5 3736 d0a4 3c38 3721 ca36
00000340: b955 a637 bb29 8137 d9a9 7737 2b7c 3737
00000350: f94f 2d37 01ea 7a37 f805 8537 86d5 c437
00000360: 4542 d637 e37d a336 38dd 2f38 5752 e137
00000370: 7dec 9c36 d5f5 9137 04c6 b937 ea5e cb36
00000380: 983d 8c37 de45 2937 c6de 1f36 9eb5 d537
00000390: 1fab 1b38 0e26 a135 62d9 5036 6aba 7136
000003a0: cda1 1837 ee83 7a37 1817 2137 0df5 d337
000003b0: 0dd2 7836 0023 9c36 9107 8b37 0173 cf36
000003c0: 0065 8436 4e70 6f37 ac57 a334 6fc5 b836
000003d0: a7c8 9436 5dec 9e35 dde8 6934 3a93 9737
000003e0: de67 2736 8a78 2b37 91c4 3135 0272 0637
000003f0: 8884 ff35 0a64 5136 4320 b936 0f88 bb36
3.5202157e-07 1.943451e-05 7.837785e-06 5.5048563e-06 2.7795204e-05 9.369717e-06 3.1575706e-05 6.1504347e-06
1.0941772e-05 2.8914947e-05 3.529405e-05 1.912529e-06 2.6376696e-05 1.043216e-05 3.145902e-05 2.0853955e-05
7.685904e-06 2.2669783e-05 3.354542e-05 2.820233e-05 3.3818283e-06 1.9224879e-05 1.0441554e-05 3.115356e-05
6.56088e-06 3.0478526e-05 2.4518862e-05 3.121071e-05 1.8529285e-05 1.4743001e-05 1.016263e-05 1.9228386e-05
1.9803741e-05 1.7139366e-05 2.902256e-05 9.3066507e-07 2.479691e-05 2.274154e-05 4.458172e-06 1.40977745e-05
1.5311969e-05 2.4168678e-06 3.3888116e-06 4.2138277e-06 5.9418826e-06 8.250833e-06 4.538197e-06 3.423062e-05
1.4925796e-05 4.076678e-06 4.079358e-05 2.0763302e-05 5.0134826e-05 1.8733821e-06 6.578627e-06 5.87949e-06
9.1489227e-07 4.6778382e-07 4.2778407e-05 7.633221e-06 1.9899564e-05 3.751523e-05 3.760172e-05 1.4139877e-05
5.1286373e-05 2.363706e-05 3.0663545e-05 2.5834164e-05 2.4312285e-05 1.9405943e-05 3.4781573e-05 2.6719872e-05
4.972143e-06 1.9059147e-05 2.426884e-05 1.9438291e-06 6.4711803e-06 3.675363e-06 3.1578093e-05 3.2935204e-05
2.0642685e-05 1.6816832e-06 2.3246028e-05 3.0959283e-05 7.642518e-07 2.2541966e-05 2.0941086e-06 3.132114e-05
8.179043e-07 2.134313e-05 7.7027935e-06 1.7329117e-05 5.6615418e-06 2.1424346e-05 6.452019e-06 9.727439e-06
4.7820067e-06 5.408754e-06 3.6575398e-06 1.4984302e-05 4.83865e-06 1.0081211e-05 2.3908453e-06 3.843096e-06
1.4217168e-05 7.1322283e-06 2.5259502e-05 6.065923e-06 5.605715e-06 1.5389136e-05 2.0349464e-05 1.9413171e-06
5.696879e-07 1.0441155e-05 2.2077455e-05 1.4783669e-05 6.5033773e-06 1.5311999e-06 3.8374088e-07 2.223169e-05
1.9664998e-05 1.794067e-05 1.9440948e-05 1.125955e-05 4.0341798e-05 1.8042656e-05 1.9515363e-05 1.621597e-05
2.028127e-05 1.1646367e-05 2.6882193e-05 2.4548715e-05 2.0258869e-05 4.0527843e-07 3.2251398e-06 1.987019e-06
4.2030933e-05 2.04998e-06 9.565249e-07 2.2374843e-05 7.3114857e-06 4.593238e-06 3.2767173e-06 3.962266e-06
6.758765e-05 3.0482544e-05 5.2586443e-06 2.0620226e-05 6.0722004e-06 7.797337e-05 1.9043695e-05 2.0074178e-05
3.1475158e-06 9.2220325e-06 2.3390054e-05 6.490826e-05 1.7944329e-05 6.3231804e-05 5.922069e-05 6.8311992e-06
2.6038877e-05 8.826868e-06 8.9026835e-06 1.202206e-05 7.029595e-05 4.9439543e-05 7.530198e-05 7.056062e-05
8.506183e-05 7.446846e-05 6.8245085e-05 4.2558855e-05 7.0185175e-05 8.2720944e-05 2.7790444e-05 6.212373e-05
6.547485e-05 3.3086504e-05 8.085268e-05 6.421606e-05 0.00010246472 7.534414e-05 9.742906e-05 1.5435211e-05
4.7548514e-05 6.7644e-06 5.919112e-07 3.0056248e-05 8.753562e-07 8.9489185e-05 0.000112901114 3.427391e-05
2.2781192e-05 1.0288989e-06 6.6554003e-06 2.410734e-05 2.5073678e-05 2.5737845e-05 3.8521313e-05 1.80296e-05
3.5218713e-06 2.2518916e-06 2.9167462e-05 5.80116e-07 3.2927626e-06 2.7365245e-06 4.4976186e-05 6.023936e-06
1.982866e-05 1.539743e-05 1.4761893e-05 1.093656e-05 1.0330224e-05 1.49556445e-05 1.5857615e-05 2.346445e-05
2.5541647e-05 4.8724337e-06 4.1929277e-05 2.6860433e-05 4.676693e-06 1.7399821e-05 2.2145927e-05 6.060921e-06
1.6717982e-05 1.0089452e-05 2.3822518e-06 2.547615e-05 3.711425e-05 1.200651e-06 3.1120949e-06 3.6020306e-06
9.097578e-06 1.49318785e-05 9.601725e-06 2.526727e-05 3.7077145e-06 4.653237e-06 1.6573615e-05 6.182469e-06
3.9456645e-06 1.4271658e-05 3.0424906e-07 5.5066116e-06 4.4341027e-06 1.1840708e-06 2.1784531e-07 1.806916e-05
2.4945398e-06 1.0220459e-05 6.622368e-07 8.013567e-06 1.9037552e-06 3.1201657e-06 5.5171854e-06 5.5888736e-06

exp_avg f4 [128]
00000000: 38aa a6b9 d5bc 8fb9 f576 37b9 7b73 07ba
00000010: 1104 9839 9173 2cb9 9331 0d3a cf01 82b9
00000020: 7396 3a39 0622 76b9 eb86 82b9 5a07 74b9
00000030: e164 09b9 5c8f 8fb9 71ed adb9 bf56 b439
00000040: 005f a939 181e 8ab9 e1f1 8cb9 5126 8db9
00000050: 5b8e 8f39 718f c5b9 2d8d e038 fd23 8839
00000060: 4f16 50b9 d8fc 0639 d9b6 71b9 0cb9 a1b9
00000070: 1a1d a539 9f86 5fb9 9457 b739 286e 30b9
00000080: d3e9 5f39 cf69 d0b9 8e83 d839 e876 ce39
00000090: 2f5e 4fb9 ef42 d639 4aff 8bb9 1be9 f739
000000a0: 6e91 0939 be39 ce39 1c92 45b9 6631 ee39
000000b0: 5f47 9d39 8ea4 7d39 ddbb 9b39 f8d6 aeb9
000000c0: a488 3039 c0d3 8339 07f8 c8b9 1c51 bcb9
000000d0: a4dd ae39 0a2c 17b9 a4a1 88b9 3449 4039
000000e0: c8d3 89b9 6fa9 e339 bd7a 9739 1ded 8f39
000000f0: 1787 81b9 4d6a 473a 0d3c 8139 1611 7fb9
00000100: 1f72 e3b9 7586 4839 b4d0 a0b9 fc65 5f39
00000110: a2cc 7ab9 3a0c 1639 abd8 a339 a636 87b9
00000120: e405 0b39 b791 7939 0ff9 91b9 a7d1 b039
00000130: db49 88b9 1b75 8939 60f8 c739 bfd9 5539
00000140: 4308 0eb9 43fc bbb9 1a9d 6d39 a35f 80b9
00000150: 5c1b 84b9 69c3 5d39 2397 3139 127c 3c39
00000160: e345 8039 5bba 1d3a 7da9 7739 865b 6ab9
00000170: 609d 1139 14e2 c7b8 417a 6e39 81dc 9339
00000180: 3833 8439 2248 0bb9 76e6 b1b9 0aca 0a3a
00000190: c983 d639 e8f9 c4b9 e5db 45b9 d1fe 7539
000001a0: cff7 3139 9ef2 00ba f86d b3b9 80df 3639
000001b0: 6979 a839 6ad9 3239 8b2d d938 2b1a 02ba
000001c0: 6dae 9139 ec6a e939 54b4 4b39 c1a7 beb9
000001d0: 21d0 3139 4ec7 3939 759b 88b9 0317 b0b9
000001e0: df8c 4639 f704 a0b9 8eeb 4b39 1dcb 6d39
000001f0: 134a fdb9 1eab 7839 efac 6eb9 cbd0 3738
-0.0003178881 -0.00027415776 -0.00017496555 -0.0005167049 0.0002899473 -0.0001644625 0.000538611 -0.0002479688
0.00017794389 -0.00023473063 -0.00024896054 -0.00023272392 -0.00013102918 -0.00027381897 -0.0003317404 0.00034396906
0.00032304972 -0.00026343833 -0.00026883095 -0.00026922164 0.00027381149 -0.0003768164 0.000107074484 0.00025966755
-0.00019844736 0.00012873427 -0.00023051667 -0.00030846184 0.00031492935 -0.00021317088 0.0003496973 -0.00016825704
0.00021354044 -0.00039751685 0.00041296746 0.00039379974 -0.00019776144 0.0004086713 -0.0002670235 0.00047285188
0.00013119515 0.00039334403 -0.00018841814 0.00045431702 0.0002999855 0.00024189262 0.00029703873 -0.0003334803
0.0001683557 0.00025144033 -0.00038331767 -0.00035918585 0.00033353 -0.00014416888 -0.00026060373 0.00018337817
-0.00026288466 0.00043423052 0.00028892412 0.0002745175 -0.00024705447 0.00076070876 0.0002464954 -0.0002432506
-0.0004338184 0.00019123575 -0.00030673074 0.0002130493 -0.0002391809 0.0001430967 0.00031251213 -0.00025789923
0.00013258267 0.00023800773 -0.00027842118 0.0003372554 -0.00025994968 0.00026217927 0.00038141292 0.0002039438
-0.00013545253 -0.0003585537 0.00022660606 -0.00024485317 -0.00025197386 0.00021148998 0.00016936338 0.00017975297
0.00024466132 0.0006016844 0.00023618895 -0.00022350074 0.00013886904 -9.53117e-05 0.00022742992 0.00028202313
0.00025215163 -0.00013282945 -0.00033931778 0.00052943884 0.00040915448 -0.00037570228 -0.00018869301 0.00023459947
0.00016972351 -0.0004918965 -0.00034223474 0.00017440133 0.00032133915 0.00017056396 0.000103558494 -0.0004963006
0.00027786513 0.00044520886 0.00019426766 -0.0003636461 0.0001695757 0.00017717222 -0.00026055766 -0.0003358648
0.0001893523 -0.00030521277 0.0001944734 0.00022677747 -0.0004831111 0.00023714869 -0.00022761872 4.3825054e-05

exp_avg_sq f4 [128]
00000000: e01a 6739 5999 6739 2d1b 1b39 f2b1 243a
00000010: c160 4f39 034a f438 7841 0f3a 9cd8 0539
00000020: 8639 9038 06b4 3539 c898 8239 3c20 4239
00000030: 034d 3438 c023 8139 b4e4 7e39 d7eb 4639
00000040: 0859 3139 474b 4939 a312 3339 9f93 1b39
00000050: 9d2a 9439 d018 c039 10d8 1838 344d 0439
00000060: 2999 0f39 d9ea 1638 7f7f 3439 3c62 9539
00000070: b081 4439 b796 eb38 9e8c a239 ad14 f438
00000080: cc0d 9e38 33e9 c239 3909 ce39 6d18 a539
00000090: d662 c138 5878 0a3a ce41 4339 c244 143a
000000a0: 2434 a338 41a5 183a 2c11 9a38 84bd ea39
000000b0: 3ab3 3839 78a0 ee38 0db6 8b39 3018 9739
000000c0: 59a5 2638 744a 1c39 b638 9539 1823 9739
000000d0: fffe 9239 e1b9 3438 5e5b 1239 f585 8238
000000e0: fd02 5439 37a4 e739 c0ab fc38 e52e 5039
000000f0: 2310 0439 d601 163b 7cf8 9e38 245a 6339
00000100: 381c e539 7c2b b138 7dcc 9139 0f43 ea38
00000110: d0e9 f538 74c6 3938 78dd 1139 0bb7 4a39
00000120: 5302 b137 36d2 b138 891e ca38 f717 a339
00000130: dc66 0739 0fac 0739 992b c139 0d90 b638
00000140: b77a 4038 5191 8e39 bd0f a438 979a f938
00000150: 8390 4b39 ff3d 5239 189d 8138 db87 b338
00000160: e611 e838 97d6 603a b147 2e39 a326 0f39
00000170: e69b 2438 f30f 9438 5389 1f39 e5b5 7539
00000180: e739 1d39 19ca 3c38 6d9f ac39 fcdc 663a
00000190: 34a2 2c3a 0739 bb39 02e8 bb38 2c24 0f39
000001a0: c294 4c38 03a9 693a 800f aa39 10b4 9338
000001b0: 2348 5439 a153 bc38 3907 2538 152a 3b3a
000001c0: dab3 5b39 9a2e 193a a1b6 a438 e70f 9d39
000001d0: 7006 5638 dc01 0c39 b7cb 5239 af64 bc39
000001e0: 36c2 a238 6d6c 4039 1025 a138 12df 3239
000001f0: b8cc 103a 69e1 d438 dca0 0839 73ab d936
0.00022039888 0.00022087003 0.00014792076 0.00062826194 0.00019777102 0.000116486124 0.00054647727 0.00012764562
6.87717e-05 0.00017328569 0.00024909363 0.0001851329 4.2987067e-05 0.00024631433 0.00024308526 0.00018970609
0.00016913202 0.00019196897 0.00017077713 0.00014836945 0.0002826051 0.0003663958 3.6440848e-05 0.00012617261
0.000136946 3.5981506e-05 0.00017213634 0.00028492685 0.00018740329 0.00011233746 0.00031003816 0.00011638678
7.536597e-05 0.0003717631 0.00039298253 0.0003148945 9.221367e-05 0.0005282215 0.00018621163 0.00056559977
7.7821576e-05 0.00058229646 7.346491e-05 0.00044773158 0.00017614375 0.00011378614 0.00026647784 0.00028818985
3.9731476e-05 0.00014905055 0.00028461748 0.0002882711 0.00028037277 4.3088457e-05 0.00013957682 6.2238345e-05
0.00020219009 0.00044182103 0.00012048287 0.00019853895 0.00012594512 0.0022889278 7.580311e-05 0.00021681987
0.00043699308 8.448117e-05 0.0002780891 0.0001117048 0.00011726061 4.429226e-05 0.00013910781 0.0001933241
2.1101127e-05 8.4791725e-05 9.637798e-05 0.00031107638 0.00012912921 0.000129387 0.0003684431 8.705268e-05
4.5890654e-05 0.0002719262 7.823061e-05 0.0001190204 0.00019413423 0.00020050256 6.18046e-05 8.56069e-05
0.00011065956 0.0008576898 0.0001662064 0.00013651936 3.924584e-05 7.060161e-05 0.00015214579 0.00023432782
0.00014994257 4.501091e-05 0.00032925178 0.0008806733 0.00065854494 0.00035709908 8.96007e-05 0.00013651018
4.877593e-05 0.00089134293 0.00032436475 7.0430455e-05 0.00020244769 8.980116e-05 3.9345792e-05 0.00071397546
0.00020952467 0.0005843431 7.854147e-05 0.00029957222 5.102757e-05 0.00013352133 0.0002010305 0.0003593317
7.7609366e-05 0.00018350939 7.683982e-05 0.00017058503 0.00055236695 0.00010150934 0.00013029895 6.4870633e-06

exp_avg f4 [32, 128]
00000000: 619b d038 4a41 ba36 51ce 2f38 4a1b 2cb8
00000010: ef39 1a38 c0b0 f5b8 e9d7 40b9 a942 1b39
00000020: 61c3 f2b7 e839 3b39 70b6 59b9 da8c 0b38
00000030: 2a79 ecb6 d900 11b9 44d9 9038 dddb 4438
00000040: fc4c 2c38 9879 cc37 464f 91b8 601d b8b6
00000050: 6623 b6b8 d641 2c38 1fb4 0bb9 a4e5 9338
00000060: aedd a2b8 90ff b637 cb03 1639 5251 0238
00000070: a5fe 8639 bbc4 9638 7d8e dcb8 acf0 fa38
00000080: 56d5 b637 f800 2cb8 641b 0a39 c732 4439
00000090: 1118 1539 d2d5 40b9 43a1 b3b8 fe79 b6b7
000000a0: d6a8 b9b6 2f1e 0039 faa0 e1b6 d89a 07b9
000000b0: 04e0 e538 73ba 0639 ec73 1cb8 2ef4 fa38
000000c0: de03 b737 b56b 08b8 4024 84b8 8d9d dc38
000000d0: 8d9b 75b8 94dc 15b9 5f8b 3e38 af40 b638
000000e0: ff1d fe37 de3f b6b8 172e 2cb8 f8c8 f338
000000f0: 332d dc38 77c6 17b9 435d 2439 6387 98b8
00000100: 3364 ebb5 649b 86b8 3e35 2c38 1113 c1b8
00000110: 53b2 1439 7e6d ca38 4830 2737 d403 2cb8
00000120: 713f 05b9 2111 bf38 f6d2 9737 e145 2c38
00000130: 6f18 6db9 c7b5 59b9 4835 8838 16f8 15b9
00000140: de79 5238 2ff5 b5b8 1677 99b6 1e4b b638
00000150: 1aea b537 9c2c be37 eb35 84b8 3b8e 5038
00000160: 5f1d ae37 cbce 1739 dc20 2cb8 b8b2 b6b7
00000170: 72dc 60b8 2750 9cb8 129b 5038 ab7e be37
00000180: 5756 24b9 e7e5 c4b8 a27c 2338 68ba 59b9
00000190: 1ab0 b8b6 6339 b8b6 8eae 9538 ba2b ed38
000001a0: 675c 2439 785b 99b8 b25d cab8 7773 dcb8
000001b0: f18f 0339 9c60 2439 1efa 9838 2a7f 8738
000001c0: 2335 38b9 d68a aab8 0148 b638 1aa7 5735
000001d0: 9ad7 eab6 a291 adb7 87da beb8 b552 24b9
000001e0: 42b7 b6b7 ec5e 50b8 6799 9b38 be98 aa38
000001f0: edc1 fab8 20b6 aeb8 9490 03b9 a973 a5b8
00000200: 30ac c739 2019 1dba d170 04b9 48c7 77b9
00000210: 203d 243a 5bf3 1eba a0ea e039 94b0 8fb9
00000220: 5873 0d3a 31f9 af39 9fa5 a4b9 80f2 8e39
00000230: d53d acb9 c97b 093a 5cbe 7db9 83d7 c639
00000240: 0d69 2a38 c8c7 59ba 1e81 0f39 e296 deb9
00000250: c66f 023a 5511 1bb8 8426 143a 3aa9 333a
00000260: 62b4 40b9 c5c5 1b3a f161 b4b8 7013 e1b9
00000270: 1e37 ba38 a762 2a37 c84e cf39 4e62 6cb9
00000280: e59b 4c3a 5d04 db39 a82a 9f3a d3bb e239
00000290: 3a08 58b9 0832 4537 52e8 89b8 261c 183a
000002a0: 4999 083a 4504 133a 1faa 15ba 515c eb38
000002b0: 8967 bc39 fd7a 3c3a 9438 7e3a a38e 96b9
000002c0: fc8a fc39 89ab d339 86e0 16ba aa64 f5b9
000002d0: 6ae3 033a d3a5 2337 a118 813a 0aa4 2d3a
000002e0: 894b 2238 47c6 3c39 1dff 1fb9 f3b0 ff39
000002f0: 117c d136 fb2f 25b9 b144 a039 d480 c239
00000300: 1c77 69b9 b719 193a 9044 20ba e251 4639
00000310: 5aad 5d39 e728 e838 0c2f aa38 e009 d1b9
00000320: 8755 6b3a aa7b 9839 adf2 0d39 40f9 e139
00000330: 0335 9eb9 1a3f 1b3a a46e 503a 6b68 d839
00000340: e9a7 0dba 6bfc c3b9 c2c8 c4b9 91f2 413a
00000350: d426 c9b9 9a69 483a 54f6 323a b98c 7439
00000360: bd01 2f39 048c 7e39 4500 4a3a 57ff 7fb9
00000370: 10a8 523a 8fe1 94b9 619a 1a3a 6055 023a
00000380: ca23 503a 55a4 d0b9 dcee 80b9 2af6 81b8
00000390: 8034 d139 4f41 bb39 e3cb 1cba 9cce 803a
000003a0: 3882 fb39 09c2 c4b9 d266 1bb8 c197 3a3a
000003b0: 810d e139 e51d 1f3a b7a0 b339 a73e 0bba
000003c0: 5dd2 91b9 9e23 f339 ff9d 8139 4ddc a137
000003d0: 5674 9a39 72b4 3e3a dcc0 a0b9 ee8f f1b8
000003e0: cb83 073a aa25 08b9 8b23 8038 5eb6 2e3a
000003f0: 330a 9839 a21a 293a 84ca 08b8 36a4 483a
9.9471545e-05 5.5508326e-06 4.19154e-05 -4.103341e-05 3.6770416e-05 -0.000117154326 -0.0001839098 0.00014806785
-2.8939628e-05 0.00017855281 -0.00020762696 3.327136e-05 -7.0474534e-06 -0.00013828593 6.906924e-05 4.6934805e-05
4.1079693e-05 2.4375317e-05 -6.9289046e-05 -5.487047e-06 -8.68503e-05 4.106931e-05 -0.00013323173 7.05228e-05
-7.766053e-05 2.1815096e-05 0.00014306528 3.107015e-05 0.00025748197 7.189201e-05 -0.00010516958 0.000119657576
2.1795433e-05 -4.1008898e-05 0.0001317091 0.00018710933 0.00014218713 -0.00018390201 -8.5654225e-05 -2.1752898e-05
-5.5330847e-06 0.00012218276 -6.7242627e-06 -0.00012932287 0.00010961297 0.00012848694 -3.730126e-05 0.00011966411
2.18171e-05 -3.2525237e-05 -6.3010026e-05 0.000105197636 -5.855742e-05 -0.00014291919 4.542933e-05 8.6904845e-05
3.0293128e-05 -8.6903325e-05 -4.105092e-05 0.00011624576 0.000104988365 -0.00014474416 0.00015675001 -7.2731425e-05
-1.7538026e-06 -6.418562e-05 4.105758e-05 -9.2065085e-05 0.00014180811 9.652505e-05 9.965217e-06 -4.101156e-05
-0.00012707502 9.11078e-05 1.8098839e-05 4.1073075e-05 -0.00022611184 -0.0002076245 6.49491e-05 -0.00014302167
5.01814e-05 -8.6764216e-05 -4.5736188e-06 8.692428e-05 2.1685893e-05 2.2670538e-05 -6.3042935e-05 4.9723527e-05
2.0756093e-05 0.00014477519 -4.10386e-05 -2.1779313e-05 -5.3611067e-05 -7.453589e-05 4.9735485e-05 2.270875e-05
-0.00015672423 -9.388831e-05 3.89783e-05 -0.00020764174 -5.5041282e-06 -5.490308e-06 7.137387e-05 0.00011309185
0.00015674681 -7.312646e-05 -9.649563e-05 -0.000105119245 0.00012546756 0.00015676249 7.294513e-05 6.460988e-05
-0.00017567402 -8.132092e-05 8.691848e-05 8.0336906e-07 -6.9988428e-06 -2.0691023e-05 -9.10061e-05 -0.0001567107
-2.1781427e-05 -4.9679467e-05 7.4195494e-05 8.134682e-05 -0.000119570504 -8.33089e-05 -0.00012546993 -7.8893565e-05
0.00038084527 -0.00059928186 -0.00012630528 -0.00023629994 0.0006265212 -0.00060634845 0.0004289942 -0.00027406646
0.00053959107 0.00033564263 -0.00031403915 0.00027265027 -0.00032852465 0.00052445807 -0.00024198875 0.00037926072
4.0628995e-05 -0.0008307663 0.00013685643 -0.00042455556 0.0004975762 -3.697102e-05 0.0005651491 0.0006853525
-0.00018377745 0.0005942251 -8.601312e-05 -0.00042929826 8.8794375e-05 1.0155759e-05 0.00039540813 -0.00022543335
0.00078052125 0.00041774186 0.001214345 0.0004324602 -0.0002060243 1.1753764e-05 -6.575942e-05 0.0005802534
0.00052108295 0.0005608241 -0.0005709249 0.000112228685 0.00035935294 0.00071899575 0.0009697762 -0.00028716502
0.00048168737 0.0004037286 -0.00057555025 -0.00046805042 0.0005031141 9.754166e-06 0.0009849259 0.000662387
3.8694157e-05 0.00018002941 -0.00015258459 0.00048769228 6.2431286e-06 -0.000157535 0.00030568757 0.00037098548
-0.00022264983 0.00058403186 -0.0006113732 0.00018913255 0.00021140781 0.00011070241 8.114995e-05 -0.00039870944
0.0008977283 0.00029083836 0.00013537212 0.0004310105 -0.00030175605 0.00059221836 0.0007951057 0.00041276528
-0.00054037437 -0.00037381364 -0.0003753361 0.0007398511 -0.00038366637 0.00076451304 0.0006826867 0.00023322077
0.00016689948 0.00024275488 0.00077057286 -0.00024413817 0.00080359075 -0.00028396814 0.0005897638 0.00049718283
0.00079399033 -0.00039795288 -0.00024592027 -6.197051e-05 0.00039902702 0.00035716078 -0.0005981309 0.0009827199
0.0004797147 -0.000375286 -3.705064e-05 0.000711795 0.00042925405 0.0006069823 0.00034261282 -0.0005311765
-0.00027813288 0.0004637511 0.00024722514 1.9295281e-05 0.00029459846 0.0007274813 -0.0003066127 -0.000115185845
0.000516948 -0.00012984002 6.110136e-05 0.0006664748 0.00028999298 0.0006450807 -3.2613534e-05 0.0007653864
