our-vTR/10_fold_lightning_logs/dataset1/fold_4/version_4/checkpoints/epoch=14-step=524_fold4.ckpt (torch, 132433 bytes, 18 tensors)

conv1d.weight f4 [128, 4, 12]
00000000: c142 0abe df64 023e 0eed 903d c490 24be
00000010: d3d1 453e b502 0bbd 3069 ebbc 849d e2bd
00000020: 6313 54bd 8cc5 5e3e add8 eb3d a813 b3bd
00000030: f825 8f3d 872f 39bd 1970 ea3d 7cb9 85bd
00000040: 7858 24be 270b 14bd 2a6a 643e 61fb 823d
00000050: 62e6 35be 30df 013d a893 13be ccae 91bd
00000060: da39 f6bd 3188 2b3d c8ee c8bd ad19 b93d
00000070: f8dd 853d b387 1fbe 7d81 b93d 55ed b8bd
00000080: 6cae 0d3e 30e5 8abd ccc6 90bc 118b 4bbe
00000090: 88fd c73d 4cac 163e 0a5c 03be 598e 37bd
000000a0: 6f34 5e3d 9391 acbd 8b4e 86bc 9971 a4bd
000000b0: 871f 323e 7c3c e4bd 153f 24be d5bd 7e3e
000000c0: 7246 783d 94e2 b6bd 33f2 1e3d d337 9c3d
000000d0: 7812 b13d df59 35be 2e2c d6bd 97f8 26bc
000000e0: f950 a1bd 918c 68be fa51 ca3d c713 86bd
000000f0: 081b 483e 8d0c a93c 38df 273d 82d0 76bd
00000100: c3eb fb3d 17dc ef3d c29a 19be 0ee6 103d
00000110: d6fe 863e d845 bebd 3349 9fbd 7f01 d4bd
00000120: 8680 2dbe d3a4 07bd fd33 21be ea7a 2ebe
00000130: 39e6 efbd eaa2 f3bd 78c0 1b3c b015 bd3d
00000140: 53ea be3c 0407 89be cf8f f8bc e925 b43d
00000150: e2f9 32be cdc4 413d 9d2b 3bbe b102 0c3e
00000160: 8e4d 12be 53a2 ce3d 766e 00be 9f1e 253d
00000170: 9b85 7b3c 1dba 993d 599c e9bd d484 ed3b
00000180: 3855 f4bc a4b9 04be ecb2 02bd 37b8 483e
00000190: cb29 d0bd be5d ddbc b6cb 8cbd 0b30 3cbe
000001a0: 13b5 b73c b6f4 6e3d f271 cd3d b332 c6bd
000001b0: 18b4 e8bd 02e2 1bbd 811c bc3d 8ae4 71be
000001c0: 55c0 c8bd 2ae4 c2bd d403 823e 19f2 cabc
000001d0: ee6c 133d ab66 30be 15e3 85be 470c 9b3d
000001e0: 0787 e73d c6a8 0a3e 339d f83d 07ad 10be
000001f0: e6fa 0e3e dd63 fc3d c624 f7bc 8baf 07be
00000200: ac80 8abb 17fe 493c eac6 9b3d 9ca8 003e
00000210: 5176 b23d 9e75 a7be f457 7f3d 747f 16be
00000220: 08c7 073e 2710 6dbe dd52 20be de27 1f3e
00000230: 86f7 a3bd df58 1abd 337c 3fbd bf33 54be
00000240: 6438 94bb 11d0 acbd 00f2 2dbe 2199 e1bd
00000250: acc0 78be ba00 493e a9f7 06be 819d 33bd
00000260: 9a19 cbbd 0158 32bd 567a abbd d555 313e
00000270: 6504 0bbe 3a1c e9bc b525 7a3d 5c33 28be
00000280: 4420 94bd b279 5cbe 993f 82bd 3f6e 1a3c
00000290: bd55 1e3e 0ce9 ef3d 5c17 5e3d 9c8b cabd
000002a0: 6f7f b43c ec84 c33d 3c39 b63d 286a a63e
000002b0: 5bd2 933d beec 73bc d079 1a3e e4d8 543e
000002c0: fea7 d93d 9949 f83c df2f e93c 4ea4 36be
000002d0: 5b21 363e bd3b 493e 2474 7f3d fe29 00bd
000002e0: eb64 8e3c e1f7 34be 2675 6bbe ba08 33be
000002f0: 3e2d 2fbe d8f5 173e fccd 043e 2485 b03d
00000300: 4bf6 5e3c 0b7e ddbd 4a3d 11be b536 f83d
00000310: 0608 2d3e d16b 8f3d df9e c13d 055a 46bd
00000320: e949 1dbe 3718 66bd 00d3 4f3e fb60 64be
00000330: 2066 dabd 441c 94bd 8cbb 0e3e 01db 9fbd
00000340: f3cf be3d 8b31 eebd 0986 d9bd 2676 93bd
00000350: c434 5bbe dc61 7e3e d875 9cbd 7905 a63d
00000360: fdb1 1e3c bfd9 283e d138 0f3e 4780 b53d
00000370: 84c0 50bd fb65 0abe a8f0 9fbd 2d6d 7ebe
00000380: 020b 0a3e 0847 60be fd87 e13c b9dc 8c3d
00000390: 0df9 283e b70e 6d3c 22cd 5ebd 2e7e c3bd
000003a0: 7ebc 0f3e bb35 833d 4be1 b6bd 04de fb3d
000003b0: ee26 b3bd d381 a1bc 28b2 b53d bc41 7bbe
000003c0: cf8b 963b e2f9 883d 6da5 4dbe 43af 24be
000003d0: 662d 36be a24a e1bd 509f 41be a3f6 863d
000003e0: 880e 46be 0e3e c3bd d7e6 2fbd fa40 5f3b
000003f0: 6643 36be 4753 19be e08a 11bd ef18 8ebe
-0.13502027 0.12733792 0.070764646 -0.16070849 0.19318323 -0.03393813 -0.02873668 -0.110652
-0.0517763 0.21755046 0.11515937 -0.087439835 0.06989664 -0.04521134 0.11447162 -0.06529519
-0.16049373 -0.03614345 0.22306123 0.06395603 -0.17763665 0.03170699 -0.14411795 -0.07113418
-0.12022753 0.04187793 -0.09811169 0.090381004 0.06536478 -0.15579109 0.09057901 -0.090296425
0.13836068 -0.06781995 -0.017672919 -0.19877268 0.09765154 0.14714164 -0.12828079 -0.044813488
0.054249223 -0.084262036 -0.016394874 -0.080294795 0.17394839 -0.11144349 -0.16039689 0.24877103
0.060614057 -0.08929935 0.038805198 0.07627835 0.08646101 -0.17710064 -0.10457645 -0.010191104
-0.078767724 -0.22709872 0.09878917 -0.06546741 0.19541562 0.020635867 0.040984362 -0.060257442
0.12300827 0.11711901 -0.15000442 0.035375647 0.263663 -0.092906654 -0.077776335 -0.10351848
-0.16943559 -0.033116173 -0.15742488 -0.17039075 -0.11713833 -0.11896308 0.009506337 0.09232652
0.023305094 -0.26763165 -0.03034201 0.08796293 -0.17478135 0.047306824 -0.18278356 0.13672902
-0.14287397 0.10089555 -0.12542138 0.040312406 0.015351678 0.075062014 -0.11406774 0.0072485004
-0.029825792 -0.12961441 -0.031908914 0.19601522 -0.101642214 -0.027022239 -0.06874792 -0.18377702
0.02242521 0.058338843 0.10031499 -0.09677639 -0.11362475 -0.038057335 0.09185124 -0.23622337
-0.098023094 -0.09516175 0.25393546 -0.024773644 0.035992555 -0.17226665 -0.26149812 0.07570701
0.11305051 0.13540944 0.12139358 -0.14128505 0.13962898 0.12323735 -0.030168902 -0.13250558
-0.0042267647 0.012328646 0.07606299 0.1256432 0.08713973 -0.32706922 0.062339738 -0.14697057
0.13259518 -0.23150693 -0.1565661 0.15542552 -0.08006196 -0.03768241 -0.046749305 -0.20722865
-0.004523324 -0.08438123 -0.16986847 -0.11015535 -0.24292248 0.19629183 -0.13180412 -0.04385138
-0.099169925 -0.04354096 -0.08372943 0.17317899 -0.13575895 -0.028455842 0.061071116 -0.16425842
-0.07232717 -0.21530798 -0.063597865 0.009425699 0.15462394 0.11714372 0.054221496 -0.098899096
0.022033421 0.09546837 0.08897635 0.32502866 0.072178565 -0.014887987 0.1508553 0.20785862
0.10627745 0.030308532 0.02846521 -0.17836115 0.17786162 0.19651695 0.06236662 -0.031290047
0.017382106 -0.17672683 -0.22993907 -0.17483798 -0.17107102 0.14839876 0.12969202 0.086191446
0.0136085255 -0.108150564 -0.14183536 0.121198095 0.16897592 0.07002986 0.094541304 -0.048425693
-0.15360226 -0.056175437 0.20295334 -0.2230262 -0.1066401 -0.07231954 0.13938731 -0.078054436
0.09317007 -0.11630543 -0.10621268 -0.072002694 -0.21406847 0.24842018 -0.076396644 0.081065126
0.00968599 0.16489314 0.13986517 0.088623576 -0.050964847 -0.13515465 -0.078095734 -0.24846335
0.13480762 -0.21902096 0.027530665 0.06878037 0.16501255 0.01446884 -0.05439485 -0.09545551
0.14036748 0.06406733 -0.0892969 0.122982055 -0.087476596 -0.019715225 0.08871871 -0.24536794
0.004594303 0.06688286 -0.20082636 -0.16082482 -0.17790756 -0.11000563 -0.18908429 0.06590011
-0.1934148 -0.0953332 -0.042944755 0.0034065829 -0.17799148 -0.14973174 -0.035532832 -0.27753398

conv1d.bias f4 [128]
00000000: 1cc8 eb3b 36ea 7fbd 12f9 cfbd 4654 14bd
00000010: 997c 183d 773a be3d ed36 eabd 5a61 073e
00000020: b11f 6b3d 8a66 093d ce53 79bb 98c6 eebc
00000030: a78c fd3c 832e 0b3e 9629 673c a985 dc3d
00000040: 1214 aa3c a289 93bc f676 db3d 2718 c43d
00000050: a0e5 123d 08aa 5bbd 2bfe af3d e64f b53c
00000060: 5ac5 f3bc 78dc 96bb e3a0 1f3e e7d9 03bd
00000070: a165 0f3d 1a60 18bd 5165 10be fdb3 3a3d
00000080: 7051 a3bd 5567 323d 9ff3 9ebb f528 e13c
00000090: 5d83 79bc cb2d 5cbd 578c 953d 967e f7bd
000000a0: 8bae a43d cfc5 71bd 794c 813d 24a5 b6bd
000000b0: aa41 9dbd 6ec1 f63c d7c7 5c3d ef43 94bb
000000c0: d4bc b33c ad65 1abe d5e2 57bc 6615 a43d
000000d0: defe f03c bd92 eb3d 6e48 d53b 3c19 65bb
000000e0: 3007 a13d 51e2 19be 8785 c13c bdc9 23be
000000f0: 0b62 3e3c f970 9abd 9aac 083d 1a8b 1b3e
00000100: 1518 cb3d b8a3 8bbc 7879 f2bc fcf9 acbd
00000110: 1c62 c7bd 6df2 f0bd 01e7 3abd cbc3 50bc
00000120: 8f32 30bd f52e 79bc ea73 c53d 076f b53d
00000130: 259d a93d 2b65 65bc bf76 983d 9277 f93d
00000140: f049 0dbd eeb2 cd3d 1a4d 7b3d 561d 1bbd
00000150: a328 debd bc3b 8c3d c6f7 f8bc 386c 23be
00000160: ea61 14be d598 69bd 1894 69bc 1cb7 6d3a
00000170: a538 0f3d c448 05bd 9b14 b1bd f80c d3bd
00000180: 9a94 23be e73c 2f3d 64f1 3abe 8c19 b2bd
00000190: 5984 22be a5e6 6b3d 8ec2 d7bd d227 ddbc
000001a0: dd87 fabb 49c4 393d ec57 83bd d04b d5bd
000001b0: eaa2 583d cd0c abbd eebf f03d e503 3fbe
000001c0: 86ed 4bbc 15b2 d5bd 9040 9f3c 153a f8bc
000001d0: b8b5 ea3c a3c0 61bd a4c2 4d3c cdf7 dabd
000001e0: b432 e4bd 3c75 f7bd 22c1 b3bd 937d 1abe
000001f0: 0794 0b3e 2088 383d 4ccf 0c3e b0a4 0a3d
0.0071954858 -0.06247922 -0.10154928 -0.036213182 0.0372282 0.09288495 -0.114362575 0.1322073
0.05740327 0.033545054 -0.0038044336 -0.029147431 0.030950857 0.13591962 0.014109036 0.10767681
0.020761523 -0.018009964 0.107160494 0.09574919 0.03586352 -0.05362895 0.085934006 0.022132825
-0.02975719 -0.0046039186 0.15588717 -0.03219023 0.03500903 -0.037201025 -0.14101149 0.045581806
-0.07974517 0.043555576 -0.0048508192 0.02748535 -0.015229073 -0.05375461 0.07302158 -0.12084691
0.08041104 -0.059026536 0.06313414 -0.08918217 -0.0767854 0.030121531 0.05390152 -0.0045247
0.021940626 -0.15077849 -0.01317664 0.08011894 0.029418405 0.115025975 0.0065088784 -0.0034957668
0.07862699 -0.15027739 0.023623241 -0.15994926 0.011620055 -0.07541079 0.03336773 0.15189782
0.09916703 -0.01704584 -0.029598936 -0.08446118 -0.0973551 -0.11764989 -0.04563046 -0.012741993
-0.043016966 -0.015208949 0.096412495 0.088590674 0.08281926 -0.014001171 0.07444524 0.12181009
-0.03449434 0.10043894 0.061352827 -0.037869774 -0.108475946 0.06847331 -0.030391585 -0.15959251
-0.14490476 -0.057030518 -0.0142565 0.0009068118 0.03496613 -0.032540098 -0.08646508 -0.10305208
-0.15974656 0.04278269 -0.18256146 -0.08696279 -0.15870799 0.057593007 -0.10535155 -0.026996527
-0.0076455907 0.045353208 -0.06413254 -0.10414851 0.052889742 -0.08352051 0.11755358 -0.1865383
-0.012446767 -0.10434357 0.019439965 -0.030301133 0.028651103 -0.055115353 0.012558613 -0.106917955
-0.11142483 -0.120829076 -0.087770715 -0.15086965 0.13630687 0.045051694 0.13750952 0.033848464

linears.0.weight f4 [32, 128]
00000000: a5f5 6fb9 e048 7bb9 a2d6 9cb9 7982 86b9
00000010: 2da0 b9b9 0809 b4b9 3192 4838 d387 18b9
00000020: 1672 8bb9 e104 8bb9 0980 ddb9 6aed 2db9
00000030: 80ce 96b9 c105 a2b9 3a64 d4b9 423f 7fb9
00000040: d045 a4b9 deea bfb9 7ac6 4fb9 4056 2cb8
00000050: f6bc 5db9 b296 77b9 5bab 5ab9 dd1f 8fb9
00000060: 83be 90b9 3dab 87b7 46ed a9b8 b3ba 8ab9
00000070: cf98 8eb9 9bb9 91b9 adf8 a1b8 4b2e 1eb9
00000080: f1b3 91b8 1d2b e4b8 d5d5 20b9 52ad 68b9
00000090: 9607 3ab9 434c 35b9 51b2 bcb9 f8d3 8cb9
000000a0: b5ab 92b9 a763 b4b9 c26a e0b9 cdb2 59b8
000000b0: d7ea a3b9 621f 64b9 66bb 5fb9 637a b7b9
000000c0: 278a 5db9 bec0 35b9 bb7d 3fb9 c37f 82b9
000000d0: 440e a9b9 12bc 6337 fb3d bab9 2b52 8bb9
000000e0: 02d4 a1b9 dd6a 0fb9 37f6 b8b9 1578 fb38
000000f0: 2b20 19b9 f528 99b9 5d31 5cb9 5980 71b9
00000100: 19cc bfb9 83e7 5eb9 47e2 feb9 57ed 86b9
00000110: 1514 a1b9 71b6 9ab8 983c 84b9 75ac ccb9
00000120: a7a2 c8b9 9faa 66b9 1e7b c3b8 1de5 65b9
00000130: 41de c9b9 78ff 99b9 3c45 a4b9 d9f2 ccb9
00000140: c66b 8ab9 2798 41b9 24bd d0b9 8698 77b9
00000150: f6a3 3eb9 f06a 64b9 f554 e3b9 9939 66b9
00000160: 3cc4 f7b8 5a5d 7ab9 480e 31b9 0262 71b9
00000170: 5d3c 9cb9 bb27 7cb9 2cad 8bb9 076f 9fb9
00000180: 9bbc 7fb9 34b3 c3b9 57ac 86b9 d699 beb9
00000190: 204d 86b8 637b 60b9 d19a a4b9 fc0e b6b6
000001a0: 812a 75b9 cb2c 64b9 64a4 b9b9 9757 e6b9
000001b0: 6f92 39b8 85a0 aa38 d9e9 aab9 d04c 9338
000001c0: 5b58 d5b9 7e31 38b8 bdee 24b9 5875 c0b9
000001d0: 658d 02b9 af5e f8b7 0c4b acb9 f882 98b9
000001e0: 1e63 84b9 cd78 dbb9 7b34 fbb9 f62d 95b9
000001f0: 3da7 a7b9 18dc d337 d19f 6bb9 226c 71b9
00000200: 1e34 66bb 1a00 3dbb 8d37 05bc bbb5 98bc
00000210: 430b 393c 3265 69bc f522 1bbc 77d3 f5bc
00000220: ce58 383d a038 53bd 8606 abbd 2986 e5bb
00000230: 241e 0a3c 0dc4 99bd 9595 34bc 595d ab3b
00000240: 26cc b33c 1216 67bc 688e 10bb f7e0 83bc
00000250: 0713 8f3d fa26 7cbc a4d6 663d 1e49 0b3d
00000260: 6fef 59bc 701d ae3a 0457 56bd a978 d6bc
00000270: eeb4 463d 3c2c b9ba fad1 c33c 1512 2bbc
00000280: 6992 893b e26b 44bd 44ce b53c a199 463c
00000290: ecef 04bc f983 d03d 3d60 fbba 6a57 263d
000002a0: 0772 253c 9385 9e3d 8dc7 d3bb b810 2a3d
000002b0: c60f 0f3c 76fd 2d3c 5e93 c83d 9072 7fbc
000002c0: 5ceb 7d3a 36db 7d3c ade9 24bd b75e f2bb
000002d0: 98b4 223d 5c71 9cba dcc2 9cbc 0b3d 343b
000002e0: c19a 29bc 69e2 5d3c 6ef3 9f3b 1452 9b3c
000002f0: a578 91bb 69d2 aabc 7193 64bc 92f4 42bc
00000300: 917e 72bc 14d6 6f3d 274c e1bb fb5c 7f3c
00000310: 50af 6d3a 7221 d03a 5be6 253c f74d 8dbc
00000320: 4e01 f3bc 50fc 0b3b e0e5 1c3d 6679 a53d
00000330: e08d eeba 84d7 3bbc e1b1 f63c 9318 4e3c
00000340: 5eee 2dbc 6aa9 113d f218 8cbc 1b14 5cbc
00000350: ac41 b4bc e5a6 353d 041b 93bc 51dd de3c
00000360: 3a0c 01bd 1ccc 343d 0486 ed3c 0357 bdbb
00000370: 540f 9a3d d4cc 4cbc abe0 6b3d 442d eb3c
00000380: 7d80 a63c c780 0abc 8bd6 9d3c d40c 943d
00000390: ef56 0b3e 5fe0 5fbc 1913 f1bb 6afe c83b
000003a0: 8912 fd3c 4eb5 cfbd c2dc 81bb 5aa2 733c
000003b0: 283c 773c a1b8 723c 37be c53b a15b 9539
000003c0: 8e3d a93c fa35 973d 41b3 813b 86a6 fcbb
000003d0: 0edf 823a 5d78 693d 85e1 a2bb a820 03bd
000003e0: 8d0a d23b 3dbe e2bc 5294 f23b 32fa e33c
000003f0: 1d5d 1fbd ece4 d03c d6dd 09bc 824e cc3c
-0.00022884326 -0.00023964373 -0.00029914553 -0.0002565568 -0.0003540529 -0.00034339004 4.7819867e-05 -0.00014546448
-0.00026597147 -0.0002651578 -0.00042247798 -0.0001658701 -0.00028764084 -0.00030903335 -0.00040510466 -0.0002434226
-0.00031332532 -0.0003660535 -0.00019814997 -4.1088322e-05 -0.00021146596 -0.00023611894 -0.00020853935 -0.00027298825
-0.00027607763 -1.6172993e-05 -8.1027436e-05 -0.00026460513 -0.00027198202 -0.00027794842 -7.723398e-05 -0.000150853
-6.9476555e-05 -0.00010879918 -0.00015338448 -0.00022189811 -0.00017741168 -0.00017289915 -0.0003599101 -0.0002686081
-0.00027975222 -0.00034406522 -0.0004280415 -5.1903353e-05 -0.00031264752 -0.00021755465 -0.00021336749 -0.00034995665
-0.00021127668 -0.00017333307 -0.00018262018 -0.00024890722 -0.0003224482 1.3574043e-05 -0.00035522864 -0.00026573366
-0.0003086627 -0.00013677352 -0.0003527866 0.0001199098 -0.000146032 -0.0002921295 -0.00020999224 -0.00023031364
-0.00036582423 -0.00021257815 -0.00048615245 -0.00025735304 -0.00030723275 -7.3772746e-05 -0.00025222148 -0.00039038403
-0.00038268158 -0.0002199807 -9.321257e-05 -0.00021924493 -0.000385033 -0.00029372773 -0.000313321 -0.00039090848
-0.0002640171 -0.00018462595 -0.00039813772 -0.00023612575 -0.00018180892 -0.00021783612 -0.00043360112 -0.00021955966
-0.00011814429 -0.00023876634 -0.00016885356 -0.00023020062 -0.00029799613 -0.00024047394 -0.0002664117 -0.00030409565
-0.00024388956 -0.00037326815 -0.00025686875 -0.0003635424 -6.4039836e-05 -0.0002140827 -0.00031395865 -5.425767e-06
-0.00023380855 -0.00021760461 -0.0003540843 -0.00043934278 -4.4243814e-05 8.136131e-05 -0.00032599157 7.023814e-05
-0.00040692356 -4.391511e-05 -0.00015729196 -0.00036708522 -0.0001245044 -2.9607994e-05 -0.0003286231 -0.00029089279
-0.0002525085 -0.0004186094 -0.00047913552 -0.00028453738 -0.00031977324 2.525565e-05 -0.00022470883 -0.00023023834
-0.003512628 -0.0028839172 -0.00813092 -0.018641343 0.011294189 -0.014245318 -0.009468784 -0.03000806
0.045006566 -0.051567674 -0.083508536 -0.0070045185 0.008430038 -0.07508097 -0.011021991 0.0052296338
0.021947931 -0.014104383 -0.0022057537 -0.016098483 0.06986051 -0.015390152 0.05635704 0.034005277
-0.013301714 0.001328392 -0.05232908 -0.026180582 0.04851239 -0.0014127563 0.023903836 -0.010441323
0.0041983617 -0.047954448 0.022193082 0.012121589 -0.008113842 0.10181422 -0.0019178462 0.04061071
0.010097987 0.07740321 -0.0064629973 0.04151985 0.008731788 0.010619512 0.09793733 -0.015591279
0.00096862554 0.0154941585 -0.040261913 -0.007396545 0.03972301 -0.0011935639 -0.019135885 0.0027502205
-0.010351838 0.01354275 0.004881314 0.018960036 -0.004439431 -0.020852285 -0.013951168 -0.01189913
-0.014800684 0.05855377 -0.006875533 0.015586133 0.0009066956 0.0015879108 0.010125722 -0.01724909
-0.029663708 0.0021360107 0.038305163 0.080797955 -0.0018200241 -0.011464957 0.030114116 0.012579101
-0.010615913 0.035561956 -0.017101739 -0.013432528 -0.022003971 0.044348616 -0.017957218 0.027205141
-0.0315058 0.044139966 0.028994568 -0.005778195 0.07522455 -0.012500007 0.057587307 0.028708108
0.02032494 -0.0084535545 0.019267341 0.07229009 0.13607381 -0.013664334 -0.007357013 0.006133844
0.030892627 -0.10142003 -0.003963084 0.014870251 0.015090026 0.014814527 0.0060346383 0.00028487763
0.020659234 0.07383342 0.0039581363 -0.007710281 0.0009984688 0.056999553 -0.0049707317 -0.032013565
0.006409949 -0.027678603 0.007402935 0.027829263 -0.03890716 0.025499783 -0.008414706 0.02493978

linears.0.bias f4 [32]
00000000: a6fa 0ab9 8ab5 23ba 4431 48b8 9246 16b9
00000010: 3fef 8b34 ebac 13ba b616 0938 4023 7e3a
00000020: 2909 61bc f235 02b9 ec6e d737 c84e 8d3c
00000030: 0866 5db8 4a61 a037 89f2 c138 5f5b 10b7
00000040: 4dd7 a2b8 80af d1b7 ab7d 3a3d a902 96b8
00000050: 3540 bcb8 d166 a8b8 9831 1139 17bb 52ba
00000060: 80e9 d938 ac54 0439 1eb4 493d 4f47 0cba
00000070: c21c 9738 8b79 8339 bd29 5e3a df3b c0b8
-0.0001325408 -0.0006245008 -4.7729598e-05 -0.00014331404 2.6064842e-07 -0.0005633372 3.2684497e-05 0.0009694584
-0.013735094 -0.00012417862 2.568165e-05 0.01724948 -5.278553e-05 1.911879e-05 9.248133e-05 -8.604343e-06
-7.764865e-05 -2.4996465e-05 0.045530003 -7.153053e-05 -8.976498e-05 -8.030015e-05 0.00013846753 -0.0008038743
0.00010390859 0.00012620044 0.04924404 -0.0005351202 7.205598e-05 0.00025076824 0.00084748474 -9.166425e-05

linears.2.weight f4 [2, 32]
00000000: 260d 7d38 cf22 85be 00ea 8ab8 0092 04b8
00000010: 12d4 4b37 d001 77be 84de ef37 053b 863e
00000020: c73b c6be f0eb b0b8 a540 9f38 5d85 cd3e
00000030: c0da 39b9 0caf 96b6 d48b 7b38 516d 82b9
00000040: c850 5e39 9b77 e7b8 9e0e f73e 73c2 cf38
00000050: 485e c638 74d1 cbb8 3259 7d39 349b 3dbe
00000060: 7d4a 75b6 855d ccb8 fb88 93be 9c01 93be
00000070: c9f0 bc37 b7cc 7338 5f1e 813e 34c8 d9b8
00000080: 0b31 813c bea1 0a3e 14bc 8e37 18bd be39
00000090: c0bf 64b8 b278 5f3e 073b c236 7bb3 a8be
000000a0: c732 b53e 1265 9538 93f2 3439 6f85 e0be
000000b0: 70b8 eb37 4c0b 3737 4022 0cb9 1e01 b4b9
000000c0: 9284 4938 03b1 8ab8 25e1 0abf dba7 83b9
000000d0: 3c36 f5b7 0402 4eb8 ae98 6a39 d3b6 583e
000000e0: 8a94 4438 7701 9bb8 91df 923e f1d2 8b3e
000000f0: 75bf c6b6 53d4 6337 a33c 28be 59b0 7cb5
6.0332146e-05 -0.2600312 -6.623939e-05 -3.1607226e-05 1.2149119e-05 -0.24121785 2.8594637e-05 0.26216903
-0.38717481 -8.436281e-05 7.593752e-05 0.4014081 -0.00017724466 -4.4907265e-06 5.997329e-05 -0.0002487698
0.00021201663 -0.000110372166 0.4825334 9.906748e-05 9.458937e-05 -9.718808e-05 0.00024161188 -0.18516237
-3.6551203e-06 -9.7448974e-05 -0.28815445 -0.28712165 2.252347e-05 5.812637e-05 0.25218484 -0.00010384657
0.015770456 0.13538262 1.70153e-05 0.0003638051 -5.4538017e-05 0.21823385 5.7885222e-06 -0.32949433
0.35390303 7.1236995e-05 0.00017256504 -0.43851802 2.8100068e-05 1.091028e-05 -0.000133642 -0.00034333108
4.80456e-05 -6.613324e-05 -0.54249793 -0.0002511133 -2.923153e-05 -4.9116104e-05 0.00022372857 0.21163492
4.686838e-05 -7.391249e-05 0.28686193 0.27309373 -5.9231484e-06 1.357969e-05 -0.16429381 -9.4133935e-07

linears.2.bias f4 [2]
00000000: 5ce8 feba 26f5 bebd
-0.0019447911 -0.09324102

exp_avg f4 [128, 4, 12]
00000000: 31cb bb39 5246 11b9 17bd d23a 4e8d e336
00000010: d3fb 10bb a886 8839 8e90 513a c5b0 5438
00000020: 6240 e1b8 f743 41b9 8658 dd3a 3596 6f39
00000030: 5841 2bbb 3886 423a 9518 afba 5a0e 023a
00000040: 5e55 5d39 4a54 81ba 2cd8 f93a 0922 4eba
00000050: 0c9f 643a d7e0 2338 9ce1 3a3a 8a30 9a38
00000060: 458f ad39 9cf6 783a d722 8039 89a0 7aba
00000070: 9f8d fb3a f76e 0b39 544f d237 335b c637
00000080: 52df 983a c421 0239 4a92 3ebb fae8 46bb
00000090: 122c fc3a a395 cbba 705a 07ba 2596 ed39
000000a0: b8f5 ab38 8689 1b3a d9f4 32bb 25a4 3a3a
000000b0: d11a fdba b94f b137 79b6 043a 131e 333b
000000c0: 819b b13a d17c a53a 0974 b63a 831a b4b9
000000d0: d6e1 c0ba 8734 b9b7 2c10 013b 3e05 b23a
000000e0: a83f 8fb8 e5ed 49b9 71c8 faba 1e92 eb39
000000f0: 8283 d7ba adc7 49b9 6691 28bb 7c09 133b
00000100: 32eb 1e3a e490 873b de42 603a ff11 3d3b
00000110: 2121 5bb8 eaaa 93ba dec1 593a d404 13ba
00000120: 12fe 8039 8c59 2d3a 096e 8e3a 8c47 8bb8
00000130: 4811 283a 9744 83bb e5da 28bb ac44 86bb
00000140: 7c2a e139 13ef 1139 2194 6a3a 52a8 d1b9
00000150: 6d0f 3538 a4f0 e2ba 9b0b c438 dd57 f0ba
00000160: d31c 6b39 13c6 e4b8 f32f 82b9 72b4 18b9
00000170: 67f6 a1b9 c4aa 9a3a 8aeb 4439 f00f 063a
00000180: be1d 613a 15df 5c3a 4062 3838 69e4 9cb8
00000190: a074 363a 7aee ed36 eb74 d338 2ee6 733a
000001a0: f7bb e93a c53d 24ba 7c3b 24bb 2c22 b2bb
000001b0: c378 3d39 2974 68ba d306 ab39 4df7 b939
000001c0: 14e7 f5b6 390b 72ba e394 8dba dee0 1aba
000001d0: b916 7abb e0ef 49ba c4cd b739 cbbd bb3a
000001e0: 5681 313b 140f 07b9 b926 17bb f96a 20ba
000001f0: 4c69 2d3b e1ed c13b 7b79 24b8 ecb9 243a
00000200: d641 8339 45e7 55b8 e050 063b 8144 683b
00000210: 54a0 75bb 5e63 3539 abc8 fd3a c317 ae39
00000220: 808b 5abb f6e7 a3bb 6181 853a 32bf 7dba
00000230: 09a1 e93a 0dc6 bd3a 7f1c de38 9207 f139
00000240: 31b8 e23a 51cd c039 4fc0 9039 5a36 8a39
00000250: fd4d fab9 89e9 843b 8c43 b9bb 6f21 9d39
00000260: c9e6 7939 daa0 66ba d1b7 7939 4b20 913a
00000270: 771e b53a 731d d639 7bd6 8639 1d7a c2b7
00000280: f8d9 6439 3a31 273a 9686 01ba a0f8 ff39
00000290: 54ea 9fba a6f9 7d3b 32c0 113a 2c28 28ba
000002a0: d520 eeb8 1275 1cba 1ec6 12bb 7d9c cfb9
000002b0: e3ed d0ba 1625 b3bb f9d4 b93b 25de 98ba
000002c0: 5124 683a 3726 463a 9f6f 16ba c16e d03a
000002d0: 507a 44bb 4501 3cb9 89a6 df3a 941b 2339
000002e0: 23e6 f23a 2bab 4a3a 5af6 f939 875e c639
000002f0: 06b5 c938 fdda 75bb 24fa 66b9 7cbd 06bb
00000300: 1be8 c3b9 22a6 dcb9 38d4 e437 db49 45bb
00000310: e387 05bb 13fa 75ba 76ff 48bb e120 923a
00000320: d45e 0339 efd0 aeb9 1d3c 0c3a fc4e efb9
00000330: d3eb 9fb9 7115 89b9 d832 dbb9 3301 183a
00000340: 1bdc d039 6588 fb37 3a72 2b3b f5c1 9237
00000350: db06 7239 89bb c6b8 f55a 06b9 9dcc 8aba
00000360: 992d 92b6 8d9d 003b 3aef 23bb e3a4 54ba
00000370: ea2a 3837 87e7 c4b7 41d5 b03a 46d8 8ab8
00000380: a0d4 d5b9 80f5 df38 a034 18ba be6d ba3a
00000390: 510e 333a 34cc a7ba ec8b 3d3b c772 543b
000003a0: 6868 d53a 0d45 743a 9275 6bba 65be 8bba
000003b0: 410e 5938 6e82 a839 053d 3639 fb29 c338
000003c0: 3d52 c93a 307a aabb 8ff0 b738 d0bc d43a
000003d0: 4b42 853a bc43 203a eb57 5b39 a953 a93b
000003e0: 331a 273a 5d20 cb39 3ead 563a ce61 cc3a
000003f0: 59b9 b239 6962 5fb9 7323 0239 4f69 da3a
0.0003581881 -0.00013854474 0.0016078082 6.781577e-06 -0.0022122755 0.00026040268 0.00079942576 5.070937e-05
-0.00010740828 -0.00018431233 0.0016887344 0.00022848773 -0.0026131477 0.0007420513 -0.0013358766 0.0004961245
0.00021108004 -0.0009867039 0.0019061617 -0.0007863348 0.00087212096 3.9071627e-05 0.00071289553 7.352333e-05
0.00033103875 0.0009497197 0.0002444002 -0.0009560665 0.0019191987 0.0001329741 2.507089e-05 2.3645907e-05
0.0011663234 0.00012410345 -0.0029078894 -0.0030351267 0.0019239208 -0.0015532266 -0.00051633175 0.0004531603
8.199684e-05 0.00059332734 -0.0027306585 0.00071197964 -0.001931036 2.1137168e-05 0.0005062591 0.0027331158
0.0013550372 0.0012625699 0.0013920079 -0.00034352028 -0.0014715742 -2.2078179e-05 0.0019693477 0.0013581885
-6.830628e-05 -0.00019257476 -0.0019133223 0.0004493156 -0.0016442391 -0.00019243239 -0.002572143 0.0022436073
0.00060622685 0.0041371454 0.0008554886 0.0028849838 -5.2244523e-05 -0.0011266146 0.00083067815 -0.00056083244
0.0002460336 0.000661277 0.0010866533 -6.641363e-05 0.00064112665 -0.0040059793 -0.0025765237 -0.004097542
0.00042946998 0.0001391734 0.00089484645 -0.00039988995 4.316813e-05 -0.0017314148 9.34817e-05 -0.0018336732
0.00022422084 -0.000109087814 -0.00024831257 -0.0001456307 -0.00030891897 0.001180016 0.00018779762 0.0005114069
0.0008587501 0.0008425576 4.396052e-05 -7.4812044e-05 0.00069601275 7.0909127e-06 0.00010083042 0.0009304014
0.0017832507 -0.0006265308 -0.002505987 -0.0054362025 0.00018069432 -0.0008867407 0.00032620746 0.00035470203
-7.32847e-06 -0.00092332397 -0.0010801818 -0.00059081416 -0.0038160516 -0.00077032857 0.00035057787 0.001432353
0.0027085147 -0.0001288022 -0.0023063852 -0.0006119456 0.0026460467 0.00591825 -3.9213784e-05 0.0006283808
0.0002503532 -5.0998544e-05 0.0020494983 0.0035441222 -0.0037479596 0.00017298522 0.0019362172 0.0003320557
-0.0033347309 -0.005002017 0.0010185653 -0.00096796744 0.0017824481 0.0014478579 0.00010591093 0.00045972742
0.0017297325 0.00036774066 0.000276091 0.00026361906 -0.00047741822 0.00405616 -0.005653804 0.00029970284
0.00023832465 -0.00087977725 0.00023814967 0.0011072246 0.0013818283 0.00040839202 0.00025718272 -2.3183466e-05
0.00021824974 0.000637788 -0.00049410143 0.0004882263 -0.0012200573 0.0038753538 0.00055599504 -0.00064146775
-0.0001135484 -0.00059683726 -0.002239592 -0.0003959871 -0.0015940036 -0.0054670675 0.0056711403 -0.0011662884
0.0008855509 0.0007558795 -0.0005738679 0.0015902148 -0.002998013 -0.0001792955 0.0017063181 0.00015555165
0.0018531721 0.00077311945 0.00047676527 0.0003783593 9.618145e-05 -0.003751456 -0.00022027694 -0.0020559719
-0.0003736623 -0.00042085449 2.727854e-05 -0.0030103836 -0.0020375184 -0.0009383272 -0.0030669845 0.0011148715
0.0001252846 -0.00033343534 0.0005349534 -0.0004564448 -0.00030502546 -0.0002614665 -0.00041808817 0.00057985185
0.00039836843 2.9985045e-05 0.0026160614 1.7494875e-05 0.00023081472 -9.476307e-05 -0.0001281312 -0.0010589544
-4.3564473e-06 0.0019625158 -0.0025014416 -0.0008111728 1.0977246e-05 -2.3472834e-05 0.0013491289 -6.620637e-05
-0.00040784944 0.000106791966 -0.00058061816 0.001422338 0.00068304414 -0.0012801946 0.0028922511 0.0032417045
0.0016281726 0.00093181507 -0.0008982058 -0.00106616 5.1750107e-05 0.00032140635 0.00017379604 9.306144e-05
0.0015359592 -0.005202554 8.7709275e-05 0.0016230587 0.0010166852 0.0006113609 0.0002091822 0.005167444
0.00063744484 0.0003874329 0.0008189267 0.0015593113 0.000340889 -0.00021303598 0.00012410972 0.0016663464

exp_avg_sq f4 [128, 4, 12]
00000000: 0023 ba34 e5e1 7736 c995 6736 4291 fb34
00000010: b584 b636 f426 bb36 2370 4935 24dc 8f35
00000020: 5090 c235 94fc ac36 2d3e 0c37 f661 3035
00000030: 29b4 0037 3d88 0036 2998 8736 f14f 0936
00000040: 9957 8934 77ee b736 19d1 c636 6647 9236
00000050: 8d62 4135 4a18 9636 32a1 9636 1c95 8835
00000060: 09c7 1d36 efa6 2436 f420 0336 320f 4036
00000070: 0892 9f36 65e0 9635 f7fa 4a36 8bef 1536
00000080: 46a0 9536 2289 a335 531e f736 6665 f635
00000090: 33f5 c536 7bf2 aa36 73d4 9f34 9fc1 7f35
000000a0: 7df4 5936 9632 1336 f699 f935 2914 4736
000000b0: b9c9 9136 1f50 6734 47cf bd34 f068 5736
000000c0: 11db 0837 61ed 2136 38c8 2737 6824 fc36
000000d0: 5693 3137 b153 c034 74d3 9c36 0d7c a636
000000e0: d799 7834 d576 3235 34a7 4a37 70cd 8f36
000000f0: 3e8f 2137 a132 6e37 4935 6437 1fd1 e636
00000100: a505 7337 3db3 3e37 5690 d636 403d 4237
00000110: 7bd4 aa36 cc21 0337 6868 3637 029f 0837
00000120: 776f 8e34 a123 9136 350f 9c36 338d 3135
00000130: 18a7 3136 555a 8936 fbc4 2837 fea3 1f37
00000140: 14c6 3036 6d60 5735 ddd0 cf36 1787 2f37
00000150: 6ce3 3a34 06af e536 ecfb 8d35 2ea2 1737
00000160: 6793 4a35 477f 0e37 9462 b736 a7d1 e436
00000170: 856c aa35 8cf6 0737 fbb6 a736 3ca2 8d36
00000180: d3bf 5136 952a e236 c190 0f36 e31b 7136
00000190: 91f3 8836 9054 0337 95e1 b835 570a 0236
000001a0: 774c 1c37 fc0f 3a37 8d3a 5f37 98d9 7836
000001b0: a56d 4736 8ee2 b336 fa8f 0d37 6251 d534
000001c0: ff89 8036 ce25 9a36 441f c036 7327 2a37
000001d0: c3ed e436 daf9 d535 469a 0a35 1682 1e37
000001e0: a7da 5d37 00cb 2f37 b9ea 8737 17a5 e835
000001f0: f665 7e37 bbfb 4737 0c8f 9636 7c34 2b36
00000200: 296e 5637 d3f6 5037 453f 7937 36ce 3c37
00000210: a45d 3a37 fb18 a134 f066 9a36 9ef4 db35
00000220: b7c6 3a37 5261 5d36 a490 5635 ea02 4d37
00000230: b194 4636 7ee7 8536 3d7e 4236 44d9 a035
00000240: 7b1c 6f37 168f f535 e52d 8035 31d1 5935
00000250: 0bf3 7e35 e60c 4537 334e 9d36 bac0 ce36
00000260: 607f d435 f5b0 b136 8a72 db35 5e12 4f37
00000270: d578 e935 c0ca ed36 4922 7637 d6e7 3b34
00000280: 290f 7a36 04b9 3135 3485 9936 d177 7e36
00000290: abd7 5037 facb 7837 2ea8 8c37 abc5 cd36
000002a0: e19d 8537 6542 7a37 1665 a937 85d6 3836
000002b0: 1b8d 2f37 559e 3937 98fd 2237 829d 1337
000002c0: b79b 3937 03fb 0237 f921 9a37 a9ee 5536
000002d0: 937f a537 8395 8837 7345 f736 b66e ed35
000002e0: 5a6e 0737 74e9 eb35 2c4a b835 3f74 2b35
000002f0: 57ed 8235 d9d3 3437 88da 6f37 7f51 3537
00000300: f4a7 0936 02fb a134 9b15 db33 b928 4436
00000310: 8ac0 3336 d01b 5f36 aaf3 8936 cbf6 b135
00000320: ab4a 8135 fd51 ae34 1cb5 4536 d0dc 2634
00000330: 507f 9734 87d7 8335 54a7 2736 b362 9835
00000340: 78b7 1c36 8dc6 ce35 bc28 8236 c645 6535
00000350: 4640 c734 a541 8b35 7a0a 2335 d0fc 3c36
00000360: b44b 1736 2f91 5e36 67c6 5836 e50d 3d36
00000370: 54b3 ab35 bf6a ec35 186b 4136 7eac cd34
00000380: 1a9b 3136 5d25 b433 4647 9335 1784 5036
00000390: 351d 6636 700b e735 2116 9735 5781 d035
000003a0: edba 6136 a02e 2136 c85b 4f35 22ba 1036
000003b0: 016f f335 0e2f 0335 5492 fb35 5c27 bd33
000003c0: d2d1 1137 38ac 8c37 c901 5033 5188 0037
000003d0: a183 e136 ef45 1836 aa11 f134 aadf 7c37
000003e0: e3e3 d835 a7cd 4537 029d b036 9480 d936
000003f0: 9507 f535 d74f 5d35 5d75 da35 e9f3 b236
3.4670666e-07 3.6937356e-06 3.4508869e-06 4.6858082e-07 5.439472e-06 5.577569e-06 7.5041515e-07 1.07184e-06
1.4496127e-06 5.1554034e-06 8.359127e-06 6.570766e-07 7.671341e-06 1.9152787e-06 4.0410273e-06 2.0461123e-06
2.5581974e-07 5.481586e-06 5.925202e-06 4.359451e-06 7.2041513e-07 4.473176e-06 4.489114e-06 1.0176186e-06
2.3510677e-06 2.4535072e-06 1.9539702e-06 2.8619074e-06 4.7555695e-06 1.1241178e-06 3.0246426e-06 2.2342163e-06
4.4592043e-06 1.2184357e-06 7.364704e-06 1.8357939e-06 5.8996025e-06 5.0946232e-06 2.9770635e-07 9.527666e-07
3.247783e-06 2.1934152e-06 1.8596754e-06 2.9665046e-06 4.3448204e-06 2.15427e-07 3.5354807e-07 3.2098578e-06
8.157237e-06 2.4129042e-06 1.0000593e-05 7.5144235e-06 1.0584326e-05 3.582368e-07 4.6737787e-06 4.961627e-06
2.3152766e-07 6.648309e-07 1.2079068e-05 4.285648e-06 9.629699e-06 1.4197693e-05 1.3602265e-05 6.878879e-06
1.4485243e-05 1.1366615e-05 6.3945e-06 1.1577562e-05 5.091131e-06 7.816077e-06 1.0872354e-05 8.143254e-06
2.6530662e-07 4.3254845e-06 4.6509326e-06 6.614311e-07 2.6472317e-06 4.093434e-06 1.0059443e-05 9.515321e-06
2.634134e-06 8.023406e-07 6.1933956e-06 1.0462266e-05 1.7405335e-07 6.8451072e-06 1.0578638e-06 9.038062e-06
7.546536e-07 8.493494e-06 5.465301e-06 6.8193362e-06 1.269757e-06 8.104031e-06 4.9982896e-06 4.221014e-06
3.1255083e-06 6.740282e-06 2.1392918e-06 3.592803e-06 4.0814707e-06 7.827897e-06 1.3774721e-06 1.9377528e-06
9.316128e-06 1.1090186e-05 1.3305468e-05 3.7081536e-06 2.9717132e-06 5.36099e-06 8.437777e-06 3.9733555e-07
3.830762e-06 4.5939587e-06 5.7256857e-06 1.0141975e-05 6.8226086e-06 1.5942453e-06 5.1633504e-07 9.447822e-06
1.32235355e-05 1.04780775e-05 1.6202555e-05 1.7333394e-06 1.5163319e-05 1.1919935e-05 4.487001e-06 2.5511536e-06
1.2781043e-05 1.2455234e-05 1.4856288e-05 1.1253685e-05 1.1108266e-05 3.0006763e-07 4.601541e-06 1.6387964e-06
1.1132731e-05 3.2988214e-06 7.993169e-07 1.2219631e-05 2.959085e-06 3.990658e-06 2.8981733e-06 1.1984162e-06
1.4252141e-05 1.8295566e-06 9.5501e-07 8.1143213e-07 9.497605e-07 1.1745118e-05 4.688068e-06 6.1617147e-06
1.5832302e-06 5.2956116e-06 1.6350107e-06 1.2342438e-05 1.739502e-06 7.0867536e-06 1.4670725e-05 1.7500074e-07
3.7261727e-06 6.620687e-07 4.575262e-06 3.7918692e-06 1.244798e-05 1.4829444e-05 1.6767615e-05 6.1324877e-06
1.5928354e-05 1.491662e-05 2.0193442e-05 2.7543003e-06 1.04636665e-05 1.1063724e-05 9.714997e-06 8.798555e-06
1.10631145e-05 7.807047e-06 1.837405e-05 3.1878392e-06 1.972894e-05 1.6282085e-05 7.3692586e-06 1.7690097e-06
8.07232e-06 1.7576808e-06 1.3730655e-06 6.3871624e-07 9.75483e-07 1.0778161e-05 1.4296391e-05 1.08074155e-05
2.0512352e-06 3.017122e-07 1.0201912e-07 2.922998e-06 2.678515e-06 3.3245778e-06 4.1112844e-06 1.3259354e-06
9.63298e-07 3.246968e-07 2.9460707e-06 1.5540286e-07 2.8218574e-07 9.822987e-07 2.4982337e-06 1.1353608e-06
2.3352604e-06 1.5405982e-06 3.879044e-06 8.541068e-07 3.7113404e-07 1.0375412e-06 6.073748e-07 2.816134e-06
2.2544818e-06 3.3165086e-06 3.2301994e-06 2.8171282e-06 1.2792684e-06 1.7614437e-06 2.8821578e-06 3.830973e-07
2.6465336e-06 8.3886995e-08 1.0973097e-06 3.1071302e-06 3.4289671e-06 1.721417e-06 1.1256817e-06 1.553485e-06
3.3636418e-06 2.4018009e-06 7.724707e-07 2.1566016e-06 1.8137217e-06 4.8869776e-07 1.8743544e-06 8.808158e-08
8.691526e-06 1.6769496e-05 4.8430397e-08 7.661133e-06 6.720846e-06 2.2690472e-06 4.49026e-07 1.5072446e-05
1.6159578e-06 1.1789997e-05 5.263487e-06 6.4820724e-06 1.8256129e-06 8.24451e-07 1.6276423e-06 5.3332083e-06

exp_avg f4 [128]
00000000: 3dfc bfbb 27d3 08bc 5b47 15bc 2a49 24bc
00000010: 273a bb3b 7d2a 29bc 962b e9bb b621 89bb
00000020: f1ca d93b a314 15bc 89a7 6dbc 7548 17bc
00000030: f699 543b 22a0 36bc e041 d9bb 28cf be3b
00000040: 05fc d03b 6bec 1cbc 27f3 bfbb ca91 11bc
00000050: 4749 373c 3b5e 1ebc 51c3 363c 993f 8d3b
00000060: fb33 efbb f94f 263b 9a54 30bc 7c23 28bc
00000070: 457e e73b 8bfc 63bb 72cf b53b 5639 46bc
00000080: d837 983b 8a0d 45bc 6e29 233c 28bc f33b
00000090: 1f3f f4bb 0893 ae3c 6bee 91bb 96fc 5e3c
000000a0: 20d1 d93b a529 943c 66b2 b0bb 62fc 483c
000000b0: ecf0 e93b 2c55 c93b 5e52 683c 4532 2ebc
000000c0: 4caa 0b3b 8265 8f3b 891c c4bb 3a1e cabb
000000d0: fe26 183c 8c98 72bb 16fa ffbb c824 7d3b
000000e0: 1340 adbb 8008 863b 8eee 8f3b da40 fb3b
000000f0: c533 36bb 7876 1bbc 8c81 c7bb c5ce 49bc
00000100: 9063 e6bb 1028 de3b 7786 f3bb c26a 0e3c
00000110: 9dfb ff3a 32d0 4b3b 23b4 d23b 252b 0ebc
00000120: 87d3 2fbc 6e6e 643b 15b3 de3b ef1f 653c
00000130: 48a0 88bb fb28 00bc ab73 4c3c 809f b13b
00000140: e567 c0bb 42ca 1f3c 4158 f1bb 28da 16bc
00000150: c05b 54bc 1c5a 493c fd1f 0ebc 9da3 2d3c
00000160: a90a 28bc 596a 6d3c 3782 4c3c ed61 f8bb
00000170: 4977 2c3c 96f3 00bc 65d5 613c 6353 133c
00000180: f110 433c 6d9b b3bb b9d6 003c 65b3 a23c
00000190: 25a4 db3c e5b8 35bc 76ed ddbb 1611 d83b
000001a0: e853 d53b 7727 a9bc 4246 07bc d8be 013c
000001b0: 72ab e23b 4fd9 1c3c 974f 033c 27de 233b
000001c0: b319 053c a0e2 963c 6e68 8e3b a564 f0bb
000001d0: fe22 8e3b f21f 1c3c 78a0 18bc d3aa 59bc
000001e0: 41ed c83b d611 33bc 82a1 f73b cb6d 1e3c
000001f0: 718f 39bc e22e 083c bee7 d6bb 196c bb3b
-0.0058589266 -0.008351124 -0.009111251 -0.010027209 0.0057137194 -0.010325071 -0.0071157916 -0.004184927
0.006646507 -0.009099158 -0.0145052755 -0.009233584 0.00324404 -0.011146577 -0.0066301674 0.005823035
0.0063776993 -0.009577851 -0.0058578434 -0.0088848565 0.011186904 -0.009666021 0.0111549655 0.00431056
-0.0072998977 0.0025377257 -0.010762358 -0.010262366 0.007064613 -0.0034787979 0.005548411 -0.012098631
0.004645329 -0.012027154 0.009958608 0.0074382015 -0.0074538137 0.021310344 -0.0044534705 0.013610026
0.006647244 0.018086264 -0.0053923605 0.012267204 0.007139316 0.0061441865 0.014179794 -0.010632102
0.0021311222 0.0043761143 -0.005984847 -0.006168154 0.00928664 -0.0037017195 -0.007811795 0.003862666
-0.0052871793 0.0040903687 0.0043924516 0.007667643 -0.0027801853 -0.009488694 -0.0060884412 -0.012317364
-0.0070309117 0.006779678 -0.007431801 0.008692445 0.0019529943 0.0031099436 0.0064301654 -0.008677279
-0.010731584 0.003485586 0.0067962506 0.013984664 -0.0041694976 -0.0078222705 0.012478749 0.005420625
-0.00587176 0.009752812 -0.007365257 -0.009207286 -0.012961328 0.01228955 -0.008674619 0.0105980905
-0.010256448 0.014490687 0.0124822175 -0.007580033 0.010526487 -0.007870575 0.013783787 0.008992049
0.011905895 -0.0054811747 0.007863694 0.019860933 0.026811669 -0.011091446 -0.0067726923 0.0065938337
0.0065102465 -0.020648701 -0.008256497 0.007919036 0.0069174105 0.009573295 0.008014581 0.002500424
0.008123803 0.01841861 0.004345945 -0.0073362165 0.0043376675 0.009529101 -0.0093156025 -0.013285357
0.0061317985 -0.010929545 0.007557095 0.009669731 -0.011325703 0.008311959 -0.0065583875 0.0057196734

exp_avg_sq f4 [128]
00000000: 230e 0938 734d 9938 03a0 a738 4034 bb38
00000010: 8a43 a637 6906 ea38 0abc 2338 4747 8437
00000020: 33c1 0f38 7a83 8938 34a1 6839 51ff b938
00000030: 7e30 7e36 3d49 0a39 7e70 1038 52e9 ce37
00000040: 299f f637 e12f a838 7bbf 0338 6d19 8a38
00000050: a116 0b39 1297 a938 a5c5 c038 fb99 b437
00000060: 0eb0 3a38 f37a b036 1e46 ff38 be27 d538
00000070: 2bb5 1038 3f63 5437 5ca3 ce37 1b95 2639
00000080: 1ab9 4037 cdee ee38 5d8b 9338 a24b 2c38
00000090: b9e2 3e38 2863 a339 c56e ae37 bb23 1539
000000a0: d07a 2e38 54bd 6839 fe29 cc37 c1c2 be38
000000b0: 0c5d 2438 0aec eb37 46b4 1339 681b d638
000000c0: 1925 7636 f634 8937 9ea1 9d37 1696 0438
000000d0: c458 6838 c4d4 6937 8cbe 2638 8a67 3c37
000000e0: 7d72 aa37 e6a7 3337 0c19 4e37 ac6d 1638
000000f0: 95f1 9236 1eeb 8538 ddc3 d737 3fb5 2a39
00000100: ac0f 1c38 dfe2 2b38 9b1c 4738 51ac 6f38
00000110: 52ff 0b36 0244 ec36 d9e2 e437 677e 9638
00000120: 0d81 b938 b1d9 c936 3bd7 e037 5ccb cf38
00000130: e0b4 9437 d70e 5f38 1d7c 0a39 92a6 e337
00000140: b1c8 0e38 3a4b 6938 13dc 2938 0dee 9b38
00000150: e3d9 2339 8396 0e39 d501 8038 7fb8 a138
00000160: 9fb5 5938 928f 3339 4039 2e39 b48b 7238
00000170: 51d3 9b38 4f48 7638 0cd3 2a39 e991 4238
00000180: 8d71 1139 4624 be37 bd6e 0e38 f825 9a39
00000190: 7900 ef39 6662 0039 f0c9 2a38 3c42 2738
000001a0: c5b5 0c38 060e df39 bbe6 8638 3953 5e38
000001b0: f601 0938 c9ec 9538 6543 7938 4b14 3636
000001c0: c98e 3738 4017 7139 c718 6237 6a9f 4c38
000001d0: ec2e a337 f76f 9f38 a17a b838 2a75 2139
000001e0: 2ef0 0338 444a b738 88da 7b38 e4fd a938
000001f0: 5e1e b738 b2ac 2c38 41c1 0b38 ed1b 0b38
3.267651e-05 7.3100346e-05 7.992985e-05 8.926587e-05 1.9820192e-05 0.000111591835 3.9037353e-05 1.5768817e-05
3.4273788e-05 6.5571585e-05 0.00022185297 8.869044e-05 3.7877176e-06 0.00013187989 3.4437042e-05 2.4665762e-05
2.93996e-05 8.0197824e-05 3.1411164e-05 6.585089e-05 0.00013264503 8.086687e-05 9.1920876e-05 2.1529375e-05
4.450982e-05 5.259522e-06 0.00012172408 0.00010164034 3.4501e-05 1.2659292e-05 2.4633184e-05 0.0001588654
1.1487189e-05 0.000113932045 7.035465e-05 4.1078434e-05 4.5510682e-05 0.0003116366 2.0793997e-05 0.00014223058
4.159921e-05 0.00022195774 2.433825e-05 9.096182e-05 3.9187304e-05 2.8124097e-05 0.0001408617 0.0001020942
3.667845e-06 1.6356335e-05 1.8791117e-05 3.161103e-05 5.539578e-05 1.3937421e-05 3.9754945e-05 1.122978e-05
2.0318892e-05 1.0708323e-05 1.22843885e-05 3.5864927e-05 4.379263e-06 6.385728e-05 2.5721203e-05 0.00016279983
3.7207894e-05 4.0980867e-05 4.7471938e-05 5.7142523e-05 2.086123e-06 7.0412652e-06 2.7285352e-05 7.176102e-05
8.845525e-05 6.0156094e-06 2.6803105e-05 9.908408e-05 1.7727201e-05 5.3181164e-05 0.00013206941 2.7138074e-05
3.4042347e-05 5.562159e-05 4.04977e-05 7.4353164e-05 0.0001562606 0.00013598245 6.103857e-05 7.711443e-05
5.190598e-05 0.00017124254 0.0001661526 5.7827405e-05 7.430337e-05 5.8718313e-05 0.00016291084 4.6389094e-05
0.00013870579 2.2666656e-05 3.395857e-05 0.00029401458 0.00045585984 0.00012243688 4.0719227e-05 3.987759e-05
3.3547887e-05 0.00042544323 6.432595e-05 5.300643e-05 3.266517e-05 7.148978e-05 5.9428992e-05 2.7131925e-06
4.376358e-05 0.00022992212 1.3476419e-05 4.8785856e-05 1.9452964e-05 7.602566e-05 8.796645e-05 0.00015397804
3.145652e-05 8.739953e-05 6.0046586e-05 8.105839e-05 8.731776e-05 4.116883e-05 3.3320164e-05 3.316619e-05

exp_avg f4 [32, 128]
00000000: 9460 6238 ea0f 1639 cd45 a9b5 9605 2a39
00000010: d4a0 c938 1336 9939 f295 8b38 d2df 0cb9
00000020: 1f04 b939 b824 5739 d075 2838 34a4 2139
00000030: dc82 6c39 0961 8939 2c51 7839 60d7 8ab8
00000040: 5660 c938 247e 2238 d01c 5639 163e 46b9
00000050: 8d40 efb5 3750 a639 675c b039 eed9 8038
00000060: 1015 a038 0942 61b9 355a ec39 000b 9b38
00000070: 7d73 b0b8 be91 b039 90c2 ecb8 c05c 2039
00000080: 4e64 50b9 bfc2 29b9 6cb5 01b9 6c00 4538
00000090: 656c a339 55d7 0fb9 1b40 8e39 2aa5 77b8
000000a0: 80e7 b538 42be a338 44cf 6838 47cb 35b9
000000b0: 491f c1b7 508c 3438 b998 c0b7 d1d8 8639
000000c0: efaa fb37 42cc d9b8 fe06 2e39 c250 9538
000000d0: 980e 7639 ef0e f1b7 1a9a c938 b0a2 beb8
000000e0: 48b3 8239 481b 1eb9 6abe eb38 fa81 b6b8
000000f0: 358a 38b9 a92b 9db8 c6af 3639 9d3c 8039
00000100: d00d 1e39 40b1 cfb8 3b3f a037 a274 3839
00000110: d38f d6b8 550f 63b9 f7c7 b3b8 eadf 9039
00000120: 81fb 93b8 6eb5 3bb8 e59d 8939 283b 0b38
00000130: e48a 7b38 9010 46b8 7281 8eb8 cc67 2539
00000140: 948b 9ab8 f2cc 9438 f8a8 2939 1c3e bd38
00000150: 408c 0f39 afcb bd39 0f70 1439 edab 21b9
00000160: 0b21 69b9 12a8 5439 b860 a339 584b b738
00000170: 50f5 f438 f193 b139 6621 9738 9e72 2839
00000180: f4a7 3a39 7293 16b8 429d 1939 cf06 d637
00000190: b782 0239 ae1f 2539 b87f 9238 4b4a 51b9
000001a0: f6e6 a539 d810 d6b8 d42c 4f39 672f 8937
000001b0: 0510 42b9 7e5d a8b8 3704 0d39 ff00 e1b7
000001c0: 08f6 2039 4b84 67b9 7e6f 8839 2ac2 f738
000001d0: 448b 08b9 169b 61b9 a814 ef38 c944 95b7
000001e0: 478f 27b8 4ab3 5639 ff85 9237 1ef3 3c39
000001f0: 5e1c 8239 24fa 0db8 302b 6238 6c25 7c39
00000200: 7aad 743b 967c 773b 4b89 373b 316c b03b
00000210: 7f75 a03b 9e1f d73b 2aa8 373b 6ff7 cd3b
00000220: 0d4a bd3b baee cc3b 984d a83b 8a06 b83b
00000230: 6b3b c43b 70d8 f13b 2bc4 df3b 6036 aa3b
00000240: 5e8a a33b 6fe7 b43b 9802 d83b f218 e93b
00000250: 8313 b83b 0f47 893b d61b 123c c8cf b03b
00000260: 8d2a a83b 0b68 ab3b 8373 c83b 4615 903b
00000270: 9485 9e3b bff5 a83b 7c2b 983b e149 a83b
00000280: 3922 b93b 15da a23b 1c54 483b f180 843b
00000290: 9724 b03b fcbc 6c3b 262a 963b 0912 823b
000002a0: dfe7 953b de00 083b eb40 a73b bbe8 453b
000002b0: f588 753b dd5f aa3b e772 9a3b f343 8d3b
000002c0: 0e02 bd3b 5a97 613b 2d2d b13b 379f eb3b
000002d0: c514 8b3b 233b 9e3b 4918 df3b 97f5 c33b
000002e0: 8655 ef3b d032 7c3b 2f55 e13b c55b 3a3b
000002f0: be41 d43b 6a22 9b3b 3260 c73b 72c9 013c
00000300: d7ca c83b 0aa5 a33b bd44 d13b ce30 b53b
00000310: 9ca7 943b b9b7 573b 5c8d bc3b ef0b af3b
00000320: 39e0 523b a2f2 9e3b b013 d33b 7024 973b
00000330: 0663 c33b b318 c73b 8192 cb3b a94b 073c
00000340: ba2e 9d3b 87e2 993b 6bbe e53b 636e 8c3b
00000350: 228a 793b 9845 9c3b d873 b43b 45ae 243b
00000360: 2cdb 473b 79aa 563b ce01 af3b 70c5 943b
00000370: 2be6 873b 867d 973b bc16 543b ab52 1f3b
00000380: 0c41 473b 0bac c03b 2343 3c3b 4548 8b3b
00000390: fc7a a93a e75c a83b 86d3 823b 7202 ac3b
000003a0: de2b 723b b5ed a03b 7183 a13b 4c21 8f3b
000003b0: 5ffc a73b 3ac0 8b3b 5e4b dd3b e654 403b
000003c0: 9825 c33b 2073 9c3b ace4 ad3b 7ec6 c03b
000003d0: 234c cd3b b963 853b 0164 ab3b a487 bc3b
000003e0: 7061 843b 7613 793b e173 c83b f282 423b
000003f0: dad2 0b3c 951e a13b eeed ed3b 3104 c83b
5.3972544e-05 0.00014311043 -1.2611796e-06 0.00016214544 9.6143835e-05 0.00029222723 6.655966e-05 -0.0001343482
0.0003528902 0.00020517677 4.0164043e-05 0.00015415327 0.00022555463 0.00026202973 0.00023681362 -6.6204695e-05
9.602371e-05 3.8741287e-05 0.00020419364 -0.0001890588 -1.7825674e-06 0.00031721752 0.0003363818 6.144108e-05
7.633318e-05 -0.00021482272 0.00045080637 7.393025e-05 -8.413845e-05 0.00033677922 -0.00011289597 0.00015293341
-0.00019873792 -0.00016189645 -0.00012369984 4.6968853e-05 0.00031170543 -0.0001371776 0.00027132113 -5.904321e-05
8.673873e-05 7.807884e-05 5.550614e-05 -0.00017337232 -2.3021961e-05 4.304602e-05 -2.29593e-05 0.00025720012
3.0001129e-05 -0.00010385412 0.00016596538 7.119916e-05 0.00023465825 -2.8736393e-05 9.6131305e-05 -9.090209e-05
0.00024929107 -0.00015078217 0.000112411406 -8.702646e-05 -0.00017599094 -7.494476e-05 0.00017422353 0.00024459223
0.000150732 -9.9035446e-05 1.910293e-05 0.00017591057 -0.000102311045 -0.00021654119 -8.5726315e-05 0.0002763265
-7.0563525e-05 -4.4753244e-05 0.00026248317 3.3195276e-05 5.9972415e-05 -4.7222304e-05 -6.795199e-05 0.00015774294
-7.369291e-05 7.095364e-05 0.00016180042 9.023791e-05 0.0001368979 0.00036200645 0.00014156125 -0.00015418204
-0.00022232921 0.00020280507 0.00031161844 8.740154e-05 0.0001168052 0.00033870296 7.206462e-05 0.00016064427
0.0001780091 -3.5900106e-05 0.000146498 2.5513958e-05 0.00012446461 0.00015747428 6.985612e-05 -0.0001995947
0.00031643332 -0.000102074526 0.00019757758 1.6353746e-05 -0.0001850725 -8.0282785e-05 0.00013448378 -2.6822554e-05
0.00015350443 -0.0002207916 0.0002602301 0.00011814044 -0.00013021851 -0.00021515446 0.000114002556 -1.7794215e-05
-3.994934e-05 0.00020475421 1.7466953e-05 0.00018019645 0.00024816667 -3.384998e-05 5.392282e-05 0.00024046534
0.0037334845 0.0037763468 0.0028005417 0.005383991 0.004896819 0.0065650484 0.0028023818 0.0062856
0.00577665 0.0062540444 0.005136203 0.005616014 0.0059885285 0.0073805377 0.006828805 0.0051944703
0.00499086 0.005520753 0.006592106 0.0071135694 0.0056175604 0.004189379 0.008917769 0.005395863
0.0051320256 0.0052309087 0.0061172857 0.0043970672 0.004837701 0.0051562483 0.0046438556 0.00513576
0.0056498316 0.004969845 0.0030567711 0.0040436913 0.0053754556 0.0036123386 0.004582661 0.003969435
0.0045747603 0.002075247 0.0051041744 0.0030198533 0.0037465666 0.005199416 0.0047134045 0.0043110787
0.005768067 0.0034422488 0.0054069967 0.0071906107 0.0042444193 0.004828827 0.006808315 0.0059802043
0.0073038964 0.0038482435 0.0068766098 0.0028436047 0.0064775636 0.004734327 0.0060844654 0.007921563
0.006127696 0.0049940394 0.006386368 0.0055294996 0.004536582 0.0032915904 0.005754156 0.0053419988
0.0032177104 0.0048507014 0.006441556 0.004612498 0.0059627322 0.0060759424 0.006212533 0.008257785
0.00479683 0.0046961936 0.007011225 0.00428562 0.0038076718 0.0047690384 0.0055069737 0.0025128287
0.0030495627 0.0032755418 0.0053407913 0.004540138 0.004147311 0.004623118 0.0032362184 0.0024310749
0.0030403761 0.005879884 0.002872654 0.0042505586 0.0012930329 0.005138028 0.0039925007 0.005249315
0.0036952416 0.0049111494 0.004928999 0.004367983 0.0051265205 0.0042648586 0.0067533692 0.0029347478
0.0059554093 0.004774466 0.005306801 0.005883037 0.0062651797 0.0040707258 0.0052304273 0.0057534743
0.004039936 0.0038005984 0.0061173295 0.00296801 0.008534158 0.0049169757 0.0072610294 0.0061040153
