our-vTR/2_fold_lightning_logs/dataset1/fold_1/version_3/checkpoints/epoch=0-step=20_fold1.ckpt (torch, 132113 bytes, 18 tensors)

conv1d.weight f4 [128, 4, 12]
000000 ee e0 97 3d dd 6a 08 3e ee 6b d1 3d 6c 51 0b 3e
       0.07415949 0.13322015 0.10225664 0.13605279
000010 7e f8 b1 3c d1 72 86 3c 5a bf e5 bd 1e 44 ba bc
       0.021724936 0.01641217 -0.11218138 -0.022737559
000020 ab a0 61 3d b1 ed 0d 3d 3d 5c cd 3d c9 f8 86 bd
       0.055084866 0.03465051 0.10027359 -0.06590421
000030 39 9a 48 bc 4b 4d 88 bd 7e f8 17 be 70 a5 04 3e
       -0.012243801 -0.066553675 -0.14840886 0.12953734
000040 32 04 fb bd 18 f4 13 bb 98 c9 88 3d 21 5d a0 3d
       -0.122566596 -0.002257591 0.06679076 0.07830263
000050 5b a0 92 bc 8d 29 7e bd dc 04 a0 3d c8 b2 eb bd
       -0.01789873 -0.062051345 0.07813427 -0.11508709
000060 9e 80 dd 3d b7 fc b5 3d 18 29 17 be 5b 80 2e bd
       0.108155474 0.08886092 -0.1476177 -0.042602878
000070 81 5b b1 3d 1e c4 b8 3d 7a 08 ca 3d cf ab ac bd
       0.08660031 0.090217814 0.09864898 -0.084312074
000080 53 da 8b bc cb 13 77 bd fa d6 d3 3d 02 81 39 bd
       -0.017071879 -0.06032161 0.10343738 -0.045289047
000090 0e 1b 09 bd 7d 3a ae bd 77 8e 6f 3d aa 5f d5 3d
       -0.033473067 -0.085072495 0.058485474 0.10418637
0000a0 49 6e 32 38 4f 58 8f 3d a7 4b a8 3d 55 77 cf 3c
       4.2541218e-05 0.069992654 0.082175545 0.025325457
0000b0 da ce 13 bc 2e 35 32 bd fd 61 cd bc c8 22 16 be
       -0.009021485 -0.043507747 -0.025071139 -0.14661705
0000c0 4a 8b 8b bc 8c 4d 99 bd 28 30 a1 bb 8e 8b 67 bd
       -0.017034192 -0.07485494 -0.0049190708 -0.056529574
0000d0 10 44 03 3b 9d 4d 23 3d 48 0a b6 bd 6d 37 11 be
       0.0020029582 0.03986894 -0.0888868 -0.141813
0000e0 a8 10 6c 3d a2 61 10 be 4d 37 40 bd f8 5c dc bc
       0.057633072 -0.14099744 -0.04692774 -0.0268998
0000f0 60 de 10 be 14 86 23 bd 1a 5b 89 3d 13 68 27 3d
       -0.1414733 -0.03992279 0.06706829 0.040870737
000100 68 ff 65 3d 59 c0 0a bc 16 ba a8 3d 3c 1c 9b 3d
       0.056151778 -0.008468711 0.08238618 0.07573745
000110 5f 32 09 be be 8c cf bd 21 0b cf bd df 9e a4 3d
       -0.13398121 -0.10134266 -0.101095445 0.08038115
000120 72 59 ee 3d 78 fd 41 bc 64 d8 20 3d 24 05 e7 3d
       0.11638154 -0.011840217 0.039268866 0.11280277
000130 9a 39 b5 bd cd dd 87 bd 7c b6 b0 bd 51 5a 43 3d
       -0.08848877 -0.06634102 -0.08628556 0.047693554
000140 b2 82 c2 bd 1c e3 cf bd 0a 3e a8 3c c6 17 88 3d
       -0.094975844 -0.101507396 0.020537395 0.066451594
000150 af e5 87 bd dd dc b9 3d 7c 3d 84 bb 6d fc c2 bd
       -0.066356055 0.090753295 -0.00403565 -0.09520803
000160 06 51 1b bd 89 75 ec bb 65 30 c1 3d a7 5a a9 3d
       -0.037919067 -0.0072161597 0.09433059 0.08269244
000170 dc 07 a2 3d ab 02 0a 3c 67 55 c7 bd 47 05 ab bd
       0.07911655 0.008423488 -0.09733086 -0.08350616
000180 80 4a 72 3d f5 75 cf bd 88 04 22 bc 7e 40 3f bb
       0.05915308 -0.101299204 -0.009888776 -0.0029182727
000190 1d 85 78 bd 6b 20 1b bd a6 81 e5 bd d9 1d a1 bd
       -0.06067382 -0.037872713 -0.11206369 -0.07867021
0001a0 69 a6 0c bd e7 57 06 3e f7 65 ec 3d 0d 02 27 3d
       -0.03433839 0.1311947 0.11542886 0.04077344
0001b0 44 73 93 bd 8f 89 fa bd b3 17 be 3d 21 d2 0d bd
       -0.071997195 -0.122332685 0.09281864 -0.034624223
0001c0 be 6a f4 3d 26 da b7 bc b3 72 01 be 9c 2b 03 be
       0.11934422 -0.022442888 -0.1264141 -0.12809604
0001d0 ca 15 0f 3e 9f d4 f6 bd ff be f9 bd 1c c8 c0 3c
       0.13973156 -0.12052273 -0.12194633 0.02353292
0001e0 64 5a 0d 3e 2d b7 ef 3d c6 bc 9c bd c7 ce a9 bc
       0.13804013 0.1170486 -0.07653193 -0.020728482
0001f0 b7 53 62 bd b8 34 06 3d ac 81 ac bd bd bd 8b 3d
       -0.055255618 0.03276512 -0.084231704 0.06823299
000200 e8 a4 51 bd 48 90 ed bd 47 5d eb bd d2 a4 8e bc
       -0.051182657 -0.11599785 -0.114924006 -0.017412577
000210 12 90 06 3e 47 3b 9b 3d b3 fa f5 bd 8c 2a fa bd
       0.13140896 0.07579666 -0.12010708 -0.122151464
000220 27 2d f9 3d c6 9c a2 3d a9 f0 7c 3b 6b 43 f3 bd
       0.12166815 0.079400584 0.0038595593 -0.11878093
000230 e7 77 7e bd 89 73 cd bd a7 11 0b 3e 2d 50 c9 3d
       -0.062126067 -0.10031802 0.13580953 0.098297454
000240 18 93 95 bd 49 a8 19 bd a1 96 ff bd b5 d0 65 bd
       -0.073034465 -0.037514005 -0.12479902 -0.05610724
000250 63 d7 cc 3c a9 02 89 3d eb 8f ea bd bf 91 a8 bd
       0.025005048 0.066899605 -0.114532314 -0.08230924
000260 e3 bd 04 be bd 98 f1 3d fd 27 f2 bd 7f a8 18 be
       -0.12963061 0.11796711 -0.118240334 -0.14908026
000270 24 65 c1 3d f3 e5 ea 3d 64 d5 9e bd bf cf b8 3d
       0.09443119 0.114696406 -0.07755545 0.090239994
000280 8c 35 df 3d 7b b3 b3 3c 84 39 7c bd 68 92 84 bd
       0.10898885 0.021936169 -0.06157829 -0.06473237
000290 9f ac df 3d 4e 5d d0 3d db 8f 83 bc fb 93 b3 bd
       0.10921597 0.101740465 -0.016059807 -0.087684594
0002a0 6b 65 8c 3d 91 54 64 3d dc 5d 0f be 17 e0 6a bd
       0.068552814 0.05574471 -0.14000648 -0.057342615
0002b0 0e 1d b4 3d bc 6f 46 3b 51 7c f7 3d f8 ca 19 bd
       0.08794604 0.0030279001 0.12084258 -0.03754708
0002c0 11 1c 94 ba 7c 17 64 bb 18 f7 3a bd 35 49 a3 bd
       -0.0011299868 -0.0034804037 -0.045645803 -0.079729475
0002d0 29 c0 d7 bc 02 67 24 3d a9 e2 2b bd be 7a aa 3d
       -0.026336746 0.0401373 -0.041964207 0.083241925
0002e0 70 3f d2 bd 87 3b cc bd 20 7e 52 bd 20 9a e4 bd
       -0.10266006 -0.099722914 -0.051389813 -0.111622095
0002f0 8b 20 ab bc 97 e9 c4 bd ec 57 db 3d 39 91 da bd
       -0.020889541 -0.09614866 0.10710129 -0.1067223
000300 bb d9 f5 3c ec d3 07 bd 1d 90 9a bd 23 4e 29 3d
       0.030011049 -0.03316109 -0.07547019 0.041334283
000310 b7 86 71 3d e2 2d e1 3d d9 03 0b 3e 09 0a 07 3e
       0.058966365 0.109950796 0.13575687 0.13187422
000320 ac 67 18 be 34 ea 00 3e c8 46 27 3d c4 8c 01 3e
       -0.14883298 0.12589341 0.040838987 0.12651354
000330 a8 86 0d be 86 6e 88 bd 42 95 18 bd 03 4b ed 3d
       -0.13820899 -0.06661706 -0.03725172 0.11586573
000340 17 99 d3 bd 9d 62 d2 3d 2c 43 d8 3d b4 29 9f bc
       -0.10331934 0.10272715 0.10559687 -0.019429065
000350 38 17 b4 bd cf 0b 9e bd aa 19 ee 3d 1b 47 a2 3d
       -0.08793491 -0.07717096 0.11625989 0.079237185
000360 1d ca c4 bc 69 c4 00 bd f5 b2 12 3d 47 8f 87 bd
       -0.024022156 -0.03143731 0.035815198 -0.06619125
000370 b4 32 22 3d d9 fd 8c 3d b2 9c e0 3c f3 4e 97 3c
       0.039599136 0.06884355 0.027418468 0.018470263
000380 4b 0c b0 3d 66 82 5b 3d 66 96 78 bd 1d 7f eb bc
       0.08596095 0.053591155 -0.060690306 -0.028747136
000390 f1 a4 b4 bd 53 ce bb bd 11 8a 73 3d 91 29 ff 3d
       -0.088205226 -0.091702126 0.059457842 0.124591
0003a0 8c 7b 03 be 11 23 98 3d 4e b5 2b 3d 6a d7 96 bd
       -0.12840098 0.074285634 0.041920952 -0.07365306
0003b0 4f f8 b8 bd ec 18 6c bd 7e 81 f0 bd 96 4f 17 be
       -0.09031736 -0.057640955 -0.11743449 -0.14776453
0003c0 b4 6a 7e bd d9 f3 8f bd a0 ad 14 3e 15 85 64 bc
       -0.06211348 -0.07028932 0.14519358 -0.013947745
0003d0 b7 4d 8e 3d 8a 2e 9e 3c 85 0b 5c 3d 29 fb 0a be
       0.06948417 0.0193093 0.053721923 -0.13572372
0003e0 17 27 bd bc bb f1 78 bc 62 8d ee bd 4d fd 9b bd
       -0.023089929 -0.015194352 -0.116480604 -0.07616673
0003f0 b4 c0 93 bc 8f 10 5d 3d c3 92 d9 3d 2e 14 98 3c
       -0.018036224 0.05397087 0.10623696 0.01856431

conv1d.bias f4 [128]
000000 c8 de e9 bc df 64 76 3d 73 6c d1 39 38 a5 14 bd
       -0.028548613 0.060154792 0.00039944387 -0.036290377
000010 cd 5c e3 bd 5c c9 f5 bd d6 2b da 3d 8f 86 07 3e
       -0.11101685 -0.12001297 0.10652892 0.13234924
000020 75 52 a7 3d b9 1d 04 be 75 55 ce 3d 3d 33 e0 bd
       0.08170024 -0.12901963 0.100748934 -0.10947273
000030 aa 6f c6 3c 6e 10 b9 3d 77 3d de 3d e5 80 0c be
       0.024223167 0.09036337 0.10851567 -0.13721044
000040 21 11 ea bc 5c e6 f8 3d 0e 37 6c 3b 39 e8 23 3d
       -0.02857262 0.121533126 0.0036043557 0.040016387
000050 36 cb d7 3b 2b 1e 0c 3e 35 f3 fa 3d 3a 85 2c bd
       0.006585504 0.13683383 0.12253419 -0.042119242
000060 20 ec 84 bd d8 1a d6 bd 35 6d b2 bd 9a 4d 3c 3d
       -0.0649035 -0.10454339 -0.08712236 0.045972444
000070 78 f7 eb 3d 1e 34 f0 bd ab 0f b8 3c e7 45 22 bd
       0.1152181 -0.117286906 0.022468409 -0.039617445
000080 b0 d5 83 3d 69 f3 04 be 57 b7 b3 3d c4 0b b7 bd
       0.06437242 -0.12983479 0.08775204 -0.08937791
000090 9e e3 dc bd 8a 02 c1 3d 14 dd 58 bc d0 83 ae 3d
       -0.10785602 0.094243124 -0.013236303 0.08521235
0000a0 67 e4 7c bd b1 2d 8a bd 70 0f 0f be 26 83 d7 bd
       -0.06174126 -0.06746996 -0.13970733 -0.105230615
0000b0 fe 73 40 bc 36 4c c0 bd 1c cc 05 bd d6 bb e5 bd
       -0.011746405 -0.09389536 -0.032665357 -0.112174675
0000c0 96 d9 8b bb 58 a7 02 be 13 9f e6 3c 53 4c cc bd
       -0.0042678816 -0.12759149 0.028152024 -0.09975495
0000d0 4b 86 07 3e 31 0c 5d bd 6e aa f7 3d 92 b5 7d 3d
       0.13234822 -0.053966705 0.12093054 0.061940737
0000e0 fd 06 d4 3d 34 04 b7 3b ec 19 82 3d 2d 2a bf 3d
       0.103528954 0.005585218 0.063526005 0.09334216
0000f0 a0 a4 04 3e 91 b3 5a 3d f0 90 fd 3c b1 3d c9 3d
       0.12953424 0.053393904 0.0309529 0.0982622
000100 69 e6 14 3c c9 85 c7 3d 48 83 d4 bd ae 91 90 bd
       0.009088137 0.09742314 -0.103766024 -0.07059036
000110 f6 71 02 be 8a 82 0a be 47 5d 0f bd 7c 41 a3 3d
       -0.12738785 -0.13526359 -0.035001066 0.079714745
000120 5d eb 78 bd 1e 89 dc bd d0 ca d3 3d dd 6f 2e 3d
       -0.060771335 -0.107683405 0.10341418 0.04258715
000130 9d d0 39 bd 57 86 66 3d 58 3a 00 bd 48 19 a8 bd
       -0.045364965 0.05628046 -0.03130564 -0.08207947
000140 09 a6 8d 3d 5f bd 4a 3d ca 8f ac bd 49 a9 9b bd
       0.06916434 0.049497005 -0.08425863 -0.07600648
000150 d0 ec 0f be 8b bc e4 3d 7a 33 d7 bd ce cd b0 bd
       -0.1405518 0.11168774 -0.10507865 -0.08633004
000160 9c b1 3e bc 2b 66 13 3e 96 8e 01 3e 83 e2 01 3d
       -0.011639025 0.14394443 0.12652048 0.03171016
000170 01 7b 89 bc b7 bb 9d bd 6b e4 50 3d 2e 09 0b 3e
       -0.016782286 -0.077018194 0.050999086 0.1357772
000180 c0 cb e6 3d 9d cb e8 bd 35 a3 ff bd b3 6f da bd
       0.11269331 -0.11366961 -0.12482301 -0.10665836
000190 04 a7 26 bc ff 37 05 3d e9 30 c2 bb 8b 5a 9d 3d
       -0.010171656 0.032524105 -0.0059262407 0.07683285
0001a0 16 0a dc bd 96 25 af bd ef c0 2b bd d0 58 6b 3d
       -0.10744111 -0.08552091 -0.041932043 0.057457745
0001b0 1e de 99 3d a4 3d 5f bd 90 5d 36 3b bc 01 da bd
       0.075130686 -0.054502144 0.0027826764 -0.10644862
0001c0 82 cf c3 bc 8c 2f 88 bd 3e 9c 6a 3b d1 64 ae 3c
       -0.023902658 -0.06649694 0.0035798694 0.021288307
0001d0 59 ed fd 3c 38 22 a8 3d 4b 5c 8f bc 30 e0 db bd
       0.030996965 0.08209652 -0.017500063 -0.1073612
0001e0 69 3c 96 bd da 0c 9b 3c 92 f1 13 3d 2b 33 cc bc
       -0.07335741 0.018927027 0.03611905 -0.024926743
0001f0 6d 16 31 bd f6 1e 10 be 1e aa 0d 3e 2b ca b1 3d
       -0.043234278 -0.1407431 0.13834426 0.086811386

linears.0.weight f4 [32, 128]
000000 ac ee 57 3d 37 b8 6e 3d 19 90 89 3c 37 87 bd bc
       0.05271785 0.05828115 0.016792344 -0.023135765
000010 a4 f3 88 3d d4 1f 4e ba b2 f6 1f ba 1b 2f 65 3d
       0.06687096 -0.0007863019 -0.0006102129 0.055953126
000020 1e 6f 85 3d 86 3d 1e bd cf 09 1b 3c 68 d6 02 3d
       0.065153345 -0.038632892 0.009462788 0.031942755
000030 41 e1 47 bb 9f bb 2a 3d 83 50 d7 3c 43 ab 4d bd
       -0.0030499252 0.041682836 0.026283508 -0.050212156
000040 b7 10 94 3c f5 8a 66 ba 0b db 99 3c 5b c3 6d bd
       0.018074377 -0.000879451 0.018781206 -0.058047634
000050 93 ea 27 bb 6c 7a 86 bd ab a3 14 bc dc 8e c4 3b
       -0.0025621995 -0.06566319 -0.009072225 0.0059984755
000060 01 c2 f9 3c c4 77 1c ba a0 a8 6f 3d 5e 00 c5 38
       0.030488016 -0.0005968774 0.058510423 9.3937604e-05
000070 33 e0 5e 3c b5 7b 02 bd 46 cd 85 bd 52 ff 7c ba
       0.013603258 -0.031856257 -0.065332934 -0.0009651083
000080 c7 d3 64 bd 40 42 1d 39 e8 c8 23 bd d7 1e 8a bc
       -0.05586603 0.00014997367 -0.03998652 -0.016860409
000090 02 b9 85 b9 31 cf 18 b9 b1 6b b8 bc cf af 5c bc
       -0.00025505578 -0.00014573034 -0.022512289 -0.01346965
0000a0 31 81 a3 3c 22 df 8e 3a bf 0f 01 3d e0 b6 e4 3c
       0.019959064 0.0010900239 0.031509157 0.027919233
0000b0 e0 bf 49 bd 15 76 5d 3d 56 82 e2 3a 69 43 a7 3c
       -0.049255252 0.05406769 0.0017281275 0.020417886
0000c0 50 5a c4 36 4d eb 01 bb 41 7c 3d bd 75 51 85 bd
       5.851769e-06 -0.0019824088 -0.046261076 -0.06509677
0000d0 fb 1b 67 bd bc f5 09 3d fd b0 21 bb b2 80 ba ba
       -0.05642317 0.033681616 -0.0024672144 -0.0014229028
0000e0 d9 71 ff bc b6 6a 5f 3d dd 15 2c bb 8a ae 4f bd
       -0.031182216 0.054545127 -0.0026258149 -0.050703563
0000f0 b3 3e 3b bd 6a d9 e4 bc e3 27 53 3d 82 5b 69 bd
       -0.04571409 -0.027935702 0.05155171 -0.056972034
000100 fa 21 1f 3b c6 80 d3 bc 84 e2 06 3d 59 ce 28 3b
       0.0024281726 -0.02581824 0.032930866 0.0025757758
000110 26 b1 fc 3a b2 3b e3 bc 99 0e 86 bc 9e 4e f0 3c
       0.0019278869 -0.027738426 -0.016364383 0.029334363
000120 42 72 f3 3b 56 49 e5 ba dd 6a 23 bd cb b7 82 bc
       0.007429392 -0.0017493169 -0.039896835 -0.01595678
000130 55 65 75 bd 6b 13 35 bd fc a6 be bc d3 97 0f 3b
       -0.05991109 -0.04420797 -0.023272984 0.0021910563
000140 c4 ef 70 3a ab fa ff ba 9a 68 c1 3a bf 03 5c bd
       0.00091910013 -0.0019529661 0.0014755905 -0.05371451
000150 a4 e6 6d 3c f5 28 55 3d 39 fc 24 bd 53 3b 1d 3a
       0.014520321 0.052041013 -0.0402796 0.00059979147
000160 07 a1 81 bd bd 87 74 3c 38 84 96 3b b0 6e 05 3d
       -0.06329542 0.014924941 0.0045933984 0.032576263
000170 e3 e6 a2 bc cd 13 15 3b c3 2b 3d bd f4 6f 82 3d
       -0.019885486 0.0022747398 -0.046184313 0.063690096
000180 8a 20 83 bd cb 6d bb bc cc ad 41 bd d9 d8 39 bb
       -0.06402691 -0.022879502 -0.047284886 -0.002835801
000190 4c 05 47 3d 41 64 15 bd e8 ef 37 bd ab 86 4e bd
       0.048589036 -0.036472563 -0.044906527 -0.050421398
0001a0 f5 c6 9e 39 dd f5 a7 bc ed d7 01 bd f4 1f 1d 3d
       0.00030284343 -0.020502979 -0.031700063 0.03836055
0001b0 ba ba dd bb a2 be 4f bd e8 b4 96 3b f6 cf 5f 3d
       -0.0067666443 -0.05071891 0.0045992024 0.054641686
0001c0 dd 0a 34 bc 02 b4 fa ba 6a 26 c4 bc 49 e8 06 bd
       -0.010988918 -0.0019127133 -0.023944099 -0.03293637
0001d0 af 13 65 bd d1 01 35 3c 8a 6d 7b bd 8a 6f d3 3a
       -0.055926975 0.011047796 -0.06138376 0.0016131264
0001e0 65 3e 54 bd 19 07 20 3d 84 9a 7f ba 99 a9 3b bc
       -0.051817317 0.03906927 -0.00097505026 -0.011454009
0001f0 a9 19 0f bd 8f 33 1a 3d 3f d8 01 bd bc dd f6 3c
       -0.03493658 0.037646826 -0.03170037 0.030135028
000200 1c 03 67 bc fb 62 04 3a e5 98 9c 3c a6 93 00 3d
       -0.014099862 0.00050501496 0.019115875 0.03139081
000210 c5 df 04 3b ad ae f5 3a 9b ef d8 39 72 6d 84 bd
       0.0020274979 0.0018744074 0.0004137725 -0.064661875
000220 79 62 22 bd 68 1b e3 3c 46 13 3c bb 54 69 59 bd
       -0.039644692 0.02772303 -0.0028698011 -0.053078964
000230 6f 90 54 bd f8 4d c1 b7 be 69 ce b8 46 23 47 3d
       -0.051895555 -2.30437e-05 -9.8425415e-05 0.048617624
000240 77 d2 da 3a 5f f6 ac 3c 86 72 2f bd e1 64 49 3a
       0.0016694803 0.021113573 -0.042833827 0.00076825736
000250 ce c9 12 bd a0 de 3f bd a1 49 89 bc 76 4a 99 ba
       -0.035836987 -0.04684317 -0.016758742 -0.0011695165
000260 10 52 e1 b7 9e 64 fc 39 03 a6 4e 3d 1f 17 1b bc
       -2.6860303e-05 0.0004814015 0.05045129 -0.009465962
000270 5b d3 de 3c 4f 48 80 bc 01 6c 78 bc ae de 2f bd
       0.027200392 -0.01565948 -0.015162469 -0.042936973
000280 d8 e9 1e bc 80 7a 86 bd f1 bc 34 3d f7 4b 94 3a
       -0.009699307 -0.06566334 0.0441255 0.0011314143
000290 75 81 08 bd 81 71 43 bd de aa 40 bc 56 11 f6 b9
       -0.033326585 -0.047715668 -0.011759488 -0.00046933693
0002a0 eb 08 2e 3d 54 bb dd 39 f9 94 0f bd 65 e2 32 3b
       0.042488974 0.00042291975 -0.03505418 0.0027295586
0002b0 49 f3 55 bd 64 28 d7 39 d9 48 46 3d 1f 6d 09 ba
       -0.052233968 0.0004103809 0.048409317 -0.00052423956
0002c0 54 e6 22 bc c9 a4 2f bb 42 23 0e 3a ed c9 78 bc
       -0.00994261 -0.00268011 0.0005422124 -0.015184862
0002d0 72 b6 2f 3b 73 a1 19 3c 36 43 f1 bc 91 b6 25 bb
       0.0026811627 0.009376871 -0.029450994 -0.002528582
0002e0 2c 3a c2 3a 27 3c f6 ba 20 bc f1 bc 79 db 6e 3d
       0.0014818362 -0.0018786237 -0.02950865 0.058314774
0002f0 ba 68 2b bb ca 66 4a 3d d1 17 aa bc 42 12 e7 ba
       -0.0026154951 0.049414434 -0.02076331 -0.0017629343
000300 35 f3 61 ba ed b3 03 3b f5 9d 4f ba 06 a8 91 3a
       -0.00086193095 0.0020096258 -0.0007919961 0.0011112697
000310 c3 8b 1c bc d1 4e 2a 3d 7c 26 25 bd 0d ec 3a bd
       -0.009554806 0.04157907 -0.040319905 -0.04563527
000320 c1 7a 2e 3c 22 e5 67 39 f5 35 65 bd 6a b1 be bc
       0.010649384 0.00022115235 -0.05595966 -0.023277957
000330 65 2d 55 3d 2c 96 82 b9 24 b8 51 3d 8b 86 6e bd
       0.052045245 -0.0002490742 0.051201 -0.05823378
000340 2f 97 f8 bc 41 45 c9 bc e9 57 b6 b9 c0 14 71 bd
       -0.030345527 -0.024569156 -0.00034779243 -0.05885768
000350 03 96 a2 3c f3 6e a9 3c 31 ca 54 bd f8 a1 31 bd
       0.019846922 0.020682788 -0.051950637 -0.043367356
000360 8c e4 77 bd 2d 21 7e bd 01 60 09 bb cc a4 7a bd
       -0.060520694 -0.062043358 -0.0020961764 -0.06119232
000370 5b 92 11 bd 85 c4 34 bc 6a 20 e6 bb 85 d4 3c bc
       -0.035539966 -0.011033182 -0.007022907 -0.011525278
000380 a8 b1 68 3c 6e ec 14 3d dc ad bb 3b b1 8a 13 3d
       0.014202513 0.03635829 0.0057275128 0.03602094
000390 5d a8 65 3d a1 93 0a 3d a2 a6 70 3d 1b b8 c7 bc
       0.056068767 0.033832196 0.058752663 -0.02437978
0003a0 d4 26 24 bc 15 73 ec 3c 03 70 0c bd b7 cb 25 3d
       -0.010019023 0.02886347 -0.03428651 0.04047748
0003b0 40 79 36 39 56 fc 1b bd 08 f9 39 3d 4f bf 74 3d
       0.00017402042 -0.038082443 0.04540351 0.05975276
0003c0 84 3c 4e b9 76 7d 86 bd 93 ba 6c bd 23 2c 2c 3d
       -0.00019668235 -0.065668985 -0.05779512 0.04203428
0003d0 4f 78 0e bb d7 a8 fc bc 0b d3 4e 3d 5a 54 f3 bc
       -0.002173919 -0.030842228 0.050494235 -0.029703308
0003e0 a7 61 9c ba 58 2f 17 bb 8a 91 80 bd 30 eb ac 39
       -0.0011930958 -0.002306899 -0.062777594 0.00032981625
0003f0 e5 9c 0d bd d3 ad 2a 3d a3 9d 85 bd 81 b9 82 3d
       -0.034573454 0.041669678 -0.065242074 0.06383038

linears.0.bias f4 [32]
000000 4e e3 7a b9 26 d2 69 3d 40 88 a9 b8 f3 22 1d bc
       -0.00023926536 0.05708518 -8.0839265e-05 -0.009590852
000010 9e 7f d4 bc 7f c5 fd 3c ef 20 83 bd bf 2e 02 3d
       -0.025939759 0.030977963 -0.06402766 0.03178286
000020 a4 d2 20 b8 20 e1 97 bb f6 50 88 3d 43 6a 7f bd
       -3.8343147e-05 -0.0046349913 0.06656067 -0.0623572
000030 8f 31 a6 3c 96 cf 35 bc 7a ca 02 bc 9c 80 dc bb
       0.020287303 -0.011096856 -0.0079828445 -0.0067291986
000040 67 d3 a0 3d 97 b4 5c 3c 3b 9d 98 bd c6 be 0e b9
       0.07852822 0.01347079 -0.07451864 -0.00013613244
000050 ad d6 09 3b 48 68 22 3c 1f f7 44 3d ab 27 a9 3d
       0.0021032498 0.009912558 0.048087236 0.08259519
000060 fa 6a e1 3b 1a f3 0f 3d cc ea a6 bc db e0 da b9
       0.0068792077 0.03514395 -0.020375632 -0.0004174773
000070 4e da ff 3c 24 69 80 3b e8 7b 23 3b b5 24 2e 3b
       0.031232025 0.0039187837 0.002494568 0.0026572172

linears.2.weight f4 [2, 32]
000000 f5 b2 b3 3c fe 3d a8 39 cf 49 22 bd ac ad 07 3e
       0.02193592 0.00032089645 -0.03962117 0.13249844
000010 40 cc d5 3d 9f 8a 1a bc c4 24 04 3d f2 85 08 bd
       0.10439348 -0.009432464 0.032261625 -0.033330865
000020 31 40 8f 3d 02 cc ae bd 22 21 36 3d 2e dc 06 be
       0.069946654 -0.08535005 0.04446519 -0.1316993
000030 02 b2 9b 3d e1 e7 d3 3d 08 84 fe 3d c3 a4 95 bc
       0.07602312 0.10346962 0.12427527 -0.018267041
000040 f3 ea 17 3d 3c 04 f2 bc 1b f9 e0 3d 56 92 c2 bd
       0.0370893 -0.029543035 0.10985013 -0.095005676
000050 2c ef 40 3d c7 9b 98 bd 5c a6 db bd ac 66 bb 3b
       0.047103092 -0.07451587 -0.1072509 0.0057190266
000060 9b f9 0b 3e 39 28 b3 3b 80 cd b5 bc 44 6a 17 3e
       0.13669436 0.0054674414 -0.022192717 0.14786631
000070 2a 81 b5 39 45 3d 14 bc de 84 07 3c 88 62 e6 bd
       0.00034619245 -0.009047811 0.008271424 -0.11249262
000080 0d c2 1a 3e 0e 8f f5 3d 34 79 d6 bd 6e 68 42 ba
       0.15113087 0.11990176 -0.104723364 -0.0007416074
000090 82 f2 0d ba 19 e7 3a 3c 87 bf ea bd c8 4b ac bd
       -0.00054148596 0.011407637 -0.11462312 -0.084128916
0000a0 db c6 c5 3d f6 83 5c 3d ab 91 01 3e b1 d4 18 be
       0.09657069 0.053836785 0.12653224 -0.14924885
0000b0 77 40 a5 3d 6c ed a5 3c 02 2b a2 3a de 61 aa bd
       0.08068936 0.020254813 0.0012372436 -0.08319448
0000c0 29 a6 f7 3d 4d c5 81 3d 87 a9 fd bd 75 a4 6c 3d
       0.120922394 0.0633646 -0.123858504 0.057774026
0000d0 5c 5e c4 bb 3a 6f b8 bd 44 d4 e5 bd c9 cb b2 3d
       -0.005992694 -0.0900559 -0.11222127 0.08730275
0000e0 ba 66 83 3d 58 5c 8c bc 74 05 7d 3d 53 ec b4 bd
       0.06416078 -0.017133877 0.06177278 -0.08834138
0000f0 8b ba 28 be 2a de 2b be 60 8b 85 3d 72 37 17 be
       -0.1647741 -0.16783968 0.06520724 -0.14767244

linears.2.bias f4 [2]
000000 fc bd 31 3d af b8 db bd
       0.043394074 -0.10728585

exp_avg f4 [128, 4, 12]
000000 e4 92 07 38 90 4f 46 38 bf dc 72 38 ed ca 24 38
       3.232331e-05 4.7280977e-05 5.7902882e-05 3.9289636e-05
000010 c2 1e 0c 38 fc 44 4a 38 de cc 91 b4 98 66 cd 35
       3.3407247e-05 4.82248e-05 -2.7157415e-07 1.5303549e-06
000020 91 4c 22 38 34 cd ce 38 83 89 14 38 ed 02 58 38
       3.8695118e-05 9.8610675e-05 3.5414017e-05 5.1501138e-05
000030 2e de 41 36 70 16 6e 36 b0 3f 89 36 18 5d ce 37
       2.8888567e-06 3.5477824e-06 4.0903324e-06 2.4600464e-05
000040 56 2f 36 36 da 7e 20 37 de 5e ca 37 60 04 7c 38
       2.7147667e-06 9.566278e-06 2.4124452e-05 6.0085556e-05
000050 a0 83 04 38 02 88 e7 b6 c9 49 7b 37 18 98 82 37
       3.1593838e-05 -6.90017e-06 1.4977945e-05 1.5568032e-05
000060 f1 92 8b 38 10 85 5d 38 48 c9 3c 36 cd 78 2d 34
       6.6554065e-05 5.281443e-05 2.8131344e-06 1.6155828e-07
000070 9a 78 8b 38 7f 0f 34 36 b8 1e c9 37 d7 1b b0 b6
       6.6505e-05 2.683111e-06 2.3975372e-05 -5.2484497e-06
000080 43 d0 54 37 17 7e 3e 35 2e da 4c 38 8e c0 0f 38
       1.2684674e-05 7.0964e-07 4.8840586e-05 3.4273187e-05
000090 67 8b e5 35 ab fe 32 b4 bb 31 22 38 12 5c 25 38
       1.7102401e-06 -1.667019e-07 3.8670125e-05 3.9424813e-05
0000a0 26 07 64 35 57 5d 34 38 d6 67 69 38 0d 5d 3f 38
       8.494702e-07 4.3002274e-05 5.5648234e-05 4.562461e-05
0000b0 a7 30 a0 37 6e e8 17 37 bb 19 9b 35 09 3c 78 36
       1.9096142e-05 9.054418e-06 1.1555888e-06 3.6989825e-06
0000c0 13 ab 17 37 fb 88 2f 37 85 d6 5e b6 f5 f8 65 b7
       9.040133e-06 1.0462706e-05 -3.3205445e-06 -1.37074285e-05
0000d0 6b 84 b7 b6 de 79 6c 38 fc b4 0c 35 7e c0 b6 36
       -5.4692405e-06 5.6380282e-05 5.241743e-07 5.4464317e-06
0000e0 8e fa 82 37 4c 4c 31 b7 d7 11 96 36 c5 c4 28 b5
       1.5613881e-05 -1.0567786e-05 4.472425e-06 -6.2871214e-07
0000f0 65 c7 a8 36 98 c6 43 b7 5f 6f 90 37 a4 8e f1 36
       5.0300027e-06 -1.1669144e-05 1.7217999e-05 7.1989652e-06
000100 e6 be 0c 37 17 02 1a b8 26 b0 7b b6 c4 69 a2 b7
       8.389097e-06 -3.6718408e-05 -3.7504446e-06 -1.9361156e-05
000110 89 45 82 b7 80 e4 b1 36 a1 df c1 37 b6 4c f5 b7
       -1.5529587e-05 5.301612e-06 2.3111528e-05 -2.9241997e-05
000120 eb 2d b4 b7 d0 8f 30 b8 ae d2 0d b8 c1 9a ab b5
       -2.1479054e-05 -4.2095606e-05 -3.381323e-05 -1.2785532e-06
000130 36 da 9c b7 cc a9 23 b7 b4 54 58 b7 a3 ce 0c 37
       -1.8698262e-05 -9.755091e-06 -1.2894325e-05 8.392762e-06
000140 9f 51 09 36 c3 3b a2 37 58 96 fe b7 27 96 bf 37
       2.04621e-06 1.9339734e-05 -3.0349169e-05 2.2838894e-05
000150 da 87 c3 36 ee fc 2e 38 40 cc 99 37 d9 37 d0 36
       5.827268e-06 4.1720392e-05 1.8334133e-05 6.2053846e-06
000160 98 2e 6e 37 77 be 40 b7 58 ec 73 37 b2 c1 fc 36
       1.4196754e-05 -1.1488438e-05 1.4538957e-05 7.5327343e-06
000170 6d 63 26 36 f0 2a 47 b7 a7 e2 64 36 05 5f 09 37
       2.47938e-06 -1.18713215e-05 3.4106577e-06 8.18796e-06
000180 54 0a 9a 39 62 c9 14 38 77 a2 8e 39 09 51 92 37
       0.00029380864 3.5473502e-05 0.00027205396 1.7442291e-05
000190 fe a8 04 39 94 d8 f1 37 5b 36 28 b8 e0 4a 2f 39
       0.00012651455 2.883029e-05 -4.0104944e-05 0.00016717194
0001a0 aa 26 cc b8 a9 09 06 3a 5f 47 3a 39 1d 28 23 b7
       -9.73468e-05 0.0005113134 0.0001776493 -9.724897e-06
0001b0 d3 98 93 b6 a6 08 83 b8 04 49 1e 39 c7 c8 e0 39
       -4.3987325e-06 -6.248178e-05 0.00015095255 0.000428742
0001c0 10 33 f2 38 8f 57 88 38 12 d2 00 39 f7 cf 96 38
       0.0001154897 6.5012944e-05 0.00012285289 7.191294e-05
0001d0 24 92 bb 39 c3 2f 1e 39 54 1e 08 b8 1d 38 18 39
       0.00035776303 0.00015085847 -3.2453172e-05 0.00014516753
0001e0 61 d3 fe 38 46 60 c4 39 1a 00 09 b8 3a 73 4e 38
       0.00012151036 0.00037455763 -3.266344e-05 4.922154e-05
0001f0 b6 39 ee 38 a8 c4 f3 38 f3 36 7b 39 b5 03 93 39
       0.00011359474 0.00011623773 0.00023957696 0.00028040787
000200 8d 12 ba 38 3b 3e d3 b8 31 42 82 38 49 cf d4 b8
       8.8726265e-05 -0.000100728554 6.211212e-05 -0.000101475576
000210 1f d0 0f 38 15 ce cc 38 b9 1e 66 38 94 8b 52 b8
       3.4287685e-05 9.765864e-05 5.4864886e-05 -5.0197894e-05
000220 73 ec bb 38 6e 8c 76 39 ff 2e ff 38 ae 4e 9e b8
       8.960897e-05 0.00023512702 0.00012168101 -7.548682e-05
000230 67 f1 c6 38 3b 2e fa b8 f9 f4 6e 39 be 31 d8 39
       9.4863404e-05 -0.0001192954 0.00022788708 0.0004123579
000240 f6 22 aa b5 c0 66 04 38 b3 c2 1c 39 f6 9c fe 36
       -1.2676162e-06 3.1566946e-05 0.0001494985 7.5880625e-06
000250 9e d7 4c 38 5f 6a b6 39 20 3f 04 37 ea 55 44 39
       4.88382e-05 0.00034792998 7.8825105e-06 0.00018724022
000260 2d 6a 27 37 d5 f4 09 39 7e 63 24 37 d1 cd aa 38
       9.978697e-06 0.00013156545 9.798327e-06 8.144568e-05
000270 fb 78 3d 39 f7 26 ae 39 46 7a e1 b8 c8 68 52 39
       0.00018069513 0.00033216897 -0.00010751611 0.00020066195
000280 ac bc 6f 39 cf 07 94 38 23 18 3e 38 74 e6 aa 38
       0.00022863102 7.0586444e-05 4.532201e-05 8.149157e-05
000290 37 60 a5 39 2f c4 8b 39 99 85 0b 36 c7 fd 91 39
       0.00031542938 0.00026658314 2.0790378e-06 0.00027845634
0002a0 4f fe 2c 39 f4 00 90 38 12 7e d8 38 31 86 c5 37
       0.00016497936 6.8666326e-05 0.00010323165 2.3546718e-05
0002b0 d5 b2 9f 38 92 90 d1 b8 7e 8d 87 39 33 1c 90 b8
       7.615021e-05 -9.992825e-05 0.00025854626 -6.8717076e-05
0002c0 27 3d c5 b7 38 09 25 b8 b4 61 6e b6 c0 54 83 b8
       -2.3512706e-05 -3.934765e-05 -3.5521634e-06 -6.262353e-05
0002d0 a2 4c d0 36 61 85 ab b8 d1 60 57 39 e5 2d f9 38
       6.2078043e-06 -8.178759e-05 0.00020540065 0.00011881794
0002e0 8e a5 49 b6 28 54 06 38 c0 01 23 38 7b 31 15 39
       -3.00477e-06 3.2026466e-05 3.886386e-05 0.0001422818
0002f0 27 89 1a 38 28 7d b4 b7 9b 66 b0 39 7f 67 48 38
       3.6844194e-05 -2.1515953e-05 0.00033645783 4.7780104e-05
000300 0a 2b 9f 39 98 21 b2 38 9b 61 36 38 c6 32 25 39
       0.0003035891 8.493959e-05 4.3483084e-05 0.00015754541
000310 2d 8f 8d 39 4f d0 4c 38 0c 74 1f 39 e3 46 6b 39
       0.0002700029 4.8831393e-05 0.00015206652 0.00022437754
000320 e0 39 cf 36 85 79 55 39 3e 26 87 38 70 14 1b 39
       6.1758183e-06 0.00020358532 6.444425e-05 0.00014789565
000330 bf 8c 76 b6 9d 54 5b 36 af 0a 9f b6 8c 1f 0b 38
       -3.6738782e-06 3.2682794e-06 -4.739813e-06 3.3169563e-05
000340 6d e7 82 37 b8 10 84 38 31 12 31 38 d3 3b ab 36
       1.5604974e-05 6.2973646e-05 4.221703e-05 5.1031616e-06
000350 bf 26 4b b7 d1 ef 7f 38 c9 5a 72 39 52 b3 e0 38
       -1.2108764e-05 6.1020084e-05 0.00023112739 0.00010714553
000360 06 ea 65 37 b3 84 0f 39 1d f9 d0 38 69 bb 62 b7
       1.37039515e-05 0.00013686977 9.964614e-05 -1.3514285e-05
000370 e2 61 5b b6 66 42 04 39 04 18 3b 38 35 a7 0d 38
       -3.2690518e-06 0.00012613236 4.460664e-05 3.3772743e-05
000380 94 f5 6e 39 89 43 6b 38 de 6d ba b5 97 5c 83 37
       0.00022788934 5.6091263e-05 -1.3890055e-06 1.5659532e-05
000390 d4 f6 05 b8 e6 67 6d 38 2c 40 16 39 b1 1b db 38
       -3.1939548e-05 5.6601966e-05 0.0001432902 0.00010447892
0003a0 8f f3 30 b5 d8 77 37 38 c1 78 33 38 d4 91 9a 37
       -6.5919534e-07 4.3742213e-05 4.2789386e-05 1.8426137e-05
0003b0 52 7f 7a 38 48 a6 23 b8 13 c4 51 b7 4b 96 0e 37
       5.972322e-05 -3.901709e-05 -1.2503023e-05 8.498852e-06
0003c0 d4 75 f5 35 95 ed cb b7 cc 46 05 b9 99 7b e8 b7
       1.8288215e-06 -2.4310119e-05 -0.00012710242 -2.771411e-05
0003d0 85 00 b6 38 24 4f 5f 37 59 f0 96 b8 c6 0e 24 38
       8.678533e-05 1.3310262e-05 -7.1973256e-05 3.9114406e-05
0003e0 72 d9 62 b8 1f a6 06 b9 1e 22 77 37 86 ba 41 b8
       -5.408511e-05 -0.00012841121 1.4730291e-05 -4.61885e-05
0003f0 0b 35 89 b8 1d e5 a1 b8 66 21 e2 b7 21 f4 7c b8
       -6.542549e-05 -7.719754e-05 -2.6956852e-05 -6.0308845e-05

exp_avg_sq f4 [128, 4, 12]
000000 69 25 ea 2f 6b 14 e9 30 d7 9f c8 31 9d 75 94 30
       4.2590934e-10 1.6958784e-09 5.8389378e-09 1.0801845e-09
000010 c1 ba 52 30 6e 77 44 30 d8 f9 85 2d 5a 8a 53 2f
       7.666295e-10 7.1474104e-10 1.5231302e-11 1.923949e-10
000020 cb ae 8e 31 55 2b 92 31 ee 7a f3 30 18 c7 e6 30
       4.1526156e-09 4.2540855e-09 1.7715516e-09 1.6791288e-09
000030 97 0a f4 2e b3 a4 f4 2e 56 30 1b 2d 54 f3 9f 31
       1.10977165e-10 1.1125092e-10 8.821463e-12 4.6551722e-09
000040 41 04 45 2c d8 43 f6 2e d2 76 eb 30 02 6c cd 31
       2.7997745e-12 1.1198836e-10 1.7132271e-09 5.9785643e-09
000050 37 da 98 2f 52 fa 6a 30 c8 d8 96 2f 8d 06 04 2f
       2.780369e-10 8.548443e-10 2.7438873e-10 1.2007657e-10
000060 e8 49 42 32 ca 4d b8 31 bf c4 2c 2d 9a ba fe 2c
       1.13090906e-08 5.3639484e-09 9.8207545e-12 7.239831e-12
000070 b8 1a f4 31 30 50 a1 30 24 2b 1e 31 bd d4 88 2e
       7.104372e-09 1.1737082e-09 2.3016549e-09 6.222354e-11
000080 a3 93 87 30 0c 0f 08 2f 74 45 87 31 0c e5 b9 31
       9.864504e-10 1.2374474e-10 3.936913e-09 5.4102482e-09
000090 98 f6 97 2d e9 f7 76 27 45 0d de 30 4c 51 98 30
       1.7276222e-11 3.427375e-15 1.6156397e-09 1.1082562e-09
0000a0 e0 90 c5 2e 35 e3 9f 31 66 4a a8 30 d2 09 28 31
       8.984258e-11 4.6533395e-09 1.2244754e-09 2.44528e-09
0000b0 71 6e e9 2f 1b c3 48 30 4f e8 80 2d b5 be 84 2e
       4.2460926e-10 7.303684e-10 1.4655081e-11 6.0365414e-11
0000c0 ae 0e cd 2e b3 0d 94 2e cd 94 e2 2f 14 22 99 2e
       9.324928e-11 6.732694e-11 4.121489e-10 6.963688e-11
0000d0 3c b2 83 30 d6 48 af 30 3f 83 19 2e 96 cf 68 2d
       9.582162e-10 1.2753627e-09 3.4904742e-11 1.32337665e-11
0000e0 42 7f 8e 31 41 85 e6 2e 3a c2 3e 30 53 06 2e 2f
       4.1472115e-09 1.048286e-10 6.939761e-10 1.5827455e-10
0000f0 c8 04 86 2d 6d 47 0e 2f 3d 59 dc 30 31 9d 21 31
       1.523616e-11 1.29402e-10 1.603247e-09 2.3517936e-09
000100 6f 27 63 31 87 4d 96 30 89 90 b2 30 0e ca 17 30
       3.3055263e-09 1.0935971e-09 1.2992284e-09 5.5220617e-10
000110 97 80 69 2f 3c 46 4e 30 b4 eb 92 2f 4f ef 80 30
       2.1236911e-10 7.504217e-10 2.6724722e-10 9.381241e-10
000120 b9 7e d3 31 09 fe 5d 2f 77 c6 30 30 4c ba 0d 31
       6.155315e-09 2.0190084e-10 6.431046e-10 2.0624098e-09
000130 ce ef 70 2f e2 8a 54 2f 47 69 3b 2e 05 47 ed 30
       2.1913069e-10 1.9330629e-10 4.2612382e-11 1.7264205e-09
000140 fb cf d3 2e 33 d0 21 30 8b 11 e7 31 7a 31 5e 31
       9.632114e-11 5.886733e-10 6.7249792e-09 3.2333376e-09
000150 ad 0a 69 2e 0d b0 ef 31 78 01 86 30 e4 7f 63 2e
       5.298755e-11 6.97583e-09 9.750201e-10 5.1727414e-11
000160 20 80 88 2f c6 22 46 30 2f 84 3c 31 4a 91 bf 30
       2.4829294e-10 7.2081396e-10 2.7432738e-09 1.3938373e-09
000170 d4 32 9b 30 fe 5b ee 30 71 55 c6 2e de 10 5b 2e
       1.129218e-09 1.7342925e-09 9.019175e-11 4.9809816e-11
000180 83 98 bd 31 b1 53 76 30 5b 33 ea 31 ba 2f 01 32
       5.5179625e-09 8.961321e-10 6.8161348e-09 7.51964e-09
000190 2f b2 5a 30 eb 8f 47 31 6a 11 9f 30 fd f7 43 31
       7.956115e-10 2.904012e-09 1.1573722e-09 2.85172e-09
0001a0 52 27 2a 31 73 c3 ea 32 cf 11 7e 32 5e d0 7b 31
       2.4760607e-09 2.7330065e-08 1.4788795e-08 3.664375e-09
0001b0 fd 55 af 2f 78 89 2e 30 15 55 ca 32 99 70 81 32
       3.1893413e-10 6.3496186e-10 2.3554586e-08 1.506878e-08
0001c0 5b dc 27 32 78 58 78 31 18 63 4a 31 93 5f 8f 30
       9.770782e-09 3.6139038e-09 2.9451197e-09 1.0431783e-09
0001d0 b3 8f bd 32 25 87 35 31 07 21 ca 2f 3f c3 39 31
       2.2067843e-08 2.6415787e-09 3.6767053e-10 2.7032028e-09
0001e0 35 fa 5d 32 15 87 95 32 a4 b7 44 31 b1 73 6d 31
       1.29207836e-08 1.7407311e-08 2.8626141e-09 3.4553802e-09
0001f0 b6 35 90 30 8d d4 88 31 c8 df fd 31 32 72 81 32
       1.0492645e-09 3.982285e-09 7.38871e-09 1.5069507e-08
000200 23 1b 3b 31 fc 29 94 30 40 17 27 30 02 b7 20 31
       2.7227507e-09 1.078035e-09 6.0787286e-10 2.3387092e-09
000210 35 56 fd 31 f1 03 1e 32 6c 72 91 30 ae d4 f9 30
       7.3730697e-09 9.197707e-09 1.0582659e-09 1.8177582e-09
000220 08 b3 83 32 9b 32 61 32 e1 1a 4b 32 fb c1 27 31
       1.5331821e-08 1.310823e-08 1.1822267e-08 2.4411964e-09
000230 a5 b0 90 30 ad 79 78 30 b9 bf 88 32 4c 8e 8e 32
       1.0527584e-09 9.0394786e-10 1.591967e-08 1.6595685e-08
000240 e5 f2 26 30 84 b7 2f 30 9c 5c 3b 31 c2 c1 63 2f
       6.073562e-10 6.392542e-10 2.7264724e-09 2.0714366e-10
000250 0a d9 76 30 fd a1 2a 32 56 5d 15 2e 20 a3 c1 31
       8.980271e-10 9.932134e-09 3.3961577e-11 5.6355844e-09
000260 05 db be 2e 93 0b ac 31 87 f8 40 2f a7 99 f0 30
       8.6791054e-11 5.0071747e-09 1.7550593e-10 1.7505969e-09
000270 98 42 e0 31 49 92 2d 32 1d 7b 8a 31 5f 63 ad 31
       6.526829e-09 1.0103187e-08 4.030325e-09 5.04626e-09
000280 c4 65 07 32 d7 be 11 31 48 fb 26 30 cc e1 2f 31
       7.881173e-09 2.1208757e-09 6.074754e-10 2.5594202e-09
000290 0b c5 5c 32 2e 04 2b 32 41 06 40 31 d3 3b e1 31
       1.2850488e-08 9.95446e-09 2.7943232e-09 6.555163e-09
0002a0 9c 3f e0 31 c2 84 39 31 71 e3 13 31 dd 20 f1 2f
       6.5264896e-09 2.6996507e-09 2.15206e-09 4.3860995e-10
0002b0 57 e1 74 31 3c ab 02 31 3e f3 5c 32 c2 2a ac 31
       3.5634764e-09 1.9014825e-09 1.2860992e-08 5.01072e-09
0002c0 93 d0 8c 2f a4 1b dd 2f 17 01 1f 30 ba b3 7a 31
       2.5614053e-10 4.0219306e-10 5.784541e-10 3.648195e-09
0002d0 67 bc 29 30 24 82 db 30 cb 5e e0 31 e3 75 d1 31
       6.174958e-10 1.5971335e-09 6.5300347e-09 6.0961027e-09
0002e0 9f a7 72 2d 5e 69 0a 30 22 69 11 30 c7 07 fd 30
       1.3793327e-11 5.0353843e-10 5.2900095e-10 1.8410383e-09
0002f0 d7 5b 98 30 e0 93 40 2f 56 af 57 32 d3 80 cf 30
       1.1085558e-09 1.7514834e-10 1.2554514e-08 1.5097846e-09
000300 cf 0a 12 32 db 5e 13 31 e3 1f 31 30 ee e9 fc 30
       8.500776e-09 2.1445234e-09 6.443754e-10 1.84019e-09
000310 a5 aa ae 31 2f 2f 7f 31 9e 6c 8a 31 3e ab ea 31
       5.0834665e-09 3.7134205e-09 4.028677e-09 6.8297643e-09
000320 14 3e 34 2f 78 43 f4 31 bf d8 3f 31 b5 90 e6 31
       1.6392959e-10 7.109005e-09 2.7917364e-09 6.7103323e-09
000330 04 c6 8d 2f 90 a8 68 30 5f af 05 30 6e 9d 5e 31
       2.578845e-10 8.464065e-10 4.8634335e-10 3.239474e-09
000340 60 eb 81 2f 75 ae 1a 31 ef a9 8b 30 1c 0c 7f 2f
       2.3632207e-10 2.2509117e-09 1.0161879e-09 2.3196417e-10
000350 8d e4 9e 2f 80 82 4e 2f 96 dc d6 31 65 86 16 31
       2.8902428e-10 1.8781954e-10 6.2532974e-09 2.1904267e-09
000360 19 05 0d 31 33 5c 1b 31 7f b3 86 31 d6 24 c4 2f
       2.0521098e-09 2.2607878e-09 3.9203196e-09 3.5678366e-10
000370 bb 23 6c 31 87 61 fd 30 58 1b 9b 30 e7 37 5e 30
       3.436283e-09 1.8435892e-09 1.1285506e-09 8.084257e-10
000380 59 aa 02 32 cc 1b 1d 31 d7 e9 de 2f 1c dd 0c 30
       7.6057285e-09 2.2862308e-09 4.0547718e-10 5.124592e-10
000390 44 84 03 30 ff ed ba 30 22 88 58 31 f4 6b 00 31
       4.7845483e-10 1.3600924e-09 3.150952e-09 1.8687816e-09
0003a0 5b 1d d9 2e 10 08 41 30 40 b6 8b 2f 55 49 15 2f
       9.873232e-11 7.022445e-10 2.541345e-10 1.3577524e-10
0003b0 86 ec d3 2f 14 2b 5f 2f 35 40 e3 2d 7e f8 9f 2d
       3.8548736e-10 2.0297036e-10 2.5835426e-11 1.818656e-11
0003c0 01 55 97 2e cf ed df 2e ea 88 99 30 c0 ae 4b 2f
       6.881785e-11 1.0183109e-10 1.1171128e-09 1.8524826e-10
0003d0 ed 3c b3 30 f2 b9 2a 30 dc 5a bc 30 71 35 ea 2f
       1.304128e-09 6.2109884e-10 1.3704624e-09 4.2602324e-10
0003e0 e5 22 25 30 70 59 06 31 d8 85 66 2e 8f 92 8a 2f
       6.007624e-10 1.9550406e-09 5.2414822e-11 2.520619e-10
0003f0 83 e2 8e 30 af ae 3f 30 3b 4f 9c 30 96 d8 2b 30
       1.0396238e-09 6.9733636e-10 1.1373013e-09 6.2517225e-10

exp_avg f4 [128]
000000 81 01 d9 38 ca 48 d4 b5 cd 6a e9 39 b3 d2 b7 39
       0.000103476465 -1.5816415e-06 0.00044520796 0.00035061463
000010 66 ae 93 39 93 d3 74 b9 f6 1b e0 39 04 a7 08 39
       0.00028167962 -0.00023348471 0.00042745442 0.00013032189
000020 fe 07 29 b8 e0 b0 13 b8 f1 6a 9d b9 68 6c 7f b9
       -4.0300183e-05 -3.521226e-05 -0.0003002505 -0.0002435908
000030 b5 84 27 b9 e3 ac c7 b9 18 92 90 b9 54 88 bc 39
       -0.00015975798 -0.00038085048 -0.0002757467 0.00035959727
000040 94 cc 10 39 04 8a 00 ba 5b 34 19 3a 99 40 af 39
       0.00013809121 -0.00049033784 0.00058442884 0.0003342673
000050 a2 39 29 39 d4 d7 52 38 08 52 40 3a cf 84 0b 39
       0.00016138566 5.0268907e-05 0.00073364424 0.00013305548
000060 31 17 f2 b7 6a c0 0e 3a 10 e8 dd 38 74 9a f5 b9
       -2.8859447e-05 0.0005445542 0.00010581326 -0.00046845118
000070 20 87 06 ba cb c0 03 39 7f 5e 8c 39 67 01 6f b8
       -0.00051318295 0.00012564955 0.00026773286 -5.6983346e-05
000080 84 c8 cd 39 53 2d 0e ba fc 03 8b b8 49 48 b6 38
       0.00039250043 -0.0005423624 -6.628779e-05 8.6919004e-05
000090 56 53 d6 39 fe 0f fc b9 ef 8d 75 b9 22 f4 f2 b9
       0.0004087935 -0.000480771 -0.00023417895 -0.0004633973
0000a0 1d 97 44 b9 ae 45 bb b9 d1 e2 7e 38 14 08 8f 39
       -0.0001874831 -0.00035719335 6.076956e-05 0.00027281104
0000b0 b9 34 18 3a f1 28 17 b8 42 43 ec b8 88 64 0d 39
       0.0005806196 -3.6039335e-05 -0.00011265885 0.00013484259
0000c0 4f 0c 1c 3a c5 bf 04 ba 51 6b 26 ba c5 79 81 b8
       0.0005952762 -0.0005063976 -0.0006348389 -6.173881e-05
0000d0 f1 1a e3 38 13 d5 04 3a 32 b2 cd b9 e7 d1 06 37
       0.00010829222 0.0005067151 -0.00039233413 8.035894e-06
0000e0 e2 23 fc 39 4b b3 9c b9 ae a4 56 36 b4 9e 29 b8
       0.0004809192 -0.00029888222 3.1984341e-06 -4.0440544e-05
0000f0 a5 90 e8 b9 22 12 29 b8 2f 6c 12 3a 14 6c 89 38
       -0.00044358257 -4.0309627e-05 0.00055855786 6.5528e-05
000100 47 65 22 b9 55 00 0a 3a 1a 2f bb 37 b0 fb 79 b7
       -0.00015487253 0.00052643317 2.231407e-05 -1.4900157e-05
000110 ec 21 13 39 31 cd 63 39 03 56 de 39 14 e4 d7 38
       0.0001403165 0.00021724847 0.00042407223 0.00010294482
000120 d7 d1 99 38 3b e9 ab 38 30 5a 7c 39 d1 b0 76 39
       7.334694e-05 8.197358e-05 0.0002406619 0.00023526257
000130 a1 b8 a1 39 1c b5 02 ba 53 49 a4 b8 2d 55 64 b8
       0.00030845872 -0.0004986094 -7.833787e-05 -5.4438762e-05
000140 39 50 2e 38 e1 7a 85 b9 7a 6e f0 b9 cc 1e f4 38
       4.1559546e-05 -0.0002545929 -0.0004585868 0.00011640563
000150 31 14 d3 b9 67 f9 ff 38 22 a7 d3 b8 30 78 ff b9
       -0.000402601 0.00012205802 -0.00010092395 -0.00048726937
000160 95 63 9c b8 a2 90 e4 38 3f b9 74 b9 59 f7 39 3a
       -7.457208e-05 0.00010898827 -0.00023338663 0.00070940476
000170 dd 67 0b b9 93 d0 55 37 e4 4e ea 39 97 76 63 39
       -0.00013294765 1.2744352e-05 0.00044690736 0.00021692585
000180 bb f3 01 ba 64 1b 9d 38 0f f1 1c 3a 38 64 ce 39
       -0.0004957278 7.491445e-05 0.0005986848 0.0003936605
000190 05 e1 88 b9 67 01 ba 38 b7 46 89 b9 33 dc 51 3a
       -0.00026107594 8.869432e-05 -0.00026183363 0.00080055295
0001a0 fa 37 b1 39 4b 84 52 39 72 fe 90 ba 2d bf a1 39
       0.00033801777 0.00020076444 -0.0011062159 0.0003085075
0001b0 30 27 aa b9 f0 80 30 3a eb bc dd 39 81 67 98 38
       -0.00032454124 0.00067330804 0.0004229316 7.267204e-05
0001c0 83 c5 0c b7 ca e6 94 38 0b cf 5c 38 9e 3a 83 38
       -8.390637e-06 7.100178e-05 5.264491e-05 6.257485e-05
0001d0 94 8d fe 39 c6 58 61 3a 5e d5 aa 39 a2 12 a8 39
       0.0004855214 0.0008596297 0.00032583898 0.0003205734
0001e0 f3 76 13 3a 7a 17 6f b9 58 f9 8c 39 ce 30 89 39
       0.000562533 -0.00022801562 0.00026888656 0.0002616704
0001f0 9f 2a 50 39 00 04 4a 39 65 85 f5 b8 d9 87 88 38
       0.00019852303 0.00019265711 -0.00011707357 6.510289e-05

exp_avg_sq f4 [128]
000000 1a d6 5d 32 d4 61 00 32 8a d1 19 33 d5 f4 82 32
       1.2912574e-08 7.472824e-09 3.5813663e-08 1.5245329e-08
000010 0a 51 32 32 76 cf 56 32 a3 ad 44 33 41 0c 25 31
       1.037939e-08 1.2503611e-08 4.5792728e-08 2.4017626e-09
000020 66 00 6d 30 0b 8e 88 32 f3 ad df 32 8f fa 19 33
       8.6220664e-10 1.5897077e-08 2.603972e-08 3.585097e-08
000030 0b 97 99 31 a5 23 12 33 33 28 09 32 e6 0a 16 33
       4.4700577e-09 3.4025692e-08 7.98359e-09 3.493451e-08
000040 2b 12 be 32 19 87 1a 33 db 53 26 33 4d c8 7b 32
       2.2127173e-08 3.597879e-08 3.8726153e-08 1.4655666e-08
000050 81 a9 2f 32 31 98 f8 31 34 47 79 33 c2 6c f3 31
       1.0224881e-08 7.235052e-09 5.803959e-08 7.084595e-09
000060 9f 86 b7 30 f8 32 e0 32 c7 83 c3 31 4a 47 9b 32
       1.3353264e-09 2.610021e-08 5.6902283e-09 1.8076793e-08
000070 1f 53 b7 32 31 55 f0 30 e5 fa 6d 32 38 aa 06 32
       2.1341803e-08 1.7486511e-09 1.38522624e-08 7.83853e-09
000080 8e 85 77 33 3a 6b 6e 33 15 3a 80 32 46 c3 06 33
       5.7630636e-08 5.5511215e-08 1.4927574e-08 3.1376906e-08
000090 0b bd cc 32 f7 49 cc 32 c7 ae 96 32 4f f0 22 33
       2.3834692e-08 2.3782361e-08 1.7541778e-08 3.7937124e-08
0000a0 47 a7 4c 31 ec dc 06 33 1a ab 14 31 aa 3a 79 32
       2.9780993e-09 3.1400234e-08 2.1634095e-09 1.4507046e-08
0000b0 21 9e 51 33 2b 68 d0 30 65 81 78 32 19 2d 80 32
       4.8805422e-08 1.5163598e-09 1.4464921e-08 1.492167e-08
0000c0 93 02 3d 33 30 46 b3 32 26 dd 15 33 2c a9 fc 32
       4.4007333e-08 2.087026e-08 3.48929e-08 2.9413592e-08
0000d0 15 e1 5a 32 d5 ee 2b 33 2a e4 9f 32 90 47 4b 31
       1.2740448e-08 4.0031257e-08 1.8613793e-08 2.9581066e-09
0000e0 b7 c1 c1 33 ec ea f2 31 d2 f3 8c 31 9a 72 7a 32
       9.0224994e-08 7.0698345e-09 4.1022554e-09 1.4577973e-08
0000f0 61 ad 89 33 bb 20 62 30 f4 12 92 33 8a 7c 9b 32
       6.411097e-08 8.2264834e-10 6.802102e-08 1.8101009e-08
000100 03 83 e2 31 93 dc 06 33 39 b2 c5 2f 9b 8c 6d 31
       6.59236e-09 3.1399917e-08 3.5960726e-10 3.4567964e-09
000110 19 02 e2 31 53 96 79 32 6e 95 4b 33 b4 65 ff 32
       6.577704e-09 1.4527887e-08 4.7400526e-08 2.9732156e-08
000120 36 5c 18 31 77 b6 5a 31 4d 32 e0 32 85 e3 98 32
       2.2171327e-09 3.1826894e-09 2.6099906e-08 1.7798593e-08
000130 4d 79 28 32 a7 38 0d 33 93 20 ab 31 99 fc df 32
       9.806468e-09 3.2880646e-08 4.9804583e-09 2.6075485e-08
000140 25 1f 16 31 1c 4d e0 32 42 3c 9c 32 32 80 6f 32
       2.1845576e-09 2.6112097e-08 1.8188192e-08 1.3940779e-08
000150 e8 66 02 33 f0 22 a1 31 79 7a e7 31 ba 2f c3 33
       3.0361576e-08 4.6896886e-09 6.7369084e-09 9.0890765e-08
000160 75 81 11 31 9e 7a 24 31 84 f5 f8 31 a9 13 43 33
       2.1173865e-09 2.393484e-09 7.245662e-09 4.5419856e-08
000170 f9 84 09 32 4c 88 ce 31 19 b1 02 33 86 27 05 32
       8.004684e-09 6.0108842e-09 3.0429053e-08 7.7506055e-09
000180 3a 3b 36 33 fd fb 41 31 b2 8f 91 33 f1 22 82 33
       4.2429043e-08 2.8228435e-09 6.778227e-08 6.0599525e-08
000190 89 f3 de 31 b5 d2 79 31 fa dd 83 32 bd 58 d2 33
       6.488737e-09 3.6354042e-09 1.535135e-08 9.7950284e-08
0001a0 d4 26 9b 32 e2 26 92 31 35 81 26 34 f7 3c 26 32
       1.8062032e-08 4.2535797e-09 1.550696e-07 9.6763335e-09
0001b0 59 50 3a 32 4b af 73 33 6c 5d b6 32 c0 09 8e 31
       1.0844894e-08 5.6737274e-08 2.1230072e-08 4.1338524e-09
0001c0 dc 56 37 32 62 88 b7 31 ba 4f 2d 30 a0 dc 34 32
       1.06717515e-08 5.341506e-09 6.305033e-10 1.0527543e-08
0001d0 b8 d4 c3 32 31 b1 05 34 71 b5 12 32 4a eb 85 32
       2.2797721e-08 1.2451052e-07 8.5395735e-09 1.5590235e-08
0001e0 e8 bd 20 33 57 0c cd 31 77 d9 7f 32 64 42 93 32
       3.742562e-08 5.967688e-09 1.4892399e-08 1.7143243e-08
0001f0 af d0 81 32 4c 3d a0 31 2e 9a 2b 31 61 3f 0e 32
       1.5112475e-08 4.6635815e-09 2.4971416e-09 8.2798985e-09
