our-vTR/2_fold_lightning_logs/dataset1/fold_1/version_0/checkpoints/epoch=0-step=20_fold1.ckpt (torch, 132113 bytes, 18 tensors)

conv1d.weight f4 [128, 4, 12]
0	0x3d582561	0.052770022
1	0xbda21b5e	-0.07915376
2	0x3daf2860	0.08552623
3	0xbdae11a9	-0.08499462
4	0x3de17818	0.11009234
5	0x3c2fa3d3	0.010720211
6	0x3e19ecea	0.15031782
7	0xbdcbdc91	-0.09954179
8	0x3da97cde	0.0827577
9	0xbdd0fea9	-0.102048226
10	0x3bc1896e	0.0059062755
11	0x3e00e870	0.12588668
12	0x3e106303	0.1410027
13	0xbc90186f	-0.017589776
14	0xbdedb50f	-0.116068
15	0xbd81b788	-0.06333834
16	0x3d5a2966	0.053262137
17	0xbc923c2e	-0.017850962
18	0xbd8dce25	-0.069240846
19	0x3d0f2bab	0.034953754
20	0x3d59ed10	0.053204596
21	0x3dca422e	0.09875904
22	0xbd5c0266	-0.053713225
23	0x3dda8f63	0.1067188
24	0x3de2c4f2	0.110727206
25	0x3d7e75bc	0.062124
26	0x3d8551aa	0.06509717
27	0x3d17e933	0.03708763
28	0x3cd67b49	0.026181834
29	0xbda51ae8	-0.080617726
30	0x3d0d0eda	0.03443799
31	0xbc0e6670	-0.008691415
32	0x3d0fe135	0.035126884
33	0xbde32908	-0.110918105
34	0x3d2fe7a8	0.042945534
35	0xbb592b25	-0.0033137288
36	0x3d2ca5d7	0.042150345
37	0x3b50c859	0.0031857698
38	0xbde6e580	-0.112742424
39	0xbd947ba0	-0.07250142
40	0x3dc8e46f	0.09809195
41	0x3a254012	0.00063037977
42	0xbdfedd1f	-0.12444519
43	0xbe066c33	-0.13127212
44	0xbe008973	-0.12552433
45	0xbdae92eb	-0.08524116
46	0xbdacc0af	-0.08435189
47	0x3c5ea726	0.013589656
48	0xbc13d164	-0.009022091
49	0x3e0e6d46	0.13908872
50	0xbdc172d6	-0.09445731
51	0x3c16feb2	0.0092159975
52	0x3e03d27d	0.12873264
53	0xbd599e07	-0.053129222
54	0xbdceb39c	-0.100928515
55	0xbe0c9343	-0.13728051
56	0x3d871cc1	0.06597281
57	0xbda2bdcd	-0.07946358
58	0x3e08f5bf	0.13374995
59	0x3995a4fe	0.00028542423
60	0xbcf4ff0c	-0.029906772
61	0x3d89b858	0.06724614
62	0xbd8a7d28	-0.06762153
63	0x3dd78052	0.10522522
64	0xbe0c81bc	-0.13721365
65	0xbdcc5a9d	-0.099782206
66	0xbe1867ea	-0.1488339
67	0x3c449e09	0.012000569
68	0x3db3b6a5	0.08775071
69	0x3e00d76b	0.12582175
70	0x3e05cece	0.13067171
71	0x3adff171	0.0017085505
72	0xbc2c204e	-0.010505749
73	0xbd948eb1	-0.07253779
74	0x3de19acc	0.11015853
75	0x3dbca115	0.092104115
76	0xbdf4654d	-0.11933384
77	0xbbb18a6b	-0.005418112
78	0x3dec26d9	0.11530847
79	0xbd664252	-0.05621559
80	0xbd35d3e3	-0.044391524
81	0x3df8b232	0.12143363
82	0xbe0f57cf	-0.1399834
83	0x3d3b514c	0.045731828
84	0xbdea51c6	-0.11441378
85	0xbd03759a	-0.032094575
86	0x3df97c14	0.12181869
87	0x3d86e640	0.065868855
88	0x3dd66d76	0.10470097
89	0x3d0cd4c5	0.0343826
90	0x3d566dcd	0.052350808
91	0x3d0dfa8a	0.03466276
92	0x3db7d81b	0.08976766
93	0xbd5d650f	-0.054051455
94	0x3de31c7c	0.11089417
95	0xbe066253	-0.13123445
96	0x3d36da75	0.04464193
97	0xbda4287d	-0.08015535
98	0xbdbe6afd	-0.0929775
99	0x3e05f725	0.1308256
100	0xbd2a7c6e	-0.04162257
101	0xbdedeb1e	-0.11617111
102	0x3d8ecf80	0.06973171
103	0xbda997f2	-0.082809344
104	0x3d8ea433	0.06964912
105	0x3c375550	0.011189774
106	0xbdd0fc9a	-0.1020443
107	0xbca58ac9	-0.02020778
108	0xbdbeea85	-0.09322075
109	0x3df926a1	0.12165571
110	0xbd98ff5f	-0.07470583
111	0x3ddf8d60	0.10915637
112	0xbd30c7f4	-0.04315944
113	0xbc5f0f78	-0.013614528
114	0xbe0035b0	-0.1252048
115	0xbe0700d8	-0.13183916
116	0x3d7000e2	0.058594592
117	0xbdfa1a7d	-0.122120835
118	0x3cdd8378	0.027040228
119	0xbd2e4de8	-0.042554766
120	0xbba7c87f	-0.0051203365
121	0xbdbb4b46	-0.09145217
122	0x3d570943	0.052499067
123	0x3d8433ca	0.064551905
124	0xbc420927	-0.011843002
125	0xbded38e0	-0.11583114
126	0x3dfd3185	0.12362961
127	0xbdd67798	-0.104720294
128	0xbe0e21db	-0.13880102
129	0xbbf9d204	-0.0076239128
130	0x3cd6477a	0.02615713
131	0x3ded995a	0.11601515
132	0xbd8ccc9d	-0.068749644
133	0x3d966a1a	0.07344456
134	0xbd887962	-0.06663777
135	0xbda8e35b	-0.082464896
136	0x3c727b64	0.014799926
137	0xbdc08653	-0.0940062
138	0x3d2d768a	0.042349376
139	0x3d0f1e1a	0.034940816
140	0x3d44ddfd	0.048063267
141	0xbd32c197	-0.043641653
142	0x3ded9b4c	0.11601886
143	0xbd9721f6	-0.073795244
144	0xbcf7711a	-0.030205298
145	0x3e067667	0.13131104
146	0x3db22cd8	0.086999595
147	0xbdb53804	-0.08848575
148	0x3dd9b347	0.106298976
149	0x3cf99fe0	0.030471742
150	0x3def5ee6	0.11688022
151	0x3cc40b42	0.02393115
152	0x3e127093	0.14300756
153	0xbdcc986d	-0.099900104
154	0x3d33893d	0.043832052
155	0xbcb622e0	-0.022233427
156	0x3d57eb82	0.052714832
157	0xbdf9fdc3	-0.12206604
158	0xbd819ce3	-0.06328752
159	0x3c9fe87b	0.019520035
160	0x3d104866	0.035225295
161	0xbd82dc4b	-0.06389674
162	0x3ccc3e2b	0.024931988
163	0x3df9fec0	0.12206793
164	0xbdee3ec7	-0.116330676
165	0xbe015acc	-0.12632293
166	0xbdf1dca1	-0.1180966
167	0xbd91c1ce	-0.071170434
168	0x3dd1be03	0.1024132
169	0xbe09e6e2	-0.13466981
170	0xbd28617d	-0.041108597
171	0xbde83ff0	-0.1134032
172	0x3bb576b8	0.005537834
173	0xbd10e4c1	-0.035374407
174	0x3cdc4f5f	0.026893316
175	0x3d160c2a	0.036632694
176	0x3db4d54a	0.08829744
177	0x3d33e93b	0.043923598
178	0xbe0c9e57	-0.13732277
179	0x3da88f0a	0.082304075
180	0x3d4c70cd	0.049912263
181	0xbd13e46b	-0.03610651
182	0x3db5e6df	0.08881926
183	0x3d6aa473	0.057285737
184	0xbdaf323c	-0.08554503
185	0xbd48b29f	-0.04899847
186	0x3de42720	0.11140275
187	0x3bf28b4c	0.0074018594
188	0xbc970827	-0.018436505
189	0xbdee2a3b	-0.116291486
190	0xbdb9b437	-0.090675764
191	0x3df0cee4	0.11758211
192	0xbb30e384	-0.0026991079
193	0x3dadb78a	0.08482273
194	0xbc05108a	-0.008121619
195	0x3ba2c646	0.0049674837
196	0xbdff88d8	-0.12477273
197	0x3c978c23	0.01849944
198	0xbdd6a999	-0.10481567
199	0x3d9b3124	0.07577732
200	0xbe14e221	-0.14539386
201	0xbd3ed255	-0.046587307
202	0x3d96bea2	0.07360579
203	0x3e0c6721	0.13711216
204	0x3def1a56	0.11674945
205	0xbd3f0a7f	-0.04664087
206	0xbd1c61de	-0.03817927
207	0x3ccf869e	0.025332745
208	0x3df77ddf	0.12084555
209	0x3e13c104	0.14429098
210	0xbdc36c47	-0.09542137
211	0x3e10b5e0	0.1413188
212	0xbcbfed9a	-0.023428727
213	0xbe06d665	-0.13167723
214	0xbe0d3471	-0.13789536
215	0xbcbeec4d	-0.023306036
216	0xbda1326b	-0.078709446
217	0xbd94d5b2	-0.07267322
218	0xbdac38de	-0.08409284
219	0xbe120c0e	-0.14262411
220	0xbc2d950e	-0.010594619
221	0xbca43edd	-0.020049507
222	0xbd92e486	-0.07172494
223	0xbcbb119f	-0.02283555
224	0x3a252dad	0.0006301057
225	0x3dedcf41	0.11611796
226	0xbe0634c4	-0.13106066
227	0x3c39dc04	0.01134396
228	0x3e12d921	0.1434064
229	0xbdfa2640	-0.12214327
230	0x3c8405b5	0.016116003
231	0xbc633e36	-0.013869813
232	0xbc623793	-0.013807195
233	0xbdaff692	-0.085919514
234	0xbe04837c	-0.12940782
235	0xbdca0a9b	-0.09865304
236	0x39a9bb3c	0.00032373692
237	0xbdcb60a9	-0.09930546
238	0xbc3ebeb1	-0.011642144
239	0xbd6972ef	-0.056994375
240	0xbdc9df58	-0.098570526
241	0x3e068a6a	0.13138738
242	0x3d87ce2f	0.06631123
243	0xbd103a41	-0.035211805
244	0xbe06f6e3	-0.13180117
245	0x3be359b0	0.006938182
246	0x3d8eb96b	0.069689594
247	0xbc556635	-0.013024856
248	0x3cdf779f	0.02727872
249	0xbcf385a8	-0.029726818
250	0x3d133184	0.035935894
251	0xbda95cd6	-0.0826966
252	0xbcdbd1ad	-0.02683338
253	0x3da74149	0.08166749
254	0xbdfd79cc	-0.123767465
255	0x3d9d659b	0.07685395

conv1d.bias f4 [128]
0	0xbde1e8c1	-0.110307224
1	0x3dffe050	0.12493956
2	0x3bb38c42	0.0054793665
3	0xbdb8e78b	-0.09028538
4	0x3df46e91	0.11935151
5	0x3d26a66c	0.040686056
6	0x3d91d008	0.07119757
7	0x3d500895	0.050789434
8	0xbe0550e8	-0.13019145
9	0xbe0c5417	-0.13703953
10	0xbdf572a4	-0.119847566
11	0x3d3af5ac	0.045644447
12	0x3db67eae	0.08910881
13	0x3d7ee12f	0.06222647
14	0xbd621c46	-0.055202745
15	0xbcf8bcc0	-0.03036344
16	0x3d8b6af3	0.06807508
17	0x3e045ccd	0.12926026
18	0x3e057c62	0.1303573
19	0x3d94cf47	0.072660975
20	0x3e06e72d	0.13174124
21	0x3dcbe40f	0.09955608
22	0x3d6e2814	0.05814369
23	0x3d1db2af	0.038500484
24	0xbd3f8411	-0.046756808
25	0xbdd6b031	-0.104828246
26	0xbd22d898	-0.03975734
27	0x3d7ca2f0	0.061678827
28	0x3d0e5cfd	0.03475665
29	0xbd564a4d	-0.052316952
30	0xbdf17758	-0.11790341
31	0x3c87c592	0.016573701
32	0x3c979a3d	0.018506164
33	0xbd9e66e3	-0.07734468
34	0x3db0601a	0.0861208
35	0xbe034b06	-0.12821588
36	0xbcefd42e	-0.02927598
37	0x3c633cfc	0.01386952
38	0xbd35ff71	-0.04443306
39	0xbde5e252	-0.11224808
40	0xbde6274b	-0.11237963
41	0x3d77dc19	0.060512636
42	0xbd2810c1	-0.041031603
43	0x3d4b6614	0.049657896
44	0xbb54b62a	-0.003245721
45	0x3db36730	0.08759916
46	0xbbb9a3e3	-0.005665289
47	0x3d0e51c5	0.03474595
48	0xbcd27275	-0.025689343
49	0x3daf7285	0.08566765
50	0x3d309a36	0.043115817
51	0xbcef91ef	-0.029244391
52	0x3def97d8	0.11698884
53	0xbdbc94f3	-0.09208097
54	0x3e0a3a66	0.1349884
55	0x3df03e2d	0.11730609
56	0xbe0cefb4	-0.13763314
57	0x3acd0574	0.0015641884
58	0x3e0c2891	0.1368735
59	0x3daefd59	0.08544416
60	0xbc5b9768	-0.013402797
61	0xbd45ecac	-0.04832141
62	0x3dee313f	0.11630487
63	0x3e015f38	0.1263398
64	0x3d8f3e25	0.06994275
65	0x3e092f9b	0.13397066
66	0x3d8cb9cb	0.06871375
67	0x3d9e85a1	0.077403314
68	0xbc89bd55	-0.016813913
69	0x3ddffb4a	0.109366015
70	0x3d72ce42	0.059278734
71	0x3e07b05f	0.13250874
72	0xbd8c4682	-0.06849386
73	0x3c8b435a	0.01699989
74	0x3c91a18a	0.017777223
75	0xbdd8a9aa	-0.10579236
76	0xbdcf75d7	-0.10129898
77	0x3d19e2bc	0.037569746
78	0x3d4a2aa7	0.049357083
79	0xbc5e47d8	-0.013566934
80	0x3df891de	0.12137197
81	0x3dfaa3c4	0.12238267
82	0xbdc320fc	-0.09527776
83	0x3de81fb2	0.113341704
84	0x3d849e5c	0.06475517
85	0xbcff8be1	-0.03119463
86	0x3d9410b3	0.072297476
87	0x3bcbe8af	0.0062228064
88	0x3da88267	0.08227997
89	0xbdda23d7	-0.10651367
90	0x3de9d28a	0.1141711
91	0x3d2e017a	0.042481877
92	0xbda02e09	-0.078212805
93	0xbdab92c2	-0.08377601
94	0xbd3749d2	-0.044748135
95	0xbd884601	-0.06653977
96	0x3e03c9c9	0.12869944
97	0xbd23b47d	-0.03996705
98	0xbab59a2c	-0.0013855151
99	0xbc954a19	-0.01822381
100	0xbdf843f9	-0.1212234
101	0xbd5ec2d4	-0.05438502
102	0x3db341e1	0.087528
103	0xbdab6eb5	-0.08370725
104	0xbdb44e32	-0.08803977
105	0xbe0a1396	-0.13484034
106	0x3d99684a	0.07490595
107	0x3d2b21cf	0.04178029
108	0xbd6929d5	-0.05692466
109	0xbd372e76	-0.044722043
110	0xbd28ab26	-0.041178845
111	0x3cfb5a0e	0.03068259
112	0x3decdf39	0.11566014
113	0x3e06268a	0.13100639
114	0x3e0be5d8	0.13661897
115	0x3d810e2a	0.0630153
116	0xbdc14361	-0.0943668
117	0x3be4e4c4	0.006985279
118	0xbc787cbd	-0.015166459
119	0xbcee1152	-0.029060993
120	0xbad6231c	-0.0016337368
121	0xbe117676	-0.14205346
122	0x3ca2ad56	0.019858044
123	0x3d75905e	0.059952132
124	0xbc94539a	-0.01810627
125	0x3d8d34a1	0.06894804
126	0x3c1db45b	0.00962552
127	0xbca647e8	-0.02029796

linears.0.weight f4 [32, 128]
0	0xbd5c52ae	-0.053789787
1	0xbb1ebbf0	-0.0024220906
2	0x3d2d6e3c	0.042341456
3	0x3cc8e236	0.024521928
4	0x3cde38cf	0.027126698
5	0x3c8b5323	0.017007416
6	0xbd8c296d	-0.06843839
7	0xbb241d2f	-0.002504181
8	0x3d690064	0.05688514
9	0x3d48cee0	0.049025416
10	0xbc5ee7f6	-0.0136051085
11	0xbd655056	-0.055984817
12	0xbc2642e9	-0.010147789
13	0x3d7e42c0	0.062075377
14	0x3d7dfea1	0.06201041
15	0xbd1a68e3	-0.037697684
16	0x3915cf60	0.00014287
17	0xbccf28f5	-0.025288085
18	0xbd2e60ae	-0.04257267
19	0xbb27d7de	-0.0025610845
20	0xbd59fd11	-0.05321986
21	0x3c6fd8f6	0.01463913
22	0x3d8a6790	0.06758034
23	0x3aac5ac3	0.0013149608
24	0xbca57722	-0.020198409
25	0xbc3df7df	-0.011594742
26	0xba80908f	-0.0009808707
27	0xbae3d3a6	-0.0017381802
28	0xba9ae91e	-0.0011818742
29	0x3d2346c8	0.039862424
30	0xbd04aa3c	-0.03238891
31	0xbc88be1c	-0.016692214
32	0x3d92f8fb	0.071763955
33	0x3d8ec48d	0.06971083
34	0xbd53a3fe	-0.051670067
35	0x3d8987e4	0.06715372
36	0x3d539030	0.05165118
37	0xbc0bfe4d	-0.008544517
38	0x3d29d37e	0.04146146
39	0x3a038a04	0.00050178193
40	0xbd531e71	-0.051542703
41	0x3cef1690	0.029185563
42	0xbd7b7e21	-0.061399583
43	0xbae8adb9	-0.0017751969
44	0xbccd5c9f	-0.02506858
45	0x3d5fd5fa	0.054647423
46	0x3d931cf2	0.07183255
47	0xbd3d52a8	-0.046221405
48	0x3caeebde	0.021352705
49	0x3cfb64dd	0.030687744
50	0x3a04288a	0.0005041441
51	0x3c8a7491	0.016901286
52	0xbc630283	-0.013855579
53	0x3c0eebfc	0.008723255
54	0xbd81a5cd	-0.06330452
55	0x3d44cc60	0.04804647
56	0xbb040775	-0.0020146046
57	0xbd01297a	-0.031533696
58	0x3d48381a	0.048881628
59	0x3abfc005	0.001462937
60	0xbd1ffa56	-0.0390571
61	0xbca433c5	-0.020044217
62	0xbc27e050	-0.010246351
63	0xbd8adfa0	-0.06780934
64	0x3c91eedf	0.017814098
65	0xbd1bf093	-0.038071226
66	0x3b0b2e48	0.0021237303
67	0x3ce95cdd	0.028486663
68	0x3d1a6878	0.037697285
69	0xb94eafd2	-0.00019711189
70	0xbd499ae5	-0.049219985
71	0xbc080d7f	-0.008303999
72	0xbbb5f037	-0.0055523175
73	0xbc571de1	-0.013129682
74	0xb84f0cea	-4.9364673e-05
75	0xba4fb1ea	-0.00079229346
76	0xbaafe2a1	-0.0013418981
77	0xbc97b2fd	-0.018517965
78	0xbae2a827	-0.0017292545
79	0xbd4c4971	-0.049874727
80	0x3d4a24aa	0.04935137
81	0xbd8156fb	-0.06315418
82	0xbbb5a904	-0.00554383
83	0x3c1fd7d2	0.009756045
84	0x3d3e2863	0.046425235
85	0xbce1efe4	-0.02758021
86	0x3aeab569	0.0017906848
87	0xbd7e88e2	-0.06214226
88	0xbc8c212f	-0.017105667
89	0x3d644134	0.055726245
90	0xbc2aeec0	-0.010432899
91	0x3d23d498	0.039997667
92	0x3b123494	0.002230917
93	0x3c34c53a	0.011033351
94	0xbc3f6478	-0.011681668
95	0x3d4c0da4	0.049817696
96	0xbd12a12a	-0.03579823
97	0xbb3da363	-0.0028936497
98	0x3cfa80f4	0.030579068
99	0x3c4bcbac	0.012438696
100	0x3a049adc	0.0005058476
101	0xbd03bbc8	-0.032161504
102	0xbc8aabe6	-0.01692767
103	0xbcc977a1	-0.024593176
104	0x3c88fb39	0.016721355
105	0xbd515ff4	-0.0511169
106	0x3d77503a	0.060379244
107	0xbb12c0dd	-0.0022392788
108	0xbd7ebde8	-0.062192827
109	0x3cd644d6	0.02615587
110	0x3ce322b6	0.027726512
111	0x3d38f12d	0.04515188
112	0x3ceadbf1	0.02866933
113	0xbb0a554d	-0.0021107972
114	0xbb2e0b47	-0.0026557015
115	0xbaf84ded	-0.0018944122
116	0x3d70e84f	0.058815297
117	0x3cc42ce6	0.02394719
118	0xbce97dce	-0.028502371
119	0x3d2ad09c	0.04170285
120	0xba8266ae	-0.0009948814
121	0xbcf7f3d0	-0.030267626
122	0x3cf89c0a	0.030347843
123	0x3c8a1df6	0.01685999
124	0x39e3c4db	0.00043443483
125	0xbd85e186	-0.06537156
126	0xba9f401d	-0.0012149845
127	0xbcb02f70	-0.021506995
128	0x3da0e08c	0.07855329
129	0xbceb82a7	-0.028748823
130	0xbd0336c2	-0.032034643
131	0x3a880c8c	0.0010379716
132	0x3d4cc48d	0.049992133
133	0xbd5753d3	-0.052570175
134	0x3d898f7d	0.06716821
135	0xbd977b04	-0.0739651
136	0x3d1c7964	0.038201705
137	0x3cd6b22e	0.02620801
138	0xbd596b4d	-0.053080846
139	0xbd0e2c2e	-0.0347101
140	0xbd3f1d51	-0.046658818
141	0xbc969126	-0.018379759
142	0xbd3fdfe4	-0.046844378
143	0x3d81646d	0.06317983
144	0xbd3c5696	-0.045981012
145	0x3cbf77de	0.023372587
146	0x3a86c457	0.0010281903
147	0xbd711ef9	-0.05886743
148	0x3b7a5a67	0.0038200857
149	0x397d860a	0.00024177894
150	0x3d569227	0.052385475
151	0x3d7bc854	0.061470345
152	0xbd94e7f0	-0.07270801
153	0x3aeb656a	0.0017959301
154	0x3d49b9bb	0.049249392
155	0x3d9c96c6	0.07645945
156	0x3d13cb36	0.03608247
157	0x3d2aa7d7	0.04166397
158	0xbd4ba8f0	-0.04972166
159	0x3c2fcff1	0.010730729
160	0x3cecb17a	0.028893221
161	0x3d032be3	0.032024276
162	0x3d8aba34	0.06773797
163	0xbc27bbd8	-0.0102376565
164	0xbdaa6a4a	-0.08321054
165	0x3cbcb0d3	0.023033535
166	0xbc5f78be	-0.013639627
167	0x3d857c86	0.065178916
168	0x3da4910f	0.0803548
169	0x3d0f5343	0.034991514
170	0x3d925ee1	0.07147003
171	0x3d554342	0.052066095
172	0xbd6cdda8	-0.057828575
173	0x3d18b933	0.037285995
174	0xbd86f9b6	-0.06590597
175	0x3da81d8e	0.08208762
176	0xbc969338	-0.018380746
177	0x3d5f1b12	0.054469176
178	0xbceeb8ba	-0.029140819
179	0x3d872f26	0.0660079
180	0xbce7058d	-0.028200889
181	0x3d9ff405	0.07810215
182	0x3d93c327	0.07214957
183	0xbda24458	-0.07923192
184	0xbcebc510	-0.02878049
185	0x3da399ba	0.079883054
186	0xbcb8d2bc	-0.022561423
187	0x3ca3e0f3	0.020004725
188	0x3b949a59	0.0045350012
189	0xbd887fe8	-0.06665021
190	0xbd6b97ef	-0.057517942
191	0x3d1d4cf1	0.038403455
192	0x3d9d0773	0.076674365
193	0xbdaafb54	-0.08348718
194	0x3d907095	0.07052723
195	0xbc7fa4e9	-0.0156032825
196	0x3bc8a22e	0.006122849
197	0x3d870b18	0.06593913
198	0x3c5b82f4	0.013397921
199	0x3a6c7ab8	0.0009020972
200	0x3d72f700	0.05931759
201	0xbd3e56fb	-0.04646967
202	0x3d80c84d	0.06288204
203	0x3d55dd0c	0.05221276
204	0x3d8fb6cb	0.07017287
205	0x3d236b8f	0.039897498
206	0x3cad58ea	0.021160562
207	0x3d5f723d	0.054552305
208	0xbd825d9b	-0.0636551
209	0x3d008775	0.031379182
210	0x3d537468	0.051624686
211	0x3da00ec1	0.07815314
212	0x3d8ea4ad	0.06965003
213	0x3d05cb7d	0.032664765
214	0xbd679ddc	-0.05654703
215	0xbd8952f0	-0.06705272
216	0x3cd5062b	0.026003918
217	0x3ce8bcc4	0.028410323
218	0xbd15b53f	-0.036549803
219	0xbd021193	-0.03175504
220	0x3aa7c898	0.001280087
221	0xbc854ba2	-0.016271416
222	0xbd8a7506	-0.06760602
223	0x3d44ab5a	0.048014976
224	0xbd20411e	-0.0391246
225	0xbda151ba	-0.07876916
226	0xbd6aef40	-0.057357073
227	0xbda8b09c	-0.082368106
228	0xbc2d2617	-0.010568163
229	0x3ca65b24	0.020307131
230	0x3d1432c7	0.036181238
231	0x3cded310	0.027200252
232	0x3c93ef9f	0.018058596
233	0xbd71a84f	-0.058998402
234	0x3d306fc2	0.04307533
235	0x3bfc2fab	0.007696112
236	0xbd1b2e7d	-0.03788613
237	0xbc490cc5	-0.012271111
238	0xbd429fe7	-0.047515776
239	0xbb843199	-0.004034233
240	0xbda43263	-0.08017423
241	0x3d263910	0.040581763
242	0x3d03e0e0	0.03219688
243	0xbd9d56d4	-0.07682577
244	0xbd75e55e	-0.060033195
245	0x3d2e7475	0.04259153
246	0x3ce38d84	0.02777744
247	0x3da6e983	0.081500076
248	0x3c170361	0.009217114
249	0x3d26c9f4	0.04071994
250	0x3d2e34f9	0.042530987
251	0x3c3f324d	0.0116697075
252	0xbbbe2953	-0.005803266
253	0x3cfa33db	0.030542305
254	0xbce6a6d7	-0.028155727
255	0xbcc89f7c	-0.02449011

linears.0.bias f4 [32]
0	0x3d10ce5d	0.035353053
1	0x3c0c2ed4	0.008556087
2	0xbd6c38ce	-0.05767136
3	0x3d0b6322	0.034030087
4	0x3d9d8da3	0.07693031
5	0x3d8d655b	0.06904098
6	0xbd6127d5	-0.054969627
7	0xbcc94963	-0.024571126
8	0x3c85e03c	0.016342275
9	0x3d840a29	0.064472504
10	0x3da86c61	0.08223797
11	0xbd893ae7	-0.06700688
12	0x3cb20d59	0.02173488
13	0xbcdc00d3	-0.026855862
14	0xbd1d191f	-0.038354035
15	0x3cde61b2	0.027146194
16	0x3cda13cb	0.026620766
17	0x3d139230	0.036028087
18	0x3d7abf1a	0.061217405
19	0xbb81d3d0	-0.0039620176
20	0xbc1bd2f3	-0.009510743
21	0xbc8cd521	-0.017191472
22	0xbb0f9de3	-0.0021914176
23	0x3cb968d1	0.022632988
24	0x3d3a9659	0.04555354
25	0x3d72e9a4	0.05930485
26	0x3b1677a6	0.00229595
27	0x3b0e8255	0.0021745164
28	0x3da5ac64	0.080895215
29	0xbcdf6334	-0.027268983
30	0xbd4ee1f2	-0.050508447
31	0xbccd8511	-0.025087865

linears.2.weight f4 [2, 32]
0	0xbb2946a5	-0.002582946
1	0xbe1f43c5	-0.15553196
2	0x3dfc79fa	0.12327953
3	0xbc85cc65	-0.016332814
4	0x3da61003	0.08108523
5	0xbdbe5718	-0.092939556
6	0xbdcdb8b9	-0.10044999
7	0xbc65583c	-0.0139980875
8	0x3e0bcf89	0.13653387
9	0xbd947f0b	-0.07250794
10	0x3e280f7b	0.16412155
11	0xb8543af0	-5.059963e-05
12	0xbd44c212	-0.048036642
13	0x3dce6e1d	0.10079596
14	0x3dba77fd	0.09104917
15	0xbd227e1c	-0.03967105
16	0x3b03f98d	0.0020137758
17	0x3e27e8ee	0.1639745
18	0xbd9ae55b	-0.07563277
19	0x3de19374	0.110144526
20	0xbe1292e4	-0.14313847
21	0x3e245843	0.16049294
22	0xbe1dad1a	-0.15398064
23	0x3df52e8a	0.11971767
24	0xbbd486fb	-0.0064858175
25	0x3e0dd8ce	0.13852236
26	0x3d02bdd3	0.03191931
27	0x3e00d4e3	0.1258121
28	0xbce67932	-0.028133962
29	0xbe19ec7e	-0.15031621
30	0xbdbb2ab4	-0.09139004
31	0x3dba407d	0.090943314
32	0xbd0648b4	-0.03278418
33	0xbcfe8907	-0.0310712
34	0x3e0c435f	0.13697575
35	0x3903b4f9	0.00012560551
36	0x3e041eb0	0.12902331
37	0x3d91f0e5	0.07126025
38	0x3e194017	0.14965855
39	0x3d585852	0.052818604
40	0xbd915b15	-0.07097451
41	0xbc182e7d	-0.009288427
42	0xbdb83b23	-0.089956544
43	0x3c59de97	0.013297698
44	0xbdf746ad	-0.12074027
45	0x3dab61fa	0.08368297
46	0xbd13a3d4	-0.03604491
47	0xb90c2633	-0.00013365671
48	0xbd2f6f42	-0.042830713
49	0x3c3f2f6b	0.01166902
50	0xbd235f84	-0.039886013
51	0x3e0b0085	0.13574417
52	0x3dcd0084	0.10009864
53	0x3d27052d	0.04077642
54	0x3dee923b	0.11648985
55	0x3dffef78	0.12496847
56	0xbd129749	-0.035788808
57	0xbdbc1563	-0.09183767
58	0x3cef9d7f	0.029249905
59	0x3b133bf3	0.0022466152
60	0x3dffa743	0.124830745
61	0xbd9d8dd6	-0.07693069
62	0xbe211ca2	-0.15733579
63	0xbe2c2afc	-0.16813272

linears.2.bias f4 [2]
0	0x3d21aa3c	0.03946899
1	0x3db2e18d	0.08734427

exp_avg f4 [128, 4, 12]
0	0x38a36e6c	7.793013e-05
1	0x381e3948	3.7723483e-05
2	0x388a2429	6.587088e-05
3	0xb88fd8c4	-6.859147e-05
4	0xba0753c9	-0.0005162326
5	0xb9b322ae	-0.0003416738
6	0xb80b54fb	-3.3219327e-05
7	0x380f18b3	3.411686e-05
8	0xb9fabe06	-0.00047825294
9	0x387a03b8	5.9608108e-05
10	0xb9a30383	-0.000310924
11	0x39d934f0	0.00041428907
12	0x38144fad	3.5360154e-05
13	0x38ee741c	0.000113703514
14	0x37b009f4	2.098547e-05
15	0xb975954b	-0.00023420637
16	0x38d8d2a7	0.0001033892
17	0x38914e0f	6.928678e-05
18	0xb7a6910a	-1.9856281e-05
19	0xb997d976	-0.00028962985
20	0xb87c02d1	-6.0084105e-05
21	0xb966327b	-0.00021953315
22	0x399da408	0.00030067586
23	0xba207af3	-0.00061218365
24	0xb9b3f9c9	-0.00034327645
25	0xb8a270aa	-7.745747e-05
26	0xb6f8c6ce	-7.41412e-06
27	0x39038271	0.00012541727
28	0x38045b7d	3.1556458e-05
29	0x38eeeb0e	0.00011392507
30	0x386a8abb	5.591915e-05
31	0x39824c6e	0.00024852477
32	0x3a0ed3b6	0.00054484175
33	0x37c6facc	2.3720226e-05
34	0xb88a3529	-6.5902546e-05
35	0x39399f16	0.00017702239
36	0x39712870	0.00022998615
37	0xb89b2016	-7.3969524e-05
38	0xb8a69a35	-7.94422e-05
39	0x3939ff3b	0.00017738056
40	0x39c7e77c	0.00038128707
41	0x392628cc	0.00015846192
42	0xb63ed3d6	-2.843551e-06
43	0x36ea7c02	6.98818e-06
44	0xb6da430a	-6.5047107e-06
45	0x390ed233	0.0001362048
46	0x389fb316	7.615068e-05
47	0x37af16b1	2.0872192e-05
48	0x39998c6a	0.0002928705
49	0xb959cd8c	-0.00020771305
50	0xb783608c	-1.5661375e-05
51	0xb925870b	-0.00015785934
52	0xb8e163ec	-0.00010747448
53	0x3912ef9c	0.00014012906
54	0xb80fde65	-3.4300978e-05
55	0xb9507cec	-0.00019882963
56	0xb998127f	-0.0002900548
57	0xb885470e	-6.355169e-05
58	0xba57ad5c	-0.00082274317
59	0xb9127b14	-0.00013969495
60	0xba1cb337	-0.0005977633
61	0x399df779	0.00030129755
62	0x37495bce	1.20019085e-05
63	0x39ff23fc	0.000486642
64	0xb8128be8	-3.493941e-05
65	0xb92d7c4b	-0.00016544868
66	0x37799387	1.4875905e-05
67	0x39d21abb	0.00040074237
68	0x396ddca0	0.0002268427
69	0x381dad59	3.759316e-05
70	0x389118cf	6.91876e-05
71	0x3a5c961c	0.0008414702
72	0x39a75c9d	0.00031921724
73	0xb8bfa8ce	-9.139032e-05
74	0x38a45b5e	7.837148e-05
75	0xba05b0ba	-0.00050998817
76	0x38c36977	9.317969e-05
77	0x399eeedd	0.00030314075
78	0x39b483f7	0.00034430597
79	0xb9b4686d	-0.0003441008
80	0x3980528f	0.00024475573
81	0xb7c0dd36	-2.2991193e-05
82	0xb6ffa714	-7.6190427e-06
83	0xba368289	-0.00069622
84	0xb77052ff	-1.4324439e-05
85	0xb6133f84	-2.1941678e-06
86	0xb89caeba	-7.471205e-05
87	0x393e01fc	0.00018120551
88	0x384e80d2	4.92342e-05
89	0xb991a886	-0.00027782115
90	0xb9aa54c4	-0.00032488082
91	0x39151852	0.00014218807
92	0xb93e5cbf	-0.00018154363
93	0x384d4f65	4.894975e-05
94	0x3a478990	0.0007611746
95	0xb6ba6710	-5.55523e-06
96	0x36f5f3d2	7.3299534e-06
97	0x373e1df4	1.13318565e-05
98	0x372cd3cc	1.0301312e-05
99	0xb8b6e577	-8.7211774e-05
100	0x36d9fe6c	6.4967226e-06
101	0xb611091e	-2.161199e-06
102	0xb7b22f97	-2.1241414e-05
103	0x37381cc2	1.097395e-05
104	0x37b28520	2.1281245e-05
105	0xb7903417	-1.7190394e-05
106	0x373034a1	1.0502671e-05
107	0xb643f32f	-2.9198816e-06
108	0x3808ec62	3.2645075e-05
109	0x373790cf	1.0941366e-05
110	0xb7591dbc	-1.2941131e-05
111	0x38226325	3.8716145e-05
112	0x38483fcc	4.774313e-05
113	0xb7b3fc01	-2.1455811e-05
114	0x37010900	7.691095e-06
115	0xb7ad1b1b	-2.0635829e-05
116	0x383f26fa	4.557425e-05
117	0xb72274b1	-9.683122e-06
118	0xb71ee3c4	-9.470565e-06
119	0x34bf3681	3.561618e-07
120	0xb8312ea1	-4.2243515e-05
121	0x37390fe1	1.1030556e-05
122	0xb7f79e0a	-2.9518287e-05
123	0x383979af	4.4220764e-05
124	0xb78589ff	-1.5919095e-05
125	0xb7d220c4	-2.5049208e-05
126	0x38170b5e	3.6011792e-05
127	0x38059878	3.185167e-05
128	0xb7a8c09f	-2.0116857e-05
129	0xb785961a	-1.5924732e-05
130	0xb8442355	-4.6762947e-05
131	0xb6023cc0	-1.940687e-06
132	0x36183c2d	2.2684792e-06
133	0xb80bafa9	-3.330378e-05
134	0x3806e182	3.215811e-05
135	0x368f70ac	4.274849e-06
136	0xb820ba99	-3.8320755e-05
137	0x384c1ef5	4.866622e-05
138	0xb7bc6ba4	-2.246147e-05
139	0xb7ba2434	-2.2189786e-05
140	0xb844093a	-4.6738634e-05
141	0x38338245	4.279825e-05
142	0x383fcf20	4.573085e-05
143	0x3697248d	4.5044058e-06
144	0x38eb06ec	0.000112069625
145	0xb9c5ea03	-0.0003774912
146	0xba60af57	-0.00085710495
147	0x3932aae9	0.00017039072
148	0x3a3d9aa7	0.0007232823
149	0x3868bb29	5.5487417e-05
150	0x388afef6	6.627843e-05
151	0x3a3ca13f	0.00071956584
152	0x39d49bad	0.00040551779
153	0x38698118	5.5671757e-05
154	0x3a639a43	0.00086823496
155	0x3933ff69	0.00017165918
156	0xb97f1e34	-0.00024329947
157	0xb914a5a8	-0.00014176092
158	0xb9c3b109	-0.000373252
159	0xba8cd57f	-0.0010744779
160	0xba5286d2	-0.0008030954
161	0xba28851d	-0.0006428527
162	0xb8d9069c	-0.000103485974
163	0x37cca176	2.4393881e-05
164	0x384160b4	4.6104848e-05
165	0xb9023027	-0.00012415704
166	0xb99dd47f	-0.00030103695
167	0x39764f55	0.00023489942
168	0x3706f1c7	8.043316e-06
169	0x39e4ed1a	0.00043664203
170	0x39aead81	0.00033317137
171	0x3901171b	0.00012311006
172	0x38c838e0	9.547337e-05
173	0x39a94f1b	0.0003229313
174	0x3962088d	0.00021556225
175	0xba535352	-0.0008061427
176	0xba58512d	-0.0008251842
177	0x36152bf7	2.222832e-06
178	0x37c12946	2.3026612e-05
179	0xba03b4f4	-0.00050242175
180	0x39012b9c	0.00012318644
181	0x38ad3eed	8.261004e-05
182	0x3a6b311b	0.0008971856
183	0x3a4cba7d	0.00078097713
184	0xb7835e2c	-1.566027e-05
185	0x398aa3ba	0.00026443397
186	0xb93b04c1	-0.0001783548
187	0x38826830	6.2182895e-05
188	0x39c3da95	0.00037356155
189	0x388af66c	6.6262524e-05
190	0xba1ab94f	-0.0005902247
191	0x38c90a26	9.586317e-05
192	0x38a48501	7.844903e-05
193	0xba3b3ff9	-0.00071430166
194	0x385ca068	5.2601477e-05
195	0x39809bd9	0.00024530178
196	0x3718558b	9.079823e-06
197	0x386828de	5.535117e-05
198	0x391a5902	0.00014719742
199	0xb8533ccb	-5.0362938e-05
200	0x398c0154	0.0002670387
201	0xba0d2309	-0.0005383944
202	0x3a4b28cd	0.0007749915
203	0x395bd09f	0.00020963185
204	0x398c547f	0.00026765835
205	0x399c5a18	0.00029821764
206	0xb80768c6	-3.2284086e-05
207	0xb9bec238	-0.00036384328
208	0x398f991e	0.00027389167
209	0xb91b5101	-0.00014812128
210	0xb7e0d871	-2.680367e-05
211	0xba081b9b	-0.0005192102
212	0xba1b6559	-0.0005927883
213	0x37bcfa1f	2.2527818e-05
214	0xb9272f5d	-0.00015944005
215	0xb9d04968	-0.00039727543
216	0xb924c7cd	-0.0001571469
217	0x39c64d44	0.0003782307
218	0xb9776816	-0.0002359453
219	0x391f0eae	0.0001516889
220	0xb9b407b9	-0.0003433803
221	0x39d7b54b	0.0004114307
222	0x3a07ecdb	0.00051851355
223	0x39e0f764	0.0004290893
224	0x388c8c13	6.701811e-05
225	0x3a265d50	0.0006346302
226	0xb8cc9090	-9.754405e-05
227	0x390ec9ef	0.00013617401
228	0xb94623b3	-0.0001889605
229	0x381ec4da	3.7853468e-05
230	0x39621a2e	0.00021562792
231	0xb80b07cd	-3.3147448e-05
232	0x387d5f68	6.0408755e-05
233	0xb9a711e7	-0.0003186606
234	0xba277c5a	-0.0006389074
235	0x39134ed7	0.00014048383
236	0x3987a657	0.0002587314
237	0xb8f910c6	-0.000118763695
238	0xba07cae2	-0.0005180073
239	0x3857e111	5.1469604e-05
240	0xb830c3ef	-4.2144147e-05
241	0xb8555bd8	-5.0868694e-05
242	0x3892000a	6.96183e-05
243	0xb808bea6	-3.2602482e-05
244	0x379d2fe0	1.8738152e-05
245	0xb823cac9	-3.9051087e-05
246	0xb7b5c470	-2.1668355e-05
247	0x379bfb60	1.8594495e-05
248	0xb777a4fa	-1.4760759e-05
249	0xb6b353c1	-5.344366e-06
250	0xb797f144	-1.811295e-05
251	0x38160f57	3.5777073e-05
252	0xb7255a44	-9.855783e-06
253	0x389544d2	7.1176924e-05
254	0x37f8e823	2.9672e-05
255	0x371c93e8	9.332762e-06

exp_avg_sq f4 [128, 4, 12]
0	0x31fb72cb	7.318112e-09
1	0x318a63e0	4.027683e-09
2	0x3242dbe8	1.1342287e-08
3	0x317f4c6f	3.7150831e-09
4	0x32f35c8e	2.8331012e-08
5	0x32af9d84	2.0444311e-08
6	0x32af8e17	2.0437296e-08
7	0x31007d9c	1.8697852e-09
8	0x32e93d76	2.715272e-08
9	0x311bb01a	2.265557e-09
10	0x3266a2eb	1.3424805e-08
11	0x323a78e2	1.08541105e-08
12	0x3261e812	1.314949e-08
13	0x32a28dea	1.8923817e-08
14	0x301ce7cc	5.708187e-10
15	0x325ed49e	1.2970444e-08
16	0x327e7b2e	1.4812754e-08
17	0x32f07daa	2.7996823e-08
18	0x3182318a	3.78913e-09
19	0x3296096a	1.746658e-08
20	0x32b8973f	2.1489198e-08
21	0x3239137c	1.07728475e-08
22	0x32881855	1.5843549e-08
23	0x32fb95d9	2.9288389e-08
24	0x32e8b36f	2.7089952e-08
25	0x32b91e03	2.1550482e-08
26	0x3256ceaa	1.2503429e-08
27	0x32eeb27c	2.7788012e-08
28	0x31cbeba9	5.934869e-09
29	0x32074f3a	7.876048e-09
30	0x32bacbb6	2.1745887e-08
31	0x32c1b41a	2.2550058e-08
32	0x32b7f439	2.1415064e-08
33	0x318d5dde	4.1143116e-09
34	0x329942bf	1.7841897e-08
35	0x32412174	1.1241685e-08
36	0x31a26f91	4.727504e-09
37	0x31fbbc1e	7.326448e-09
38	0x30cae2fc	1.4761947e-09
39	0x3206d9bf	7.849336e-09
40	0x329e032d	1.8395065e-08
41	0x324cbcec	1.1917319e-08
42	0x2f539b83	1.9245587e-10
43	0x30d23f2c	1.5297466e-09
44	0x2fe165b1	4.0999518e-10
45	0x30e83ba0	1.6897168e-09
46	0x31803be6	3.7321e-09
47	0x31969c90	4.3833737e-09
48	0x33116488	3.3851876e-08
49	0x33116c44	3.385891e-08
50	0x305373ca	7.69259e-10
51	0x31626b22	3.2948226e-09
52	0x335a52b9	5.0832316e-08
53	0x329dbee7	1.8364018e-08
54	0x309a99b9	1.1248665e-09
55	0x314eb925	3.0082188e-09
56	0x32e19e52	2.6265443e-08
57	0x3096c5a0	1.0970105e-09
58	0x33716de9	5.6212148e-08
59	0x3290b706	1.6847036e-08
60	0x33697680	5.4357315e-08
61	0x333586f0	4.226507e-08
62	0x31cdbb7e	5.9876006e-09
63	0x338df5cd	6.610535e-08
64	0x303fbda9	6.975492e-10
65	0x31f38e7d	7.08843e-09
66	0x2fdbd9e8	3.99907e-10
67	0x334f5a4b	4.8278064e-08
68	0x33835bb1	6.1168414e-08
69	0x331bc5b7	3.626857e-08
70	0x336bad40	5.487277e-08
71	0x336c46bd	5.5012368e-08
72	0x332f46e7	4.0809848e-08
73	0x320af2ea	8.0878895e-09
74	0x33997263	7.1454245e-08
75	0x337ee25d	5.934486e-08
76	0x30e2169f	1.6450094e-09
77	0x336b31a4	5.476035e-08
78	0x32f6faa0	2.875214e-08
79	0x32fa699b	2.9151854e-08
80	0x31fcb5bb	7.3548256e-09
81	0x3323a1f1	3.809868e-08
82	0x2ed1923a	9.530195e-11
83	0x332568c5	3.8512344e-08
84	0x31bde259	5.5263567e-09
85	0x31b1fa73	5.1798508e-09
86	0x3359f90c	5.0750756e-08
87	0x32524492	1.22392e-08
88	0x3351f01a	4.8879976e-08
89	0x333da9f1	4.4159552e-08
90	0x32c1178f	2.247887e-08
91	0x336251e9	5.2694222e-08
92	0x3339c019	4.324838e-08
93	0x3151561c	3.046245e-09
94	0x335d5fc9	5.154269e-08
95	0x315e0ebc	3.2313627e-09
96	0x30a283c6	1.1824504e-09
97	0x2e2b5877	3.895947e-11
98	0x2f2646d5	1.5122777e-10
99	0x309b7784	1.1311703e-09
100	0x3010f544	5.273544e-10
101	0x2f09670c	1.2496687e-10
102	0x300a8c79	5.040373e-10
103	0x2ff121a8	4.386156e-10
104	0x30be89c0	1.386347e-09
105	0x30bba90c	1.3654087e-09
106	0x2dd85d71	2.4597853e-11
107	0x2f5d2cc7	2.0115741e-10
108	0x2ffb5f99	4.572456e-10
109	0x308e132f	1.0337312e-09
110	0x3046e504	7.235743e-10
111	0x3030eae4	6.4362227e-10
112	0x3075e526	8.945612e-10
113	0x300e3cfd	5.174597e-10
114	0x2e962e80	6.82947e-11
115	0x2f382821	1.6748959e-10
116	0x30f44da5	1.7775404e-09
117	0x2f390227	1.6826417e-10
118	0x304edfb0	7.526024e-10
119	0x2f061844	1.219585e-10
120	0x30939878	1.0738992e-09
121	0x2f65dfff	2.0907008e-10
122	0x3008ef91	4.9816956e-10
123	0x308a7856	1.0075023e-09
124	0x301783ac	5.5120597e-10
125	0x302ea9db	6.354221e-10
126	0x308e3415	1.0346662e-09
127	0x30271de3	6.079672e-10
128	0x2f27ac30	1.5249735e-10
129	0x30d263e8	1.5307906e-09
130	0x30b7b748	1.3367094e-09
131	0x302b18b2	6.224453e-10
132	0x2f82325c	2.3682645e-10
133	0x307b0a31	9.132775e-10
134	0x2fcc60ed	3.7176254e-10
135	0x2d113186	8.253292e-12
136	0x3021c4b6	5.8851e-10
137	0x30167447	5.473492e-10
138	0x300e82ed	5.1845356e-10
139	0x2ff87941	4.5197093e-10
140	0x3038ce5a	6.7232053e-10
141	0x300d4474	5.139278e-10
142	0x3093603a	1.0723007e-09
143	0x2e5b99c6	4.9931413e-11
144	0x329efd98	1.8508942e-08
145	0x3311a67c	3.391186e-08
146	0x33b7aced	8.5530566e-08
147	0x32f87d6b	2.8928033e-08
148	0x33ca567c	9.4220894e-08
149	0x33bed850	8.8869115e-08
150	0x33b35e16	8.352451e-08
151	0x332f6ffe	4.084722e-08
152	0x33969c50	7.0133524e-08
153	0x32aa4806	1.9823357e-08
154	0x339b9246	7.244357e-08
155	0x32ad18bf	2.0151104e-08
156	0x340e026d	1.3225663e-07
157	0x32846424	1.5412361e-08
158	0x32eabba3	2.7326513e-08
159	0x340ac7a8	1.2924886e-07
160	0x33bf654c	8.9125564e-08
161	0x33c74cc1	9.280621e-08
162	0x334be30f	4.747113e-08
163	0x33e495b9	1.0644312e-07
164	0x316adc27	3.4176624e-09
165	0x332706fd	3.8889073e-08
166	0x32f1b7be	2.8139649e-08
167	0x32a2db19	1.8958916e-08
168	0x341127ab	1.3518608e-07
169	0x329cbca0	1.8246567e-08
170	0x33866368	6.257943e-08
171	0x32f20063	2.8172684e-08
172	0x3321e50d	3.7694054e-08
173	0x337d194a	5.8929153e-08
174	0x33292579	3.938246e-08
175	0x339d871e	7.33546e-08
176	0x33a92f5d	7.878291e-08
177	0x3395fad9	6.983982e-08
178	0x32b2c5dc	2.0811903e-08
179	0x33a2a8ce	7.574418e-08
180	0x323c2dc5	1.0953447e-08
181	0x32bc0ea1	2.1892733e-08
182	0x33e50e46	1.066624e-07
183	0x33bde795	8.843123e-08
184	0x31140a96	2.1542852e-09
185	0x3344f9d9	4.586204e-08
186	0x33820bc8	6.05574e-08
187	0x32c4eb85	2.2924505e-08
188	0x32ae395a	2.0282346e-08
189	0x31e24a29	6.5858967e-09
190	0x32e90f7f	2.7131817e-08
191	0x330a181a	3.215255e-08
192	0x32bb856c	2.1830338e-08
193	0x333adcf5	4.350746e-08
194	0x3358eff1	5.0509644e-08
195	0x338d05da	6.5668885e-08
196	0x314813ef	2.9115161e-09
197	0x32c333d1	2.2724551e-08
198	0x335a72c1	5.086145e-08
199	0x33626122	5.2708067e-08
200	0x32447aba	1.1436606e-08
201	0x32a80756	1.956111e-08
202	0x338201f5	6.053953e-08
203	0x33d81718	1.00624845e-07
204	0x33a584ea	7.707588e-08
205	0x339bd29f	7.256062e-08
206	0x3354ec27	4.9574876e-08
207	0x33cfdb77	9.679109e-08
208	0x33224154	3.777798e-08
209	0x3350b536	4.8593584e-08
210	0x33dcd1d4	1.0282716e-07
211	0x33b893cd	8.5950525e-08
212	0x335ebed0	5.1861946e-08
213	0x314447e2	2.8562614e-09
214	0x33083881	3.1716358e-08
215	0x32f5fb58	2.8636052e-08
216	0x31d0dba5	6.0785674e-09
217	0x3307e270	3.163808e-08
218	0x33128e68	3.412279e-08
219	0x32352d33	1.0545864e-08
220	0x329b9fec	1.8117099e-08
221	0x32bd72fa	2.2054781e-08
222	0x333cc291	4.3949118e-08
223	0x32b54753	2.1103608e-08
224	0x339b973e	7.245261e-08
225	0x33194e0a	3.5694065e-08
226	0x32c28c1d	2.2648289e-08
227	0x33e72d7b	1.07650486e-07
228	0x338dd6b3	6.604878e-08
229	0x31bc51d8	5.4808247e-09
230	0x3374e19f	5.701588e-08
231	0x332c6e84	4.0147384e-08
232	0x32871257	1.5724408e-08
233	0x31ed513a	6.906842e-09
234	0x3358c906	5.047425e-08
235	0x316e37aa	3.46652e-09
236	0x332c2aff	4.0085975e-08
237	0x31a9e6d8	4.9447912e-09
238	0x3321fae3	3.7713914e-08
239	0x31d89c26	6.3041794e-09
240	0x2f91422b	2.6422362e-10
241	0x3094a691	1.0815758e-09
242	0x3032ff18	6.5118533e-10
243	0x2f974122	2.751302e-10
244	0x2f446c9c	1.7864682e-10
245	0x3073af77	8.8652236e-10
246	0x300654da	4.88695e-10
247	0x2fa08e43	2.9204913e-10
248	0x30328993	6.495153e-10
249	0x2ef800d2	1.127788e-10
250	0x2efd3439	1.15143846e-10
251	0x2f112aad	1.3202835e-10
252	0x30746469	8.8909374e-10
253	0x309fa114	1.1614554e-09
254	0x2f1165ec	1.3223883e-10
255	0x3019d804	5.596805e-10

exp_avg f4 [128]
0	0xb93e43ad	-0.00018145023
1	0x39bbe45a	0.00035837555
2	0xb8307867	-4.2073803e-05
3	0xb9c2c1a2	-0.0003714683
4	0x39befa0b	0.0003642592
5	0x3881cd2c	6.1894156e-05
6	0x390e606e	0.00013578098
7	0xb94487cc	-0.00018742605
8	0x397c9c01	0.00024090709
9	0x378ccd5c	1.6784928e-05
10	0x38ee3521	0.000113586204
11	0x39fbd0de	0.0004803007
12	0x39666e3e	0.00021975578
13	0xb767c0d4	-1.3813569e-05
14	0xb6e60683	-6.855292e-06
15	0xb9abf84f	-0.00032800666
16	0xb952e5e6	-0.00020112804
17	0x37d097e3	2.486626e-05
18	0x39219fdb	0.00015413707
19	0x38f86e45	0.00011846101
20	0xb8ec6586	-0.00011272267
21	0xb9af9eb2	-0.00033496838
22	0xb958dc99	-0.00020681544
23	0xb9262523	-0.00015844828
24	0x3901a1e2	0.00012362705
25	0x39d18140	0.00039959885
26	0xb8feaa19	-0.00012143347
27	0xb9a6e117	-0.00031829692
28	0x3972dfc0	0.00023162272
29	0xb8c48c3c	-9.372129e-05
30	0x3889485a	6.5461456e-05
31	0x3883d84e	6.286857e-05
32	0x39cfd899	0.00039643495
33	0xb817c16b	-3.618134e-05
34	0xb88190e5	-6.178188e-05
35	0xb92be9bf	-0.00016394908
36	0x388065c1	6.122469e-05
37	0x3917e934	0.00014487357
38	0x39a00e4e	0.00030528236
39	0xb9aec4e2	-0.00033334555
40	0xb81bf84d	-3.7186128e-05
41	0x38c343bc	9.310941e-05
42	0xb98b1f88	-0.0002653564
43	0x3898a306	7.27829e-05
44	0x38c07361	9.1767644e-05
45	0x38ed5937	0.00011317658
46	0x397f4aae	0.00024346515
47	0xb91a9584	-0.00014742283
48	0x38f32d73	0.000115956085
49	0x39895868	0.00026196544
50	0xb97cc1ab	-0.0002410474
51	0x37c30761	2.3249248e-05
52	0x39b671cb	0.00034798527
53	0xb70160ce	-7.711538e-06
54	0x3956c8fd	0.00020483504
55	0x398f912e	0.00027383253
56	0x38bc8b46	8.99048e-05
57	0xb953d02a	-0.00020200075
58	0x39ba0155	0.00035477677
59	0xb94cb249	-0.00019521372
60	0x38c76470	9.5077674e-05
61	0x38846ac1	6.314135e-05
62	0xb7a3d9bf	-1.953251e-05
63	0x378c40eb	1.671953e-05
64	0x37c1d23d	2.3105293e-05
65	0x37a82a6c	2.0046915e-05
66	0xb8807e8e	-6.127088e-05
67	0x39a32061	0.00031113907
68	0x399612fa	0.00028624368
69	0xb9ac702f	-0.0003288998
70	0x39041079	0.00012594638
71	0xb9b86cad	-0.00035176185
72	0xb951c600	-0.00020005554
73	0x39570475	0.00020505658
74	0x3902a701	0.0001245998
75	0xb830ac0c	-4.21219e-05
76	0xb7792ec7	-1.4852448e-05
77	0x39efd120	0.00045741443
78	0x3887a303	6.467665e-05
79	0xb8c9b0cd	-9.6173586e-05
80	0x388f355a	6.828709e-05
81	0xb93affbf	-0.00017833615
82	0xb8f0218a	-0.00011450339
83	0xb7696fcb	-1.3913911e-05
84	0x396cd4f3	0.00022586044
85	0x38fd1e42	0.00012069616
86	0x39cc6861	0.0003898768
87	0xb833c1d6	-4.285745e-05
88	0xb8c0146a	-9.159076e-05
89	0xb7dc6e15	-2.6277305e-05
90	0xb8be8a38	-9.085651e-05
91	0x3870ac36	5.7380843e-05
92	0x382a29cc	4.0570085e-05
93	0x38d56787	0.00010175915
94	0xb98bf4b9	-0.0002669448
95	0xb90e3fd1	-0.00013565949
96	0x38a7c3b0	7.99963e-05
97	0xb8e260f0	-0.00010794576
98	0x38a5229c	7.8742596e-05
99	0x392e29c2	0.00016609489
100	0xb98efbd1	-0.00027271968
101	0x397c4ce3	0.00024061235
102	0x388a7a61	6.6031476e-05
103	0xb957a77c	-0.0002056639
104	0x380d059f	3.3622255e-05
105	0xb880337a	-6.113104e-05
106	0xb8e49769	-0.000109000895
107	0x3847dd42	4.765136e-05
108	0x38d406ab	0.0001011019
109	0x3980aae2	0.0002454138
110	0x392b95ac	0.00016363588
111	0x38f243b3	0.00011552069
112	0x38f63c8d	0.000117414726
113	0x3938fa7b	0.00017640919
114	0xb9339b4d	-0.00017128624
115	0x39569a70	0.00020466163
116	0xb7784d46	-1.47999435e-05
117	0x382af3b0	4.075811e-05
118	0xb8c2d546	-9.290366e-05
119	0x39a44e60	0.00031338912
120	0xb9362b57	-0.00017373018
121	0xb8a32158	-7.7786564e-05
122	0xb8e10049	-0.00010728889
123	0x39d5227c	0.0004065222
124	0x376d1d10	1.4133067e-05
125	0x384b136d	4.8417063e-05
126	0xb95eac35	-0.00021235722
127	0x38adbbea	8.2842846e-05

exp_avg_sq f4 [128]
0	0x33b40fd1	8.38478e-08
1	0x343b30ad	1.743344e-07
2	0x315b9259	3.1951883e-09
3	0x34d146a6	3.8980687e-07
4	0x349200bd	2.7195156e-07
5	0x3174e3cb	3.5636158e-09
6	0x33996eb2	7.144753e-08
7	0x33f07cfc	1.11986054e-07
8	0x33a52f25	7.691987e-08
9	0x3387ada8	6.318015e-08
10	0x3313006a	3.422648e-08
11	0x350ea7f8	5.314355e-07
12	0x342be59f	1.6009152e-07
13	0x31a55c87	4.812651e-09
14	0x31a1f47b	4.713511e-09
15	0x35004e8d	4.779802e-07
16	0x3404d7dc	1.2371987e-07
17	0x32599e1b	1.2667011e-08
18	0x31f0f78f	7.0130635e-09
19	0x334a59c7	4.7113442e-08
20	0x33208d1b	3.7381238e-08
21	0x3414d78b	1.3861988e-07
22	0x3448d1b6	1.8702744e-07
23	0x336f986e	5.5785158e-08
24	0x33836ade	6.119602e-08
25	0x3454ebc1	1.9829805e-07
26	0x32a8d9b0	1.9656767e-08
27	0x34c8b517	3.7384663e-07
28	0x340fdf10	1.3399062e-07
29	0x32110b91	8.442741e-09
30	0x3218b6e6	8.889151e-09
31	0x319cd21b	4.5640838e-09
32	0x33b81000	8.571078e-08
33	0x3217a7fc	8.827552e-09
34	0x32933e27	1.7141316e-08
35	0x338a56f5	6.441943e-08
36	0x3210abb7	8.420947e-09
37	0x322fa401	1.0223631e-08
38	0x341f22b6	1.4820657e-07
39	0x34bbe992	3.500141e-07
40	0x3396093b	6.986598e-08
41	0x31f33b49	7.0789707e-09
42	0x341cb40e	1.4594136e-07
43	0x32223eb8	9.443902e-09
44	0x32d70814	2.5032968e-08
45	0x3221c0eb	9.415298e-09
46	0x33fc11c8	1.1737899e-07
47	0x33122341	3.4025337e-08
48	0x32eb1f47	2.7371824e-08
49	0x34069a42	1.2535841e-07
50	0x3445ddf6	1.8427804e-07
51	0x31ca4b66	5.8875456e-09
52	0x342d4f18	1.6140655e-07
53	0x3227c5fe	9.765698e-09
54	0x338eacc3	6.6438155e-08
55	0x3484a91a	2.4709954e-07
56	0x3212e8f7	8.551289e-09
57	0x33a83d14	7.83422e-08
58	0x3478b00a	2.3160842e-07
59	0x33723e25	5.6401536e-08
60	0x32e3b643	2.6509161e-08
61	0x32c520d2	2.2948743e-08
62	0x326b9efa	1.3714947e-08
63	0x320a2466	8.040933e-09
64	0x3153eae1	3.0838054e-09
65	0x32a632e5	1.9348088e-08
66	0x32d3c404	2.465277e-08
67	0x344a9252	1.8865947e-07
68	0x34112649	1.3518105e-07
69	0x350334d1	4.887816e-07
70	0x324fcd60	1.2095683e-08
71	0x3437f02c	1.7130577e-07
72	0x345c99a4	2.0544991e-07
73	0x337da2d8	5.905426e-08
74	0x32080948	7.918352e-09
75	0x32d46bf0	2.4729133e-08
76	0x326607ed	1.3389564e-08
77	0x34c53dcf	3.673908e-07
78	0x32b10ad5	2.0610438e-08
79	0x33c683e4	9.244084e-08
80	0x31c6034c	5.7629332e-09
81	0x340d6c32	1.317101e-07
82	0x31e112b3	6.5504877e-09
83	0x316dfae7	3.463066e-09
84	0x3401465b	1.2039656e-07
85	0x33995a96	7.141095e-08
86	0x343b4f35	1.7444547e-07
87	0x3224e8f4	9.599024e-09
88	0x3392fe64	6.844928e-08
89	0x33671cae	5.3809963e-08
90	0x338c5243	6.534221e-08
91	0x321e3fe3	9.211337e-09
92	0x3287e3c5	1.5819646e-08
93	0x319028c9	4.1955883e-09
94	0x34221e4c	1.5098448e-07
95	0x33d5914c	9.945015e-08
96	0x32769095	1.4351959e-08
97	0x33195f3c	3.5709704e-08
98	0x3208c058	7.959976e-09
99	0x33a9e867	7.9119495e-08
100	0x34107b4e	1.3455903e-07
101	0x32ca841b	2.357597e-08
102	0x333ab1da	4.3468255e-08
103	0x339c71d2	7.28502e-08
104	0x314817c5	2.9117342e-09
105	0x32315370	1.03217275e-08
106	0x33048adf	3.0859947e-08
107	0x314b5ccb	2.9593135e-09
108	0x31d24f78	6.120839e-09
109	0x335ddca2	5.1656237e-08
110	0x337eb376	5.9302202e-08
111	0x323d1966	1.1007023e-08
112	0x3230656f	1.0267612e-08
113	0x32c3a9e4	2.2778245e-08
114	0x33a6870b	7.7545415e-08
115	0x332c65c9	4.0139444e-08
116	0x320459ee	7.703859e-09
117	0x33466d55	4.6199904e-08
118	0x3346bd19	4.627245e-08
119	0x339e9a2f	7.385494e-08
120	0x33df7c5a	1.0406866e-07
121	0x32ce5c24	2.4023457e-08
122	0x3296e9f7	1.7568693e-08
123	0x34b48acc	3.36286e-07
124	0x31a6cc37	4.8544524e-09
125	0x3121f642	2.3568565e-09
126	0x344f1c67	1.928871e-07
127	0x331fa8c8	3.7173578e-08

exp_avg f4 [32, 128]
0	0xba46cc90	-0.0007583583
1	0x38743225	5.8220834e-05
2	0x3a7c7aee	0.0009631355
3	0x3a7cb0c9	0.000963938
4	0x3a87804c	0.0010337918
5	0x3a7ec60e	0.00097188435
6	0xba4b12e3	-0.000774665
7	0x39c2450e	0.00037054013
8	0x3a67adc8	0.0008837846
9	0x3a7bc012	0.0009603511
10	0xba57063f	-0.000820253
11	0xba3e61d7	-0.0007262504
12	0xba519e34	-0.00079962914
13	0x3a8479f0	0.0010107141
14	0x3a81cf67	0.000990373
15	0xba5b8dbc	-0.0008375307
16	0x39e0a781	0.0004284941
17	0xba3c2c38	-0.000717822
18	0xba42e860	-0.0007435139
19	0xba59d2fb	-0.00083093316
20	0xba3e31d4	-0.000725535
21	0x3a80a525	0.0009814842
22	0x3a6a705e	0.00089431356
23	0xb8c2ed27	-9.294814e-05
24	0xba597e87	-0.0008296747
25	0xba56fc68	-0.00082010636
26	0x3a587a7e	0.0008257999
27	0xb90781ee	-0.00012923006
28	0xb99b758b	-0.0002965148
29	0x3a81c762	0.000990134
30	0xba54e97f	-0.0008121952
31	0xba51ebe3	-0.0008007867
32	0x3a68ee8e	0.0008885645
33	0x3a7d3203	0.00096586364
34	0xba55190c	-0.00081290375
35	0x3a6b7282	0.00089816016
36	0x3a6a616e	0.000894091
37	0xba4f7d8f	-0.0007915133
38	0x3a79f871	0.0009535617
39	0xb92ec5f9	-0.00016667684
40	0xba5d8c5d	-0.0008451397
41	0x3a77084d	0.0009423539
42	0xba4eb62c	-0.0007885422
43	0xb9a9a24a	-0.00032355107
44	0xba4fb227	-0.000792297
45	0x3a7933f3	0.0009506337
46	0x3a5cc095	0.0008421031
47	0xba3bed4d	-0.00071688445
48	0x3a7ede51	0.0009722459
49	0x3a8694f7	0.0010267784
50	0xba17b92b	-0.0005787785
51	0x3a8052da	0.0009790317
52	0xba5f7979	-0.0008524876
53	0x3a7b1055	0.0009577324
54	0xba64131e	-0.00087003584
55	0x3a7e9715	0.0009711844
56	0xb94e82ad	-0.00019694371
57	0xba2e5c78	-0.0006651352
58	0x3a70304f	0.0009162472
59	0xb8bac792	-8.906344e-05
60	0xba5fd1e9	-0.0008538054
61	0xba38b5d7	-0.0007046139
62	0xba4c6a50	-0.0007797824
63	0xba3dc6e6	-0.0007239416
64	0x3a8d66f1	0.0010788125
65	0xba4f22a5	-0.0007901586
66	0x3a86e16a	0.0010290567
67	0x3a812395	0.0009852523
68	0x3a7bae9c	0.0009600909
69	0xb9c542ce	-0.0003762454
70	0xba500f44	-0.0007936845
71	0xba4272e2	-0.00074176316
72	0xba5f92a8	-0.00085286284
73	0xba506cb3	-0.0007950768
74	0x37bb58a0	2.2333406e-05
75	0xb9cf5c12	-0.00039550714
76	0x3a50430e	0.0007944562
77	0xba58c697	-0.0008269338
78	0xb95852ef	-0.0002063026
79	0xba4bb798	-0.0007771193
80	0x3a801104	0.0009770696
81	0xba6786f0	-0.0008832058
82	0xba5cfd53	-0.0008430082
83	0x3a81a39b	0.0009890677
84	0x3a7038d6	0.00091637427
85	0xba5b38c2	-0.00083626446
86	0xb980bc44	-0.0002455433
87	0xba5ad7a6	-0.0008348174
88	0xba428c3b	-0.00074214087
89	0x3a6d90b3	0.00090623944
90	0xba469a86	-0.00075761264
91	0x3a77cbf4	0.00094526936
92	0x3a7fa4d8	0.00097520417
93	0x3a753263	0.00093535165
94	0xba5a480e	-0.0008326777
95	0x3a9016e0	0.0010993145
96	0xba5faf37	-0.0008532884
97	0x388b4ca7	6.642314e-05
98	0x3a724f0a	0.0009243345
99	0x3a7c889f	0.0009633395
100	0xb833557a	-4.2756532e-05
101	0xba6e3990	-0.0009087557
102	0xba6d0582	-0.0009041653
103	0xba5113c2	-0.00079756614
104	0x3a7e3619	0.0009697392
105	0xba5081ab	-0.00079538923
106	0x3a88b70f	0.0010430532
107	0x39897905	0.00026220843
108	0xba5d21a9	-0.0008435497
109	0x3a70c8c7	0.00091851916
110	0x3a6487a4	0.0008717722
111	0x3a810f81	0.000984654
112	0x3a661826	0.0008777402
113	0xb9229abc	-0.00015507167
114	0xb9299252	-0.00016171605
115	0x38d96266	0.000103656945
116	0x3a91be4e	0.0011119337
117	0x3a81ef80	0.0009913296
118	0xba507dec	-0.0007953334
119	0x3a71efef	0.00092291733
120	0xba4c3c1d	-0.000779094
121	0xba532189	-0.00080540084
122	0x3a8041ae	0.0009785199
123	0x3a5c721c	0.00084093376
124	0x39c9644e	0.0003841244
125	0xba578fa7	-0.0008223005
126	0xb9775685	-0.00023587987
127	0xba595a58	-0.00082913553
128	0x39793458	0.0002376599
129	0xbabd2e1e	-0.00144333
130	0xbaa8aea5	-0.0012869431
131	0xba16fbe2	-0.00057595794
132	0x3945804e	0.00018835181
133	0xbaaf7390	-0.0013385881
134	0x395b28a2	0.00020900604
135	0xbae5dbb2	-0.0017536788
136	0x3a63b519	0.00086863484
137	0x3a1743b7	0.0005770283
138	0xbaae964c	-0.0013319938
139	0xbae1cee3	-0.0017227795
140	0xbab56ade	-0.0013841053
141	0xbacbfb9a	-0.0015562654
142	0xbab83da5	-0.0014056457
143	0x3a2447e2	0.0006266815
144	0xba8c1b18	-0.0010689227
145	0xb8167952	-3.5875775e-05
146	0xba710854	-0.00091946614
147	0xbaadbeac	-0.0013255677
148	0x38af3385	8.3542465e-05
149	0x39b1cd4d	0.00033913032
150	0x3a546e88	0.00081036286
151	0x39bf3210	0.00036467658
152	0xbaa3f656	-0.0012509327
153	0xb9b7841d	-0.00035002912
154	0x3944efa6	0.00018781293
155	0x39b6b97d	0.00034851945
156	0x39892f2b	0.0002616582
157	0x39d97be2	0.00041481765
158	0xbaa6c7a6	-0.0012724295
159	0x39fb0a05	0.00047881916
160	0x3a5479d8	0.00081053143
161	0x3a100ff2	0.000549554
162	0x39d7ad19	0.00041136963
163	0xba79946f	-0.00095207145
164	0xba85bc5d	-0.0010203231
165	0x39a79ae5	0.00031968128
166	0xbaa88136	-0.0012855891
167	0x3a0155b6	0.00049337314
168	0x3a166f0f	0.0005738595
169	0x3a129e1f	0.000559302
170	0x39cb3f56	0.00038766366
171	0x3a389ef7	0.00070427306
172	0xbabae83e	-0.0014259887
173	0x3a0e2a77	0.0005423198
174	0xba4caf5d	-0.00078081136
175	0x388cf551	6.721414e-05
176	0xbaa7f89b	-0.0012815179
177	0x3954a876	0.00020280652
178	0xbac37516	-0.0014912214
179	0x39dfd5d7	0.00042693198
180	0xba9778fe	-0.0011556444
181	0x3a0d2454	0.00053841365
182	0x3a2546e3	0.00063048134
183	0xbaaf2152	-0.0013361371
184	0xba9a3c7b	-0.0011767292
185	0xb933867c	-0.0001712087
186	0xba8ae676	-0.0010597247
187	0x39a16be7	0.00030788706
188	0x3a24db71	0.0006288803
189	0xbae5b5d0	-0.0017525498
190	0xbaba1bb4	-0.001419893
191	0x378c375c	1.671508e-05
192	0xb872d135	-5.7892135e-05
193	0xbabbc6aa	-0.0014326174
194	0x392ca251	0.00016463666
195	0xbabbb489	-0.0014320771
196	0x3a073c2a	0.00051588065
197	0x39f7dd03	0.00047276178
198	0x39c8f836	0.00038331904
199	0x392bfcfa	0.00016402072
200	0x3a288db8	0.0006429809
201	0xbab26eb7	-0.0013613318
202	0x399abdb7	0.00029514518
203	0x3a4bdaa0	0.0007776413
204	0x39c61df7	0.00037787828
205	0x3a09eef7	0.0005261744
206	0x3a10b8b1	0.0005520685
207	0x39d938be	0.00041431742
208	0xbaad02c0	-0.0013199672
209	0x3a3d33a9	0.0007217476
210	0x3a276a4f	0.00063863856
211	0x39b838bb	0.00035137482
212	0x3a3bb5ed	0.0007160593
213	0x3a1faad4	0.0006090824
214	0xbabcf1ee	-0.0014415362
215	0xbaa8db9b	-0.001288283
216	0x3910cade	0.00013808484
217	0x3a3f352e	0.0007293996
218	0xbaca23c5	-0.0015422037
219	0xba9ea5fd	-0.0012103912
220	0xba0ee883	-0.0005451517
221	0xba99b685	-0.0011727369
222	0xba9ddf56	-0.0012044709
223	0xb90e4688	-0.0001356845
224	0xba966a47	-0.0011475765
225	0xbabcac3c	-0.0014394592
226	0xba93b12d	-0.0011268012
227	0xbaaae844	-0.0013039191
228	0xbaab7310	-0.0013080556
229	0x3a64fd12	0.000873522
230	0x3a63561b	0.00086721935
231	0x39df9b93	0.00042649786
232	0x3a04fe48	0.0005073291
233	0xbab59cad	-0.0013855897
234	0x39112d23	0.00013845092
235	0x3a0cd764	0.0005372672
236	0xba961ec4	-0.0011453261
237	0xba8deb48	-0.0010827566
238	0xba6c717f	-0.0009019598
239	0xbaae32e5	-0.0013290314
240	0xba6e6653	-0.0009094227
241	0x39e2d7e1	0.0004326692
242	0x387f31ba	6.084305e-05
243	0xba8d1a5d	-0.0010765303
244	0xbafa4dd6	-0.0019096683
245	0x39d4d521	0.00040594584
246	0x39cfee1d	0.00039659525
247	0x3a2b9ca9	0.00065464765
248	0x39a719fe	0.00031872088
249	0x39ff7d7c	0.00048730883
250	0x39fc2c1f	0.00048098058
251	0x3a8df6fc	0.0010831053
252	0xbad3cbe9	-0.0016158792
253	0x3a04030a	0.0005035853
254	0xbae8c214	-0.0017758035
255	0xbaa4dde3	-0.0012578334
