our-vTR/10_fold_lightning_logs/dataset1/fold_1/version_4/checkpoints/epoch=14-step=524_fold1.ckpt (torch, 132433 bytes, 18 tensors)

conv1d.weight f4 [128, 4, 12]
000000 5b b0 a5 bd 37 1c 16 3e 44 9f b2 3d 08 e8 2d be
       -0.08090278 0.146592 0.08721784 -0.16983044
000010 b9 49 3c 3e 4a 19 38 3c 6c a7 82 3d 0a bf 40 be
       0.18387498 0.011236498 0.063795894 -0.18822876
000020 6c 87 6b be 1d dd 45 3e 78 78 42 3d a8 dd 3f bd
       -0.23000878 0.1932263 0.04747817 -0.046842247
000030 bc c1 e9 3d 68 e9 9d bd ab 70 d5 3d e6 26 99 bd
       0.11413905 -0.07710534 0.1042188 -0.074781224
000040 73 11 11 be f3 48 6e bc 87 98 45 3e 32 e1 fe 3d
       -0.14166813 -0.01454376 0.19296466 0.12445296
000050 45 80 ca bd 11 15 c3 3d 4e a1 02 be 4b 06 13 bd
       -0.09887747 0.095255025 -0.12756845 -0.035894673
000060 d1 d2 f6 bd 40 b2 c0 3d 44 5d cd bd e9 ee f7 3d
       -0.12051929 0.094089985 -0.10027555 0.12106115
000070 a4 05 b4 3d d5 01 47 be f6 6a b5 3d 9a ea c5 bd
       0.08790138 -0.19434293 0.08858292 -0.09663887
000080 94 ba 2d 3e 60 c9 a6 bd 8a ea 1d 3d b2 94 5b be
       0.16965705 -0.08143878 0.038553752 -0.21443442
000090 4d bf 5e 3d 5c 2e c0 3d 1b 05 50 be 1d 3f 0a be
       0.054381657 0.09383842 -0.20314448 -0.13500638
0000a0 a0 72 cb 3c 87 32 e0 bd 32 e8 ab bd 78 90 09 be
       0.02483493 -0.10947137 -0.08393897 -0.13434017
0000b0 19 9c 1b 3e 3d 48 5b be 3c bd 0c be e0 c6 59 3e
       0.15196265 -0.21414275 -0.13744062 0.21267271
0000c0 9e cd ec 3d 7f 47 b1 bd 31 e1 bf 3d 6a 59 ab 3d
       0.11562656 -0.08656215 0.09369124 0.08366664
0000d0 42 1e 84 3d c7 04 07 be da 6c 8e bd 4b 94 d6 3c
       0.06451084 -0.13185416 -0.069543555 0.026193758
0000e0 94 50 82 bd 27 a3 24 be b7 0a a1 3d 52 64 a7 bd
       -0.06363025 -0.16077863 0.07863372 -0.081734315
0000f0 16 14 30 3e 70 b4 b1 3d f1 8f 6d 3b b9 3a c1 bd
       0.17195162 0.08676994 0.0036249126 -0.094350286
000100 8b d7 04 3e 9e ad eb 3d ff 5e 20 be 11 a5 7e 3d
       0.12972848 0.11507724 -0.15661238 0.06216914
000110 dd e3 5d 3e 62 9f 2d be 8f ff a6 bd 3a a1 d7 bd
       0.21668954 -0.16955331 -0.08154213 -0.105287984
000120 71 c8 5b be 12 b1 22 bd 9a 29 fe bd 3b 48 17 be
       -0.21463181 -0.03971965 -0.124102786 -0.14773647
000130 92 02 9e bd e9 e9 56 be 50 14 07 3d d4 a6 c6 3d
       -0.07715334 -0.20987667 0.032978356 0.09699789
000140 38 f8 b0 3d 71 fb 84 be a9 fd d4 b9 b3 96 15 3e
       0.08641094 -0.25973085 -0.00040624783 0.14608268
000150 03 ff 58 be ee 68 e0 bc 69 dc 5c be 61 f8 15 3e
       -0.21191029 -0.027393784 -0.21568455 0.1464553
000160 65 97 09 be a6 18 0a 3e 2c 2c 34 be 08 8e 61 bd
       -0.13436659 0.13485965 -0.17594975 -0.055067092
000170 e7 9b 35 3d 54 44 fe 3d fe 14 15 be c1 8c b5 bd
       0.044338133 0.12415376 -0.14558789 -0.08864737
000180 04 43 8d bd 18 18 a1 bd 01 11 8a bc e7 c1 3d 3e
       -0.06897548 -0.07865924 -0.016853811 0.18530999
000190 e5 61 9b bd 01 ca 90 bd 37 35 d5 bd 5d e3 24 be
       -0.07587031 -0.07069779 -0.104105406 -0.16102357
0001a0 e0 f7 27 3d 6b 34 bf 3c 1b 8d d2 3d dc a4 33 be
       0.041007876 0.023340425 0.1028082 -0.17543358
0001b0 07 b1 ee bd 85 06 a1 3c 8f 71 fb 3d e6 51 1e be
       -0.11654859 0.019656429 0.12277519 -0.1546093
0001c0 9e d9 12 be 60 cc b9 bd 17 51 88 3e 68 ca 51 bc
       -0.14340827 -0.090721846 0.26624367 -0.012804605
0001d0 2d 96 ae bd be ff 3c be 39 20 93 be 2a 05 b7 3d
       -0.085247375 -0.18456933 -0.2873552 0.08936532
0001e0 69 13 9a 3d 39 b2 78 3d 96 3d f3 3d 4c 9a fa bd
       0.075232334 0.06071684 0.11876981 -0.12236461
0001f0 b3 02 e8 3d b6 46 1c 3e 07 76 a2 bd 87 54 3f bd
       0.1132864 0.15261349 -0.07932668 -0.04671147
000200 b3 62 89 3d a6 a6 87 3d 1d 83 a6 3d 9f 97 eb 3d
       0.067082785 0.066235825 0.081304766 0.11503529
000210 fc ef 24 3e c4 8b 92 be 60 4f 67 3c 25 00 60 be
       0.16107172 -0.28622258 0.014118046 -0.21875055
000220 89 ef 15 3e 81 90 87 be 6f 43 84 bd 24 34 bc 3d
       0.14642157 -0.26477435 -0.064581744 0.091896325
000230 a5 68 07 be ab be 8f bd 92 7f 80 bd 6b c8 11 be
       -0.13223512 -0.07018789 -0.06274332 -0.1423661
000240 cb 05 e4 bb fa 27 8a bd 10 a3 14 be d7 ce 8c bd
       -0.0069586984 -0.06745906 -0.14515328 -0.06875389
000250 31 9a 50 be 0c 3a 16 3e 5d b5 f8 bd 26 9a e5 bd
       -0.2037132 0.1467058 -0.12143967 -0.11211042
000260 bb 41 6f bd 7e 2d ba bd a2 19 d0 bc 36 e9 18 3e
       -0.058412295 -0.09090708 -0.025402848 0.14932713
000270 65 7d 1c be 69 68 b1 bc ed 20 90 3d 19 15 d2 bd
       -0.15282209 -0.021656232 0.0703753 -0.1025793
000280 7f ec d5 bd b0 24 50 be 31 71 61 bd 0b 78 4c 3d
       -0.10445499 -0.20326495 -0.05503959 0.04991917
000290 4e e5 0f 3e b9 b0 a0 3d e5 2c 2a 3d 02 06 a9 bd
       0.14052317 0.07846207 0.04154672 -0.08253099
0002a0 89 73 25 3d d2 92 9a 3d 74 08 b0 3d 19 b4 6a 3e
       0.040393386 0.07547535 0.08595362 0.22920264
0002b0 b3 bd 98 3d 92 24 f3 bb c9 6b 2a 3e 39 f6 55 3e
       0.07458057 -0.007420131 0.1664268 0.20894708
0002c0 5c e5 f1 3d de a0 84 3d d1 09 66 3c 9c f6 27 be
       0.11811325 0.064759955 0.014040426 -0.16402668
0002d0 d6 62 18 3e 44 5a 5a 3e 87 16 5c 3d 7a 4e 1d 3d
       0.14881453 0.21323496 0.05373242 0.03840492
0002e0 7d 25 9e 3c 0a 42 df bd 8d d9 69 be d4 d3 20 be
       0.019304985 -0.10901268 -0.22836895 -0.15705806
0002f0 5c 93 34 be b7 3d 24 3e f8 21 0b 3e 84 0f a5 3d
       -0.17634338 0.16039167 0.13587177 0.080596
000300 00 b0 2e 3d b0 3c 59 be 3d db 3f be 0a 3b ed 3d
       0.042648315 -0.21214557 -0.18735977 0.115835264
000310 7c df 1d bd bf c6 c9 bd 0f 61 3c 3e c2 ef 12 bd
       -0.03854321 -0.09852361 0.183964 -0.035873182
000320 35 7e 07 be 65 7d 01 3d b9 77 03 3d c3 fa 2a be
       -0.13231738 0.031613726 0.0320966 -0.1669722
000330 80 1f 09 bc c7 08 e6 3d ff 79 48 3e 3e 5f 2b bd
       -0.008369327 0.11232143 0.19577788 -0.041838877
000340 ad 97 72 3e f0 10 c0 3d 04 78 01 be 3b 83 5f be
       0.23690672 0.093782306 -0.12643439 -0.21827404
000350 88 7a dc bd 68 17 8a bd 9e a4 38 bd 08 bb d6 3c
       -0.107655585 -0.06742746 -0.045078866 0.02621223
000360 87 9d a0 3c 38 17 25 bd 00 0a d7 3d 76 da 83 bc
       0.019606365 -0.040305346 0.10499954 -0.016095381
000370 0e 8f f6 bd 59 5d 34 be 54 b5 2e be 38 f4 ab bd
       -0.12039004 -0.17613734 -0.17061359 -0.083961904
000380 d5 76 c2 3d 6c 6c 25 be 6f e6 57 3d 9f 29 de 3d
       0.09495322 -0.16154641 0.052709993 0.10847782
000390 17 a6 a3 3d 31 44 0a 3e 47 8c e6 bd dd dc 9f 3c
       0.079906635 0.13502575 -0.112572245 0.019514496
0003a0 e9 80 ed 3d 8c 4d e2 bb 1e b1 31 be af 03 04 3e
       0.11596853 -0.006906217 -0.17352721 0.1289203
0003b0 c5 a8 3d be a3 62 83 3e ee d0 3d 3e d5 5a 4a be
       -0.18521412 0.2566119 0.18536732 -0.19761212
0003c0 3e c8 2d bd 05 63 b7 3d 30 22 23 be 95 dc 06 be
       -0.042427294 0.08954433 -0.1593101 -0.13170083
0003d0 99 61 13 be 37 21 0b bd ec 0e 69 be 4e 87 25 3d
       -0.143927 -0.033967223 -0.22759598 0.04041224
0003e0 f4 37 1c be 44 3e af bd 09 e1 ef bd 6c da 5e bc
       -0.1525572 -0.08556798 -0.11712844 -0.0136018805
0003f0 e7 3a 42 be 12 d8 45 be 2d 14 95 bc 20 ba 49 be
       -0.18967782 -0.19320706 -0.018198097 -0.19699907

conv1d.bias f4 [128]
000000 7e 95 18 3d 91 54 42 bd bb b2 af bd 41 5e 54 bd
       0.03725194 -0.04744393 -0.08579012 -0.0518477
000010 f2 e0 ab 3d e6 c6 c0 3d b6 cb bd bd 72 61 06 3e
       0.08392514 0.09412937 -0.092673704 0.1312311
000020 d2 a2 67 3d 76 d2 e7 3c 60 a0 8c bb 1a b1 02 bd
       0.056551762 0.028298598 -0.004291579 -0.03190718
000030 20 67 a0 3d 8f a7 11 3e b9 6d 8a bc fa 20 d1 3d
       0.078321695 0.14224075 -0.016898023 0.10211368
000040 5a 65 98 3c 41 9d 93 bc 4d d4 dc 3d 72 3a 3e 3d
       0.018603016 -0.01801932 0.10782681 0.046442457
000050 80 14 10 3d 9d 4a ea bd 3b 39 a8 3d d1 81 aa 3c
       0.0351758 -0.114400126 0.08214041 0.020813854
000060 c0 dc 00 bd 65 5d 63 bc 87 95 25 3e cd 44 13 bd
       -0.031460524 -0.013877247 0.16170321 -0.035954285
000070 9a 10 b6 3c 42 7b 2f bd 54 eb 20 be ed d9 50 3d
       0.022224713 -0.042842157 -0.1571477 0.05098908
000080 74 76 ee bd 47 10 d7 3c 49 a8 9e ba 40 f0 9e 3c
       -0.11643687 0.026252879 -0.0012104596 0.01940167
000090 bc 71 33 bd c6 77 42 bd f8 66 a6 3d 01 6b 00 be
       -0.043809637 -0.047477506 0.081251085 -0.12540819
0000a0 66 a9 9c 3d 52 5e 80 bd 8f fb f4 3c ef ec d2 bd
       0.07649498 -0.0626799 0.029905109 -0.10299098
0000b0 a5 1d c9 bd b3 a9 e5 b6 9b 24 cb 3d d2 11 0b 3c
       -0.09820107 -6.8444874e-06 0.09919091 0.008488135
0000c0 ed 9f ca 3c 89 34 28 be 78 e8 3b bd 94 f3 d3 3d
       0.024734462 -0.1642629 -0.045875996 0.10349193
0000d0 85 85 3e 3d 28 38 bc 3d 14 f2 78 bd be 42 70 3c
       0.046514053 0.091903985 -0.06077774 0.01466435
0000e0 eb 9b a6 3d 6c 2d 39 be f6 94 25 3b fc 6c 1e be
       0.08135208 -0.18083733 0.002526579 -0.15471262
0000f0 40 f3 fe 3d cf 7c b0 bd 54 05 02 3d 2c 32 1a 3e
       0.1244874 -0.08617555 0.031743363 0.15058202
000100 aa d0 c7 3d 82 91 8b bc b9 a9 ae bd 8d f7 c4 bd
       0.097565964 -0.017037157 -0.08528466 -0.09617529
000110 34 a9 df bd 64 ed e2 bd 89 f5 78 bd 32 7d 80 bc
       -0.10920945 -0.11080435 -0.060781036 -0.015684698
000120 e2 10 1b bd dd cd a6 3d 1b e9 1e 3e 3e bc 9b 3d
       -0.037857898 0.08144734 0.1551861 0.07604264
000130 12 a1 96 3d fa ca 85 bd 3f a5 8c 3d f6 0b 01 3e
       0.073549405 -0.06532855 0.06867456 0.12602219
000140 28 a3 df bd 91 62 ca 3d 68 40 a8 3c 9e a3 f3 bc
       -0.109197915 0.09882081 0.020538524 -0.029741105
000150 90 c0 f6 bd 93 53 89 3d 7d af 9b bd 71 e1 3b be
       -0.12048447 0.06705394 -0.07601831 -0.18347718
000160 a9 23 c1 bd 62 4d 76 bd 13 75 aa bc 78 21 12 bc
       -0.0943063 -0.06013239 -0.020807778 -0.008919112
000170 b4 52 89 3c 30 3b d7 bc 0c 42 b5 bd 83 96 d0 bd
       0.016763069 -0.02627334 -0.08850488 -0.10184958
000180 f1 48 24 be b5 06 cf bc 85 bf e1 bd 62 cf b9 bd
       -0.1604345 -0.025271753 -0.110228576 -0.09072758
000190 b1 a9 38 be 0a 88 7b 3d 94 6b e8 bd e3 b8 ac bc
       -0.18033482 0.061409034 -0.11348644 -0.021084255
0001a0 9f b9 38 bc 3a 78 22 3d d5 0b 4c bd 13 d1 f1 bd
       -0.011274724 0.03966544 -0.04981597 -0.11807456
0001b0 fa 2b 31 3d dd 91 c4 bd d3 c5 e3 3d 9c e6 17 be
       0.04325483 -0.09598134 0.11121716 -0.14834064
0001c0 d6 67 2f bc e8 57 d2 bd e5 50 d7 3c 44 6e 46 bd
       -0.010705909 -0.10270673 0.02628369 -0.048445
0001d0 8b a2 b6 3c 6a 14 3b bd cc c6 e5 3b 16 67 d1 bd
       0.022294303 -0.045673765 0.007012224 -0.1022474
0001e0 70 99 b6 bd 1d 97 ee bd 4a e1 0a bd fd ff 1c be
       -0.08915985 -0.11649916 -0.03390626 -0.15332027
0001f0 a2 32 18 3e ed 9e 31 3d 04 ab 19 3e 82 82 96 3c
       0.14863065 0.043364454 0.15006644 0.018372778

linears.0.weight f4 [32, 128]
000000 e4 9f 96 bc df c1 7d bc 54 c4 5e bc 16 d1 3e bc
       -0.018386789 -0.015488117 -0.013596613 -0.01164653
000010 88 4a a7 bc 07 53 97 bc 41 6f 00 bd a9 c5 00 bb
       -0.020421281 -0.018472208 -0.0313561 -0.0019649065
000020 8e 90 76 3d 12 31 94 bc 14 19 1b bd ea 62 64 bc
       0.06019645 -0.018089805 -0.037865713 -0.013939599
000030 eb a8 fc ba 66 f3 8a bd 68 f5 05 bc 29 fb b4 3c
       -0.0019276416 -0.06784706 -0.008176185 0.022092419
000040 5a c8 66 3d 06 3f aa bc a6 3d 05 bc b3 b5 82 3c
       0.056343414 -0.020782005 -0.008132374 0.015955782
000050 d1 0a 11 3d 23 15 51 3c 08 78 0f 3d ab 1e 5b 3c
       0.035410706 0.012761387 0.03502658 0.013374011
000060 11 e3 67 ba 99 06 26 39 f1 ba 00 bd 49 28 8c bc
       -0.0008845786 0.00015833451 -0.03142828 -0.017109053
000070 17 80 46 3c 71 2e c5 36 18 58 3b 3b 28 9e 5a bc
       0.0121155 5.876464e-06 0.0028586444 -0.013343371
000080 82 43 c3 3b 16 da 40 bd 0a 4c 02 3d ac 43 11 3d
       0.0059589753 -0.047082983 0.031810798 0.035464928
000090 6e 45 69 bb ae 13 f3 3d fc ea b5 bc b0 50 8b 3d
       -0.0035594362 0.11868988 -0.022206776 0.06802499
0000a0 ac 76 8c 3d d4 02 18 3d f9 ea 9f 3d 47 a5 81 3c
       0.06858572 0.037112072 0.07808489 0.01582588
0000b0 e1 ae 98 3c 41 07 50 3b 19 ff f0 bc a4 65 ad bc
       0.018638076 0.0031742605 -0.029418515 -0.02116663
0000c0 34 ff 89 bc a4 24 02 3d 23 d8 13 bb 45 2f db bc
       -0.016845323 0.031773224 -0.0022559247 -0.026755938
0000d0 64 42 a2 3d 08 81 1c 3d 8d 5d 93 3b 82 3c 93 bc
       0.07922819 0.03820899 0.004497236 -0.017973188
0000e0 af a9 f8 bc 52 d2 02 3d 3a 28 ef ba 81 88 8c 3c
       -0.030354349 0.03193886 -0.0018246241 0.017154934
0000f0 ec 7f 08 bc 16 3d 3c 3e 32 10 95 bc de 6e 03 bd
       -0.00833128 0.18382677 -0.0181962 -0.032088153
000100 c2 7a a0 bc 60 45 38 3d 21 6a 5e 3d e3 85 04 3d
       -0.019589785 0.044988036 0.05430043 0.032354247
000110 30 67 7d 3a 57 2e 24 3b d5 d7 3f 3b a7 2b 76 bc
       0.000966656 0.0025052035 0.0029272933 -0.015025056
000120 eb f9 e8 bc ca b2 1d bd a7 e0 47 bc 82 a5 81 3d
       -0.028439483 -0.038500585 -0.012199557 0.06330396
000130 69 37 02 bc 46 58 01 bb db 1a 51 3d 8b ec 42 3b
       -0.007947781 -0.0019736453 0.051051002 0.0029743041
000140 f8 99 3f bb f3 37 94 3d 59 c7 df 3b b8 5e f8 bc
       -0.002923606 0.07237234 0.006829184 -0.030318603
000150 de ea 95 bc f1 5d 78 3d c0 11 43 3d f6 b0 d0 3c
       -0.01830047 0.060636465 0.04762435 0.025475007
000160 ef 48 43 39 12 1f 2f 3d ab d4 3c 3d c5 69 cb bc
       0.00018623819 0.04275424 0.046101253 -0.024830708
000170 dc cc 0b 3d 2b 18 5c bd d9 96 b8 3c 5d c8 ed 3d
       0.034130916 -0.053733986 0.022532867 0.11610482
000180 3c d1 7b 3c 6a 4d 9e b9 ef 54 71 bd fa 5f 8f 3d
       0.01536971 -0.00030193786 -0.05891889 0.07000728
000190 51 16 a4 3d 10 4e 4e bd f6 7d 00 bc 8e c5 bb 3c
       0.08012069 -0.050367415 -0.007842531 0.02292135
0001a0 c1 95 8c 3b 17 98 4a bd 53 19 fc bc 3e d4 86 3b
       0.004290313 -0.04946145 -0.030773794 0.0041146567
0001b0 da 39 b5 3c 9d 82 a4 3c ab 6d f8 3a d8 ca e3 bc
       0.022122312 0.020081813 0.0018953582 -0.027806684
0001c0 07 b3 67 3c 5b fc 92 3d 5d d4 98 3d 35 0a ed bb
       0.014141805 0.07177039 0.0746238 -0.007233883
0001d0 cb d3 de 3a 04 66 21 3d 96 08 39 ba 74 ff fa bc
       0.0017000375 0.03940393 -0.00070584693 -0.030639388
0001e0 cf c8 40 bd 87 70 01 bd 72 56 10 bc db b0 8b 3d
       -0.047066506 -0.031601455 -0.008809673 0.06820842
0001f0 10 5b 2c bd 9c de 83 3b 65 15 1f bc 28 2f 77 3d
       -0.04207903 0.00402434 -0.009709691 0.060347706
000200 7b 21 7a bc 89 d4 3e bc 7c 8f 2c bc 70 c2 11 bc
       -0.015266771 -0.011647352 -0.010532256 -0.008896455
000210 41 1a 99 bc ca a1 89 bc 00 4d e1 bc 1c 26 cb bc
       -0.018689277 -0.01680078 -0.027502537 -0.024798445
000220 cf ed 3b 3d a0 0b 15 bd aa f3 b8 bd 21 11 ad ba
       0.04588109 -0.03638804 -0.0903085 -0.0013203957
000230 d7 ef 3f ba 46 d9 88 bd 17 17 ed bb 6b 3f 0d 3b
       -0.00073218107 -0.066820666 -0.0072354185 0.0021552693
000240 6a d4 06 3d 1f 97 8a bc 80 5e bb bb 7d 6f 17 3d
       0.032917418 -0.016917763 -0.0057180524 0.036971558
000250 91 30 97 3d 67 c3 ca 3c a1 16 38 3d de f6 4b 3d
       0.0738231 0.024751378 0.044943456 0.049795978
000260 c0 09 1d ba 6a 3b c9 37 38 ac 3f bd 57 bb ba bc
       -0.00059905276 2.3988734e-05 -0.0467951 -0.022794409
000270 c0 7e 1a 3d f2 5a d9 38 37 cd b1 3b 9b 46 2d bc
       0.037718534 0.00010364306 0.005426075 -0.010575916
000280 07 51 86 3b 97 02 37 bd d4 e6 89 3c 19 f9 04 3c
       0.0040990147 -0.044680204 0.0168337 0.00811603
000290 1c 34 37 bb e1 46 b2 3d ba f8 a8 bc dc f2 85 3d
       -0.0027954644 0.08704925 -0.020626415 0.065404624
0002a0 ca b2 8c 3c e4 96 09 3d 68 b1 48 3d 0a a7 61 3c
       0.017175097 0.033591166 0.048997313 0.013772735
0002b0 96 86 83 3c 55 47 30 3b af ca f6 bc e8 0b 9d bc
       0.016055387 0.0026897986 -0.030125944 -0.019170716
0002c0 5c b0 d0 bb b2 bb 3b 3d ff 3d ed ba e9 f2 bf bc
       -0.00636868 0.045833297 -0.0018100141 -0.023431258
0002d0 69 74 61 3d e5 f4 e8 3b b0 99 6c 3b d4 17 82 bc
       0.055042658 0.007109272 0.0036102347 -0.015880503
0002e0 d0 4c d4 bc af 1a ea 3c 1f d0 c5 ba a1 96 56 3c
       -0.025915533 0.028577177 -0.0015091932 0.013097436
0002f0 aa a3 de bb 34 c8 35 3e 6c 0d 91 bc ca 9e b0 bb
       -0.0067944126 0.17752153 -0.017706595 -0.005390023
000300 09 3a 8c bc 10 b0 63 3d d2 24 0b 3d 47 cc cb 3b
       -0.017117517 0.05558783 0.03397066 0.00621942
000310 87 f4 86 3a 53 ad 00 3b e9 f7 36 3b a7 cd 5c bc
       0.0010296263 0.001963456 0.0027918762 -0.013476766
000320 a9 2a d5 bc 01 bc cc bb 16 5e 44 bc ee 4a 2c 3d
       -0.026021319 -0.0062479977 -0.011985322 0.042063646
000330 1c 56 e8 bb 8b ac d1 ba 3f 23 3c 3d 79 ab 0b 3c
       -0.007090343 -0.0015996856 0.04593205 0.008524769
000340 ea 75 1a bb 68 92 8d 3d 88 b9 bb 3b dc af 0a bc
       -0.0023568817 0.069126904 0.005728904 -0.00846478
000350 fb 48 71 bc 82 53 77 3d 45 22 bf 3d 2d b5 b3 3c
       -0.014726873 0.060382374 0.09332708 0.021936977
000360 80 a0 70 39 cb 43 26 3d a1 b8 d4 3c c0 a2 26 bc
       0.00022947975 0.040591996 0.025966944 -0.010170639
000370 61 a2 76 3d 6d 67 3c bc 40 dd bb 3c 3b e6 ea 3d
       0.06021345 -0.011499268 0.022932649 0.11469694
000380 2d 48 e2 3a 49 e4 3c b9 2f 00 9d bd 4f 86 84 3d
       0.0017263942 -0.0001801412 -0.07666051 0.0647093
000390 2b 5b 99 3d 97 7c 92 bc fa f8 df bb 80 a1 a5 3c
       0.07488092 -0.017881675 -0.0068351002 0.02021861
0003a0 28 91 27 3c e6 50 b1 bd 79 67 cf bc 36 2e 50 3b
       0.010227479 -0.08658008 -0.025317894 0.0031765825
0003b0 93 41 a2 3c 65 b1 85 3c db ee c3 3a f0 7c 96 bc
       0.019806659 0.01631994 0.0014948504 -0.018370122
0003c0 e8 74 4e 3c 89 dc 88 3d 19 61 c1 3c 42 c4 cb bb
       0.012601115 0.06682689 0.02360587 -0.006218464
0003d0 cb 79 c0 3a af 61 4d 3d 7d 69 00 ba b0 94 ee bc
       0.0014684735 0.050141986 -0.00048985315 -0.029123634
0003e0 43 f9 3a bd e8 89 e9 bc ad 91 ef bb 77 ef 4c 3d
       -0.04564787 -0.028508142 -0.007311067 0.05003306
0003f0 8d 6f 8e bc 57 36 64 3b 39 42 ff bb f0 61 b1 3c
       -0.017387176 0.0034822428 -0.007789877 0.021653146

linears.0.bias f4 [32]
000000 84 88 e8 bc 17 32 9b 39 b1 eb df 38 49 62 3e b9
       -0.028385408 0.00029601224 0.000106773696 -0.00018156426
000010 43 e6 01 39 7d c4 a0 b6 ac d2 16 39 f9 48 7b 3b
       0.00012388178 -4.791246e-06 0.00014383596 0.0038343056
000020 12 c4 5c bc f0 ea b9 37 8f ad 1c 39 c4 09 db 3c
       -0.013474481 2.216312e-05 0.00014941975 0.026738055
000030 d5 d6 4e b9 2d 9d e7 b6 05 d1 36 b8 3f c1 4b b8
       -0.00019725722 -6.902634e-06 -4.3586846e-05 -4.8578946e-05
000040 72 1a ad 38 29 e7 fa 3b 19 4d 10 3c ac d0 da b8
       8.254209e-05 0.007656951 0.008807444 -0.00010433918
000050 67 1b 2b 39 ee 16 66 b8 35 9c 93 b8 32 42 2f 39
       0.00016318039 -5.4857628e-05 -7.038602e-05 0.0001671396
000060 90 a5 cf 38 75 a6 22 bd dc a5 09 b7 54 9b 20 37
       9.9013676e-05 -0.039709527 -8.2044535e-06 9.572908e-06
000070 91 ef ec b5 8b 89 39 b9 20 4f 32 b8 8b 26 f1 37
       -1.7653093e-06 -0.00017694214 -4.2512198e-05 2.8747387e-05

linears.2.weight f4 [2, 32]
000000 ff 03 60 be c1 41 8b be 55 72 49 b9 3a 68 1e b9
       -0.21876524 -0.27198604 -0.00019211446 -0.00015106882
000010 db 54 f9 b7 ac 59 90 be 07 a8 6f b8 a0 dd 53 3e
       -2.9722627e-05 -0.28193414 -5.7138528e-05 0.20690012
000020 0f 87 d0 be 7d b7 00 38 c0 a2 cc b8 ad f8 d2 3e
       -0.40728042 3.0688465e-05 -9.7577926e-05 0.4120535
000030 40 b6 94 38 fe 7d dd 36 1d de 18 b9 5e 6c 6d b7
       7.091137e-05 6.6009807e-06 -0.00014578593 -1.4151532e-05
000040 95 df 1e b9 ef d3 7c 3e d6 de 40 3e ab e2 00 b9
       -0.00015151345 0.24690221 0.18835005 -0.00012291472
000050 d9 e9 19 38 8d bb af b8 8c d4 bf 38 1d d0 56 be
       3.669583e-05 -8.379584e-05 9.14718e-05 -0.20977826
000060 50 ee d9 37 bd 9f a5 be 60 5a ed b7 a2 74 8f be
       2.5979389e-05 -0.32348433 -2.8294686e-05 -0.2801867
000070 ec 36 9c 38 d4 d0 d8 b8 d0 48 3d b9 af dc 91 39
       7.44889e-05 -0.0001033858 -0.0001805157 0.00027820977
000080 27 7e 73 3e 7d 54 19 3e 4f 7c 45 38 8f d2 24 39
       0.23778592 0.14973636 4.708423e-05 0.00015718698
000090 5f d8 8d 38 1b 95 84 3e 73 b6 90 38 47 67 8c be
       6.763706e-05 0.25895008 6.900439e-05 -0.27422544
0000a0 11 7e bf 3e 5d 19 96 b9 ad e0 41 b8 ba f8 e5 be
       0.3740087 -0.00028629127 -4.622403e-05 -0.44916326
0000b0 c6 f6 55 37 bd 3c af 37 bf 9c 71 38 da ed 10 39
       1.2753246e-05 2.088991e-05 5.760486e-05 0.00013821517
0000c0 55 5b 76 37 ec e5 9b be 2b 46 7e be 85 46 eb b8
       1.46840075e-05 -0.30448854 -0.24831454 -0.000112188085
0000d0 89 96 09 b7 6a 4e 24 39 ab 22 03 b9 b5 eb 71 3e
       -8.2008855e-06 0.0001566947 -0.00012506048 0.23625071
0000e0 97 30 e2 b6 d0 e8 41 3e 37 2f 42 b9 f5 45 88 3e
       -6.7409815e-06 0.18936467 -0.0001851887 0.26615873
0000f0 e7 cd 42 38 6d 48 3e 37 c7 cf 18 b8 35 76 59 b8
       4.6444966e-05 1.1341745e-05 -3.643313e-05 -5.184692e-05

linears.2.bias f4 [2]
000000 e4 8b 7d 3b 17 f3 d0 bd
       0.0038688118 -0.10202616

exp_avg f4 [128, 4, 12]
000000 fb 31 d4 b9 d1 a1 86 ba 76 ab 88 3a d4 c7 d1 b9
       -0.0004047303 -0.0010271614 0.0010427076 -0.0004001247
000010 6d 9e e5 39 06 fc bc ba 51 72 a7 ba 19 f0 12 36
       0.0004379632 -0.001441837 -0.0012775158 2.189545e-06
000020 db 5b f6 37 5d 95 85 ba 32 07 82 3a 5d 81 35 3b
       2.9368259e-05 -0.0010191608 0.0009920357 0.0027695515
000030 5b 78 3c 3a 57 d5 f8 b9 4d 9a fe 37 80 91 e9 ba
       0.0007189565 -0.00047461197 3.0351011e-05 -0.0017819852
000040 be 28 3e b8 f2 a3 24 3b a4 3a e6 ba aa b8 94 3a
       -4.5337474e-05 0.0025122133 -0.0017565084 0.0011346538
000050 57 39 d2 3a 15 d3 80 3a 9a 63 b5 b9 5f c7 9d 39
       0.0016038817 0.0009828532 -0.0003459722 0.00030093917
000060 86 29 b5 3a e7 75 fb 3a 62 2d c6 ba 56 31 22 3b
       0.0013821579 0.0019184918 -0.0015119726 0.0024748645
000070 2e 15 91 3a 1b d1 cb 39 7f 3c 30 3b 9b 84 38 ba
       0.0011068934 0.00038874973 0.0026891527 -0.0007038803
000080 3a f3 a2 ba 07 fb 4f 38 07 d4 84 ba 48 4e 27 3a
       -0.0012432106 4.9586433e-05 -0.001013399 0.0006382209
000090 33 59 de ba 11 7b da b9 08 1e e6 39 e0 7c 99 b9
       -0.0016963839 -0.00041671892 0.00043891394 -0.00029275473
0000a0 84 8b c4 ba 22 40 bf ba d7 cf b4 39 5a ff e2 b9
       -0.0014995192 -0.0014591257 0.00034487128 -0.0004329633
0000b0 2b 7e cc b9 76 c8 5e b7 ee 96 c0 39 dc 0d 73 bb
       -0.00039003915 -1.3278905e-05 0.00036733545 -0.0037087118
0000c0 f4 89 65 bb a5 7a b5 b9 73 36 d9 ba a7 df ab 3a
       -0.0035024853 -0.00034614388 -0.0016572013 0.0013112918
0000d0 ee 65 21 bb 65 30 a1 b9 09 5f 0e 3b 02 61 ad 38
       -0.0024627405 -0.0003074437 0.0021724126 8.267352e-05
0000e0 66 22 b6 b9 66 99 44 ba ab 95 c6 ba 1e 11 c5 b9
       -0.00034739374 -0.0007499665 -0.0015150806 -0.0003758752
0000f0 fc 97 34 3b af 37 de ba 94 54 3f 3b db 20 2e b8
       0.002755641 -0.0016953851 0.00291947 -4.151543e-05
000100 e8 56 ad ba 20 78 ca 39 f7 b2 fe ba 62 5c 08 ba
       -0.0013224753 0.00038617942 -0.0019431998 -0.00052017544
000110 53 65 c8 3a 3c b7 8a 3a a7 4a 2c 3b 56 70 68 3b
       0.0015288986 0.0010583173 0.0026289613 0.0035467348
000120 73 20 99 39 68 0c 03 bb e3 09 96 ba 25 1e 05 38
       0.0002920661 -0.0019996408 -0.0011447038 3.1737745e-05
000130 a2 0b 87 3b 03 0f 76 39 e5 02 26 b9 da f8 55 bb
       0.00412126 0.0002346598 -0.00015832072 -0.0032649548
000140 c2 be 87 bb d2 10 a2 3a 43 18 f5 ba e2 8a 2d bb
       -0.004142613 0.0012364632 -0.0018699247 -0.0026480486
000150 53 6f ee 39 ca 6b 84 3b 36 8d f6 b8 92 97 aa ba
       0.0004547784 0.00404117 -0.00011756497 -0.0013015142
000160 12 2f b0 b9 3b 4f a4 b9 e9 ab 94 b8 ea a4 72 3b
       -0.00033604406 -0.0003133955 -7.089211e-05 0.0037024566
000170 27 0f 42 3b 5d 7b ca ba 46 31 46 3a 40 0d 09 ba
       0.0029611082 -0.0015448142 0.0007560443 -0.00052281097
000180 58 a6 3b 39 ad cb de ba c1 0f d3 3b 18 be 21 bb
       0.00017895678 -0.0016997956 0.006441087 -0.0024679955
000190 7a 01 a3 ba e2 04 be ba 02 83 a7 38 72 8b 93 38
       -0.0012436353 -0.0014497305 7.987583e-05 7.03548e-05
0001a0 13 02 1e bb 53 09 d8 b9 f6 c0 3e 3b b7 45 b4 b9
       -0.0024110123 -0.00041205678 0.0029106713 -0.00034384217
0001b0 e4 75 cd b8 69 c8 5a bb 85 b2 87 ba 07 27 3d 3b
       -9.7971206e-05 -0.0033383614 -0.0010352886 0.0028862373
0001c0 a1 96 4c 38 a3 e7 7f ba e9 ae 84 3a 77 61 f6 39
       4.8777674e-05 -0.00097619946 0.0010122928 0.00046993393
0001d0 33 93 48 ba a9 06 c4 ba 3b bb 48 39 41 8e 1e bb
       -0.0007651329 -0.0014955598 0.00019143235 -0.0024193677
0001e0 70 3b 82 3b 59 62 a8 3b 63 c2 86 bb 62 a2 d0 b9
       0.0039743707 0.005138677 -0.004112528 -0.00039793836
0001f0 fc fc 77 3b 43 29 16 3b 36 44 3a ba 78 e6 09 39
       0.003784 0.0022912777 -0.0007105501 0.00013151194
000200 23 62 de ba 8f f8 23 b9 79 71 19 bb 9c 04 5e 3b
       -0.0016966503 -0.00015637487 -0.0023413582 0.003387726
000210 cb e2 84 bb 23 ce d2 b8 f4 82 a9 ba 1f 51 aa b7
       -0.004055356 -0.00010051976 -0.0012932704 -2.0303354e-05
000220 9b ae 29 bb 5d 31 0d 39 fb 13 c8 b9 bf 1b 30 ba
       -0.0025891426 0.00013465197 -0.0003816186 -0.00067180017
000230 f8 ab 9f 3b 07 44 07 3b c2 6c 47 ba 8d b6 23 ba
       0.004872795 0.0020639913 -0.0007607454 -0.0006245159
000240 bc a5 3e 39 cf 49 d0 38 c8 9f 50 3b b3 39 09 39
       0.00018181553 9.931961e-05 0.0031833518 0.00013086833
000250 d0 1c df 38 22 79 d2 ba 40 ac cc b9 20 20 70 b8
       0.000106388354 -0.0016057829 -0.00039038248 -5.7250378e-05
000260 c5 b1 c5 3a 0c 16 c2 b9 1a 72 63 ba 34 49 9f bb
       0.0015082887 -0.0003701899 -0.0008676365 -0.0048610214
000270 da 7a b3 39 0a 4a 5b ba db 1e b5 ba de 96 7c b9
       0.00034233072 -0.00083652197 -0.00138184 -0.00024088795
000280 e0 b3 f6 ba 2f 19 48 3a 94 f1 cd b9 a4 95 ea ba
       -0.0018821917 0.0007633147 -0.00039280637 -0.001789738
000290 21 cf 03 3b 3b d9 68 38 53 72 0c b9 da aa 21 b9
       0.0020112472 5.5515422e-05 -0.0001339403 -0.00015417804
0002a0 b5 02 8d 3a 78 94 06 3b ec 2f cf ba 5f 9b a1 3a
       0.0010758253 0.0020535272 -0.0015807129 0.0012329629
0002b0 85 ea 31 3b 72 2e 55 3a aa e0 4c 3a c3 34 c9 3a
       0.0027147841 0.0008132226 0.000781546 0.0015350807
0002c0 d8 89 5f bb 34 53 48 3a db ee b3 3a 87 c3 5f b8
       -0.003410926 0.0007641793 0.0013727801 -5.3349442e-05
0002d0 23 b6 d1 ba 88 88 ac ba 32 86 67 b9 bb 2f 93 ba
       -0.0015999716 -0.0013163248 -0.00022079868 -0.0011229435
0002e0 ec 25 76 ba 4a 54 f5 37 f5 80 dc 35 89 87 a3 39
       -0.0009389806 2.9245526e-05 1.6428809e-06 0.00031190764
0002f0 6f c5 e3 b8 90 ab eb b9 04 9e c2 b9 12 16 a6 3b
       -0.00010860978 -0.00044950517 -0.00037120294 0.005068549
000300 24 af d3 ba 66 89 9b b8 6e da ff 37 20 18 82 ba
       -0.0016150218 -7.4165684e-05 3.0500083e-05 -0.0009925403
000310 9b ef 05 39 ef 41 39 ba aa da 3b bb 20 47 dc 37
       0.00012773128 -0.0007067015 -0.002866427 2.6259164e-05
000320 06 04 d0 ba 71 86 87 ba 62 28 0a b6 40 c2 8b 39
       -0.001587034 -0.0010339749 -2.0587108e-06 0.00026656874
000330 04 7d 24 3b 49 c4 5b bb 80 76 a0 3a 79 49 3f 39
       0.002509893 -0.0033533743 0.0012242347 0.0001824255
000340 aa 99 76 3a 02 17 cc 3a e5 cf 46 3b 0c 33 38 b8
       0.0009407053 0.0015570822 0.0030336317 -4.391656e-05
000350 c1 c2 a1 39 54 fa 0d 3a d6 75 c4 39 8e 9e 03 3b
       0.00030853416 0.0005416025 0.00037471828 0.002008352
000360 0e a1 e5 3a b3 bd 22 3b 72 52 5a ba 9d b7 11 b8
       0.0017519312 0.0024832308 -0.00083283253 -3.4741697e-05
000370 b6 25 df b7 76 13 89 3a 46 b4 e5 b9 41 55 4f 3a
       -2.6601232e-05 0.001045807 -0.00043812598 0.0007909127
000380 f0 b6 c5 3a 99 fd a4 39 37 47 db ba 24 dd 07 bb
       0.0015084427 0.00031469463 -0.0016729598 -0.0020731175
000390 fa 75 2d bb 85 8b 77 3a c4 32 dd b9 5f 79 5d 3a
       -0.0026468025 0.0009443092 -0.00042190228 0.00084485667
0003a0 32 8e 88 ba 83 89 f8 ba 7d 0a 8e 39 4c b4 4a ba
       -0.0010418354 -0.001896188 0.00027092165 -0.0007732555
0003b0 db 1c 71 b9 0e 4f 3a 39 d6 6e aa 3a 10 9b 53 b9
       -0.000229943 0.00017767792 0.0013003002 -0.00020180293
0003c0 f8 36 1d ba e5 12 8b bb 01 7c 60 39 78 96 fb 39
       -0.00059972657 -0.0042441958 0.000214085 0.0004798656
0003d0 9a fa 6a b9 3e 8b 3a 38 2f 43 88 39 60 5b e9 ba
       -0.00022409335 4.4475535e-05 0.00025989997 -0.0017803721
0003e0 9f 33 43 b9 99 97 9e ba 66 12 a8 39 ae 52 f9 39
       -0.0001861588 -0.0012099623 0.00032057165 0.00047554582
0003f0 df e2 82 37 07 da f3 38 58 ab 1d ba f1 7c 06 3b
       1.5602853e-05 0.00011627754 -0.0006014607 0.0020521248

exp_avg_sq f4 [128, 4, 12]
000000 a1 be e5 35 b4 f5 ee 36 7d 09 00 37 a6 e3 1f 35
       1.711731e-06 7.1215563e-06 7.631604e-06 5.956339e-07
000010 15 e6 12 37 4c 73 0d 37 f1 4e 57 36 e5 8c 84 35
       8.755848e-06 8.4311e-06 3.2083447e-06 9.875772e-07
000020 64 f2 6e 35 27 8c 2d 37 f1 c4 04 37 6a 9b 81 36
       8.9014634e-07 1.0344235e-05 7.913667e-06 3.862592e-06
000030 4c 0c fc 36 7c db 3b 36 65 bb 23 37 cc fb 4d 36
       7.511617e-06 2.7992928e-06 9.759188e-06 3.0693946e-06
000040 6b 23 55 35 51 c3 3e 37 14 70 b7 36 58 03 ec 36
       7.9400223e-07 1.1370358e-05 5.4668726e-06 7.0337373e-06
000050 57 4f 23 36 1b 37 12 37 91 42 fd 36 01 a7 6a 36
       2.4335075e-06 8.715108e-06 7.547737e-06 3.4965926e-06
000060 e3 77 21 36 37 70 98 36 67 da 53 36 a6 46 97 36
       2.4060653e-06 4.5430165e-06 3.1568577e-06 4.5083752e-06
000070 86 e3 d8 36 89 b4 16 36 ea b0 98 36 41 ac 83 36
       6.463789e-06 2.2456827e-06 4.5505485e-06 3.924157e-06
000080 41 99 ee 36 42 21 12 36 5d f9 23 37 b5 17 31 35
       7.110794e-06 2.1775054e-06 9.7736165e-06 6.5972137e-07
000090 d9 7e 96 36 f1 c6 e5 36 28 34 ef 34 cd 50 5d 35
       4.4851154e-06 6.8478917e-06 4.4555168e-07 8.2446496e-07
0000a0 78 71 3a 36 db 08 42 36 dc 87 27 35 9b 7d 81 36
       2.7782207e-06 2.8913407e-06 6.241005e-07 3.859122e-06
0000b0 64 74 f4 36 2d be 5b 34 02 90 e8 35 a2 7f e5 36
       7.2853163e-06 2.046515e-07 1.7327259e-06 6.8395902e-06
0000c0 46 86 7f 37 8e 06 06 37 13 85 9d 37 3e f5 3d 37
       1.5230447e-05 7.9885485e-06 1.8777826e-05 1.1322378e-05
0000d0 97 f4 5c 37 c0 d5 90 35 52 e3 ed 36 64 49 4c 37
       1.316997e-05 1.0791045e-06 7.089614e-06 1.2176435e-05
0000e0 3d 4a 2d 35 f4 d0 04 36 33 88 b5 37 fa 72 54 36
       6.4555553e-07 1.979116e-06 2.1640304e-05 3.1657387e-06
0000f0 41 06 8e 37 d2 77 78 37 43 0c ec 37 16 c0 38 37
       1.6930631e-05 1.480985e-05 2.8139102e-05 1.1011978e-05
000100 ff 06 a8 37 a2 54 7e 37 cb 9f 28 37 f3 c6 99 37
       2.0030418e-05 1.5159285e-05 1.0050785e-05 1.8331664e-05
000110 dd 67 6e 37 48 bf c4 36 89 87 68 37 2e 6a 8c 37
       1.4210088e-05 5.8635233e-06 1.3859834e-05 1.6738744e-05
000120 7f 27 c6 34 c7 1d de 36 d0 59 77 37 53 9b 9f 35
       3.690911e-07 6.619582e-06 1.4743258e-05 1.1891628e-06
000130 39 2a fa 36 85 21 9b 35 e0 2b 72 37 38 8e 72 37
       7.455496e-06 1.1558155e-06 1.44345395e-05 1.4457437e-05
000140 5f b5 27 37 ae 12 0a 36 9d 00 59 37 19 e6 98 37
       9.996204e-06 2.0574475e-06 1.2934351e-05 1.822696e-05
000150 38 89 31 35 23 ce 26 37 98 5a 14 36 38 4b 97 37
       6.613732e-07 9.942366e-06 2.210645e-06 1.803563e-05
000160 c8 c4 0a 36 61 ea 7e 37 42 7c 79 36 2b 0d 04 37
       2.0678144e-06 1.519415e-05 3.717622e-06 7.870879e-06
000170 94 a1 6d 36 b2 98 f0 36 b4 63 00 37 d2 f9 21 36
       3.5409803e-06 7.1703334e-06 7.6526085e-06 2.4136284e-06
000180 a0 07 79 36 cd b8 00 37 21 e9 33 37 76 a1 40 37
       3.710833e-06 7.672422e-06 1.0723511e-05 1.1481685e-05
000190 62 3b dc 35 36 a8 4c 37 c5 e6 e7 35 3c cd 91 36
       1.640856e-06 1.2198512e-05 1.7278004e-06 4.345229e-06
0001a0 87 05 94 37 78 7b 9d 37 d2 3d b6 37 f7 d0 96 35
       1.7645549e-05 1.8773353e-05 2.1724878e-05 1.1236688e-06
0001b0 ed a6 6c 37 54 81 98 37 39 fb b0 37 68 e1 83 36
       1.4105562e-05 1.8180035e-05 2.109782e-05 3.930345e-06
0001c0 72 90 96 35 28 89 b9 36 8b ee 0a 37 c0 96 7c 37
       1.121791e-06 5.5293967e-06 8.280981e-06 1.505547e-05
0001d0 37 77 c0 36 e7 8c 44 36 cc 9c 11 35 16 2f 74 37
       5.7359243e-06 2.9288292e-06 5.424488e-07 1.4554496e-05
0001e0 eb 2b eb 37 85 22 a5 37 55 90 9d 37 12 22 ce 36
       2.8034634e-05 1.9685607e-05 1.8783068e-05 6.1432447e-06
0001f0 82 7c b9 37 9b ac 8b 37 28 75 ba 36 da 6f 02 37
       2.2111697e-05 1.6650467e-05 5.5568707e-06 7.774646e-06
000200 ce a8 cb 37 76 3d a2 37 02 c8 d8 37 dd f0 93 37
       2.4278092e-05 1.9340525e-05 2.5842342e-05 1.7635926e-05
000210 d4 59 03 38 10 de c9 36 85 7d 32 36 70 c3 aa 35
       3.1316493e-05 6.0161183e-06 2.659713e-06 1.2722867e-06
000220 e7 b9 97 37 96 a7 10 35 19 59 d3 35 ef 79 91 37
       1.808717e-05 5.388805e-07 1.5746656e-06 1.7342127e-05
000230 b3 dc f1 36 2e f9 ab 36 b6 b4 75 36 65 8c 16 36
       7.2080525e-06 5.1252055e-06 3.6613033e-06 2.2433462e-06
000240 c0 20 a2 36 e8 17 70 35 03 34 bc 35 94 8c 0e 35
       4.831789e-06 8.9441755e-07 1.4022229e-06 5.310369e-07
000250 f6 7f 11 35 b0 64 a6 36 c9 e3 66 35 26 b8 ac 35
       5.4202917e-07 4.958907e-06 8.601315e-07 1.2868593e-06
000260 77 89 91 35 99 8b a3 35 5b 77 98 35 cf f7 0c 37
       1.0843349e-06 1.2185075e-06 1.135962e-06 8.402348e-06
000270 19 a1 79 35 ac b1 0c 36 21 d3 0a 37 9f 35 8e 34
       9.2994156e-07 2.0965044e-06 8.274598e-06 2.6488576e-07
000280 9b 79 1e 36 27 93 c3 34 29 f9 ad 35 0b d9 91 36
       2.3614618e-06 3.6428648e-07 1.296202e-06 4.346604e-06
000290 92 e6 bb 36 e7 c5 9d 36 bb 3d 09 37 98 06 0f 36
       5.599876e-06 4.7020035e-06 8.180209e-06 2.1312499e-06
0002a0 04 27 24 37 1d 08 1f 37 b9 2f f4 36 5b 8a c6 36
       9.784246e-06 9.4790275e-06 7.2773223e-06 5.9169665e-06
0002b0 f4 54 f8 36 4a 1d 91 36 0c 3d 3b 36 9b bc de 36
       7.400866e-06 4.3247464e-06 2.7900705e-06 6.638072e-06
0002c0 e9 3a cd 36 77 f8 b2 36 b9 ab f9 36 3f 1f b2 35
       6.116334e-06 5.3337385e-06 7.4407694e-06 1.3271127e-06
0002d0 86 f4 27 37 d6 c0 13 37 55 fd 7a 36 59 4a ae 36
       1.0010908e-05 8.806781e-06 3.7400362e-06 5.1942593e-06
0002e0 0c 82 ab 36 14 ec 9f 35 e6 6a d4 35 c2 34 79 35
       5.1113366e-06 1.1915131e-06 1.5826342e-06 9.28365e-07
0002f0 fe 0d db 34 5b bf fb 36 2a ef 0b 37 be db f8 36
       4.080211e-07 7.5026596e-06 8.34073e-06 7.4165573e-06
000300 e6 d8 09 36 37 8b 6a 34 0e b9 6e 33 f0 9a ba 36
       2.0540842e-06 2.1843594e-07 5.5582e-08 5.561269e-06
000310 06 db 0c 35 67 0a df 35 f5 56 aa 36 cf d8 0a 36
       5.2472785e-07 1.6617822e-06 5.076518e-06 2.0689802e-06
000320 5f c8 b9 34 be 4b a1 35 3a 8e d7 35 d7 52 b8 34
       3.4604724e-07 1.2017479e-06 1.6060142e-06 3.4332945e-07
000330 4e 1d 00 37 cb 99 d2 36 1b 71 8a 36 5a c9 3e 36
       7.636218e-06 6.2763916e-06 4.1258877e-06 2.8429408e-06
000340 54 60 a0 36 3c b9 a5 36 0b 1c 8d 36 99 cd a4 35
       4.7795857e-06 4.9389473e-06 4.205392e-06 1.2278789e-06
000350 3c bf f6 35 5b 1d ca 36 71 33 1b 36 46 9d ae 36
       1.8384085e-06 6.0234865e-06 2.3126743e-06 5.203913e-06
000360 41 07 c4 36 2d 74 0a 36 eb 50 93 36 ce 1d 2e 36
       5.8420997e-06 2.0631226e-06 4.3903615e-06 2.594537e-06
000370 a2 6d b6 35 d1 12 c9 35 04 eb 5f 35 4a fa 60 36
       1.3591964e-06 1.4981143e-06 8.3415966e-07 3.3524288e-06
000380 6b b7 1b 36 3e 22 b4 35 41 83 a2 36 29 46 a6 36
       2.3203563e-06 1.3421011e-06 4.843256e-06 4.9553532e-06
000390 43 e3 b1 36 85 57 c2 36 6d 50 53 35 7d fd 9c 36
       5.301468e-06 5.791839e-06 7.872066e-07 4.678672e-06
0003a0 c7 4c b1 36 f3 20 ff 35 b1 e9 de 34 75 e0 b0 36
       5.283949e-06 1.900857e-06 4.1520755e-07 5.271339e-06
0003b0 91 50 18 35 33 de f1 36 0e f9 cd 36 51 0e 8e 34
       5.674165e-07 7.208227e-06 6.13847e-06 2.6459978e-07
0003c0 88 30 18 36 bc d6 40 37 2c a2 96 34 8e 9d 7e 36
       2.2678014e-06 1.14940885e-05 2.8057673e-07 3.7940658e-06
0003d0 a6 cb 8d 36 f1 fb 57 36 36 62 a7 34 bf 5b 3a 37
       4.2258353e-06 3.2184146e-06 3.1177632e-07 1.1107825e-05
0003e0 a9 a3 48 36 f2 21 ef 36 71 44 97 35 8a ca c9 36
       2.9897585e-06 7.126707e-06 1.1270296e-06 6.0138455e-06
0003f0 a5 5f 26 35 23 14 18 35 4a 52 2a 36 e1 f5 a5 36
       6.1979e-07 5.6653715e-07 2.5379873e-06 4.9460073e-06

exp_avg f4 [128]
000000 56 ad 31 3b b0 03 6e 3b 93 83 6d 3b 80 0b 23 3b
       0.0027111373 0.0036318116 0.0036241754 0.002487868
000010 ea 30 23 3b f1 b1 4f 3b d6 96 53 3b f8 3d a1 3a
       0.0024900981 0.0031691755 0.003228595 0.0012301793
000020 20 21 19 bb 13 86 0f 3b 91 b9 93 3b 79 5c 22 3b
       -0.0023365691 0.0021899983 0.004508205 0.0024774356
000030 79 40 ce 3a 07 0e 7e 3b af 2f 9f 3a 79 05 83 ba
       0.0015735767 0.0038765685 0.0012144948 -0.0009996138
000040 dc dc 3d bb ea 43 37 3b e8 48 05 3b b8 13 ca ba
       -0.0028970754 0.0027964064 0.0020337645 -0.0015417254
000050 6f 7d 49 bb 07 8f 80 ba 7d 99 59 bb 0a a8 02 bb
       -0.003074493 -0.000980825 -0.0033203058 -0.0019936585
000060 06 af 90 3a 9e a4 ad 39 92 b7 59 3b 61 d7 36 3b
       0.0011038489 0.0003311978 0.0033220989 0.0027899372
000070 e3 e7 b9 ba 2a 3d 32 3a f6 66 07 ba 76 7d 1d 3b
       -0.0014183488 0.0006799275 -0.00051651837 0.002403108
000080 0b cb 8d ba 0c e5 78 3b 4a 1d 19 bb 8a c3 00 bb
       -0.0010817958 0.003797832 -0.0023363405 -0.00196478
000090 18 e9 a7 3a be 97 bf bb 55 8d 32 3b b9 1f 9f bb
       0.0012810556 -0.0058469465 0.0027244885 -0.0048560766
0000a0 3b 51 33 bb c7 d9 4e bb 5c a7 56 bb 35 ea d7 ba
       -0.002736165 -0.003156291 -0.0032753563 -0.0016472997
0000b0 6e fe a5 ba 56 cd 51 ba d8 66 5c 3b dd 93 46 3b
       -0.0012664327 -0.0008003315 0.0033630636 0.0030300536
0000c0 d5 24 a3 3a e0 70 31 bb 65 85 06 3a 06 34 4d 3b
       0.001244689 -0.0027075335 0.00051315717 0.0031311526
0000d0 bd c2 8a bb e8 46 88 ba 62 d1 61 ba d7 f4 0e 3b
       -0.0042346404 -0.0010397108 -0.00086142693 0.0021813416
0000e0 72 fd 4c 3b d8 1e 0f bb be cd 2e 3a 1e a4 d4 ba
       0.0031278995 -0.0021838453 0.0006668231 -0.0016223227
0000f0 b7 3f 1c 3b c0 83 2a bc e1 58 ee 3a 6a 06 31 3b
       0.0023841688 -0.010407388 0.0018184447 0.002701188
000100 79 44 22 3b 0e 04 c8 ba ff ae 31 bb a1 a8 13 bb
       0.0024760051 -0.0015259997 -0.0027112362 -0.002253093
000110 eb 71 09 b9 e5 34 33 ba 14 59 6d ba 53 71 1d 3b
       -0.00013107776 -0.000683619 -0.0009054106 0.0024023845
000120 54 be 3b 3b ba 8d 0c 3b df cf 2d 3b 6c dc 37 bb
       0.002864738 0.002144678 0.0026521606 -0.0028054966
000130 5b 89 ea 3a 43 ee 39 3a 72 12 82 bb 9a d5 97 ba
       0.0017893718 0.00070926937 -0.003969484 -0.0011584044
000140 74 82 07 3a 62 8a a2 bb 75 d5 66 ba e1 5d 5f 3b
       0.00051692803 -0.004960344 -0.0008805611 0.0034083056
000150 a2 e1 21 3b 39 93 81 bb 78 2d 88 bb 9f ea 14 bb
       0.0024701138 -0.003954318 -0.004155811 -0.0022722853
000160 85 48 78 3a a8 a1 83 bb 73 dc 33 bb fd e5 18 3b
       0.00094712555 -0.0040170737 -0.002744463 0.0023330443
000170 23 4c 2b bb 7e 46 22 3b f7 9d 3b bb 6f a6 f4 bb
       -0.002613791 0.0024761255 -0.002862809 -0.0074661295
000180 d2 e8 cc ba 2b da ae 39 b2 2c b8 3b 62 e5 a5 bb
       -0.0015633351 0.00033350414 0.0056205625 -0.005062745
000190 80 43 a2 bb db 89 63 3b ca 43 b5 3a 2c fe 06 bb
       -0.0049518943 0.003471962 0.0013829407 -0.0020598276
0001a0 4c a6 b8 ba dd b3 b0 3b 26 e2 8b 3b d9 96 6e ba
       -0.0014087646 0.005392535 0.0042689024 -0.00091014575
0001b0 e1 86 24 bb cc e6 2f bb 2a c6 d9 ba 91 e5 86 3b
       -0.0025104808 -0.0026840447 -0.0016614844 0.004116722
0001c0 eb 2c b5 ba 5b bc b0 bb dc 36 3d bb 1b cf a7 3a
       -0.0013822591 -0.0053935475 -0.002887181 0.0012802811
0001d0 7f 0d b0 ba ed 9f 30 bb 9d 9e 0d 3b fd 81 86 3b
       -0.0013431757 -0.0026950792 0.0021609433 0.0041048513
0001e0 59 dd 5c 3b ab 43 73 3b fe f5 b9 3a f6 2a 99 bb
       0.003370127 0.003711919 0.0014187691 -0.004674311
0001f0 e6 62 45 3b 81 92 6e ba 3d 82 14 3b cf ab d9 ba
       0.0030118763 -0.000910081 0.0022660636 -0.0016606989

exp_avg_sq f4 [128]
000000 10 44 75 38 0e e3 fc 38 f6 1d 10 39 90 f9 4c 38
       5.847594e-05 0.000120585886 0.00013744071 4.8869813e-05
000010 80 2a 1a 38 15 17 c2 38 0c 73 8c 38 24 fa 3a 37
       3.6756042e-05 9.25494e-05 6.6971494e-05 1.1144704e-05
000020 94 76 6d 38 2c 6a ce 37 da 29 4a 39 37 95 81 38
       5.6615638e-05 2.4606554e-05 0.00019279812 6.178993e-05
000030 ac 08 cb 37 c1 54 11 39 58 5a c3 36 af b4 23 37
       2.4203524e-05 0.00013859851 5.8219703e-06 9.757626e-06
000040 d6 50 a8 38 c7 9e 75 38 6f 04 04 38 2e 45 7e 37
       8.025921e-05 5.8560425e-05 3.147538e-05 1.5155687e-05
000050 46 e9 be 38 22 0c 9c 36 a5 88 de 38 1e 84 0c 38
       9.1033566e-05 4.6505747e-06 0.00010611237 3.3501645e-05
000060 5d 82 2b 37 d5 c4 53 35 8b 0e c9 38 a2 fe 5e 38
       1.0222747e-05 7.8890054e-07 9.587136e-05 5.316607e-05
000070 01 31 85 37 0b a1 d3 36 bb 73 64 36 a8 66 5d 38
       1.5877655e-05 6.307038e-06 3.4042012e-06 5.2786112e-05
000080 63 9c 37 37 e9 e2 91 38 e7 63 44 38 a7 61 1f 38
       1.0944062e-05 6.956404e-05 4.6823083e-05 3.79995e-05
000090 56 f4 3a 37 59 4f 73 39 8f ed 3a 38 14 60 23 39
       1.1143353e-05 0.00023203845 4.45671e-05 0.00015580683
0000a0 dc 94 ae 38 ee 11 b7 38 22 d8 a8 38 7f 3a e3 37
       8.324694e-05 8.72946e-05 8.051122e-05 2.7087748e-05
0000b0 21 31 d3 36 2d 73 05 37 39 74 c0 38 c4 36 97 38
       6.2940094e-06 7.954234e-06 9.1769216e-05 7.210442e-05
0000c0 1a 5d da 36 26 c4 45 38 e5 58 6c 35 36 44 8f 38
       6.5077447e-06 4.7151138e-05 8.804621e-07 6.831477e-05
0000d0 08 46 17 39 49 9c cd 36 19 32 f2 36 01 2e cb 37
       0.00014426571 6.12767e-06 7.217994e-06 2.4220908e-05
0000e0 5b 87 83 38 24 cd 94 37 f1 c9 0d 36 0e e5 9e 37
       6.271779e-05 1.77385e-05 2.1128183e-06 1.894173e-05
0000f0 f2 fb 48 38 0f 26 16 3a c2 8c 56 37 76 54 93 38
       4.7918358e-05 0.0005727717 1.2788167e-05 7.025238e-05
000100 60 f3 12 38 9e 22 b0 37 4a 90 0e 38 77 99 7c 38
       3.5035773e-05 2.0996955e-05 3.3989818e-05 6.0224407e-05
000110 ff db 69 35 d3 b3 c3 36 a3 fa 25 37 71 f6 3b 38
       8.71194e-07 5.832387e-06 9.893122e-06 4.481379e-05
000120 ef 01 4a 38 b4 91 1e 38 ca 06 86 38 60 b1 4a 38
       4.8162354e-05 3.7805832e-05 6.3908825e-05 4.8325746e-05
000130 c5 1c b1 37 8c 8f 30 36 54 98 0a 39 32 a3 5b 37
       2.1113441e-05 2.63096e-06 0.00013217452 1.3091414e-05
000140 7b cf 51 35 47 d4 0a 39 ee eb ca 36 4f cf fe 38
       7.816049e-07 0.00013239785 6.047535e-06 0.00012150278
000150 a8 d2 28 38 6a 3e 0e 39 31 d2 3a 39 6a a1 1f 38
       4.025051e-05 0.00013565426 0.00017816645 3.8058883e-05
000160 48 0b 25 37 de 37 21 39 10 07 a5 38 76 40 1a 38
       9.837393e-06 0.00015374969 7.8691286e-05 3.6776495e-05
000170 a9 ca 84 38 06 b0 7c 38 50 9e bd 38 2e f3 bb 39
       6.331999e-05 6.0245417e-05 9.04171e-05 0.00035848602
000180 dd 0c 04 38 de c8 10 35 b2 ee 87 39 6c dd 25 39
       3.1483232e-05 5.393648e-07 0.00025927048 0.00015818112
000190 85 4d e3 38 76 27 e9 38 45 bc 4a 37 4c bd 03 38
       0.000108386426 0.00011117656 1.2083973e-05 3.140913e-05
0001a0 fc 67 ca 37 69 d6 87 39 23 7b 1a 39 aa 7d 09 37
       2.4128698e-05 0.00025908955 0.00014732456 8.195095e-06
0001b0 6d 8b 48 38 98 62 87 38 fe 98 15 38 1f 7f 08 39
       4.7813566e-05 6.455666e-05 3.5666853e-05 0.00013017327
0001c0 b6 ea 48 37 38 c2 3b 39 c5 05 91 38 16 8f 11 37
       1.1975577e-05 0.00017906062 6.9152135e-05 8.675988e-06
0001d0 bb b6 d6 37 bb a6 60 38 58 5c 52 38 b0 ed 13 39
       2.5595878e-05 5.356104e-05 5.0153903e-05 0.00014107558
0001e0 77 aa b7 38 f8 2c be 38 4f 20 2e 37 67 91 71 39
       8.7578715e-05 9.068282e-05 1.0378731e-05 0.00023037718
0001f0 ec 89 93 38 0c 32 06 37 e1 74 2b 38 0d 7e 1b 38
       7.035196e-05 7.998675e-06 4.087843e-05 3.7072274e-05
