our-vTR/2_fold_lightning_logs/dataset1/fold_0/version_3/checkpoints/epoch=0-step=20_fold0.ckpt (torch, 132113 bytes, 18 tensors)

conv1d.weight f4 [128, 4, 12]
0	0x3d943271	0.072361834
1	0x3e0e089c	0.13870472
2	0x3dd4d3ba	0.10391946
3	0x3e0f21c9	0.13977732
4	0x3c8db472	0.017297957
5	0x3d03d1a2	0.032182343
6	0xbdec73f4	-0.11545554
7	0xbc8a0fa9	-0.01685317
8	0x3d6fa264	0.058504477
9	0x3d173263	0.036913287
10	0x3dd2f16d	0.102999546
11	0xbd8bdda9	-0.06829388
12	0xbc1a8d2f	-0.009433075
13	0xbd6f156c	-0.05837004
14	0xbe16360a	-0.14669052
15	0x3e0362fc	0.12830728
16	0xbdd82422	-0.10553767
17	0x3b4ab02d	0.0030927763
18	0x3d8bf9ef	0.068347804
19	0x3da23420	0.07920098
20	0xbb71ee66	-0.0036915778
21	0xbd75ab70	-0.05997795
22	0x3db8b4a9	0.09018833
23	0xbdc6b7a6	-0.09702997
24	0x3de3d307	0.11124235
25	0x3db56aa0	0.08858228
26	0xbe17c475	-0.14821036
27	0xbd1f4e8e	-0.038893275
28	0x3db7707a	0.08957
29	0x3dad01a2	0.08447577
30	0x3dd0a518	0.10187739
31	0xbdc2f25f	-0.09518885
32	0xbc984b3c	-0.018590562
33	0xbd83aa7f	-0.06429004
34	0x3dd579c9	0.10423619
35	0xbd37e0dc	-0.044892177
36	0xbd029b8c	-0.031886622
37	0xbdaf590f	-0.085619085
38	0x3d90d7ab	0.070723854
39	0x3de9de91	0.11419404
40	0x3b9fea0d	0.004880196
41	0x3d94562c	0.072429985
42	0x3dad3391	0.08457101
43	0x3cd2bd54	0.025725044
44	0xbbdb783e	-0.0066976836
45	0xbd354bdf	-0.04426181
46	0xbcec2ca2	-0.028829876
47	0xbe140eec	-0.14458817
48	0xbbcfb002	-0.0063381204
49	0xbda81866	-0.08207779
50	0x3c026455	0.007958491
51	0xbd7b03d3	-0.061282944
52	0x3c6e3e1f	0.014541178
53	0x3d57a00c	0.052642867
54	0xbda335b3	-0.07969227
55	0xbe096cdd	-0.13420434
56	0x3d82e8d6	0.06392066
57	0xbe122bbe	-0.14274499
58	0xbd414ead	-0.04719417
59	0xbc6b874d	-0.01437552
60	0xbe07e569	-0.13271107
61	0xbd1f7d85	-0.038938064
62	0x3d8a256f	0.06745421
63	0x3d44f2b7	0.048083033
64	0x3d692c82	0.05692721
65	0xbc1fccbb	-0.009753401
66	0x3dae7bd1	0.0851971
67	0x3da0425f	0.07825159
68	0xbe0b058b	-0.13576333
69	0xbdc5ebc3	-0.096641086
70	0xbdcb4d2c	-0.09926829
71	0x3db33139	0.08749623
72	0x3def53ba	0.116858914
73	0xbbdeca17	-0.0067989933
74	0x3d1b0751	0.037848774
75	0x3de1b960	0.110216856
76	0xbdccb5fe	-0.0999565
77	0xbd7f9d10	-0.062405646
78	0xbdb3f6b3	-0.087872885
79	0x3d58faf8	0.052973717
80	0xbdb69ca9	-0.08916599
81	0xbdc8057a	-0.097666696
82	0x3ceaf475	0.02868102
83	0x3d8480d3	0.06469884
84	0xbd6ba406	-0.05752947
85	0x3dbb69df	0.09151053
86	0xbbe18b84	-0.0068830866
87	0xbdbc3b83	-0.091910385
88	0xbd1c553a	-0.038167216
89	0xbc507240	-0.012722552
90	0x3dc28f4f	0.0949999
91	0x3db24c06	0.087059066
92	0x3d9e0df4	0.07717505
93	0x3c3c2104	0.011482481
94	0xbdd3cc00	-0.10341644
95	0xbd9f7a2d	-0.07786975
96	0x3d6f8015	0.058471758
97	0xbdcf885a	-0.10133429
98	0xbb6b10e3	-0.003586822
99	0xbc2b90e1	-0.010471554
100	0xbd43fa5c	-0.047846183
101	0xbd21749d	-0.03941785
102	0xbdf1ccd1	-0.11806644
103	0xbda8f578	-0.082499444
104	0xbd336542	-0.04379774
105	0x3e08c4ef	0.13356374
106	0x3de82d34	0.11336747
107	0x3d45f2d9	0.0483273
108	0xbd890703	-0.066907905
109	0xbe078bc3	-0.13236909
110	0x3dbfcb1b	0.09364911
111	0xbd107f69	-0.035277758
112	0x3deecedd	0.1166055
113	0xbc7e66a1	-0.015527398
114	0xbdfcc4c5	-0.12342218
115	0xbe02cf37	-0.12774359
116	0x3e1192d0	0.14216161
117	0xbdf8fdb2	-0.121577635
118	0xbdf6ab4e	-0.120443925
119	0x3ce058fa	0.027386177
120	0x3e0a69c9	0.13516916
121	0x3df0bb5b	0.11754485
122	0xbda20482	-0.07911016
123	0xbbe1bb69	-0.006888796
124	0xbd37acc6	-0.044842504
125	0x3d102ac6	0.035197042
126	0xbdaec38c	-0.08533391
127	0x3d90cbf6	0.070701525
128	0xbd633bb4	-0.05547686
129	0xbdfe4ea5	-0.12417344
130	0xbdd917a8	-0.10600215
131	0xbcc162b5	-0.023606637
132	0x3e09d411	0.13459803
133	0x3da1063e	0.07862519
134	0xbdf63775	-0.12022296
135	0xbe016021	-0.12634327
136	0x3dfcb20c	0.12338647
137	0x3d919e66	0.0711029
138	0x3b93399e	0.0044929525
139	0xbe0133b4	-0.1261738
140	0xbd5e3aa4	-0.054255143
141	0xbdd49b48	-0.1038118
142	0x3e0a80df	0.13525723
143	0x3dc1adb9	0.09456963
144	0xbd9655a0	-0.073405504
145	0xbd19b3d2	-0.037525006
146	0xbdf77e5b	-0.12084647
147	0xbd6f3ecb	-0.058409493
148	0x3c72dd3e	0.014823256
149	0x3d8d8b2e	0.06911312
150	0xbdfa45be	-0.122203335
151	0xbda7d076	-0.08194058
152	0xbe052060	-0.13000631
153	0x3df09e27	0.11748915
154	0xbdf57c0c	-0.11986551
155	0xbe162d52	-0.14665726
156	0x3dc1ce57	0.09463184
157	0x3def2658	0.11677235
158	0xbdadb06f	-0.08480918
159	0x3db8fcb1	0.09032572
160	0x3de08617	0.109630756
161	0x3c94bcf1	0.0181565
162	0xbd591483	-0.052998077
163	0xbd88c35f	-0.06677889
164	0x3de11917	0.10991114
165	0x3dd27cd9	0.10277719
166	0xbcd3286f	-0.025776116
167	0xbda81351	-0.08206809
168	0x3d8e6676	0.069531366
169	0x3d6fd90b	0.058556598
170	0xbe0b29ad	-0.13590117
171	0xbd43040d	-0.047611285
172	0x3db56328	0.08856803
173	0xb9bc67d8	-0.00035935524
174	0x3df2862d	0.11841998
175	0xbd160d15	-0.03663357
176	0xbc906062	-0.017624084
177	0xbb041d7a	-0.002015917
178	0xbd1e3f83	-0.03863479
179	0xbdba10d9	-0.09085245
180	0xbcaf7f69	-0.021423059
181	0x3ceb62a7	0.028733565
182	0xbd3075af	-0.04308098
183	0x3daac157	0.08337658
184	0xbdc8e1d8	-0.09808701
185	0xbda9afc1	-0.082854755
186	0xbd5c303e	-0.053756945
187	0xbddd273e	-0.107985005
188	0xbc7c2644	-0.015389983
189	0xbdb6d283	-0.08926871
190	0x3ddf7e58	0.1091277
191	0xbdd82cc4	-0.10555413
192	0x3d0e1ac5	0.0346935
193	0xbcda672f	-0.02666053
194	0xbd9a29e3	-0.075275205
195	0x3d344a63	0.044016253
196	0x3d92a0c7	0.07159572
197	0x3de929f8	0.11384958
198	0x3e06ad6c	0.13152093
199	0x3e081035	0.13287432
200	0xbe16ee4c	-0.1473934
201	0x3e041477	0.12898432
202	0x3d3e8bd4	0.04652007
203	0x3e00fe11	0.12596919
204	0xbe08c3d9	-0.1335596
205	0xbd67ecc0	-0.056622267
206	0xbd1812f7	-0.03712746
207	0x3df4c0b6	0.11950819
208	0xbddbe1da	-0.10736437
209	0x3dd0fdff	0.10204696
210	0x3de9b7fe	0.11412047
211	0xbca85b57	-0.020551367
212	0xbdab1318	-0.08353251
213	0xbd9ba11e	-0.0759909
214	0x3dee9c7c	0.11650941
215	0x3dbfa682	0.09357931
216	0xbcce208f	-0.02516201
217	0xbd0fd53d	-0.03511547
218	0x3d0bd11b	0.034134965
219	0xbd89421b	-0.06702062
220	0x3d24b9d8	0.040216297
221	0x3d82ffe4	0.063964635
222	0x3d04f9bd	0.03246473
223	0x3cbb3b9b	0.02285557
224	0x3db64c98	0.08901328
225	0x3d6d9548	0.058003694
226	0xbd639f96	-0.055572115
227	0xbcfb82fa	-0.030702103
228	0xbdcbeb47	-0.09956985
229	0xbdab5103	-0.08365061
230	0x3d971b31	0.07378233
231	0x3dfa3669	0.12217409
232	0xbe067f96	-0.13134608
233	0x3d9f05c5	0.07764772
234	0x3d6f70a5	0.058457036
235	0xbd8b2327	-0.06793814
236	0xbda7dec2	-0.081967846
237	0xbd8a4e17	-0.06753176
238	0xbdf52a3e	-0.11970948
239	0xbe17aaaa	-0.14811197
240	0xbd71cefe	-0.059035294
241	0xbd8cd239	-0.06876034
242	0x3e0e4f69	0.1389748
243	0xbcc9c5f2	-0.02463052
244	0x3d9d52d6	0.07681815
245	0x3c989233	0.0186244
246	0x3d60dd6c	0.054898664
247	0xbe04e130	-0.12976527
248	0xbcdec2a5	-0.027192423
249	0xbc5ba372	-0.013405668
250	0xbde28b5b	-0.11061736
251	0xbd9fc2bb	-0.07800814
252	0xbc3864ed	-0.011254531
253	0x3d2fe451	0.04294235
254	0x3ddf5a73	0.10905924
255	0x3ce69fef	0.028152434

conv1d.bias f4 [128]
0	0xbcda2c6e	-0.026632514
1	0x3d7b5b1e	0.061366193
2	0x3ac84efe	0.001528233
3	0xbd14bbc5	-0.036311883
4	0xbddd9418	-0.10819262
5	0xbdf4619d	-0.11932681
6	0x3ddb9666	0.107220456
7	0x3e0d2efa	0.13787451
8	0x3da57adc	0.08080074
9	0xbe052fb3	-0.13006477
10	0x3dcb296f	0.09920012
11	0xbde35aa0	-0.1110127
12	0x3cc6904f	0.024238734
13	0x3db6e362	0.089300886
14	0x3dd84bb8	0.10561317
15	0xbe0ae9d0	-0.13565755
16	0xbcf2a314	-0.029618777
17	0x3df4a51a	0.11945553
18	0x3bb278a5	0.005446511
19	0x3d28efe1	0.04124439
20	0x3bc61277	0.0060446816
21	0x3e0d4d36	0.13798985
22	0x3e000984	0.1250363
23	0xbd234cb3	-0.039868068
24	0xbd8063ee	-0.0626906
25	0xbdcfe0e6	-0.10150318
26	0xbdb3948c	-0.087685674
27	0x3d25123b	0.04030059
28	0x3de53c89	0.11193187
29	0xbdea482c	-0.11439547
30	0x3cccf4b5	0.02501903
31	0xbd263d85	-0.040586013
32	0x3d8556d1	0.065106995
33	0xbe063ab5	-0.13108332
34	0x3db2e5a1	0.087352045
35	0xbdb646c0	-0.08900213
36	0xbdd6f75c	-0.10496399
37	0x3dbdb5d0	0.092631936
38	0xbc766c3a	-0.015040452
39	0x3dabc9e9	0.08388121
40	0xbd90d209	-0.07071311
41	0xbd8d0e2d	-0.068874694
42	0xbe0e1f90	-0.13879228
43	0xbdd8ad30	-0.10579908
44	0xbc2bf518	-0.010495447
45	0xbdbee4e2	-0.09321
46	0xbd05bbd5	-0.032649834
47	0xbde22d53	-0.11043801
48	0xbb0de348	-0.0021650363
49	0xbe039cff	-0.12852858
50	0x3ccd1021	0.025032105
51	0xbdcc8093	-0.09985461
52	0x3e0796c2	0.13241103
53	0xbd50ac5d	-0.05094563
54	0x3df5d238	0.12002987
55	0x3d7acc6c	0.06123011
56	0x3dd6e385	0.10492615
57	0x39f047b1	0.0004582978
58	0x3d8167f4	0.063186556
59	0x3dbe4cb8	0.09291977
60	0x3e023459	0.12715282
61	0x3d7ad046	0.06123378
62	0x3d07f7b5	0.033195216
63	0x3dcccdc8	0.10000187
64	0x3c327379	0.010891789
65	0x3dca1ec2	0.09869148
66	0xbdda1c11	-0.106498845
67	0xbd8774b6	-0.06614058
68	0xbe011130	-0.12604213
69	0xbe0a9962	-0.13535073
70	0xbd09fc55	-0.03368791
71	0x3da1a47d	0.07892702
72	0xbd78b619	-0.060720537
73	0xbddea329	-0.10870964
74	0x3dd5aa26	0.10432844
75	0x3d34b051	0.04411346
76	0xbd348388	-0.04407075
77	0x3d5eff9c	0.054442987
78	0xbcf08087	-0.029358162
79	0xbdaa7172	-0.08322419
80	0x3d92884a	0.07154901
81	0x3d43db18	0.047816366
82	0xbda615e9	-0.08109648
83	0xbd99c4a6	-0.07508211
84	0xbe11223b	-0.14173214
85	0x3de281f7	0.11059945
86	0xbddba3a5	-0.10724572
87	0xbdb41f75	-0.087950625
88	0xbc87f08a	-0.01659419
89	0x3e159a33	0.14609604
90	0x3dfa2b2a	0.12215264
91	0x3d08125e	0.03322064
92	0xbc9e1308	-0.019296184
93	0xbd9b8eaa	-0.075955704
94	0x3d58cd41	0.05293012
95	0x3e0bc525	0.13649423
96	0x3de655ef	0.11246859
97	0xbdeb4e50	-0.11489546
98	0xbdfca281	-0.12335683
99	0xbdd69cbb	-0.10479113
100	0xbc110077	-0.0088502085
101	0x3d0749cb	0.03302936
102	0xbc0c0d76	-0.008548131
103	0x3da0ba9a	0.078480914
104	0xbdd6035f	-0.10449862
105	0xbdaa45df	-0.08314108
106	0xbd34e233	-0.044161033
107	0x3d7f38cd	0.06231003
108	0x3d94527a	0.07242294
109	0xbd51cadd	-0.051218856
110	0x3a36abde	0.0006968359
111	0xbddad2b2	-0.10684718
112	0xbcbfab50	-0.023397118
113	0xbd855d46	-0.06511931
114	0x3c84e0e1	0.016220512
115	0x3cb43f71	0.022002907
116	0x3d0dd2a4	0.03462471
117	0x3dabbb55	0.0838534
118	0xbc4c0cae	-0.012454195
119	0xbdd9e0e4	-0.106385976
120	0xbd91788a	-0.07103069
121	0x3c9d1095	0.019172946
122	0x3d1aedba	0.03782437
123	0xbcbb5589	-0.022867935
124	0xbd3039e5	-0.043023963
125	0xbe0e58c6	-0.13901052
126	0x3e127ee7	0.14306222
127	0x3db50abb	0.08839937

linears.0.weight f4 [32, 128]
0	0x3d57eeac	0.05271785
1	0x3d6eb837	0.05828115
2	0x3c899019	0.016792344
3	0xbcbd8737	-0.023135765
4	0x3d88f3a4	0.06687096
5	0xba4e1fd4	-0.0007863019
6	0xba1ff6b2	-0.0006102129
7	0x3d652f1b	0.055953126
8	0x3d856f1e	0.065153345
9	0xbd1e3d86	-0.038632892
10	0x3c1b09cf	0.009462788
11	0x3d02d668	0.031942755
12	0xbb47e141	-0.0030499252
13	0x3d2abb9f	0.041682836
14	0x3cd75083	0.026283508
15	0xbd4dab43	-0.050212156
16	0x3c9410b7	0.018074377
17	0xba668af5	-0.000879451
18	0x3c99db0b	0.018781206
19	0xbd6dc35b	-0.058047634
20	0xbb27ea93	-0.0025621995
21	0xbd867a6c	-0.06566319
22	0xbc14a3ab	-0.009072225
23	0x3bc48edc	0.0059984755
24	0x3cf9c201	0.030488016
25	0xba1c77c4	-0.0005968774
26	0x3d6fa8a0	0.058510423
27	0x38c5005e	9.3937604e-05
28	0x3c5ee033	0.013603258
29	0xbd027bb5	-0.031856257
30	0xbd85cd46	-0.065332934
31	0xba7cff52	-0.0009651083
32	0xbd64d3c7	-0.05586603
33	0x391d4240	0.00014997367
34	0xbd23c8e8	-0.03998652
35	0xbc8a1ed7	-0.016860409
36	0xb985b902	-0.00025505578
37	0xb918cf31	-0.00014573034
38	0xbcb86bb1	-0.022512289
39	0xbc5cafcf	-0.01346965
40	0x3ca38131	0.019959064
41	0x3a8edf22	0.0010900239
42	0x3d010fbf	0.031509157
43	0x3ce4b6e0	0.027919233
44	0xbd49bfe0	-0.049255252
45	0x3d5d7615	0.05406769
46	0x3ae28256	0.0017281275
47	0x3ca74369	0.020417886
48	0x36c45a50	5.851769e-06
49	0xbb01eb4d	-0.0019824088
50	0xbd3d7c41	-0.046261076
51	0xbd855175	-0.06509677
52	0xbd671bfb	-0.05642317
53	0x3d09f5bc	0.033681616
54	0xbb21b0fd	-0.0024672144
55	0xbaba80b2	-0.0014229028
56	0xbcff71d9	-0.031182216
57	0x3d5f6ab6	0.054545127
58	0xbb2c15dd	-0.0026258149
59	0xbd4fae8a	-0.050703563
60	0xbd3b3eb3	-0.04571409
61	0xbce4d96a	-0.027935702
62	0x3d5327e3	0.05155171
63	0xbd695b82	-0.056972034
64	0x3b1f21fa	0.0024281726
65	0xbcd380c6	-0.02581824
66	0x3d06e284	0.032930866
67	0x3b28ce59	0.0025757758
68	0x3afcb126	0.0019278869
69	0xbce33bb2	-0.027738426
70	0xbc860e99	-0.016364383
71	0x3cf04e9e	0.029334363
72	0x3bf37242	0.007429392
73	0xbae54956	-0.0017493169
74	0xbd236add	-0.039896835
75	0xbc82b7cb	-0.01595678
76	0xbd756555	-0.05991109
77	0xbd35136b	-0.04420797
78	0xbcbea6fc	-0.023272984
79	0x3b0f97d3	0.0021910563
80	0x3a70efc4	0.00091910013
81	0xbafffaab	-0.0019529661
82	0x3ac1689a	0.0014755905
83	0xbd5c03bf	-0.05371451
84	0x3c6de6a4	0.014520321
85	0x3d5528f5	0.052041013
86	0xbd24fc39	-0.0402796
87	0x3a1d3b53	0.00059979147
88	0xbd81a107	-0.06329542
89	0x3c7487bd	0.014924941
90	0x3b968438	0.0045933984
91	0x3d056eb0	0.032576263
92	0xbca2e6e3	-0.019885486
93	0x3b1513cd	0.0022747398
94	0xbd3d2bc3	-0.046184313
95	0x3d826ff4	0.063690096
96	0xbd83208a	-0.06402691
97	0xbcbb6dcb	-0.022879502
98	0xbd41adcc	-0.047284886
99	0xbb39d8d9	-0.002835801
100	0x3d47054c	0.048589036
101	0xbd156441	-0.036472563
102	0xbd37efe8	-0.044906527
103	0xbd4e86ab	-0.050421398
104	0x399ec6f5	0.00030284343
105	0xbca7f5dd	-0.020502979
106	0xbd01d7ed	-0.031700063
107	0x3d1d1ff4	0.03836055
108	0xbbddbaba	-0.0067666443
109	0xbd4fbea2	-0.05071891
110	0x3b96b4e8	0.0045992024
111	0x3d5fcff6	0.054641686
112	0xbc340add	-0.010988918
113	0xbafab402	-0.0019127133
114	0xbcc4266a	-0.023944099
115	0xbd06e849	-0.03293637
116	0xbd6513af	-0.055926975
117	0x3c3501d1	0.011047796
118	0xbd7b6d8a	-0.06138376
119	0x3ad36f8a	0.0016131264
120	0xbd543e65	-0.051817317
121	0x3d200719	0.03906927
122	0xba7f9a84	-0.00097505026
123	0xbc3ba999	-0.011454009
124	0xbd0f19a9	-0.03493658
125	0x3d1a338f	0.037646826
126	0xbd01d83f	-0.03170037
127	0x3cf6ddbc	0.030135028
128	0xbc67031c	-0.014099862
129	0x3a0462fb	0.00050501496
130	0x3c9c98e5	0.019115875
131	0x3d0093a6	0.03139081
132	0x3b04dfc5	0.0020274979
133	0x3af5aead	0.0018744074
134	0x39d8ef9b	0.0004137725
135	0xbd846d72	-0.064661875
136	0xbd226279	-0.039644692
137	0x3ce31b68	0.02772303
138	0xbb3c1346	-0.0028698011
139	0xbd596954	-0.053078964
140	0xbd54906f	-0.051895555
141	0xb7c14df8	-2.30437e-05
142	0xb8ce69be	-9.8425415e-05
143	0x3d472346	0.048617624
144	0x3adad277	0.0016694803
145	0x3cacf65f	0.021113573
146	0xbd2f7286	-0.042833827
147	0x3a4964e1	0.00076825736
148	0xbd12c9ce	-0.035836987
149	0xbd3fdea0	-0.04684317
150	0xbc8949a1	-0.016758742
151	0xba994a76	-0.0011695165
152	0xb7e15210	-2.6860303e-05
153	0x39fc649e	0.0004814015
154	0x3d4ea603	0.05045129
155	0xbc1b171f	-0.009465962
156	0x3cded35b	0.027200392
157	0xbc80484f	-0.01565948
158	0xbc786c01	-0.015162469
159	0xbd2fdeae	-0.042936973
160	0xbc1ee9d8	-0.009699307
161	0xbd867a80	-0.06566334
162	0x3d34bcf1	0.0441255
163	0x3a944bf7	0.0011314143
164	0xbd088175	-0.033326585
165	0xbd437181	-0.047715668
166	0xbc40aade	-0.011759488
167	0xb9f61156	-0.00046933693
168	0x3d2e08eb	0.042488974
169	0x39ddbb54	0.00042291975
170	0xbd0f94f9	-0.03505418
171	0x3b32e265	0.0027295586
172	0xbd55f349	-0.052233968
173	0x39d72864	0.0004103809
174	0x3d4648d9	0.048409317
175	0xba096d1f	-0.00052423956
176	0xbc22e654	-0.00994261
177	0xbb2fa4c9	-0.00268011
178	0x3a0e2342	0.0005422124
179	0xbc78c9ed	-0.015184862
180	0x3b2fb672	0.0026811627
181	0x3c19a173	0.009376871
182	0xbcf14336	-0.029450994
183	0xbb25b691	-0.002528582
184	0x3ac23a2c	0.0014818362
185	0xbaf63c27	-0.0018786237
186	0xbcf1bc20	-0.02950865
187	0x3d6edb79	0.058314774
188	0xbb2b68ba	-0.0026154951
189	0x3d4a66ca	0.049414434
190	0xbcaa17d1	-0.02076331
191	0xbae71242	-0.0017629343
192	0xba61f335	-0.00086193095
193	0x3b03b3ed	0.0020096258
194	0xba4f9df5	-0.0007919961
195	0x3a91a806	0.0011112697
196	0xbc1c8bc3	-0.009554806
197	0x3d2a4ed1	0.04157907
198	0xbd25267c	-0.040319905
199	0xbd3aec0d	-0.04563527
200	0x3c2e7ac1	0.010649384
201	0x3967e522	0.00022115235
202	0xbd6535f5	-0.05595966
203	0xbcbeb16a	-0.023277957
204	0x3d552d65	0.052045245
205	0xb982962c	-0.0002490742
206	0x3d51b824	0.051201
207	0xbd6e868b	-0.05823378
208	0xbcf8972f	-0.030345527
209	0xbcc94541	-0.024569156
210	0xb9b657e9	-0.00034779243
211	0xbd7114c0	-0.05885768
212	0x3ca29603	0.019846922
213	0x3ca96ef3	0.020682788
214	0xbd54ca31	-0.051950637
215	0xbd31a1f8	-0.043367356
216	0xbd77e48c	-0.060520694
217	0xbd7e212d	-0.062043358
218	0xbb096001	-0.0020961764
219	0xbd7aa4cc	-0.06119232
220	0xbd11925b	-0.035539966
221	0xbc34c485	-0.011033182
222	0xbbe6206a	-0.007022907
223	0xbc3cd485	-0.011525278
224	0x3c68b1a8	0.014202513
225	0x3d14ec6e	0.03635829
226	0x3bbbaddc	0.0057275128
227	0x3d138ab1	0.03602094
228	0x3d65a85d	0.056068767
229	0x3d0a93a1	0.033832196
230	0x3d70a6a2	0.058752663
231	0xbcc7b81b	-0.02437978
232	0xbc2426d4	-0.010019023
233	0x3cec7315	0.02886347
234	0xbd0c7003	-0.03428651
235	0x3d25cbb7	0.04047748
236	0x39367940	0.00017402042
237	0xbd1bfc56	-0.038082443
238	0x3d39f908	0.04540351
239	0x3d74bf4f	0.05975276
240	0xb94e3c84	-0.00019668235
241	0xbd867d76	-0.065668985
242	0xbd6cba93	-0.05779512
243	0x3d2c2c23	0.04203428
244	0xbb0e784f	-0.002173919
245	0xbcfca8d7	-0.030842228
246	0x3d4ed30b	0.050494235
247	0xbcf3545a	-0.029703308
248	0xba9c61a7	-0.0011930958
249	0xbb172f58	-0.002306899
250	0xbd80918a	-0.062777594
251	0x39aceb30	0.00032981625
252	0xbd0d9ce5	-0.034573454
253	0x3d2aadd3	0.041669678
254	0xbd859da3	-0.065242074
255	0x3d82b981	0.06383038

linears.0.bias f4 [32]
0	0xb97ae34e	-0.00023926536
1	0x3d69d226	0.05708518
2	0x3c189b4c	0.009314369
3	0xbc1d22f3	-0.009590852
4	0xbcd47f9e	-0.025939759
5	0x3cfdc57f	0.030977963
6	0xbd8039b8	-0.06261009
7	0x3cf37b0b	0.029721757
8	0xb820d2a4	-3.8343147e-05
9	0xbb270e4a	-0.0025490695
10	0x3d8b9e1a	0.06817265
11	0xbd7f6a43	-0.0623572
12	0x3ca6318f	0.020287303
13	0xbb7446ca	-0.003727364
14	0xbc02ca7a	-0.0079828445
15	0xbbdf917d	-0.0068227635
16	0x3da4265a	0.080151275
17	0x3c5cb497	0.01347079
18	0xbd979fc3	-0.07403519
19	0x3ad958de	0.0016582271
20	0x3aa04f19	0.0012230604
21	0x3c222aa4	0.009897862
22	0x3d44f71f	0.048087236
23	0x3da2fe4a	0.07958658
24	0x3bdf2a86	0.006810489
25	0x3d1274da	0.03575597
26	0xbcaab355	-0.020837465
27	0xb9dae0db	-0.0004174773
28	0x3cf03b72	0.02932522
29	0x3b461ec7	0.0030230747
30	0x3b237be8	0.002494568
31	0x3a71d716	0.0009225471

linears.2.weight f4 [2, 32]
0	0x3cb3b2f5	0.02193592
1	0x39a83dfe	0.00032089645
2	0xbd4e7514	-0.050404623
3	0x3e07adac	0.13249844
4	0x3dd5cc40	0.10439348
5	0xbc1a8a9f	-0.009432464
6	0x3d03392b	0.03203694
7	0xbd0fd445	-0.035114545
8	0x3d8f4031	0.069946654
9	0xbdb3611c	-0.087587565
10	0x3d2dcf66	0.04243412
11	0xbe06dc2e	-0.1316993
12	0x3d9bb202	0.07602312
13	0x3dd2c859	0.102921195
14	0x3dfe8408	0.12427527
15	0xbc99477b	-0.018710842
16	0x3d0de757	0.03464445
17	0xbcf2043c	-0.029543035
18	0x3ddf5423	0.1090472
19	0xbdc5de7f	-0.096615784
20	0x3d3d77b3	0.046256732
21	0xbd989fb4	-0.07452336
22	0xbddba65c	-0.1072509
23	0x3b630c1c	0.003464467
24	0x3e0b4e27	0.13604032
25	0x3b777edd	0.0037764825
26	0xbcb5b545	-0.022181163
27	0x3e176a44	0.14786631
28	0xb9dce5a0	-0.00042132754
29	0xbc02990f	-0.007971062
30	0x3c0784de	0.008271424
31	0xbde8d93d	-0.1136956
32	0x3e1ac20d	0.15113087
33	0x3df58f0e	0.11990176
34	0xbdedbcbc	-0.11608264
35	0xba42686e	-0.0007416074
36	0xba0df282	-0.00054148596
37	0x3c3ae719	0.011407637
38	0xbdea49c0	-0.11439848
39	0xbda876b0	-0.08225763
40	0x3dc5c6db	0.09657069
41	0x3d65ae30	0.05607432
42	0x3e037fb9	0.12841691
43	0xbe18d4b1	-0.14924885
44	0x3da54077	0.08068936
45	0x3ca2c9cf	0.01987162
46	0x3aa22b02	0.0012372436
47	0xbdaa63fa	-0.0831985
48	0x3dfc64eb	0.12323936
49	0x3d81c54d	0.0633646
50	0xbdfc048c	-0.12305555
51	0x3d733cd2	0.059384175
52	0xbba8a298	-0.005146336
53	0xbdb86ae4	-0.09004763
54	0xbde5d444	-0.11222127
55	0x3dafbba8	0.085807145
56	0x3d820cc8	0.06350094
57	0xbc7d044b	-0.015442918
58	0x3d7cf94f	0.061761197
59	0xbdb4ec53	-0.08834138
60	0xbe24c83b	-0.16092007
61	0xbe2a5c24	-0.16636711
62	0x3d858b60	0.06520724
63	0xbe15e11b	-0.14636652

linears.2.bias f4 [2]
0	0x3d2995ef	0.041402753
1	0xbdd7a4ae	-0.10529457

exp_avg f4 [128, 4, 12]
0	0x382c1c5c	4.1034407e-05
1	0x3820bb62	3.8321486e-05
2	0x37cd9ba0	2.4510373e-05
3	0x375b81a8	1.3083605e-05
4	0x3897f44a	7.2457435e-05
5	0x379bae43	1.8558587e-05
6	0xb61e7652	-2.3612706e-06
7	0x371ae11c	9.231528e-06
8	0x36e5460b	6.832886e-06
9	0x38c884cd	9.561479e-05
10	0x37f9938a	2.9751816e-05
11	0x384a5827	4.824265e-05
12	0xb61ae4d5	-2.3080986e-06
13	0x36193833	2.283149e-06
14	0x3686dceb	4.0192294e-06
15	0x385920cd	5.176738e-05
16	0xb6f5cede	-7.3256515e-06
17	0xb748168e	-1.192618e-05
18	0x37447113	1.17088375e-05
19	0x37addc44	2.0725776e-05
20	0x37ad2987	2.0642545e-05
21	0xb7a9c4f4	-2.0238083e-05
22	0x376780ff	1.3798707e-05
23	0xb7ef5b06	-2.8533406e-05
24	0x37d0c2a8	2.4886176e-05
25	0x37fd458b	3.0192334e-05
26	0x36b144eb	5.283034e-06
27	0xb59fab12	-1.1896211e-06
28	0x37946275	1.7688822e-05
29	0x38678a1f	5.5203327e-05
30	0x36307a2f	2.6297164e-06
31	0x3717337e	9.01229e-06
32	0x38019ff6	3.0904972e-05
33	0xb702edd1	-7.803975e-06
34	0x38007f78	3.0636293e-05
35	0x3803d665	3.1432504e-05
36	0x37122856	8.71167e-06
37	0x35ccfa11	1.5271963e-06
38	0x3821876d	3.8511516e-05
39	0x37115654	8.662773e-06
40	0xb73019ee	-1.0496455e-05
41	0x372ff76a	1.0488418e-05
42	0x387d1cf2	6.0346858e-05
43	0x3816ad46	3.592416e-05
44	0x37864561	1.6006352e-05
45	0x37029583	7.783415e-06
46	0x35a251d1	1.2093752e-06
47	0x378286c0	1.5559956e-05
48	0xb7e4b988	-2.7266113e-05
49	0xb6379cc7	-2.7360381e-06
50	0xb90df002	-0.00013536218
51	0xb783cd29	-1.5711952e-05
52	0xb83388f4	-4.2804473e-05
53	0xb9657e1a	-0.00021886118
54	0xb76c1039	-1.4070473e-05
55	0xb660b424	-3.3483457e-06
56	0xb8802501	-6.110408e-05
57	0x37c2cd17	2.3222105e-05
58	0xb8defefb	-0.00010633279
59	0x377136c4	1.43774705e-05
60	0xb788e690	-1.6319827e-05
61	0xb7e6f118	-2.7530405e-05
62	0x38a2129d	7.728229e-05
63	0xb9136423	-0.00014056316
64	0xb8a8ec2f	-8.054857e-05
65	0x382f3113	4.1768955e-05
66	0xb8f2b297	-0.00011572724
67	0xb8ad4e8d	-8.263914e-05
68	0x36b13b30	5.2819014e-06
69	0xb8c2829f	-9.274971e-05
70	0xb6b73535	-5.460019e-06
71	0xb894f0aa	-7.102017e-05
72	0xb8dcebee	-0.00010534363
73	0xb88ea1b8	-6.80121e-05
74	0xb9000321	-0.00012208197
75	0x3567d5b7	8.63652e-07
76	0xb6a7c001	-4.99934e-06
77	0xb80776e0	-3.229722e-05
78	0x37cef8fd	2.4673058e-05
79	0x37b1b91f	2.1186248e-05
80	0x37a7f9b9	2.0024238e-05
81	0x3888b140	6.518001e-05
82	0xb89ab541	-7.3770534e-05
83	0xb8eba65e	-0.000112366615
84	0xb6ec14be	-7.035763e-06
85	0xb871f4ae	-5.7686753e-05
86	0x37caf9b1	2.4196548e-05
87	0xb514acde	-5.538585e-07
88	0xb7e7a24b	-2.761292e-05
89	0x386013b7	5.3424123e-05
90	0xb8553db7	-5.0840634e-05
91	0xb8c3b0b7	-9.33124e-05
92	0xb90077d0	-0.00012251665
93	0xb9297890	-0.00016162009
94	0x37cc80af	2.4378618e-05
95	0x36bcb937	5.6243985e-06
96	0x382c388e	4.1060666e-05
97	0x37e060a1	2.6747877e-05
98	0x3900e490	0.00012292177
99	0x39b0be9c	0.0003371135
100	0x3874ba98	5.8347912e-05
101	0x35ebd35d	1.7570379e-06
102	0xb7b380a4	-2.1398366e-05
103	0x38bb7a96	8.939688e-05
104	0xb8c9e7f6	-9.627633e-05
105	0x39ababf5	0.0003274378
106	0x38b0bad1	8.427131e-05
107	0xb759d20b	-1.2983112e-05
108	0x382cd781	4.12087e-05
109	0x37f3ccee	2.9063285e-05
110	0x392de87e	0.00016585176
111	0x388ee59a	6.813854e-05
112	0x3a10fc59	0.0005530767
113	0x361fb655	2.3798978e-06
114	0xb89db68d	-7.520346e-05
115	0x3922f8f6	0.00015542269
116	0x39b22586	0.00033978763
117	0x390f4276	0.00013662301
118	0xb8ea87f1	-0.000111833106
119	0x3929d443	0.0001619617
120	0x39cadb99	0.00038692055
121	0x39bffddb	0.00036619496
122	0x393c7470	0.00017972453
123	0x38cba78d	9.711003e-05
124	0x390a6ab1	0.00013200451
125	0xb904777d	-0.00012633014
126	0x3978b1f4	0.00023717416
127	0x39c04afb	0.0003667696
128	0x398a5754	0.00026386476
129	0x38ab9d03	8.183161e-05
130	0x38fdfaf2	0.00012110722
131	0xb86ecc2f	-5.6933783e-05
132	0x38a7c897	8.000543e-05
133	0x39055e18	0.00012718921
134	0x38a93c07	8.069729e-05
135	0x38446ee4	4.6833316e-05
136	0xb94bab39	-0.00019423374
137	0x3a300020	0.0006713886
138	0x39dd0fd2	0.00042164192
139	0xb84f17d9	-4.9374856e-05
140	0x38660217	5.483822e-05
141	0x3788eaea	1.6321854e-05
142	0x39f9df41	0.00047659318
143	0x39fff31c	0.0004881852
144	0x370da686	8.443027e-06
145	0xb5260b77	-6.18565e-07
146	0x3834012c	4.2916436e-05
147	0x37aaa5b2	2.0342737e-05
148	0x38a56081	7.885788e-05
149	0x39559dad	0.00020372002
150	0x3620d800	2.3967586e-06
151	0x38230f53	3.88765e-05
152	0x36f316e8	7.244631e-06
153	0xb6f451c9	-7.2812877e-06
154	0x37f3b7f5	2.9053519e-05
155	0x37396d7a	1.1052349e-05
156	0x394652ab	0.00018913548
157	0x3946219d	0.00018895273
158	0xb882b455	-6.2324725e-05
159	0x39769db1	0.00023519133
160	0x39235c70	0.00015579327
161	0x3909b2d4	0.00013131957
162	0xb8836ada	-6.2664694e-05
163	0x38ee7178	0.000113698596
164	0x39641e99	0.00021755173
165	0x3997c7ec	0.00028949918
166	0x387a19b5	5.9628586e-05
167	0x39148480	0.0001416374
168	0x38cf50c9	9.8855766e-05
169	0x38b474e8	8.604844e-05
170	0x3848eccb	4.7904246e-05
171	0xb79acf89	-1.8454872e-05
172	0x38dd9dfc	0.00010567528
173	0x37a93b8f	2.0174104e-05
174	0x39bcf9c3	0.0003604424
175	0x37326637	1.06334255e-05
176	0x385e020c	5.293083e-05
177	0xb4e7d460	-4.3181626e-07
178	0xb748a843	-1.1960105e-05
179	0x38ddf4ce	0.000105836996
180	0x37e6ed9e	2.7528786e-05
181	0x384ff495	4.958043e-05
182	0x399ae8eb	0.00029546706
183	0x38b63567	8.688383e-05
184	0xb789440f	-1.6363365e-05
185	0xb803131f	-3.125064e-05
186	0x37c78d95	2.3788578e-05
187	0x391bc2a9	0.00014854468
188	0x37df2f3d	2.6605669e-05
189	0x37ae399f	2.0769248e-05
190	0x396da8df	0.0002266499
191	0x36e8ac56	6.9342013e-06
192	0x3984cbb9	0.00025328787
193	0x389d2482	7.4931435e-05
194	0x385e11db	5.2945554e-05
195	0x39413899	0.00018426999
196	0x393bbea2	0.00017904726
197	0x39214443	0.00015379586
198	0x39ca20da	0.0003855292
199	0x38f9cbb7	0.0001191119
200	0x382a2e36	4.0574196e-05
201	0x39ce9699	0.00039403586
202	0x3837f331	4.385709e-05
203	0x38ff9117	0.000121863726
204	0xb7caa5c6	-2.415747e-05
205	0x3889e0ea	6.5745626e-05
206	0x38bfec9f	9.151664e-05
207	0xb8d0b872	-9.9525685e-05
208	0x37492b45	1.1990608e-05
209	0x36bbc127	5.59552e-06
210	0x358bbdf4	1.0411591e-06
211	0x3803d92f	3.1435102e-05
212	0xb815153f	-3.5544155e-05
213	0x3811d425	3.476827e-05
214	0x394d0de8	0.00019555504
215	0x3906c6d9	0.00012853312
216	0xb703e88e	-7.862354e-06
217	0x38cb1fbe	9.685707e-05
218	0x392f19bf	0.00016698892
219	0xb819ec92	-3.6698366e-05
220	0x38632d66	5.4163298e-05
221	0x38d4a0c5	0.000101388934
222	0xb888b8db	-6.5194174e-05
223	0x38c07cf0	9.178545e-05
224	0x3955934a	0.00020368132
225	0xb8f2e73f	-0.00011582532
226	0x38163e32	3.582071e-05
227	0x37cafefb	2.4199011e-05
228	0x386292c7	5.4019296e-05
229	0x381e5933	3.775321e-05
230	0xb817ae90	-3.616378e-05
231	0x396e47a6	0.0002272414
232	0x37fc6186	3.0086154e-05
233	0x37736317	1.4507e-05
234	0xb8414f7f	-4.6088822e-05
235	0x380a390e	3.29549e-05
236	0x388b9eb1	6.657595e-05
237	0xb81e16ec	-3.7691483e-05
238	0x3625b945	2.4694757e-06
239	0x365078dc	3.1064765e-06
240	0xb7bee99c	-2.2758548e-05
241	0xb6efbd1d	-7.1447707e-06
242	0x3781e48b	1.5484422e-05
243	0xb6433eab	-2.9093742e-06
244	0xb8945ae8	-7.0741225e-05
245	0xb8c8c586	-9.573535e-05
246	0xb8b581e6	-8.654948e-05
247	0xb88772d5	-6.458691e-05
248	0xb7c8d2d3	-2.394003e-05
249	0xb979556b	-0.00023778311
250	0xb7c9d262	-2.4059034e-05
251	0xb81c9537	-3.7332265e-05
252	0x372e4f72	1.03897055e-05
253	0x380662d1	3.204012e-05
254	0xb97caab3	-0.00024096183
255	0x36160d2a	2.2359404e-06

exp_avg_sq f4 [128, 4, 12]
0	0x30ca8445	1.4735028e-09
1	0x314f7d94	3.0193847e-09
2	0x324342c7	1.1365677e-08
3	0x31141d46	2.1553475e-09
4	0x3057f0be	7.855866e-10
5	0x30269d9a	6.0614413e-10
6	0x2d4936a9	1.1437664e-11
7	0x30315229	6.450898e-10
8	0x320fd2b8	8.371607e-09
9	0x30ecae8c	1.7220869e-09
10	0x31513224	3.0442004e-09
11	0x306abc8b	8.539664e-10
12	0x2ef7f6a4	1.1276072e-10
13	0x2cb03f25	5.0092313e-12
14	0x2d1e4c0d	8.998147e-12
15	0x319b6cc2	4.523458e-09
16	0x2d803b57	1.4578267e-11
17	0x2edb3168	9.967743e-11
18	0x31361963	2.6498916e-09
19	0x31fca11a	7.3524804e-09
20	0x30d3bd84	1.5406134e-09
21	0x30595d22	7.907649e-10
22	0x30966e12	1.094522e-09
23	0x2ff2e8f6	4.4185072e-10
24	0x31d2ba53	6.132987e-09
25	0x3187f4c0	3.956842e-09
26	0x2d5e45ad	1.263471e-11
27	0x2e570eb1	4.889839e-11
28	0x31ca882d	5.894455e-09
29	0x3161b500	3.2844696e-09
30	0x3194c513	4.3297717e-09
31	0x2f2f8c25	1.5965947e-10
32	0x2ff3204d	4.4224394e-10
33	0x313b013f	2.721279e-09
34	0x31a7d4ff	4.8845545e-09
35	0x3183c7cb	3.8353156e-09
36	0x2f352bdb	1.6477435e-10
37	0x2b461126	7.036753e-13
38	0x30589e12	7.8804974e-10
39	0x305dec34	8.0734996e-10
40	0x2f303ca0	1.6028645e-10
41	0x31188c4d	2.2198663e-09
42	0x305b77a7	7.984177e-10
43	0x3027d258	6.105316e-10
44	0x30874b45	9.843936e-10
45	0x2fc3e705	3.5634443e-10
46	0x2dab8558	1.9499666e-11
47	0x30cb42bf	1.4789164e-09
48	0x2f143540	1.347944e-10
49	0x2f15faf9	1.3640634e-10
50	0x30c97719	1.4658524e-09
51	0x2f156415	1.3587027e-10
52	0x30a953bc	1.2320167e-09
53	0x3157f480	3.14256e-09
54	0x2e6b3ae8	5.3485133e-11
55	0x2d0cf634	8.012747e-12
56	0x3064da63	8.3256263e-10
57	0x2f3081cd	1.6053221e-10
58	0x305da4c9	8.0633505e-10
59	0x2fe6cb3e	4.1981169e-10
60	0x2e44a34d	4.471028e-11
61	0x2f3d4f8a	1.7217708e-10
62	0x316de0d6	3.4615844e-09
63	0x31032bc2	1.9087882e-09
64	0x3176f263	3.5935492e-09
65	0x30c6c2d2	1.4461767e-09
66	0x30d985fa	1.5826906e-09
67	0x31ae71fe	5.077026e-09
68	0x2e85e70f	6.089184e-11
69	0x309231ee	1.0637089e-09
70	0x30958644	1.0879337e-09
71	0x30eefe60	1.7389077e-09
72	0x31fa3e66	7.2830515e-09
73	0x2f964809	2.7336025e-10
74	0x30a89465	1.2265785e-09
75	0x315ce515	3.2144432e-09
76	0x2f956fec	2.7182467e-10
77	0x2f5c31d6	2.0026589e-10
78	0x2e853087	6.05676e-11
79	0x30aef554	1.2729893e-09
80	0x2ef10580	1.0960388e-10
81	0x30617cd7	8.203193e-10
82	0x3105ba60	1.945999e-09
83	0x314c3231	2.9714438e-09
84	0x2ed0986f	9.4858225e-11
85	0x31c3d22b	5.6991403e-09
86	0x30261574	6.0420935e-10
87	0x2f55ed8a	1.9456628e-10
88	0x30192572	5.571429e-10
89	0x30ddd3b2	1.6140034e-09
90	0x317302b7	3.5362697e-09
91	0x30ce3af4	1.5005228e-09
92	0x319d1bff	4.572484e-09
93	0x31601656	3.2608987e-09
94	0x308d8fac	1.0299934e-09
95	0x2f5cf206	2.0094867e-10
96	0x31d5a386	6.2177063e-09
97	0x30382c1e	6.7001504e-10
98	0x31e34cab	6.6152857e-09
99	0x32bfa0c3	2.2308432e-08
100	0x30be8a65	1.3863654e-09
101	0x318aed8e	4.0433354e-09
102	0x313962bb	2.6977165e-09
103	0x311fbebd	2.3245967e-09
104	0x3171486f	3.511129e-09
105	0x331597c9	3.4829814e-08
106	0x324a45a2	1.177378e-08
107	0x32106be5	8.4064355e-09
108	0x3010f930	5.274101e-10
109	0x2f918695	2.6470973e-10
110	0x32dc336f	2.563476e-08
111	0x322d2dba	1.0080322e-08
112	0x32bf182a	2.2246315e-08
113	0x31d0d936	6.0782908e-09
114	0x3124a8b0	2.3961029e-09
115	0x31e6219b	6.6977015e-09
116	0x330cde74	3.279861e-08
117	0x31745dec	3.5560062e-09
118	0x30c4f597	1.4330678e-09
119	0x323b45ca	1.0900701e-08
120	0x32b005c0	2.0491711e-08
121	0x331271bb	3.409671e-08
122	0x31c058e0	5.5980394e-09
123	0x328fd7c7	1.6745515e-08
124	0x311fa08c	2.3228806e-09
125	0x328f4256	1.6677557e-08
126	0x31d89ebc	6.3044734e-09
127	0x33224ed9	3.7790276e-08
128	0x318515d9	3.8732932e-09
129	0x309916e0	1.1138717e-09
130	0x31059ab6	1.944199e-09
131	0x318e4beb	4.141375e-09
132	0x328f1a37	1.6659312e-08
133	0x3190fe82	4.2198858e-09
134	0x315103a4	3.0415572e-09
135	0x315778f0	3.1355363e-09
136	0x324b602c	1.1838022e-08
137	0x328b82b4	1.6241167e-08
138	0x333057b6	4.1057966e-08
139	0x312d941d	2.5259006e-09
140	0x3113a045	2.1482418e-09
141	0x30a74802	1.2171315e-09
142	0x32b669be	2.1235675e-08
143	0x32a7ed82	1.9549365e-08
144	0x2f7c6b23	2.2957329e-10
145	0x2f1cb86d	1.4253639e-10
146	0x30446f6d	7.146273e-10
147	0x2f324ad9	1.6215597e-10
148	0x30130ac7	5.3493604e-10
149	0x31905148	4.200192e-09
150	0x2d4bc4cf	1.1582914e-11
151	0x30a6ad24	1.2127299e-09
152	0x2e90d939	6.5869483e-11
153	0x30f0bca5	1.7515914e-09
154	0x2f0fa61b	1.3064787e-10
155	0x2fc6b4d5	3.614448e-10
156	0x31c0615d	5.5990044e-09
157	0x318982c7	4.0020924e-09
158	0x315c669a	3.2072536e-09
159	0x314feecc	3.0258205e-09
160	0x31407e2a	2.8011393e-09
161	0x30f1bcd3	1.7588725e-09
162	0x30003056	4.663482e-10
163	0x30e8d236	1.6939967e-09
164	0x319d6bdb	4.581563e-09
165	0x31813414	3.7603147e-09
166	0x30f236b8	1.7623369e-09
167	0x312b55a2	2.4932452e-09
168	0x30753252	8.920199e-10
169	0x30430b65	7.095678e-10
170	0x2ff414c9	4.439811e-10
171	0x2f2357d7	1.485597e-10
172	0x30ff9001	1.859462e-09
173	0x30a2ab0c	1.1835666e-09
174	0x31d6a6fc	6.2472036e-09
175	0x30c097af	1.401295e-09
176	0x2ff7cddf	4.5075318e-10
177	0x2f666b3a	2.0956473e-10
178	0x302bbe92	6.2480254e-10
179	0x30cfd489	1.5121638e-09
180	0x2fd70622	3.911263e-10
181	0x30270a29	6.0768685e-10
182	0x3168cd48	3.3877132e-09
183	0x31034c48	1.910637e-09
184	0x2e3962d8	4.215192e-11
185	0x2f3743c9	1.6667835e-10
186	0x2f16c7ef	1.3713451e-10
187	0x308b551f	1.0137774e-09
188	0x2fb5c852	3.3066044e-10
189	0x2ec15761	8.7921455e-11
190	0x3118c6c4	2.2231896e-09
191	0x305200f6	7.639892e-10
192	0x32003af4	7.463985e-09
193	0x30e299e1	1.6487399e-09
194	0x3032907f	6.4961364e-10
195	0x30e841bc	1.6898904e-09
196	0x31814839	3.762605e-09
197	0x319b1b98	4.5142308e-09
198	0x31f00fe4	6.986726e-09
199	0x31ab96fe	4.993921e-09
200	0x2f6e6bc0	2.1684254e-10
201	0x322d761e	1.0096782e-08
202	0x30e00e86	1.6302273e-09
203	0x31df2818	6.4947123e-09
204	0x2fbfc03f	3.4879297e-10
205	0x309a1700	1.1211512e-09
206	0x302b1927	6.224518e-10
207	0x317fee44	3.7242822e-09
208	0x2fb6b69a	3.3235353e-10
209	0x30db91e5	1.5975813e-09
210	0x310d8928	2.0596165e-09
211	0x304cc72f	7.4497825e-10
212	0x2fef90d1	4.3576745e-10
213	0x2f8cc1dd	2.56036e-10
214	0x32088558	7.946561e-09
215	0x311558b1	2.173277e-09
216	0x31351296	2.6349531e-09
217	0x315f3b5b	3.248451e-09
218	0x31a74b5e	4.868908e-09
219	0x2f391414	1.6832785e-10
220	0x31bef8b6	5.558003e-09
221	0x30965a4e	1.0939603e-09
222	0x30d8224d	1.5725817e-09
223	0x311e2837	2.3014886e-09
224	0x322b5a83	9.97409e-09
225	0x30e744d8	1.6827029e-09
226	0x3013a8a5	5.3717947e-10
227	0x2fa45f42	2.989911e-10
228	0x302f2352	6.371482e-10
229	0x301f4030	5.793508e-10
230	0x30f57e05	1.7861913e-09
231	0x318508a2	3.871791e-09
232	0x2f8e33ce	2.586646e-10
233	0x30b4076d	1.3098834e-09
234	0x2f8c85e1	2.5560978e-10
235	0x2f2317d6	1.4833232e-10
236	0x2ffd266d	4.6047735e-10
237	0x2f470a8a	1.8102689e-10
238	0x2d523af2	1.19502064e-11
239	0x2e2cc86f	3.9286293e-11
240	0x2fd635a3	3.8964484e-10
241	0x2e9803a1	6.9128044e-11
242	0x30d1a63d	1.5253999e-09
243	0x2f4183a1	1.7600012e-10
244	0x31587e0c	3.1503786e-09
245	0x305c59e1	8.016326e-10
246	0x30d9e843	1.5854841e-09
247	0x3044f2d0	7.164944e-10
248	0x3082f22a	9.527572e-10
249	0x311f678e	2.319641e-09
250	0x2eecf104	1.07748505e-10
251	0x30ac5ae9	1.2540485e-09
252	0x30d2435c	1.5298656e-09
253	0x30a813aa	1.2229198e-09
254	0x317d4541	3.6855712e-09
255	0x30635fdc	8.2718343e-10

exp_avg f4 [128]
0	0x3897acbe	7.232417e-05
1	0xb9238a9f	-0.00015596532
2	0x3a0ff7e2	0.00054919545
3	0x39a9d997	0.0003239631
4	0x39905470	0.0002752873
5	0xb995a8a9	-0.00028545156
6	0x39d3719a	0.00040329696
7	0x38e416f9	0.00010876166
8	0xb87a70b0	-5.9709593e-05
9	0x386d4967	5.6573565e-05
10	0xb982902e	-0.00024902954
11	0xb88e74ec	-6.792866e-05
12	0xb8effd48	-0.000114435854
13	0xb9b3c7c6	-0.00034290383
14	0xb9128848	-0.00013974414
15	0x39af09b7	0.0003338584
16	0x392b2a64	0.00016323623
17	0xb9e3b503	-0.00043431678
18	0x3a00a86f	0.0004907911
19	0x39b3e157	0.00034309432
20	0x397ed96e	0.00024304327
21	0xb70f41fe	-8.538829e-06
22	0x3a2ae586	0.0006519187
23	0x390ae119	0.00013244561
24	0xb87d32ac	-6.0367092e-05
25	0x3a162d83	0.00057288277
26	0x3939bcfa	0.00017713374
27	0xb99fcc89	-0.00030479234
28	0xb9b702da	-0.00034906605
29	0x390063e5	0.00012244245
30	0x39365ece	0.0001739219
31	0xb6bdff0f	-5.6623317e-06
32	0x39ef76ab	0.00045674047
33	0xb9a20e3d	-0.00030909656
34	0xb861d6d5	-5.384426e-05
35	0x3972d33b	0.00023157608
36	0x39b65249	0.00034775052
37	0xb9b3b3c5	-0.0003427548
38	0xb93dbf54	-0.0001809572
39	0xb9c47184	-0.0003746861
40	0xb917bfb7	-0.00014471902
41	0xb98b1e63	-0.00026534786
42	0x392f9e53	0.00016748281
43	0x39acfac0	0.0003299322
44	0x3a09f59b	0.00052627333
45	0x38792c02	5.940721e-05
46	0xb79dc51d	-1.8807646e-05
47	0xb6c65372	-5.910574e-06
48	0x39eabfd3	0.00044774878
49	0xb9e2471f	-0.00043159068
50	0xb9f35e60	-0.00046418887
51	0xb8e6e7bd	-0.00011010419
52	0x3919abfc	0.00014655286
53	0x39df1ef5	0.0004255694
54	0xb9ab2d58	-0.00032649445
55	0x39180357	0.00014497094
56	0x39d0b873	0.00039810277
57	0xb9a115bc	-0.00030724506
58	0x38c1cb3d	9.240813e-05
59	0x38a25b80	7.741805e-05
60	0xb94f3f6f	-0.00019764689
61	0xb8794f1b	-5.94399e-05
62	0x39d0ff0c	0.00039862876
63	0x36669ad2	3.4362788e-06
64	0xb97ad899	-0.00023922547
65	0x39fbac91	0.00048003023
66	0x38792324	5.9398953e-05
67	0xb851b03c	-4.9993614e-05
68	0x3918086b	0.00014498986
69	0x398b71ea	0.0002659702
70	0x39dbe8d5	0.00041944408
71	0x38917330	6.935594e-05
72	0x3919ad46	0.00014655766
73	0x38f4f581	0.00011680555
74	0x399a046b	0.0002937646
75	0x3966be6b	0.00022005445
76	0x39796749	0.00023784967
77	0xb9c05595	-0.00036684857
78	0xb9117a7c	-0.00013873907
79	0x38a8fce5	8.0579695e-05
80	0x385dba60	5.286408e-05
81	0xb9579ba9	-0.00020561986
82	0xb9d01a41	-0.00039692412
83	0x37c4b1bf	2.344779e-05
84	0xb9a7cf9f	-0.00032007412
85	0x389c5d11	7.455995e-05
86	0xb74e2fc3	-1.2289677e-05
87	0xb99093df	-0.00027575993
88	0x3897fb35	7.247032e-05
89	0x38bb922e	8.944083e-05
90	0xb941f862	-0.00018498444
91	0x3a1033a6	0.000550086
92	0x38a41581	7.824135e-05
93	0xb8f39a0b	-0.00011615836
94	0x39bddeb4	0.00036214816
95	0x3930e44c	0.00016869715
96	0xb9d1b2ca	-0.00039996795
97	0x38a43ef4	7.831855e-05
98	0x3a1040b0	0.0005502803
99	0x397a769a	0.0002388604
100	0xb924d409	-0.00015719248
101	0x389fc379	7.6181204e-05
102	0xb866601b	-5.492578e-05
103	0x3a1f0234	0.0006065697
104	0x391a02b5	0.00014687593
105	0x396833a1	0.00022144477
106	0xba59a4b4	-0.0008302436
107	0x399f66c7	0.00030403418
108	0xb986716a	-0.00025642972
109	0x3a1ffadc	0.00061027496
110	0x39b7ad46	0.0003503358
111	0x3923c132	0.00015616862
112	0xb76bec08	-1.4062047e-05
113	0xb895efc5	-7.149534e-05
114	0xb78fc624	-1.7139195e-05
115	0x3895a90a	7.13636e-05
116	0x39aaf43f	0.00032606904
117	0x3a1de9f0	0.0006023934
118	0x39db5a61	0.00041838273
119	0x39d61642	0.00040833844
120	0x39c4bb66	0.00037523656
121	0xb90c5d1a	-0.00013386123
122	0x39662388	0.00021947746
123	0x398b324f	0.0002654963
124	0x396f3caa	0.00022815415
125	0x393d3c2d	0.00018046862
126	0xb941fd71	-0.00018500329
127	0xb759c555	-1.2980153e-05

exp_avg_sq f4 [128]
0	0x322b0b56	9.9560875e-09
1	0x3203bcba	7.668115e-09
2	0x3355356c	4.9641514e-08
3	0x31da7db6	6.3589267e-09
4	0x322a28ef	9.90461e-09
5	0x324aefa9	1.181244e-08
6	0x33581d2e	5.0317958e-08
7	0x3103d580	1.918437e-09
8	0x31c2c608	5.6686567e-09
9	0x3238e711	1.0762748e-08
10	0x330971b8	3.2001225e-08
11	0x3290e6f7	1.6868837e-08
12	0x31143590	2.1567281e-09
13	0x32c2acce	2.2663155e-08
14	0x31a68c01	4.8471525e-09
15	0x32db1a8e	2.5507031e-08
16	0x3224216c	9.553656e-09
17	0x3328ea5f	3.9328707e-08
18	0x33889592	6.3602e-08
19	0x32bf7b45	2.2291383e-08
20	0x325316dd	1.2287015e-08
21	0x324847d2	1.1657862e-08
22	0x336757d0	5.3863744e-08
23	0x327e7aa3	1.481263e-08
24	0x308ace81	1.0099513e-09
25	0x3309b1c6	3.2059482e-08
26	0x3229b5f1	9.878463e-09
27	0x32bb6512	2.1815627e-08
28	0x32599575	1.2665045e-08
29	0x30e20853	1.644603e-09
30	0x32af8ca5	2.0436639e-08
31	0x31aecddb	5.0874696e-09
32	0x33516bac	4.875953e-08
33	0x32d23e8f	2.4475666e-08
34	0x32360500	1.0594931e-08
35	0x32c62536	2.3067155e-08
36	0x32de2fbb	2.5865907e-08
37	0x326f1945	1.3917377e-08
38	0x320d8a5e	8.238741e-09
39	0x3359c9ce	5.070779e-08
40	0x31bcd55e	5.495777e-09
41	0x3315c3cf	3.4869853e-08
42	0x31143b28	2.157046e-09
43	0x3212ae74	8.5379845e-09
44	0x3334b760	4.2076294e-08
45	0x30c10f7a	1.4046997e-09
46	0x31b26801	5.1923057e-09
47	0x31ca5208	5.8882996e-09
48	0x331ffe7c	3.7251525e-08
49	0x32a28ddd	1.8923794e-08
50	0x330fa485	3.344441e-08
51	0x3282279d	1.5152006e-08
52	0x320a73e6	8.0590095e-09
53	0x32fa7e08	2.9161143e-08
54	0x32167ed5	8.759987e-09
55	0x3130ef62	2.5747444e-09
56	0x339add17	7.2114e-08
57	0x321e1b8e	9.203076e-09
58	0x3104be23	1.9316608e-09
59	0x321ca64b	9.118206e-09
60	0x333c05d7	4.3777472e-08
61	0x30957e6a	1.0877106e-09
62	0x338f7fd5	6.682209e-08
63	0x3239257f	1.0776943e-08
64	0x321823cd	8.855705e-09
65	0x32ce0bcb	2.398692e-08
66	0x3046f28c	7.237666e-10
67	0x32365b9d	1.0614625e-08
68	0x311731c1	2.2001674e-09
69	0x328380f4	1.5309048e-08
70	0x332d6cef	4.0378776e-08
71	0x328bacf9	1.6260389e-08
72	0x318e8213	4.1475317e-09
73	0x3097a2c6	1.1032959e-09
74	0x32939af4	1.7183517e-08
75	0x323a173a	1.0831906e-08
76	0x3193d467	4.3024104e-09
77	0x33493756	4.6849287e-08
78	0x31a0157a	4.6590545e-09
79	0x3263a852	1.3251411e-08
80	0x321b00b7	9.02235e-09
81	0x32d484bc	2.4740409e-08
82	0x32bf07c3	2.2238856e-08
83	0x31cf3b0c	6.0312058e-09
84	0x331ea508	3.6937337e-08
85	0x30cc308c	1.4856751e-09
86	0x321fc1b4	9.299061e-09
87	0x333b7999	4.3649923e-08
88	0x31199057	2.2346478e-09
89	0x31242569	2.3886406e-09
90	0x31906da2	4.2034154e-09
91	0x32cc139f	2.3757648e-08
92	0x319354bf	4.2878976e-09
93	0x31870f91	3.930787e-09
94	0x32b90be1	2.1542236e-08
95	0x31f16cc9	7.0263906e-09
96	0x3304f67b	3.0957818e-08
97	0x30d82c67	1.5728688e-09
98	0x339a67c0	7.190056e-08
99	0x33213b94	3.753992e-08
100	0x310b0106	2.0227744e-09
101	0x310702bb	1.9646638e-09
102	0x32107fbf	8.410949e-09
103	0x33b1f424	8.286614e-08
104	0x325f7608	1.3007146e-08
105	0x3160e9c8	3.272918e-09
106	0x340fe27d	1.3400309e-07
107	0x3294fa12	1.7343186e-08
108	0x31e8cb98	6.7752346e-09
109	0x33688325	5.4135985e-08
110	0x3201821d	7.538373e-09
111	0x324099d3	1.12108465e-08
112	0x3250196b	1.2112973e-08
113	0x31960126	4.365705e-09
114	0x309fbc69	1.1622322e-09
115	0x320e84b3	8.29566e-09
116	0x32e12bf0	2.6213428e-08
117	0x33b38a8e	8.36054e-08
118	0x3280b66a	1.4984114e-08
119	0x329d75f0	1.8330837e-08
120	0x33102bfa	3.356761e-08
121	0x3103d727	1.918531e-09
122	0x32b80f26	2.1427308e-08
123	0x329f666d	1.8556614e-08
124	0x32dbaab6	2.5572586e-08
125	0x31d5a95f	6.218371e-09
126	0x31256d2c	2.4072717e-09
127	0x318f4e13	4.1707238e-09

exp_avg f4 [32, 128]
0	0x3a6975df	0.0008905809
1	0x3a6975df	0.0008905809
2	0x3a6975df	0.0008905809
3	0xba6975df	-0.0008905809
4	0x3a6975df	0.0008905809
5	0x392c8db6	0.0001645599
6	0x3a0ec0cd	0.00054455997
7	0x3a6975df	0.0008905809
8	0x3a6975df	0.0008905809
9	0xba6975df	-0.0008905809
10	0x3a6975df	0.0008905809
11	0x3a6975df	0.0008905809
12	0xba6975df	-0.0008905809
13	0x3a6975df	0.0008905809
14	0x3a6975df	0.0008905809
15	0xba6975df	-0.0008905809
16	0x3a6975df	0.0008905809
17	0x3a350819	0.00069058087
18	0x3a6975df	0.0008905809
19	0xba6975df	-0.0008905809
20	0x39b6c1bc	0.00034858088
21	0xba6975df	-0.0008905809
22	0xba6975df	-0.0008905809
23	0x3a6975df	0.0008905809
24	0x3a6975df	0.0008905809
25	0xb9d80a0d	-0.0004120622
26	0x3a6975df	0.0008905809
27	0x382531ce	3.938545e-05
28	0x3a6975df	0.0008905809
29	0xba6975df	-0.0008905809
30	0xba6975df	-0.0008905809
31	0xb9af6a4f	-0.00033457807
32	0xba6975df	-0.0008905809
33	0x39028d8f	0.00012450501
34	0xba6975df	-0.0008905809
35	0xba6975df	-0.0008905809
36	0x3918d9b2	0.00014576947
37	0x38e937b0	0.000111206784
38	0xba6975df	-0.0008905809
39	0xba6975df	-0.0008905809
40	0x3a6975df	0.0008905809
41	0x3a6975df	0.0008905809
42	0x3a6975df	0.0008905809
43	0x3a6975df	0.0008905809
44	0xba6975df	-0.0008905809
45	0x3a6975df	0.0008905809
46	0x39203fb8	0.00015282526
47	0x3a6975df	0.0008905809
48	0xb8dae011	-0.00010436786
49	0xba6975df	-0.0008905809
50	0xba6975df	-0.0008905809
51	0xba6975df	-0.0008905809
52	0xba6975df	-0.0008905809
53	0x3a6975df	0.0008905809
54	0xba6975df	-0.0008905809
55	0x3a350819	0.00069058087
56	0xba6975df	-0.0008905809
57	0x3a6975df	0.0008905809
58	0xb84330d4	-4.6537098e-05
59	0xba6975df	-0.0008905809
60	0xba6975df	-0.0008905809
61	0xba6975df	-0.0008905809
62	0x3a6975df	0.0008905809
63	0xba6975df	-0.0008905809
64	0xb954a192	-0.00020278085
65	0xba6975df	-0.0008905809
66	0x3a6975df	0.0008905809
67	0x384330d4	4.6537098e-05
68	0x3982470b	0.00024848463
69	0xba6975df	-0.0008905809
70	0xba6975df	-0.0008905809
71	0x3a6975df	0.0008905809
72	0x3a6975df	0.0008905809
73	0xb9203fb8	-0.00015282526
74	0xba6975df	-0.0008905809
75	0xba6975df	-0.0008905809
76	0xba6975df	-0.0008905809
77	0xba6975df	-0.0008905809
78	0xba6975df	-0.0008905809
79	0xb9b6c1bc	-0.00034858088
80	0x39d80a0d	0.0004120622
81	0x3954a192	0.00020278085
82	0x39af6a4f	0.00033457807
83	0xba6975df	-0.0008905809
84	0x3a6975df	0.0008905809
85	0x3a6975df	0.0008905809
86	0xba6975df	-0.0008905809
87	0xb92c8db6	-0.0001645599
88	0xba6975df	-0.0008905809
89	0x3a6975df	0.0008905809
90	0x3a6975df	0.0008905809
91	0x3a6975df	0.0008905809
92	0xba6975df	-0.0008905809
93	0x3a6975df	0.0008905809
94	0xba6975df	-0.0008905809
95	0x3a6975df	0.0008905809
96	0xba6975df	-0.0008905809
97	0xba6975df	-0.0008905809
98	0xba6975df	-0.0008905809
99	0xb84330d4	-4.6537098e-05
100	0x3a6975df	0.0008905809
101	0xba6975df	-0.0008905809
102	0xba6975df	-0.0008905809
103	0xba6975df	-0.0008905809
104	0x38b2f406	8.533154e-05
105	0xba6975df	-0.0008905809
106	0xba6975df	-0.0008905809
107	0x3a6975df	0.0008905809
108	0xba6975df	-0.0008905809
109	0xba6975df	-0.0008905809
110	0x3a6975df	0.0008905809
111	0x3a6975df	0.0008905809
112	0xba6975df	-0.0008905809
113	0x3a05d881	0.0005105809
114	0xba6975df	-0.0008905809
115	0xba6975df	-0.0008905809
116	0xba6975df	-0.0008905809
117	0x3a6975df	0.0008905809
118	0xba6975df	-0.0008905809
119	0x39af6a4f	0.00033457807
120	0xba6975df	-0.0008905809
121	0x3a6975df	0.0008905809
122	0xb9d80a0d	-0.0004120622
123	0xba6975df	-0.0008905809
124	0xba6975df	-0.0008905809
125	0x3a6975df	0.0008905809
126	0xba6975df	-0.0008905809
127	0x3a6975df	0.0008905809
128	0xba6975df	-0.0008905809
129	0x3869701c	5.565594e-05
130	0x3a6975df	0.0008905809
131	0x3a6975df	0.0008905809
132	0x384330d4	4.6537098e-05
133	0xb9b6c1bc	-0.00034858088
134	0xb993be43	-0.0002817978
135	0xba6975df	-0.0008905809
136	0xba6975df	-0.0008905809
137	0x3a6975df	0.0008905809
138	0x389612f2	7.156086e-05
139	0xba6975df	-0.0008905809
140	0xba6975df	-0.0008905809
141	0xb8ffdc26	-0.000122003534
142	0xb928dac5	-0.00016103227
143	0x3a6975df	0.0008905809
144	0x39203fb8	0.00015282526
145	0x3a6975df	0.0008905809
146	0xba6975df	-0.0008905809
147	0x3816a57a	3.59169e-05
148	0xba6975df	-0.0008905809
149	0xba6975df	-0.0008905809
150	0xba6975df	-0.0008905809
151	0xb816a57a	-3.59169e-05
152	0x38d4c699	0.000101459395
153	0x394a7d41	0.00019310882
154	0x3a6975df	0.0008905809
155	0xba6975df	-0.0008905809
156	0x3a6975df	0.0008905809
157	0xba6975df	-0.0008905809
158	0xba6975df	-0.0008905809
159	0xba6975df	-0.0008905809
160	0xba6975df	-0.0008905809
161	0xba6975df	-0.0008905809
162	0x3a6975df	0.0008905809
163	0xb967c888	-0.0002210458
164	0xba6975df	-0.0008905809
165	0xba6975df	-0.0008905809
166	0xba6975df	-0.0008905809
167	0xb94a7d41	-0.00019310882
168	0x3a6975df	0.0008905809
169	0x399fb18d	0.0003045913
170	0xba6975df	-0.0008905809
171	0x384330d4	4.6537098e-05
172	0xba6975df	-0.0008905809
173	0x399fb18d	0.0003045913
174	0x3a6975df	0.0008905809
175	0xb97b1d45	-0.00023948129
176	0xba6975df	-0.0008905809
177	0xb84330d4	-4.6537098e-05
178	0x39d80a0d	0.0004120622
179	0xba6975df	-0.0008905809
180	0xb89612f2	-7.156086e-05
181	0x3a6975df	0.0008905809
182	0xba6975df	-0.0008905809
183	0xb84330d4	-4.6537098e-05
184	0x3982470b	0.00024848463
185	0xb9203fb8	-0.00015282526
186	0xba6975df	-0.0008905809
187	0x3a6975df	0.0008905809
188	0x3954a192	0.00020278085
189	0x3a6975df	0.0008905809
190	0xba6975df	-0.0008905809
191	0x3a05d881	0.0005105809
192	0x3a350819	0.00069058087
193	0x3a6975df	0.0008905809
194	0x3a350819	0.00069058087
195	0x3816a57a	3.59169e-05
196	0xba6975df	-0.0008905809
197	0x3a6975df	0.0008905809
198	0xba6975df	-0.0008905809
199	0xba6975df	-0.0008905809
200	0x3a6975df	0.0008905809
201	0xb8e937b0	-0.000111206784
202	0xba6975df	-0.0008905809
203	0xba6975df	-0.0008905809
204	0x3a6975df	0.0008905809
205	0x39fc99cf	0.00048179782
206	0x3a6975df	0.0008905809
207	0xba6975df	-0.0008905809
208	0xba6975df	-0.0008905809
209	0xba6975df	-0.0008905809
210	0xb92f4179	-0.00016713691
211	0xba6975df	-0.0008905809
212	0x3a6975df	0.0008905809
213	0x3a6975df	0.0008905809
214	0xba6975df	-0.0008905809
215	0xba6975df	-0.0008905809
216	0xba6975df	-0.0008905809
217	0xba6975df	-0.0008905809
218	0xb84330d4	-4.6537098e-05
219	0xba6975df	-0.0008905809
220	0xba6975df	-0.0008905809
221	0xba6975df	-0.0008905809
222	0xba6975df	-0.0008905809
223	0xba6975df	-0.0008905809
224	0x3a6975df	0.0008905809
225	0x3a6975df	0.0008905809
226	0x3a6975df	0.0008905809
227	0x3a6975df	0.0008905809
228	0x3a6975df	0.0008905809
229	0x3a6975df	0.0008905809
230	0x3a6975df	0.0008905809
231	0xba6975df	-0.0008905809
232	0xba6975df	-0.0008905809
233	0x3a6975df	0.0008905809
234	0xba6975df	-0.0008905809
235	0x3a6975df	0.0008905809
236	0x397b1d45	0.00023948129
237	0xba6975df	-0.0008905809
238	0x3a6975df	0.0008905809
239	0x3a6975df	0.0008905809
240	0x3918d9b2	0.00014576947
241	0xba6975df	-0.0008905809
242	0xba6975df	-0.0008905809
243	0x3a6975df	0.0008905809
244	0xb982470b	-0.00024848463
245	0xba6975df	-0.0008905809
246	0x3a6975df	0.0008905809
247	0xba6975df	-0.0008905809
248	0x3967c888	0.0002210458
249	0xb9203fb8	-0.00015282526
250	0xba6975df	-0.0008905809
251	0x397b1d45	0.00023948129
252	0xba6975df	-0.0008905809
253	0x3a6975df	0.0008905809
254	0xba6975df	-0.0008905809
255	0x3a6975df	0.0008905809
