our-vTR/10_fold_lightning_logs/dataset1/fold_2/version_2/checkpoints/epoch=49-step=1749_fold2.ckpt (torch, 132433 bytes, 18 tensors)

conv1d.weight f4 [128, 4, 12]
000000 ea bc 85 be c5 6f 6a 3e 4d 24 c2 3d 6f 93 81 be
       -0.26120692 0.22894199 0.0947958 -0.25307795
000010 e7 f6 34 3e 25 65 d4 3c 82 44 ad 3d de 4d c9 be
       0.17672311 0.025927136 0.084603325 -0.3931722
000020 4c 45 d8 bd 43 98 57 3e 3c b6 0b ba 4b aa 5d bc
       -0.10560092 0.21054177 -0.0005329584 -0.013529371
000030 3e 53 35 3e 1a a7 ac be 98 7f 85 3d c4 63 e9 bd
       0.17707536 -0.33721238 0.06518477 -0.11395982
000040 44 e4 bb be ef 2c 87 bd 44 46 15 3e 2a 4a 18 3e
       -0.3669759 -0.06600367 0.14577585 0.14872041
000050 71 e4 81 be ab e5 e0 3d 3b 67 46 be 74 2c 21 be
       -0.253696 0.10981306 -0.19375317 -0.15739614
000060 d5 01 b4 be 8a 37 de 3d 06 7f 44 bd 4c f6 81 3e
       -0.35157648 0.10850437 -0.0479727 0.25383222
000070 df 8b 6e 3e c3 c1 f4 bd 6f 94 40 3c 4f bc d0 bc
       0.23295544 -0.119510196 0.011754139 -0.025480418
000080 20 a0 13 3e 48 35 97 be da ef fb 3c b5 a7 6e be
       0.14416552 -0.29532838 0.030754019 -0.23306163
000090 ab 6f e9 3d 00 12 88 3d 55 e9 16 be 56 01 86 be
       0.11398252 0.06644058 -0.14737447 -0.26172894
0000a0 01 42 8b be b3 41 0f be 88 e5 c7 3d 14 6b fc bd
       -0.27198794 -0.13989906 0.097605765 -0.12325111
0000b0 1a 19 56 3e 17 00 95 bd 0e f8 3f 3d d8 a1 8e 3e
       0.20908013 -0.07275408 0.046867423 0.27857852
0000c0 d9 2e e9 bd 42 a5 12 bd 6e 82 12 3e cb 27 5b 3d
       -0.113858886 -0.035802133 0.14307567 0.053504746
0000d0 96 11 1b 3c 5d cd 2c be e3 40 7c bd 24 0a 06 bd
       0.009464642 -0.16875215 -0.06158532 -0.032724515
0000e0 f6 60 80 bd 10 33 e5 be 2f 1e 66 bd 75 00 df bd
       -0.06268494 -0.4476552 -0.05618113 -0.10888759
0000f0 cb 8c ae 3e c0 9c 14 3e bf a8 70 bd 8c 78 0b be
       0.34091792 0.1451292 -0.05875468 -0.13620204
000100 1e 25 5f 3e 15 0f 46 3e 2f df 28 be 7d c2 ac bd
       0.21791503 0.19341691 -0.16491388 -0.08435533
000110 79 aa 8c 3d f5 f5 12 be 96 87 54 bc 70 78 46 be
       0.068684526 -0.14351638 -0.012971779 -0.19381881
000120 14 62 13 be 6b f5 af bd ab 28 b6 bd d2 61 d6 be
       -0.14392883 -0.08591732 -0.088944755 -0.41871506
000130 03 38 06 be d0 a2 89 be 64 49 a8 3d 20 d7 17 3e
       -0.13107304 -0.2688203 0.08217123 0.14828157
000140 ed ab 83 3e c0 f0 bd be 10 9d 94 3d ad f5 45 3e
       0.25717106 -0.3709774 0.0725652 0.19331999
000150 f7 01 0a be 60 1e bf bd 15 5f 6d be 2b 27 80 3e
       -0.13477312 -0.093319654 -0.23180802 0.25029883
000160 b0 a3 a6 be 4e ff ba 3d fb 14 8e be 1d 35 dc 3d
       -0.3254676 0.09130727 -0.27750382 0.10752318
000170 c8 02 73 bc 8d 78 6a 3e 0d 34 27 be 1d fa c5 3b
       -0.014832206 0.22897549 -0.1632845 0.0060417787
000180 9e 1d 0b bd e3 74 10 be 2b 05 c3 3c 9f 2b 94 3e
       -0.033963792 -0.14107089 0.023806175 0.2893953
000190 6a ef bb 3c 51 a6 55 bd 38 28 32 be df fc 50 be
       0.02294131 -0.052160565 -0.17398155 -0.20408963
0001a0 e0 28 80 3c 83 ca 34 3d f5 e9 b7 3d 93 9a 2f be
       0.01564449 0.044138443 0.08980171 -0.17148809
0001b0 67 48 61 be 4e 54 29 bb 74 79 c9 3d fb 37 99 be
       -0.22000276 -0.0025837603 0.098376185 -0.29925522
0001c0 47 d5 b5 bd bb a7 e3 bc 40 18 8f 3e ef 84 33 3d
       -0.0887857 -0.027789941 0.2794819 0.043827947
0001d0 d7 99 2b bd de 41 ea bd 8b 52 7f be 18 c5 a7 3d
       -0.04189476 -0.114383444 -0.24933831 0.081918895
0001e0 9f 98 1e 3e c3 89 d4 3d c0 bc 73 3d 9e 54 29 be
       0.15487908 0.103778385 0.059506178 -0.16536185
0001f0 67 d5 f3 3d 63 52 ea 3d 8a 0f 9a 3a 5d 06 fe bd
       0.11905938 0.11441495 0.0011753899 -0.124035574
000200 5c f8 51 3d 6a a1 7f 3d 20 fb 2a 3e 00 0f 0f 3e
       0.051262245 0.062409796 0.16697359 0.13970566
000210 de fc cb 3d ad 77 5f be bd fe d6 3d ad a8 80 be
       0.0996034 -0.21822996 0.10497806 -0.2512869
000220 b3 79 c2 3d 46 db fa be 8e 29 5b be 37 50 03 3e
       0.094958685 -0.48995417 -0.2140257 0.12823568
000230 ab f4 9f bd 79 64 05 be 4e 3e 83 be 0a 06 94 be
       -0.078103386 -0.13026609 -0.25633472 -0.28910857
000240 4f d9 32 3d 57 bc 50 be 89 1d 5a be 66 1d 91 bd
       0.043664273 -0.20384346 -0.2130033 -0.070856854
000250 d4 15 eb be e1 96 59 3e 07 18 16 be 56 cb 7c bd
       -0.4591509 0.21248962 -0.14657603 -0.061717354
000260 97 ac 82 be cf 5c 78 be 69 a2 4c bc ce fd 32 3e
       -0.255223 -0.24254154 -0.0124898935 0.17479631
000270 e7 f8 7f be eb d5 33 bd d4 91 1c 3d 8c ad 04 be
       -0.24997292 -0.04390518 0.03822501 -0.12956828
000280 57 bc 86 bb 25 12 cf be 14 03 0b be 0d 43 f3 3c
       -0.0041118073 -0.4044353 -0.13575393 0.029695058
000290 c2 6c 49 3e 87 94 b7 3d ef 66 c4 3c c7 bb 4c 3d
       0.19670394 0.08963876 0.023974864 0.049983766
0002a0 0c bc 83 bd 16 4b 0e 3e 3d d6 95 3c 62 d8 9d 3e
       -0.064323515 0.1389583 0.018290633 0.3082915
0002b0 eb bc c7 3d 06 99 96 3d ba 62 78 3e 15 c7 8f 3e
       0.0975283 0.07353406 0.24256411 0.28081575
0002c0 96 66 f1 3d 2a 1d 14 bd 4a ab 16 3c 6e eb 47 be
       0.11787145 -0.036160626 0.009196112 -0.19523403
0002d0 51 f9 80 3e d9 81 48 3e 37 82 34 3e d2 77 12 bd
       0.25190213 0.19580783 0.17627798 -0.0357588
0002e0 dd b6 57 bd 18 c0 9a be c8 54 8d be 06 f4 de be
       -0.052664626 -0.3022468 -0.27603745 -0.4354555
0002f0 a1 76 00 be 7e fa 8c 3e ca c8 10 3e 6c 40 17 bd
       -0.12545253 0.2753486 0.14139095 -0.03692667
000300 06 3d dd 3d 3a ec 86 be b1 74 a6 be d4 ac 17 3e
       0.10802655 -0.26352102 -0.32510903 0.14812022
000310 31 b1 17 3e b7 30 ca bc b0 58 0a 3e 44 a1 bf bd
       0.14813687 -0.024681432 0.13510394 -0.09356931
000320 8f 17 06 be 36 44 24 be 6a cc 24 3e 51 9f 53 be
       -0.13094924 -0.16041645 0.16093603 -0.20666243
000330 c6 0d 4e be 27 eb 97 bd c3 dc 4d 3e 41 fc 4a be
       -0.20122442 -0.074178986 0.20103745 -0.1982279
000340 da 06 5d 3e 4a c2 54 bd d5 f9 28 be 12 7e 0f bd
       0.21584645 -0.0519431 -0.16501553 -0.03503234
000350 a9 0b 66 be 90 99 b2 3e 33 48 3c bc 29 76 eb 3d
       -0.22465385 0.34882784 -0.011491823 0.11497147
000360 89 a3 c0 3c 4a f1 5c 3e 02 86 fb 3d 05 e4 2b 3e
       0.02351548 0.2157642 0.12281419 0.16786201
000370 9e d2 10 be 94 d9 23 be 6e 54 37 be b7 ed 80 be
       -0.14142844 -0.16000968 -0.17903301 -0.25181362
000380 bd 20 78 3e 72 62 d4 bd 2d 87 5f 3d fa 60 3a 3d
       0.24231239 -0.103703395 0.054572273 0.04550264
000390 f4 22 0a 3e 65 f3 71 3c 8c c4 d2 bd 93 47 90 be
       0.13489896 0.014767502 -0.102913946 -0.28179607
0003a0 22 f4 85 3d 4c 65 cd 3d 81 b5 a4 3c eb ad f0 3d
       0.06540705 0.100290865 0.020106079 0.11751922
0003b0 91 20 74 be e5 d3 d4 bd f7 c7 b0 3d 29 81 26 be
       -0.23840548 -0.10391978 0.0863189 -0.16260208
0003c0 75 80 c8 bc 43 97 c8 bb d3 14 e9 bd 5e d2 72 be
       -0.024475316 -0.0061215474 -0.11380925 -0.23713061
0003d0 56 92 b4 be f7 9a 2e be db 75 94 be a9 40 e1 3d
       -0.35267895 -0.17051302 -0.28996167 0.10998661
0003e0 ea a1 8a be d4 bc f0 bd b7 55 6a be ba 40 a1 bb
       -0.27076656 -0.11754766 -0.2288426 -0.004921046
0003f0 19 b7 09 be fd 5d e2 bd 54 de 68 bd be 39 8e be
       -0.13448752 -0.11053083 -0.056852654 -0.2777843

conv1d.bias f4 [128]
000000 9d b2 b7 3c 8e 1b 4b bd 62 d6 c4 bd dd 2c ec bc
       0.022424037 -0.049586825 -0.09611203 -0.028829986
000010 dd 1f cf 3b 61 90 d0 3d 6f f2 2d be 9b ef 08 3e
       0.006320937 0.10183788 -0.16987012 0.13372652
000020 8f e2 3b 3d 76 49 35 3d 0d bc f3 3b 56 90 c9 bc
       0.04587036 0.04425951 0.007438189 -0.024604958
000030 28 d5 04 3d e8 83 0f 3e 48 03 de 3c 48 90 c2 3d
       0.032429844 0.14015162 0.027101174 0.09500176
000040 bb 09 24 3c dc 02 18 bc df bc e9 3d 57 45 ea 3d
       0.010012086 -0.0092780255 0.114129774 0.11439007
000050 0b 5f a1 3c ad a9 23 bd d3 8d 9e 3d e7 8b 0c 3c
       0.01969864 -0.039956737 0.077418946 0.008578277
000060 b0 cb db bd d5 16 c6 bd 59 c6 28 3e 33 df d2 bc
       -0.1073221 -0.096723236 0.16481914 -0.025741195
000070 53 dc 2f 3c b6 16 05 bd 75 e6 26 be 10 c3 81 3d
       0.010733682 -0.032492362 -0.1629885 0.06336033
000080 c5 9f 49 bd 04 2a 56 3d bd 9d 5c bc 17 87 26 3c
       -0.049224634 0.052286163 -0.013465342 0.010164044
000090 ff 31 45 bc ad f0 84 bd c1 4c bf 3d 3b c9 0d be
       -0.012035846 -0.06491218 0.093408115 -0.13846295
0000a0 e2 51 85 3d 3a fe 9c bd a8 5e 1b 3d 69 df d1 bd
       0.065097585 -0.07665677 0.037932068 -0.1024769
0000b0 8a a6 b9 bd 52 59 2e bb 62 ff c3 3d fe 04 96 bd
       -0.09064968 -0.0026603532 0.09570195 -0.07325171
0000c0 5f df 8a bc 60 9d 3b be 51 e0 52 3b cf 70 c9 3d
       -0.016952215 -0.18321753 0.003217716 0.0983597
0000d0 d7 5a 1f 3d 33 eb 90 3d b3 94 77 3c 69 5b 2c bd
       0.03890499 0.07076111 0.015111136 -0.042079363
0000e0 e7 d7 d2 3d 0a 61 2a be ae f8 43 bd a4 9a 30 be
       0.10295086 -0.1663858 -0.04784458 -0.1724649
0000f0 69 3d 97 3d 77 3b b3 bd 6b 71 d0 bc 1a e5 21 3e
       0.0738476 -0.087515764 -0.025444707 0.15810052
000100 fc 10 f3 3d b4 03 25 bd f5 4e 73 bc 40 17 d1 bd
       0.11868474 -0.040286735 -0.014850368 -0.10209513
000110 48 17 38 be 17 3c 0e be 0c 71 89 bd 5d 4c 11 bb
       -0.17977631 -0.1389011 -0.06711015 -0.002217076
000120 0d 3f fc bc 8d f2 aa bc e4 d7 33 3d e0 41 98 3d
       -0.030791784 -0.02086761 0.04390706 0.0743444
000130 5d 76 b1 3d 1c 0e c6 bd c0 32 6d 3d ba 0a cf 3d
       0.08665154 -0.0967066 0.057909727 0.10109468
000140 9d 4d a3 bd e8 1f 17 3e 9c 54 01 bd e7 cf 23 bd
       -0.07973788 0.14758265 -0.03157483 -0.039993193
000150 62 80 ce bd 8f 29 51 3d 3d 18 ba bd 54 fe 43 be
       -0.10083081 0.051065024 -0.09086654 -0.19139987
000160 2a e8 35 be 38 0d 8e bd fc c9 05 bd 06 d4 af 3b
       -0.17764345 -0.06936115 -0.03266333 0.0053658513
000170 8c ff 73 3d e2 1e db bc c3 eb ca bd 05 49 dd bd
       0.05956988 -0.026748125 -0.09908249 -0.10804943
000180 79 83 33 be 27 47 17 3d 22 09 17 be fa 3c d6 bd
       -0.17530622 0.03693309 -0.14749578 -0.10460849
000190 56 f3 36 be bd ef 7a 3d 6d 53 c8 bd 64 74 22 bd
       -0.17866263 0.06126379 -0.09781537 -0.03966178
0001a0 95 ee a8 bc 1a 82 5e 3d 15 ea 52 bd 5e 3e 02 be
       -0.020621577 0.054323293 -0.05149277 -0.12719104
0001b0 59 34 16 3d 4c d9 df bd 81 74 bf 3d b0 7f f6 bd
       0.036671016 -0.10930118 0.09348393 -0.12036073
0001c0 1c ab bf bc 51 74 e4 bd 98 e9 7b 3c 2f b0 72 bc
       -0.023397021 -0.11154998 0.015375517 -0.014812513
0001d0 1f 27 c6 3b 51 4a 88 bd 0e a9 b2 3c 15 23 c6 bd
       0.006047144 -0.066548 0.021809127 -0.0967466
0001e0 98 39 c4 bd 75 96 ef bd 58 c5 e8 bd da 18 23 be
       -0.09581298 -0.11698619 -0.11365765 -0.15927449
0001f0 35 19 16 3e 89 cb bf 3c 5a 3f 0f 3e 7b 2a 06 3c
       0.14658053 0.023412483 0.1398901 0.008188839

linears.0.weight f4 [32, 128]
000000 f3 9b 89 bd 81 0d 88 bd f0 38 8c b9 92 44 79 bd
       -0.06719198 -0.06643201 -0.00026745303 -0.06085641
000010 01 fd 34 3d 12 d3 e0 bc fd 18 f7 3d 66 f8 82 bd
       0.044186596 -0.027444396 0.12065313 -0.063950345
000020 ba 3e d2 3d 92 21 f2 bc 69 ea db bc aa 74 f2 b9
       0.102658704 -0.029557023 -0.026845174 -0.00046244758
000030 1f 1b 02 3e 64 f0 5e bd f9 fe d6 bd fa a8 dd 3d
       0.12705658 -0.054428473 -0.10497851 0.10823245
000040 d2 0d 2d 3d 10 86 c6 bc 47 f8 16 bd dc c2 4b bd
       0.04224951 -0.024233848 -0.03685787 -0.04974638
000050 e3 8c 64 3d 91 c9 f0 bc 3a b5 81 3d 4a 48 71 3d
       0.055798423 -0.02939299 0.06333394 0.05890683
000060 fb 5d 2b bd 54 ef 4c 39 35 a9 43 bd 04 c5 5b bd
       -0.041837674 0.00019544113 -0.04776879 -0.053654686
000070 d0 86 b1 3c 58 79 19 bd b5 99 b5 3d 74 4e af bc
       0.021670729 -0.037469238 0.08867208 -0.021399714
000080 40 c0 9e bd 9c 1c b8 bd 45 ee c5 3d 90 f1 58 3d
       -0.077515125 -0.08989832 0.09664587 0.052964747
000090 ef 45 0a bd 93 86 c4 3d 9f a0 93 bd 24 13 bc 3d
       -0.0337581 0.095959805 -0.072083704 0.09183338
0000a0 34 f9 62 3d 30 8c 1d 3d 00 23 a7 3d 64 46 82 3d
       0.05541344 0.03846377 0.081609726 0.06361082
0000b0 ab 1f 64 3d da a5 46 3d eb 20 04 bd 82 b6 98 bd
       0.055694263 0.048498012 -0.032257956 -0.074566856
0000c0 b7 94 8a 3c 99 92 55 3d 7c 62 f7 b9 11 f6 2a bd
       0.016916616 0.05214176 -0.00047184888 -0.041738573
0000d0 a0 9d c2 3d 0f d0 7c 3d 11 9b 18 bd a7 0b 84 3d
       0.09502721 0.061721858 -0.037257258 0.06447535
0000e0 bd a2 a7 bd 3c a6 bd 3d a7 d1 80 3d 58 b1 94 3d
       -0.08185337 0.09260222 0.06289988 0.07260388
0000f0 88 7f 7f bd 6a ad 81 3e e9 25 ef 3c fa 16 91 bd
       -0.062377483 0.25327617 0.029192882 -0.070844606
000100 c6 70 a1 bd 63 8a 7d 3d a1 93 99 bd 8e 9f 9c 3c
       -0.07882838 0.061899554 -0.07498861 0.01911905
000110 18 e9 0d b8 24 b2 b6 b7 8e 29 64 3d 85 a5 1f ba
       -3.3834105e-05 -2.1779044e-05 0.055703692 -0.0006090033
000120 b3 69 6c bd 92 07 40 3d 29 0e d0 3d f5 6d 10 3e
       -0.05771799 0.04688222 0.10158951 0.14104445
000130 05 24 d2 bc 4d b4 8a 3d b1 d2 36 3d cb 5b ec 3c
       -0.025651941 0.06772671 0.044634525 0.028852364
000140 77 99 b6 bd 5d d8 a9 bd e9 16 2a 3c a4 fe 9e bd
       -0.0891599 -0.08293221 0.010381439 -0.077634126
000150 31 d9 46 bd 1e 98 69 3d 63 8f c7 3c f5 c6 91 3d
       -0.048546974 0.057029836 0.024360364 0.07118026
000160 09 ce ac 3d 61 9d cb 3d d8 4b 50 3d 6e 78 b9 bd
       0.084377356 0.09942127 0.05085358 -0.09056173
000170 52 11 04 bd 0f 72 08 bd 7c 57 65 3c a3 a9 06 3e
       -0.03224308 -0.0333119 0.013997909 0.13150649
000180 f1 30 09 3c 8d 7b 3c bd e8 af 81 bb 20 d9 d0 3d
       0.008373485 -0.046016265 -0.0039577372 0.10197663
000190 2b 00 0e 3e 38 56 0b bd bf 15 13 bd a4 4c 24 3d
       0.13867252 -0.03401777 -0.03590941 0.040112153
0001a0 e1 ab 53 3d 66 fb bb bd 78 3e 94 bd de bc 64 3c
       0.05167759 -0.0917881 -0.072384775 0.013961045
0001b0 8f 91 04 3e e5 93 6b 3c ed 31 2d 3c 58 91 1a be
       0.12946151 0.0143785225 0.010570985 -0.15094507
0001c0 dd 8d 97 3d a7 06 8f 3d b8 a3 b7 3d fd 96 86 bd
       0.07400105 0.06983691 0.08966774 -0.065717675
0001d0 a0 77 bc 38 e1 0d ac 3d c8 86 73 bc 4e 08 17 bd
       8.9868205e-05 0.08401085 -0.014863677 -0.036873154
0001e0 7b a4 44 bd 2d ff b9 bd 60 a1 69 3a 79 a6 b7 3d
       -0.048008423 -0.09081874 0.00089122914 0.08967299
0001f0 9f 1a e6 bd 6e ff 4c b9 eb 04 38 bd c0 03 61 3d
       -0.11235546 -0.00019550111 -0.044926565 0.054935217
000200 cb a4 26 bd 9b ea 1d bd 72 37 a0 b9 54 0b 07 bd
       -0.040684503 -0.038553815 -0.00030558888 -0.032969788
000210 af 75 db 3c fd 5b 12 bc 69 07 ac 3d 95 ae 8e bd
       0.026789514 -0.0089330645 0.08399851 -0.06966893
000220 5d ae 92 3d 8b 5c ca bc 0b 6a 53 bd 93 fa ce b9
       0.071621634 -0.024702331 -0.051614802 -0.00039478074
000230 d4 b3 87 3d c3 c4 f7 bc 83 50 a4 bd f5 65 60 3d
       0.06626096 -0.03024519 -0.08023169 0.054784734
000240 10 33 42 38 bb d4 c3 ba 7a bd 63 bc 52 61 de bc
       4.630076e-05 -0.0014940718 -0.013900155 -0.027146015
000250 4c 47 9e 3d 6a 69 c5 ba 21 04 69 3d 87 48 a7 3d
       0.077284425 -0.0015061323 0.056888703 0.0816813
000260 6d 4f d2 bc 80 e1 04 39 af 97 2c bd da f2 28 bd
       -0.025672639 0.00012672506 -0.042136844 -0.041247226
000270 0a 47 dc 3c 6a e5 ae bc 39 07 9f 3d d4 84 9f b8
       0.026889343 -0.021349628 0.077650495 -7.606452e-05
000280 ba 1a 47 bd 13 b9 79 bd cf 2b 69 3d b7 88 b3 3b
       -0.048609473 -0.060967516 0.056926545 0.005478944
000290 df 4f 89 bc b2 7e 06 3d 76 8c 40 bd 1c e3 81 3d
       -0.016761718 0.03283567 -0.047008954 0.06342146
0002a0 43 ca 70 39 83 0e 0a 3c 85 f9 0a 3d 79 d2 32 3d
       0.00022963532 0.008426311 0.033929367 0.043657754
0002b0 72 b3 be 3c eb ca f2 3c 8b 77 5a bc a8 47 53 bd
       0.023278926 0.029637774 -0.013334165 -0.05158201
0002c0 be 0b b8 3b 2b 10 0c 3d 96 df 90 b9 9e d9 a6 bc
       0.005616634 0.034195106 -0.00027632405 -0.02036744
0002d0 c8 af 4b 3d 7b 56 4a 3c 76 13 88 bc 5c a7 3e 3d
       0.049728185 0.01234972 -0.016610842 0.046546325
0002e0 17 dc 71 bd 09 1d 98 3d e1 55 21 3d bf af 29 3d
       -0.059047785 0.07427413 0.03938854 0.04142737
0002f0 2c 0f 17 bd d9 e1 50 3e e7 cc 27 3c 3d 58 9f bc
       -0.036879703 0.20398654 0.010241724 -0.019451255
000300 a9 a7 5b bd af 14 5b 3d d1 57 3d bd 6c 6f b4 b8
       -0.05362669 0.053486522 -0.046226326 -8.603823e-05
000310 eb 80 a1 b8 95 08 a9 b8 ef 74 09 3d 98 e6 ac b9
       -7.701091e-05 -8.0601465e-05 0.033558782 -0.00032978202
000320 a4 d5 01 bd 34 fc eb 3c 78 59 ab 3d d5 88 c8 3d
       -0.031697884 0.028806783 0.08366674 0.09791724
000330 1d 34 39 bc 2f ae 2c 3d 57 31 93 3c 14 fb 9d 3c
       -0.011303929 0.042158302 0.017967863 0.019284762
000340 24 03 87 bd 84 7e 84 bd 39 78 b6 39 c6 73 03 bd
       -0.06592396 -0.064694434 0.00034803318 -0.032092832
000350 57 e7 81 bc 5d cd 1a 3d 09 85 9a 3c e8 9a 16 3d
       -0.015857382 0.037793506 0.018862264 0.036768824
000360 7c 22 64 3d 7f 58 8d 3d 9f 6f 5b 3c e6 bf 58 bd
       0.05569695 0.06901645 0.013393312 -0.052917384
000370 c3 ef 72 bc f5 44 96 b9 fa d8 13 b9 b4 08 d0 3d
       -0.014827671 -0.00028661606 -0.00014099843 0.1015791
000380 31 66 3b b9 51 54 d2 bc cf 0a a5 b9 bf 47 8f 3d
       -0.00017871779 -0.02567497 -0.00031479305 0.06996106
000390 12 14 d4 3d f5 76 52 b7 da 59 26 bc 06 c2 a3 3c
       0.103553906 -1.2544672e-05 -0.010153258 0.019989979
0003a0 b8 94 42 3d 00 c9 cd bd 22 b6 09 bd 56 30 29 b9
       0.04750511 -0.10048103 -0.03362096 -0.00016135102
0003b0 c8 6b e1 3d 01 3c 89 38 d2 73 2b 39 3e cd 9c bd
       0.11006886 6.543846e-05 0.00016350977 -0.07656334
0003c0 8b 55 4a 3d b7 bf 0e 3d 27 e9 c5 3c c2 5a 26 bd
       0.049397986 0.034850802 0.024159027 -0.040613897
0003d0 19 9f 4e 39 0e 6f a3 3d 04 ac c7 b9 d4 60 8d b9
       0.0001970496 0.079801664 -0.000380844 -0.00026965758
0003e0 f3 0a 5f bc 77 d8 6e bd e1 a2 cd b8 60 bb 4e 3d
       -0.01361345 -0.058311906 -9.8055e-05 0.050471663
0003f0 0e de 73 bd ca b7 ec b8 85 13 e8 bc 74 05 ac 38
       -0.05953794 -0.0001128759 -0.02832962 8.202615e-05

linears.0.bias f4 [32]
000000 21 16 e5 b8 96 46 a1 b8 28 87 b3 38 e8 f2 f3 b6
       -0.00010923693 -7.690226e-05 8.56056e-05 -7.2702423e-06
000010 71 ff a4 b8 aa d3 a4 b8 c1 be bd 38 82 1a d0 b7
       -7.867709e-05 -7.859555e-05 9.047753e-05 -2.4807876e-05
000020 81 47 df b8 31 99 1c 38 a1 55 77 b7 8e 13 51 3b
       -0.00010646787 3.733597e-05 -1.4742284e-05 0.0031902525
000030 23 4b d7 37 93 f4 09 b9 50 01 e6 b8 de a2 2a 39
       2.5664986e-05 -0.00013156449 -0.00010967499 0.00016273136
000040 02 8a 8b 39 1a 1c 29 38 f2 23 08 3d ae c6 91 39
       0.0002661497 4.031891e-05 0.033237405 0.00027804583
000050 b5 b6 80 b9 8c cd 8d b8 aa ae f2 38 ac 54 db b7
       -0.0002455019 -6.76169e-05 0.00011571993 -2.6146263e-05
000060 25 b7 e1 b7 9a 93 02 b9 8e 41 73 39 2f f5 ac b8
       -2.6907373e-05 -0.00012452752 0.00023198707 -8.247268e-05
000070 0c fe 3c b8 27 66 99 b7 c6 f7 a8 37 ab 1b 26 b8
       -4.5059292e-05 -1.828659e-05 2.014254e-05 -3.9603252e-05

linears.2.weight f4 [2, 32]
000000 85 ca 23 bf e6 7e 1c bf 00 f6 bb 37 d3 8f 60 39
       -0.63980895 -0.6113113 2.240669e-05 0.00021415883
000010 b0 45 8d 37 e8 13 1f bf 59 e1 31 b8 c1 a4 0b b9
       1.684096e-05 -0.6213975 -4.240996e-05 -0.00013317449
000020 07 95 46 bf b2 2f 00 39 7f 40 65 39 3f 83 6e 3f
       -0.7757115 0.00012224799 0.00021863169 0.93169016
000030 5d f2 e3 38 c8 83 3b b6 8a 43 62 b9 c1 19 82 b8
       0.00010869347 -2.7941878e-06 -0.000215782 -6.20368e-05
000040 cd de f1 38 46 db 4f 38 97 5a 78 3f 18 64 92 b9
       0.000115332754 4.955686e-05 0.9701323 -0.00027921866
000050 fc d0 02 39 7b 55 04 38 8d 98 96 b7 1f cb a0 bd
       0.00012475619 3.1550862e-05 -1.795243e-05 -0.07851242
000060 1a 2a 0d b8 0f ae 30 bf 08 ec d6 36 37 b2 24 bf
       -3.365623e-05 -0.6901559 6.4051746e-06 -0.64334434
000070 86 30 57 b7 ca 37 d9 38 6b 61 58 39 73 13 44 39
       -1.2826296e-05 0.00010357758 0.00020635656 0.00018699262
000080 12 a9 28 3f 3c 14 fa 3e db ec 67 38 5c 6a 13 39
       0.6588298 0.48843563 5.529528e-05 0.00014058634
000090 e8 e4 88 39 a0 31 19 3f 47 39 92 38 7a c3 6e b8
       0.0002611049 0.59841347 6.972491e-05 -5.6925674e-05
0000a0 8d 10 3e 3f 8a 39 bb b6 8f 71 8d 39 47 03 78 bf
       0.74244004 -5.5797327e-06 0.00026978223 -0.9688
0000b0 c6 7c 69 39 b2 fc 51 b9 e5 91 e7 b8 88 f9 53 37
       0.00022267093 -0.0002002593 -0.00011042113 1.2634679e-05
0000c0 48 7e 4a b8 fc b0 64 b9 35 da 83 bf f0 4a 4a b9
       -4.827816e-05 -0.00021809706 -1.0300967 -0.00019292138
0000d0 1f 80 02 b9 42 66 38 38 54 87 87 b9 51 02 d7 3d
       -0.00012445495 4.3964254e-05 -0.00025850034 0.10498489
0000e0 52 e5 66 b9 a5 b1 0f 3f fb 57 0c b9 e1 1a 21 3f
       -0.00022019938 0.5613044 -0.00013384216 0.6293164
0000f0 02 f6 32 38 85 69 0e b6 ba 88 b5 38 15 32 5b b8
       4.266762e-05 -2.122107e-06 8.65622e-05 -5.226031e-05

linears.2.bias f4 [2]
000000 69 aa 66 38 8d 75 9f bd
       5.499498e-05 -0.07786093

exp_avg f4 [128, 4, 12]
000000 07 a8 14 b9 87 34 98 ba f6 71 95 ba 23 9e 2b 39
       -0.00014176975 -0.0011612334 -0.0011401761 0.00016366741
000010 7c af 3f ba 86 31 82 ba dd d8 15 3b 21 7a 9d 37
       -0.0007312221 -0.0009932972 0.0022864856 1.877273e-05
000020 64 f7 b9 b9 13 c1 bf ba 72 f9 26 3b 8c c3 8d b8
       -0.0003547027 -0.0014629684 0.002547827 -6.7598274e-05
000030 15 c4 33 3a e2 f9 17 39 a9 2d f4 3a b8 a9 9f b7
       0.00068575266 0.00014493571 0.001862933 -1.9033308e-05
000040 46 2c a0 37 8a 5b 9d ba 7f 4c c8 ba 17 93 b3 3a
       1.9094103e-05 -0.001200543 -0.0015281587 0.0013700452
000050 9c 3c 67 b9 93 60 a4 3a 42 6a ca b9 e2 19 5a b9
       -0.00022052455 0.0012540988 -0.0003860761 -0.00020799742
000060 00 68 71 38 36 a5 8e 3a 89 9d 55 ba df 07 97 36
       5.7555735e-05 0.0010882977 -0.000814878 4.501067e-06
000070 29 6b 33 3a 11 c3 39 3b 7b a8 82 ba b9 22 b0 ba
       0.0006844276 0.0028345028 -0.0009968424 -0.0013438083
000080 69 b5 f6 3a ce 6e 29 39 fe 9b c2 ba 57 78 4c 3b
       0.0018822375 0.00016158374 -0.0014847515 0.0031199658
000090 95 b0 1d ba d3 fe 96 b8 06 31 c1 38 2c 61 1c b9
       -0.00060153875 -7.200022e-05 9.2120885e-05 -0.00014913519
0000a0 e0 5d e8 37 28 f2 27 ba 02 1a 7a 39 c7 c8 3c b8
       2.770027e-05 -0.00064066285 0.00023851547 -4.500968e-05
0000b0 fc 4f ab ba f3 54 46 38 ac 78 31 ba 9c 68 3a bb
       -0.0013070102 4.7285994e-05 -0.00067699957 -0.00284437
0000c0 8e 6e 12 3a 8a 81 16 ba 1e b9 74 ba 15 12 ae b9
       0.0005585932 -0.0005741349 -0.0009335446 -0.00033201338
0000d0 c4 e6 63 ba 83 cb a2 39 bc 91 9b 39 cf 0f 30 b9
       -0.00086937496 0.00031050676 0.00029672484 -0.00016790557
0000e0 94 0e 4f b9 03 75 0f 39 18 06 28 3b f5 d7 55 ba
       -0.00019746489 0.00013681133 0.0025638398 -0.0008157485
0000f0 75 cc a1 b9 3d e5 ee ba 34 11 eb 3a a4 fa 60 b9
       -0.00030860645 -0.0018226277 0.0017934204 -0.00021455676
000100 93 c0 b4 3a 1b ef 26 bb 8f c0 7c ba 2c a8 0c 3a
       0.0013790302 -0.0025472108 -0.00096417306 0.0005365636
000110 e9 14 63 ba 60 df 05 ba 24 a5 55 ba 6d d5 f5 b9
       -0.00086624786 -0.0005106833 -0.0008149913 -0.00046889056
000120 89 ab 84 b9 5b 48 cb 39 d4 ed a6 ba c6 e0 6d 38
       -0.00025304806 0.00038773086 -0.0012735673 5.671454e-05
000130 73 57 21 ba dc f7 7e 38 c8 cf 4f 3a 66 cf 98 3a
       -0.00061546935 6.0789156e-05 0.0007927385 0.0011658489
000140 92 b0 2e 3a 87 50 83 b9 80 cd d0 ba 76 4e 14 3b
       0.0006663884 -0.00025046265 -0.0015930384 0.0022629774
000150 7e 71 4d 36 f7 a9 03 3b b7 e4 d8 39 a6 69 00 3a
       3.0613442e-06 0.002009032 0.00041369136 0.00048985553
000160 88 e8 dd 38 cb 99 0e 3b 5d 60 03 b9 83 21 c9 ba
       0.000105814135 0.0021759148 -0.00012529032 -0.001534507
000170 fa 4f d0 39 63 aa 23 3a f9 60 23 b9 95 3b 80 ba
       0.0003973244 0.0006243346 -0.00015581016 -0.0009783382
000180 04 54 2d b9 0a 72 8e 39 90 ce 7f 3a 5b 1a 43 b8
       -0.00016529864 0.00027169316 0.0009758258 -4.651617e-05
000190 48 70 5a 38 f0 ab 67 38 dd 26 4b 38 c9 d3 09 39
       5.207982e-05 5.523482e-05 4.8435166e-05 0.00013144234
0001a0 ae 91 24 ba 60 8d 0d ba 3d 50 4c 3a 91 99 2e b8
       -0.00062778115 -0.00053997897 0.0007793939 -4.1627853e-05
0001b0 31 ad 29 b7 5d b3 46 ba 64 d4 fc b9 d7 18 af b7
       -1.0113509e-05 -0.0007579828 -0.0004822343 -2.0873193e-05
0001c0 34 7d 53 b8 a1 2e 29 ba 27 36 fb 38 e2 74 4c ba
       -5.0422925e-05 -0.00064537866 0.00011978699 -0.00077993993
0001d0 8b 8b c2 b7 51 5d 78 3a 5b a5 99 38 0e 95 5d b9
       -2.3191582e-05 0.00094743544 7.3264084e-05 -0.0002113173
0001e0 81 e6 4a 3a 95 4a da 39 76 67 ec b8 3a 62 1a 38
       0.0007740036 0.00041635768 -0.00011272628 3.680794e-05
0001f0 f5 99 07 3a 86 9b 17 3a 07 cf 91 b9 0a 17 b5 b9
       0.00051727827 0.00057833677 -0.00027810803 -0.00034540176
000200 58 4f 4b 3a 46 69 2b ba eb fa 81 ba e8 71 72 39
       0.00077556586 -0.0006538819 -0.0009916698 0.00023121352
000210 cc ea 1c ba 70 a8 92 38 e0 ae c7 b9 89 44 00 38
       -0.0005985915 6.9931964e-05 -0.0003808653 3.0581406e-05
000220 25 09 08 ba f9 16 46 37 87 72 e6 38 ba 45 82 3a
       -0.0005189351 1.1807068e-05 0.00010988587 0.0009938993
000230 36 a5 02 b9 a7 32 81 39 af c3 11 39 40 4c b6 37
       -0.00012459312 0.00024642536 0.00013901175 2.1731597e-05
000240 4d 67 33 3b 68 fd 93 b6 e1 d9 6d 36 6a 40 a6 b8
       0.0027374804 -4.4104418e-06 3.5442574e-06 -7.927495e-05
000250 80 56 19 38 4e 2a 3b 3a ba 26 0d 39 32 18 5b b9
       3.6558602e-05 0.0007139788 0.00013461235 -0.00020894481
000260 a7 0a a9 38 17 bc 75 39 4d 1b f6 b8 4a 82 33 bb
       8.060532e-05 0.0002343509 -0.00011735279 -0.002739089
000270 45 f0 84 b8 6b 14 f4 b9 0a 22 13 ba 4f 51 14 39
       -6.339004e-05 -0.0004655452 -0.0005612677 0.0001414467
000280 78 9f 30 3b 9a af 12 38 98 a2 3e b9 4b f3 4d ba
       0.002695052 3.4972654e-05 -0.00018180383 -0.0007856383
000290 5b 73 c9 3a 7a 83 19 3b 9b b4 5c ba f6 cd 18 3b
       0.0015369462 0.0023424313 -0.00084192463 0.0023316122
0002a0 1e 87 11 ba 9d 19 c4 3a 3e 8c 94 ba 6f ed 85 39
       -0.0005551445 0.0014961247 -0.0011333299 0.0002554464
0002b0 3e ab 18 bb 04 18 48 ba 7a 87 9c 37 59 3a 76 3a
       -0.0023295428 -0.0007632973 1.8659735e-05 0.000939285
0002c0 52 dc 9c ba d4 1d 90 ba 40 6a 9c ba df ea 45 38
       -0.0011967516 -0.0010995218 -0.001193352 4.71872e-05
0002d0 04 de 0a bb 84 80 86 ba 56 a6 dd 3a fa 85 a6 b9
       -0.002118946 -0.0010261689 0.0016910534 -0.00031761808
0002e0 96 cc d2 b9 55 af 70 37 9d 57 ef 37 cf ef 67 38
       -0.0004020675 1.4345937e-05 2.8531818e-05 5.529803e-05
0002f0 d1 9e dc b9 a4 a0 c1 ba 21 13 0d 3b 45 e5 bc 39
       -0.00042079997 -0.0014772606 0.0021526294 0.00036028973
000300 56 82 1c 3a c7 32 35 38 6d c9 ae 37 32 68 7f 3a
       0.00059703493 4.3201053e-05 2.0836213e-05 0.00097430043
000310 51 ee 44 3a 5c 0f bf ba 2e af 7a b8 19 fb 86 39
       0.00075123186 -0.0014576721 -5.9767794e-05 0.00025745554
000320 eb 9d 93 36 82 ae be 38 62 a5 70 3a 17 52 98 37
       4.3993255e-06 9.0924106e-05 0.00091799174 1.8158038e-05
000330 9c ba 9d b8 cf f0 68 39 f6 cd 8a 3a af 43 45 b9
       -7.521102e-05 0.00022214952 0.0010589946 -0.00018812598
000340 22 ed aa ba 20 40 44 3a 3b a3 62 b8 39 83 b7 ba
       -0.0013040642 0.0007486362 -5.403462e-05 -0.0014000899
000350 26 90 10 39 79 7f c5 38 b9 cf ba 39 19 e1 87 3a
       0.0001378661 9.417436e-05 0.0003563145 0.0010366767
000360 6a 45 7d 3a b6 f5 c3 b9 16 97 9f ba 2d dc 42 ba
       0.00096615276 -0.00037376367 -0.0012175764 -0.00074333214
000370 f1 27 6a 38 64 b8 ba 39 77 01 d1 37 e3 a3 9c 39
       5.5827146e-05 0.00035614066 2.4915424e-05 0.00029876744
000380 6b 7e 3d b9 52 f3 19 b9 4b f7 bb ba 32 b6 8b ba
       -0.00018071539 -0.00014681861 -0.0014340667 -0.0010659157
000390 35 08 c3 ba d9 5b e3 38 d4 6f 10 39 87 b1 33 b8
       -0.0014879765 0.000108413115 0.0001377457 -4.284226e-05
0003a0 74 49 02 3a ca 04 b9 39 d1 68 ba 38 f5 36 5d 3a
       0.0004970052 0.00035289518 8.888695e-05 0.000843867
0003b0 54 45 21 38 b0 8e 20 b8 5b 85 27 39 ff e8 39 37
       3.8449958e-05 -3.827986e-05 0.0001597604 1.1081108e-05
0003c0 20 28 bb b8 2b 87 0e b9 72 f3 4f b8 30 7a af b8
       -8.924329e-05 -0.0001359253 -4.9579372e-05 -8.3674095e-05
0003d0 bb 41 72 39 19 9e 2f b9 f9 03 31 38 81 61 8e ba
       0.00023103405 -0.00016748197 4.220379e-05 -0.0010862799
0003e0 a8 da a9 38 c0 d8 9f b9 a1 5a a9 b8 bd 5c 06 3b
       8.099276e-05 -0.00030488335 -8.075429e-05 0.0020502054
0003f0 6b 1a 8f 37 1f f6 73 b9 89 52 3a ba 78 cd b0 b9
       1.705923e-05 -0.00023265973 -0.00071076356 -0.00033722422

exp_avg_sq f4 [128, 4, 12]
000000 b7 fb ff 35 7a 47 62 38 20 06 3a 38 49 15 80 36
       1.9072239e-06 5.3949167e-05 4.435156e-05 3.817175e-06
000010 73 47 0e 38 0d 6a 44 38 71 48 fb 37 c0 a1 bf 35
       3.392198e-05 4.682881e-05 2.9955265e-05 1.4277684e-06
000020 80 57 b1 36 6d 50 80 38 9f 5c e3 37 53 d3 7a 37
       5.2851974e-06 6.118496e-05 2.7103639e-05 1.4950364e-05
000030 c4 15 3c 38 f5 92 38 36 fd 9a 3e 38 3b da 02 37
       4.4842964e-05 2.7503677e-06 4.5443874e-05 7.799415e-06
000040 6e 2f 28 34 78 ac ff 37 26 2f 22 38 24 18 17 38
       1.5663474e-07 3.047868e-05 3.866772e-05 3.6023688e-05
000050 84 af 9c 36 be 00 61 38 e4 2c 8d 37 60 43 66 37
       4.669595e-06 5.364487e-05 1.6829414e-05 1.3724755e-05
000060 d2 0d 90 36 8b 20 24 38 c9 61 4b 38 37 c5 47 37
       4.2931433e-06 3.9130955e-05 4.849004e-05 1.1907242e-05
000070 5e 44 14 38 3d 3e 27 38 96 1d b3 37 37 00 02 38
       3.534962e-05 3.9873867e-05 2.135224e-05 3.0994615e-05
000080 92 1c 55 38 c9 9a a4 36 4d 63 31 38 a1 e2 65 37
       5.0809766e-05 4.9056002e-06 4.229257e-05 1.370223e-05
000090 91 40 31 38 c9 25 04 38 b9 fa 6b 37 24 b7 33 35
       4.226022e-05 3.1506443e-05 1.4065467e-05 6.69492e-07
0000a0 f4 6c c6 35 f3 01 98 37 9a c7 d2 37 33 59 22 37
       1.4783859e-06 1.812072e-05 2.5126898e-05 9.676721e-06
0000b0 56 9e 60 38 7d 23 e2 36 64 32 09 38 fe 54 26 38
       5.3553224e-05 6.7394562e-06 3.2710275e-05 3.965664e-05
0000c0 18 ef 97 37 c6 af 87 37 c0 ed cf 38 3a 5f e2 37
       1.811194e-05 1.6175105e-05 9.9148136e-05 2.6985643e-05
0000d0 a1 ec f8 37 39 b4 b5 37 6b 3f 96 37 da a9 b0 37
       2.9674093e-05 2.1660804e-05 1.7910925e-05 2.1059928e-05
0000e0 da 79 4b 36 27 10 04 36 10 1d e8 37 39 40 54 37
       3.0320284e-06 1.9678935e-06 2.7670088e-05 1.2651138e-05
0000f0 f1 a7 bf 37 4d 55 38 38 02 4e 83 38 6f f5 cc 37
       2.2847178e-05 4.394846e-05 6.261097e-05 2.4432984e-05
000100 69 6c 26 38 7b c4 48 38 7d 25 2f 38 d8 5d df 37
       3.967845e-05 4.7866703e-05 4.1758165e-05 2.6627371e-05
000110 48 a1 1f 38 08 0c bf 37 e8 d7 84 38 8a 81 c3 37
       3.805876e-05 2.2774577e-05 6.334466e-05 2.3306133e-05
000120 16 b8 40 36 5a 78 eb 37 7a c8 34 38 85 5e 25 36
       2.8717382e-06 2.8070226e-05 4.3102053e-05 2.4641934e-06
000130 2c 00 49 37 d2 64 c1 36 5a 92 55 38 d3 b7 5c 38
       1.1980574e-05 5.7635852e-06 5.0919458e-05 5.2623287e-05
000140 74 57 3a 38 52 e8 bb 36 26 ae 43 38 c5 66 67 38
       4.4427303e-05 5.60008e-06 4.665381e-05 5.5170403e-05
000150 8f b1 30 36 7c a2 b2 37 35 92 e7 36 ee be 49 38
       2.6329396e-06 2.1294916e-05 6.901357e-06 4.809995e-05
000160 14 6d 9b 35 9a 87 07 38 6a d2 20 37 4a 0f 3a 38
       1.1580146e-06 3.2312797e-05 9.585734e-06 4.4360095e-05
000170 07 f9 39 37 7b 81 f4 37 8e e9 54 37 44 5c 1e 38
       1.10848405e-05 2.914736e-05 1.2690563e-05 3.7756065e-05
000180 e3 42 b4 36 32 48 9d 36 68 21 14 37 3d fb 88 36
       5.3722047e-06 4.6873693e-06 8.829265e-06 4.082364e-06
000190 67 af 94 36 41 86 c4 36 17 ad 6f 35 e6 6a a3 36
       4.4311632e-06 5.8568844e-06 8.9286317e-07 4.870223e-06
0001a0 39 c6 50 37 b7 a5 a8 37 61 d9 6e 37 d4 4c db 35
       1.2443918e-05 2.0104328e-05 1.4236518e-05 1.6339131e-06
0001b0 5b 95 22 36 97 28 38 37 fc cd 7e 37 06 f2 07 35
       2.4226817e-06 1.0976705e-05 1.5187539e-05 5.064361e-07
0001c0 e7 3a 7c 36 bb 2f 5a 37 8a d3 2a 37 47 40 65 37
       3.7585212e-06 1.3004926e-05 1.0182042e-05 1.3664429e-05
0001d0 32 0e 0d 37 fc b1 89 36 b2 e9 da 35 c7 89 5a 37
       8.40756e-06 4.1036383e-06 1.631028e-06 1.3025891e-05
0001e0 d7 77 94 37 58 b6 5b 37 b1 2a 7b 37 a8 44 45 36
       1.769878e-05 1.3095872e-05 1.4970706e-05 2.939525e-06
0001f0 a5 9c c2 37 74 20 83 37 27 c8 17 37 0d 0c b4 36
       2.3199545e-05 1.563153e-05 9.046903e-06 5.365821e-06
000200 cd 54 97 37 fc 76 93 37 7a 08 82 37 40 a3 6e 37
       1.8040091e-05 1.7579172e-05 1.5501155e-05 1.4223915e-05
000210 ff 53 7a 37 ae 20 d3 35 e0 1b 07 37 59 92 42 35
       1.4920718e-05 1.5730236e-06 8.053117e-06 7.2483596e-07
000220 a0 03 8a 37 1a cf e3 33 13 7d 70 35 fc 15 97 37
       1.645257e-05 1.0608183e-07 8.9588974e-07 1.801084e-05
000230 c7 64 d3 36 15 aa bf 36 fb d3 b2 35 69 62 de 34
       6.300022e-06 5.7120437e-06 1.3323728e-06 4.1422325e-07
000240 e9 a8 19 38 35 f3 9a 36 30 6a 21 37 30 ad c1 36
       3.6635352e-05 4.6178707e-06 9.6210715e-06 5.77201e-06
000250 e1 97 9a 35 d9 16 2d 38 1c 98 08 37 a9 5c 3a 37
       1.1518097e-06 4.1267693e-05 8.141647e-06 1.1108038e-05
000260 67 68 a4 36 a4 6b 70 36 70 37 5f 37 f7 27 c0 38
       4.899735e-06 3.5825442e-06 1.3304743e-05 9.1627175e-05
000270 3a 1c b6 36 e5 5c 16 38 9f a0 0a 38 ee 6a 1e 37
       5.4273087e-06 3.58493e-05 3.3051354e-05 9.44243e-06
000280 7e 5f 31 38 1a 5b 7a 35 8b 8f 27 37 09 ec d7 37
       4.2289023e-05 9.326483e-07 9.987397e-06 2.573991e-05
000290 21 32 88 38 ba 83 11 38 f0 67 22 38 72 4b 62 38
       6.4943226e-05 3.4693374e-05 3.872061e-05 5.3952863e-05
0002a0 81 73 4f 38 dd df 8e 38 d9 f3 90 38 1f 59 d8 37
       4.9460217e-05 6.8127854e-05 6.911875e-05 2.5790707e-05
0002b0 71 47 4a 38 7d 57 24 38 22 a8 9d 37 97 88 11 38
       4.8227088e-05 3.9182127e-05 1.8794151e-05 3.4697903e-05
0002c0 20 76 7e 38 cf 85 36 38 0b ce 72 38 af bc a1 37
       6.066833e-05 4.35168e-05 5.788919e-05 1.9280558e-05
0002d0 44 9d b1 38 19 3f a4 38 21 ec 92 38 94 73 46 37
       8.469311e-05 7.831882e-05 7.005805e-05 1.182863e-05
0002e0 94 aa d3 37 2f c9 49 36 ec fe 8d 35 f9 64 7b 35
       2.5232592e-05 3.0068438e-06 1.0579511e-06 9.365172e-07
0002f0 db b7 0b 37 58 37 8d 38 f3 0f a2 38 0f dd 16 38
       8.327853e-06 6.7337125e-05 7.727733e-05 3.5968664e-05
000300 48 1d d1 36 3d ad 8d 34 f7 00 f5 33 98 d9 0d 37
       6.232094e-06 2.6389344e-07 1.1408877e-07 8.454917e-06
000310 35 45 e5 36 7b e6 83 36 52 4b 64 37 e3 be 65 36
       6.8327886e-06 3.9309357e-06 1.3607396e-05 3.423477e-06
000320 e1 5f 8a 35 a4 77 0c 35 77 e7 fd 36 18 0d 62 35
       1.0309706e-06 5.2328164e-07 7.5669336e-06 8.4210615e-07
000330 27 9e 96 35 1f 73 e9 35 64 20 5e 37 44 5c 0c 36
       1.1221899e-06 1.7393357e-06 1.3239773e-05 2.0915331e-06
000340 58 8b 04 37 10 aa 59 37 04 47 d1 36 99 c3 8d 36
       7.900257e-06 1.2973804e-05 6.2369527e-06 4.224898e-06
000350 84 f4 d4 35 e0 25 27 36 60 01 88 36 b2 10 0f 37
       1.5866394e-06 2.4906985e-06 4.053276e-06 8.527351e-06
000360 cc 8c 23 37 ca ee 9f 36 dd 95 62 37 34 cf 0a 37
       9.748339e-06 4.766368e-06 1.35055425e-05 8.273684e-06
000370 35 3f 23 36 47 06 8d 36 45 db 35 36 9c 25 89 36
       2.4325684e-06 4.2028582e-06 2.7098733e-06 4.0872965e-06
000380 f9 e2 93 36 2d 96 c9 34 7c 68 6b 36 72 5b 12 37
       4.4073645e-06 3.7548435e-07 3.5078547e-06 8.723569e-06
000390 9d b7 16 37 e9 86 85 36 d9 31 0f 36 b7 34 90 34
       8.9834475e-06 3.9794145e-06 2.1337676e-06 2.6860445e-07
0003a0 fd 06 7f 36 92 10 5f 37 99 b7 e9 36 99 6a 20 37
       3.8002029e-06 1.3295694e-05 6.9653147e-06 9.561562e-06
0003b0 35 79 0f 36 6c 8d eb 35 96 d7 9d 36 9b 91 97 35
       2.1379212e-06 1.7550024e-06 4.704062e-06 1.1292753e-06
0003c0 cf 79 28 37 aa 50 95 37 cf 78 f5 34 60 64 fb 36
       1.0041941e-05 1.7799746e-05 4.5722706e-07 7.492068e-06
0003d0 8e de 4a 36 e0 ff b7 36 75 aa 2b 35 77 a5 12 38
       3.022989e-06 5.4836128e-06 6.395051e-07 3.4963214e-05
0003e0 b8 fb 8a 35 7c b9 9e 37 01 0b 88 36 29 6f b3 37
       1.0355061e-06 1.892144e-05 4.054397e-06 2.1390226e-05
0003f0 b4 a1 c9 36 4b 4b 1f 37 83 47 c0 36 fb 48 e9 36
       6.0090915e-06 9.494669e-06 5.730371e-06 6.952437e-06

exp_avg f4 [128]
000000 a5 f3 69 3a e7 04 84 3a 9f 65 c9 39 7a e1 78 3a
       0.00089245505 0.0010072262 0.0003841342 0.0009494048
000010 38 0f fd b9 71 d6 2f 3a 22 50 98 ba 4a d7 3c 3a
       -0.0004826726 0.00067076745 -0.0011620561 0.00072037114
000020 6c 6e 4d ba 82 cd 10 3a db 6c 44 3a da df 95 39
       -0.00078365835 0.0005523787 0.00074930274 0.00028586277
000030 41 b9 58 ba 21 c7 0d 3a 8a 88 97 3a 25 72 58 ba
       -0.0008267351 0.00054083957 0.0011561078 -0.0008256755
000040 4e 29 d6 b9 77 f4 13 3a c3 df 28 3a 1b a7 27 3a
       -0.00040848035 0.0005644033 0.00064420345 0.0006395445
000050 8e 96 42 ba a1 c9 2d 3a a0 6e 41 ba 73 f4 42 ba
       -0.0007422947 0.00066294713 -0.000737885 -0.00074369385
000060 a2 1e f5 39 aa 38 f6 b4 da a6 32 3a 12 25 60 3a
       0.00046752865 -4.58623e-07 0.0006815024 0.0008550446
000070 4b 52 d0 b9 33 20 10 3a 04 87 7b ba 91 0c 22 3a
       -0.00039734165 0.0005497962 -0.0009595009 0.0006181682
000080 88 79 83 3a da 91 8e 3a b5 45 77 ba 79 7f fe b9
       0.0010030726 0.0010877207 -0.00094326894 -0.0004854163
000090 e7 34 20 3a 6f d4 6a ba 26 79 70 3a 2a 05 8a ba
       0.00061113987 -0.00089580467 0.0009173326 -0.0010530103
0000a0 9b b1 c1 b9 48 2d 27 ba c1 fd 13 ba 77 c1 4a ba
       -0.00036944155 -0.0006377292 -0.0005645417 -0.0007734517
0000b0 33 57 41 ba 36 57 16 ba e3 81 00 3a ad 41 41 3a
       -0.00073753594 -0.00057350413 0.0004902167 0.0007372152
0000c0 dc 5b 94 b9 f3 6f 2a ba c5 4b 39 39 c9 25 33 3a
       -0.000282972 -0.0006501667 0.00017671201 0.00068339385
0000d0 6a 20 5c ba bb 9f d1 b9 63 1c 13 3a 0c 92 27 ba
       -0.0008397164 -0.00039982595 0.0005611835 -0.0006392307
0000e0 18 30 80 3a b4 0a 80 ba aa aa 26 ba 24 f7 54 ba
       0.0009779958 -0.0009768815 -0.00063578284 -0.0008123985
0000f0 e9 ab 4a 3a 4c 22 0f bb aa 8d c3 b9 37 9a 56 3a
       0.0007731305 -0.002184051 -0.00037298846 0.0008186432
000100 8d 17 80 3a 4c 52 08 ba 17 b4 6e 3a a9 d4 b6 b9
       0.0009772644 -0.00052002515 0.0009105815 -0.0003487219
000110 a6 93 3b 36 62 fd b3 b8 8e 80 25 ba 7d cd de 39
       2.7951114e-06 -8.582581e-05 -0.00063134066 0.0004249624
000120 6f 5f 46 3a af e2 0e ba dc f8 77 ba 18 3c 8e ba
       0.00075673213 -0.00054506486 -0.0009459385 -0.001085165
000130 73 f6 02 3a b6 f1 34 ba a9 c3 35 ba 40 ab 06 ba
       0.000499583 -0.0006902473 -0.00069337577 -0.00051372126
000140 ae 24 65 3a b0 6b 72 3a 59 6b 44 b9 30 2c 69 3a
       0.00087411224 0.0009247614 -0.00018732007 0.0008894829
000150 d2 e1 5a 3a 45 91 2b ba 69 7f bd b9 65 f0 5c ba
       0.000834969 -0.0006544779 -0.00036143817 -0.00084281556
000160 01 5b 71 ba b8 d5 8f ba a3 62 1a ba a8 c3 7b 3a
       -0.0009206981 -0.0010973727 -0.0005889332 0.0009604045
000170 1d 67 fc 39 87 c4 a5 39 a6 6c e3 b9 f4 60 ac ba
       0.0004814201 0.00031617677 -0.00043377763 -0.0013151453
000180 3f e6 d9 b9 0d 83 1d 3a 98 bc ff 39 7c 18 a2 ba
       -0.00041561012 0.0006008603 0.00048777903 -0.0012366916
000190 f6 5a b4 ba 9e b5 f2 39 69 f8 2f 3a 7d f0 21 ba
       -0.0013760019 0.00046293152 0.0006712736 -0.0006177498
0001a0 5d 55 38 ba ec 9b ad 3a 74 a5 8e 3a cf 20 ca b9
       -0.0007031763 0.0013245321 0.0010883049 -0.00038552887
0001b0 50 fe a4 ba 52 52 de b9 a9 58 c0 b9 0e 54 e8 3a
       -0.0012587998 -0.00042404473 -0.0003668715 0.0017725246
0001c0 ae a7 55 ba 21 5e 7a ba 2d 42 20 ba 06 ef 64 3a
       -0.00081502914 -0.00095507695 -0.00061133766 0.0008733127
0001d0 6e 52 28 b9 89 25 59 ba 88 a1 2c 3a 2c 70 40 3a
       -0.00016052436 -0.0008283486 0.00065853493 0.00073409337
0001e0 8e 8b 1c 3a e5 d0 96 3a e1 e7 ad b9 4e 4a 79 ba
       0.0005971723 0.0011506347 -0.00033169895 -0.00095096685
0001f0 ba 51 85 3a f8 cb 45 b9 52 a8 2c 3a 90 ce 9b b9
       0.0010171451 -0.00018863368 0.0006586361 -0.00029717805

exp_avg_sq f4 [128]
000000 ac be c7 39 46 36 d3 39 57 8b 0d 39 13 f3 ef 39
       0.000380983 0.00040285493 0.00013498716 0.00045766737
000010 f1 9a 93 38 fd dd 87 39 9a e6 d2 39 99 c4 18 39
       7.038366e-05 0.000259146 0.00040226133 0.00014569088
000020 5e c4 73 39 a2 75 37 39 03 83 c3 39 f3 ce ed 38
       0.00023247438 0.00017496062 0.0003729091 0.00011339588
000030 93 17 73 39 06 9f 53 39 36 c0 05 3a db 0a 97 39
       0.00023183068 0.00020181769 0.0005102189 0.00028809052
000040 20 f9 03 39 19 27 55 39 70 79 66 39 75 a2 45 39
       0.0001258594 0.00020327828 0.00021979748 0.00018847904
000050 61 7a b9 39 5c 60 90 39 8d c9 81 39 7d 97 81 39
       0.0003537713 0.00027537614 0.00024754964 0.00024717665
000060 e0 49 23 38 5e 26 10 32 fd 8a 8a 39 97 f4 d0 39
       3.893103e-05 8.390627e-09 0.00026424965 0.00039855085
000070 d9 44 ad 38 76 4a b9 38 88 d9 98 39 42 78 5c 39
       8.262107e-05 8.835357e-05 0.00029153773 0.00021025634
000080 b8 65 c0 39 cc e9 23 3a 31 83 ba 39 0d 75 05 39
       0.0003669688 0.0006252795 0.0003557443 0.00012727473
000090 14 1d 06 39 3f 06 06 3a 49 a0 c2 39 8b 8e 08 3a
       0.00012790068 0.0005112625 0.00037121985 0.0005209229
0000a0 0c e3 a9 38 ff d2 b3 39 ce e9 26 39 e8 59 97 39
       8.100839e-05 0.00034298745 0.00015918093 0.0002886795
0000b0 a1 00 91 39 5c a9 0e 39 0e 6a ff 38 9a ce d8 38
       0.00027657024 0.00013605267 0.00012179102 0.00010338165
0000c0 ea df d8 37 3c 1e 3b 39 ef e2 9c 37 ac dd 47 39
       2.5853475e-05 0.00017844973 1.8702323e-05 0.00019060698
0000d0 03 df b0 39 01 29 57 38 49 aa 07 39 20 7c dd 38
       0.00033735493 5.1298182e-05 0.0001293804 0.00010561221
0000e0 fb ac d5 39 53 3e c9 39 80 22 e3 38 3b f8 87 39
       0.00040755406 0.00038384143 0.000108306296 0.00025934153
0000f0 d1 4e 6f 39 a4 98 33 3b 0c 96 3b 38 cd 20 97 39
       0.00022822178 0.0027404213 4.4724016e-05 0.00028825403
000100 22 63 c5 39 7a cf c0 38 78 ac b1 39 3f 46 e0 38
       0.00037648628 9.193919e-05 0.0003388857 0.00010694237
000110 25 55 79 34 29 e7 0e 37 02 3e 21 39 23 6a 1f 39
       2.3220908e-07 8.517681e-06 0.00015377256 0.0001520296
000120 96 18 88 39 86 cf d3 38 05 b6 69 39 79 6d 10 3a
       0.0002595826 0.00010099918 0.00022288419 0.0005509477
000130 e9 72 c5 38 92 b8 22 39 60 2d ab 39 67 54 ee 38
       9.415096e-05 0.00015518282 0.0003264947 0.000113644455
000140 a3 c5 59 39 b8 d4 bb 39 68 9e 3b 37 5d ec 8f 39
       0.00020768358 0.00035825907 1.118295e-05 0.0002745119
000150 e6 df 99 39 fc 46 8c 39 0d dd 0d 38 48 a0 ac 39
       0.0002934925 0.00026755768 3.382289e-05 0.00032925815
000160 18 29 66 39 97 b4 fe 39 af 62 a2 39 a0 2e b1 39
       0.00021949818 0.00048581205 0.00030972573 0.0003379481
000170 a9 26 a1 38 5e d6 b9 38 e0 9b 01 39 d8 76 81 3a
       7.684279e-05 8.8614164e-05 0.00012360467 0.0009877337
000180 9c bd 44 39 13 0f d1 38 07 8d 11 39 84 cd 45 3a
       0.00018762652 9.9687044e-05 0.00013880814 0.0007545578
000190 9f 2a 9f 3a 2b 82 14 39 6b 22 81 39 de 4d 5a 39
       0.0012143439 0.00014162871 0.0002463044 0.00020819108
0001a0 c6 4a 46 39 44 ee 7e 3a 9b f5 0f 3a 0c 64 c3 38
       0.00018910607 0.00097248354 0.0005491615 9.31696e-05
0001b0 1e 87 18 3a 4c 76 07 39 68 5b 96 38 12 74 df 3a
       0.0005818474 0.00012918672 7.169583e-05 0.0017048141
0001c0 27 55 a7 39 92 65 0d 3a 6b 3f f9 38 55 1f 97 39
       0.00031916166 0.00053938583 0.00011885058 0.00028824309
0001d0 e4 e7 ee 37 de e5 8e 39 90 97 88 39 e6 f8 c7 39
       2.8479793e-05 0.00027255615 0.00026052864 0.00038141682
0001e0 02 ce 6e 39 b0 34 17 3a ef 28 8a 38 4c 23 fe 39
       0.00022774193 0.0005768044 6.587977e-05 0.00048472953
0001f0 30 2b eb 39 aa 6e 01 38 90 b2 18 39 15 af 8e 38
       0.0004485487 3.085906e-05 0.0001456237 6.803699e-05
