our-vTR/10_fold_lightning_logs/dataset1/fold_8/version_1/checkpoints/epoch=29-step=1049_fold8.ckpt (torch, 132433 bytes, 18 tensors)

conv1d.weight f4 [128, 4, 12]
00000000: a29c 36bc b9fc 083e 0b7f 763d 835c 413e
00000010: 4d43 cb3e 615c 8ebe b782 0f3e 69dc 43be
00000020: 6001 81be 1517 b73d e2d6 13be d21c 023d
00000030: 8832 7d3c 000a df3c 9281 87bc a30a ebbd
00000040: 5641 66be 6eec 93be b685 6dbd 27fb ecbd
00000050: 04c1 15bb 3ced 1fbe a96d 893e 9c80 aebd
00000060: 6e33 4dbd c77c 18bd ec40 c43c 7780 cabd
00000070: 9081 97be 9adb 403e e98d bd3c bc5b a03e
00000080: 8aca 05be e788 a13e 410c 04be 046b 1a3e
00000090: ee98 59be 60a3 7a3d af31 c3bd 7f4e b0bd
000000a0: b980 46be ea39 bcbd 48ca ab3b c615 13bd
000000b0: a44e a43e 713e 37be 157f c43b dc68 0fbe
000000c0: 5440 803e cd08 2d3d d79a 89bd 66e9 6fbe
000000d0: 7472 2a3d 9386 0cbe 22d8 713e a6fd ddbd
000000e0: a481 56be 87ea 9bbe 107d c33d 8cc0 113c
000000f0: a66b 52be 9253 83bd 032e 20be ba8c 5e3e
00000100: dfdf 8cbd eb23 0b3d 757f b1bd 246d 82bd
00000110: 6ed3 bd3c c8cb 1f3e 7057 7a3d 565d b3bc
00000120: 9931 55be 0b85 423e 2b71 1d3e 5000 513d
00000130: e0a1 efbd e6b0 e2bd 7fd0 ef3d c84e 0d3d
00000140: 27c5 353e 4b51 0e3e 6197 e7bc 058b 8a3d
00000150: f779 e1bd 004d 60be ab54 1fbe 22b8 243e
00000160: cf6a 8a3e 2eaf dc3c 767b 80be ba30 0f3d
00000170: 5380 96be bb75 22be 63f8 93be 37c7 6cbe
00000180: 222d 853d 0be7 143e 69a1 ec3d df87 bdbe
00000190: 3503 1f3e 3573 96be e15e 8bbb dd1e aa3d
000001a0: 564d 113e 74a1 06be 6a91 38bd d09d 783d
000001b0: 9bbc 2c3c 89ba 1e3c a5ce e3bc 3699 653e
000001c0: a294 0a3e 5bea 403d 9107 5f3e 6545 cc3c
000001d0: f9f3 1bbd 03bc 23be e106 e9bd da20 55be
000001e0: 1369 e9bd 4500 0fbe 41ca 7b3e 9b0e 1ebe
000001f0: 766a 85bd 7dbc 083e e1d0 0bbe 93b0 0a3e
00000200: 1150 273e 0192 673e 6427 d33d 8532 023e
00000210: 9726 833c d56c 803d 9533 883d 45f0 25be
00000220: 04ad 5fbd d088 afbe e8bc 5cbe edc0 f6bb
00000230: e705 11bd b702 3fbc 5a60 10be b7cb 29be
00000240: d798 5d3d fb9a 363e a3f1 83bc 35b6 8dbe
00000250: 393f 12bd b8f3 5b3e 97bf b7bd 82f9 29be
00000260: 0053 8d3e 56c5 01bd ec96 8b3a 5107 9cbc
00000270: 9aa0 17bc c040 783c 647f ad3c 58d9 943e
00000280: 6d7f 3ebd 338c a73d 70ee 1cbe ad56 30be
00000290: c423 17be 2881 1fbe 9a11 033e 977f 883d
000002a0: 88b3 0639 c62a 2fbd bdcb 403e cb59 f2bc
000002b0: bbed ddbe a74e 20be cfa8 d93d f297 be3e
000002c0: 8cf2 023d 109b e0bd 7ab5 d93d 96b5 313e
000002d0: 0e8f f83d 171b babd afb0 95bd 2621 fbbc
000002e0: 85fa 3f3e d1b2 62be c1c3 86bb ac7e a6bd
000002f0: 87bd 68bc f8f4 b03e 83c5 77bd b99b d53d
00000300: 32f2 a6bd 1c5d 623e 1fff fe3d a1ed 153e
00000310: 73cc 5ebd 9263 553e c366 a4bd a92e 8ebe
00000320: 2f4c 823e 70d1 863e ee17 4e3e 7ad2 1c3d
00000330: ba8d f0bd e02d ae3d 2bbe 473d 8577 50be
00000340: 3f4a d73d ea60 163e 56fd 843e 7d68 093e
00000350: 120f a0be 36b5 32be ec15 07be fb42 8a3d
00000360: d4b9 bf3c ca06 8dbd b442 de3d 6e3b 813c
00000370: 23bd 32be 8278 a93c 1057 9dbe e8b3 42bc
00000380: 295d 30be cb08 9cbe e85f 34be 548a 523e
00000390: b9c8 4e3d 7a3a 68be a13f 23be b421 a1bc
000003a0: dae5 8ebe 99b7 cabd b4bb 2cbe 246a 3dbe
000003b0: 0b7d 193e e25e 483d e795 a5bd 3cc1 8ebe
000003c0: 0d04 d93d 2476 193d 019c df3c 6803 f53c
000003d0: 28c1 043d b2b8 eb3d 2b1e b53c 8e18 013c
000003e0: d544 0c3e 9586 8b3d 3111 a23d f94f 203d
000003f0: 8833 b8bd 3625 ddbd f71c 6b3d 8ca3 a13d
-0.011145743 0.13377656 0.06017975 0.18882947 0.39699784 -0.27804855 0.14014708 -0.19127049
-0.25196362 0.089399494 -0.1443744 0.031765766 0.015453942 0.027226448 -0.016541276 -0.11476638
-0.22485861 -0.2889132 -0.057988845 -0.11571341 -0.0022850642 -0.15617841 0.26841477 -0.08520624
-0.050097875 -0.037228372 0.023956738 -0.09887784 -0.29591036 0.18833771 0.023138957 0.31319988
-0.13065544 0.3154976 -0.128953 0.15079886 -0.21249744 0.061190963 -0.09530961 -0.08608722
-0.19385041 -0.09190734 0.0052426197 -0.035909437 0.32091248 -0.17894913 0.0059965947 -0.14004844
0.25049078 0.04224472 -0.067189865 -0.23428878 0.041613057 -0.13723211 0.23617604 -0.10839395
-0.20947891 -0.30452368 0.09545338 0.008896004 -0.20548877 -0.06412424 -0.15642552 0.2173337
-0.068786375 0.0339698 -0.086668886 -0.06368473 0.023172107 0.1560508 0.061118543 -0.021895092
-0.20819701 0.18996064 0.15375201 0.05102569 -0.11700797 -0.11068897 0.11709689 0.03449896
0.17750989 0.13898198 -0.028270425 0.06764797 -0.11009591 -0.21904373 -0.15559642 0.16085866
0.27034613 0.026939001 -0.25094193 0.03495858 -0.2939478 -0.15865223 -0.28900442 -0.2312287
0.06502749 0.14541261 0.11554224 -0.37017724 0.15528567 -0.2938477 -0.004253254 0.08306668
0.14189658 -0.13147527 -0.045060553 0.060697377 0.010543014 0.009688028 -0.027808497 0.22421727
0.13533261 0.0470985 0.2178023 0.024935434 -0.038074467 -0.1598969 -0.11378265 -0.20813313
-0.113969944 -0.13964947 0.24588872 -0.15435259 -0.065144464 0.13353153 -0.136539 0.1354392
0.16339137 0.2261429 0.103102475 0.12714584 0.016009612 0.06270758 0.066504635 -0.16204937
-0.05460836 -0.34284067 -0.21556437 -0.0075303228 -0.03540602 -0.011658362 -0.14099255 -0.16581617
0.054100838 0.17832558 -0.016106432 -0.27678075 -0.035704825 0.2147969 -0.0897209 -0.16599086
0.27602386 -0.031682335 0.0010649837 -0.019046457 -0.009254599 0.015152156 0.021178909 0.2907207
-0.04650824 0.08181038 -0.15325332 -0.17220564 -0.14759737 -0.15576613 0.12799683 0.06664961
0.00012846116 -0.0427654 0.1882772 -0.029583832 -0.43345436 -0.15655003 0.10627901 0.372253
0.031969592 -0.10967076 0.10630317 0.17354426 0.121366605 -0.09087198 -0.0730909 -0.030655455
0.1874791 -0.22138526 -0.004112691 -0.081296295 -0.014205343 0.34561896 -0.060491096 0.10430092
-0.08151664 0.22105831 0.12451004 0.1464143 -0.054394197 0.20838764 -0.08027413 -0.27769974
0.25448748 0.26331663 0.20126316 0.038286664 -0.11745782 0.08504844 0.048765343 -0.20358093
0.10512208 0.14685407 0.2597453 0.13418765 -0.31261498 -0.17451939 -0.13191956 0.06751057
0.02340404 -0.068860605 0.10852566 0.015775409 -0.17454962 0.020687345 -0.30730486 -0.011883713
-0.17223038 -0.30475459 -0.1761471 0.2056058 0.050484393 -0.22678557 -0.15942241 -0.019669391
-0.27909738 -0.098983 -0.16868478 -0.1849752 0.14989106 0.048918612 -0.08085232 -0.278818
0.10596476 0.037466183 0.027296068 0.02990885 0.03241077 0.11509837 0.022109112 0.007879389
0.13698132 0.06812779 0.07913435 0.039138768 -0.08994204 -0.10798113 0.05740067 0.07892522

conv1d.bias f4 [128]
00000000: 1df2 463d 1763 9dbc 00ac f7bd bdbc 343d
00000010: ecb8 28be 3566 4fbe c52c 0cbe 83fe 56bd
00000020: 76be 733d f5e3 39bc d91b 173e e257 00be
00000030: b275 78be a4b6 d53d 7b59 8e3c 10bf a7bd
00000040: 563d 02be 3f3a d3bd 7b1f a3ba aad1 b3bd
00000050: 8637 f03d 875b 8e3d 27db 5ebe 00ea 07be
00000060: fdd9 e0bd 0039 623d ba64 9bbd a8d2 d1bd
00000070: 0446 10bc 7db3 0dbe e9b2 9dbd 063b 00be
00000080: 606d e1bd e856 07be a599 03be 2555 aa3c
00000090: fbe9 a63d 6bc6 a2bc af09 b03c 8d03 18be
000000a0: be9f 3dbd 1c11 04bc 4c9b 08be c3c3 3a3b
000000b0: 5616 edbd 6a83 92bd 1887 cd3d 7276 13bd
000000c0: 4b79 9abd a289 a33c f41d 70bd c741 043e
000000d0: 9a3f 70bd e302 fc3d 4a20 e23d 97f9 c23b
000000e0: bc17 2d3d b02c 1f3e 3b3f 02be 46b2 a13d
000000f0: e41a 693d 86da 843d cf9a b1bd b436 1e3d
00000100: 1ba6 623c ae30 a73d 4893 07be 7fcd cabd
00000110: 66e3 02bc b633 dd3d c9ac 39be b300 29be
00000120: d8c3 c6bb 1939 3f3d cc87 603c 6efb a43d
00000130: f404 cfbd 3da9 163e dc15 f3bc 3364 513d
00000140: c998 a13d ecbd a3bd 004b a4bd 2cd0 193e
00000150: 85a6 da3d 2200 dbbd ba4c 97bd 4fd3 12be
00000160: 4168 d83d 4fc7 b5bc 3b1d bcbd 9733 efbd
00000170: 5507 4abd 7c92 29be dacb 7bbd c75f 203e
00000180: d430 e7bd 3862 41bc 412e f0bb 6a08 16be
00000190: 7910 073c 5cc7 59bd c3ff fbbd 0ac4 24bd
000001a0: 4748 aa3c 3c68 2ebe 5217 d1bd 6885 b4bd
000001b0: 1024 de3d 4792 ddbd f039 e3bc 068a afbd
000001c0: e9fb 13be 5c58 f93c c34e 08be 2c1a 2dbd
000001d0: 88b2 5cbd d0a4 c7bd 1f93 a83d 6221 4b3d
000001e0: 5220 b73d 9b83 a13d 393b 483d 01ff ef3d
000001f0: 342d d13d e08c b5bd 1c6d a5bd 47ed 063e
0.04857074 -0.019212289 -0.12093353 0.044125307 -0.16476792 -0.20253833 -0.13688953 -0.052488815
0.05950781 -0.011345853 0.14756717 -0.12533525 -0.24263647 0.104352266 0.017376652 -0.08190739
-0.1271871 -0.10313844 -0.0012445295 -0.087802246 0.1172934 0.06951051 -0.21763287 -0.13272858
-0.10979078 0.05523014 -0.075875714 -0.102452576 -0.0088057555 -0.13838 -0.0770014 -0.12522516
-0.1100719 -0.13216746 -0.1285158 0.020792553 0.08150097 -0.019870004 0.021488992 -0.14845105
-0.04629492 -0.00806072 -0.13340491 0.002849803 -0.11576526 -0.071539715 0.10035533 -0.03600163
-0.07542666 0.01996309 -0.058622316 0.12915717 -0.058654405 0.12305238 0.11041315 0.0059501636
0.042258963 0.1554439 -0.12719433 0.07895331 0.05691041 0.064869925 -0.086721055 0.038626388
0.013833548 0.08163582 -0.13239777 -0.099024765 -0.007988786 0.10800879 -0.18132319 -0.16504173
-0.006065827 0.046685312 0.0137042515 0.08055769 -0.101083666 0.14712997 -0.02967351 0.051120948
0.078904696 -0.07995209 -0.080221176 0.15020818 0.10676292 -0.10693385 -0.07387681 -0.1433842
0.1056676 -0.022189764 -0.09185263 -0.11679762 -0.0493234 -0.16559786 -0.061473705 0.15661536
-0.1128861 -0.011803202 -0.0073297326 -0.14651647 0.0082436735 -0.05316864 -0.12304642 -0.04022602
0.020786418 -0.1703195 -0.10209526 -0.08814508 0.10846722 -0.10818916 -0.027737588 -0.08571248
-0.14451565 0.03043764 -0.13311295 -0.042261288 -0.0538812 -0.09748232 0.08231186 0.049592383
0.089417115 0.0788643 0.048884604 0.1171856 0.102137 -0.088647604 -0.080774516 0.13176452

linears.0.weight f4 [32, 128]
00000000: ac80 ccb8 9ce6 e737 4d87 c4b7 2bc3 c238
00000010: ff72 83b8 66b2 f937 77a6 0fb7 3d45 2037
00000020: 2c80 2539 1652 89b9 a2dd 2538 bbdf 0ab9
00000030: f749 55b7 d9b2 0d38 7506 da37 ccaa aa38
00000040: 2bec 0bb9 84db c5b8 17bf f038 e118 9638
00000050: 307f 6fb8 380c 2236 07ef 81b9 e0dc a338
00000060: cfc4 f138 dbae b9b7 e43e b0b9 ec15 e636
00000070: 4b8e 5738 5c62 e3b7 9e3b bfb7 3438 8eb9
00000080: 4515 9039 3bac b239 f27b 1cb6 5c02 1538
00000090: 85f7 8cb7 7ab8 5a39 de59 0e37 3089 fb38
000000a0: ab63 e7b7 90dd 7bb9 46b0 e8b8 8a35 b038
000000b0: dbdf 72b8 96fd 0338 9feb abb8 9d52 ecb8
000000c0: 4db8 d837 7e6d c538 4120 80b9 50b1 4a37
000000d0: 8751 78b9 a183 10b7 490f a7b8 6726 42b8
000000e0: 98b2 0d39 5acd bcb7 5926 7c38 8b75 d737
000000f0: 44bd 9838 64f6 2839 ef4d 1fb9 a7fc 8338
00000100: e31f 2739 e87d b2b8 6093 ab38 aac8 0139
00000110: bf41 9d38 a320 4d37 da72 c637 a83b dbb8
00000120: 9de4 37b9 4787 07b8 6d49 30b8 04c7 aa38
00000130: 982c 9337 394d 90b8 e098 5838 10a6 4439
00000140: 1362 0239 ba60 1cb9 24fb 0cb9 644d bc38
00000150: 2316 cd38 0283 deb8 ef19 5ab9 4645 c038
00000160: 83f7 54b9 cd28 37b9 f61e e438 676c 98b8
00000170: dac5 87b7 c6fa b139 ac48 9a38 d8b4 02b9
00000180: b63f b037 86e7 edb8 f53c 3c39 e3b6 1bb9
00000190: bc3f 6238 39a3 86b7 abde a638 5833 d138
000001a0: bf56 9fb8 96c3 2a37 56ba c9b8 b15c ce38
000001b0: 8ae5 e6b5 a6a9 9637 cc8e 8eb9 9606 95b6
000001c0: 0209 5138 687a 1539 631b b538 8f97 9db8
000001d0: 9b64 78b7 5621 2539 b463 75b9 8ad0 7439
000001e0: 4429 4a39 bd51 96b8 0c29 fab8 0c39 aab8
000001f0: bce4 0a39 467c 0cb6 82ea 3838 9538 ccb6
00000200: 2e93 f9b8 99dd ecb8 a1d1 38b7 3f4b 1db8
00000210: 3ead 1b38 40ce 4ab9 fd8b 18b8 912e 09b9
00000220: ae7e 25b8 21fc 8a38 3710 1338 f008 a538
00000230: 6137 3eb8 c43e f738 3df5 2039 5cc5 39b9
00000240: 4492 ab38 c5cc c2b8 0ef3 5bb8 c317 8bb9
00000250: 2c33 1a37 bcc8 21b8 85cd ac37 d093 6439
00000260: fc11 51b8 8a3c 9bb7 7b8a 7638 dc6b 19b8
00000270: 305c 8eb9 5a23 b0b8 dadc 4eb9 8c28 9bb8
00000280: fd43 a138 bfab 7a39 4df5 1a39 1889 4bb9
00000290: 4fb4 86b8 e5ab 31b9 5a89 9637 f6a8 c038
000002a0: f9cf 2139 f12e 88b8 c79b 1939 9170 2639
000002b0: af66 cdb8 1a7b c038 4927 d537 e18b 28b7
000002c0: dab0 8437 f7f9 2438 8cfd 27b9 fa07 56b8
000002d0: 6872 3b39 6ec3 a5b8 42bf ecb7 29e8 2939
000002e0: 463c bbb8 2019 3139 a8e4 98b9 2fc8 4637
000002f0: ed00 5539 32e5 1db8 51be ac38 d93d 1d38
00000300: b787 3bb8 9380 89b8 7b8f 8fb9 9a27 0139
00000310: 17bf 3bb8 4329 b2b8 e0c4 92b8 4b93 29b8
00000320: 2e9f afb8 2042 efb8 fcd1 9db7 8541 1f38
00000330: f2ff 8237 63f0 fdb8 3241 a3b7 9a71 53b9
00000340: 381d 37b9 542f 19b8 4d17 0f38 705c 85b9
00000350: b5d1 6eb8 2744 2b39 232f 2bb9 c9e3 01b9
00000360: 886c 4cb7 baaa df38 6cd8 c7b8 a81d 2b38
00000370: 0c61 1b39 a40a 04b9 0011 0239 d6d4 9339
00000380: 6100 39b9 a352 f2b8 001f 6838 899e 0039
00000390: 544e 38b8 b4e2 2737 6134 e1b8 94aa bd37
000003a0: 02b9 ca37 fd68 3b38 0c3e 60b9 6712 a538
000003b0: 7c4c 7338 9676 c6b7 d9ba 1bb7 0936 d537
000003c0: 229a ab38 c290 9fb7 5891 3bb8 69f2 ceb8
000003d0: c129 31b8 f1e9 1db9 23cf 3cb8 ba2c d238
000003e0: 94b2 25b9 c5fa 9937 2004 e038 f162 ecb8
000003f0: 2918 3eb9 12f3 7db9 5bca 63b9 f471 2cb9
-9.751445e-05 2.7644732e-05 -2.3428025e-05 9.286994e-05 -6.2679865e-05 2.9766186e-05 -8.562222e-06 9.552864e-06
0.00015783374 -0.00026191835 3.9545477e-05 -0.00013244052 -1.2713011e-05 3.3783585e-05 2.5990632e-05 8.138045e-05
-0.00013344052 -9.43458e-05 0.00011479685 7.1571914e-05 -5.7100493e-05 2.4146993e-06 -0.00024782887 7.813587e-05
0.00011528434 -2.2135142e-05 -0.00033616193 6.857086e-06 5.1392515e-05 -2.710631e-05 -2.2796736e-05 -0.00027126225
0.00027481667 0.00034079127 -2.3317957e-06 3.5526566e-05 -1.680456e-05 0.00020858823 8.484783e-06 0.00011994166
-2.7583757e-05 -0.00024019764 -0.000110954556 8.4023064e-05 -5.7905778e-05 3.1469004e-05 -8.197803e-05 -0.00011268745
2.5835028e-05 9.4140865e-05 -0.00024438094 1.2081422e-05 -0.00023681494 -8.613716e-06 -7.9660276e-05 -4.628897e-05
0.00013513339 -2.250697e-05 6.0117196e-05 2.5684732e-05 7.283178e-05 0.00016113516 -0.00015192454 6.293627e-05
0.0001593824 -8.511153e-05 8.181366e-05 0.00012377152 7.4985895e-05 1.2226551e-05 2.3656921e-05 -0.000104538456
-0.00017537405 -3.2312495e-05 -4.2030053e-05 8.143301e-05 1.7544531e-05 -6.880839e-05 5.164079e-05 0.0001875388
0.00012434302 -0.00014913353 -0.00013444998 8.978954e-05 9.779285e-05 -0.00010610187 -0.00020799761 9.1681766e-05
-0.00020310101 -0.0001746744 0.00010877654 -7.268116e-05 -1.6185386e-05 0.00033946912 7.3568284e-05 -0.00012465136
2.1010503e-05 -0.00011344165 0.00017951785 -0.00014850083 5.3941956e-05 -1.6050051e-05 7.956972e-05 9.97546e-05
-7.5978685e-05 1.0178328e-05 -9.619135e-05 9.8401106e-05 -1.720314e-06 1.7960392e-05 -0.00027190743 -4.4413127e-06
4.9837872e-05 0.00014255347 8.635854e-05 -7.5145734e-05 -1.4805376e-05 0.00015748045 -0.00023402163 0.0002334734
0.00019279594 -7.167782e-05 -0.000119285745 -8.1168575e-05 0.00013245916 -2.0933962e-06 4.408742e-05 -6.086261e-06
-0.000119006596 -0.00011294633 -1.1016063e-05 -3.7501795e-05 3.7116224e-05 -0.00019341055 -3.637e-05 -0.00013082685
-3.9457045e-05 6.6273155e-05 3.5062632e-05 7.869478e-05 -4.5351106e-05 0.00011789569 0.00015350147 -0.00017716497
8.1811595e-05 -9.288782e-05 -5.244003e-05 -0.0002652985 9.19103e-06 -3.857234e-05 2.05997e-05 0.00021798839
-4.9846232e-05 -1.850563e-05 5.877994e-05 -3.6578494e-05 -0.00027153036 -8.398919e-05 -0.00019727965 -7.3985284e-05
7.689742e-05 0.00023905838 0.00014777966 -0.0001941066 -6.423203e-05 -0.00016944071 1.7945353e-05 9.186745e-05
0.00015431632 -6.493729e-05 0.00014649249 0.00015872928 -9.794288e-05 9.178203e-05 2.5409872e-05 -1.0046148e-05
1.581798e-05 3.9333445e-05 -0.00016020815 -5.1029005e-05 0.0001787633 -7.904215e-05 -2.8222454e-05 0.00016203582
-8.928082e-05 0.00016889395 -0.0002916206 1.18483285e-05 0.00020313608 -3.764517e-05 8.237048e-05 3.7489317e-05
-4.471067e-05 -6.556618e-05 -0.00027381987 0.00012317151 -4.476224e-05 -8.495387e-05 -6.998493e-05 -4.0429917e-05
-8.3743e-05 -0.00011408725 -1.881364e-05 3.7969574e-05 1.5616391e-05 -0.000121087556 -1.9461473e-05 -0.00020164848
-0.00017463125 -3.652212e-05 3.4115557e-05 -0.00025436608 -5.6938927e-05 0.0001633322 -0.0001632539 -0.00012387255
-1.2184617e-05 0.00010665269 -9.529371e-05 4.0797197e-05 0.00014818105 -0.00012592465 0.00012404099 0.000281966
-0.00017643116 -0.000115548515 5.534198e-05 0.0001226609 -4.3941967e-05 1.0006759e-05 -0.000107385924 2.2609987e-05
2.4166427e-05 4.4682052e-05 -0.00021385419 7.871241e-05 5.8006946e-05 -2.365866e-05 -9.282224e-06 2.541674e-05
8.182625e-05 -1.9021685e-05 -4.4719636e-05 -9.867998e-05 -4.2238975e-05 -0.00015059837 -4.5015604e-05 0.00010021911
-0.00015802152 1.8355795e-05 0.00010681921 -0.00011271786 -0.00018128812 -0.00024218511 -0.0002172379 -0.00016445649

linears.0.bias f4 [32]
00000000: 04fb a938 ceaf ebb7 4ae5 e0b8 650d 5cb9
00000010: 90c7 b838 ed6c f2b8 95e8 70b8 0faa eb37
00000020: 2397 c9b6 8d1a 4639 a8dc 5d39 c0bc 6ab6
00000030: 7d72 45b9 b8e5 d338 c7c1 7b38 a6e1 8938
00000040: c0cb d0b8 9e10 c938 49e2 4f39 469a 06b9
00000050: f152 6339 9b7e 92b8 9cd4 b938 1d0c b33b
00000060: 852c ec37 c0ab 1a38 59d0 57b8 b0c8 2439
00000070: a9a5 2139 20e7 04b9 fb53 8139 8b28 323d
8.105303e-05 -2.8096048e-05 -0.00010723861 -0.00020985825 8.810975e-05 -0.00011559748 -5.7437068e-05 2.8093373e-05
-6.0078614e-06 0.00018892642 0.00021158403 -3.4978584e-06 -0.00018830034 0.000101040525 6.0023533e-05 6.5746994e-05
-9.956164e-05 9.587522e-05 0.00019825356 -0.00012836707 0.00021679305 -6.9854046e-05 8.861089e-05 0.0054640905
2.8154123e-05 3.6876416e-05 -5.1454033e-05 0.0001571502 0.0001541587 -0.00012674602 0.00024667368 0.043495696

linears.2.weight f4 [2, 32]
00000000: c5ed b538 77e8 18b9 18f0 b4b8 7ce5 4339
00000010: 26f7 f7b6 6552 cfb8 c135 0bb7 1eae 02b9
00000020: 5380 0a39 2512 0bbf e81d f6b8 8b82 1237
00000030: 6f81 ec38 e98f 05bf bd36 05b9 c8ac 41b8
00000040: 85c4 b537 8260 1db7 9d11 04bf 8afe a6b7
00000050: 1267 a0be 460e 0cb8 50d7 08bc a7c1 2b3f
00000060: ebe5 83b9 f4e0 00b9 c80e dfb8 0b0c 36b6
00000070: f07e 2b39 b812 8e38 0823 a5be d674 503f
00000080: 5e57 be37 2c09 1d39 9eee 84b8 7f88 4a38
00000090: b3ae 39b9 a5d4 5cb8 98a3 3039 cb01 3fb7
000000a0: eacc afb8 205b 073f 05a4 1d38 545c df36
000000b0: 9806 c437 61f5 0f3f 7b7b f738 3a46 5bb8
000000c0: 2336 3038 a962 8a37 02c1 173f be5e 8638
000000d0: 116d 233e 44fe 1339 792e 06bd c5a8 31bf
000000e0: 3e0a e9b8 30ff 0cb9 8d0d 8b39 24ae f9b8
000000f0: 5372 3038 1dc2 20b7 cef6 d63e dfa7 51bf
8.6750406e-05 -0.0001458245 -8.62779e-05 0.00018682139 -7.3899455e-06 -9.885876e-05 -8.297561e-06 -0.0001246263
0.0001320851 -0.5432456 -0.000117357646 8.7326725e-06 0.00011277466 -0.52172714 -0.0001270426 -4.61757e-05
2.1668393e-05 -9.380399e-06 -0.51589376 -1.9907271e-05 -0.31328636 -3.3391894e-05 -0.008352116 0.67092365
-0.0002515757 -0.00012290833 -0.00010636222 -2.7127123e-06 0.00016355119 6.774574e-05 -0.3225329 0.8142828
2.2690449e-05 0.00014976104 -6.3386964e-05 4.8287675e-05 -0.00017708055 -5.2650128e-05 0.00016845611 -1.1384905e-05
-8.3828185e-05 0.5287342 3.7584472e-05 6.6566663e-06 2.3368091e-05 0.56233793 0.00011800878 -5.2279072e-05
4.201209e-05 1.6496824e-05 0.5927888 6.407265e-05 0.15959574 0.00014113734 -0.032759164 -0.69398147
-0.000111122135 -0.00013446505 0.00026522242 -0.000119056815 4.2068143e-05 -9.581939e-06 0.41985172 -0.81896776

linears.2.bias f4 [2]
00000000: 6303 ae3d 1a6c 9938
0.0849674 7.315744e-05

exp_avg f4 [128, 4, 12]
00000000: de65 d7b9 e2dd c6ba 7c39 643b 36a2 3e3b
00000010: affc 80ba aa49 e939 c06c ca3b 9b62 ed38
00000020: a7b6 c1b9 9f93 17bb b95d 233a 413a a93b
00000030: 148b 14bb 01aa 453b 9300 a4ba 1b06 d8ba
00000040: e321 1ab8 88e8 2639 5ebd 47b9 8c5c 153a
00000050: 7fa6 f739 0154 14ba 9b9a ee39 53a6 d6ba
00000060: 5ddc 373b caa4 2fbb 74e4 00bb 2679 6dba
00000070: 5e76 af39 37e9 20ba 3f9b bdbb 570e 0bba
00000080: 6f9a ddb9 130e 23bb 19ca 26ba f41e 70bb
00000090: a648 06b9 77d3 9a3a efa5 8ab9 ee06 bab9
000000a0: 4ce0 333a d78f 2237 fc72 52b9 1eea 1fb9
000000b0: 94aa a739 5adb af3b dfc1 e7b9 f7d9 0f39
000000c0: c595 8bb9 ab3e 153a d2ac 84bb 74af 1538
000000d0: 871e 613a c86a 56b8 9913 e1ba 57b2 f93a
000000e0: 4be3 c8b8 a1fa 8439 98bd 8f38 925b f43a
000000f0: 986a 55b8 d300 9e39 9626 5b39 4847 b03a
00000100: 36b1 83bb d89e d2b9 1a42 00ba 88b1 a93a
00000110: 4329 173b 6936 f8ba ac43 97ba 5c83 5b3a
00000120: a5b9 0e3a 10a6 52ba 814d 323b 7d5d 403a
00000130: ce51 153a c78d 343a ab56 fc3a b45d 7dbb
00000140: 3e4f 19bb d5bf ce3a 5fb2 653a a924 5ebb
00000150: 6860 6eb9 2dc8 8cb8 74b3 923a c291 0abb
00000160: 56c6 293b b25e 77b9 ec77 9339 0daf 2e3a
00000170: 5ed1 0639 b07e 8338 1175 5b39 2458 343a
00000180: 8be7 0e3b dadc ceba 1af3 5cb9 0934 cd38
00000190: 6938 9a3a c06e 2439 2479 dbba e0ea a13a
000001a0: f316 2d39 014a 5dba 4c11 6b39 ef13 cdb9
000001b0: a5f8 d5ba 6c94 5bba c916 5138 0723 c2b8
000001c0: 7c82 1aba a8fb 87ba 27fc e33a 0da7 30ba
000001d0: 4d08 f8b8 8849 8239 c9f3 c3b7 bca5 fc38
000001e0: 9b40 39ba 67c3 0039 a55f 813a bae5 5d38
000001f0: 0307 50b8 6b49 653a 80b1 a0b8 7b1a eeb9
00000200: 2edd 1cbb 5fb3 7c3a b000 053a a0c7 ee39
00000210: e84e 2639 5247 163b f193 58ba c207 74b8
00000220: e9ed 0cba 841a c936 180b 4437 a40b e1b8
00000230: 01cc 193b 431c c1b9 64a5 39ba 46ba 41b9
00000240: ca94 cf3a c1e3 2abb 1fab 3c3a 8084 d238
00000250: a693 b03a 563f e5ba 9b5f 82bb ceac 5339
00000260: 8b8f f0ba 9f22 4038 6844 2c3a 8643 7c3a
00000270: e560 1bba 488d fc3a 398e 503a 427f 4cba
00000280: 0881 87bb f845 b63a 46f4 2f39 91b5 1138
00000290: 0a85 9439 6d4c 8e39 a788 eb3a ad3b 76bb
000002a0: 8751 533a 06be 803a ae3f 44bb f16a c939
000002b0: fc82 f137 c795 093a ed45 4c3b 9d17 49b9
000002c0: 0cd8 ad3a bee6 2c3a 9d9c a33a 18a3 f13a
000002d0: 1b8d ebba 320f 9eb9 b0e2 c13a 75f2 9a39
000002e0: 39d5 343b 348c 2eb9 0ee8 353a 520a 3cb8
000002f0: dab1 6c39 8f07 80ba bba3 72bb fd64 793a
00000300: 41cc b0ba 1443 663b 1afb 59bb 66d1 5e3b
00000310: a49f cbba d1a2 4d3b e854 d7ba 575a 64b9
00000320: 167a e5bb 0905 7e3a d67e 1dbc 4813 5dbb
00000330: 7955 aebb 6887 4fbb 1fd2 ff3b ba0f 62ba
00000340: 08c3 413a 7fab 82bb b58c e4bb bb3d 6d3b
00000350: 6716 2c39 090f 363a 0a68 d4b9 5204 deba
00000360: 5e8b 1c3b 14f7 64b9 f12c 9ebb 5721 faba
00000370: 85a3 3c3a 264e a839 0bd3 8a39 f4fd 42bb
00000380: fbae b139 a670 c0ba a42e 1f3c 161d a33b
00000390: d942 8c3b 97c3 06b9 f185 b539 30f3 24ba
000003a0: d7c5 c638 a5a9 0a3a 5fda 083c 02d1 dfb9
000003b0: 73fe d43b 0acb 4cb9 616e 9e39 3768 bb38
000003c0: 2b84 97b7 1f30 a837 68bf ceb5 f25e 4ab5
000003d0: e257 afb5 b846 16b6 37ed 6cb7 03c6 81b4
000003e0: b78d 89b6 cece 8a37 76c8 9fb5 ddff 26b7
000003f0: e8bd 17b5 8838 df33 0ba0 18b7 f75c 6ab6
-0.00041083893 -0.0015172327 0.0034824302 0.0029088384 -0.000984093 0.00044496107 0.006177515 0.00011319407
-0.00036947915 -0.002312876 0.00062319223 0.005164415 -0.0022665905 0.0030161145 -0.0012512378 -0.0016481312
-3.674802e-05 0.00015917618 -0.00019048664 0.00056976895 0.0004723556 -0.00056582695 0.00045510088 -0.0016376473
0.002805493 -0.0026801103 -0.0019667419 -0.0009058885 0.00033466792 -0.00061382673 -0.005786329 -0.0005304566
-0.00042267467 -0.0024880215 -0.00063625124 -0.0036639543 -0.000128063 0.0011812289 -0.0002644504 -0.00035481848
0.0006861731 9.689443e-06 -0.00020069996 -0.00015250637 0.00031979813 0.005366725 -0.000442042 0.00013718741
-0.00026623733 0.0005693237 -0.004048922 3.568777e-05 0.0008587618 -5.1121024e-05 -0.0017171978 0.0019050342
-9.57908e-05 0.00025363735 6.854086e-05 0.0018643013 -5.088243e-05 0.00030136722 0.00020899842 0.0013448978
-0.004018928 -0.0004017267 -0.00048926624 0.0012946585 0.0023065365 -0.0018937114 -0.0011540554 0.0008373761
0.00054445333 -0.00080356095 0.002720684 0.00073381496 0.0005696089 0.00068875815 0.0019251903 -0.0038660588
-0.002339318 0.0015773723 0.0008762236 -0.0033896363 -0.00022733363 -6.713006e-05 0.0011192397 -0.0021144007
0.002590557 -0.00023591032 0.00028127374 0.0006663658 0.00012857231 6.270164e-05 0.00020929078 0.0006879589
0.002180549 -0.0015782372 -0.00021071397 9.784854e-05 0.0011766079 0.00015681516 -0.0016744477 0.0012353323
0.00016507115 -0.00084415084 0.0002241779 -0.000391155 -0.0016324712 -0.00083763036 4.9850703e-05 -9.257165e-05
-0.00058940775 -0.0010374682 0.0017393873 -0.00067387597 -0.00011827108 0.00024850317 -2.3359333e-05 0.00012047167
-0.0007066817 0.00012279824 0.0009870423 5.2904456e-05 -4.9597595e-05 0.0008746597 -7.6624565e-05 -0.00045414627
-0.0023935544 0.00096397655 0.000507365 0.0004554363 0.00015860389 0.0022930694 -0.0008261791 -5.818136e-05
-0.00053760275 5.9933536e-06 1.1685093e-05 -0.00010731004 0.0023467543 -0.00036832885 -0.0007081835 -0.00018475307
0.0015837189 -0.0026075693 0.000719713 0.000100382604 0.0013471737 -0.0017490189 -0.003978682 0.00020186903
-0.0018353326 4.580861e-05 0.00065714726 0.0009623099 -0.0005927219 0.0019268179 0.0007955763 -0.00078009453
-0.004135255 0.001390635 0.000167803 3.473979e-05 0.00028327882 0.00027141292 0.0017969803 -0.003757219
0.000806116 0.0009822256 -0.0029945183 0.00038417385 2.8790433e-05 0.0005248454 0.0031169609 -0.0001917765
0.001326324 0.00065956626 0.0012482587 0.0018435447 -0.001797113 -0.0003014743 0.001479229 0.00029553814
0.002759291 -0.00016646163 0.0006939181 -4.4832304e-05 0.00022572969 -0.0009767878 -0.003702386 0.00095136446
-0.0013488607 0.0035135197 -0.003326124 0.0033999323 -0.0015535248 0.0031377564 -0.0016428502 -0.00021777429
-0.007003079 0.00096900814 -0.00961276 -0.0033733416 -0.0053202477 -0.0031666402 0.007807031 -0.0008623559
0.00073914276 -0.003987729 -0.0069747814 0.0036200124 0.00016411544 0.00069449894 -0.00040513306 -0.0016938543
0.002388678 -0.00021835818 -0.004827135 -0.0019083422 0.0007195997 0.00032101682 0.0002647865 -0.0029753419
0.0003389044 -0.0014682009 0.00971571 0.0049778325 0.00428043 -0.00012852099 0.00034622804 -0.0006292341
9.478226e-05 0.0005289561 0.008352845 -0.00042689597 0.0065000593 -0.00019530594 0.00030218347 8.9362664e-05
-1.8062148e-05 2.0049569e-05 -1.5403903e-06 -7.538903e-07 -1.3064093e-06 -2.2392906e-06 -1.4121927e-05 -2.4172195e-07
-4.099416e-06 1.6547183e-05 -1.1904765e-06 -9.953944e-06 -5.6528233e-07 1.039453e-07 -9.097169e-06 -3.492283e-06

exp_avg_sq f4 [128, 4, 12]
00000000: 03c6 c537 265e 2438 97a2 0938 93da 0838
00000010: d467 5637 a692 ed35 9891 e437 eb74 9135
00000020: bb15 ff35 e36f ef36 e079 fe36 0d53 e237
00000030: 4762 2a38 5ef2 ec37 a038 1b38 086d 7d37
00000040: 4373 8f36 7fb4 7e36 081a e536 7972 9a36
00000050: d110 8536 7e4d 1e37 5bc7 3c38 36cc 9d37
00000060: 418a f937 cb53 3238 c38e 1138 6e3f 7837
00000070: 3494 2f36 1101 0d37 9207 0d38 d849 ed36
00000080: f841 0337 03ab e737 e2f4 6237 1cf7 0e38
00000090: b6f6 0c37 6c20 b237 7562 ea36 3458 1337
000000a0: fa7a e136 3893 6536 d3ec fc37 2967 2c36
000000b0: aa9f 6437 304e 8437 3212 a237 de97 4036
000000c0: 13da ec36 273f d236 7d78 d436 b507 d634
000000d0: 5a69 6537 de6a 4137 352e 9f37 892d f836
000000e0: 6c63 8635 39cd 9635 d52c 8a37 0c80 2137
000000f0: d0d3 d235 7259 1f36 a9ef 3b36 0ea6 6d37
00000100: 4905 0837 4db5 7737 d3c2 5036 6797 0837
00000110: 8163 3537 bbc1 8837 cfe3 8537 5e3f 8437
00000120: d9f0 5d36 6e07 1d37 8d42 3e37 1e4e 1f37
00000130: ad10 0837 c8b9 7b37 d4b0 9937 e377 9937
00000140: 7911 4837 a247 8a37 43e8 2437 3b24 9637
00000150: 49d1 f335 71ae 2235 5202 3936 0544 4137
00000160: 6e9b bd37 043b 6437 e833 e034 97db 5f37
00000170: 1f5f 1835 8a9b 5d36 45f4 6735 7d7b ad36
00000180: 2d12 d236 6626 c136 a185 5636 e5f4 8e33
00000190: 3ac6 a536 a27b 8134 e654 0036 5365 a236
000001a0: f00b a236 08c6 c534 4c34 0136 e2cc 9736
000001b0: faf8 d936 2ce0 c836 2a86 5436 350b b735
000001c0: 85a2 bd36 eea6 bc36 bfda 5136 2c37 5d36
000001d0: aab4 3535 0bbd 0e35 a6b3 bc35 df53 2135
000001e0: 4bc2 2f36 c035 b235 9bfd b436 6c2c 8335
000001f0: a790 ab35 508a bd36 b988 a335 c438 ce36
00000200: ede5 ce36 e9b0 0e36 259c 9c36 c75e bb36
00000210: 50f1 2836 0ad2 8636 5c73 0136 0de6 c634
00000220: 58da fd35 0605 c233 058e 6134 065c 1f36
00000230: d6c7 f935 00b0 b035 5e75 c535 60c7 8836
00000240: b321 3737 eb14 e437 88dc d936 c61a 1c34
00000250: 4eab eb36 29c6 d137 2f58 ef36 8078 2c35
00000260: ca6f d037 c3a1 9c36 f1f1 9e36 51ca 0037
00000270: 77bd 1337 4646 4337 f784 5437 0f66 2337
00000280: 16bd 0038 24c5 b037 8a77 0836 6001 1535
00000290: 021c 7f36 8f56 6c36 3a03 a137 86fe 6037
000002a0: 6e68 9037 9710 bb37 38e8 9037 1660 d836
000002b0: ef7f 0035 1e4f b536 3411 7f37 31ea 2336
000002c0: 0f27 9a37 0c36 8337 30a1 9237 1f1d 9237
000002d0: b753 b737 1aeb c736 2ddd a036 0f56 7a36
000002e0: 863e 0638 c9bb a435 4e73 2237 ea7a ba35
000002f0: f307 5936 5e43 bd37 35e0 7436 85e9 2437
00000300: 3414 0c38 036b bf38 df71 6e38 30ad a038
00000310: acf0 2838 86fb a538 b88d 1238 a272 b236
00000320: 376c 5038 8f90 2a38 b8c8 4238 2fd9 2838
00000330: 404d 1f38 4f1d 3f38 3a30 be38 d753 5b37
00000340: 2b27 7638 804f a338 d64e 3f38 cbea 5538
00000350: fca0 ad36 6187 a337 cccf 8d37 c262 9838
00000360: be74 af38 44da a038 58fe 8c38 f785 8f38
00000370: 48ba 4438 3a1d ad37 ba54 3036 a28c 2a38
00000380: 999a 2237 eb88 2137 d38d d337 e3bc a938
00000390: e036 7838 8058 8436 5a5b d236 de59 0d38
000003a0: a139 3836 05f5 5837 5bbd 5237 e09e 3637
000003b0: ccc2 3038 d8dd 8137 1044 0437 4fe3 0136
000003c0: 4130 c531 4b90 b731 ffca 8c30 f7a5 4a2f
000003d0: 0d0d f12f 5716 5331 73d1 5331 21a5 dc2f
000003e0: f32c 9031 80ac c031 1cac ef31 8dc8 0f32
000003f0: d43f c730 676e f930 355c 2432 32e3 e831
2.3576436e-05 3.918833e-05 3.281477e-05 3.262849e-05 1.2779568e-05 1.7700556e-06 2.7247515e-05 1.083737e-06
1.9005305e-06 7.1357804e-06 7.583978e-06 2.6979973e-05 4.0622686e-05 2.8246253e-05 3.7007616e-05 1.5105361e-05
4.2751503e-06 3.7954012e-06 6.8277623e-06 4.602884e-06 3.9656666e-06 9.435576e-06 4.5008357e-05 1.8810952e-05
2.9747493e-05 4.2516545e-05 3.470365e-05 1.479672e-05 2.6163298e-06 8.404503e-06 3.362407e-05 7.071747e-06
7.823568e-06 2.761698e-05 1.3527666e-05 3.4085577e-05 8.402092e-06 2.1234351e-05 6.9852053e-06 8.782419e-06
6.719839e-06 3.4209352e-06 3.015102e-05 2.5690044e-06 1.3627034e-05 1.5772035e-05 1.9320378e-05 2.8698628e-06
7.0587353e-06 6.2658396e-06 6.332119e-06 3.9866214e-07 1.3673993e-05 1.1528578e-05 1.8975794e-05 7.396277e-06
1.0012714e-06 1.1235599e-06 1.6471758e-05 9.626161e-06 1.5707865e-06 2.374491e-06 2.8004672e-06 1.4164963e-05
8.107462e-06 1.476456e-05 3.1107818e-06 8.141483e-06 1.0811608e-05 1.6302676e-05 1.5960917e-05 1.5765134e-05
3.3071758e-06 9.359659e-06 1.1340378e-05 9.495327e-06 8.110114e-06 1.5004021e-05 1.8321363e-05 1.8294848e-05
1.1924997e-05 1.6484239e-05 9.829239e-06 1.7898265e-05 1.8165821e-06 6.060355e-07 2.7568499e-06 1.15195335e-05
2.2602933e-05 1.36036e-05 4.1761018e-07 1.3342963e-05 5.676283e-07 3.3022102e-06 8.6409665e-07 5.1701777e-06
6.2606036e-06 5.7563184e-06 3.1966267e-06 6.656936e-08 4.94046e-06 2.4118077e-07 1.9122904e-06 4.839772e-06
4.829366e-06 3.6838196e-07 1.9252939e-06 4.524002e-06 6.4960886e-06 5.9865615e-06 3.1668555e-06 1.3637824e-06
5.6515587e-06 5.62227e-06 3.1270754e-06 3.296368e-06 6.7690655e-07 5.3174216e-07 1.4059376e-06 6.009922e-07
2.6190125e-06 1.3277677e-06 5.3939416e-06 9.773189e-07 1.2782592e-06 5.6487406e-06 1.2184238e-06 6.145887e-06
6.1660453e-06 2.1262624e-06 4.66734e-06 5.584068e-06 2.5174413e-06 4.017963e-06 1.9289646e-06 3.7047758e-07
1.8913515e-06 9.034743e-08 2.1006424e-07 2.374641e-06 1.8610106e-06 1.3164245e-06 1.4711802e-06 4.076326e-06
1.0915496e-05 2.7189459e-05 6.492777e-06 1.4538372e-07 7.0234883e-06 2.5007017e-05 7.133021e-06 6.4250344e-07
2.4847588e-05 4.667994e-06 4.7369326e-06 7.6765e-06 8.805996e-06 1.16392675e-05 1.2667143e-05 9.7393195e-06
3.0693678e-05 2.1072636e-05 2.033516e-06 5.5508826e-07 3.8014264e-06 3.5217124e-06 1.9194198e-05 1.3410701e-05
1.7214767e-05 2.2299862e-05 1.7274273e-05 6.4484875e-06 4.7869884e-07 5.403431e-06 1.520319e-05 2.442521e-06
1.8376419e-05 1.5641584e-05 1.7479615e-05 1.7418117e-05 2.1854283e-05 5.9580316e-06 4.79412e-06 3.7302996e-06
3.200632e-05 1.2273605e-06 9.682799e-06 1.3893853e-06 3.2340147e-06 2.2561926e-05 3.648934e-06 9.829532e-06
3.3397417e-05 9.127522e-05 5.6849673e-05 7.661653e-05 4.0278464e-05 7.914663e-05 3.49411e-05 5.3181584e-06
4.9691847e-05 4.066579e-05 4.644014e-05 4.025659e-05 3.79805e-05 4.5565244e-05 9.068889e-05 1.3072938e-05
5.868745e-05 7.787254e-05 4.561137e-05 5.1001825e-05 5.174543e-06 1.9494155e-05 1.6905273e-05 7.26632e-05
8.366395e-05 7.67005e-05 6.7230954e-05 6.843724e-05 4.690353e-05 2.0636817e-05 2.627536e-06 4.0662133e-05
9.6919475e-06 9.6282265e-06 2.5219202e-05 8.093731e-05 5.9178914e-05 3.9442093e-06 6.2691224e-06 3.3700715e-05
2.745168e-06 1.2931651e-05 1.2561063e-05 1.0885036e-05 4.214309e-05 1.5481302e-05 7.88366e-06 1.935481e-06
5.7389404e-09 5.342405e-09 1.0244036e-09 1.8430756e-10 4.3846918e-10 3.071724e-09 3.08236e-09 4.0135098e-10
4.1960617e-09 5.6075464e-09 6.975382e-09 8.3692955e-09 1.4497297e-09 1.8148513e-09 9.567022e-09 6.777918e-09

exp_avg f4 [128]
00000000: fa78 8db9 9ea7 4439 146c dab8 0423 5839
00000010: 5e44 d7b9 b1d0 c036 c164 84b8 541b 4c39
00000020: 56d1 8ab9 3bb6 d339 fe17 7039 55cf 9639
00000030: 711e 2a37 e19f 43b9 57f2 53b9 f544 4339
00000040: 043f 26b8 eece 40b9 0b3d a039 96a3 92b9
00000050: 48fa 33b9 5199 4db9 a251 84b9 ed93 6db9
00000060: 4e89 a239 4a6f eab8 95ff 8439 87f4 99b8
00000070: 67ab c4b8 559c 3839 14e1 f139 9e7b 5739
00000080: 4da2 8639 f116 4f39 31db acb9 0e99 7939
00000090: 4a5a 9c39 4e91 2cb9 d169 ae39 5b56 b3b9
000000a0: e88f 4039 9147 5839 11a9 58b9 80b6 8ab9
000000b0: cbeb 6939 f69e 82b9 ee70 4639 6005 73b9
000000c0: ca42 ec39 544c 6c39 5a99 95b9 2d6d 1539
000000d0: 20fe 9139 b69b a439 fdd3 9ab9 467e f8b8
000000e0: 2188 f939 2834 3d39 310b bb39 8add 7cb9
000000f0: 0702 c9b8 cee2 9039 ca8a bbb8 4468 6d39
00000100: 7ddf e4b9 bbcc 9b39 671d 7d39 ef05 8d39
00000110: ee52 4139 643c ebb9 61e6 19b9 b487 c4b9
00000120: 8107 3f39 883d 9539 b7a1 d7b9 b1f7 65b9
00000130: 5024 28ba 2bde 2a39 138f 2f39 6e07 b939
00000140: e487 37b9 fbd6 33b9 7e35 7639 a57d 8139
00000150: c79d 6bb9 ee7c 40b9 ae7f 4cb9 c7ac d6b9
00000160: 1131 6f39 cb1e adb9 7b56 18b9 aa33 9739
00000170: 045f 5db9 f0a9 8bb9 6452 c039 4690 2839
00000180: 44b7 43b9 5a13 5eb9 4ae7 c4b8 0bd3 b039
00000190: f2de 8239 97f4 32b9 1aa6 77b9 ed3a 8d39
000001a0: 7dba 5cb9 9bcc 0cb9 9a3e 8ab9 5af3 9239
000001b0: 8e78 6239 6eea 7139 2413 0839 2ebf 3a39
000001c0: 829c 0ab9 a0c6 8c39 e88a 28b9 17d6 3db9
000001d0: a1b0 5539 d45f 7039 2455 5bb9 cb53 9839
000001e0: a338 e2b8 1465 7f39 7e4c 3d39 404b 71b9
000001f0: 737a 94b9 2485 1fb9 cb37 da39 2eb6 5a39
-0.0002698375 0.00018754459 -0.00010415181 0.0002061241 -0.00041058933 5.746341e-06 -6.3130174e-05 0.00019465137
-0.0002647738 0.00040380828 0.00022897121 0.00028764704 1.0139877e-05 -0.00018656209 -0.00020212807 0.00018622338
-3.9636172e-05 -0.00018387634 0.0003056306 -0.0002796917 -0.00017164007 -0.00019607438 -0.00025237823 -0.00022657188
0.00031001348 -0.00011178719 0.00025367425 -7.341155e-05 -9.3779345e-05 0.00017605846 0.00046134798 0.00020550049
0.00025679395 0.00019749605 -0.00032969707 0.00023803508 0.0002982191 -0.00016457328 0.00033266706 -0.0003420588
0.00018364156 0.00020626026 -0.00020662347 -0.00026457384 0.00022308451 -0.00024913967 0.00018924821 -0.00023176288
0.0004506319 0.00022535148 -0.0002853375 0.00014250418 0.00027845893 0.0003139653 -0.00029531113 -0.00011849082
0.00047594405 0.00018043874 0.00035675758 -0.00024115123 -9.5848045e-05 0.00027634803 -8.942706e-05 0.00022640923
-0.0004365406 0.0002971644 0.00024138913 0.00026898037 0.00018436808 -0.00044867687 -0.0001467704 -0.0003748514
0.00018217975 0.0002846534 -0.00041128483 -0.00021931414 -0.00064141024 0.00016295227 0.000167426 0.00035291485
-0.00017502863 -0.00017150857 0.00023480316 0.0002469841 -0.00022470123 -0.00018357087 -0.0001950252 -0.0004094599
0.00022811095 -0.00033020074 -0.00014528066 0.00028839457 -0.00021111598 -0.0002663876 0.0003668248 0.00016075475
-0.00018664921 -0.00021178779 -9.389089e-05 0.00033726575 0.0002496164 -0.0001706652 -0.00023617633 0.0002693752
-0.00021050307 -0.00013427662 -0.00026368053 0.000280286 0.0002159795 0.00023070883 0.00012977101 0.00017809562
-0.00013219009 0.00026850868 -0.00016073475 -0.00018104199 0.00020379062 0.00022923882 -0.00020917185 0.0002905413
-0.00010787069 0.0002435635 0.0001805294 -0.00023011584 -0.00028319992 -0.0001521302 0.0004162177 0.00020857967

exp_avg_sq f4 [128]
00000000: 052a 6539 c97f cd38 5ff2 0c38 3966 ed38
00000010: 1ece e339 5264 3733 0056 5337 2c00 9038
00000020: a225 3239 7b29 b039 ec07 0939 cbd5 5639
00000030: 7d03 0f34 04b6 0a39 081a fd38 ee68 8138
00000040: 2161 8a37 c84f 0139 f067 9d39 050f 6d39
00000050: ab1a d838 d176 0339 ef8d 2939 f83b 4139
00000060: f618 4f39 347e 0338 e289 ee38 d419 9a37
00000070: 9196 2238 327f 8538 81fe 3f3a 6551 1d39
00000080: 06dd 4039 d71f fc38 ac8c bd39 702b 0f39
00000090: 76c2 2f39 155f af38 13e2 9139 c834 eb39
000000a0: 846a fb38 8b13 de38 3420 3f39 13b3 5139
000000b0: 97a0 b938 2b85 1d39 a29a ff38 dc5f 3139
000000c0: d130 103a 98b5 0339 d87b 4b39 33d1 1d38
000000d0: 8aa7 1739 b5ad 4e39 b62b 6439 eee3 5838
000000e0: a84f 033a c6a5 aa38 df1c b539 9579 4539
000000f0: 7600 9337 f06a 6739 3549 c637 5cc9 e338
00000100: 2616 1d3a c350 a439 31cf 3b39 705c 4739
00000110: 306b 3e38 5856 0e3a d960 8038 6569 093a
00000120: ebd7 c838 427a 1d39 f0f6 1b3a 791e 3939
00000130: 9f41 dd3a 622e ab38 6008 9f38 e746 8839
00000140: eae7 ef38 f1ef c438 d301 5a39 940b 2139
00000150: 74a2 8a39 b137 bf38 1dda 0739 6532 283a
00000160: d0ea ea38 752b cf39 bb36 9438 aa16 0a39
00000170: 3c59 5f39 73de 2c39 7a60 7839 5433 ad38
00000180: 3921 e538 ac2e c938 e39a cc37 75c3 9539
00000190: 7adc 0d39 5935 a238 6714 4239 0307 4139
000001a0: 635b 7039 2ff8 3838 b443 7a39 d735 8139
000001b0: 6efe 1e39 d5d0 e738 7c92 3b38 2e4f 8638
000001c0: 7a67 4c38 2fce 6339 3ac2 e438 a2cd b438
000001d0: cef9 dc38 13de a238 3f80 2b39 7a98 3339
000001e0: 8a3f 4e38 2749 1b39 a7e7 ef38 79b2 3e39
000001f0: 7c02 8739 71a5 ad38 5317 c039 986f d438
0.00021854795 9.7989636e-05 3.3604327e-05 0.00011320081 0.00043450383 4.269925e-08 1.25966035e-05 6.866487e-05
0.00016989422 0.0003360024 0.00013068289 0.00020488274 1.3319182e-07 0.00013228512 0.00012068829 6.170744e-05
1.6496111e-05 0.0001233212 0.00030022813 0.00022607677 0.0001030465 0.00012537396 0.0001616997 0.00018428254
0.00019750357 3.135037e-05 0.00011374407 1.8370258e-05 3.8764036e-05 6.365626e-05 0.0007323996 0.00015003009
0.00018392885 0.00012022227 0.00036153698 0.00013653724 0.00016761743 8.362361e-05 0.00027824994 0.00044862018
0.00011988453 0.00010589425 0.00018227176 0.00019998504 8.8513996e-05 0.00015022296 0.0001218815 0.00016915746
0.0005500438 0.00012560782 0.00019405724 3.762655e-05 0.00014462895 0.00019710402 0.00021760058 5.171069e-05
0.0005009123 8.1371094e-05 0.0003454452 0.00018832677 1.752398e-05 0.00022069714 2.3637529e-05 0.000108617096
0.0005992375 0.0003134069 0.00017910895 0.00019012555 4.5399356e-05 0.00054297363 6.121555e-05 0.000524184
9.576961e-05 0.00015018231 0.00059495773 0.00017654327 0.0016880519 8.162555e-05 7.583271e-05 0.00025992768
0.000114396054 9.390701e-05 0.0002079078 0.0001535847 0.00026442448 9.117963e-05 0.00012955857 0.0006416201
0.00011201727 0.00039514495 7.067384e-05 0.00013169149 0.0002130018 0.00016486067 0.00023687063 8.2588434e-05
0.00010925759 9.59312e-05 2.439082e-05 0.00028565121 0.00013528942 7.734699e-05 0.00018508882 0.00018408526
0.00022922228 4.4100158e-05 0.0002386708 0.0002464491 0.00015162837 0.00011053836 4.47207e-05 6.404366e-05
4.873376e-05 0.00021725216 0.00010908065 8.621371e-05 0.00010536947 7.7661265e-05 0.00016355606 0.00017127572
4.9173403e-05 0.00014809203 0.00011439557 0.00018186298 0.00025751058 8.280099e-05 0.00036638472 0.00010129734

exp_avg f4 [32, 128]
00000000: 858f 3539 e82c 2037 0061 3a38 fdf5 34b9
00000010: e358 b6b6 1a13 1e38 daca 6837 7a15 96b8
00000020: 9f3b 3cb9 19d0 d338 9901 b738 b557 2439
00000030: 0056 30b7 afeb fa38 2c56 1f38 65e1 c8b4
00000040: 22fd f7b8 5a9a 3539 ee53 24b9 da85 3739
00000050: 2c97 9038 6c01 15b9 5425 d338 adc9 1cb8
00000060: 6118 10b9 64ff c2b8 009a 8335 ba14 0d37
00000070: 50b8 b238 56cf 8638 9488 2bb8 ea04 8fb7
00000080: 570a 0ab9 4b08 9538 cac2 13b9 e35d 5c37
00000090: f6c0 2139 3961 6bb9 2c8b ceb8 5c10 b737
000000a0: 2562 dc38 fd14 b638 1111 1039 4592 fab8
000000b0: 77f6 4e39 bb72 5cb8 7a59 3139 4f92 50b8
000000c0: 93b9 26b8 4c59 fab8 bc64 9638 4cc0 beb8
000000d0: ed57 b638 6a71 1539 6157 1e38 3238 dc38
000000e0: 491d 38b9 c6c9 1739 26c7 1ab9 920a dcb8
000000f0: 7c2f 05b8 45a5 6ab8 9924 e3b8 898e 3739
00000100: 5a0e 6db9 0838 5239 1534 2cb8 75a9 57b8
00000110: eba5 a438 0af5 6f39 70dc 82b8 db7b 2439
00000120: 0fd6 b5b7 3145 91b8 1ca5 14b9 ad7f 9a38
00000130: bd17 25b8 98a8 0739 d767 f3b8 fde3 5c37
00000140: e153 67b9 4e14 ea37 686d 2439 554a 40b7
00000150: a83d 2ab9 141a 2c38 6f73 8938 e6a4 feb6
00000160: 24d5 dab8 c53b 4839 efbb 4f38 bfe2 0239
00000170: 62c0 13b9 84c6 9438 dd0b e4b6 6497 d937
00000180: cef5 24b8 0d64 a737 0a68 b737 db52 2539
00000190: 2ebb 06b9 7e2b fd37 5c48 2cb8 c3a9 dfb8
000001a0: ad97 bbb6 9777 10b8 d899 3539 1a40 24b9
000001b0: 8aee 14b9 f688 4c39 1982 dc38 e06e fc37
000001c0: 1d1b 9737 2cf4 e238 881a fd37 5e58 9eb8
000001d0: 9498 84b8 4555 41b8 83a1 9638 7719 0ab9
000001e0: f8a3 b737 8d75 2439 0083 2439 6e47 0a38
000001f0: bb5f b6b8 67a0 46b8 8ebd 9eb8 5d2d 0439
00000200: 6cd3 2439 5682 3139 ed69 f8b7 c3e0 b4b6
00000210: e0a5 86b8 a068 7338 9833 b738 dd71 2739
00000220: f615 7737 0ad5 59b9 548a c8b8 b478 07b9
00000230: 4b34 5639 e9c1 fb38 c0de 2bb8 6a61 8738
00000240: 930a c036 bd99 0939 fbc1 8238 6e66 bf38
00000250: 56c0 97b8 d424 9a38 4dec c338 96b4 6db9
00000260: 1429 dc38 93ec 83b8 5246 24b9 8fe7 1939
00000270: 41c0 8db7 303c c138 cefd 29b8 9b62 2439
00000280: 10de dbb8 6127 b737 847c 67b8 1ec8 2ab9
00000290: ee24 b938 8c89 3939 d8ad 17b9 e5d4 5f38
000002a0: 781d df38 694b 0cb9 c2cd 86b9 2665 b5b8
000002b0: b901 4736 8d5e f1b6 42d4 8438 931a 38b8
000002c0: 92a1 9338 91b7 19b9 6e89 a738 30f0 1a38
000002d0: 9414 b6b8 027b 9d38 d6a3 6b37 d7d6 69b9
000002e0: 50e8 2c38 4095 b5b8 dc3c c038 5350 cd36
000002f0: 6d05 de38 6a6c 9038 a4d2 2ab8 b32e 86b8
00000300: 5adf cb38 f408 aab8 25c9 90b7 604c 24b9
00000310: 034c aab8 7cc2 5139 82fd 5939 2330 b3b6
00000320: cfe4 8937 4518 f2b7 8aef 6cb7 cbbb c6b8
00000330: 16ff c3b8 ad52 83b8 1be4 2339 3e99 dab8
00000340: a9f4 b3b7 8feb 1f39 dd41 1fb9 c246 aeb8
00000350: b896 1c38 52a9 b5b8 b711 4139 8448 83b8
00000360: 9104 8637 a017 0fb8 bdcc 5bb8 05bb 31b8
00000370: efc6 86b9 1ff6 0c39 5aca 5038 d30f de36
00000380: 1e48 6a39 f8ad 2439 78d1 3739 8947 ba37
00000390: 87e1 7f38 de01 17b9 81f5 2939 7c52 81b8
000003a0: 131d 9338 a5e4 a2b8 582a 8138 42bf b1b8
000003b0: d399 b736 1aac 1038 d269 07b7 9b50 05b9
000003c0: 6345 be36 e99b dc38 2f59 8238 4627 8339
000003d0: a701 38b8 a6ee 6739 c9e3 a9b8 4fe4 e1b8
000003e0: e6eb e1b8 e2f1 8cb8 ae49 24b9 cbce 3839
000003f0: 1cb9 6f38 3471 d038 62ca 8038 ecce 6a38
0.0001731497 9.547199e-06 4.4436194e-05 -0.00017257775 -5.4343705e-06 3.7687925e-05 1.3875508e-05 -7.156558e-05
-0.00017951288 0.00010100025 8.7264176e-05 0.00015672932 -1.0510441e-05 0.000119648284 3.7988808e-05 -3.74169e-07
-0.000118250275 0.00017319006 -0.00015671525 0.00017502104 6.894613e-05 -0.00014210277 0.00010068217 -3.7381124e-05
-0.00013741992 -9.298211e-05 9.80508e-07 8.409081e-06 8.522032e-05 6.428237e-05 -4.0896775e-05 -1.7049217e-05
-0.00013164557 7.106418e-05 -0.00014091577 1.3134882e-05 0.0001542604 -0.00022447565 -9.848768e-05 2.1822918e-05
0.00010508698 8.682346e-05 0.00013739268 -0.00011948174 0.00019737506 -5.255894e-05 0.00016913368 -4.9727325e-05
-3.9750314e-05 -0.00011937562 7.1713206e-05 -9.095724e-05 8.694814e-05 0.00014251997 3.7751513e-05 0.00010500885
-0.00017558517 0.00014475649 -0.00014760773 -0.00010492386 -3.1753894e-05 -5.5943867e-05 -0.0001083102 0.00017505338
-0.00022607428 0.00020048034 -4.10565e-05 -5.1417814e-05 7.851034e-05 0.000228841 -6.239943e-05 0.00015686399
-2.167656e-05 -6.927027e-05 -0.00014175888 7.367074e-05 -3.9361174e-05 0.0001293741 -0.000116064846 1.31661045e-05
-0.00022061124 2.7904429e-05 0.00015681016 -1.1461399e-05 -0.00016235432 4.1032283e-05 6.55417e-05 -7.5889866e-06
-0.000104347506 0.00019095752 4.9527673e-05 0.00012482236 -0.0001409068 7.094166e-05 -6.7963106e-06 2.5938913e-05
-3.932957e-05 1.9954541e-05 2.1863747e-05 0.00015766492 -0.00012848966 3.0180203e-05 -4.1075386e-05 -0.00010665089
-5.5906917e-06 -3.4443652e-05 0.00017318816 -0.00015664138 -0.00014203243 0.00019505978 0.0001051465 3.0092371e-05
1.8013228e-05 0.00010822 3.0172305e-05 -7.550487e-05 -6.3226704e-05 -4.60942e-05 7.182641e-05 -0.00013170192
2.1891654e-05 0.0001568405 0.0001568906 3.2968288e-05 -8.6962675e-05 -4.7356265e-05 -7.5693344e-05 0.000126054
0.0001571902 0.0001692859 -2.961323e-05 -5.3905837e-06 -6.4205145e-05 5.8033154e-05 8.73573e-05 0.00015968778
1.472746e-05 -0.00020774096 -9.562509e-05 -0.00012919569 0.00020428111 0.00012004731 -4.097703e-05 6.4554464e-05
5.723277e-06 0.0001312261 6.235015e-05 9.126669e-05 -7.2360664e-05 7.350152e-05 9.342339e-05 -0.00022669355
0.00010498069 -6.290632e-05 -0.00015666455 0.0001467748 -1.6898035e-05 9.214168e-05 -4.0529114e-05 0.00015676992
-0.00010484096 2.1833637e-05 -5.5190656e-05 -0.00016287013 8.828366e-05 0.00017694215 -0.00014465244 5.3365617e-05
0.000106389576 -0.00013379533 -0.00025711773 -8.649593e-05 2.9654313e-06 -7.193367e-06 6.3337866e-05 -4.3893768e-05
7.039601e-05 -0.00014659601 7.988779e-05 3.6940153e-05 -8.682269e-05 7.5092554e-05 1.4045238e-05 -0.00022300646
4.1224353e-05 -8.6585525e-05 9.1666094e-05 6.118827e-06 0.000105867955 6.886649e-05 -4.0727333e-05 -6.398316e-05
9.721397e-05 -8.107899e-05 -1.7259803e-05 -0.0001566871 -8.12039e-05 0.00020004244 0.00020789172 -5.3402196e-06
1.643822e-05 -2.885995e-05 -1.4122468e-05 -9.476355e-05 -9.345838e-05 -6.261966e-05 0.00015629867 -0.000104235936
-2.1452392e-05 0.00015251174 -0.00015187958 -8.310146e-05 3.7333666e-05 -8.662291e-05 0.00018412514 -6.260074e-05
1.5976171e-05 -3.411586e-05 -5.2404346e-05 -4.2374264e-05 -0.0002570669 0.00013443128 4.977952e-05 6.6179578e-06
0.00022342845 0.00015705067 0.00017530273 2.2206239e-05 6.1006776e-05 -0.00014401178 0.00016208553 -6.166563e-05
7.014922e-05 -7.76735e-05 6.1590865e-05 -8.475642e-05 5.4717325e-06 3.4492557e-05 -8.071265e-06 -0.00012713896
5.670519e-06 0.00010519458 6.215495e-05 0.00025015528 -4.3870557e-05 0.0002211878 -8.100976e-05 -0.00010771362
-0.000107727756 -6.7207744e-05 -0.00015667707 0.00017624644 5.7154437e-05 9.9392986e-05 6.141212e-05 5.598266e-05
