our-vTR/10_fold_lightning_logs/dataset1/fold_0/version_2/checkpoints/epoch=49-step=1749_fold0.ckpt (torch, 132434 bytes, 18 tensors)

conv1d.weight f4 [128, 4, 12]
00000000: 86b6 25be 45b6 b73d 1158 18bd c482 2cbe
00000010: 8830 393e b62a 50bd 50ef 423e b6d5 c1bd
00000020: c9fc 84bd 9396 0b3e 202f 883d 8b39 17be
00000030: 1957 153e fc39 43be a732 253e d314 423c
00000040: 7c22 79be 2656 2c3d ecad da3d 4b48 223e
00000050: 98e1 2dbe eb96 283e 5181 88be d8a6 5fbe
00000060: bfc2 81be fb48 533e 43bd dbbc 9bd4 533d
00000070: 61f2 ca3d 0869 f7bd 51c6 703d aad1 22be
00000080: b55d 913e 1d2d b2bd d11b 8c3d 90bc 0fbe
00000090: ccda b33d 1c3d d83d cf89 59be d7a2 94bd
000000a0: 2311 a53d 31d0 56be a603 91bc e437 1ebe
000000b0: 6c53 a73c ff47 76bd 53db d9bd 0130 ae3e
000000c0: 046f 533d f34d 95be ab2c ad3d 6aa6 123e
000000d0: 955f 0a3e 2729 c8be bddc 2dbe 11e7 73be
000000e0: 707b 85bd 7c31 b1be 5c25 d33d f285 52bd
000000f0: 9a23 683e c1d9 413c 6441 483d 7a05 83bd
00000100: 1917 3a3e ad87 dd3d 37c6 69be 38ce 583d
00000110: 447e 983e aa87 1bbe b93b 54be 6382 0fbe
00000120: e6d8 5cbe bc1e b3bb 5e88 9ebe 80b6 b9be
00000130: b0b9 44be 3578 7bbe ebb7 333e 3f2a 333e
00000140: 7248 443d 28d6 90be 0294 52bd 1f8a ed3d
00000150: 3d41 1cbe 0626 d03d cf71 11be 79b3 d13d
00000160: 310f b1be 7603 4b3e 3cac 1cbe 03bd 0b3d
00000170: 6b4c b9bd 345f 2c3e 8c09 323d 6b12 d9bc
00000180: c626 abbd 257c 873c b0ce 15be 5546 3e3e
00000190: e66c babd 80bc 93bd 5b12 c5bd 4989 08be
000001a0: b8f0 a03d a86f cfbd 157a d23c 201a 3abe
000001b0: 09fe 1ebe 9f91 adbd 9b05 163e f9e6 a3be
000001c0: c95f 8dbd 94fa e0bd dbc2 713e a6e2 a83d
000001d0: 59b8 a7bd 4ad6 33bd 8dd4 f2be 7cec ea3d
000001e0: 1853 aa3d 75a4 a33d eb0a f03d a4df a3bd
000001f0: 74e2 ef3d 8289 493e 10c3 4dbd a1df 10be
00000200: e71b 943d 084c b93d aac4 373e b50c f03d
00000210: f5aa 2e3e 73a3 8cbe c1f9 363c f802 14be
00000220: fa73 073e 466a 91be 8820 97bd 1a0d 5c3d
00000230: 2081 90be 23f9 80ba 98a7 abbd 4417 64be
00000240: 4795 0abe 8cda 48be 4124 99be bff9 223c
00000250: 23b8 ddbe ae45 663e c35b 91be caba 45bd
00000260: 5a44 d9be 2c25 79be c101 f1bc 64cc 403d
00000270: c16c 7cbe 8e7a 23bc 42c6 b43d 9ae6 d3be
00000280: 714c f9bb ce35 d0be 7cab 6abd be77 67bc
00000290: e938 4a3e 525b d53d b535 d23d 29e5 693d
000002a0: f72d d9bc 5fd8 0e3e b8d4 1a3d ccac ae3e
000002b0: 31e3 903d b94b e53d dc0c 8e3e 3b47 913e
000002c0: 7eac a43d b2a6 47bd 2948 9b3c bb20 09be
000002d0: e39d 963e 778c 343e 73cd 0a3e bbd2 e1bd
000002e0: 6872 f6bb ed9e a0be e146 96be 429c 5ebe
000002f0: ec51 e3bd be2b 943e e3d5 8f3d 3063 8b3d
00000300: d153 07be 2e09 2dbe b9f5 aabe 0d6b 7f3d
00000310: 09b3 26be 8da8 1bbe 083e 0d3e a090 94bd
00000320: dc4c aabd d1df 5bbd 2a88 c63d e6c8 edbd
00000330: c0da 71bd d264 7a3d 412a 883e 340c 2fbe
00000340: 2c5c a93e 6c7c b53d 5f3f 65bd 1675 12be
00000350: 84bc d8bd 2b80 12bc 23d1 43bd a4ce 3c3d
00000360: 75b9 9cbd af77 8c3c 0284 a93c be5c 143e
00000370: 275b 8abc fd35 c1be e211 b3be 68dc 23bc
00000380: 5b34 003e 86ca 59be 958e bebd 024c 933d
00000390: 9279 883e f72d c63d 0f32 86bd 5213 c7bc
000003a0: 6086 9b3c 4d59 8c3d fac7 3bbd 193a 9a3d
000003b0: 88b3 89be a18e 893e f920 833e 73d4 14be
000003c0: 27c7 2ebd 5977 b6bc 8825 e9bd 0765 15be
000003d0: 9402 9cbe c585 88bd c214 87be c59c 553d
000003e0: 318d 98be d74c 20be 6a2b d4bd af79 0dbc
000003f0: 8b0c 40be ebb8 83bd c3e0 a03c 0dcd 9dbe
-0.16182908 0.08970312 -0.03719336 -0.16846758 0.1808492 -0.050821982 0.19036603 -0.0946459
-0.064935274 0.13631658 0.066496134 -0.14768045 0.14584006 -0.19065088 0.16132604 0.011845785
-0.24329561 0.042074345 0.10677704 0.1584789 -0.16980588 0.1646382 -0.2666116 -0.2184099
-0.25343892 0.20633309 -0.026823645 0.05171643 0.09909511 -0.1208058 0.05878288 -0.15900293
0.28391805 -0.08700011 0.06841243 -0.14036775 0.087819666 0.10558531 -0.21243976 -0.07257622
0.08059909 -0.20977856 -0.017701935 -0.15451008 0.02042552 -0.060127255 -0.10637536 0.34021
0.051619545 -0.29161033 0.08455785 0.14321294 0.13513024 -0.39093897 -0.16978736 -0.23818614
-0.065176845 -0.34608066 0.1030986 -0.05139727 0.22669831 0.011831702 0.048890486 -0.06397529
0.18172874 0.10816894 -0.22829519 0.05293104 0.29783833 -0.1518847 -0.20725907 -0.14014582
-0.21567115 -0.0054663103 -0.30963415 -0.3627205 -0.19211459 -0.24557574 0.17550628 0.17496584
0.04792065 -0.28288388 -0.051410682 0.1159861 -0.15259261 0.101635024 -0.14203571 0.1023931
-0.34581903 0.19825539 -0.15300077 0.034115802 -0.09047779 0.16833192 0.043466136 -0.02649804
-0.08357005 0.016538689 -0.14629626 0.18581517 -0.09102802 -0.07213688 -0.09622642 -0.1333362
0.078584135 -0.101287186 0.025692979 -0.18174028 -0.15526594 -0.08475041 0.14650576 -0.32012156
-0.06903035 -0.10985294 0.23609488 0.08246355 -0.081894584 -0.043905534 -0.47427788 0.11470887
0.0831663 0.07990352 0.117208324 -0.080016404 0.117131144 0.19681361 -0.050234854 -0.14147808
0.072318844 0.09047705 0.17946115 0.11721174 0.17057402 -0.27468452 0.011167944 -0.14454257
0.13227835 -0.28401393 -0.07379252 0.053723432 -0.28223515 -0.0009839874 -0.08381575 -0.222745
-0.13533507 -0.19614619 -0.29910472 0.009947239 -0.43304548 0.22487518 -0.2839032 -0.04827384
-0.4243496 -0.24330586 -0.029419782 0.047069922 -0.24650861 -0.00997795 0.08826877 -0.41386873
-0.0076079895 -0.4066605 -0.057292446 -0.01412767 0.19748272 0.104178086 0.1026415 0.05710331
-0.026511176 0.13949727 0.03780052 0.3411621 0.07074583 0.111960836 0.27744186 0.28374657
0.08040713 -0.048742957 0.018955307 -0.13391392 0.29417333 0.17631708 0.13554935 -0.11026522
-0.0075209625 -0.3137125 -0.2935095 -0.21739295 -0.1109961 0.28939623 0.070232175 0.06806028
-0.13215567 -0.16898033 -0.33390597 0.06235795 -0.16279234 -0.15201016 0.13793194 -0.072541475
-0.08315441 -0.053680245 0.0969394 -0.11610584 -0.059046507 0.061131306 0.26594737 -0.17094499
0.33078134 0.08861622 -0.05596864 -0.14302477 -0.105828315 -0.00894169 -0.04780687 0.046095505
-0.076525606 0.017146913 0.020692829 0.14488503 -0.016889168 -0.37736502 -0.3497458 -0.010001279
0.12519972 -0.21268663 -0.09304539 0.07192232 0.2665525 0.09676736 -0.06552517 -0.024301205
0.018984973 0.0685297 -0.04584501 0.075306125 -0.26894784 0.2686663 0.25611094 -0.14534168
-0.042670395 -0.022273706 -0.11384112 -0.1458932 -0.30470717 -0.066661395 -0.26383024 0.05215146
-0.2979522 -0.15654312 -0.10359843 -0.008634969 -0.18754785 -0.06431755 0.019638425 -0.30820504

conv1d.bias f4 [128]
00000000: c6d2 b0b9 66c4 3abd 26c4 c9bd 9576 e9bc
00000010: 7ed2 843d 1649 bf3d 2ec4 f3bd 3d88 fe3d
00000020: 7a6c 4c3d 93c8 243d 43b6 b6bb d0ee e0bc
00000030: 3252 6f3b 3e4e 173e 18d8 103c 3d67 a23d
00000040: 5557 073b be8e d8bc 1547 d23d e3ee b93d
00000050: c606 9cbc 32ac 73bd 887d b73d cde3 183b
00000060: ba17 1cbe 4ca4 0a3a 75cf 1f3e eddf c8bc
00000070: 0d85 183d be1e 36bd 5098 10be 771d 3e3d
00000080: 8c09 c4bd 1388 2b3d 3d8a 6b3a f55f a1bc
00000090: 2c4a c1bc a9fc 61bd b5b1 983d 8d2e 11be
000000a0: 967b a23d ff98 89bd 1de0 c83c 31cc b8bd
000000b0: 8a32 5dbd 7943 a83c 8499 a93d 6a71 4ebc
000000c0: 225f 143c 47db 22be d99c 7a3a 721a a53d
000000d0: 45f1 363d 039d 613d 8730 a4bc b5f6 90bc
000000e0: b830 af3d fb75 fabd 083e 463d 8ef8 26be
000000f0: 5899 413d e7fe 4cbd 63ba 3d3d fb4f 1c3e
00000100: 243c 743d 48af dabc 497d 1dbd 66eb dcbd
00000110: 60e1 c1bd 6d29 f3bd 32f7 99bd fcad 57bc
00000120: 65c0 2dbd 7c93 313c d2e7 063e 2112 c23d
00000130: a8a1 8d3d f297 b4bd 9e06 5a3d db71 823d
00000140: 84dc 4cbd 672e d43d 7251 443d e2ba 0cbd
00000150: f9ad e3bd c50d 643d 7c52 bdbd 1c6c 19be
00000160: f637 0fbe a565 66bd e7b2 6ebd 2a2d 66bb
00000170: f0c9 063d b795 f1bd 2c3f bcbd 6f42 c9bd
00000180: 046d 36be a05d c63c db88 04be 1d36 e5bd
00000190: 2d32 39be 9891 573d 39ce e8bd 233a edbc
000001a0: 583f 57bc e6b6 563d 642b 61bd f48c f4bd
000001b0: 764c 0b3d 02ee ccbd e864 d13d e2bd 0dbe
000001c0: d30e bfbc 8120 f8bd a795 4f3c c4d5 14bd
000001d0: 3b07 b03b e268 96bd a49f fe3c 82d3 d5bd
000001e0: e0dc c3bd 10a0 e7bd 54ab ddbd 1327 1abe
000001f0: ac99 0e3e ffab 3f3d 7c84 143e 7733 55ba
-0.00033726374 -0.045597456 -0.098518655 -0.028498927 0.06485461 0.09340112 -0.11902653 0.12428329
0.04990814 0.040230345 -0.0055759265 -0.027457625 0.0036517498 0.14775941 0.008840583 0.079298474
0.002065142 -0.026435252 0.10267464 0.09078767 -0.019046199 -0.05949039 0.0895949 0.002332914
-0.15243426 0.00052887644 0.15606482 -0.024520839 0.037236262 -0.04446291 -0.14120603 0.04641482
-0.095721334 0.041877817 0.00089851377 -0.019699076 -0.023594938 -0.055172596 0.0745577 -0.14177914
0.079337284 -0.06718635 0.024520928 -0.090233214 -0.054003276 0.020539986 0.08281234 -0.012600282
0.009055885 -0.1590396 0.0009560115 0.08061685 0.044663686 0.05508138 -0.02004267 -0.017695764
0.08554214 -0.12229534 0.048399 -0.16305754 0.04726538 -0.05004778 0.04632033 0.15264885
0.059627667 -0.026694909 -0.03844956 -0.10787086 -0.09466815 -0.11873136 -0.07517852 -0.01316404
-0.04241981 0.010838386 0.1317437 0.09476114 0.06915599 -0.08818044 0.053228967 0.063693725
-0.050014988 0.10360413 0.047929235 -0.034357913 -0.11117167 0.055677194 -0.09244248 -0.14982647
-0.13986191 -0.05624928 -0.058276083 -0.0035122135 0.032907426 -0.11796134 -0.091917366 -0.09827124
-0.17815024 0.024214566 -0.12942831 -0.11191962 -0.18085547 0.052629083 -0.11367459 -0.028958386
-0.013137661 0.05242052 -0.05497302 -0.11940947 0.034008466 -0.10006334 0.102243245 -0.13841966
-0.023322498 -0.12115575 0.012669957 -0.036336675 0.0053719557 -0.073442236 0.031081982 -0.104407325
-0.09563613 -0.113098264 -0.10823694 -0.15053968 0.13925809 0.046794888 0.14503664 -0.0008132974

linears.0.weight f4 [32, 128]
00000000: dcaa 8337 8df0 3039 ba60 8138 9a31 a0b8
00000010: b780 00b8 1bd8 ad37 2c1c 81b9 a9b1 6e39
00000020: 90b8 e438 fc98 9b38 997b d7b8 c4f0 0739
00000030: 126b 3c38 d8bd 82b8 bcf9 87b9 ecc0 7db8
00000040: b182 6438 6f81 20b9 23c1 8938 3dc2 c536
00000050: 315a 99b7 6dab 8cb7 5b31 21b9 936e 4938
00000060: f72f ba38 1cb1 7b39 6eac aab8 1288 36b9
00000070: be2c abb8 090c 8638 6c96 a035 8cc6 2739
00000080: 8864 8b38 3f7e 38b9 3c17 7638 5d5f 1438
00000090: 3636 53b9 a357 d138 c6d7 2fb9 f5e7 2939
000000a0: 449b 3ab6 b42e dd38 73d5 56b9 28c9 86b7
000000b0: 8cc7 d6b8 d8b5 1539 b03b c638 e97a bcb7
000000c0: 2ea5 5bb9 45e9 0eb9 98af 55b8 9b62 81b9
000000d0: 887b 6239 768e f838 64f1 6138 f977 09b9
000000e0: 9efe 0f39 8887 a839 e97f a438 018c 29b9
000000f0: 4d51 3e39 01a8 5638 4d9a aab8 06d5 f5b7
00000100: ea7e 0bb7 f013 8c38 7580 9c36 d4d7 5338
00000110: 059e b138 f9ed b0b8 099b 9d38 651c c238
00000120: 4d07 1b39 2561 aa38 ff91 5538 6334 2bb9
00000130: 3741 87b9 14c1 0c39 4807 e138 67aa 6638
00000140: aa02 b2b8 ea6e d2b8 42a4 5fb8 7958 5f39
00000150: 2c2f af37 06f5 f3b8 d8b2 9fb8 ac48 2d38
00000160: 6260 40b7 0501 fb38 e904 fbb7 c9b3 2b38
00000170: 5744 ddb7 d1fa 0139 89cc e437 e6a7 b336
00000180: 73c5 9f37 f382 a1b7 3273 0839 f02f ae39
00000190: 8d67 9339 dc4a 2a39 c389 ecb8 8031 25b9
000001a0: 6f99 6a39 2963 6737 a3d8 e938 2215 c236
000001b0: e6da ccb8 0d79 d738 cac3 4d39 0a3c 4839
000001c0: bf10 2ab9 95f3 4bb7 e263 efb8 3e0f 1fb9
000001d0: 6d80 01b9 e449 77b7 fce3 f9b8 4d36 84b9
000001e0: 371b 4937 191f 2d39 188b 6738 24bd 66b8
000001f0: d943 8db8 a3d2 9bb8 2820 a338 0aa8 9cb8
00000200: 6df6 23ba fb70 56bc 4555 50ba 0153 4ebd
00000210: 345f 96b9 0002 00bb b7d7 99b9 bc91 1cbd
00000220: f939 033d aa9c 2bbd fc3e 09bd d02e 21b7
00000230: ac2c 6c3c a54c 1fbd 643e ecbc ec75 07ba
00000240: a225 d0b8 173a 2bba a81e 25ba bdd9 fcb9
00000250: 1f96 5cb9 18e4 56bc 12cc e7b7 3437 2f3d
00000260: 7240 633d 7f6b d438 c6ac a4bc 9fd5 5fbc
00000270: a736 373d e712 bfb9 56dd ab39 7727 2939
00000280: c134 9338 96d5 d3bc 23ed 6c3d 6062 a23c
00000290: 02aa e8bb de1d 983d a794 94bb bf2c f63c
000002a0: 37e0 dd38 7715 af3d 91b0 263d 140f 183d
000002b0: 87da a0bc aec4 a938 26ef 3aba 1781 bebc
000002c0: 6ca3 4039 e60e bb3c 8051 58ba 8dac d5b9
000002d0: 53d6 42b8 2409 cf39 2b04 03bd 43eb fb39
000002e0: a9a6 81bc 50b7 10ba ebef 11bb 48bf 1fbb
000002f0: 8004 8d39 a9c4 91b7 e460 98bc 841a 35ba
00000300: f4c5 5c3c 0c8f ab3c 5031 5739 7a2b ee3c
00000310: e286 3c3a b82f 90b8 9f2f 813c 7e62 25ba
00000320: f27f 58bc 99dc 6b39 f090 a8bb 27cc 7d3d
00000330: a480 2aba 0a5e 3639 01b3 1b3d a944 5e39
00000340: 37f5 50ba d46d 1bbd f177 4abc be08 0bba
00000350: af5a 12ba 38c3 2e3c 7b09 c03c 0c6a 36ba
00000360: 90f0 3539 595c 013d b12c 2839 a19e 17ba
00000370: 859d 0d3d 18f4 a83c d083 123c 2ce2 b53c
00000380: 6f1b 6739 2fca 45ba 2b37 02ba 347d fe3c
00000390: 62d7 ce3c 8d9c adb9 bd2c 87bb 8c0f 233d
000003a0: 4d8a fb3c 8425 2dbd 0ed4 0cba 0ea4 0439
000003b0: 07e9 243d 0011 46b8 dc05 a938 eadc 08ba
000003c0: 516c d03b a19c 653d 32c1 4d3c f0e6 2aba
000003d0: 654f 06b8 4c5d 153d 9b8d b1bc ebc7 5439
000003e0: d085 f1bc dea6 ebbc 88d6 e93c abf3 263b
000003f0: 74b7 b7ba 33cb 973c faad 18ba 79da e9bc
1.569598e-05 0.0001687428 6.169216e-05 -7.6386335e-05 -3.0637453e-05 2.0723839e-05 -0.00024625787 0.00022763632
0.00010906265 7.4194715e-05 -0.00010275021 0.00012964295 4.492241e-05 -6.234244e-05 -0.00025935273 -6.0499573e-05
5.4481152e-05 -0.00015307007 6.5686436e-05 5.89367e-06 -1.828102e-05 -1.6769127e-05 -0.00015372543 4.8025115e-05
8.878105e-05 0.00024003204 -8.138349e-05 -0.00017407563 -8.162249e-05 6.39186e-05 1.1964707e-06 0.00016000326
6.646762e-05 -0.00017594638 5.867261e-05 3.5374764e-05 -0.00020142723 9.98222e-05 -0.00016769682 0.00016203507
-2.7806536e-06 0.000105468 -0.00020488146 -1.6067715e-05 -0.00010241484 0.0001427749 9.4524934e-05 -2.2468581e-05
-0.00020947002 -0.00013629075 -5.094669e-05 -0.00024678264 0.00021599059 0.00011852097 5.3868993e-05 -0.00013110031
0.00013732395 0.00032144436 7.8439545e-05 -0.00016169251 0.00018150099 5.117804e-05 -8.1349724e-05 -2.9305473e-05
-8.314595e-06 6.679434e-05 4.6641167e-06 5.0507326e-05 8.469451e-05 -8.43666e-05 7.515221e-05 9.25593e-05
0.00014784672 8.124326e-05 5.0919127e-05 -0.00016327346 -0.00025797795 0.00013423368 0.00010730192 5.4994973e-05
-8.488198e-05 -0.0001003424 -5.332032e-05 0.00021299896 2.0883592e-05 -0.00011632782 -7.615023e-05 4.1314095e-05
-1.1466533e-05 0.000119688026 -2.9923818e-05 4.0937015e-05 -2.6377076e-05 0.00012395835 2.7274962e-05 5.3541617e-06
1.9046221e-05 -1.9253674e-05 0.00013012884 0.00033223582 0.00028115176 0.0001624035 -0.00011279017 -0.00015754066
0.00022373137 1.37917605e-05 0.000111506575 5.7841107e-06 -9.768251e-05 0.000102745464 0.0001962326 0.00019095853
-0.00016218702 -1.2156456e-05 -0.00011415013 -0.000151691 -0.00012350241 -1.4739551e-05 -0.00011915711 -0.0002521746
1.198687e-05 0.0001651015 5.5204233e-05 -5.5012424e-05 -6.7360415e-05 -7.43021e-05 7.778435e-05 -7.4699594e-05
-0.0006254677 -0.01308846 -0.00079472765 -0.050372127 -0.0002868116 -0.0019532442 -0.00029343154 -0.03822492
0.03203771 -0.041897453 -0.033507332 -9.607247e-06 0.0144149475 -0.038891453 -0.028838344 -0.0005167413
-9.9252225e-05 -0.00065317884 -0.00062988186 -0.00048227413 -0.0002103676 -0.013115905 -2.7632374e-05 0.042777255
0.05548138 0.000101289705 -0.020101916 -0.013661771 0.044729855 -0.00036444442 0.0003278057 0.00016131798
7.0193324e-05 -0.025858682 0.05784334 0.0198223 -0.0071003446 0.07427572 -0.0045343223 0.030050633
0.000105798645 0.08549016 0.04069573 0.037123755 -0.019635452 8.0951824e-05 -0.0007130973 -0.023254914
0.00018371426 0.022834253 -0.00082518905 -0.00040755086 -4.645281e-05 0.00039488927 -0.031986397 0.00048049734
-0.01582654 -0.000552048 -0.0022268246 -0.0024375487 0.00026896968 -1.7376924e-05 -0.018600889 -0.0006908553
0.01347493 0.020942234 0.00020522368 0.029073466 0.000719173 -6.8753434e-05 0.015769778 -0.0006308927
-0.013214098 0.00022493525 -0.005144231 0.061962273 -0.00065041543 0.00017391905 0.03801251 0.00021197148
-0.000797111 -0.037946537 -0.012357698 -0.0005303732 -0.0005582971 0.010666661 0.02344202 -0.0006958551
0.00017351122 0.03158221 0.00016038377 -0.00057838304 0.03457405 0.020624205 0.008942559 0.022202574
0.00022040097 -0.00075450813 -0.0004967327 0.03106556 0.025249187 -0.0003311377 -0.0041252063 0.03980975
0.030705595 -0.042272106 -0.0005372175 0.00012649616 0.040261295 -4.722271e-05 8.0596394e-05 -0.0005220907
0.0063605686 0.056057576 0.012558268 -0.0006519398 -3.202203e-05 0.036465928 -0.021673968 0.00020292371
-0.029482752 -0.028766092 0.02854468 0.0025474827 -0.0014016465 0.01852951 -0.00058242644 -0.028546559

linears.0.bias f4 [32]
00000000: c44c 1d39 101a 9bb9 8c88 eb38 15f1 e238
00000010: d8bc 4935 df07 b5b9 df4c e338 1921 cc39
00000020: 1810 a9b9 6d30 4c39 1ffb e6b8 7644 a639
00000030: dae4 9d38 bf19 19b8 7eae f7b8 f9c0 173d
00000040: 7662 4438 0fcb c539 f81f b53c e3ec 18b9
00000050: ea9f 3939 3c82 03b9 f4ed df38 e37a cbb9
00000060: 8675 6639 f67b c035 f997 43b8 b12d b8b9
00000070: 7cfe eeb7 86c8 3ab9 8ec5 a3b8 7e28 8a38
0.00015001284 -0.00029583322 0.00011231107 0.00010821425 7.515314e-07 -0.00034528875 0.00010838522 0.00038934572
-0.00032246183 0.00019472996 -0.000110140296 0.00031712995 7.52897e-05 -3.650202e-05 -0.000118103795 0.037049267
4.682174e-05 0.00037726059 0.02210997 -0.00014584097 0.00017702547 -0.0001254165 0.00010677791 -0.00038810735
0.0002197829 1.4341192e-06 -4.663316e-05 -0.00035129258 -2.8490314e-05 -0.00017813043 -7.809243e-05 6.587895e-05

linears.2.weight f4 [2, 32]
00000000: d975 3438 244e edbe 4ca2 8338 a7c9 f4b8
00000010: 75a6 41b7 0d85 11bf 1234 a3b7 f35c 163f
00000020: 7d70 4bbf 2f82 c1b6 3745 1638 a6f7 423f
00000030: 5316 1ab8 b2fd c938 8711 b638 56dc 51bf
00000040: 3159 7d38 b99f 133f a783 493f b86a c8b8
00000050: e012 0538 643f c138 6486 c0b8 00b2 06bf
00000060: ba7b d4b8 bd0a ac37 a40c 5438 c199 21bf
00000070: e2d0 a137 d7d5 2bb9 92d7 c5b6 3889 42b8
00000080: bc95 b538 ba51 b23e 01fa 0937 f3d8 4c39
00000090: 2065 1838 c4a2 0b3f d8ab 3ab9 2399 27bf
000000a0: feeb 423f a625 2e36 1df3 c1b8 ac77 4cbf
000000b0: 77c3 0839 d784 2d39 ecfa 2a39 8765 563f
000000c0: 1dc3 bbb7 b45d 22bf 7edd 58bf 473a b638
000000d0: 1dbd db39 2e09 37b8 8c3c 1439 e978 0d3f
000000e0: 6470 2e39 90b9 a838 cfcd 6639 6802 1e3f
000000f0: fb40 2cb8 142c 81b8 2087 43b9 e369 d5b8
4.30251e-05 -0.4634868 6.276797e-05 -0.00011672387 -1.1542453e-05 -0.56843644 -1.9455361e-05 0.5873558
-0.7946852 -5.7670036e-06 3.582725e-05 0.7615913 -3.6737252e-05 9.631681e-05 8.681701e-05 -0.8197683
6.0402966e-05 0.5766559 0.7871651 -9.556621e-05 3.172725e-05 9.2147646e-05 -9.180306e-05 -0.52615356
-0.000101319936 2.0508998e-05 5.055651e-05 -0.63125235 1.9289964e-05 -0.00016387492 -5.896153e-06 -4.6381e-05
8.658643e-05 0.34827977 8.224045e-06 0.00019535776 3.6333804e-05 0.54545236 -0.00017802359 -0.65468043
0.76141346 2.5949935e-06 -9.2482405e-05 -0.79870105 0.00013042787 0.00016548052 0.00016305939 0.8374867
-2.2382994e-05 -0.6342423 -0.8471297 8.689291e-05 0.00041911835 -4.363915e-05 0.00014136935 0.5526262
0.00016635802 8.045428e-05 0.00022011179 0.6172242 -4.1068513e-05 -6.1594095e-05 -0.00018646987 -0.000101763544

linears.2.bias f4 [2]
00000000: 9b5c 4339 f841 aabd
0.00018631147 -0.08313364

exp_avg f4 [128, 4, 12]
00000000: 7415 b7b8 be2e f0b9 b0a0 3d39 438d 3139
00000010: 86a4 e139 1b78 5239 d8e5 b339 ab7b 76b7
00000020: beea 2ab8 255b c038 0302 0039 f17e f338
00000030: d995 edb9 dac4 9539 a9b0 64ba 85a9 98ba
00000040: 7f13 8e38 f774 903a a74a 07ba 89d8 833a
00000050: 8bd1 cc38 b13c 67ba bd08 ec39 5731 5938
00000060: 3c4b 4439 f814 34b9 69bd 113a 13cc 703a
00000070: aae4 7eba 103b c438 7f89 83b6 53fc 82ba
00000080: d4f1 2fba 4261 383a 450a 17ba 89a8 c6b8
00000090: 9835 b939 5e74 b439 522c 0e39 331d a138
000000a0: ef9f f839 ac07 b7ba 3e7b 3939 7b60 0837
000000b0: 4f06 213a 6580 b638 5eb2 8236 156f 99b8
000000c0: 03ed 5ab9 5a09 09b9 f4af f73a 3d3e d83a
000000d0: 3e1c 683a 3857 d738 a5eb ce39 f996 9439
000000e0: 9860 e3b9 cd16 f9b8 389f a1ba bf17 0ab8
000000f0: c1a1 a9ba c212 cf3a 174a fdba 09d0 b53a
00000100: 53e9 adba d0f0 08bb 9e0e e639 311c 0239
00000110: 2c65 9a3a 8eb6 0ab8 63ec bd3a 79e5 9839
00000120: fd51 9b3a 7c16 10bb 8c05 c439 70fe 9f38
00000130: d2dc d539 f00c 0d3a b2cd 6eba 8ec2 20ba
00000140: ebb5 55ba e754 bcb9 09d0 243a b030 8539
00000150: 8cb5 a639 bf76 443a 079d adb9 1807 4cbb
00000160: ea7f 0c38 b7e5 bd3a 8784 a238 16c0 5739
00000170: 01df 9438 b6f8 053a 5f6a 5dba 9969 06ba
00000180: 9212 b939 3bc2 ab39 3c64 bb38 c435 b53a
00000190: 4b32 06b7 3903 8539 a6b3 e237 8722 f739
000001a0: 6e3c ce39 f1be 9739 16a4 403a 0b56 2638
000001b0: 229e a939 8c38 56b8 f31f 7f3a f4ec 3a38
000001c0: a46f 6739 210e 3f37 5772 fab9 be04 ceba
000001d0: 0ec2 9aba efd1 9138 96ec 3739 ad99 b3ba
000001e0: 3989 c339 4d1f 0cb9 0e34 75ba f78b d9ba
000001f0: db86 c1b9 3361 cab9 dc91 e339 bd59 cd38
00000200: bfe4 213a 81e4 0fba d8f2 5cba 005f a53a
00000210: 7c8e 89ba 06d7 15b9 b561 05b9 56f6 7339
00000220: 3301 2439 1d96 fd38 2a54 8b37 8066 833a
00000230: 9d04 3239 2b2b 4739 2363 8db8 c87f 9038
00000240: 680a 70b9 0365 6939 8687 3d3a 77aa aeb9
00000250: 603a fd39 5e22 613b 3aff 0038 12b9 b5b9
00000260: bf46 0939 e4da 0e3a 2fa4 e3b9 3483 a63a
00000270: a8fd f438 b604 a3bb b359 0b3a 3609 b136
00000280: 7eb2 b8ba 5d64 7f39 5dcc b239 c50a e6b9
00000290: 1fd5 1cbb 01b1 87bb 1898 4fbb 87ae 723a
000002a0: 7d57 bd3a 4aae 683b e6d2 7b3a d6f3 dc39
000002b0: 683f 913a b038 72bb 7ef3 09ba addd 1b3a
000002c0: 9307 ef3a 58a8 a53a c18d 353b 13fd 8d3a
000002d0: 0ba6 aeba a689 9d3a 092d 11bb 0936 c4b8
000002e0: 23dc 3eb9 8705 9037 68f5 2139 fe10 4839
000002f0: 4fe7 e539 1dd7 183b 76fb 593a c4eb 56bb
00000300: 8d60 2436 bd4d bbb8 da8a b736 b197 1e3a
00000310: b1df ba39 7735 0537 b8b1 203a e05c 8d39
00000320: 6a3d b938 157b 67b9 7841 353a 978c 4437
00000330: 7601 303a fd1a e3ba 12ec 1dba 05ff 9d39
00000340: c9dc 5bba c6f5 173b 17c4 95ba a724 e5ba
00000350: 57d9 a7b8 ecf8 12ba 0ebb 6db8 7bcc 233a
00000360: 459a ca38 3dc8 943a f64a 2a3a 5e81 87ba
00000370: b66d a539 3686 fa38 1f5e 5339 d43d 73b6
00000380: 11e4 9fb8 1e77 1039 61cd ca39 92f6 48ba
00000390: 1ff9 49ba 380f 343a 92df 5cb8 28ae 0539
000003a0: 54d8 2e39 2e4f 20bb e1fd ab39 0f47 c23a
000003b0: 0e80 8e38 ebb9 283a 3ce6 85ba 915f 0839
000003c0: d34b 5639 1b45 5a3a 9806 9539 390f 1838
000003d0: 590c b339 e3df c437 91e6 7f39 4224 093b
000003e0: a152 5239 7757 b339 224b 7339 472b e839
000003f0: 59a3 1139 f800 ac37 09cc 19bb e9de 0a37
-8.730116e-05 -0.00045811193 0.00018084305 0.0001693266 0.00043037924 0.00020071903 0.00034312787 -1.4691536e-05
-4.074978e-05 9.1722504e-05 0.0001220778 0.000116107876 -0.00045315808 0.0002856616 -0.0008723834 -0.00116472
6.774719e-05 0.0011021186 -0.00051609654 0.0010059039 9.7665084e-05 -0.00088209944 0.00045019938 5.1782783e-05
0.00018720044 -0.00017173949 0.00055595353 0.0009185683 -0.00097234047 9.3570095e-05 -3.920111e-06 -0.0009993411
-0.00067117554 0.00070335355 -0.0005761723 -9.472768e-05 0.0003532588 0.00034418976 0.00013558686 7.682517e-05
0.00047421406 -0.0013964078 0.00017688886 8.128695e-06 0.00061426027 8.7023516e-05 3.8950666e-06 -7.316299e-05
-0.00020878394 -0.00013068822 0.0018897043 0.0016498041 0.0008854306 0.00010268245 0.0003946695 0.00028341243
-0.00043368782 -0.00011877492 -0.0012330776 -3.292388e-05 -0.0012941883 0.0015798437 -0.0019324449 0.0013871203
-0.0013268389 -0.0020895489 0.0004387991 0.00012408268 0.0011779419 -3.307178e-05 0.0014490004 0.0002916267
0.0011849996 -0.0021986058 0.00037388166 7.6291035e-05 0.0004079105 0.0005380651 -0.00091096305 -0.00061325065
-0.0008152413 -0.00035921411 0.0006287103 0.00025404012 0.0003179725 0.0007494501 -0.00033114126 -0.0031132158
3.349773e-05 0.0014488016 7.749447e-05 0.00020575555 7.098728e-05 0.0005110608 -0.00084463315 -0.00051274296
0.00035299786 0.00032760375 8.935525e-05 0.0013825228 -7.998732e-06 0.00025370138 2.7024955e-05 0.00047137236
0.00039336405 0.00028943227 0.00073486695 3.9657618e-05 0.0003235201 -5.107424e-05 0.0009732239 4.4566536e-05
0.00022071466 1.1387777e-05 -0.00047768906 -0.0015717966 -0.00118071 6.953242e-05 0.00017540375 -0.0013702415
0.00037295537 -0.00013363101 -0.0009353765 -0.0016597499 -0.00036912304 -0.0003860086 0.00043405488 9.791877e-05
0.00061757484 -0.0005489067 -0.00084285205 0.0012616813 -0.0010494734 -0.0001428985 -0.00012720267 0.00023266053
0.00015640706 0.00012091941 1.6609283e-05 0.0010025054 0.00016977121 0.000189942 -6.7418696e-05 6.890256e-05
-0.0002289206 0.00022258241 0.00072299724 -0.00033314872 0.00048299413 0.003435276 3.0755276e-05 -0.00034660898
0.00013091693 0.00054494874 -0.0004341914 0.0012703897 0.00011682074 -0.004974927 0.00053157954 5.2760834e-06
-0.0014091281 0.00024356083 0.00034103068 -0.00043877042 -0.002393074 -0.0041409736 -0.0031676348 0.0009257574
0.0014445629 0.0035504275 0.00096063165 0.00042143342 0.0011081519 -0.0036960058 -0.00052624184 0.0005945813
0.001823651 0.0012638671 0.00277029 0.0010832868 -0.0013324631 0.0012019172 -0.0022152087 -9.356073e-05
-0.0001820182 1.7168712e-05 0.00015445577 0.00019079816 0.00043850622 0.0023321577 0.00083153637 -0.0032794336
2.4494104e-06 -8.931335e-05 5.4699894e-06 0.00060498255 0.00035643348 7.939866e-06 0.0006129998 0.00026962813
8.832927e-05 -0.00022075728 0.00069143577 1.1715244e-05 0.0006714085 -0.0017326769 -0.0006024252 0.00030135378
-0.00083870866 0.0023187264 -0.0011426237 -0.0017482237 -8.003663e-05 -0.000560655 -5.667941e-05 0.00062484265
9.6608455e-05 0.001135118 0.00064961554 -0.0010338237 0.00031552993 0.00011945928 0.00020157591 -3.624581e-06
-7.6241915e-05 0.00013777285 0.00038681462 -0.00076661364 -0.00077046634 0.0006868723 -5.2660303e-05 0.00012748747
0.00016674522 -0.0024461257 0.00032804816 0.0014822203 6.79494e-05 0.00064363953 -0.001021571 0.00013005572
0.00020436877 0.00083263376 0.00028424407 3.62538e-05 0.0003415074 2.3469276e-05 0.00024404588 0.0020926152
0.00020057942 0.00034206707 0.00023202275 0.00044282732 0.0001388913 2.0504449e-05 -0.0023467562 8.277341e-06

exp_avg_sq f4 [128, 4, 12]
00000000: d679 8535 f804 8d36 646d c136 20e8 4736
00000010: 7ef2 2037 aab5 7136 b1af 2537 942d 2036
00000020: 602a 6235 e6fe 0537 1c04 4237 2bdf c735
00000030: 1b0e f936 8a31 2436 9d49 2d37 57e1 0937
00000040: 05bf 9835 9700 0f37 ce32 3337 7171 1f37
00000050: 5e36 b635 3c3e e236 c85a 1936 1b63 5a35
00000060: 7173 1036 3cd1 2f37 1a53 de36 4c72 2737
00000070: 3e2c d936 6190 dc36 4ff9 b136 f6da e436
00000080: 4f59 b936 1433 e836 ae0a 5f37 f1e2 6635
00000090: 4bd5 cf36 a5c9 2937 5a89 4f35 2eb5 9836
000000a0: 7691 1737 99b2 0f36 4ac0 4f36 789f 0836
000000b0: be43 8a36 7d28 d335 7502 d035 b5ef 4736
000000c0: 4dfc 8c37 8d30 3336 d301 a038 4fa6 8138
000000d0: 1c67 3a38 da4e 8035 c136 bb36 b7e7 1d37
000000e0: 8951 6836 28b6 cf36 d7a8 a138 d27b cf37
000000f0: 255c ba37 2b9e a338 280d a638 9c2b 1c38
00000100: 8d07 4038 230e 5a38 9aee 1138 fb15 7038
00000110: dc50 0538 0119 0038 b42b 0438 91cb 2938
00000120: 0d4a 9436 e8c8 d437 777b 2d37 ed25 fb35
00000130: 9229 b436 6fc2 b036 e2b1 6738 5aa8 8038
00000140: 3330 e037 ed0e 3237 a8c2 7638 1c12 4938
00000150: 928d 4836 7899 8a38 e4e9 3a37 48f9 6738
00000160: 2b4d dd36 8d69 6138 42ba e737 0ac2 bf37
00000170: a80b 9236 8971 3c38 78db 1438 3b90 b937
00000180: 4dc4 9536 cd0b 3e37 121b 1136 b113 5737
00000190: da4b f435 9376 2037 bbaf cd35 b151 1b37
000001a0: 2ecf b937 38ea 2937 6bdf 7437 3974 bb35
000001b0: adac 9736 070d 2537 91ee 9e37 35d8 5c35
000001c0: 483d 8536 21ca 3c37 a21e 5b37 4fe6 ae37
000001d0: 16ec 3b37 f28a 5736 e12e 3834 e745 ae37
000001e0: 1515 c737 acff 9f37 4a69 c637 9bb7 0937
000001f0: 5bdc ed37 aba3 9d37 2347 3d37 7717 d236
00000200: 744a be37 98f9 9237 7001 b237 b925 b337
00000210: e837 c737 469e 6635 c3a0 0037 0839 8f36
00000220: ce1a b437 26fb d835 1430 fa35 4bb1 aa37
00000230: be7f 1b36 703e 1e37 6ce8 0337 bb84 0736
00000240: b12c 8b37 b8fc 0037 00b9 9f36 6698 3a37
00000250: 677c 1a36 48c2 6238 2287 6736 41b2 6137
00000260: f97b 3b35 bd82 b736 6dfb 8337 9c9f 3a38
00000270: bbb3 7336 5aa8 0738 240f 4338 65b6 ca34
00000280: faab 0f38 6375 cb37 39dd 4937 6f26 6537
00000290: 94f6 8738 5a96 4f38 12cf 8138 0a68 6338
000002a0: 8a5d 8238 0d78 9238 9ff8 9f38 23bc aa37
000002b0: 23f3 6038 e419 5038 565c 8d37 edff f037
000002c0: b99d 7438 b44c d137 2645 4038 eed9 d237
000002d0: e97e a838 9fa8 9f38 2cd2 6138 2f24 2137
000002e0: d509 3838 88f5 9d36 de08 bd35 d77e 8236
000002f0: 41fc 1737 0fb1 9a38 2c6d 3c38 8409 2e38
00000300: 0c0b f735 759d d435 4a6f a233 e678 db37
00000310: 5601 7536 6d7b 8c36 915d 5238 ee36 7237
00000320: 85cb 7a36 fff0 9937 a49a 9a37 2ff1 1637
00000330: 08c3 c836 d9da 0e38 af42 e737 9c34 b437
00000340: f472 8037 605d e737 4e5a 3538 b9f6 7337
00000350: 3575 9337 bb4a c437 4001 ad37 5770 0a38
00000360: be37 1637 f6f6 a537 e338 ce37 e24c 1038
00000370: e9b2 bb36 ae62 3236 1a3e 3e36 6b06 1038
00000380: 7fdf a737 3ad9 3836 b842 8b37 e125 0538
00000390: 5b7d 8837 906b ee37 bc2f 8f36 5c75 9137
000003a0: 5cc8 ec36 74be ca37 f40d 1f37 3495 0e38
000003b0: cf21 ee35 2571 2c38 5886 1838 63c7 4f37
000003c0: edfb 6537 6d3d 2038 8e90 4537 2c59 ac37
000003d0: 850e ba36 3d66 3337 9dbd 8336 ba4f 6038
000003e0: 41af f436 819c de37 fe15 8636 92be ae37
000003f0: 0350 9036 e5e4 c936 fb02 9137 1b0b d836
9.944731e-07 4.202706e-06 5.764583e-06 2.9788425e-06 9.593203e-06 3.601754e-06 9.875673e-06 2.3868388e-06
8.4253224e-07 7.986766e-06 1.1564258e-05 1.4891606e-06 7.4224204e-06 2.446674e-06 1.0328743e-05 8.218302e-06
1.1380477e-06 8.5236015e-06 1.068106e-05 9.503551e-06 1.357588e-06 6.74257e-06 2.2851618e-06 8.1355546e-07
2.1524868e-06 1.0479529e-05 6.62579e-06 9.9805875e-06 6.4722544e-06 6.573319e-06 5.3040344e-06 6.82042e-06
5.5238265e-06 6.920085e-06 1.3294322e-05 8.601192e-07 6.1939113e-06 1.0120134e-05 7.731338e-07 4.551045e-06
9.034169e-06 2.1412618e-06 3.095733e-06 2.0358402e-06 4.1206067e-06 1.5732509e-06 1.5497923e-06 2.9792839e-06
1.6806787e-05 2.6701339e-06 7.629734e-05 6.182177e-05 4.4441884e-05 9.559692e-07 5.5794085e-06 9.41188e-06
3.4618154e-06 6.1902865e-06 7.708527e-05 2.4733981e-05 2.2215836e-05 7.801907e-05 7.9179474e-05 3.7233913e-05
4.57834e-05 5.1988416e-05 3.479291e-05 5.724093e-05 3.1784977e-05 3.0540865e-05 3.1511954e-05 4.0482326e-05
4.4193644e-06 2.5365924e-05 1.034035e-05 1.8711995e-06 5.3692575e-06 5.267844e-06 5.5240358e-05 6.1348735e-05
2.6725325e-05 1.0613102e-05 5.883226e-05 4.7939e-05 2.9884727e-06 6.6089386e-05 1.1140921e-05 5.5306853e-05
6.595297e-06 5.3742482e-05 2.7624079e-05 2.285933e-05 4.352496e-06 4.492843e-05 3.5490346e-05 2.2120881e-05
4.4633985e-06 1.132763e-05 2.162244e-06 1.2819583e-05 1.8201492e-06 9.564351e-06 1.5324835e-06 9.25774e-06
2.2150194e-05 1.0127718e-05 1.4595552e-05 1.3966411e-06 4.520253e-06 9.8378e-06 1.8946159e-05 8.227101e-07
3.970843e-06 1.1252735e-05 1.30605495e-05 2.0849662e-05 1.1201037e-05 3.2118373e-06 1.715339e-07 2.0774967e-05
2.3732466e-05 1.9073334e-05 2.3652468e-05 8.208585e-06 2.8355213e-05 1.8792072e-05 1.1281841e-05 6.2612194e-06
2.2684435e-05 1.7520782e-05 2.1219923e-05 2.1356029e-05 2.3748682e-05 8.5911995e-07 7.666825e-06 4.2683714e-06
2.1470154e-05 1.6166348e-06 1.8640444e-06 2.0348138e-05 2.3171156e-06 9.432071e-06 7.862323e-06 2.0193827e-06
1.6590902e-05 7.688235e-06 4.760106e-06 1.1121947e-05 2.30202e-06 5.4063537e-05 3.450034e-06 1.3452548e-05
6.984333e-07 5.469045e-06 1.5733496e-05 4.4494504e-05 3.6314439e-06 3.2343298e-05 4.6505724e-05 3.7758142e-07
3.4254022e-05 2.4254148e-05 1.2032041e-05 1.3658412e-05 6.4832304e-05 4.949267e-05 6.189769e-05 5.421791e-05
6.216306e-05 6.984184e-05 7.62802e-05 2.0353187e-05 5.36322e-05 4.9615177e-05 1.6851507e-05 2.8729404e-05
5.8321024e-05 2.495046e-05 4.5840767e-05 2.5135432e-05 8.034503e-05 7.613119e-05 5.3839918e-05 9.6047725e-06
4.3878175e-05 4.707548e-06 1.4084178e-06 3.889068e-06 9.059034e-06 7.376272e-05 4.4924367e-05 4.1493695e-05
1.8406149e-06 1.5841057e-06 7.563956e-08 2.6163132e-05 3.6508623e-06 4.186694e-06 5.0155042e-05 1.4437113e-05
3.7371367e-06 1.8351244e-05 1.843024e-05 8.996852e-06 5.983169e-06 3.4059256e-05 2.7568398e-05 2.148217e-05
1.5312318e-05 2.7580827e-05 4.3237866e-05 1.4541373e-05 1.7578344e-05 2.339982e-05 2.062379e-05 3.300639e-05
8.953675e-06 1.9784533e-05 2.4583604e-05 3.4403878e-05 5.593862e-06 2.6581506e-06 2.8348354e-06 3.4338253e-05
2.0012025e-05 2.754458e-06 1.660116e-05 3.174495e-05 1.6270837e-05 2.8421899e-05 4.267289e-06 1.7339997e-05
7.056673e-06 2.4168963e-05 9.480387e-06 3.3994394e-05 1.7742221e-06 4.111337e-05 3.636474e-05 1.2384585e-05
1.370812e-05 3.820418e-05 1.1775772e-05 2.0545522e-05 5.5449223e-06 1.0693036e-05 3.926178e-06 5.3480013e-05
7.292169e-06 2.653734e-05 3.9960714e-06 2.0831158e-05 4.300849e-06 6.0169136e-06 1.7286735e-05 6.4385945e-06

exp_avg f4 [128]
00000000: 7a1d 9cb9 3b6f 55ba aba5 b4b9 4405 7bba
00000010: 83bc 05ba 2082 2bba df98 b4b9 f3e4 0fba
00000020: f58c 203a d757 53ba 5791 35ba 2840 ddb9
00000030: f1f7 103a c3c2 14ba 8462 39ba f022 62b9
00000040: 0d5f f639 16fb 9eb9 2894 9bb9 2518 d4b9
00000050: 99ab 8e39 6e20 44ba af0b 063a 125b 313a
00000060: dd9a 743a 4a0c 5d39 b25c 12ba e035 3eba
00000070: 8961 403a 3881 0bb9 7ab9 053a 28be 32ba
00000080: 437e a139 e30f 5fba 0cf5 a63a 9609 483a
00000090: eddd 13ba faf0 b33a 0a7a 12ba b9ca 843a
000000a0: 2e80 0e3a ce3c be3a c77d 543a 1439 783a
000000b0: 3efd 71ba 1a56 e239 fefe f4b9 92b8 38ba
000000c0: 6715 d439 ea6f 353a e6b4 a2b9 9cc2 cfb9
000000d0: 47ea 143a d87d 4e39 df42 57ba e159 083a
000000e0: b85a 25ba 2c67 e4b9 3f01 23ba 499f 20ba
000000f0: 2b9f a939 d542 03ba 2ea6 3dba 6eac f6b9
00000100: 404b 133a 3d5a f039 f327 f6b9 45ef 8d3a
00000110: 6c02 1f3a ad2d 113a ca6f 3f3a e647 15ba
00000120: 6ba2 3eba dc0c e339 0250 2fba 2c65 793a
00000130: 8ee7 bab9 47c5 db39 06c3 883a 7232 b639
00000140: c37c 6cb9 2ef6 46ba b67c 1cba 0973 b0b9
00000150: 9f95 c0b9 dc29 2d3a 3515 e539 a884 cdb9
00000160: cce3 323a 606e 943a 16e5 223a 0f95 0bba
00000170: 9615 193a 320e 1d3a 6b6c 483a db8f 683a
00000180: 8bc7 fe39 6172 bfb9 aef8 40ba 6d16 923a
00000190: 5994 863a f40f 07ba 8194 1eba 068b 7a3a
000001a0: bfe0 503a 64f0 71ba f727 45ba 56b8 a939
000001b0: 867b 713a 8e64 3a3a d235 213a 2449 52ba
000001c0: a13a 213a c30b a73a e64d 353a 02ba ccb9
000001d0: 26d8 c639 5d9f 323a 5b69 48ba 3653 30ba
000001e0: 8b4b 3bba ab4a 70ba 7376 6d3a f470 433a
000001f0: ed75 17ba 4a9c 433a c555 06ba 8e18 22ba
-0.000297766 -0.000814188 -0.00034455708 -0.0009575675 -0.0005101638 -0.00065425225 -0.00034446173 -0.0005489133
0.000612452 -0.00080621004 -0.00069262594 -0.00042200205 0.000553011 -0.0005674774 -0.000707187 -0.00021566055
0.00046991595 -0.00030323182 -0.0002967429 -0.0004045378 0.000272122 -0.0007481639 0.00051134353 0.00067655847
0.0009330938 0.0002108078 -0.00055832707 -0.0007255953 0.00073387526 -0.00013304211 0.00051011855 -0.00068184966
0.00030802385 -0.0008509142 0.0012737825 0.0007630823 -0.00056406745 0.0013728433 -0.0005587643 0.0010131217
0.00054359704 0.0014513971 0.00081059005 0.00094689545 -0.00092311564 0.0004317023 -0.0004672929 -0.0007046546
0.00040451737 0.00069212785 -0.00031033828 -0.00039627112 0.0005680662 0.00019692571 -0.00082115637 0.0005201381
-0.00063077686 -0.00043564418 -0.0006218142 -0.0006127251 0.0003235278 -0.0005007212 -0.00072345405 -0.00047049246
0.0005618818 0.000458436 -0.0004695054 0.0010828754 0.00060657295 0.0005538117 0.00073027296 -0.00056946126
-0.0007272127 0.00043306395 -0.00066876423 0.0009513672 -0.00035649206 0.00041917918 0.0010434098 0.0003475133
-0.00022553191 -0.0007589784 -0.0005969511 -0.00033655044 -0.0003673257 0.0006605664 0.00043694084 -0.00039199484
0.00068241055 0.0011324398 0.0006213946 -0.00053246407 0.00058397034 0.000599119 0.000764555 0.0008871534
0.00048595326 -0.00036515578 -0.0007361275 0.00111456 0.00102676 -0.00051522185 -0.00060493505 0.0009557459
0.000796806 -0.00092292414 -0.0007520909 0.00032371533 0.0009211827 0.0007110321 0.00061496824 -0.0008021763
0.0006150399 0.0012744594 0.000691621 -0.000390485 0.00037926546 0.0006813908 -0.0007645094 -0.00067262666
-0.00071447407 -0.00091664 0.0009058483 0.0007455491 -0.0005777765 0.00074619486 -0.0005124475 -0.00061834685

exp_avg_sq f4 [128]
00000000: 7d54 8e38 088c c839 b7f6 1639 e6eb ee39
00000010: 9e23 6039 768b a539 36df 0e39 6f63 1339
00000020: 4881 4c39 0e58 bd39 4829 f039 568f 5039
00000030: dc5d 0639 48b6 9539 1eb0 8739 52fb 4a38
00000040: 5a52 0439 f007 b638 7dec 0839 6056 1339
00000050: 706b 7338 82ea e639 0e61 5e39 b9d8 5539
00000060: 4393 8339 5c02 1c38 a7bb 9039 1e91 d439
00000070: 7556 8e39 0b67 c037 c81f 2d39 8da7 ee39
00000080: 3fcc 5d38 b01b 043a 23d2 893a 6e50 8339
00000090: 2a8b 5c39 047b cf3a 658a 4339 f3fc 473a
000000a0: cb4c 7239 bf56 cb3a b2a1 c239 9be5 0c3a
000000b0: 3e88 043a 5c3b dd38 5cbe 4c39 03aa 7b39
000000c0: 34ef 6c38 7671 b239 13d7 c038 5d84 1e39
000000d0: e6a9 4c39 6d5f 4b37 5fde ba39 68b8 ff38
000000e0: 37bf 8639 c7c6 4a39 0c20 a539 27ee 2139
000000f0: 7664 2d38 8818 8d39 45a6 a739 3a5b 8a39
00000100: 83ac 6d39 56a5 1939 5917 1739 00aa 213a
00000110: 28c1 0e39 7c72 1f39 54f8 7939 6cc1 5c39
00000120: f541 c439 78ef ca38 0392 bb39 b35e 173a
00000130: a9a9 b138 ceea 5638 e2c6 313a 0813 4238
00000140: 86d9 6e38 dde9 9639 1a17 5739 a2ed ed38
00000150: 229c 4439 e730 d939 0038 af38 2747 0839
00000160: 307c 8939 a47c 2e3a f996 8239 6b55 5839
00000170: f24c 7b39 1c7d eb38 bd8b 0a3a 3fd6 f639
00000180: ff66 4939 6932 c738 bc1e f539 38c9 4c3a
00000190: 546d 5d3a 627f 6b39 541f 6639 93e8 113a
000001a0: bb93 9239 bbdf 593a 5937 d139 fbfa ac38
000001b0: fed2 bc39 5e9a b839 62ba 6b39 3f28 113a
000001c0: 5d53 8a39 c440 8a3a 2517 4b39 ef27 1e39
000001d0: c314 9f38 0064 b839 5145 a039 32ca e039
000001e0: 3648 aa39 128f 093a 75ec a039 e16c ee39
000001f0: 296b 8d39 c71c 9439 bfe1 5839 d983 1a39
6.786825e-05 0.00038251304 0.00014397023 0.00045570655 0.00021375573 0.0003157516 0.00013625328 0.00014056054
0.00019503117 0.00036114495 0.00045807124 0.00019889823 0.00012814201 0.00028555305 0.00025880424 4.8394613e-05
0.0001261918 8.679915e-05 0.0001305807 0.0001405119 5.8035774e-05 0.0004404374 0.00021207726 0.00020393998
0.00025095986 3.7195496e-05 0.00027605632 0.00040543912 0.00027148766 2.2936167e-05 0.00016510405 0.00045519733
5.2880725e-05 0.0005039526 0.0010514896 0.00025046192 0.00021032678 0.0015829508 0.00018648205 0.000762894
0.00023107526 0.0015513523 0.00037123036 0.000537479 0.0005055702 0.00010549158 0.0001952587 0.0002400056
5.648956e-05 0.0003403534 9.195334e-05 0.00015117363 0.00019518248 1.2121961e-05 0.00035642364 0.00012193696
0.00025700938 0.00019338272 0.0003149513 0.00015442875 4.1339976e-05 0.00026911893 0.00031976603 0.0002638938
0.00022666347 0.0001465281 0.0001440918 0.00061669946 0.00013614132 0.0001520607 0.00023839 0.0002105289
0.00037433175 9.676715e-05 0.00035776207 0.0005774304 8.4716194e-05 5.1240255e-05 0.000678165 4.627093e-05
5.6946206e-05 0.0002878447 0.00020512604 0.00011345303 0.0001875018 0.000414259 8.355081e-05 0.00012996477
0.00026223203 0.0006656146 0.00024908016 0.00020631186 0.0002396589 0.00011228977 0.0005285105 0.00047080402
0.00019207223 9.498449e-05 0.0004675294 0.00078119664 0.0008446772 0.000224588 0.0002194618 0.00055659673
0.00027957358 0.00083112315 0.00039904824 8.248348e-05 0.00036015356 0.00035210227 0.0002248078 0.0005537308
0.00026383522 0.0010547866 0.0001936821 0.0001508293 7.585578e-05 0.0003516972 0.00030569223 0.00042875257
0.00032478728 0.00052474544 0.00030693752 0.0004547602 0.00026973456 0.000282502 0.00020683462 0.00014735702

exp_avg f4 [32, 128]
00000000: 5f7f 30b8 dd99 3b38 d477 a538 d834 ed38
00000010: 2018 b738 5f33 9438 dea1 9738 5c28 90b8
00000020: beb0 64b9 f147 24b9 b752 bfb7 8b51 fb38
00000030: f6c9 f5b8 5eed 5939 b00d 92b7 6afe a9b8
00000040: 880a ab38 67a1 e1b7 fbe2 2eb9 04b8 0ab8
00000050: 8c26 1639 3ebb feb8 7459 dbb8 202b abb6
00000060: c221 e5b8 f50a 96b8 07c4 3439 5f73 b5b7
00000070: 8cb6 3239 6beb a438 9d61 bd36 86cd 42b8
00000080: e6c0 50b9 1f36 6d38 e4f4 e7b8 d183 cbb7
00000090: d31f 8938 560d f537 8c13 6e38 e78a 3db9
000000a0: 869c 2eb8 ea34 38b9 b748 b638 ae22 84b8
000000b0: 82ff 2c38 3a95 59b9 a1ae 0db8 baf9 1739
000000c0: 9ed7 8938 d9ee 5939 26b0 dc38 9630 b5b7
000000d0: 395f 77b8 fbf4 ec37 89bb 1ab9 e452 3b39
000000e0: f71b 67b9 2147 9ab7 10d7 05b8 75ee f1b8
000000f0: d574 6a37 3e32 87b8 2b55 fab8 0216 1839
00000100: 06c7 1739 5e45 2bb8 4386 d4b8 ed1a abb6
00000110: b319 8438 99dd 9d35 fe27 51b9 5029 dfb8
00000120: a9d6 67b8 5606 ec38 3dfb aa38 ddf0 4039
00000130: 59a5 b638 cea5 c7b7 ee8e 35b9 cdbe 81b8
00000140: 82a6 8b37 ba34 33b8 ac01 5a39 67ad b5b8
00000150: 879d 23b9 4ec6 2439 ec82 dc38 86aa 0f39
00000160: 0609 84b8 7738 36b9 941e fab8 1c3f 8eb8
00000170: 8fa3 2339 b6df b837 ddbb 8438 f88a 1f38
00000180: fc43 b6b8 1095 a338 f1a4 b3b8 1c76 9538
00000190: 9497 dbb8 d5b7 40b9 8cce 0c39 d7c4 ef37
000001a0: f006 1d37 42b3 17b9 aece a2b8 c098 4e39
000001b0: 7dac 5a37 29f0 23b9 2fb1 80b8 211c 2338
000001c0: b55c 2bb8 6f41 0439 9fdf 0c39 de41 ee37
000001d0: ba84 2439 fe4c b2b8 e5c8 3539 8b91 b638
000001e0: 8c0d 15b9 88fe 40b8 6555 24b9 a3b0 5639
000001f0: e1f6 83b8 e39d f938 ce89 dbb8 34fb 9eb8
00000200: 3473 8939 fe35 88b9 34b3 243a 7d3f f638
00000210: 6806 2e39 634e d039 d915 92b9 74f5 9438
00000220: b06d a83a 4322 4fba 8cb5 34ba eb4b d0b9
00000230: aeea 2a3a 868a a5b9 6388 02ba 5f6c 54b9
00000240: 17f9 e4b8 9bda ec39 f14a 4e39 cf3b 06b9
00000250: 928e 0039 41ae 20b9 a390 7ab9 5d1c bb39
00000260: 9daa 4e3a 434a 0939 79b6 bc39 b9a8 ddb9
00000270: ca48 d5b8 2db4 64b9 cc62 b7b9 174c fcb9
00000280: aa7d 4eba 717e 42ba 7a59 883a 1d41 8f3a
00000290: a081 9738 f48c ee39 fae8 3139 ac95 21b9
000002a0: 85f9 e439 87bc b4b9 2cdd e2b8 9d4f d939
000002b0: 1e1f ccb9 3e17 acb9 bd7d ad39 2746 a9b9
000002c0: 4bef 46b9 b51f 403a 693a 7c39 e280 fc38
000002d0: c414 f5b9 fd9e acb9 3312 ceb9 be92 123a
000002e0: 4495 96b9 f817 7f39 ca29 52ba 75a7 db38
000002f0: 9283 6c3a 2514 4eb9 4c5d 16b9 52e3 0a3a
00000300: 39bd d139 0b7c 873a 226f 48ba 452c 053a
00000310: 9332 6fb9 3da7 a3b9 1c80 3d3a 6895 d239
00000320: 4dd0 cdb9 e00b 2c3a 7b75 8ab9 7f31 e339
00000330: 5379 2138 5a8f c439 bbe7 013a 8eae e7b8
00000340: fc03 053a d068 ddb8 3307 7c38 f764 f7b8
00000350: 968c 72b8 5452 b63a 7c57 683a 5a6f 43b9
00000360: 7e33 feb8 8462 5b3a 5ba3 c63a eca7 f238
00000370: a4d6 c73a 2422 bd3a 3e05 5e3a e4a8 ff39
00000380: f9b2 ddb9 cec9 6039 cfe6 82b9 2f5c 2239
00000390: da88 9939 004f d1b9 93fb 85b9 96e9 123a
000003a0: 2562 1c3a 1214 60ba edf8 6eba 4a28 9d37
000003b0: d0d1 5b39 4e5a 503a 3085 d939 915f 1539
000003c0: d32c 993a 3f84 2d38 498a 423a 619a bab8
000003d0: f57a 1eba a1d7 4d3a d792 a2b9 4c9e 4736
000003e0: 46f6 a2b9 86f7 02ba d629 8c38 cf28 6b3a
000003f0: da34 0dba 856b ab39 2d8a ce38 efa8 9eb9
-4.2080293e-05 4.472757e-05 7.890133e-05 0.000113108836 8.7306136e-05 7.0667586e-05 7.230391e-05 -6.8739726e-05
-0.00021809616 -0.00015667059 -2.2807491e-05 0.00011983801 -0.000117201285 0.00020783159 -1.741093e-05 -8.105936e-05
8.155877e-05 -2.6897249e-05 -0.0001667849 -3.3073142e-05 0.00014319475 -0.000121465404 -0.00010459396 -5.1012175e-06
-0.00010925859 -7.154598e-05 0.00017239164 -2.1630605e-05 0.00017043407 7.8639794e-05 5.6440026e-06 -4.6444613e-05
-0.00019908286 5.6555607e-05 -0.00011060553 -2.4260868e-05 6.538597e-05 2.9212486e-05 5.6761826e-05 -0.0001807619
-4.1630607e-05 -0.0001756732 8.6919805e-05 -6.30071e-05 4.1245956e-05 -0.00020750324 -3.3779655e-05 0.00014493513
6.572831e-05 0.0002078371 0.00010523228 -2.1599506e-05 -5.8978072e-05 2.824747e-05 -0.00014756447 0.00017864589
-0.00022040294 -1.8391353e-05 -3.1909964e-05 -0.000115361916 1.3974689e-05 -6.44666e-05 -0.00011936793 0.00014504048
0.00014474624 -4.083418e-05 -0.00010133956 -5.0993317e-06 6.299037e-05 1.1761905e-06 -0.00019946691 -0.00010641164
-5.527461e-05 0.00011254537 8.1530285e-05 0.00018400275 8.709235e-05 -2.3799857e-05 -0.0001731475 -6.186739e-05
1.6647627e-05 -4.272603e-05 0.00020790723 -8.663051e-05 -0.00015603575 0.00015714133 0.000105148036 0.00013701068
-6.295931e-05 -0.00017377907 -0.000119266246 -6.782843e-05 0.00015605822 2.2038683e-05 6.329243e-05 3.803798e-05
-8.691099e-05 7.800211e-05 -8.566108e-05 7.126873e-05 -0.000104709674 -0.0001837903 0.00013428385 2.858268e-05
9.3595445e-06 -0.00014467261 -7.763259e-05 0.00019702595 1.3033973e-05 -0.00015634358 -6.136519e-05 3.8888425e-05
-4.0855917e-05 0.00012612877 0.00013434746 2.8402483e-05 0.00015689703 -8.502042e-05 0.00017336344 8.705546e-05
-0.00014214794 -4.6013418e-05 -0.00015672071 0.00020474433 -6.2925516e-05 0.00011902654 -0.00010468402 -7.580817e-05
0.0002621651 -0.0002598017 0.0006282807 0.0001174202 0.0001659632 0.00039731254 -0.00027863568 7.102909e-05
0.0012850072 -0.0007901529 -0.00068935077 -0.00039729415 0.00065199554 -0.0003157446 -0.00049794297 -0.00020258267
-0.00010918284 0.00045176302 0.00019673609 -0.00012801516 0.00012260143 -0.00015323704 -0.0002389574 0.00035688552
0.00078837 0.00013093003 0.00035994107 -0.00042278113 -0.000101701895 -0.00021810895 -0.0003497809 -0.00048121877
-0.0007877002 -0.0007419354 0.0010402643 0.001092944 7.2243856e-05 0.00045499916 0.00016966826 -0.00015409914
0.00043673455 -0.0003447274 -0.00010817716 0.00041448782 -0.00038933096 -0.00032823713 0.00033090814 -0.0003228646
-0.00018971895 0.00073289435 0.00024054352 0.00012040303 -0.00046745513 -0.00032924852 -0.0003930494 0.00055913243
-0.0002872144 0.00024327624 -0.00080170913 0.00010473925 0.0009022291 -0.00019653195 -0.0001433987 0.00052981556
0.00040004568 0.001033665 -0.00076459546 0.0005080144 -0.00022811657 -0.00031214385 0.00072288676 0.00040165638
-0.00039255843 0.0006563049 -0.0002640894 0.0004333369 3.8498383e-05 0.00037490838 0.000495549 -0.00011047452
0.0005074141 -0.00010557624 6.0088187e-05 -0.00011796684 -5.7828227e-05 0.0013910034 0.0008863134 -0.00018638131
-0.00012121255 0.0008368867 0.0015154885 0.00011570737 0.0015246463 0.001442973 0.0008469409 0.00048763223
-0.0004228575 0.00021437483 -0.00024967498 0.00015483865 0.00029284396 -0.00039922446 -0.00025555174 0.0005604265
0.00059655524 -0.00085479126 -0.00091160723 1.873462e-05 0.00020963629 0.0007948027 0.00041488698 0.00014245349
0.0011686332 4.1369578e-05 0.0007421119 -8.8979265e-05 -0.00060455437 0.00078522606 -0.00031008452 2.9745452e-06
-0.00031082536 -0.00049959903 6.683513e-05 0.00089706195 -0.00053865986 0.0003269577 9.848583e-05 -0.00030261974
