our-vTR/10_fold_lightning_logs/dataset1/fold_2/version_0/checkpoints/epoch=29-step=1049_fold2.ckpt (torch, 132433 bytes, 18 tensors)

conv1d.weight f4 [128, 4, 12]
000000 ac 0f 91 3d 9b 68 0b be 0f cc 4b be b6 47 4e 3e
       0.07083067 -0.13614123 -0.19902061 0.20144543
000010 f9 85 97 3c 59 96 6a bd 53 0d 20 3e fe ef c8 be
       0.0184965 -0.05727229 0.15630083 -0.392456
000020 08 e4 4a be d0 00 61 bd 90 5b ea 3c 8c a6 67 be
       -0.1981355 -0.054932415 0.028608114 -0.22622126
000030 8d d1 fc 3d 73 11 43 bd 9b 4f c1 bd 9e 18 4e 3d
       0.12344656 -0.047624063 -0.09439012 0.050316446
000040 1b 00 1b 3d 20 92 bb bc b7 1f 30 be e3 58 0f be
       0.037841897 -0.022896826 -0.17199598 -0.13998751
000050 d6 40 12 3e 6e ab 8e be 89 cf da bc 3f d9 41 be
       0.14282545 -0.27865165 -0.026710289 -0.18930529
000060 d8 28 bc be d7 45 96 3d 52 81 0f 3e ed 5c 3a be
       -0.3674991 0.0733754 0.14014176 -0.18199511
000070 45 37 5b bd d2 9f 16 be 11 f3 86 3d d6 7e 51 3e
       -0.053519506 -0.14709404 0.0658933 0.2045854
000080 06 3e cc 3b ab f5 6b be 5d 8b 8e bc d8 63 b4 3d
       0.0062329797 -0.23042934 -0.017400438 0.08808106
000090 3d 78 44 3d d6 56 17 be e4 7c b8 be 63 24 63 be
       0.04796623 -0.14779219 -0.36032784 -0.22181849
0000a0 9b f2 85 be 72 c5 d6 3d e6 ea 24 be 54 d9 70 be
       -0.26161656 0.104868785 -0.16105232 -0.23520404
0000b0 5b 4e 0e 3e ff fe f4 3d 0e ee 3a bd 3b b2 6d bd
       0.13897078 0.11962699 -0.045637183 -0.058031302
0000c0 6d a6 4b bc a3 2d 37 3e 10 80 d2 be e7 4d d5 3c
       -0.012429816 0.17888503 -0.4111333 0.026038123
0000d0 e0 3e 6e be 49 14 40 3e 3b 25 9f bd af 93 49 be
       -0.23266172 0.18757738 -0.07770773 -0.19685243
0000e0 2a 66 c2 bd 88 44 94 be 4b 68 22 be e0 aa 10 bd
       -0.094921425 -0.28958535 -0.15860097 -0.03531921
0000f0 5f 85 28 3e b9 3a c5 bd b3 51 ab 3c 03 b7 36 be
       0.16457127 -0.09630341 0.02091298 -0.17843251
000100 fb 0d d5 bc 8c f0 b2 bd dd 4b f9 3d 3c 02 bb 3d
       -0.026007643 -0.08737287 0.12172673 0.091312855
000110 92 f7 41 bd a1 73 19 3e ae 30 f3 3c db 1b 53 bd
       -0.047355242 0.14985515 0.029686298 -0.051540237
000120 5b 3c 0c be 0d 49 00 3e bc 44 9f 3d 18 45 e4 3d
       -0.13694899 0.12527867 0.07776782 0.11145991
000130 62 a7 06 bd c6 13 69 3d 33 c6 5d be 09 e8 51 be
       -0.032874472 0.056903623 -0.21657638 -0.2049867
000140 9b f7 39 be 28 b9 80 be 34 2b 01 3c 4f 3c ec 3d
       -0.1816086 -0.25141263 0.007883836 0.115349405
000150 5d 55 50 bc e4 3e a7 bb ce c3 77 be 89 c0 76 3d
       -0.012715665 -0.0051039327 -0.24195787 0.06024221
000160 48 17 4f bd 49 bd 06 3c cf 46 c4 bd 3c 27 dd 3d
       -0.050559312 0.00822384 -0.09583818 0.10798499
000170 55 76 2b 3e d8 11 5e be 98 38 65 bd b4 78 cd 3d
       0.16744359 -0.21686494 -0.055962175 0.10032788
000180 8e 6f b6 bd 9d 47 36 bc 2c e8 f0 3d 1a 83 4c be
       -0.08907996 -0.011125472 0.11763033 -0.19971886
000190 c2 26 1e 3e 48 c5 a4 3d c3 fd 4d be bf e2 3e be
       0.15444472 0.08045441 -0.20116334 -0.18641184
0001a0 0c 28 9a 3d 73 07 d2 be a5 db 6c bd 49 b3 b5 be
       0.075271696 -0.41021308 -0.057826657 -0.35488346
0001b0 40 62 32 bc af 0f a2 bb 9c 2c 5e be ce e2 68 be
       -0.010887682 -0.0049457173 -0.21696705 -0.22742769
0001c0 29 26 9a bb 65 e0 e2 3c ab c4 04 be 12 95 c4 be
       -0.004704256 0.02769489 -0.12965648 -0.38394982
0001d0 7e 54 60 3d d9 d1 1c be e6 4b 8e be 32 a2 10 bc
       0.054768078 -0.15314426 -0.2779228 -0.008827733
0001e0 ef 80 89 3d 87 70 87 bc 39 f6 d8 bd aa e1 d1 3d
       0.06714045 -0.01653315 -0.10593838 0.1024812
0001f0 59 eb d6 3d 5f 6a ca 3d 82 ba 83 be 5a 8e ad 3d
       0.10494108 0.0988357 -0.25728232 0.08474417
000200 d0 c8 cc bc 2a b1 b3 3d f3 6d 2c be 88 9d 3a 3e
       -0.024998099 0.08774026 -0.16838817 0.18224156
000210 31 6e 1d be 75 a4 87 bd d5 1f 3c 3c 98 eb 95 3c
       -0.15374066 -0.066231646 0.011482199 0.018300816
000220 07 58 8f bc d8 24 02 be 38 55 04 3e d9 1d 33 bd
       -0.01749803 -0.12709367 0.12923133 -0.043729637
000230 bf d6 ce 3d 81 59 62 be 9d c0 00 3e c1 52 3d 3d
       0.10099553 -0.22104456 0.12573476 0.0462215
000240 a2 75 21 be 41 2e 29 be 36 ce 57 3e 88 42 a2 3d
       -0.1576753 -0.1652155 0.21074757 0.07922846
000250 59 13 5d 3e d9 8c be be 81 24 1f be 0d 09 32 be
       0.21589412 -0.37216833 -0.15541269 -0.17386265
000260 bf ea 70 be 0f 2f aa be fa 6e b6 3d a3 41 13 bd
       -0.23527049 -0.33239028 0.08907886 -0.035951268
000270 02 95 fe 3d c5 7d 58 bb eb b9 8c be 15 80 23 3d
       0.12430765 -0.003303395 -0.27485594 0.03991707
000280 f7 52 a0 be f5 a1 89 3e 0b 05 51 3d d3 ce cc 3d
       -0.31313297 0.26881376 0.0510302 0.10000386
000290 82 91 d4 be 41 6d c6 bd 88 a0 c3 be 4a 0e 95 bd
       -0.41517264 -0.09688807 -0.38208413 -0.07278116
0002a0 72 71 27 bd f7 ca 44 3e 0c 08 e4 3c 51 76 83 be
       -0.040879674 0.1921805 0.027835868 -0.25676206
0002b0 ce 13 02 bf 4e b3 09 be 85 45 c5 be 56 8b 8c be
       -0.5081147 -0.13447306 -0.38529602 -0.27450055
0002c0 12 f7 a4 be 40 0a a4 bd 75 37 1b 3e 09 15 40 bd
       -0.3221975 -0.080097675 0.15157874 -0.04689506
0002d0 fb da 1f be 69 22 73 3c 9d 45 24 be 53 cd ec bc
       -0.15610878 0.014839747 -0.1604218 -0.0289065
0002e0 a9 05 a5 be 1f a2 bf be 6b 65 e7 3d ba de 81 bd
       -0.3223088 -0.37428376 0.11298641 -0.0634131
0002f0 c6 f4 7a 3e f8 d7 97 3d f8 59 f4 3c bf 73 27 bd
       0.24507436 0.0741424 0.029828057 -0.04088187
000300 99 3b 00 be 82 79 b1 bc 0a b6 a9 3d 51 ed f6 bd
       -0.12522735 -0.021664385 0.08286674 -0.12056983
000310 f9 7d 0a 3e 73 1a 36 3d f7 ec 12 3e 9e a0 a4 bd
       0.13524617 0.044458818 0.14348207 -0.08038448
000320 29 2b be bb e5 af 02 3d cc 89 94 be 66 16 92 bc
       -0.005803485 0.031906027 -0.2901138 -0.017832946
000330 72 f2 39 3e fe 6f b2 bc f6 ac 3c be 99 29 94 bd
       0.18158892 -0.021781918 -0.18425354 -0.072344966
000340 43 b1 a1 be 76 14 8f bc 63 8e 79 be 5c e3 33 3e
       -0.31580552 -0.017465811 -0.24370722 0.175672
000350 ec d9 76 3e cd 75 9f 3d 91 80 07 3e 57 84 e5 bc
       0.24106568 0.077861406 0.13232638 -0.028017206
000360 bc e3 f7 bd d6 23 d0 bd 10 c9 34 3c 16 02 62 3e
       -0.12103984 -0.10163085 0.011034265 0.22071108
000370 b7 f6 36 3e b2 aa 26 3e 25 39 59 be e5 cd e1 bd
       0.17867552 0.16276053 -0.21213205 -0.110255994
000380 bb a1 5c be 40 1c 35 be fe 6b ea bd 20 72 ca 3d
       -0.2154607 -0.17686558 -0.11446379 0.09885049
000390 2c 85 4c be dc 01 50 be fd 78 54 be b6 e9 32 bd
       -0.19972676 -0.2031321 -0.20749278 -0.043679915
0003a0 51 49 f2 bd b9 b7 98 be 64 6d 5f be 78 ab a5 be
       -0.1183039 -0.2982767 -0.21819073 -0.32357383
0003b0 57 ae 78 bd df 9f be bd ce f5 2b be 20 dd 31 3e
       -0.06071314 -0.09307837 -0.16792986 0.17369509
0003c0 de db 23 3e c9 97 ef bd 1b 03 ef bd 34 b0 83 bd
       0.16001841 -0.116988726 -0.11670514 -0.064300925
0003d0 f7 8d 06 be e0 4c ec 3d 71 31 c7 bb 3a d3 fd bc
       -0.13140093 0.115381 -0.006078892 -0.03098451
0003e0 b2 f6 05 3e 40 32 57 3d 99 08 90 3d 0e c8 2c 3e
       0.13082388 0.052538157 0.0703289 0.1687319
0003f0 6e c3 84 bd 53 a3 7a bd 35 56 46 3e 18 d3 04 3e
       -0.06482588 -0.061190914 0.19368823 0.12971151

conv1d.bias f4 [128]
000000 ac 9b 07 be b8 fe f6 bc 20 5b c3 bd e4 75 0e 3d
       -0.13242978 -0.030150756 -0.09538865 0.034780398
000010 55 c6 16 bd b0 9d d1 ba c9 26 01 be b9 8b ad 3d
       -0.036810238 -0.0015992429 -0.12612452 0.084739156
000020 27 3d 17 3d 5e 26 e0 bc da 08 26 3b 2f 65 94 3d
       0.036923554 -0.027362045 0.0025334866 0.07245862
000030 92 a4 03 3e f7 63 bc bc 57 9f 86 3d e4 05 56 3c
       0.12855747 -0.022996886 0.065733604 0.013062928
000040 de b2 1a 3d 3d 67 d7 3d 70 95 6f bd ba b6 d0 bd
       0.037768237 0.10517738 -0.058492124 -0.10191102
000050 5e c7 f8 bd b9 fd 18 be c6 38 e7 bd 2c aa d4 3d
       -0.12147401 -0.14940538 -0.112901255 0.1038402
000060 3a 4f 77 b9 85 79 d4 bd 13 ad 1e be a3 f8 b6 3c
       -0.0002358527 -0.103747405 -0.1549571 0.022335356
000070 cd ad 69 3d ed 86 1e be 1f 70 ff bd fb 91 65 bd
       0.057050515 -0.15481158 -0.12472557 -0.05604742
000080 a4 6b e5 bd 86 86 88 bd 51 f6 61 3d d8 cc 1a be
       -0.112021714 -0.06666283 0.055166546 -0.15117204
000090 3e 96 72 bd b5 a2 0b be 33 75 12 3d cc b9 4b 3d
       -0.059225313 -0.13636287 0.0357563 0.049737737
0000a0 9c 62 ad 3b fb 82 9d bd f2 63 ab bd 9d 6f 73 3d
       0.005291296 -0.07690998 -0.083686724 0.059432615
0000b0 e0 dc cc bd ce 42 42 bc 87 02 76 bd 09 15 10 3e
       -0.10003066 -0.011856748 -0.060061004 0.14070524
0000c0 5d 89 70 bd 85 7a 12 bc e0 aa 90 3c 9e 9a 14 be
       -0.05872475 -0.008940344 0.017659605 -0.14512107
0000d0 f6 cc b3 bd 17 fe e2 3c 1a ee 17 3d 76 10 1e bd
       -0.087793276 0.02770905 0.037092306 -0.038589917
0000e0 cb c1 73 bd b0 20 c4 bd 3d 40 26 bc 39 d1 ec 3d
       -0.059510987 -0.09576547 -0.010147152 0.115633436
0000f0 43 81 8d 3d 93 58 90 bc 06 74 d7 3c f9 49 07 be
       0.0690942 -0.01762036 0.026300441 -0.13211812
000100 42 1b 86 bd 35 2b db bd 82 a0 96 bd aa 85 71 3d
       -0.06548168 -0.107016005 -0.07354833 0.058965363
000110 26 a8 10 be 37 57 0f 3c 1a b6 67 bc cc 18 16 be
       -0.14126644 0.008748821 -0.0141425375 -0.14657897
000120 7b 4b c1 3d 39 1e 4e be 73 5c a3 3d 03 c3 55 bd
       0.09438225 -0.20128717 0.07976618 -0.05218793
000130 e8 55 51 bd 60 b0 dc b9 72 49 1e bd ec 5f d1 3c
       -0.051107317 -0.0004209308 -0.03864426 0.025558434
000140 44 f5 01 be 36 21 00 bd a4 31 d4 3c 34 08 c1 3d
       -0.12691218 -0.031281672 0.025902577 0.09425393
000150 58 fb 68 bc 47 a0 ac 3d a5 d8 9d 3b 31 13 95 3d
       -0.014220081 0.08429008 0.004817086 0.07279051
000160 eb ce 0a be 4b 77 75 bd 05 94 06 bc c8 61 05 be
       -0.13555495 -0.05992822 -0.008214002 -0.13025582
000170 81 83 07 be ba a8 14 3d 26 5a 2a bd d2 e2 2d be
       -0.13233759 0.036293723 -0.04158988 -0.16981056
000180 06 15 85 bd 13 4d 03 bd 0a ba 70 bd 8a 75 3e 3d
       -0.064981505 -0.032055926 -0.05877117 0.046498813
000190 a1 a9 1f bd a1 31 c7 3b af f3 b0 3d d5 7e 7f bd
       -0.03898013 0.0060789143 0.08640229 -0.062376816
0001a0 7d 76 84 3c db f6 8f bd 2a 6f 85 3d ca fa 66 3d
       0.01616978 -0.07029506 0.065153435 0.056391515
0001b0 60 3d f3 bd 14 1b 1e bd 04 12 36 bd 44 f5 83 bd
       -0.11876941 -0.038600042 -0.044450775 -0.06443265
0001c0 a4 63 eb bd 27 6b eb 3d f7 e2 bf bc 14 90 7f bd
       -0.11493614 0.11495047 -0.023423655 -0.062393263
0001d0 93 da 5d 3c 7a 3a 2f 3d a3 b9 b7 3d b0 d3 10 be
       0.013540882 0.042780377 0.08970954 -0.14143252
0001e0 98 82 ad bd 55 6c b3 3d da d3 e1 bd 8d df 07 3e
       -0.084721744 0.08760897 -0.110267356 0.13268872
0001f0 15 46 a2 bc 69 67 18 be 02 8f 04 3e b6 95 9a bb
       -0.019808808 -0.14883198 0.12945178 -0.004717554

linears.0.weight f4 [32, 128]
000000 d1 2b e0 37 9f 15 03 39 10 4b d5 b8 64 f8 95 b7
       2.6723284e-05 0.00012501188 -0.00010170613 -1.787785e-05
000010 b4 88 a1 39 36 48 aa b7 70 0f df 37 47 7f 1b b9
       0.00030810165 -2.0299205e-05 2.659086e-05 -0.00014829366
000020 c2 23 68 b9 30 30 cd b8 06 a4 1f 39 3a 28 37 b9
       -0.00022138565 -9.7841374e-05 0.00015224525 -0.00017467226
000030 79 e7 e5 b7 34 16 7c b7 49 43 0c b9 59 76 94 36
       -2.7406715e-05 -1.502554e-05 -0.00013376506 4.424521e-06
000040 45 ef 18 b9 01 a5 7e b9 2c 48 4f b8 6c 82 ab b8
       -0.00014584984 -0.00024284796 -4.941986e-05 -8.1782084e-05
000050 6e 4f 72 b9 c9 64 85 38 4c 56 56 38 92 60 55 b8
       -0.00023108508 6.360707e-05 5.1101946e-05 -5.0873095e-05
000060 4d 6f eb b9 e7 76 4d b8 e9 05 c7 b7 18 78 4a b8
       -0.00044905618 -4.8986545e-05 -2.37254e-05 -4.82724e-05
000070 bd 0a de b6 db 4b 7b 39 ad a1 5b 38 e1 f8 b2 37
       -6.6173657e-06 0.00023965484 5.236424e-05 2.1335147e-05
000080 e8 4a 95 b9 e9 89 ea 37 74 c4 d8 b8 33 5b eb 38
       -0.00028475304 2.7959193e-05 -0.00010336275 0.000112226604
000090 bc 4b a4 37 0d c3 e5 b9 d8 95 9b 38 a5 f4 49 b9
       1.958559e-05 -0.00043823608 7.4188865e-05 -0.00019259991
0000a0 c3 19 3d b9 54 d3 00 b9 69 58 b1 b8 a2 a1 c7 38
       -0.00018034042 -0.00012285757 -8.4564854e-05 9.519166e-05
0000b0 ff 7a 99 38 53 e2 cf b9 88 bc 26 b9 d8 22 da 38
       7.318518e-05 -0.0003965074 -0.00015901227 0.0001040154
0000c0 51 f0 ef b9 52 e2 93 b7 78 17 36 38 12 b2 93 38
       -0.00045764682 -1.7629154e-05 4.341404e-05 7.0426744e-05
0000d0 ab 84 84 b8 58 a9 2c 39 80 44 ad b8 59 8e b5 b6
       -6.318962e-05 0.00016466284 -8.262042e-05 -5.410792e-06
0000e0 3e fd c1 37 27 5c 68 38 a4 29 54 b8 39 df be 37
       2.3125318e-05 5.5398934e-05 -5.058352e-05 2.2753711e-05
0000f0 6e 72 13 b8 ef 38 83 39 3a 13 2b b9 b3 72 f0 38
       -3.5154102e-05 0.00025028686 -0.00016314993 0.00011465456
000100 3b cd 16 b9 26 88 68 38 d5 71 0f 39 b3 02 4f b7
       -0.00014381569 5.543991e-05 0.00013679948 -1.233879e-05
000110 eb 45 64 b8 6a ef 87 39 c2 78 10 b8 0e 38 41 b9
       -5.4424552e-05 0.00025927584 -3.444474e-05 -0.00018426796
000120 65 3b e8 b8 38 6d 3c b8 8f 6e 08 b9 c9 41 ac b8
       -0.00011073685 -4.492441e-05 -0.00013011157 -8.2138526e-05
000130 59 8b 6d 39 c5 f4 d3 36 b0 4b 56 39 6b b9 51 b8
       0.00022653992 6.316785e-06 0.00020436826 -5.0002167e-05
000140 3e 03 2b 39 c8 0e 8c 37 f0 1c 89 b9 28 df 3d b8
       0.00016309039 1.6696184e-05 -0.00026152236 -4.5268942e-05
000150 6a 98 b3 38 f2 da 93 b8 ef 3e 96 38 20 92 08 39
       8.5637745e-05 -7.050288e-05 7.16428e-05 0.00013024407
000160 62 91 ac 38 d6 7c 97 b8 0c b7 62 b8 57 be 8a 39
       8.228679e-05 -7.2234936e-05 -5.4053075e-05 0.00026463225
000170 da 2b 54 b8 35 2f 3c 38 41 88 b1 38 10 a4 c5 b8
       -5.058558e-05 4.4866658e-05 8.465397e-05 -9.424251e-05
000180 08 24 d5 38 66 ce ed b8 32 a9 60 39 6b 48 c1 38
       0.00010163343 -0.00011339485 0.00021425335 9.216446e-05
000190 c1 fb db b8 32 83 05 38 db 7b 6a 38 42 4c 02 38
       -0.000104896266 3.1831856e-05 5.5905297e-05 3.1065436e-05
0001a0 e7 2e d8 38 84 12 0f b9 96 8f 30 b9 5f 31 ea 38
       0.00010308419 -0.0001364444 -0.00016838158 0.000111671856
0001b0 45 cd 14 39 65 23 ac b8 83 bc e3 b8 fa a9 c7 b8
       0.00014190849 -8.208192e-05 -0.000108593165 -9.52072e-05
0001c0 19 0a fb b8 6d 5c 95 b9 e8 5a bb b5 a0 d6 ce 38
       -0.000119704935 -0.00028488357 -1.3959043e-06 9.8628225e-05
0001d0 a9 f4 ee 38 ab 0b 0c b9 2d a7 62 38 a9 76 64 b8
       0.00011394296 -0.00013355787 5.4038293e-05 -5.4469947e-05
0001e0 77 3c 63 39 1e de 6d 37 31 b0 88 36 7d c8 fc b8
       0.00021670932 1.41780165e-05 4.073627e-06 -0.0001205364
0001f0 fb aa 0d 39 e0 aa 51 b8 08 ec fb 38 b5 06 60 b9
       0.00013510503 -4.9988623e-05 0.00012012577 -0.00021364803
000200 ed 97 8a b6 bb 2a 6c b8 dc ef 14 b9 24 76 be b6
       -4.130407e-06 -5.630658e-05 -0.00014203734 -5.6761946e-06
000210 c9 78 24 b9 8a 06 14 b8 da d6 9a b6 46 47 71 39
       -0.00015685255 -3.529204e-05 -4.6145697e-06 0.00023010102
000220 b5 5e a4 b8 21 ee 80 b8 2c 87 05 38 bd c2 f6 37
       -7.83777e-05 -6.1478706e-05 3.183556e-05 2.9416167e-05
000230 72 85 9d b9 dd 3d fd 37 d5 7d e5 b7 e2 00 87 b8
       -0.00030044798 3.0188758e-05 -2.7357522e-05 -6.437466e-05
000240 31 58 25 39 26 01 2d b8 6d ce 13 b8 fe 8a 6d 39
       0.0001576848 -4.1247484e-05 -3.523978e-05 0.0002265386
000250 44 bb f0 b8 16 74 d7 b7 05 c3 3b b8 cd 12 dd b8
       -0.00011478973 -2.5684054e-05 -4.47659e-05 -0.00010541603
000260 19 e7 99 39 f1 b7 2d b8 b4 cf 90 b8 1a 39 91 39
       0.00029354615 -4.1417723e-05 -6.905143e-05 0.000276991
000270 08 ee 3a 39 d4 d7 fa 38 ae 70 1c 39 89 af 62 b8
       0.00017827016 0.0001196113 0.00014919296 -5.404608e-05
000280 b3 25 a3 38 89 0e 29 38 e3 97 3d b9 3c b4 18 38
       7.779468e-05 4.0306277e-05 -0.00018081027 3.640748e-05
000290 0d 19 cd 39 c2 82 55 b9 28 9a 06 b8 69 78 99 38
       0.0003911931 -0.00020361974 -3.209166e-05 7.318037e-05
0002a0 7b 75 15 37 6c 7b 24 39 81 19 bc 38 54 10 8d 39
       8.908445e-06 0.00015686237 8.969289e-05 0.0002690578
0002b0 a3 e4 6b 39 b9 72 03 b8 f0 ba 4e b8 9b 4c 0c b9
       0.0002249652 -3.1339678e-05 -4.9288326e-05 -0.00013379978
0002c0 4a 4c 3b 39 84 14 9f b9 f0 ee da b8 67 dd 54 39
       0.0001786213 -0.0003034213 -0.000104395556 0.00020300374
0002d0 3e de b6 b7 c2 4f 62 37 72 44 62 37 ec ce 54 37
       -2.179958e-05 1.348922e-05 1.3486586e-05 1.2684362e-05
0002e0 86 98 4f b9 8e 3d ce 38 08 86 88 b9 49 19 b0 b8
       -0.00019797878 9.834311e-05 -0.00026039802 -8.397044e-05
0002f0 47 f0 b6 b8 da 8f 27 b9 2b de dd b4 ef 4c 41 b7
       -8.7231914e-05 -0.0001597995 -4.1326106e-07 -1.1521609e-05
000300 2b 5c 0f 39 3b 40 65 39 03 0b 0a b9 09 94 a5 b8
       0.00013671878 0.0002186307 -0.00013164808 -7.895387e-05
000310 bd d9 fe b8 c7 9d 4e b9 41 c1 40 b9 69 42 d3 37
       -0.00012152221 -0.00019704468 -0.0001838254 2.5184085e-05
000320 45 82 db b6 b0 c4 0d b9 37 65 ae 38 1c 22 36 b9
       -6.541874e-06 -0.0001352008 8.315819e-05 -0.0001736958
000330 e6 59 87 39 34 20 99 b7 4f 3a 8c b9 4e a5 c8 37
       0.00025816186 -1.8254017e-05 -0.00026746324 2.3918834e-05
000340 09 83 b5 b9 35 71 15 39 93 53 84 36 56 ed 7b b9
       -0.0003462064 0.0001425192 3.943636e-06 -0.0002402564
000350 40 ad 02 b9 e8 32 c5 b8 e8 86 ac b8 eb 37 38 38
       -0.00012462307 -9.403174e-05 -8.2267274e-05 4.3921096e-05
000360 2a 7a 80 38 42 7d 98 b8 32 8f 95 39 97 fd a3 38
       6.1262705e-05 -7.271256e-05 0.00028526183 7.8196805e-05
000370 38 82 a7 b8 e4 e0 cc 39 ae c0 bc 37 2b a7 f0 b5
       -7.987436e-05 0.0003907747 2.250107e-05 -1.7930046e-06
000380 61 9a d7 36 a7 e1 0c 39 99 a9 1a 39 9a 1d c0 39
       6.4254714e-06 0.00013435502 0.00014749765 0.0003664315
000390 b5 9b 12 b9 34 f9 aa b8 1d d0 97 b9 2a 11 d8 b5
       -0.0001398165 -8.1526494e-05 -0.0002895602 -1.609825e-06
0003a0 76 bd a6 b8 7d 9d 95 b8 47 20 0a 39 17 97 63 38
       -7.950787e-05 -7.134208e-05 0.0001317273 5.426173e-05
0003b0 15 4b 11 38 c1 ea 96 39 cf ce b0 b6 09 38 da 38
       3.464062e-05 0.00028785135 -5.2692844e-06 0.000104054874
0003c0 cf 17 03 b9 33 e5 f1 36 2c 38 21 b9 54 ea 60 b7
       -0.00012502003 7.209042e-06 -0.00015375082 -1.3405999e-05
0003d0 b9 27 3c 38 3d 18 0c 38 97 3c dc b7 3c b5 99 b8
       4.4859687e-05 3.3401175e-05 -2.6254258e-05 -7.329366e-05
0003e0 a9 c8 3e 35 0c 25 97 b9 0a 4c 9b b6 d7 2a 4b 38
       7.1072515e-07 -0.00028828566 -4.628212e-06 4.843887e-05
0003f0 35 a3 5f b9 78 f0 5a b9 90 a3 fb 38 50 54 06 39
       -0.00021327737 -0.00020879682 0.000119990786 0.00012810645

linears.0.bias f4 [32]
000000 66 80 21 39 83 c5 0a b9 b6 5b ba 39 11 bc 83 b6
       0.00015401989 -0.00013234284 0.00035545015 -3.925998e-06
000010 d1 4f 02 37 21 e7 41 b8 9b 30 d0 b9 9a 47 c2 b8
       7.7671875e-06 -4.623004e-05 -0.00039709065 -9.263978e-05
000020 f3 49 32 b8 15 2e 9d b8 ee 3b cb 38 5a eb 04 3b
       -4.2507378e-05 -7.494927e-05 9.690957e-05 0.0020281882
000030 c2 d2 4b 3d fd 87 8c b8 4f ff 9e 38 36 e3 08 39
       0.04976154 -6.70105e-05 7.581582e-05 0.00013054613
000040 11 10 c6 b8 3a 9e 8b b9 b7 e9 f9 38 c3 7d 39 38
       -9.444368e-05 -0.00026630034 0.00011916778 4.4224562e-05
000050 9e f0 8a 3c 35 f6 79 36 7c 58 fc 38 1a 4f d9 3c
       0.016960438 3.7247203e-06 0.00012032778 0.026526976
000060 5f 8e 97 b7 1b dd 71 b8 7c 2a b2 37 48 9b 5e b8
       -1.80669e-05 -5.7664798e-05 2.1239037e-05 -5.307354e-05
000070 d9 a6 15 39 68 59 93 b8 cf a9 67 b9 1f 90 9e 38
       0.00014271903 -7.0261594e-05 -0.00022093135 7.560872e-05

linears.2.weight f4 [2, 32]
000000 ee dc 9b b9 41 a8 00 b9 73 53 a9 b7 31 01 ca b8
       -0.0002972851 -0.0001226971 -2.0185229e-05 -9.6323325e-05
000010 ef 07 08 b5 f5 68 24 bf d6 c6 65 b8 f9 4a 96 b7
       -5.0675493e-07 -0.6422265 -5.4783035e-05 -1.7916305e-05
000020 89 8d 4f b7 5a d9 b5 b5 0a b8 9f 3e 44 12 14 bf
       -1.2371115e-05 -1.3548809e-06 0.31195098 -0.5784037
000030 4a 58 bc 3e ec d5 78 bd e3 97 6b 39 49 e8 8b 3e
       0.3678611 -0.060750887 0.00022467929 0.27325657
000040 9f e9 7d b8 25 e4 01 b9 0a c3 8c 3e 4b 68 2f 37
       -6.0537477e-05 -0.00012387389 0.27492553 1.0455095e-05
000050 f1 c0 22 bf fe fe 25 39 87 a0 89 38 bf a6 b1 3e
       -0.63575655 0.00015830618 6.5625696e-05 0.3469753
000060 9e 5a 93 38 60 74 74 39 98 80 07 37 1f fb d0 39
       7.026385e-05 0.00023313006 8.076568e-06 0.0003985995
000070 c8 43 57 b6 55 7d 5a b8 5e 9d d7 bd 1d bf 88 37
       -3.207695e-06 -5.2091975e-05 -0.10528062 1.6301457e-05
000080 61 50 c8 b8 c3 51 8d b8 41 16 16 38 4f 34 ca b8
       -9.551715e-05 -6.738633e-05 3.5783512e-05 -9.641854e-05
000090 4b be 2a b8 2e b6 12 3f 22 68 94 b7 88 eb 86 37
       -4.0708383e-05 0.57309234 -1.7691465e-05 1.6083723e-05
0000a0 b9 11 4b 38 ce da 11 b8 a1 69 8a be bb b9 1f 3f
       4.8415477e-05 -3.477447e-05 -0.27033713 0.6239278
0000b0 d1 67 12 bf a4 82 69 bd 73 50 2d 39 31 45 16 be
       -0.5718966 -0.057009354 0.00016528535 -0.14674832
0000c0 bb 27 1c b9 4c 60 fb 38 36 8f 76 be 19 8e 02 37
       -0.0001489212 0.00011986549 -0.24078068 7.7816885e-06
0000d0 0b d0 10 3f ac 62 2f 39 2f 76 c4 b7 bc d4 26 be
       0.5656745 0.00016726059 -2.3420054e-05 -0.16292089
0000e0 61 8f ad 3b 06 08 3d 39 42 1b 13 36 78 88 40 39
       0.005296633 0.00018027434 2.1920573e-06 0.00018361385
0000f0 45 6a 06 b8 75 49 87 37 5a 55 84 b8 14 7b 0a 39
       -3.204706e-05 1.612746e-05 -6.3101485e-05 0.00013206556

linears.2.bias f4 [2]
000000 c2 3f f4 bb f9 c6 e5 3c
       -0.0074538896 0.02804898

exp_avg f4 [128, 4, 12]
000000 6d c3 d6 b9 8f 2e 1d 3b cf b9 a1 b8 e0 45 a0 ba
       -0.00040962864 0.002398405 -7.711688e-05 -0.0012227856
000010 4c 90 57 3a 11 9b d5 ba b7 4b 02 3a 0b 6c b4 b7
       0.0008223101 -0.0016296824 0.0004970389 -2.1507984e-05
000020 9d 53 50 39 cb f1 dd b9 18 c9 fc 39 a2 8c 82 b9
       0.00019867574 -0.00042332555 0.00048215012 -0.00024900312
000030 52 63 2c bb 91 8c 23 3a ca d5 aa ba d2 d0 14 b9
       -0.0026304317 0.00062389026 -0.0013033685 -0.00014192172
000040 49 84 8b ba 8a 12 3a ba b3 53 30 39 93 d5 32 ba
       -0.0010644282 -0.00070980994 0.00016815848 -0.0006821986
000050 59 14 e9 ba cf 13 1a ba 75 a2 b9 ba 3f c5 9a b9
       -0.0017782553 -0.00058775855 -0.0014162796 -0.0002952013
000060 e5 a3 37 39 ac 37 45 bb 4f e2 9a 39 89 0e 0e 3a
       0.00017513295 -0.0030092997 0.00029541782 0.0005419036
000070 8b 53 88 ba ba a2 20 3a fd 27 08 bb 4d 65 26 39
       -0.0010400874 0.0006127764 -0.0020775788 0.00015868731
000080 92 62 f5 b9 0f 96 fb b8 e3 98 8d 39 22 5e d7 ba
       -0.00046803482 -0.00011996563 0.00027007525 -0.0016431252
000090 9d f1 e3 3a 78 45 95 ba 04 13 2b b8 d1 e2 9e b9
       0.0017390732 -0.0011388501 -4.0787287e-05 -0.000303051
0000a0 34 f2 23 39 3c ad 03 3a f1 5b ef 38 48 b6 14 ba
       0.00015635119 0.00050230674 0.000114135335 -0.0005672914
0000b0 ab b8 7b 3a a7 70 8c 39 f4 18 52 b8 14 7c a1 3a
       0.0009602408 0.00026786813 -5.009114e-05 0.0012320303
0000c0 32 49 14 3a 71 09 84 ba ef 4e f6 38 60 59 99 3a
       0.0005656659 -0.0010073615 0.000117448966 0.001169961
0000d0 89 09 c2 39 85 d1 a6 3a ac 67 2c 39 2d 40 05 39
       0.00037009668 0.0012727237 0.00016441819 0.00012707776
0000e0 54 4c 79 39 c0 15 49 38 c4 4e 88 b9 9a 01 29 3a
       0.00023774925 4.794239e-05 -0.00025998626 0.0006447077
0000f0 08 f2 49 b9 d4 26 b7 37 d2 96 6a 38 63 f7 12 39
       -0.00019259017 2.183338e-05 5.593041e-05 0.00014015804
000100 5e 63 a5 39 48 7e 80 35 28 c8 77 39 15 1e f9 3a
       0.00031545287 9.573496e-07 0.0002363032 0.0019006158
000110 99 75 ce ba 2f 13 bd 38 d9 3f 2d ba 3d d0 94 ba
       -0.00157516 9.0157955e-05 -0.00066089403 -0.0011353564
000120 8c 17 ce 37 0c 38 4d 3a 1f 40 e8 39 b0 29 4a 3a
       2.4568079e-05 0.0007828481 0.00044298262 0.00077119004
000130 41 ad 9b 3a 20 48 54 ba 1f 8c 00 39 00 50 be 38
       0.0011877195 -0.00080979057 0.0001225923 9.074807e-05
000140 a6 70 54 b9 a2 fd 08 39 6a a7 82 3a e5 56 a7 b9
       -0.0002025986 0.00013064456 0.0009968106 -0.00031917464
000150 f0 f2 8a 39 85 d8 62 3a c7 38 42 38 b3 f1 b9 ba
       0.00026502414 0.000865348 4.6306082e-05 -0.0014186412
000160 07 ad 9e ba eb 6e 50 39 a5 1f 12 39 8e f4 be ba
       -0.001210601 0.00019877746 0.00013935434 -0.0014568733
000170 00 88 0f 3b 18 62 c3 39 14 83 16 3a 62 3f bc 3a
       0.002190113 0.00037266384 0.0005741578 0.0014362151
000180 97 c2 8e 39 a9 49 0b bb 67 d8 5d ba 10 fe ac b8
       0.0002722933 -0.0021253622 -0.00084627274 -8.248922e-05
000190 3c c0 b1 b9 d7 fa dc 3a ec 79 43 3a 61 e4 65 b9
       -0.00033903297 0.0016859424 0.00074568274 -0.0002192422
0001a0 f1 0d e7 ba be b8 a9 37 86 d4 53 3a ae 0f a8 37
       -0.0017628056 2.0232397e-05 0.00080806797 2.0034462e-05
0001b0 79 f1 88 3a 4f 21 f2 3a 79 3b 0b b7 4f d0 90 39
       0.0010447941 0.0018473062 -8.298893e-06 0.00027621022
0001c0 9e 3c 9a 3a 88 fa cb 3a 02 ef a3 39 f7 e1 a7 39
       0.0011767333 0.0015562335 0.00031267857 0.0003202108
0001d0 ea 6b 85 3a f9 1b cf 39 08 c1 67 b8 51 6d ad 39
       0.0010179256 0.00039502958 -5.5254466e-05 0.00033078578
0001e0 3b 75 a0 ba fd 53 f4 39 8b 53 ea b7 b4 2e 0d 3b
       -0.0012241969 0.00046601883 -2.7933876e-05 0.002154273
0001f0 19 45 09 39 1d c7 0d bb 45 cc b4 39 37 a1 0d 3b
       0.00013091079 -0.0021633573 0.00034484468 0.0021610984
000200 46 52 c1 b9 ec 22 08 3b 7c aa bd 38 75 c8 d4 3a
       -0.00036873127 0.0020772768 9.0439775e-05 0.0016234057
000210 7e 3f 45 3a 4c 53 2c 3a 9b 78 e2 3a f5 f4 c4 ba
       0.00075244147 0.00065736915 0.0017278375 -0.0015026616
000220 55 d0 01 b9 01 60 75 b9 79 02 19 ba f4 3e bd ba
       -0.00012380008 -0.00023400785 -0.0005836855 -0.0014438317
000230 fe dc fc 3a 9e bd f0 ba 3e e0 cf b9 17 96 c5 ba
       0.0019291935 -0.0018367057 -0.0003964919 -0.0015074637
000240 74 30 77 3a 32 3b 81 3a 5a 02 37 bb 70 33 9f bb
       0.00094295223 0.000985956 -0.0027924986 -0.0048584267
000250 52 69 fa 3a a4 10 b4 39 c7 75 ba 3a 03 27 bf 37
       0.0019104874 0.00034344674 0.0014225774 2.278714e-05
000260 68 c2 f9 b9 51 61 0a 3a 37 4e b4 bb 86 47 39 ba
       -0.00047637825 0.00052787835 -0.005502488 -0.0007067848
000270 a4 7f c5 b9 c3 c6 4c bb ba 2a 4b b9 7d 98 ae 3b
       -0.00037669868 -0.00312464 -0.00019375506 0.0053282366
000280 8d f1 91 b8 ea 4d f4 3b 1c 32 3a bb e5 db 0a bb
       -6.959131e-05 0.007455577 -0.0028411215 -0.0021188196
000290 45 be 0b 3a 3a 34 1f bb f7 2a 10 39 52 aa 2f b8
       0.00053307816 -0.0024292604 0.00013748916 -4.1881874e-05
0002a0 3f ec b4 3a bb 8d 88 3b d9 55 bc 3b 39 46 0f 3b
       0.0013803317 0.004167286 0.0057475385 0.0021861924
0002b0 93 5f 16 3a 99 d4 e0 bb 26 ee d8 39 3a 5f 9e b9
       0.00057362876 -0.006861281 0.00041376165 -0.00030207058
0002c0 be 2e 3f b8 5f 78 5e 39 fe 42 cf 3a be a9 05 3b
       -4.558148e-05 0.00021216412 0.0015812812 0.0020395364
0002d0 bf 50 29 3a b1 d0 13 3a dc 1a 3c b9 f9 5d fd b8
       0.00064588705 0.00056387024 -0.00017939083 -0.00012081484
0002e0 cd 51 c9 b8 29 db 4b 38 f7 8a 1e 3b df db 37 3b
       -9.5996635e-05 4.860308e-05 0.0024191716 0.0028054637
0002f0 b8 cb 41 39 f7 02 85 3a 23 bc 46 3b 58 89 3b bb
       0.00018481805 0.0010147978 0.003032454 -0.0028615799
000300 47 d7 fb 3a 7b 9f 30 3b 05 d2 42 ba e9 aa a0 3a
       0.0019213938 0.0026950527 -0.0007431808 0.0012257966
000310 ab ef 40 bb f7 42 7f 3a 80 4d f1 ba 09 5a bd 3a
       -0.0029439728 0.00097374566 -0.0018409938 0.0014446388
000320 a6 39 e6 3a 1c 7b 9e 39 8a 62 29 3a 25 46 d1 39
       0.0017564788 0.00030227832 0.0006461522 0.00039915848
000330 cf 71 97 3a 38 a3 27 3b a4 db e5 b9 2d 8b 08 b9
       0.0011554303 0.0025579464 -0.0004384193 -0.00013021818
000340 50 af cb 39 06 b9 c0 3a 17 fd 5f 39 42 da ae ba
       0.00038849795 0.0014703579 0.0002136122 -0.0013340192
000350 06 c2 38 b9 21 79 19 39 14 fc 65 3b fc 7b c8 3a
       -0.00017619887 0.00014636341 0.0035092877 0.0015295739
000360 bb 6a 10 ba 26 7b 78 bb 91 2d 4f 3b 1b 13 38 3a
       -0.0005509068 -0.00379152 0.0031612853 0.000702189
000370 20 f7 82 3b b6 c8 d3 b9 84 e2 13 3b c9 43 bc 3a
       0.0039967448 -0.00040394597 0.0022565434 0.0014363463
000380 6e 8f 3e 3a 4d 63 e8 b9 f5 62 9a bb 47 82 0a 3b
       0.00072692975 -0.00044324473 -0.0047115036 0.002113478
000390 80 fc 2b ba 97 19 d6 39 61 5b e6 b8 05 27 97 38
       -0.0006560758 0.00040836327 -0.00010984275 7.207509e-05
0003a0 00 b2 e0 39 a8 a6 32 b9 e9 0f a2 3a 24 86 a5 39
       0.0004285723 -0.00017037487 0.0012364361 0.00031571195
0003b0 88 4d 0c ba a6 1f a2 3a 37 92 e5 3a 18 36 46 bb
       -0.0005352129 0.0012369051 0.0017514889 -0.0030244645
0003c0 e9 04 09 bb 3a b8 38 38 8e b0 03 39 b6 fe 09 ba
       -0.0020907468 4.4040593e-05 0.00012558905 -0.000526409
0003d0 9f 8e d6 ba d9 18 ae 39 c0 cc 18 bb 7e 0a c0 ba
       -0.0016369409 0.0003320638 -0.00233154 -0.0014651564
0003e0 03 36 48 3a a3 61 57 3a e4 c7 9c bb f9 c6 13 3b
       0.0007637443 0.0008216148 -0.004784571 0.0022549017
0003f0 77 8a c4 ba 0b 55 8e b8 8a c2 8b 3a 6e a0 df bb
       -0.0014994879 -6.786928e-05 0.0010662836 -0.0068245446

exp_avg_sq f4 [128, 4, 12]
000000 5e c5 2c 38 81 55 57 37 ef 9f 81 36 9c a0 fb 38
       4.1191808e-05 1.2834907e-05 3.8631183e-06 0.000119985285
000010 58 94 ff 37 ac f7 bb 37 7d d4 7f 38 59 fd c0 34
       3.0467447e-05 2.2407468e-05 6.0994633e-05 3.5947122e-07
000020 a9 58 fa 35 92 cd d2 37 89 69 cd 37 9c ee ab 36
       1.8652255e-06 2.5129677e-05 2.4487048e-05 5.123975e-06
000030 fe 7c 3f 38 01 74 96 37 16 89 0f 37 34 6d b4 37
       4.5654357e-05 1.7935412e-05 8.555382e-06 2.1508524e-05
000040 cd e0 6c 38 77 81 d2 37 3f ed bc 36 38 8c 81 36
       5.6476147e-05 2.5094238e-05 5.6304557e-06 3.860823e-06
000050 e8 9e 4c 38 57 7c f7 35 65 64 c1 37 b6 75 f6 36
       4.8785383e-05 1.8439122e-06 2.3054143e-05 7.3450747e-06
000060 b6 c9 0c 35 93 e9 d9 38 e3 78 1e 39 60 43 1d 37
       5.244759e-07 0.00010390873 0.00015113088 9.373616e-06
000070 16 db f2 37 a3 ea 9e 37 9d 23 5f 38 80 a6 2e 39
       2.8950668e-05 1.8944329e-05 5.320051e-05 0.00016655959
000080 ad 28 02 38 d2 c7 48 36 13 01 51 38 94 b4 d6 38
       3.1032298e-05 2.9918633e-06 4.9830483e-05 0.000102379505
000090 0c 74 ed 37 b4 5c 9b 36 7f a7 6c 34 5a d6 73 35
       2.830664e-05 4.630152e-06 2.2040147e-07 9.0836477e-07
0000a0 ba cb eb 35 da 51 3f 38 f5 ba 45 36 3f f4 51 36
       1.7568157e-06 4.561418e-05 2.946411e-06 3.1285597e-06
0000b0 3a 6e 2c 38 bd 1e d7 38 2c 9e 86 37 88 0a 95 37
       4.1110652e-05 0.00010257724 1.60477e-05 1.7767088e-05
0000c0 ec 7a 7f 36 97 89 c6 37 b0 44 10 33 f2 c1 bb 36
       3.806951e-06 2.366751e-05 3.3590084e-08 5.5956125e-06
0000d0 86 56 f8 34 bd 86 a7 37 5d a0 23 36 bc 58 9c 34
       4.6256554e-07 1.9970694e-05 2.4382236e-06 2.9121827e-07
0000e0 61 9a d9 35 81 9c 59 33 2e 08 e3 35 0f 9a e0 35
       1.621269e-06 5.066659e-08 1.6915199e-06 1.6734137e-06
0000f0 98 c6 0c 38 78 8f c3 35 7a fc 16 37 23 de 73 34
       3.3563556e-05 1.4570387e-06 8.999481e-06 2.2711951e-07
000100 8b 57 47 37 c2 99 28 36 6c 48 1e 38 c3 01 c0 37
       1.1881707e-05 2.512345e-06 3.7737584e-05 2.2889004e-05
000110 43 c1 b9 36 eb 4e 52 38 e1 4a 72 37 57 1a 9f 36
       5.5359283e-06 5.01414e-05 1.4441758e-05 4.7416356e-06
000120 ea a1 60 35 ce 52 df 36 ea c4 ed 37 dd 70 9a 37
       8.368212e-07 6.6555576e-06 2.8344297e-05 1.8410787e-05
000130 87 de 83 37 41 09 cc 36 fa 21 b1 35 63 98 bc 34
       1.572004e-05 6.080751e-06 1.3197416e-06 3.5128605e-07
000140 73 d7 19 34 81 9c 48 34 53 e1 04 37 7f 0c 7f 37
       1.4327615e-07 1.8683387e-07 7.9202755e-06 1.5202094e-05
000150 e5 13 a4 35 a1 ac 0e 36 0a 21 a3 34 e1 10 10 37
       1.2224742e-06 2.1260132e-06 3.0385155e-07 8.586999e-06
000160 c4 26 6d 36 85 03 88 36 2f 6d c5 35 b2 bb 70 37
       3.5338317e-06 4.0535256e-06 1.470942e-06 1.4348816e-05
000170 1e 41 0d 38 82 50 fc 34 24 34 ea 36 b3 f2 2d 37
       3.3677665e-05 4.6997235e-07 6.9798134e-06 1.0368111e-05
000180 c4 e5 f8 36 e7 c5 8f 37 fd 7e 35 38 d1 ad ac 35
       7.417724e-06 1.7139084e-05 4.327203e-05 1.2865586e-06
000190 71 0f a8 37 d7 4a 2e 37 58 f7 77 36 b1 76 2e 35
       2.0034351e-05 1.0388633e-05 3.6949841e-06 6.499277e-07
0001a0 0a 86 62 37 25 66 95 33 83 2a b2 36 b6 e8 b3 32
       1.3501858e-05 6.956933e-08 5.3097624e-06 2.0944167e-08
0001b0 96 55 21 37 b8 88 5d 37 1d ff 83 35 7f 21 13 35
       9.616275e-06 1.3204459e-05 9.834508e-07 5.481051e-07
0001c0 19 82 5e 37 15 bc 71 37 87 28 86 36 68 3f c5 34
       1.3262522e-05 1.4408511e-05 3.998229e-06 3.6740244e-07
0001d0 2a a4 3c 36 b2 3b 96 36 74 ed 5b 34 33 25 21 37
       2.810974e-06 4.477298e-06 2.048235e-07 9.605009e-06
0001e0 15 bd 0e 38 73 f6 aa 37 ee 75 83 36 ef 5e 60 38
       3.4031535e-05 2.0380341e-05 3.917833e-06 5.3494176e-05
0001f0 3a 2c 82 37 5d 90 00 38 48 98 12 36 e6 37 85 38
       1.5517802e-05 3.0652027e-05 2.1844335e-06 6.352346e-05
000200 75 4e 06 37 c9 4c 92 38 ae 75 34 36 34 13 5b 38
       8.00529e-06 6.976125e-05 2.6890589e-06 5.2231553e-05
000210 f7 d9 af 36 fb e0 87 36 f8 4f 93 37 dd 8f 4e 37
       5.240781e-06 4.0495047e-06 1.7561004e-05 1.2312053e-05
000220 f2 4a 06 37 f6 44 ca 34 3f ee 7c 38 aa 96 1f 37
       8.004472e-06 3.7675608e-07 6.0303366e-05 9.512218e-06
000230 67 a9 ee 37 29 7b 8d 35 cf 36 78 38 61 a3 9f 36
       2.8450695e-05 1.0541163e-06 5.9178852e-05 4.757589e-06
000240 f2 53 43 38 5a 3c c4 37 ee 2a b2 39 88 ef 44 39
       4.6569803e-05 2.3393124e-05 0.0003398279 0.00018781249
000250 e7 56 5c 3a d7 55 be 35 27 63 1f 38 cf ed 83 37
       0.00084052834 1.4181086e-06 3.8000897e-05 1.5727155e-05
000260 9a e5 2d 37 41 7e 0c 37 d6 98 09 39 87 4f f6 38
       1.0365062e-05 8.374046e-06 0.00013122274 0.00011745007
000270 d8 cd ae 39 83 83 d8 38 ad b4 72 37 a1 26 a6 39
       0.00033341232 0.000103241786 1.4466391e-05 0.00031690768
000280 71 32 26 38 0e 95 59 3a b4 c3 99 39 ca 2f 2c 3a
       3.962446e-05 0.0008300104 0.00029328244 0.00065684004
000290 42 9d 27 37 93 c0 0c 39 d3 5f ce 36 cc c7 ea 38
       9.99059e-06 0.0001342318 6.150434e-06 0.000111952046
0002a0 11 27 4a 39 37 cf d0 39 62 9b 87 39 03 19 57 38
       0.00019278775 0.0003982724 0.00025864976 5.128329e-05
0002b0 7f 20 10 36 09 04 1e 38 19 7c 71 36 7f 34 94 37
       2.1476587e-06 3.7673894e-05 3.5984033e-06 1.766742e-05
0002c0 53 f8 75 36 56 2d fd 38 c2 f7 b3 39 fd bf 29 39
       3.6652389e-06 0.000120724246 0.00034326134 0.00016188617
0002d0 97 26 5d 38 d1 ae ce 38 39 d9 f8 37 74 86 5c 38
       5.2726446e-05 9.8554076e-05 2.9665056e-05 5.2577307e-05
0002e0 5f b6 5d 37 1f cc 1a 35 a2 3d 9e 39 21 3f 98 38
       1.3215088e-05 5.7666506e-07 0.00030182028 7.2596835e-05
0002f0 cc 59 62 3a 96 94 a0 39 0e fb e2 38 ad e4 02 39
       0.00086345966 0.00030628283 0.00010823282 0.00012482954
000300 35 64 77 38 3c 60 dd 38 f6 63 49 39 7a da 14 37
       5.8982714e-05 0.00010556026 0.00019206092 8.8723555e-06
000310 b3 04 d5 38 47 7d 6c 38 59 87 c8 39 4b e5 50 37
       0.00010157507 5.638346e-05 0.00038247815 1.24511525e-05
000320 67 34 0c 38 6b 57 7e 38 d5 94 c4 36 d5 3f ac 37
       3.3427405e-05 6.0639733e-05 5.8585815e-06 2.0533722e-05
000330 06 0c 9e 39 2b a9 04 39 8b 5d 0e 38 14 1c 33 37
       0.00030145067 0.00012651521 3.3942557e-05 1.0675769e-05
000340 96 58 be 35 b3 14 29 38 2f f1 c1 36 96 2f d1 39
       1.4181885e-06 4.0312018e-05 5.7799257e-06 0.0003989904
000350 d2 e9 b4 39 26 52 84 39 9d 1b a8 39 d9 de 39 38
       0.00034506485 0.00025238207 0.0003206403 4.431498e-05
000360 c5 9c 9f 37 1d 44 95 38 be 42 f9 38 3c fb d2 39
       1.9027279e-05 7.117561e-05 0.00011885677 0.00040241505
000370 16 0d 67 39 4e 9f 81 39 58 d6 46 37 b5 ff 32 37
       0.00022034752 0.0002472349 1.18516255e-05 1.0669163e-05
000380 e1 6f 06 36 fa fc 2d 37 40 0b 18 38 7f 3b 8a 38
       2.0032678e-06 1.0370504e-05 3.62501e-05 6.591435e-05
000390 82 e2 06 37 b5 1c 39 37 48 8a e8 36 63 99 3b 37
       8.03976e-06 1.1033543e-05 6.930237e-06 1.1181782e-05
0003a0 88 69 b5 37 93 a3 27 36 62 66 63 37 95 5b 02 36
       2.1626023e-05 2.4980152e-06 1.3554092e-05 1.9424817e-06
0003b0 5d 58 10 38 37 6b e1 37 3b 01 cf 37 71 05 2f 39
       3.441457e-05 2.6872016e-05 2.4676896e-05 0.00016691328
0003c0 8e 1c aa 39 eb 02 b7 37 f9 c5 01 38 9e 44 1b 38
       0.00032446202 2.1816659e-05 3.0940373e-05 3.7018784e-05
0003d0 73 c3 08 38 f0 8e 97 39 85 05 87 38 03 f3 a1 38
       3.2606953e-05 0.0002890746 6.43833e-05 7.722343e-05
0003e0 c4 fc 56 39 ff a5 57 39 15 74 2c 39 1f 63 41 39
       0.00020502793 0.00020565836 0.00016446442 0.0001844284
0003f0 8c 45 cb 38 02 40 3a 38 5b 25 de 39 84 05 d7 39
       9.6927484e-05 4.4405468e-05 0.00042370972 0.00041012105

exp_avg f4 [128]
000000 68 91 93 ba e6 b6 2d 3a 45 99 5d 3a 7d e6 29 3b
       -0.0011258544 0.000662668 0.000845332 0.0025924735
000010 82 15 f5 3a 5f 8c f4 ba 88 ed 79 3a 98 94 26 3a
       0.0018698426 -0.0018657557 0.0009533991 0.00063545397
000020 49 ca 95 3a 5c fb b8 ba ed d1 44 3b b8 83 1d ba
       0.0011428084 -0.0014112997 0.0030032352 -0.00060087023
000030 e4 21 50 ba 91 9a 9f 3a 1e 45 a2 ba d2 a1 01 bb
       -0.00079396204 0.0012176802 -0.0012380218 -0.001978029
000040 df cb 0d 3a 6e c9 ae 3a cc 0b fd b9 28 55 c5 ba
       0.00054091023 0.0013335177 -0.0004826471 -0.0015055286
000050 6d 06 c8 3a 51 57 0d ba c6 c2 f3 ba 60 a2 84 ba
       0.0015260704 -0.00053917343 -0.0018597476 -0.0010119192
000060 55 52 b9 ba 2f 0c be 3a 4c 09 9b 3a 6b 7d 5b 3a
       -0.0014138917 0.0014499481 0.0011828332 0.0008372876
000070 dc e8 2a 3a ea 45 b5 3a de ee ae ba 40 ca b6 ba
       0.0006519684 0.001383004 -0.0013346334 -0.0013945773
000080 1d 04 49 3a 49 05 12 3b 78 d4 b7 ba 14 5e 93 3a
       0.00076681544 0.0022280982 -0.0014025113 0.0011243247
000090 d7 6a ca ba d4 b0 cb 3a 31 b9 f2 ba 55 8d ae ba
       -0.0015443218 0.001554037 -0.0018518326 -0.0013317267
0000a0 eb db 92 3a ab 2a c0 ba 26 33 0a 3b 38 5e 92 ba
       0.0011204457 -0.0014661154 0.0021087616 -0.0011166995
0000b0 66 64 ea ba b7 24 a9 3a 3c 63 bc 3a 0c 36 bb ba
       -0.0017882704 0.0012904619 0.0014372836 -0.0014283075
0000c0 43 ea 57 3b 58 40 8b ba 6f 6a bf ba 3b d0 26 3b
       0.0032946027 -0.0010624034 -0.0014603863 0.0025453705
0000d0 73 15 b4 3a 3c 20 92 ba 0c 60 9d 3a 9f 1f a6 3a
       0.0013739303 -0.0011148523 0.0012006774 0.0012674219
0000e0 0b ff d7 3a c5 8b 08 bb ac 98 1e 3b ba ef fb 3a
       0.0016479207 -0.0020835262 0.0024199886 0.0019221224
0000f0 65 13 d7 ba c3 bc c5 ba e3 d9 0d ba 20 ae aa ba
       -0.0016408978 -0.0015086163 -0.0005411191 -0.0013021864
000100 78 6e 43 ba 22 b5 3b ba e6 1b 0c bb fd 40 99 ba
       -0.0007455121 -0.0007160475 -0.0021378933 -0.0011692342
000110 4e c1 68 ba ba 13 57 ba 15 55 b6 ba af 97 b2 3a
       -0.00088789023 -0.00082045386 -0.0013910854 0.0013625527
000120 30 32 dd ba ad fe 55 3a 88 51 18 3b 2b 30 d9 3a
       -0.0016875919 0.0008163255 0.0023241956 0.0016570141
000130 77 82 c8 3a 1a d9 93 3a 8e 1a d7 ba b3 e1 8a 3a
       0.0015297671 0.0011279911 -0.0016411112 0.0010595828
000140 30 0e 0b bb c3 37 36 3a d7 a5 87 3a 1a 21 b2 3a
       -0.0021218173 0.0006951058 0.0010349107 0.0013590187
000150 00 eb ca 3a 85 3e 64 ba a7 36 c7 3a 10 f1 9c 3a
       0.0015481412 -0.0008706826 0.0015198783 0.0011973698
000160 00 e2 9e ba 0d b5 ea ba 1c 5e a6 3a 94 40 19 3b
       -0.0012121797 -0.001790674 0.0012692842 0.0023384439
000170 26 88 08 3b a5 c4 b9 3a 2b 8a a3 3a 75 87 3e 3b
       0.0020833104 0.0014172985 0.001247709 0.0029072438
000180 8f 9b 69 ba 93 c1 29 3a b4 91 7f ba b2 72 8f ba
       -0.00089114247 0.0006475683 -0.00097491895 -0.0010944216
000190 17 b2 ea ba d8 e9 18 bb 47 55 a9 ba a8 1e 0e 3b
       -0.0017905858 -0.002333274 -0.0012919091 0.0021685753
0001a0 a3 0e c8 3a fe e9 b1 3a 54 ad 9d ba a3 8c a2 ba
       0.0015263151 0.0013573763 -0.0012029805 -0.0012401532
0001b0 c4 8b 8d ba e9 a2 b6 ba 3f dd b9 b9 1e bd f5 b9
       -0.00107991 -0.0013934049 -0.0003545079 -0.00046870945
0001c0 c3 2a 9c 3a 98 85 f4 3a 8b 3f 58 ba 1a de 05 bb
       0.00119146 0.0018655537 -0.0008249215 -0.0020426572
0001d0 86 15 98 3a a4 58 47 3b a3 50 45 ba 3a 64 a2 3a
       0.0011603094 0.0030417824 -0.00075269694 0.0012389489
0001e0 3c 02 a6 3a eb bd c1 ba ae a4 a9 ba 2b 60 cd ba
       0.0012665461 -0.0014781331 -0.0012942755 -0.0015668919
0001f0 7f 5f 81 3a f7 47 f6 b9 e6 61 7d ba 33 3d 63 ba
       0.0009870379 -0.00046974394 -0.0009665772 -0.0008668482

exp_avg_sq f4 [128]
000000 b1 ce 4f 39 28 fa 5e 38 d9 c0 ba 38 f6 60 84 3a
       0.00019818057 5.31619e-05 8.905092e-05 0.0010099697
000010 42 0a 08 3a ef d2 1c 3a ab bd ad 38 a1 bc 09 38
       0.0005189517 0.0005982359 8.284611e-05 3.283902e-05
000020 d4 7b 1c 39 f8 5b b7 39 3f 3f c0 3a da 01 69 38
       0.00014923449 0.00034973002 0.0014667286 5.5553253e-05
000030 0d f9 d0 38 bd 94 76 39 31 04 55 39 13 cc 13 3a
       9.964602e-05 0.00023515798 0.00020314824 0.00056380144
000040 c0 79 c0 37 17 96 6e 39 32 b0 4f 38 8d b9 ad 39
       2.2944878e-05 0.00022753362 4.951674e-05 0.00033135377
000050 b1 a6 3d 39 46 3a 02 38 ea 4c 09 3a 9b 9e 02 39
       0.00018086542 3.1048687e-05 0.00052375963 0.00012456851
000060 c7 35 8d 39 1d d6 80 39 fb 65 02 39 b2 2a cc 38
       0.00026933683 0.0002457359 0.00012435757 9.735431e-05
000070 d7 3d f1 37 e7 e2 75 39 3f e4 93 39 98 3b 95 39
       2.8758235e-05 0.00023449548 0.00028208081 0.00028463895
000080 9d 0b 89 38 2b fe 2e 3a 33 5f b8 39 e3 8b f0 38
       6.534832e-05 0.0006675447 0.00035166144 0.00011470148
000090 0a 16 c5 39 c9 26 79 39 77 a8 fc 39 cf 30 bf 39
       0.00037591188 0.00023760939 0.00048190702 0.00036466724
0000a0 cd 6d 01 39 8d 3b ae 39 ff bf 27 3a d0 cf 56 39
       0.00012343303 0.00033232235 0.0006399154 0.00020486047
0000b0 64 69 06 3a cd d7 65 39 5d 9a 80 39 f9 84 bb 39
       0.0005127399 0.00021919534 0.00024529072 0.00035766492
0000c0 a2 dc aa 3a dd 33 2e 39 bf dc db 39 92 f4 84 3a
       0.0013035724 0.00016613254 0.00041935404 0.0010143688
0000d0 ac 94 89 39 2d 56 50 39 e7 ba 76 39 7f 55 62 39
       0.00026241445 0.00019868529 0.00023530015 0.0002158489
0000e0 eb 4f 80 39 42 02 09 3a 1c 91 65 3a b2 fc f6 39
       0.00024473606 0.00052264717 0.000875728 0.0004710905
0000f0 04 c6 bf 39 18 ef b4 39 ce 07 cf 37 f3 e3 7f 39
       0.00036577892 0.00034510414 2.4679957e-05 0.00024403613
000100 78 93 69 38 ca 0d 96 38 21 ce 5a 3a f5 86 57 39
       5.568887e-05 7.155126e-05 0.00083467556 0.00020554273
000110 7c 49 ba 38 8a af 18 39 7e ca 90 39 51 6b 9e 39
       8.882859e-05 0.00014561243 0.0002761669 0.00030216065
000120 ac b0 04 3a 38 50 38 38 32 a4 4f 3a 5d f4 93 39
       0.00050617266 4.3943728e-05 0.00079208903 0.0002822009
000130 51 3e bb 39 32 96 12 39 34 56 fb 39 b7 d5 10 39
       0.0003571385 0.00013979597 0.00047938677 0.00013812525
000140 52 65 21 3a e7 15 55 38 d8 87 27 39 3d 56 60 39
       0.00061567605 5.0803555e-05 0.00015976967 0.00021394431
000150 fa ca b8 39 6a 4d d7 38 ef a3 81 39 ec 2f 36 39
       0.00035246444 0.000102664184 0.00024726937 0.00017374725
000160 e8 70 7b 39 59 7e ca 39 8d ae 3c 39 62 d4 38 3a
       0.00023979286 0.0003862258 0.00017994102 0.00070506905
000170 22 15 1c 3a be 76 80 39 e0 15 6c 39 3c 94 9f 3a
       0.0005954077 0.00024502532 0.00022514863 0.0012174915
000180 f7 41 bd 38 49 4c 0f 38 6f 37 23 39 74 45 41 39
       9.024509e-05 3.4164903e-05 0.00015565542 0.00018431788
000190 fe 1f 05 3a 00 23 83 3a 23 70 83 39 0a 03 1a 3a
       0.00050783146 0.0010004938 0.00025069815 0.00058750866
0001a0 4e bd 85 39 fa fc 5b 39 b4 29 75 39 03 65 86 39
       0.0002550878 0.00020979709 0.00023380556 0.0002563373
0001b0 34 12 59 39 c8 6c b5 39 16 23 72 37 f4 87 20 38
       0.00020701514 0.0003460406 1.4432493e-05 3.827359e-05
0001c0 8d cb 1d 39 40 bc 01 3a 4b da 92 38 4c 30 1b 3a
       0.00015048515 0.0004949011 7.002483e-05 0.00059199776
0001d0 d3 35 41 39 81 6d aa 3a a7 25 aa 38 ce c1 3d 39
       0.00018425965 0.0013002605 8.113245e-05 0.00018096642
0001e0 65 35 45 39 d2 61 cb 39 6c 4f 80 39 fa 86 d9 39
       0.00018807275 0.0003879206 0.00024473236 0.0004149003
0001f0 66 55 10 39 06 ae 2a 38 a2 dd 2d 39 60 19 12 39
       0.00013764724 4.069323e-05 0.0001658113 0.00013933098
