our-vTR/2_fold_lightning_logs/dataset1/fold_0/version_4/checkpoints/epoch=0-step=20_fold0.ckpt (torch, 132113 bytes, 18 tensors)

conv1d.weight f4 [128, 4, 12]
0	0xbde6b2c4	-0.112645656
1	0xbd4a02dc	-0.049319133
2	0x3ca18604	0.019717224
3	0x3e06f50d	0.13179417
4	0xbe093009	-0.1339723
5	0xbd97eeef	-0.0741862
6	0x3d9655ee	0.073406085
7	0x3c596118	0.013267778
8	0x3db2eceb	0.08736595
9	0xbd040ab2	-0.032236762
10	0x3cea9995	0.028637687
11	0x3e04c9d2	0.12967613
12	0xbdb78b19	-0.08962078
13	0x3d95c721	0.073133714
14	0xbd70dd11	-0.058804575
15	0x3c422aa6	0.0118509885
16	0x3d0d64cd	0.03451996
17	0xbd1276ec	-0.035757944
18	0x3ddd3696	0.10801427
19	0x3da21693	0.07914462
20	0xbdf4a833	-0.11946144
21	0x3dd8abea	0.10579665
22	0x3dc3dc46	0.09563498
23	0x3d3fabf5	0.04679485
24	0xbd27386c	-0.040825292
25	0x3d9f6274	0.0778245
26	0x3dfa9213	0.12234893
27	0xbdef3bcb	-0.116813265
28	0xbcfde0f5	-0.030991057
29	0xbd3eab64	-0.04655017
30	0x3dc1e745	0.09467939
31	0xbdfac1c3	-0.12243988
32	0xbda7d833	-0.081955336
33	0xbdb0f82c	-0.08641085
34	0xbb945e07	-0.0045278105
35	0x3d82c3b9	0.063849874
36	0xbd6dbb73	-0.058040094
37	0x3d75356c	0.0598654
38	0xbe0925d2	-0.13393334
39	0x3d6e6af8	0.058207482
40	0x3c6d2c88	0.014475949
41	0xbd87f8db	-0.06639262
42	0xbd954714	-0.07288948
43	0xbde7e019	-0.1132204
44	0xbd833757	-0.064070396
45	0x3d98b991	0.07457269
46	0x3d97cbdd	0.07411931
47	0x3d43e3f1	0.047824804
48	0x3e0bf0c1	0.13666059
49	0x3dfd1f06	0.12359433
50	0xbdd1db61	-0.10246921
51	0x3e0badd6	0.13640532
52	0x3e13564e	0.14388391
53	0xbbb3c335	-0.005485917
54	0xbda75218	-0.08169955
55	0xbdc59f60	-0.09649539
56	0x3cc55743	0.024089461
57	0x3db298cc	0.0872055
58	0x3dcab9f9	0.09898753
59	0xbcb1994b	-0.021679541
60	0x3c318b21	0.010836394
61	0xbd8d3de6	-0.06896572
62	0xbe0f2da3	-0.13982253
63	0x3ddba39b	0.10724565
64	0x3dddbcc2	0.10827018
65	0x3dfa056e	0.12208067
66	0x3cf8bad2	0.03036252
67	0x3dc4ac0f	0.0960313
68	0xbd5a0c78	-0.053234547
69	0x3da7b9fa	0.08189769
70	0x3dc60429	0.09668762
71	0xbd3c593e	-0.045983545
72	0x3bbfd370	0.0058540627
73	0xbddbdbb0	-0.107352614
74	0xbd9f0b11	-0.077657826
75	0x3c8cef57	0.01720397
76	0x3e01f641	0.12691595
77	0x3d9b3a11	0.07579435
78	0xbe1303f3	-0.14356975
79	0x3de6b7be	0.11265515
80	0x3dc993d0	0.09842646
81	0xbdbdf4b2	-0.092751876
82	0xbdbe837f	-0.09302425
83	0xbd1c9ac0	-0.03823352
84	0x3dd6fe9f	0.10497784
85	0x3d921205	0.07132343
86	0xbddccd78	-0.107813776
87	0x3dd767e5	0.10517863
88	0x3e0638b8	0.13107574
89	0x3de4a150	0.111635804
90	0xbd8c3587	-0.06846147
91	0x3da54ee2	0.08071686
92	0x3cd53f9a	0.026031304
93	0xbe13a251	-0.14417388
94	0xbd6c2962	-0.057656653
95	0x3dbf1415	0.09330002
96	0xbe039870	-0.12851119
97	0xbe0110d4	-0.12604076
98	0xbe1c37f2	-0.15255716
99	0x3db628ff	0.08894538
100	0x3e091d5b	0.13390104
101	0xbdfdb9b6	-0.12388937
102	0xbc08890b	-0.008333455
103	0xbd0f6105	-0.035004634
104	0xbce00712	-0.027347121
105	0xbccc6923	-0.024952477
106	0x3d4f1527	0.05055728
107	0x3dc8d229	0.0980571
108	0xbd8fff2c	-0.07031092
109	0x3df8e462	0.121529356
110	0x3da52d2a	0.08065255
111	0xbdd67f0d	-0.10473452
112	0xbd971942	-0.073778644
113	0x3ccc0842	0.024906281
114	0x3dcadb87	0.09905153
115	0xbe08c9e0	-0.13358259
116	0xbd21a5e3	-0.039464843
117	0x3df82697	0.121167354
118	0xbdb8b4ee	-0.090188846
119	0x3caef57b	0.021357289
120	0xbc924565	-0.017855356
121	0xbd5620f0	-0.052277505
122	0x3d9032e9	0.0704096
123	0x3c9c3c65	0.019071767
124	0x3d93222e	0.07184254
125	0x3db5f9e1	0.08885551
126	0x3d55dc16	0.052211843
127	0xbd88d4ee	-0.06681238
128	0x3dfb7075	0.12277309
129	0x3d82ca7a	0.063862756
130	0x3d5e35d9	0.054250572
131	0xbd213ee0	-0.039366603
132	0xbe113ca6	-0.14183292
133	0xbd4f09ee	-0.05054658
134	0x3d37ecca	0.044903554
135	0xbca0a91d	-0.01961189
136	0xbe04b3f1	-0.12959267
137	0xbd54e7b2	-0.051978774
138	0xbc72076b	-0.014772276
139	0xbd9acaa8	-0.07558185
140	0xbd8eece5	-0.06978778
141	0xbc0f0d1a	-0.008731151
142	0xbd19a318	-0.037509054
143	0xbda870e0	-0.08224654
144	0x3df8aa03	0.12141802
145	0x3cd78ad5	0.026311317
146	0x3e02cb66	0.12772903
147	0x3cb34c04	0.021886833
148	0x3c879e08	0.016554847
149	0xbd5792d9	-0.05263028
150	0xba171d7e	-0.00057645875
151	0x3e0ed201	0.13947298
152	0xbd783020	-0.06059277
153	0x3e16ce7b	0.14727204
154	0x3e0d5f6b	0.1380593
155	0x3d93b20f	0.07211696
156	0xbdeb3820	-0.11485314
157	0xbd9a7390	-0.07541573
158	0x3dd3e742	0.10346843
159	0xbd7b1412	-0.061298437
160	0xbdbd4a66	-0.09242706
161	0xbe0f22bf	-0.13978098
162	0x3da24239	0.07922787
163	0xbdb080da	-0.086183265
164	0xbe0118da	-0.12607136
165	0xbe050768	-0.12991107
166	0x3bf01427	0.007326621
167	0x3ccbd9c2	0.024884108
168	0xbdd9e6ee	-0.106397495
169	0x3d7c12cf	0.061541375
170	0x3da53474	0.08066645
171	0x3e169391	0.1470473
172	0x3de51a7f	0.11186694
173	0xbc115fd4	-0.008872945
174	0xbd82ed86	-0.0639296
175	0xbdae75f9	-0.08518595
176	0x3cb0fd48	0.021605149
177	0x3df6a2fb	0.12042805
178	0xbe175e3e	-0.14782044
179	0xbdef4e84	-0.116848975
180	0x3c44a138	0.012001328
181	0x3c958371	0.018251153
182	0x3d7f2a37	0.06229612
183	0x3b7ff101	0.0039053562
184	0xbd75ce50	-0.060011208
185	0x3d3c82d0	0.04602319
186	0xbcd612f9	-0.026132094
187	0xbdafaddc	-0.08578083
188	0x3a54bc10	0.00081151817
189	0x3cdf98bb	0.027294507
190	0x3bda92c3	0.0066703274
191	0xbcb27fe2	-0.021789495
192	0xbc0d9776	-0.008642068
193	0xbe0d1a20	-0.13779497
194	0xbd9b5a5c	-0.07585594
195	0x3e09197a	0.13388625
196	0xbcbe69bc	-0.023243777
197	0xbda4f7bf	-0.08055066
198	0x3e09663b	0.13417904
199	0xbd1b645b	-0.037937503
200	0xbce1bfa9	-0.027557211
201	0x3df58ff3	0.11990347
202	0xbce75c35	-0.02824221
203	0xbde4cca8	-0.111718476
204	0xbcf74bb9	-0.030187475
205	0xbdfbb1bf	-0.12289762
206	0x3d8ea642	0.06965305
207	0x3c0dea7a	0.008661861
208	0x3e046c48	0.12931931
209	0xbc55b162	-0.01304278
210	0x3dfd851f	0.123789065
211	0xbdab4f90	-0.08364785
212	0xbca80bf0	-0.020513505
213	0xbcfa27fa	-0.03053664
214	0xbdd62514	-0.10456291
215	0xbd847a39	-0.064686246
216	0x3e067254	0.1312955
217	0x3d8db163	0.069185995
218	0x3dbaf2b5	0.09128324
219	0x3dd59f07	0.10430723
220	0xbd769ae2	-0.0602063
221	0x3c363e3c	0.011123236
222	0x3da4cf2b	0.08047327
223	0x3dc9da1d	0.09856055
224	0xbb8e4a29	-0.0043423367
225	0xbc8ca812	-0.017169986
226	0x3d470184	0.04858543
227	0xbe164898	-0.1467613
228	0xbe004360	-0.12525702
229	0x3d9de233	0.0770916
230	0xbcbe2e19	-0.02321534
231	0x3cac75df	0.021052299
232	0x3df08152	0.11743416
233	0x3c5b2a9c	0.013376858
234	0xbd8984d8	-0.06714791
235	0xbd5d5103	-0.054032337
236	0x3d9fa743	0.077955745
237	0xbda8c4c1	-0.08240653
238	0xbce6a922	-0.02815682
239	0xbbf18438	-0.007370498
240	0x3e0fbdad	0.140372
241	0xbdd5b29e	-0.10434459
242	0x3d9102ea	0.07080634
243	0x3de468a0	0.11152768
244	0x3d9ed467	0.07755356
245	0xbd644bab	-0.055736225
246	0xbc59e02b	-0.013298075
247	0xbd71931c	-0.058978185
248	0xbdbe3b31	-0.092886336
249	0xbd13ea85	-0.036112327
250	0x3d271204	0.040788665
251	0x3c9df60d	0.019282365
252	0xbd1811d7	-0.03712639
253	0xbd9f5048	-0.07778984
254	0x3ccaf8ac	0.02477678
255	0xbdc22b97	-0.0948097

conv1d.bias f4 [128]
0	0x3c722646	0.014779633
1	0xbe08c7e6	-0.13357505
2	0x3dd8e420	0.105903864
3	0xbd6008c9	-0.05469588
4	0x3e0561ec	0.13025635
5	0x3db0ea82	0.08638479
6	0xbdbfa692	-0.09357943
7	0xbdbd9e2d	-0.09258685
8	0xbcd5c34c	-0.026094101
9	0x3c91b18c	0.017784856
10	0x3d30924f	0.04310828
11	0x3df47cb7	0.1193785
12	0x3db5c8bf	0.0887618
13	0xbe18c106	-0.14917383
14	0xbde240e2	-0.11047532
15	0xbdb11a24	-0.08647564
16	0x3d5944f8	0.05304429
17	0x3dc33ce5	0.09533099
18	0xbd8b27f9	-0.067947336
19	0x3dbd1be1	0.09233833
20	0x3dad2b60	0.08455539
21	0x3de31ccf	0.11089479
22	0x3d6be332	0.057589717
23	0x3d6f9190	0.05848843
24	0x3b801d6b	0.003909757
25	0x3e0eaa76	0.13932213
26	0xbe069740	-0.13143635
27	0x3dc5d4d7	0.096597366
28	0x3d9c221b	0.076236926
29	0xbdbc9a70	-0.09209144
30	0xbe0e0059	-0.1386732
31	0xbe0bd4d6	-0.13655409
32	0xbc066783	-0.00820339
33	0x3d000db4	0.03126307
34	0x3bb121d7	0.0054056454
35	0x3c005c1a	0.007834459
36	0xbc9b661f	-0.018969594
37	0x3d95956c	0.073038906
38	0x3b967ea1	0.004592732
39	0x3d537bfd	0.051631916
40	0x3dcea3ba	0.10089822
41	0xbdf96ed2	-0.121793404
42	0xbe05fc8b	-0.13084619
43	0x3d64d5f9	0.055868123
44	0x3c8c0986	0.017094385
45	0x3dbfd8a4	0.09367493
46	0xbddf1619	-0.10892887
47	0x3dfe22e8	0.124090016
48	0x3d5ad232	0.053423114
49	0x3d6ea3a3	0.058261525
50	0x3de0f58d	0.10984335
51	0xbd1ddee5	-0.038542647
52	0xbd74e0f4	-0.059784845
53	0x3d11742f	0.035511192
54	0x3d319959	0.043359134
55	0xbe1576ae	-0.14596054
56	0x3dcd4c7a	0.10024352
57	0x3d84a8f0	0.06477535
58	0x3d86905d	0.06570504
59	0x3dc6fc0d	0.097160436
60	0x3ddda88b	0.10823163
61	0x3c300af1	0.010744796
62	0xbdfe9253	-0.12430253
63	0x3dc492ac	0.09598288
64	0x3dc5e701	0.09663201
65	0x3e0d5e81	0.13805582
66	0x3d89552c	0.06705698
67	0x3ce331ba	0.027733672
68	0x3d899c11	0.067192204
69	0x3cbee6c8	0.023303404
70	0x3e034061	0.12817527
71	0x3d78f73c	0.060782656
72	0xbd8261df	-0.06366324
73	0xbb3f6895	-0.0029206623
74	0xbdff3847	-0.12461906
75	0x3de51499	0.11185569
76	0xbd86fd4b	-0.065912805
77	0xbd14bbbf	-0.03631186
78	0xbde7b8ff	-0.11314582
79	0xbe0a302f	-0.13494943
80	0xbd0793ec	-0.033100054
81	0xbdb7c3f9	-0.08972926
82	0x3b9a38e5	0.0047064894
83	0xbdea44fa	-0.114389375
84	0xbde94656	-0.11390369
85	0xbde1282d	-0.10993991
86	0xbd3360f3	-0.04379363
87	0x3d7f1e0d	0.062284518
88	0x3dad936a	0.084753826
89	0x3c5bf1da	0.013424361
90	0xbda4a690	-0.08039582
91	0xbdf8324f	-0.121189706
92	0x3df98958	0.12184399
93	0xbdbc6ae6	-0.09200077
94	0x3d8a2c7c	0.06746766
95	0x3dacb149	0.08432252
96	0xbe0dd2cc	-0.13849944
97	0xbddd2b34	-0.10799256
98	0xbe04c4e5	-0.12965734
99	0x3cb3ed61	0.021963777
100	0x3d0c28e3	0.03421868
101	0x3d110b09	0.035410915
102	0xbd60dd43	-0.05489851
103	0xbd9b9674	-0.07597056
104	0x3dd769a2	0.10518195
105	0x3dadaa79	0.08479781
106	0x3d859f41	0.06524516
107	0x3c3f15fe	0.011662958
108	0x3da206fc	0.079114884
109	0xbdae42fe	-0.085088715
110	0x3daf8ff0	0.08572376
111	0x3d8f5a60	0.069996595
112	0xbda4c487	-0.08045297
113	0x3d613ef9	0.054991696
114	0xbdb8c2da	-0.0902154
115	0x3db147b2	0.08656253
116	0x3dd59f31	0.10430754
117	0xbdeff018	-0.11715716
118	0xbc8528c6	-0.016254794
119	0x3dc03f59	0.093870826
120	0xbe03d0d4	-0.1287263
121	0x3d3e7263	0.046495806
122	0xbcea8983	-0.028630024
123	0xbd7553a4	-0.05989422
124	0x3c97fcf8	0.018553242
125	0x3d5bdc16	0.053676687
126	0xbdc7e61a	-0.09760685
127	0xbe0ed149	-0.13947023

linears.0.weight f4 [32, 128]
0	0x39aeb44e	0.00033322204
1	0xbc9597c3	-0.018260842
2	0xbcb3d623	-0.021952694
3	0x3d5d4197	0.05401763
4	0x3c2bfb84	0.010496978
5	0x3a9b8cd2	0.0011867529
6	0xbd6231f0	-0.055223405
7	0xbd61604e	-0.055023484
8	0xbd01a96f	-0.031655725
9	0x3d4a097e	0.04932546
10	0xbc5ae76b	-0.013360838
11	0xbd6c5e37	-0.057707038
12	0x39bb7409	0.00035753872
13	0xbcbf1392	-0.023324762
14	0xbc3d6449	-0.011559554
15	0x3d64eff1	0.05589289
16	0x3d6aecaa	0.057354607
17	0xbd2dfe39	-0.042478774
18	0x3cb3b553	0.021937048
19	0xbd01daf9	-0.03170297
20	0x3d125b7c	0.035731778
21	0x399552c2	0.00028481154
22	0x3d01f731	0.03172988
23	0x3a1cbe6b	0.0005979302
24	0xbd6b810c	-0.057496116
25	0xb98ae5fe	-0.0002649277
26	0xbd67b4d2	-0.056568928
27	0xb801f9a4	-3.0988493e-05
28	0x3d0d3b01	0.0344801
29	0x3c9f686b	0.01945897
30	0x3d6972ee	0.05699437
31	0x3aeed577	0.0018221576
32	0x391ad6d0	0.00014766608
33	0x3c4cd42e	0.012501759
34	0xbcd7b791	-0.026332648
35	0xbcb6b00b	-0.02230074
36	0x3a7691dc	0.000940589
37	0xbb1bd00a	-0.0023775124
38	0x3b1ffa02	0.002441049
39	0xbd5098ec	-0.050927088
40	0x3d634fe2	0.055496104
41	0xbd5d0043	-0.053955328
42	0xb9656566	-0.00021876916
43	0x3a21739c	0.000615889
44	0xbb1f7630	-0.002433192
45	0x3d6b7468	0.05748406
46	0xbd62dfee	-0.055389337
47	0xbd843fa9	-0.06457455
48	0xbd16854b	-0.03674821
49	0xbbe7f002	-0.0070781717
50	0x3c80af53	0.015708601
51	0x3cfa1779	0.03052877
52	0x3bf4212a	0.0074502425
53	0x3aadd7a2	0.0013263116
54	0xbac33cf4	-0.0014895485
55	0xb9db6244	-0.0004184415
56	0x3a24bb9e	0.00062840607
57	0x3a0f9937	0.0005477848
58	0xbd3e948a	-0.046528377
59	0xbb9186b8	-0.0044411086
60	0x3d4b3921	0.04961503
61	0x3ac51d8a	0.001503871
62	0xbd54c681	-0.05194712
63	0x3b3f36b2	0.0029176888
64	0xba1cbbc6	-0.0005978908
65	0x3cec56ef	0.028850047
66	0x3d36235b	0.04446731
67	0x3cc127a6	0.023578476
68	0x3d73787c	0.059441075
69	0x3cccbceb	0.024992427
70	0x3b25aa4d	0.002527851
71	0xb9b642b9	-0.00034763457
72	0x3bfed784	0.0077771563
73	0xbb0474c6	-0.0020211204
74	0xbd6b3e16	-0.057432257
75	0xbd5caa23	-0.053873193
76	0x3a9e5f7b	0.0012082899
77	0xbcd82e09	-0.026389139
78	0xba8a19ba	-0.0010536232
79	0xbc968b6d	-0.01837703
80	0x3c477b92	0.012175458
81	0x3c2c1b4c	0.010504555
82	0x3c8fd35f	0.017556844
83	0x3a5e41e2	0.0008478445
84	0x3d51f12a	0.051255383
85	0xb809c50a	-3.2846852e-05
86	0xbc58fff3	-0.013244617
87	0xbd000d00	-0.031262398
88	0xba04dd1c	-0.0005068348
89	0x39a0a307	0.00030639043
90	0xbd8249d4	-0.06361738
91	0x3c6b27d0	0.014352754
92	0xbd01af4f	-0.031661328
93	0xbbba4964	-0.0056850184
94	0x3d0d617a	0.03451679
95	0xbd0eb83a	-0.03484366
96	0xbadae8d2	-0.0016701466
97	0x3cf75dca	0.03019609
98	0xbb0b9b28	-0.0021302197
99	0xbd265452	-0.040607758
100	0xbd3d987f	-0.04628801
101	0x3d435a75	0.04769369
102	0xbb12c8b6	-0.0022397465
103	0xbaa31439	-0.001244194
104	0xbd15ffdf	-0.03662097
105	0xbcc13574	-0.023585059
106	0x39b55249	0.00034584317
107	0xbd0114be	-0.031513922
108	0x3d67d4a4	0.056599274
109	0xbca18697	-0.019717498
110	0x3d5b7467	0.053577807
111	0x3a8b3675	0.0010621088
112	0xbd441c81	-0.047878746
113	0xb9933016	-0.00028073852
114	0xbc12f41f	-0.008969336
115	0xbd874f10	-0.06606877
116	0x3cd20300	0.025636196
117	0xbd2be407	-0.04196551
118	0xbd3b1931	-0.04567832
119	0x3b262979	0.002535431
120	0x3cf052ba	0.029336322
121	0xbc1d70af	-0.009609385
122	0x3ca2ef8d	0.019889617
123	0xbd212ad0	-0.03934747
124	0xbc3705d5	-0.011170824
125	0xbd7914aa	-0.060810722
126	0xb9755ece	-0.00023400338
127	0xbb185513	-0.0023244068
128	0x3d91aace	0.071126565
129	0x3c086f65	0.00832734
130	0xbbc63d65	-0.0060497993
131	0xbd9518af	-0.07280099
132	0x3c57cb2d	0.0131709995
133	0x3d1d9782	0.038474567
134	0x3d94340e	0.07236491
135	0xbd9d432a	-0.07678826
136	0x3ca2d31b	0.019876054
137	0xbb7f451f	-0.0038951111
138	0x3c055690	0.008138314
139	0xbcfafc1a	-0.03063779
140	0xb9500db8	-0.00019841536
141	0x3d6a0b2d	0.057139564
142	0x3d060fe6	0.032730006
143	0x3ccee669	0.025256352
144	0xbda3131b	-0.079626285
145	0xbd15339d	-0.036426175
146	0xbd097002	-0.033554085
147	0xbc616c64	-0.0137587525
148	0xbd3257fa	-0.043540932
149	0xbcfc6ee7	-0.030814601
150	0x3d0584fb	0.032597523
151	0xbaab2599	-0.001305747
152	0xbd0bf980	-0.03417349
153	0x3d5dda1b	0.05416308
154	0x3d0a16be	0.033713095
155	0x3c1093a7	0.008824266
156	0x3d5f9a47	0.05459049
157	0xbd7cc28e	-0.06170898
158	0x3d7bf64b	0.06151418
159	0xbd8a0b3d	-0.06740425
160	0xbce78c13	-0.028265035
161	0xbd25e7aa	-0.040504135
162	0x3d733410	0.059375823
163	0x3cfae510	0.030626804
164	0xbc616992	-0.01375808
165	0x3d352665	0.04422607
166	0x3cd4062e	0.025881853
167	0x3d182376	0.037143193
168	0x3d889696	0.06669347
169	0xbd09fcc4	-0.03368832
170	0x3a89e705	0.001052112
171	0x3ccd55f9	0.025065409
172	0x3da8edbb	0.082484685
173	0xb9b3c61f	-0.00034289152
174	0x3d261495	0.040546972
175	0x3d47f4e1	0.04881752
176	0x3c7ee7e5	0.015558218
177	0xba2b45a9	-0.00065335125
178	0xbcda843d	-0.026674384
179	0xbd7ec5ab	-0.06220023
180	0xbcc8fa5f	-0.024533449
181	0xb955089c	-0.0002031647
182	0xbd1fab58	-0.038981766
183	0xbcfc1e34	-0.03077612
184	0xbd486128	-0.04892078
185	0x3d819fd2	0.063293114
186	0x3d89dce8	0.06731588
187	0x3d54d2c4	0.051958814
188	0xbd92b32e	-0.07163082
189	0x3da10155	0.07861582
190	0x3d50ccb0	0.050976455
191	0x3c1223e7	0.008919693
192	0xbc00ed5c	-0.007869091
193	0xbd77d6e4	-0.06050767
194	0xbd03fff5	-0.03222652
195	0x3d55ff17	0.052245226
196	0x3d877e04	0.066158324
197	0x3d728413	0.059207987
198	0x3ca1c954	0.019749321
199	0xbcdfaed5	-0.027305046
200	0xbd34074b	-0.043952268
201	0x3cbdc942	0.023167256
202	0xbac37a8c	-0.0014913841
203	0x3ca608b3	0.02026782
204	0xbd1367b3	-0.035987567
205	0x3d32158d	0.043477584
206	0x3d7ec5ca	0.062200345
207	0x3d407c98	0.04699382
208	0xbd879415	-0.06620041
209	0xbd8d1b23	-0.068899415
210	0x3be951b2	0.0071203345
211	0x3ba85677	0.0051372605
212	0x3d726fce	0.059188657
213	0xb9e5c2f0	-0.00043823523
214	0xbcfdbb78	-0.030973181
215	0xba97e0f6	-0.0011587429
216	0xbd532ab9	-0.051554415
217	0xbc71ac1e	-0.014750509
218	0x3cd17366	0.025567722
219	0x3d86677e	0.06562708
220	0xbd5e4862	-0.05426825
221	0x3c3e055b	0.0115979565
222	0x3d26cdd6	0.040723644
223	0xbae2c701	-0.001730174
224	0xb8ca723e	-9.65339e-05
225	0x3d7bb809	0.061454806
226	0x3d041697	0.032248106
227	0x3d08a754	0.0333627
228	0x3d9d6029	0.07684357
229	0xbd96ad29	-0.073572464
230	0xbd20c25d	-0.03924786
231	0x3cdad457	0.02671258
232	0xbcf0dded	-0.029402697
233	0x3d938544	0.07203153
234	0xba3ee9d6	-0.0007282769
235	0xbb995fc5	-0.004680606
236	0xbcc323c9	-0.023820775
237	0x3d47ba91	0.048761908
238	0x3ccc770b	0.024959108
239	0x3d96e057	0.07367008
240	0x3c4d6848	0.01253707
241	0x3d9ad978	0.0756101
242	0xbd0b96b2	-0.03407926
243	0x3d62ce51	0.05537254
244	0xbd5d4c64	-0.05402793
245	0x3d4fbdec	0.050718233
246	0x3cd68b79	0.026189553
247	0x3c82e111	0.01597646
248	0xbd9b4cb6	-0.07582991
249	0xbc401890	-0.011724606
250	0xba4a6f54	-0.00077222777
251	0xbcaa2498	-0.020769402
252	0x39bcfb4e	0.0003604539
253	0xbbae93ad	-0.005327663
254	0x3d8416fa	0.06449695
255	0x3d3d296a	0.046182074

linears.0.bias f4 [32]
0	0xbd407dd0	-0.046994984
1	0xbc9ca722	-0.019122664
2	0xbd3335c1	-0.043752436
3	0x3d8806f6	0.06641953
4	0xbd96c213	-0.073612355
5	0xbcbd05d1	-0.023074063
6	0xbd92766b	-0.07151493
7	0x3bf9c508	0.007622365
8	0xbc71e6b5	-0.0147644775
9	0xbb917128	-0.004438538
10	0xb99acb48	-0.00029524625
11	0x3c03c0de	0.008041589
12	0xb9b4096a	-0.0003433929
13	0x38f7a5c0	0.00011808751
14	0x3cfb37fa	0.03066634
15	0x3ad1f7e1	0.0016019308
16	0x3d943462	0.07236554
17	0x3d77e0ea	0.06051723
18	0x3cad9c39	0.021192657
19	0x3b0d5393	0.0021564707
20	0x3d687bb8	0.056758612
21	0xbda75ab2	-0.08171596
22	0xbd7fe623	-0.062475335
23	0x3d84cc5b	0.0648429
24	0xba1f9ca6	-0.0006088711
25	0x3c686a60	0.014185518
26	0x3d5a0ecc	0.053236768
27	0xbcf952bb	-0.030434957
28	0xbc0498c7	-0.008093066
29	0x3d8b6b7a	0.06807609
30	0xbc31c019	-0.010849022
31	0x3d061f36	0.03274461

linears.2.weight f4 [2, 32]
0	0xbdc0a05b	-0.094055854
1	0x3d2930ce	0.04130631
2	0x3ce64af7	0.028111918
3	0x3d6a7a50	0.057245553
4	0x3ca35d77	0.019942028
5	0xbd9d03fb	-0.07666775
6	0x3e06dbc5	0.13169773
7	0x3e094448	0.13404953
8	0x3cefdb5c	0.029279403
9	0xb9e152b8	-0.00042976975
10	0xbe0b188f	-0.13583587
11	0xbd033fee	-0.03204339
12	0xbbaf2f3f	-0.0053462083
13	0x3b08f949	0.0020900539
14	0xbd40b913	-0.0470515
15	0x3da8d344	0.08243421
16	0x3de14029	0.10998566
17	0x3de601ab	0.11230787
18	0x3ca27916	0.019833129
19	0x3ded685e	0.11592172
20	0x3d2ab55f	0.041676875
21	0xbd565efe	-0.052336685
22	0x3d9f6c21	0.07784296
23	0x3e1db3a4	0.15400559
24	0x3d34b735	0.044120032
25	0x3e133352	0.14375046
26	0xbbaf4a8a	-0.005349462
27	0x3e18afde	0.14910838
28	0xbe2215d3	-0.15828638
29	0x3d662331	0.056185905
30	0xbcbbd6ef	-0.022929637
31	0xb9a1c9b1	-0.00030858585
32	0x3d965b9f	0.07341694
33	0x3db236f4	0.08701888
34	0x3df7b3f0	0.12094867
35	0xbd6c5add	-0.05770384
36	0xbe09a6ea	-0.13442579
37	0xbdbd1d64	-0.092341214
38	0x3c9d40c1	0.019195916
39	0x3dd31136	0.10306017
40	0xbc901ead	-0.017592752
41	0x3a8b98fa	0.0010650449
42	0xbd8f17ca	-0.06986959
43	0xbbc2d50f	-0.0059458087
44	0xbb627204	-0.0034552822
45	0xbcf84f75	-0.030311326
46	0x3d8ad08e	0.0677806
47	0xbc47d5a2	-0.01219693
48	0x3d290042	0.04126001
49	0x3ddbb521	0.10727907
50	0xbd9f6b3a	-0.07784124
51	0xbd9fa62a	-0.07795365
52	0xbce5630a	-0.028001327
53	0x3ca4ed83	0.020132786
54	0xbd6ba2b3	-0.05752821
55	0xbcd68df4	-0.026190735
56	0x3d9d650b	0.07685288
57	0xbdc68abf	-0.096944325
58	0xbd925b25	-0.07146291
59	0xbd50ba20	-0.050958753
60	0xbdd78391	-0.10523141
61	0x3cd38bf9	0.02582358
62	0xbdd2899f	-0.102801554
63	0x3dd46220	0.10370278

linears.2.bias f4 [2]
0	0x3e150736	0.14553532
1	0xbd7675c1	-0.060170893

exp_avg f4 [128, 4, 12]
0	0xb4760efa	-2.2915984e-07
1	0xb7b25e49	-2.1263158e-05
2	0x384fdb3e	4.955683e-05
3	0x370c3b1a	8.358411e-06
4	0x3776a01a	1.4700019e-05
5	0xb7bb4ce6	-2.2327946e-05
6	0x37a26928	1.9360872e-05
7	0xb61537e5	-2.2235265e-06
8	0x386a7109	5.589522e-05
9	0x37c8fb34	2.3958833e-05
10	0x38974a80	7.214118e-05
11	0xb7e66ec9	-2.7469725e-05
12	0x36c76e11	5.9434756e-06
13	0x386f603a	5.707166e-05
14	0xb73aee8e	-1.1142007e-05
15	0xb769e31c	-1.394076e-05
16	0x389bb0bc	7.423895e-05
17	0xb4f788e1	-4.6106928e-07
18	0xb720a6ae	-9.575551e-06
19	0x380ff332	3.432035e-05
20	0xb6f70c52	-7.362608e-06
21	0x385e48cc	5.2996722e-05
22	0x36af8bbd	5.231674e-06
23	0x37c46e67	2.341643e-05
24	0x360933b7	2.0444693e-06
25	0xb74f9fc8	-1.2375363e-05
26	0xb6f1ccf8	-7.206221e-06
27	0x35b1713d	1.3220484e-06
28	0xb8566df4	-5.1123978e-05
29	0x38cbafdd	9.7125514e-05
30	0x37576ce7	1.2840354e-05
31	0x360badef	2.0813857e-06
32	0xb6ed4007	-7.070604e-06
33	0x367d8373	3.7776451e-06
34	0xb7145cab	-8.843063e-06
35	0x38066e3f	3.2050764e-05
36	0x37c0414d	2.2918592e-05
37	0x36f31383	7.244236e-06
38	0xb50e9a02	-5.3123233e-07
39	0x38128a0c	3.493768e-05
40	0xb6ef7fb8	-7.1376235e-06
41	0xb8371ea5	-4.365914e-05
42	0x370715c5	8.051696e-06
43	0xb66aeffb	-3.5008404e-06
44	0xb734ef9a	-1.0784623e-05
45	0xb851f30b	-5.0055834e-05
46	0xb81ec3ba	-3.785242e-05
47	0x36a46d8a	4.900333e-06
48	0x3914cf84	0.00014191685
49	0x384714c4	4.7464637e-05
50	0x3682223e	3.878288e-06
51	0x382efa3e	4.171789e-05
52	0xb8580733	-5.1505118e-05
53	0x375c855d	1.3144073e-05
54	0x37a1307c	1.9215273e-05
55	0x35b78a3c	1.3674794e-06
56	0x3658e644	3.232054e-06
57	0xb886d15e	-6.4286156e-05
58	0xb8980b7b	-7.250063e-05
59	0xb7ed08f2	-2.8256767e-05
60	0x37e8dc83	2.7759239e-05
61	0xb6adc075	-5.1782067e-06
62	0x392849aa	0.0001604917
63	0x38f175d9	0.00011513726
64	0x3859a91c	5.1894327e-05
65	0xb8c00cb0	-9.157637e-05
66	0x391e20b6	0.0001508024
67	0x3916a086	0.00014364914
68	0xb850957d	-4.9730286e-05
69	0x3918a304	0.00014556578
70	0x39353340	0.00017280597
71	0x37526506	1.2540497e-05
72	0xb875c022	-5.859149e-05
73	0x36ec44f5	7.0413757e-06
74	0xb93b7f05	-0.00017881028
75	0x38100718	3.4338882e-05
76	0xb84107d0	-4.602206e-05
77	0x3815f077	3.574832e-05
78	0x36ffe13a	7.625812e-06
79	0xb90576d8	-0.00012728141
80	0x39270458	0.00015927979
81	0xb742c1d9	-1.1608435e-05
82	0xb688bb79	-4.0749405e-06
83	0xb8808e11	-6.1299776e-05
84	0xb807d74b	-3.2387015e-05
85	0x37f65f12	2.9369756e-05
86	0x38c35307	9.3137896e-05
87	0xb8ebec14	-0.00011249646
88	0x39025eb2	0.00012433043
89	0x38fe8e38	0.00012138154
90	0xb8cf812a	-9.894588e-05
91	0x387fb1d8	6.0962368e-05
92	0xb80ef564	-3.4083976e-05
93	0x37177014	9.026397e-06
94	0xb793137b	-1.7532837e-05
95	0x392f9c2e	0.00016747482
96	0x3741efbc	1.1559514e-05
97	0xb7262c57	-9.904695e-06
98	0x3728d396	1.0062844e-05
99	0x374fafcd	1.2379093e-05
100	0x38543cbb	5.06013e-05
101	0x369e49f8	4.717378e-06
102	0x37789fd8	1.4819168e-05
103	0x38195f23	3.6566646e-05
104	0x370c61cf	8.367423e-06
105	0xb727d369	-1.0003198e-05
106	0x38234887	3.8929775e-05
107	0x38a97553	8.080401e-05
108	0xb69a99e7	-4.6074742e-06
109	0x38519b80	4.9974304e-05
110	0xb7c60606	-2.3606244e-05
111	0x3771262f	1.437361e-05
112	0x35a878b0	1.25521e-06
113	0x3740e99b	1.1498482e-05
114	0xb71e1c28	-9.4240895e-06
115	0xb6f7e5a8	-7.387909e-06
116	0x34f448d8	4.5501542e-07
117	0x38784597	5.919262e-05
118	0x37b4cb8f	2.1552461e-05
119	0xb7cc75b9	-2.4373514e-05
120	0x381016d2	3.435353e-05
121	0xb6203271	-2.3871219e-06
122	0x38215c50	3.8471364e-05
123	0x37cc0732	2.4322046e-05
124	0x35dc2e8b	1.6404823e-06
125	0x37f342cd	2.8998964e-05
126	0x38373a7d	4.368507e-05
127	0x37e53ee8	2.732822e-05
128	0x384a0d9f	4.817324e-05
129	0x3685a8a7	3.9833426e-06
130	0x3779a960	1.4880992e-05
131	0x3653682a	3.1502082e-06
132	0x3780ae88	1.5340062e-05
133	0x379f130e	1.896315e-05
134	0x3805089a	3.1717682e-05
135	0x36baed80	5.5708806e-06
136	0x36534d53	3.1486459e-06
137	0x373fc6f7	1.1430812e-05
138	0x36fddb17	7.565493e-06
139	0x3585d8b8	9.972346e-07
140	0x35088138	5.0851986e-07
141	0x368e107c	4.233849e-06
142	0xb788188c	-1.6223894e-05
143	0x35465ce2	7.389591e-07
144	0x37bcbefe	2.2500284e-05
145	0x381837f2	3.6291727e-05
146	0xb74b252f	-1.21084e-05
147	0x37aaa288	2.0341264e-05
148	0x378759a7	1.6135002e-05
149	0x384919b3	4.794607e-05
150	0x383982b3	4.422916e-05
151	0x3515d0eb	5.581084e-07
152	0x372ed21a	1.0420126e-05
153	0x3715aecc	8.92179e-06
154	0x3602e5ae	1.95052e-06
155	0x38144f30	3.53597e-05
156	0xb7030cd2	-7.811193e-06
157	0x358e2ca8	1.0592821e-06
158	0x3781550e	1.5417605e-05
159	0xb6c0c360	-5.7447905e-06
160	0x34cd030c	3.8186442e-07
161	0x351341fc	5.485779e-07
162	0xb74ec4e6	-1.2324401e-05
163	0xb61642c7	-2.2390611e-06
164	0xb702bf7d	-7.793188e-06
165	0x34ba2572	3.4672445e-07
166	0xb6b750b8	-5.463222e-06
167	0xb795c19a	-1.7852337e-05
168	0xb47143eb	-2.2469582e-07
169	0xb872b847	-5.7868918e-05
170	0x35c679fd	1.4787653e-06
171	0xb79d26b4	-1.8733881e-05
172	0xb6bf4604	-5.7003945e-06
173	0xb7cbed8e	-2.4310106e-05
174	0xb7f4798f	-2.9143672e-05
175	0xb5cd27e4	-1.52853e-06
176	0xb81f7dc8	-3.8025697e-05
177	0xb6cc25a1	-6.0840543e-06
178	0x363ef2aa	2.8453455e-06
179	0xb63c1d8c	-2.8031382e-06
180	0xb74f5d4c	-1.2359884e-05
181	0x37bdc544	2.2622415e-05
182	0xb6341592	-2.6834646e-06
183	0x36d171b6	6.241923e-06
184	0xb712299d	-8.711967e-06
185	0xb7bf0aad	-2.2773946e-05
186	0xb5b5429a	-1.3504934e-06
187	0x36b08440	5.2606047e-06
188	0x381d1381	3.744988e-05
189	0xb5981d21	-1.133336e-06
190	0x362c475c	2.5671534e-06
191	0xb7096fe7	-8.191891e-06
192	0xb6eac30f	-6.9964512e-06
193	0xb8195fa3	-3.656711e-05
194	0xb887d070	-6.476126e-05
195	0x393840f2	0.00017571801
196	0xb700f17b	-7.685619e-06
197	0xb8397219	-4.42137e-05
198	0xb9458c4a	-0.00018839646
199	0x37c49156	2.3432698e-05
200	0x38b00f89	8.3952276e-05
201	0x38e60ed8	0.000109700195
202	0x374f29b1	1.23478685e-05
203	0xb792551c	-1.7444188e-05
204	0xb843bdab	-4.6668265e-05
205	0x37d6adc5	2.5591706e-05
206	0xb83e4cb0	-4.537095e-05
207	0xb860e776	-5.3621327e-05
208	0xb7a13992	-1.9219504e-05
209	0xb731e28a	-1.0602767e-05
210	0x393c221f	0.00017941788
211	0x37a76b98	1.9958054e-05
212	0xb71072e9	-8.609823e-06
213	0x38547c6f	5.0660627e-05
214	0x38dc2361	0.00010497007
215	0xb8149a50	-3.5429664e-05
216	0x3908b7b9	0.00013038413
217	0x38b967c9	8.840819e-05
218	0x3952a922	0.00020090168
219	0xb8d1a8a5	-9.997309e-05
220	0x37a283a0	1.9373198e-05
221	0x39376217	0.00017488781
222	0x38dc61a8	0.000105086074
223	0xb7bdde11	-2.2633963e-05
224	0x37038cb3	7.840968e-06
225	0xb74bd30c	-1.2148881e-05
226	0x38bf4ebe	9.1222566e-05
227	0x3863a118	5.4271048e-05
228	0x3712bff6	8.7469725e-06
229	0x3706c800	8.0335885e-06
230	0xb6b1f0db	-5.3030503e-06
231	0x3884d6ea	6.334281e-05
232	0x38c30819	9.299833e-05
233	0xb81124bb	-3.4604902e-05
234	0xb732871d	-1.0641085e-05
235	0x38877e0d	6.4607804e-05
236	0x37bd5604	2.257061e-05
237	0xb7fd7035	-3.02122e-05
238	0xb8b3a1a6	-8.5654945e-05
239	0x390ca74b	0.00013413762
240	0x38c47e2d	9.3695104e-05
241	0x361c12b3	2.3256696e-06
242	0xb75089dc	-1.2429864e-05
243	0x37a2d756	1.9412179e-05
244	0x37b66585	2.1743364e-05
245	0xb8986016	-7.265822e-05
246	0x35aff5f2	1.3110096e-06
247	0xb83f1403	-4.5556586e-05
248	0x37e25ea8	2.6985377e-05
249	0xb69c1184	-4.6512014e-06
250	0xb72469c9	-9.799792e-06
251	0x35df00b4	1.6614999e-06
252	0x369bc2d0	4.642039e-06
253	0x36d41936	6.3210273e-06
254	0x3878ae51	5.9290152e-05
255	0xb6be60e6	-5.6737217e-06

exp_avg_sq f4 [128, 4, 12]
0	0x2fd8752a	3.937342e-10
1	0x2f8dd393	2.5798083e-10
2	0x30cd5e20	1.4942465e-09
3	0x31e41b28	6.6387607e-09
4	0x2f2dab5d	1.5795139e-10
5	0x301e68b8	5.762888e-10
6	0x30d6732e	1.5603285e-09
7	0x3039b5fc	6.7561223e-10
8	0x31d4e207	6.1957084e-09
9	0x2f1d04d1	1.4280778e-10
10	0x308f788d	1.0438882e-09
11	0x3123130d	2.373045e-09
12	0x308a56d3	1.0065498e-09
13	0x3093a4a5	1.0742452e-09
14	0x2f19c0d1	1.3983771e-10
15	0x2fa9717b	3.0821554e-10
16	0x31256072	2.4065483e-09
17	0x3159b166	3.1678495e-09
18	0x3150b1ea	3.0369116e-09
19	0x3209c33c	8.018841e-09
20	0x2e0d0e8a	3.20726e-11
21	0x31a1252e	4.6899435e-09
22	0x31288adc	2.452615e-09
23	0x3087840d	9.860074e-10
24	0x31497a2a	2.9318792e-09
25	0x314db3e6	2.9933687e-09
26	0x31aa6b6d	4.959864e-09
27	0x2d36857c	1.0375142e-11
28	0x304f4fc5	7.541952e-10
29	0x3181e280	3.780144e-09
30	0x30b4aaf5	1.3145313e-09
31	0x2e4e7731	4.694484e-11
32	0x2e96f930	6.865475e-11
33	0x2e85536a	6.062957e-11
34	0x2f5bdfad	1.99974e-10
35	0x30fe2094	1.8490192e-09
36	0x30a1921b	1.1755817e-09
37	0x30491622	7.3154827e-10
38	0x2db0ce11	2.0100395e-11
39	0x3057574b	7.8340595e-10
40	0x3085702d	9.708906e-10
41	0x30c66501	1.4435103e-09
42	0x2f1ef2ee	1.4456322e-10
43	0x2eacceb6	7.858374e-11
44	0x2fa83684	3.0597758e-10
45	0x3082cf98	9.517747e-10
46	0x310b17ec	2.024076e-09
47	0x305ec679	8.1045176e-10
48	0x320a8bdb	8.064457e-09
49	0x3239b837	1.0810303e-08
50	0x319679ac	4.379407e-09
51	0x31936a46	4.290345e-09
52	0x3179acd0	3.6332501e-09
53	0x2f799c4f	2.270195e-10
54	0x30c297d1	1.4158507e-09
55	0x2e808abc	5.84541e-11
56	0x315aea55	3.1856378e-09
57	0x31ddc0de	6.453873e-09
58	0x314f8de8	3.0203129e-09
59	0x30bce346	1.3743395e-09
60	0x3111fb50	2.1243132e-09
61	0x2f8d8270	2.5740432e-10
62	0x3117c874	2.2087336e-09
63	0x31b53c14	5.2746234e-09
64	0x31766fea	3.5861327e-09
65	0x31d90664	6.3162577e-09
66	0x3262a150	1.319161e-08
67	0x31874e73	3.9379358e-09
68	0x2fe6688d	4.1911044e-10
69	0x32175b0c	8.8100585e-09
70	0x32205063	9.331504e-09
71	0x3085ad0c	9.726207e-10
72	0x30923d6c	1.0640355e-09
73	0x2eb7f766	8.365823e-11
74	0x31f984af	7.261938e-09
75	0x304a8e43	7.368934e-10
76	0x31313f31	2.579281e-09
77	0x3095c3ff	1.0896882e-09
78	0x2e756130	5.579287e-11
79	0x31ba5cc2	5.423858e-09
80	0x3209b7fe	8.0162845e-09
81	0x2f2010b0	1.4557844e-10
82	0x2ef65a90	1.1202872e-10
83	0x3005034d	4.838981e-10
84	0x315d7055	3.2223586e-09
85	0x3164e609	3.3309127e-09
86	0x317c4335	3.670903e-09
87	0x313c6d22	2.7419635e-09
88	0x318422f2	3.8456784e-09
89	0x3203cfd5	7.672459e-09
90	0x30a08cfa	1.16816e-09
91	0x318a4503	4.0241743e-09
92	0x30f67f7f	1.7935092e-09
93	0x2e20622f	3.6466993e-11
94	0x2eb8fa71	8.4118386e-11
95	0x3294af58	1.7309205e-08
96	0x2fc7cf70	3.6345282e-10
97	0x2f281d12	1.5289839e-10
98	0x2f280718	1.5282031e-10
99	0x31b98c41	5.4001537e-09
100	0x32439c6e	1.1386062e-08
101	0x2f88ddb9	2.48958e-10
102	0x30b083c9	1.2843141e-09
103	0x3174e17a	3.5634842e-09
104	0x2f488fd8	1.8240998e-10
105	0x2edc7bd9	1.00264415e-10
106	0x323fa74d	1.1155703e-08
107	0x32495732	1.1719566e-08
108	0x310d4479	2.0557123e-09
109	0x325bcedc	1.2794512e-08
110	0x318a6c2f	4.0286277e-09
111	0x2f89e03c	2.5079483e-10
112	0x2e0c9bbd	3.1970638e-11
113	0x2fa7c5b3	3.0517597e-10
114	0x30ae14c1	1.2666065e-09
115	0x2ed2949c	9.576093e-11
116	0x2f0bda4f	1.2719535e-10
117	0x31e2c8cd	6.600294e-09
118	0x30a4b9a4	1.1985333e-09
119	0x30e22cae	1.6456363e-09
120	0x31e899af	6.7695605e-09
121	0x2f83618f	2.389808e-10
122	0x31742b42	3.5531262e-09
123	0x312e42b0	2.535824e-09
124	0x308f4a04	1.0425656e-09
125	0x32557322	1.242441e-08
126	0x31f0aabe	7.0043304e-09
127	0x3119a923	2.2360573e-09
128	0x32a255da	1.8898323e-08
129	0x319d1db0	4.5726765e-09
130	0x30bba615	1.3653244e-09
131	0x31008369	1.870115e-09
132	0x307e9de4	9.262904e-10
133	0x2f5188b1	1.9057002e-10
134	0x31037dfe	1.9134627e-09
135	0x2fceb855	3.7602157e-10
136	0x2e737443	5.5355064e-11
137	0x2f8748bc	2.4608038e-10
138	0x2f5ab47d	1.9891107e-10
139	0x314a5af9	2.944658e-09
140	0x2e410ef2	4.3896393e-11
141	0x2ff979ce	4.5379384e-10
142	0x2f02e2b2	1.190397e-10
143	0x30073e0f	4.9200904e-10
144	0x31036cc5	1.9124837e-09
145	0x302c59e7	6.2700994e-10
146	0x303cabf8	6.8638384e-10
147	0x2fc6c4b6	3.6155762e-10
148	0x2f918ac1	2.6473937e-10
149	0x2fe5e1b7	4.1815237e-10
150	0x302ae4f4	6.2171e-10
151	0x30ffcf8b	1.8612679e-09
152	0x2f0c8ae6	1.2782272e-10
153	0x2ffb7616	4.574054e-10
154	0x310c7b97	2.0442934e-09
155	0x30e39d55	1.656114e-09
156	0x2ded0e95	2.6950256e-11
157	0x2efb4e80	1.1428103e-10
158	0x2f28bdda	1.534696e-10
159	0x2e1e8d48	3.6050524e-11
160	0x2e7246f2	5.508744e-11
161	0x2e9e568f	7.200384e-11
162	0x2ffec1de	4.6340082e-10
163	0x2e3c82e7	4.2862516e-11
164	0x2dfece9c	2.896821e-11
165	0x2d22f7ea	9.263682e-12
166	0x2fa2d953	2.9622046e-10
167	0x3009fe74	5.020191e-10
168	0x2e9f1ab1	7.235224e-11
169	0x30c6507f	1.4429274e-09
170	0x2f7d6206	2.3045041e-10
171	0x30a80f64	1.2227983e-09
172	0x308a0513	1.0042264e-09
173	0x2f8fc3b4	2.6150604e-10
174	0x2f8dbec6	2.5783303e-10
175	0x2e439cff	4.4477307e-11
176	0x30d5a2ff	1.5544116e-09
177	0x30533d9c	7.6848905e-10
178	0x2dba8d65	2.1208544e-11
179	0x2ee24956	1.0290317e-10
180	0x30177238	5.5095795e-10
181	0x2f9ae948	2.8178193e-10
182	0x2f3b57f0	1.7038793e-10
183	0x2f361577	1.656043e-10
184	0x2f17ee91	1.3818126e-10
185	0x300f6d93	5.217881e-10
186	0x2f8f1cfe	2.603215e-10
187	0x2e2e937c	3.9694012e-11
188	0x2f8dbd09	2.5782068e-10
189	0x2eb38c30	8.16488e-11
190	0x2ee893b7	1.0576378e-10
191	0x2e831961	5.9616985e-11
192	0x305d6d34	8.055452e-10
193	0x2faa6464	3.0994152e-10
194	0x2ff9337b	4.5329415e-10
195	0x32a0de85	1.8727642e-08
196	0x30696da2	8.4920704e-10
197	0x30c632f3	1.4420877e-09
198	0x3261bcab	1.3139622e-08
199	0x31736088	3.5416026e-09
200	0x31ab399f	4.9833058e-09
201	0x3350a6ae	4.8580368e-08
202	0x31752f20	3.567898e-09
203	0x3157c272	3.1397147e-09
204	0x30c4aff7	1.4310889e-09
205	0x2f46e66c	1.8089857e-10
206	0x320c8864	8.180084e-09
207	0x3064146f	8.2974955e-10
208	0x32b95805	2.1576861e-08
209	0x3222d5f0	9.478285e-09
210	0x32453054	1.1477898e-08
211	0x305140ac	7.612566e-10
212	0x315a3857	3.17552e-09
213	0x3145b077	2.8767582e-09
214	0x3030774c	6.419796e-10
215	0x31f1ebf0	7.040846e-09
216	0x3325b3e7	3.8580676e-08
217	0x32b23da8	2.0749965e-08
218	0x32ec90cb	2.753986e-08
219	0x3270b2fb	1.4010534e-08
220	0x309ea5aa	1.1543098e-09
221	0x328243d9	1.5164845e-08
222	0x3210dc6c	8.432021e-09
223	0x32f329fc	2.8308015e-08
224	0x3263bae4	1.3255633e-08
225	0x317910f3	3.6243903e-09
226	0x33151d57	3.471845e-08
227	0x318bd17c	4.069248e-09
228	0x2f41096f	1.7556599e-10
229	0x325c6389	1.2828317e-08
230	0x309ef14e	1.1564596e-09
231	0x31740833	3.5511334e-09
232	0x32a52cc6	1.9228889e-08
233	0x327dafed	1.4766539e-08
234	0x308dd65a	1.0320023e-09
235	0x31304fad	2.5656661e-09
236	0x3298c9ea	1.7786949e-08
237	0x30857ea2	9.713015e-10
238	0x313814e4	2.67874e-09
239	0x329a16db	1.7938353e-08
240	0x313c589d	2.7407971e-09
241	0x2e72fed9	5.525078e-11
242	0x30677ed4	8.4217544e-10
243	0x30ef6fa1	1.7421266e-09
244	0x3176a842	3.5893355e-09
245	0x305aa43c	7.954133e-10
246	0x2f835078	2.3885938e-10
247	0x305f8fa2	8.133104e-10
248	0x2fa37404	2.973196e-10
249	0x2f4271c4	1.7684615e-10
250	0x30154199	5.4299104e-10
251	0x2f8801ff	2.4739674e-10
252	0x2e45705a	4.4892402e-11
253	0x2e4ac480	4.610401e-11
254	0x2f3ad360	1.6991697e-10
255	0x2d276573	9.515377e-12

exp_avg f4 [128]
0	0x3800ab93	3.067737e-05
1	0x38a50a6e	7.869756e-05
2	0x386d96ca	5.6645637e-05
3	0x360d3b25	2.1045064e-06
4	0x38b33c71	8.546643e-05
5	0x378e2fa7	1.6949909e-05
6	0xb817495e	-3.6069534e-05
7	0x380c7a53	3.3492524e-05
8	0x387893d3	5.926548e-05
9	0xb8cb006e	-9.679874e-05
10	0xb70e0196	-8.464229e-06
11	0x38a0eb61	7.673237e-05
12	0x37c23356	2.3150507e-05
13	0x389d6fba	7.507154e-05
14	0xb838ffb4	-4.410716e-05
15	0x373ba077	1.118343e-05
16	0x37d56be9	2.5441828e-05
17	0x37ae2afa	2.0762429e-05
18	0xb83ba93d	-4.474189e-05
19	0x38efe812	0.000114396345
20	0x387abf19	5.978262e-05
21	0xb7f856ad	-2.9604265e-05
22	0xb7b0e480	-2.1087239e-05
23	0x36da22e8	6.50097e-06
24	0xb8a48f03	-7.8467674e-05
25	0xb7f16c8e	-2.8779988e-05
26	0x37cd89f9	2.4502153e-05
27	0x388cc155	6.711731e-05
28	0x36d6f67a	6.4063906e-06
29	0xb8bcc13e	-9.000533e-05
30	0xb50f5d6d	-5.3407604e-07
31	0xb7f7d990	-2.9546005e-05
32	0xb7de1832	-2.647573e-05
33	0xb778ada3	-1.482238e-05
34	0x380dea7d	3.3835404e-05
35	0xb7c92bd5	-2.3981478e-05
36	0x38b19b3b	8.4689316e-05
37	0xb8b1a461	-8.470636e-05
38	0xb865aff7	-5.4761735e-05
39	0x37d760ed	2.5675132e-05
40	0xb4926e3b	-2.7274822e-07
41	0xb86e7be3	-5.6859e-05
42	0xb86ae178	-5.599993e-05
43	0x3896a5dd	7.183452e-05
44	0x3804da9f	3.167486e-05
45	0xb83e40f0	-4.5360008e-05
46	0x3804b029	3.1635314e-05
47	0x37c147e4	2.304087e-05
48	0xb7695d18	-1.3909557e-05
49	0xb9024bd5	-0.00012426016
50	0x38cafd5b	9.679302e-05
51	0x38701996	5.7244288e-05
52	0x3719072c	9.1211805e-06
53	0xb7fe8a92	-3.0343686e-05
54	0xb7394072	-1.1041864e-05
55	0x377f734b	1.5226028e-05
56	0xb7f85f8a	-2.9608393e-05
57	0x3881bd4c	6.1864586e-05
58	0xb8851b98	-6.347074e-05
59	0x38aae5cd	8.1490354e-05
60	0x387c6ad7	6.0180984e-05
61	0x372d3df0	1.03260245e-05
62	0xb6fa43c9	-7.458472e-06
63	0xb82202d0	-3.862643e-05
64	0x388ecc7d	6.8091766e-05
65	0x37ce25a7	2.4574647e-05
66	0xb870222f	-5.7252295e-05
67	0xb7a78be2	-1.997309e-05
68	0x382f620b	4.181456e-05
69	0x36d2ae1f	6.278758e-06
70	0x378f53d6	1.7085968e-05
71	0x380ccfb3	3.3572036e-05
72	0xb8228234	-3.874507e-05
73	0xb8dc1677	-0.00010494602
74	0x37e31ccd	2.707392e-05
75	0x38218361	3.8507747e-05
76	0x3810136c	3.4350363e-05
77	0xb468fc9e	-2.1698585e-07
78	0xb5f048b2	-1.790255e-06
79	0x385d651e	5.278468e-05
80	0x3853c891	5.0493112e-05
81	0xb8122a0b	-3.4848268e-05
82	0x37b4302c	2.1480104e-05
83	0xb7f9b2bd	-2.9766345e-05
84	0xb80633f1	-3.1996464e-05
85	0x38cbd0c2	9.7186785e-05
86	0x3856f900	5.1253475e-05
87	0x389a935a	7.3707386e-05
88	0x368b282c	4.1471994e-06
89	0xb8075428	-3.2264885e-05
90	0xb808f800	-3.2655895e-05
91	0xb805e86d	-3.1926134e-05
92	0x3877d3f5	5.908679e-05
93	0xb7406012	-1.146646e-05
94	0x38848835	6.319621e-05
95	0x37e225e5	2.6958945e-05
96	0xb8ce0499	-9.823702e-05
97	0x3839ae67	4.4269862e-05
98	0x38854bd6	6.35606e-05
99	0xb88a4619	-6.5934095e-05
100	0x38106be0	3.443274e-05
101	0x3859f55f	5.196535e-05
102	0xb80d69c2	-3.3715514e-05
103	0xb89ca425	-7.469234e-05
104	0x3894c3c0	7.093651e-05
105	0xb8729489	-5.783563e-05
106	0x37f1278a	2.874785e-05
107	0x38bdfe1b	9.059553e-05
108	0x38f6bc1a	0.00011765231
109	0xb6ba5c3a	-5.5539685e-06
110	0x37f164ab	2.8776316e-05
111	0xb7b3bf46	-2.1427531e-05
112	0x37657d86	1.3678689e-05
113	0x35f476d2	1.8213998e-06
114	0x371e3c0a	9.431513e-06
115	0x3876827a	5.8772486e-05
116	0x382c5390	4.108582e-05
117	0x382be39b	4.098155e-05
118	0x38f2fdff	0.0001158677
119	0x37a6c821	1.9881934e-05
120	0xb711bad5	-8.686174e-06
121	0xb7d38a2c	-2.5217501e-05
122	0xb7881e9c	-1.6226717e-05
123	0xb816eb40	-3.598188e-05
124	0x38ca4820	9.645545e-05
125	0xb8081d85	-3.245242e-05
126	0x38477646	4.7555448e-05
127	0xb701a469	-7.727279e-06

exp_avg_sq f4 [128]
0	0x3201bd49	7.551827e-09
1	0x329f694f	1.8557925e-08
2	0x3297400c	1.7607839e-08
3	0x3108e3d3	1.9920108e-09
4	0x33676ed5	5.388468e-08
5	0x31add30a	5.058955e-09
6	0x31c3f439	5.703012e-09
7	0x32678ae7	1.3477552e-08
8	0x325b767f	1.2774421e-08
9	0x32bd5f81	2.2045926e-08
10	0x319a0e12	4.4835895e-09
11	0x32887aeb	1.588838e-08
12	0x3222885d	9.4606465e-09
13	0x325945a8	1.26469e-08
14	0x31cf45bf	6.032422e-09
15	0x31745523	3.5555068e-09
16	0x3256b260	1.2496997e-08
17	0x313c0d74	2.7365248e-09
18	0x311ebef5	2.3100573e-09
19	0x33fc39b9	1.1745164e-07
20	0x325858b2	1.2593022e-08
21	0x3301970d	3.0172533e-08
22	0x3144038d	2.8523772e-09
23	0x31f181ae	7.028766e-09
24	0x32a4eba5	1.9199272e-08
25	0x32bd80e1	2.2061103e-08
26	0x32032803	7.634301e-09
27	0x32d99601	2.5330339e-08
28	0x32c69bcf	2.3121087e-08
29	0x329cff60	1.8276921e-08
30	0x3303cd01	3.0687264e-08
31	0x31c00b2a	5.5892047e-09
32	0x31759528	3.5736978e-09
33	0x321cfbc9	9.137644e-09
34	0x31892be2	3.9922137e-09
35	0x3229c024	9.880782e-09
36	0x331ad09a	3.604564e-08
37	0x328e3a6b	1.6557541e-08
38	0x32b9febb	2.1652673e-08
39	0x31b84ec9	5.3640616e-09
40	0x336945af	5.4312917e-08
41	0x33938fd8	6.871386e-08
42	0x336994f8	5.4385026e-08
43	0x32834c41	1.5285083e-08
44	0x328affe2	1.6181676e-08
45	0x3280e0b9	1.5003353e-08
46	0x332070e5	3.735558e-08
47	0x33aa38d9	7.9265824e-08
48	0x3184dfab	3.8671337e-09
49	0x335e4ef8	5.1760225e-08
50	0x32e33b1a	2.6453154e-08
51	0x3223f45a	9.543408e-09
52	0x311a673c	2.2468631e-09
53	0x3113f15b	2.152851e-09
54	0x320b8509	8.121114e-09
55	0x337120a0	5.6141857e-08
56	0x336a814e	5.4599973e-08
57	0x330cef55	3.281396e-08
58	0x328c81ea	1.6357223e-08
59	0x329cd4b2	1.8257513e-08
60	0x32f16360	2.8101283e-08
61	0x32ee19bf	2.7718555e-08
62	0x324c3fa1	1.188883e-08
63	0x3426f597	1.55493e-07
64	0x328f0f3d	1.665432e-08
65	0x320850b7	7.934594e-09
66	0x339a5bc9	7.1878794e-08
67	0x30d2ea87	1.5346168e-09
68	0x3358c14e	5.046723e-08
69	0x3300d5e9	2.9996873e-08
70	0x3233757b	1.0445883e-08
71	0x313c34ee	2.7387688e-09
72	0x3259e9ca	1.268422e-08
73	0x334e6b98	4.806097e-08
74	0x32c2f354	2.2695225e-08
75	0x32a88012	1.9616014e-08
76	0x32220144	9.429929e-09
77	0x31abe245	5.002479e-09
78	0x32274e77	9.73852e-09
79	0x321f8bf6	9.2868415e-09
80	0x3149bb7f	2.9355929e-09
81	0x32d253e1	2.4485361e-08
82	0x32e7b4ec	2.6974213e-08
83	0x333723b6	4.2640487e-08
84	0x32a53a9c	1.923518e-08
85	0x332c76b0	4.0154816e-08
86	0x321baf87	9.062098e-09
87	0x32a0ceb0	1.8720442e-08
88	0x317f70e5	3.7171557e-09
89	0x32a10714	1.8746086e-08
90	0x31ecc570	6.89095e-09
91	0x315c621d	3.2069984e-09
92	0x32b3ac90	2.0916815e-08
93	0x31b5a10a	5.2861013e-09
94	0x32288e07	9.81118e-09
95	0x31e3cb62	6.6296915e-09
96	0x33c114e6	8.991064e-08
97	0x321efdc4	9.25451e-09
98	0x32be0f73	2.2125937e-08
99	0x331295d0	3.4129528e-08
100	0x3137a1d8	2.6722002e-09
101	0x326cb8df	1.3779043e-08
102	0x31ea1395	6.8125225e-09
103	0x33415b0f	4.501913e-08
104	0x324aac51	1.1797128e-08
105	0x34019af3	1.2070431e-07
106	0x31bd81a7	5.5153637e-09
107	0x33c772ef	9.287566e-08
108	0x3333ab97	4.1832745e-08
109	0x329d22a4	1.8292958e-08
110	0x332292f0	3.7852203e-08
111	0x3354ffe1	4.9592817e-08
112	0x32c7936f	2.3233694e-08
113	0x322cb4af	1.00528e-08
114	0x31a39f4e	4.762035e-09
115	0x32e10b40	2.6198563e-08
116	0x3299e376	1.7914981e-08
117	0x3293d47b	1.7209677e-08
118	0x337183e1	5.623213e-08
119	0x311af8c9	2.2551367e-09
120	0x31877d39	3.9432533e-09
121	0x3229b82d	9.878971e-09
122	0x33244c55	3.825365e-08
123	0x32aabd0b	1.9876571e-08
124	0x33294258	3.9408718e-08
125	0x32737be4	1.4172631e-08
126	0x3203816a	7.654629e-09
127	0x32f23e54	2.8200851e-08

exp_avg f4 [32, 128]
0	0xb9a32978	-0.0003112068
1	0xba6975df	-0.0008905809
2	0xba6975df	-0.0008905809
3	0x3a6975df	0.0008905809
4	0x3a6975df	0.0008905809
5	0xba350819	-0.00069058087
6	0xba6975df	-0.0008905809
7	0xba6975df	-0.0008905809
8	0xba6975df	-0.0008905809
9	0x3a6975df	0.0008905809
10	0xba6975df	-0.0008905809
11	0xba6975df	-0.0008905809
12	0x392f4179	0.00016713691
13	0xba6975df	-0.0008905809
14	0xba6975df	-0.0008905809
15	0x3a6975df	0.0008905809
16	0x3a6975df	0.0008905809
17	0xba6975df	-0.0008905809
18	0x3a6975df	0.0008905809
19	0xba6975df	-0.0008905809
20	0x3a6975df	0.0008905809
21	0xb918d9b2	-0.00014576947
22	0x3a6975df	0.0008905809
23	0xb88dd444	-6.7629415e-05
24	0xba6975df	-0.0008905809
25	0x3990d6bd	0.00027625813
26	0xba6975df	-0.0008905809
27	0x38ffdc26	0.000122003534
28	0x3a6975df	0.0008905809
29	0x3a6975df	0.0008905809
30	0x3a6975df	0.0008905809
31	0x39203fb8	0.00015282526
32	0x39028d8f	0.00012450501
33	0x3a6975df	0.0008905809
34	0xba6975df	-0.0008905809
35	0xba6975df	-0.0008905809
36	0xba6975df	-0.0008905809
37	0x3954a192	0.00020278085
38	0xb954a192	-0.00020278085
39	0xba6975df	-0.0008905809
40	0x3a6975df	0.0008905809
41	0xba6975df	-0.0008905809
42	0x38890a5a	6.534597e-05
43	0xba6975df	-0.0008905809
44	0xb9203fb8	-0.00015282526
45	0x3a6975df	0.0008905809
46	0xba6975df	-0.0008905809
47	0xba6975df	-0.0008905809
48	0xba6975df	-0.0008905809
49	0xba6975df	-0.0008905809
50	0x3a6975df	0.0008905809
51	0x3a6975df	0.0008905809
52	0x3a6975df	0.0008905809
53	0x3a6975df	0.0008905809
54	0xb982470b	-0.00024848463
55	0xb99fb18d	-0.0003045913
56	0x392f4179	0.00016713691
57	0xb86a409c	-5.585012e-05
58	0xba6975df	-0.0008905809
59	0xba6975df	-0.0008905809
60	0x3a6975df	0.0008905809
61	0x39af6a4f	0.00033457807
62	0xba6975df	-0.0008905809
63	0xb954a192	-0.00020278085
64	0xb97b1d45	-0.00023948129
65	0x3a6975df	0.0008905809
66	0x3a6975df	0.0008905809
67	0x3a6975df	0.0008905809
68	0x3a6975df	0.0008905809
69	0x3a6975df	0.0008905809
70	0x3a6975df	0.0008905809
71	0xb92f4179	-0.00016713691
72	0x3a6975df	0.0008905809
73	0x3954a192	0.00020278085
74	0xba6975df	-0.0008905809
75	0xba6975df	-0.0008905809
76	0xb967c888	-0.0002210458
77	0xba6975df	-0.0008905809
78	0x3a350819	0.00069058087
79	0xba6975df	-0.0008905809
80	0x3a6975df	0.0008905809
81	0x3a6975df	0.0008905809
82	0x3a6975df	0.0008905809
83	0x39af6a4f	0.00033457807
84	0x3a6975df	0.0008905809
85	0x38dae011	0.00010436786
86	0xba6975df	-0.0008905809
87	0xba6975df	-0.0008905809
88	0x3a6975df	0.0008905809
89	0x39d80a0d	0.0004120622
90	0xba6975df	-0.0008905809
91	0x3a6975df	0.0008905809
92	0xba6975df	-0.0008905809
93	0xba6975df	-0.0008905809
94	0x3a6975df	0.0008905809
95	0xba6975df	-0.0008905809
96	0x3a350819	0.00069058087
97	0x3a6975df	0.0008905809
98	0xb9203fb8	-0.00015282526
99	0xba6975df	-0.0008905809
100	0xba6975df	-0.0008905809
101	0x3a6975df	0.0008905809
102	0x3954a192	0.00020278085
103	0xb9af6a4f	-0.00033457807
104	0xba6975df	-0.0008905809
105	0xba6975df	-0.0008905809
106	0x392f4179	0.00016713691
107	0xba6975df	-0.0008905809
108	0x3a6975df	0.0008905809
109	0xba6975df	-0.0008905809
110	0x3a6975df	0.0008905809
111	0xb877a7f8	-5.9045822e-05
112	0xba6975df	-0.0008905809
113	0x39a32978	0.0003112068
114	0xba6975df	-0.0008905809
115	0xba6975df	-0.0008905809
116	0x3a6975df	0.0008905809
117	0xba6975df	-0.0008905809
118	0xba6975df	-0.0008905809
119	0x384330d4	4.6537098e-05
120	0x3a6975df	0.0008905809
121	0xba6975df	-0.0008905809
122	0x3a6975df	0.0008905809
123	0xba6975df	-0.0008905809
124	0xba6975df	-0.0008905809
125	0xba6975df	-0.0008905809
126	0xb9d80a0d	-0.0004120622
127	0x39b6c1bc	0.00034858088
128	0x3a623511	0.00086291233
129	0x3a7eaec3	0.00097153726
130	0xba59e180	-0.0008311495
131	0xba5ad507	-0.00083477836
132	0x3a4a1569	0.0007708879
133	0x3a5d3a2c	0.0008439149
134	0x3a6527d4	0.00087415916
135	0xba5d2e26	-0.00084373576
136	0x3a53da4b	0.00080815394
137	0xba91c10e	-0.0011120157
138	0x3a43aef9	0.00074647326
139	0xba700bb2	-0.0009157016
140	0xb9853739	-0.0002540888
141	0x3a71a118	0.0009217425
142	0x3a8794ce	0.001034403
143	0x3a3a276b	0.00071012106
144	0xba6fa2b1	-0.00091413694
145	0xba885493	-0.0010401182
146	0xba4fd00a	-0.00079274236
147	0xba7c0ef8	-0.00096152676
148	0xba5e7037	-0.0008485349
149	0xba5beab1	-0.0008389159
150	0x3a4f0b0c	0.00078980695
151	0xba85fd4c	-0.0010222583
152	0xba69cc3e	-0.0008918679
153	0x3a6420e2	0.00087024097
154	0x3a611549	0.00085862406
155	0x3a60b7b7	0.00085722975
156	0x3a67423a	0.0008821819
157	0xba6508e2	-0.00087369804
158	0x3a66a2a2	0.0008798038
159	0xba74daca	-0.00093404634
160	0xba7f88d0	-0.00097478647
161	0xba538e71	-0.00080702367
162	0x3a4c6f26	0.0007798545
163	0x3a4b685e	0.00077593874
164	0xba4660d0	-0.0007567527
165	0x3a595dff	0.00082918996
166	0x3a57a649	0.00082263775
167	0x3a4fe7d5	0.0007930969
168	0x3a69ffeb	0.00089263794
169	0xba7c56b5	-0.00096259575
170	0x37965458	1.7920669e-05
171	0x3a3a401c	0.000710489
172	0x3a4dcbd5	0.0007850503
173	0xb9b3624e	-0.00034214783
174	0x3a50364d	0.0007942662
175	0x3a684f6a	0.0008861931
176	0x3a5df0f9	0.00084663887
177	0xb82e99cc	-4.1628067e-05
178	0xba77495f	-0.00094332354
179	0xba8f107b	-0.0010914946
180	0xba84c4bc	-0.0010129432
181	0xba802960	-0.0009777956
182	0xba84daf2	-0.0010136052
183	0xba551b1f	-0.00081293465
184	0xba6e8b4e	-0.00090997375
185	0x3a2fd6b0	0.0006707711
186	0x3a4a50af	0.0007717711
187	0x3a594d82	0.00082894426
188	0xba7a5e90	-0.0009550834
189	0x3a57ad5b	0.0008227431
190	0x3a713d6b	0.00092025724
191	0x3a3d0744	0.00072108605
192	0xba7b7ff8	-0.0009593959
193	0xba6cc3a7	-0.000903184
194	0xba865183	-0.0010247681
195	0x3a5287d8	0.00080311066
196	0x3a62fb7a	0.0008658689
197	0x3a758941	0.0009366461
198	0x3a3f3400	0.00072938204
199	0xba89fc2d	-0.0010527425
200	0xba7d098f	-0.00096526084
201	0x3a6e3c92	0.0009088005
202	0x3a2d4035	0.0006608994
203	0x3a7acdd0	0.00095674116
204	0xba4fc2fe	-0.00079254794
205	0x3a82a0c6	0.0009966127
206	0x3a3e56c6	0.0007260855
207	0x3a513b50	0.00079815555
208	0xba82f17b	-0.000999018
209	0xba84b3d4	-0.0010124394
210	0x3a469829	0.0007575774
211	0x3a783545	0.0009468387
212	0x3a6a9e1d	0.00089499523
213	0x394482c0	0.00018740725
214	0xba194d18	-0.00058479747
215	0xb96a364f	-0.0002233621
216	0xba60a50e	-0.0008569517
217	0xba78a8ad	-0.0009485584
218	0x3a687fc5	0.0008869137
219	0x3a530d10	0.00080509577
220	0xba749127	-0.0009329491
221	0x3a630775	0.0008660474
222	0x3a5183d3	0.00079923606
223	0xb96de2ca	-0.00022686567
224	0x3995903e	0.00028526963
225	0x3a464606	0.0007563535
226	0x3a57d369	0.00082331017
227	0x3a7f04e2	0.00097282056
228	0x3a4c224a	0.0007787092
229	0xba867052	-0.0010256863
230	0xba84f61b	-0.0010144146
231	0x3a331edd	0.0006832907
232	0xba7bd4ea	-0.0009606617
233	0x3a5b7781	0.00083719945
234	0xb859e260	-5.194766e-05
235	0xba2b617a	-0.00065376575
236	0xba819677	-0.0009886761
237	0x3a37a703	0.00070057827
238	0x3a7560d1	0.0009360435
239	0x3a70cef8	0.0009186114
240	0x3a71db2a	0.00092260784
241	0x3a591fb7	0.0008282619
242	0xba83d806	-0.0010058887
243	0x3a45137f	0.0007517859
244	0xba6d0ebc	-0.0009043028
245	0x3a690c1d	0.00088900496
246	0x3a59d8c8	0.0008310196
247	0x3a5f3699	0.00085149106
248	0xba799604	-0.000952095
249	0xba648463	-0.0008717237
250	0xb9c3fffb	-0.0003738402
251	0xba6f87cb	-0.0009137361
252	0xba632abf	-0.00086657325
253	0xba841920	-0.0010078289
254	0x3a6e0e17	0.0009081079
255	0x3a799260	0.0009520408
