our-vTR/10_fold_lightning_logs/dataset1/fold_9/version_0/checkpoints/epoch=29-step=1049_fold9.ckpt (torch, 132433 bytes, 18 tensors)

conv1d.weight f4 [128, 4, 12]
000000 c0 56 11 3b 06 41 bb bd 34 74 02 be 46 e7 e2 3d
       0.0022176951 -0.091432616 -0.1273964 0.11079268
000010 26 6f 11 3e c0 e7 43 3e 0b 5e 7c be e2 88 b8 bd
       0.14202556 0.19131374 -0.2464525 -0.09010483
000020 fa c3 19 be b3 00 6c be e3 7f 8f bd 52 a0 06 bf
       -0.15016165 -0.23047142 -0.07006814 -0.5258838
000030 bc a9 b8 3d 2b 1f 9a bd d4 2d e1 3c 99 41 17 3e
       0.09016749 -0.07525476 0.027487673 0.14771117
000040 3c e2 c4 be d5 92 7b be 40 aa 29 be c3 4f ae be
       -0.38453853 -0.2456773 -0.16568851 -0.34045228
000050 e9 cb 37 be ad aa 61 be 7b 60 73 be 49 16 e8 3d
       -0.1794888 -0.22037764 -0.23767273 0.113323756
000060 e9 29 b6 bd e3 77 50 bd d3 be 1c bc 8d 10 2d be
       -0.088947125 -0.050895583 -0.00956698 -0.16900845
000070 3b 25 ed bd b2 f2 c8 be cd cb 9d 3d 7f a8 ce 3d
       -0.11579367 -0.39247662 0.077048875 0.10090732
000080 b4 33 2e 3e aa c3 bb be d4 f7 1f 3e 72 c7 68 be
       0.1701191 -0.36672717 0.15621883 -0.22732332
000090 be 4d e5 bc f1 0f 24 bd 68 6b b4 bd 94 f2 ab be
       -0.027991172 -0.040054265 -0.088095486 -0.3358351
0000a0 b0 f1 0c be 8d 6d f0 bd 73 ec 12 3c 26 d7 08 be
       -0.13764071 -0.11739645 0.008967507 -0.13363323
0000b0 be d3 25 be 51 c9 0d 3e 1e bb c9 be 93 69 be bc
       -0.16194054 0.13846327 -0.39400572 -0.023243701
0000c0 a5 97 b5 bc 80 f2 1f 3e f4 5a de be 1c 5d 46 3b
       -0.022167036 0.1561985 -0.43428767 0.00302679
0000d0 5d e7 98 be 00 fe cf 3d ac 87 29 be b7 52 bf bd
       -0.29864016 0.101558685 -0.16555661 -0.093419485
0000e0 cf a3 3d be 06 1a 96 be 8d 41 39 be b3 d9 e6 bd
       -0.1851952 -0.2931673 -0.18091412 -0.112719916
0000f0 f2 89 dc 3d 76 f5 77 3c 58 e6 a3 3c 43 6c 02 be
       0.107684985 0.015134206 0.020007297 -0.12736611
000100 08 cd 81 3d a8 d4 9a 3d e7 18 0a 3e b0 88 64 3d
       0.06337935 0.07560092 0.13486062 0.055794418
000110 2b 2c 4d bd e1 be 13 3e 33 da 9c 3d d8 c6 8b 3b
       -0.05009095 0.14428283 0.07658806 0.0042656474
000120 76 8a 58 3b 99 23 a3 3c 77 d6 2d 3d ee 58 a3 3d
       0.0033041514 0.019914435 0.042440858 0.07975946
000130 50 18 55 be 4e 67 bd 3d af db 73 be 23 1d 6e be
       -0.20810056 0.092482194 -0.23814271 -0.23253302
000140 8b 71 88 be 65 de cf bd ea 99 2b bb 32 8e 1f 3d
       -0.26649126 -0.1014984 -0.002618427 0.038953967
000150 5d fe ec 3c cd 2b 89 3d cb 33 27 bd cf c1 c8 3d
       0.028929884 0.066978075 -0.040820878 0.09802591
000160 53 ca a7 bc da 68 a2 bb eb b7 8f be ba f0 05 3e
       -0.020482218 -0.004956347 -0.28070006 0.13080111
000170 9a 17 38 3e 7c dc a3 be b9 d5 56 be 59 90 30 3e
       0.17977753 -0.32004154 -0.20979966 0.17242564
000180 00 be 0d 3e d5 42 3c bd dc 9d 48 3e fc 40 79 be
       0.1384201 -0.045962173 0.19591469 -0.24341196
000190 62 ab 9b 3d d4 e4 4d 3e 27 0b 9d bd 56 4d 05 be
       0.07601048 0.20106822 -0.07668143 -0.13017783
0001a0 21 90 0c bd a7 00 4c be ca 73 4f 3e 30 8e 6a be
       -0.03431714 -0.19922124 0.20259014 -0.22905803
0001b0 77 1c 48 be c6 fe 04 3d 07 dd 83 be 12 af b8 be
       -0.19542108 0.032469533 -0.25754568 -0.36071068
0001c0 52 7f a0 3d 85 b5 11 3d ab f5 12 be 4e 4c b9 bd
       0.078367844 0.0355735 -0.14351527 -0.09047757
0001d0 1e 8d 15 bd 19 3c c1 bc 88 4c 42 be 3d cb 82 3d
       -0.036511533 -0.023588227 -0.18974507 0.06386421
0001e0 ab fa c9 3b f9 92 96 3c 06 34 7f be 48 ad d8 3d
       0.006163915 0.018380629 -0.24922189 0.10579926
0001f0 45 3a 16 3e ed 27 47 be d4 e1 a4 bb ad 16 57 3d
       0.14670666 -0.19448824 -0.0050318036 0.05251186
000200 c2 17 36 3e b0 1b c0 3d df 9f d6 be a2 48 7e 3b
       0.177825 0.09380281 -0.41918847 0.0038800617
000210 9a fe 34 be 8d 79 7a bd 73 60 21 be 7f af 00 3e
       -0.17675248 -0.061151076 -0.15759449 0.12566946
000220 29 12 db bc bc d3 0e 3d 71 f9 89 3d b9 02 6e 3d
       -0.026742058 0.034869894 0.0673703 0.058108065
000230 42 e0 f8 bd 7e 07 c8 be cc 1f 7b bd af dc 81 3e
       -0.12152149 -0.39068216 -0.06130962 0.2536368
000240 c2 16 80 be 58 cf a4 be 9f 94 25 3e a4 5b 89 be
       -0.25017363 -0.3218944 0.16169976 -0.2682773
000250 02 83 50 3e 49 b4 07 be 96 32 5f be 73 3b 4d be
       0.20362476 -0.13252367 -0.21796641 -0.2004221
000260 64 a1 66 bd 2e 68 c7 be 65 ac 0d 3e b1 4c 36 bd
       -0.056306258 -0.3894667 0.13835295 -0.044506732
000270 7b d5 53 3d ab 36 90 3d c3 fe 41 be ac 3b ee bd
       0.051717263 0.07041677 -0.1894484 -0.11632475
000280 1d 56 51 be 44 7c 61 be e6 55 10 be b4 8f fd bd
       -0.20443006 -0.2202006 -0.14095268 -0.12380925
000290 7d f5 82 ba 5d f0 35 bd 7b 8a 7b be ca e4 78 be
       -0.0009991374 -0.04441868 -0.24564545 -0.24306026
0002a0 ed 3d 1c be 69 30 24 3d d6 25 51 3d d6 a4 68 be
       -0.15257998 0.04008523 0.051061474 -0.2271913
0002b0 fd 59 50 be b2 2e 84 3e 4a 16 ba 3d 66 72 86 be
       -0.20346828 0.25816876 0.090862826 -0.26259154
0002c0 ba 4f fb bc 62 99 b5 bd 91 1e c3 3d 78 3e 3f bc
       -0.030677665 -0.08867146 0.095273145 -0.011672609
0002d0 b9 c2 98 3d c8 21 32 3e 70 47 82 3c f4 37 6e 3e
       0.074590154 0.17395699 0.015903205 0.23263532
0002e0 0c 12 23 be 80 94 41 3d 25 89 8c 3d 4f 97 0e 3e
       -0.15924853 0.04726076 0.06862096 0.13924907
0002f0 64 ca fd 3d 39 38 bf 3d a9 db 92 3d a2 53 b5 3d
       0.123921186 0.093368955 0.07170803 0.08853842
000300 2c 78 15 be 57 d7 f0 3c a5 11 92 3d ba 68 b3 bd
       -0.14596623 0.029399557 0.07132272 -0.087602094
000310 3e 40 27 3e 6a 93 2e 3e 70 6d 1a 3e 00 d6 45 be
       0.163331 0.17048422 0.1508081 -0.19319916
000320 39 8d 54 3d 6d 5c 4b 3d e5 ed 84 be 0b 6e 22 bd
       0.051892493 0.04964869 -0.2596275 -0.039655726
000330 a3 65 27 3e 82 d3 4f bc 03 b6 cc bd df 76 57 bd
       0.16347365 -0.012684705 -0.099956535 -0.0526036
000340 a7 1d 07 be 40 8a 22 3d 4b 09 17 be ca 5f 51 3e
       -0.13194905 0.039682627 -0.14749639 0.20446697
000350 9d fb 66 3e 6e 5e 7f 3d 3c 35 aa 3d 84 dd 80 bd
       0.2255692 0.062345915 0.08310935 -0.06292251
000360 bf d8 a2 bd fc 52 24 be 1e ee ea 3c 41 d4 64 3e
       -0.07951497 -0.16047281 0.028677996 0.22346593
000370 5f c9 f4 3d f2 b4 1b 3d bb bc 50 be 5c 7d e0 bd
       0.11952471 0.03801436 -0.20384495 -0.109614104
000380 18 1e 38 be 78 be 50 be 96 61 77 be e4 75 33 3c
       -0.1798023 -0.20385158 -0.2415832 0.0109534
000390 ea 2e ee bd fc 94 80 be f7 9b c3 be 29 ff 78 bd
       -0.11630042 -0.25113666 -0.3820493 -0.060790215
0003a0 f4 13 10 be 21 e6 86 be 8e df cc be 56 2d a9 be
       -0.14070112 -0.2634745 -0.4001431 -0.330424
0003b0 b6 4a 07 be 3e 55 0c be be a0 e8 3b ce c9 59 3e
       -0.13212094 -0.13704392 0.00709924 0.21268389
0003c0 15 0c 1f 3e 96 10 8c be e8 4f de 3b ce fc d2 bd
       0.15531953 -0.27356404 0.006784428 -0.10302125
0003d0 ec 96 22 be de 7d af 3d 91 49 0b be e5 71 18 be
       -0.15877885 0.08568929 -0.13602282 -0.14887197
0003e0 43 4d 0c 3e 62 94 8b 3d db 6a 15 3d d5 ae 8c 3d
       0.13701348 0.06815411 0.03647886 0.06869284
0003f0 55 3f bf bd fa e9 7e bd ef 66 1a 3e 6f 2c 04 3e
       -0.093382515 -0.062234856 0.15078329 0.12907575

conv1d.bias f4 [128]
000000 4a 21 38 be d7 c7 e3 bc 93 ec 84 bd 58 47 41 3d
       -0.17981449 -0.027805252 -0.064904355 0.04718718
000010 a1 3d 01 bd 69 7f a6 ba 20 ad a6 bd 51 87 e8 3d
       -0.031552915 -0.0012702766 -0.0813849 0.113539346
000020 df 35 16 3d 20 10 dd bc 0c 83 34 3b 07 83 97 3d
       0.03667247 -0.026985228 0.002754393 0.07398038
000030 c6 83 ff 3d 6b 9c bb bc 5e 16 85 3d 5c 97 3e 3c
       0.12476306 -0.022901734 0.06498407 0.011632767
000040 e4 99 89 3d fc 17 ce 3d be a9 7f bd 81 45 bf bd
       0.067188054 0.100631684 -0.06241774 -0.09339429
000050 53 1a fc bd 5d 98 fb bd 26 b5 10 be 84 5e 16 3d
       -0.123097084 -0.1228492 -0.14131603 0.03671123
000060 8a 89 e0 3a 83 9f fc bd 14 d6 eb bd 02 02 7b 3c
       0.0017130834 -0.12335112 -0.115154415 0.015320303
000070 7f ba b6 3d fd b5 0f be d9 46 03 be 02 1b 47 bd
       0.0892229 -0.14034267 -0.12819995 -0.04860974
000080 2d 92 c9 bd 62 6e 7d bd 0d c1 4e 3d 40 d0 1a be
       -0.09842334 -0.061872847 0.050477076 -0.15118504
000090 86 d1 7e bd 11 c0 f1 bd 91 dd e6 3c 5e 77 30 3d
       -0.062211536 -0.11804212 0.028181823 0.043082587
0000a0 c6 c8 8f 3c 2f 7f aa bd 36 48 85 bd 64 86 5e 3d
       0.01755179 -0.083250396 -0.06507914 0.054327384
0000b0 63 36 ca bd fa 8b d3 bb 8b 9f 4d bd c5 f7 0d 3e
       -0.09873655 -0.0064558955 -0.05020098 0.13864048
0000c0 d7 bc 51 bd 63 ac 0d bc a6 90 48 3c 62 58 11 be
       -0.051205482 -0.008647057 0.012241518 -0.14193872
0000d0 d2 af a3 bd 7a 36 b7 3c 76 1f 2a 3d c8 79 09 bd
       -0.079925194 0.022364844 0.04153391 -0.033563405
0000e0 16 5b 31 bd 62 1b c6 bd b8 7a 23 bb 59 c9 eb 3d
       -0.043299757 -0.096731916 -0.0024944972 0.115130134
0000f0 6d 2e a5 3d 0d 90 cd bc 6e 14 9e 3d dc 46 12 be
       0.08065496 -0.025093103 0.077187404 -0.14284843
000100 52 53 52 bd d7 e9 ba bd a4 be a2 bd e2 83 70 3d
       -0.05134899 -0.09126633 -0.07946518 0.058719523
000110 77 9f 0f be 14 e5 25 3b 2a 49 8c bc 09 0b 13 be
       -0.14025675 0.0025313543 -0.017124731 -0.14359678
000120 ad 9a c9 3d 33 e4 24 be 38 15 9e 3d 21 07 47 bd
       0.09843955 -0.16102676 0.07718891 -0.048590783
000130 80 eb 22 bd 72 87 1d 3c 97 03 35 bd 5e b2 06 3d
       -0.03977537 0.009614812 -0.044192877 0.032884948
000140 15 4a 02 be 68 2b f4 bc 15 7f 05 3c 41 9f a8 3d
       -0.12723573 -0.029805854 0.0081479745 0.082335
000150 d9 04 c1 bb f0 3e a6 3d 49 13 1d bc 7e da 3e 3d
       -0.0058904705 0.08117473 -0.0095871175 0.04659509
000160 82 9e 09 be b4 a8 6c bd 56 9a 4a bc 93 97 d4 bd
       -0.13439372 -0.057778075 -0.012365898 -0.10380473
000170 cf ba 08 be 35 8d 2e 3d 1f f8 71 bd 31 dc 21 be
       -0.13352512 0.042615134 -0.059074517 -0.15806653
000180 f5 a2 10 bd 3b f6 18 bd 1b 9d 6b bd 8e 2e 28 3d
       -0.035311658 -0.0373442 -0.057522874 0.041060023
000190 4b 4b a5 bd 1e 07 df 3b 1e bd a4 3d 52 73 80 bd
       -0.080710016 0.0068062684 0.08043884 -0.062719956
0001a0 8d 52 f5 3c c5 8a 55 bd e4 e4 80 3d df e4 6e 3d
       0.02994659 -0.052134294 0.062936574 0.058323737
0001b0 98 fa fc bd dc 69 33 bd 62 0b 8f bc 70 8b 7d bd
       -0.123524845 -0.043802127 -0.017461482 -0.061900556
0001c0 d1 01 dc bd 19 03 f8 3d 18 98 dd bb cd cc 7b bd
       -0.10742534 0.12109966 -0.0067625158 -0.06147461
0001d0 e2 2f 3d 3c 64 b9 71 3d 9c 6a af 3d 07 6a 05 be
       0.011547061 0.059014693 0.08565256 -0.13028727
0001e0 18 aa 95 bd 58 bc a6 3d fb 18 e9 bd 92 34 02 3e
       -0.073078334 0.081413925 -0.11381718 0.12715366
0001f0 66 0b 39 bc 9f ba 1c be 67 97 fb 3d c9 e3 20 bc
       -0.0112942215 -0.15305565 0.12284737 -0.009819933

linears.0.weight f4 [32, 128]
000000 2c 77 65 38 0c 73 ab 37 1b ec c8 39 2e 5f 45 b9
       5.4708842e-05 2.0438361e-05 0.00038322885 -0.00018822841
000010 3d f3 99 b8 ad a5 a7 b8 a3 ea 29 39 88 6f 0a b9
       -7.340915e-05 -7.99404e-05 0.00016204505 -0.00013202254
000020 42 b2 09 39 43 21 18 39 ae 53 d5 39 18 eb 35 38
       0.00013131744 0.0001450824 0.00040688872 4.337271e-05
000030 28 55 a4 39 24 8a 89 39 8f 1d 26 b9 9c 9b ec b7
       0.00031343964 0.000262336 -0.00015842005 -2.8205854e-05
000040 77 70 7d b9 ed 29 cf b7 83 0d c5 b8 9c 78 14 37
       -0.00024169857 -2.4695846e-05 -9.396209e-05 8.849569e-06
000050 95 5b 69 b8 9b 30 fc 38 d3 20 bb b7 09 97 da b8
       -5.563682e-05 0.0001202535 -2.2307422e-05 -0.000104231825
000060 7c f8 1c b8 d1 65 a1 b7 6f bd ab 34 f3 70 ad b8
       -3.7424717e-05 -1.9240108e-05 3.1989063e-07 -8.270321e-05
000070 3e f9 04 38 6c be 7e 38 b4 ca 3f b9 d9 76 a1 b8
       3.1703377e-05 6.0735663e-05 -0.00018290692 -7.699215e-05
000080 ab fa ad 38 90 1e f9 38 48 a7 83 38 14 f9 11 b7
       8.2959734e-05 0.00011878938 6.277725e-05 -8.7006665e-06
000090 b5 34 fc b8 c2 c1 8a 37 d3 70 44 b8 78 30 ce 39
       -0.00012026114 1.6541107e-05 -4.6835117e-05 0.00039327494
0000a0 22 db c8 36 0f 51 1a b6 24 44 f7 b8 5f 7c 38 39
       5.985975e-06 -2.299497e-06 -0.0001179057 0.00017593939
0000b0 1d 3c 59 b9 34 c5 26 b9 2f f1 f1 b8 a6 27 80 38
       -0.00020717127 -0.00015904458 -0.000115366995 6.110901e-05
0000c0 59 c4 9a 38 9d ee 89 37 a4 25 9f 38 b1 c5 48 b8
       7.379865e-05 1.6442786e-05 7.588722e-05 -4.786783e-05
0000d0 01 73 ce b8 66 29 31 39 20 69 97 38 61 43 4a 39
       -9.8442666e-05 0.00016895458 7.219822e-05 0.00019289322
0000e0 23 a2 cc 38 6b aa 52 b8 70 3e 6f b9 c6 56 4f 39
       9.757678e-05 -5.0226616e-05 -0.00022816076 0.00019773384
0000f0 ec db e0 37 8b 02 60 39 23 4b 38 b8 77 ec 28 39
       2.680529e-05 0.00021363252 -4.3938995e-05 0.00016109819
000100 01 83 58 b9 38 2d 11 b7 5f 6b 17 38 bc 1c 46 b9
       -0.00020648168 -8.653202e-06 3.6101203e-05 -0.00018893456
000110 d4 dc e9 b8 71 f0 79 b9 b6 63 87 b9 29 31 c5 38
       -0.00011151438 -0.00023836062 -0.00025823497 9.402849e-05
000120 bd b3 80 b9 c8 fe af b9 78 9a d1 b8 29 34 a2 38
       -0.00024547978 -0.00033568428 -9.994669e-05 7.7344775e-05
000130 be a1 e0 38 dd 6b d1 b8 e9 7b 1b b8 77 dd 9c 37
       0.00010711279 -9.985988e-05 -3.707028e-05 1.8699777e-05
000140 83 74 20 b9 d9 22 d9 b7 56 46 3b b7 b1 3e ca b8
       -0.00015302193 -2.5884643e-05 -1.1162445e-05 -9.643788e-05
000150 81 01 23 39 7b 1c dc b8 86 e3 fb b6 88 e0 2a 38
       0.00015545452 -0.000104957224 -7.50687e-06 4.074027e-05
000160 67 75 6d b9 53 42 3d 39 b5 11 90 38 84 ae ce b8
       -0.00022645817 0.00018049152 6.869753e-05 -9.8553515e-05
000170 46 04 c9 38 22 d0 a6 39 76 4d bc 39 12 ac 1a 39
       9.585223e-05 0.00031817058 0.00035915867 0.00014750686
000180 27 b1 7a b9 55 dd 5a 39 ed 31 ea b7 e2 d8 62 38
       -0.00023907852 0.00020872553 -2.7918222e-05 5.4084587e-05
000190 7f ad d2 38 17 40 24 39 89 77 81 b8 2b 13 e9 b7
       0.000100458965 0.00015664134 -6.1734645e-05 -2.778469e-05
0001a0 44 40 3d 39 b0 05 32 37 65 5a 5a 37 50 46 38 b9
       0.00018048385 1.0610951e-05 1.3014859e-05 -0.00017573801
0001b0 69 87 0f b8 45 f1 a0 b9 5d ca 96 37 fc 3a e8 b8
       -3.4219967e-05 -0.00030697338 1.7975626e-05 -0.00011073609
0001c0 14 39 02 b9 22 af 06 39 6d 81 96 b8 64 d3 94 37
       -0.0001241903 0.00012844478 -7.176665e-05 1.7741411e-05
0001d0 df 8f 50 37 36 da 07 38 94 74 3b b8 9f b2 32 b9
       1.2431264e-05 3.2389733e-05 -4.4692846e-05 -0.00017041944
0001e0 0e 10 9a b9 99 0c 7e 38 4f 8d 81 b8 db f9 bc 37
       -0.0002938513 6.057005e-05 -6.17752e-05 2.2527694e-05
0001f0 02 d3 66 b8 81 99 36 b7 a5 03 56 37 0b 98 12 39
       -5.503279e-05 -1.0883786e-05 1.27562425e-05 0.00013980285
000200 ef 99 6e 39 a8 e6 1d b9 c0 9e 40 38 e2 f0 8d b8
       0.00022754793 -0.00015058613 4.5924215e-05 -6.768272e-05
000210 29 08 28 39 57 6f 43 39 2b 56 32 39 07 a4 56 38
       0.00016024768 0.00018638126 0.00017007503 5.117434e-05
000220 e5 74 a5 b7 12 97 1d b9 c2 36 4e 39 9b e8 2b b9
       -1.9723966e-05 -0.00015028965 0.0001966609 -0.00016394483
000230 f1 ab e3 38 ef 43 f6 38 e7 1f 87 39 f5 b1 3f 38
       0.0001085623 0.00011742848 0.00025772976 4.5703684e-05
000240 31 2e 14 39 e1 0e d1 38 c5 19 00 b9 4e fe 90 38
       0.00014131588 9.968668e-05 -0.00012216631 6.913823e-05
000250 57 bc 1f b8 22 42 e8 b8 59 0a 79 b9 86 4d fe b8
       -3.808396e-05 -0.0001107494 -0.00023750345 -0.00012126104
000260 6c 69 2d 38 c9 36 4b 38 7e 16 10 b9 20 fa 05 b9
       4.1344596e-05 4.8449994e-05 -0.00013741289 -0.00012777047
000270 95 1b 82 38 cb 6e d6 b8 a8 92 02 b9 4e 67 8e 37
       6.2040206e-05 -0.00010224952 -0.000124524 1.6975824e-05
000280 1c 0c 9d b8 6b f1 c2 b8 9b be 71 b5 ac a6 0b 38
       -7.488599e-05 -9.2956085e-05 -9.0056864e-07 3.3295408e-05
000290 02 4c aa b7 ad 6d eb 38 68 cb a8 38 69 e7 42 35
       -2.0300973e-05 0.00011226102 8.0487516e-05 7.260738e-07
0002a0 fb 5a 9f 38 57 03 38 b8 7a c5 3e 39 27 21 1c b8
       7.598657e-05 -4.387213e-05 0.00018193378 -3.7224174e-05
0002b0 bf 82 87 38 4b e9 76 39 52 e5 c9 b8 08 f3 06 36
       6.461655e-05 0.00023547297 -9.627141e-05 2.0109019e-06
0002c0 47 b1 cf b8 7b 51 a1 38 ce c1 e4 b8 8f 2f b9 b6
       -9.90355e-05 7.692255e-05 -0.00010907986 -5.518966e-06
0002d0 8c 46 5d b8 e9 73 f6 b7 8b ff 0b b9 f6 bf 7d 39
       -5.2756208e-05 -2.937946e-05 -0.0001335127 0.00024199471
0002e0 ef 1b 8f 38 da c9 58 39 9b b5 04 b8 35 0f 13 b8
       6.8239744e-05 0.00020674561 -3.1640386e-05 -3.5061694e-05
0002f0 c3 7c 79 b7 19 2a 6c 38 1f be b8 b8 d6 87 de b5
       -1.4870605e-05 5.630599e-05 -8.8092165e-05 -1.6579822e-06
000300 18 f0 e0 b8 76 72 51 39 df 72 ab 37 bc 98 0e b9
       -0.00010725873 0.00019974433 2.043828e-05 -0.00013599073
000310 4a 89 5e 38 d5 f5 67 38 ae 19 33 b8 d8 7e 20 39
       5.3056785e-05 5.530364e-05 -4.270084e-05 0.00015306042
000320 5a 0c 5f b8 b8 9e 80 38 ee a8 3d b9 b1 88 a3 39
       -5.3178846e-05 6.133079e-05 -0.00018087376 0.00031191626
000330 f4 92 d8 38 02 a5 ee b8 00 99 91 37 a5 e2 da 37
       0.00010327055 -0.000113794595 1.7356593e-05 2.6093165e-05
000340 ca b3 65 b7 6c 6b d4 38 d7 fd 96 38 eb 2f b7 38
       -1.3691324e-05 0.00010128957 7.199839e-05 8.7350454e-05
000350 50 d6 cf b8 80 9e 6b b9 60 24 ba b8 2c 72 a2 37
       -9.910448e-05 -0.00022470392 -8.8759465e-05 1.936507e-05
000360 75 12 65 38 e1 07 a0 38 ad f6 2b b8 a4 d6 dd b4
       5.4615044e-05 7.630862e-05 -4.099931e-05 -4.132063e-07
000370 b4 88 32 39 38 2b 29 b9 99 92 14 b8 b2 bf fb b7
       0.00017026329 -0.00016133196 -3.542248e-05 -3.0010797e-05
000380 a1 7a 09 39 b6 8a a5 38 26 15 72 b9 76 d2 b4 b8
       0.00013111021 7.89365e-05 -0.00023086797 -8.62227e-05
000390 da 40 47 38 3b 56 88 b9 8b 3f 06 36 e8 c8 6b 39
       4.7505695e-05 -0.00026004188 2.0004543e-06 0.0002248619
0003a0 1d a6 0c b9 d0 1d 71 38 bc 60 b6 b8 1d 95 9b 37
       -0.00013413322 5.7486643e-05 -8.6964545e-05 1.8546876e-05
0003b0 e5 6e bd 39 6e e6 8b b7 4d 3f 3e 39 91 28 1f 39
       0.00036131512 -1.6677393e-05 0.00018143393 0.00015178534
0003c0 23 30 a1 38 46 a5 d0 38 44 9a 8a b8 f7 0d 03 b9
       7.6860444e-05 9.9489975e-05 -6.609087e-05 -0.00012498336
0003d0 0a e8 1f 39 91 07 34 b8 e6 6b a8 38 3f a5 ad b8
       0.00015249863 -4.292239e-05 8.030962e-05 -8.280062e-05
0003e0 69 bc 6b b8 98 5e e6 b8 2d a9 5e 35 59 8a 9f b7
       -5.6203837e-05 -0.00010984874 8.294763e-07 -1.90187e-05
0003f0 7c 89 b9 b8 6f 85 cd 37 13 6e 05 39 d3 fa 30 b8
       -8.847096e-05 2.450004e-05 0.00012724874 -4.2195268e-05

linears.0.bias f4 [32]
000000 39 a1 1f 38 23 8d b1 b7 0f 0c 41 b9 92 35 33 38
       3.8058704e-05 -2.1165766e-05 -0.00018410406 4.2726817e-05
000010 e6 97 e3 34 63 c1 43 b8 87 50 45 37 a6 ec 5c 38
       4.2392566e-07 -4.667173e-05 1.1760864e-05 5.2672483e-05
000020 ca d9 ff b8 6d 6f 04 b8 13 a3 6a b8 7e fb 8b 3b
       -0.00012199914 -3.1575026e-05 -5.5941822e-05 0.0042719236
000030 d6 74 2d 3d 9f ed 23 39 65 59 2a 39 b4 ff 1a 36
       0.04234775 0.00015633412 0.00016245765 2.3096627e-06
000040 8f 2b c4 38 2d d5 3f b9 8f 31 76 b8 16 ac 44 39
       9.354122e-05 -0.00018294594 -5.8697125e-05 0.00018756124
000050 31 56 a2 3c 3d a3 03 b8 50 57 b0 38 51 23 d6 3c
       0.01981649 -3.138486e-05 8.408597e-05 0.026139887
000060 1a b6 5b b9 b8 1c 29 b8 04 18 54 3d 8b bb df 39
       -0.00020953306 -4.0319486e-05 0.051780716 0.00042673605
000070 4a 0b ac 36 24 0f 27 b8 1b a0 ca 38 a4 28 a4 b9
       5.1273137e-06 -3.9830004e-05 9.6619326e-05 -0.00031310797

linears.2.weight f4 [2, 32]
000000 e4 e2 f7 b8 13 37 94 39 25 06 37 b9 9d 86 1a 39
       -0.000118201395 0.00028269793 -0.00017454529 0.00014736732
000010 ac 28 23 37 46 ab 81 37 76 d4 a6 38 77 56 b0 36
       9.725027e-06 1.5457754e-05 7.955071e-05 5.2552746e-06
000020 98 86 cb 37 7d ca 2e b7 db ec bf 3e bb d3 15 bf
       2.426216e-05 -1.0418354e-05 0.37485394 -0.585262
000030 94 47 b6 3e f9 d2 50 bd 4e c4 2e 38 bf ab 90 3e
       0.35601485 -0.05098245 4.1667656e-05 0.28256032
000040 f5 87 0d b9 7d 5f 73 b9 5d 02 9d 3e b6 c5 32 37
       -0.00013497456 -0.00023209858 0.30665866 1.065566e-05
000050 63 4f 25 bf 76 8c 6a 39 7c 04 a1 b8 59 c6 d6 3e
       -0.6457426 0.00022368305 -7.6779135e-05 0.41948202
000060 b8 ab 8d 37 e0 1d 1a b8 bb ae 09 bf c5 43 d6 b8
       1.6888473e-05 -3.6744284e-05 -0.5378224 -0.00010216938
000070 a9 1c f6 37 53 27 34 b8 ec df 15 b8 fe 18 3e 38
       2.9338831e-05 -4.2951968e-05 -3.573291e-05 4.5322806e-05
000080 f3 01 4b b9 c2 f5 b8 35 3b f5 5a 37 a4 bc b9 b8
       -0.00019360315 1.3780593e-06 1.305091e-05 -8.8566245e-05
000090 80 a6 04 37 0d 26 b9 b8 1f d1 c8 b9 ba 27 93 b9
       7.906579e-06 -8.828575e-05 -0.0003830278 -0.00028067623
0000a0 39 3f 7d b9 24 d1 7b b7 7a 9e aa be 35 7b 21 3f
       -0.00024151512 -1.500946e-05 -0.33324033 0.63078624
0000b0 d3 a5 0e bf 6f 5e 3c bd 59 77 16 39 09 cc 1f be
       -0.5572178 -0.045988496 0.00014349575 -0.15605177
0000c0 78 3b 72 b9 85 18 dc 38 de 86 8b be 80 ea c0 b5
       -0.00023101072 0.000104949846 -0.27251333 -1.4373363e-06
0000d0 80 5e 13 3f 66 0d 16 b9 cd 21 df 38 a0 b0 7b be
       0.5756607 -0.00014310106 0.000106397645 -0.24579096
0000e0 01 7f 20 38 67 47 c8 b8 27 2f 29 3f 42 1c 45 b8
       3.8265254e-05 -9.550043e-05 0.66087574 -4.6994777e-05
0000f0 5e 80 c0 37 5a 81 c9 38 db 6f 82 35 0e c4 77 39
       2.294796e-05 9.6085205e-05 9.718309e-07 0.00023628792

linears.2.bias f4 [2]
000000 ee 25 33 bc 0c 25 01 3d
       -0.010934336 0.03152947

exp_avg f4 [128, 4, 12]
000000 a4 c8 1f 3b 69 57 85 3b f6 2e f5 39 77 e8 d1 3b
       0.0024381066 0.004069258 0.0004676503 0.006405886
000010 0a 5b d6 3b 06 41 90 3b 14 8b 2d 3a 01 3e a4 3a
       0.0065416144 0.0044022826 0.00066201505 0.0012530686
000020 7c ef 08 3a 3a a0 13 3b 6f 0c 17 ba d2 d7 8f 39
       0.0005223674 0.0022525922 -0.00057620456 0.00027435884
000030 fe 83 a6 ba 2c 34 55 3b c9 8c cc 3a 7b f0 90 3a
       -0.0012704132 0.0032532318 0.0015605922 0.0011057997
000040 ec 3a c2 3a ba 76 cf 3a 37 ae 0c 3a 1a 28 9b 3a
       0.0014818585 0.001582823 0.0005366536 0.0011837513
000050 ec 8a 7d 3a f6 bb 5e ba af b6 74 3b 6e 97 af 3b
       0.0009671885 -0.00084966363 0.0037340333 0.005358628
000060 40 8a 61 3b 12 e7 17 3b 03 9b 6f 3b 39 44 95 ba
       0.0034414679 0.00231785 0.00365609 -0.001138813
000070 3c c6 11 b9 d9 6d 90 39 82 23 44 3a 93 8c 2e 3b
       -0.00013902126 0.00027547663 0.0007482098 0.0026634082
000080 4d e3 ef 3a 37 9e dd ba b3 94 45 3b f0 5a 8c 39
       0.0018301994 -0.0016908114 0.0030148446 0.00026770635
000090 64 86 1b 3b 88 ab 24 bb 3d db b8 3a 6d 37 3d 3a
       0.0023731226 -0.0025126655 0.0014103424 0.0007218037
0000a0 fb ad 29 ba 7e 62 98 3a ca 74 89 3b 37 c5 56 3a
       -0.00064727635 0.0011626033 0.0041948305 0.00081928395
0000b0 fe 21 5c 3b 73 e7 d4 3b 28 09 0d b8 19 44 7f 39
       0.0033589597 0.0064973175 -3.3625547e-05 0.00024344063
0000c0 c3 46 6a 3a e2 61 fd 39 b1 c7 23 38 2d 1c a3 39
       0.0008936936 0.0004832885 3.9048206e-05 0.00031110775
0000d0 ac 2e 96 b8 a7 1f 46 39 a1 7a 78 39 27 ef 84 38
       -7.161251e-05 0.00018894543 0.00023696806 6.338796e-05
0000e0 23 a0 e3 39 01 72 a2 b4 ed c2 b1 39 8c de 35 b9
       0.00043416125 -3.02578e-07 0.00033905302 -0.0001734441
0000f0 af 40 04 39 ac fc 73 3a e7 58 13 39 90 7e 9f b8
       0.00012612597 0.00093073654 0.00014052131 -7.605285e-05
000100 e9 42 24 3a d2 d4 f1 3a 38 1c 88 3a 55 2b ad 39
       0.0006266074 0.0018450266 0.0010384386 0.00033029416
000110 3d 77 9b 39 fe a4 94 3a 79 94 b2 39 cc 96 3b 3a
       0.00029652743 0.0011340675 0.00034061426 0.00071559544
000120 6d f9 db b8 9d 88 60 39 58 f7 34 b9 5d d1 e6 3a
       -0.00010489193 0.00021413197 -0.0001725828 0.0017610003
000130 15 ac a4 b7 1b 8f 58 ba 6a 6e 76 38 ef 51 aa 39
       -1.9630455e-05 -0.00082610705 5.87538e-05 0.00032485972
000140 26 92 ac b9 97 f5 7a 38 ad a3 af 39 14 57 9c 39
       -0.00032915286 5.9833368e-05 0.0003350055 0.00029819517
000150 07 8e dd 39 f5 61 98 b9 f6 64 ae 3a 39 a2 2c ba
       0.00042258223 -0.00029064683 0.0013305235 -0.00065854524
000160 17 47 52 3a 47 f1 07 39 a5 c6 60 36 08 3f 22 3a
       0.00080214575 0.00012964486 3.3494227e-06 0.0006189202
000170 b7 30 74 3a c0 06 09 39 8a 14 b2 39 d6 3f 02 3a
       0.00093151204 0.00013067853 0.00033966108 0.0004968619
000180 38 ec 02 ba 8e 0e 8d b8 ec 7f 0f bb a1 b2 ba b8
       -0.0004994306 -6.726115e-05 -0.0021896316 -8.9024434e-05
000190 8a 29 f3 39 68 61 1c bb cf 30 35 38 27 f6 1d b9
       0.0004637952 -0.002386177 4.319922e-05 -0.00015064386
0001a0 05 d4 6d 3a 0b e0 9e 39 74 d2 73 ba 50 7e 67 39
       0.0009072426 0.00030303033 -0.00093010743 0.00022076932
0001b0 c9 7d f1 b9 20 ae 40 bb ce a4 03 b8 84 80 9f b9
       -0.0004606082 -0.0029400662 -3.138632e-05 -0.00030422595
0001c0 d9 a3 3b 38 db b3 37 ba 86 4e b4 39 3c 39 7e 3a
       4.473687e-05 -0.00070076965 0.0003439078 0.00096978596
0001d0 ec d7 7d b9 96 85 a9 ba 54 f8 03 b9 0b 73 03 bb
       -0.00024208397 -0.0012933488 -0.00012585643 -0.0020057585
0001e0 53 a7 d2 b9 b8 8f 59 3a 3e 1d b2 b9 b4 e7 2a bb
       -0.00040178988 0.0008299309 -0.00033972593 -0.0026078047
0001f0 14 bc 0b bb 79 5b f9 39 d9 6a 74 ba 29 15 b7 ba
       -0.002132182 0.00047561133 -0.0009323783 -0.0013968098
000200 c1 54 62 bb 32 d5 95 ba bf 7c 25 b9 f2 94 d5 39
       -0.003453538 -0.0011431335 -0.00015782098 0.000407375
000210 5e de 37 ba 49 6c ef 38 82 6b 02 3a 53 d8 75 3a
       -0.0007014031 0.00011416578 0.00049751264 0.0009378243
000220 9b 77 e6 b9 28 e0 0f 3a 6e e0 c6 ba e1 81 b9 ba
       -0.00043958132 0.0005488419 -0.0015173086 -0.0014153087
000230 56 cb 3e 3a 00 8b c3 39 65 b6 1d ba 0b 05 a0 b8
       0.0007278224 0.0003729686 -0.00060162536 -7.630334e-05
000240 45 37 79 b5 eb e0 ad b8 c8 a3 03 bb 89 82 80 39
       -9.2840156e-07 -8.291177e-05 -0.0020086635 0.0002451132
000250 04 c6 3b bb 66 73 d8 ba f5 02 47 3a 55 71 07 ba
       -0.0028651962 -0.0016513884 0.0007591688 -0.0005166729
000260 b4 77 e9 b7 50 93 9f 39 ee 21 2d bb 0a df 6c ba
       -2.7831506e-05 0.000304366 -0.0026417929 -0.0009035921
000270 cc 5b 72 ba 9b e5 8c ba 3e a9 c6 ba dd e0 c3 ba
       -0.0009245246 -0.001074958 -0.0015156639 -0.0014944334
000280 9b 78 eb 3a 7c 08 2a 3a 6c 2e 7f 3a 15 0b a3 ba
       0.001796502 0.00064862496 0.00097343954 -0.0012439216
000290 7d 90 c5 ba 08 ea 09 bb be e3 13 b8 ce f7 ab ba
       -0.0015072968 -0.0021044035 -3.5259633e-05 -0.0013120116
0002a0 d9 84 bf 3a 1e d3 81 ba 5a c7 03 bb 83 c2 3f b9
       0.0014611735 -0.0009904837 -0.0020107836 -0.0001828764
0002b0 4a 2f 51 bb e7 28 bf bb c8 31 a2 bb 2c 8b 95 39
       -0.0031919056 -0.0058337334 -0.004949782 0.00028523186
0002c0 71 6b 80 b9 f4 85 be ba 51 17 b5 ba 01 27 66 b7
       -0.00024494113 -0.0014535771 -0.0013816153 -1.371815e-05
0002d0 14 ca 87 bb c5 59 bf ba fa 8e fc 3a fd 9b 0e bb
       -0.0041439626 -0.0014598897 0.0019268685 -0.0021760457
0002e0 69 e8 dc 39 4f 58 3b 3b 95 9e 8a ba 58 48 27 bb
       0.0004213483 0.0028586572 -0.0010575826 -0.0025525298
0002f0 4f f9 1b bb 18 3b 96 ba 76 c4 ad b9 b9 9b 12 bb
       -0.0023799723 -0.0011461703 -0.00033143506 -0.002237065
000300 fe 80 a0 b9 14 9b 2d 3a e4 77 76 3a 8d 62 7d 3a
       -0.00030613685 0.0006622535 0.00094020204 0.00096658693
000310 61 99 74 3b b5 8e 56 38 f2 01 06 3b 80 88 e8 39
       0.0037322866 5.1154482e-05 0.0020447937 0.0004435219
000320 29 a0 0c 39 20 b2 49 3a a4 3e a2 39 60 d4 bc 3a
       0.00013411105 0.0007694084 0.0003094572 0.0014406554
000330 90 ed 8c 3b e5 fe 32 3a a0 1c 2b 39 20 ef 6c 3a
       0.0043007806 0.00068281434 0.00016318494 0.0009038318
000340 ed 6e 9d 39 e2 64 72 3b 91 a6 0a 3b 80 24 f9 3a
       0.0003002802 0.00369864 0.002115641 0.001900807
000350 1d 91 65 3b 25 63 41 3b 6a 5a 92 3a f4 76 3b b9
       0.0035029121 0.0029508558 0.0011165862 -0.00017878023
000360 4c bd 97 ba c6 10 df 3a 4b 70 37 3b d8 d8 ca 3a
       -0.0011576801 0.0017018549 0.0027990516 0.0015476001
000370 de dc 93 ba 9b 4d e3 b9 64 ba f1 b9 d3 12 b0 3a
       -0.0011281034 -0.00043354635 -0.00046105974 0.0013433344
000380 53 47 06 39 b8 f9 dd 37 5b ac 8d 3a ee 42 18 3b
       0.00012805806 2.6461537e-05 0.0010808812 0.0023233253
000390 92 28 8f 3a 0a 47 67 3a 4a 4b e0 37 28 ff 05 3a
       0.0010922125 0.00088225363 2.673794e-05 0.00051115686
0003a0 9d 4f 86 3a 03 ac 20 3a ae d8 6b 39 21 30 73 39
       0.0010247115 0.00061291474 0.00022492066 0.00023192215
0003b0 c0 46 26 39 c4 42 cf 39 49 0b b7 3a f8 d0 70 b7
       0.0001585735 0.0003953186 0.0013965155 -1.4353769e-05
0003c0 f2 a1 85 ba c4 7e f4 39 d0 92 d3 b9 3f 39 88 3a
       -0.0010195358 0.00046633754 -0.0004035444 0.0010393037
0003d0 f1 1b e4 b8 57 c8 47 bb 09 98 ee b9 a3 e3 a1 ba
       -0.00010877092 -0.0030484402 -0.00045508172 -0.0012351166
0003e0 09 bb f1 b9 1b ef 6b bb 77 c1 9d bb fa 35 21 bb
       -0.00046106454 -0.0036000672 -0.0048143226 -0.0024598823
0003f0 90 11 ad 39 be 13 00 bb c7 21 41 bb 97 76 bc bb
       0.00033010216 -0.0019543017 -0.0029469596 -0.0057514417

exp_avg_sq f4 [128, 4, 12]
000000 0e 9b ed 38 8b 01 d9 38 e6 09 bf 38 0a dc 92 39
       0.00011329922 0.00010347654 9.1094334e-05 0.00028011232
000010 a5 98 44 3a 28 54 6e 3a 0b 05 ad 37 8c 0d ec 38
       0.00074995524 0.000909152 2.0625555e-05 0.0001125588
000020 4f 79 91 37 88 40 0e 38 7d 17 5a 38 c7 a1 02 37
       1.7341836e-05 3.3915538e-05 5.1997125e-05 7.7862705e-06
000030 64 aa b2 39 f4 05 4b 39 79 bc 81 39 07 69 de 39
       0.00034077757 0.00019361806 0.0002474522 0.0004242139
000040 4c 9d d3 37 bf 8f 86 37 ed 9b 8d 38 6f 62 37 37
       2.5226407e-05 1.6040982e-05 6.7524474e-05 1.0930568e-05
000050 b6 e8 ed 37 8a e9 89 37 88 30 34 38 5e 18 f6 39
       2.8360966e-05 1.6440423e-05 4.2960542e-05 0.0004693893
000060 31 ac 06 39 43 a5 51 39 d3 e4 80 39 fc b9 93 38
       0.00012843382 0.00019993358 0.0002458455 7.0441485e-05
000070 ce bb c7 38 2c 42 c0 37 69 47 30 3a f5 15 28 3a
       9.524041e-05 2.2918997e-05 0.0006724508 0.0006411963
000080 21 ef 5c 3a cd 36 1b 38 63 49 36 3a 1a 73 8b 38
       0.0008427967 3.7005917e-05 0.00069536845 6.649476e-05
000090 96 c3 09 39 71 30 3f 39 0b ba e4 38 77 28 0c 37
       0.000131382 0.00018233225 0.000109065404 8.354072e-06
0000a0 5b 07 c7 37 72 26 11 38 7a a8 f6 38 ed 87 42 38
       2.3726074e-05 3.46065e-05 0.00011761575 4.6379795e-05
0000b0 0e 16 da 37 6f a9 5c 3a 11 73 11 38 25 ae 2c 39
       2.5997895e-05 0.00084175816 3.4677858e-05 0.00016468072
0000c0 07 c9 fb 35 e3 c1 34 37 94 70 1f 33 39 bb ac 36
       1.8759464e-06 1.0773979e-05 3.712246e-08 5.147795e-06
0000d0 a8 8b 63 34 0d 86 f7 36 e4 fe 93 34 b0 f6 ba 34
       2.1191829e-07 7.376779e-06 2.756634e-07 3.4824689e-07
0000e0 95 58 a7 34 8d 04 9e 33 c5 9a 87 35 dc 78 8f 34
       3.1170626e-07 7.358276e-08 1.0103328e-06 2.6723762e-07
0000f0 59 62 8e 37 20 e0 86 36 a5 70 51 37 9b 8b 03 36
       1.6973516e-05 4.019603e-06 1.2483598e-05 1.9601782e-06
000100 f1 e9 a3 37 36 bd 2e 37 4f a4 1a 38 a7 ad 28 37
       1.9540052e-05 1.0415262e-05 3.6869485e-05 1.0054012e-05
000110 0c 22 ef 35 64 c7 16 38 a9 c2 c5 37 2b ae ba 36
       1.7816797e-06 3.5948484e-05 2.3574876e-05 5.563508e-06
000120 3a 3f 61 36 2f e6 90 36 e3 9e 39 37 32 df f1 36
       3.3564415e-06 4.3183313e-06 1.1063853e-05 7.208343e-06
000130 c7 fd 09 36 36 8c 0f 36 4f a4 62 34 47 0c 23 34
       2.0562309e-06 2.1390274e-06 2.1107665e-07 1.5185024e-07
000140 a7 fe be 32 e5 15 01 35 90 35 72 36 fe a2 95 36
       2.2234714e-08 4.8088106e-07 3.6091988e-06 4.459521e-06
000150 9f 5b 47 36 e9 84 8c 36 88 6c 1e 36 af 3a 1c 37
       2.9706641e-06 4.187798e-06 2.3607008e-06 9.311988e-06
000160 44 1c b6 36 8a d2 54 36 da 8e 4b 34 ff 12 8b 37
       5.427313e-06 3.1713012e-06 1.8957817e-07 1.6578937e-05
000170 1b 35 03 38 32 af 1c 34 30 1d 3e 35 52 8a 67 37
       3.1282292e-05 1.4592368e-07 7.082299e-07 1.3800878e-05
000180 42 49 66 38 3c 83 24 37 54 58 e3 38 8b fc 6f 35
       5.49045e-05 9.805717e-06 0.00010840656 8.9401937e-07
000190 64 67 7b 37 8e 2f 20 38 e6 9f 41 37 03 d9 49 36
       1.4984838e-05 3.819126e-05 1.1540926e-05 3.0077651e-06
0001a0 2e c4 0d 37 bf 3b 8a 36 cc 2d aa 38 4f 9a fd 34
       8.449932e-06 4.119676e-06 8.114762e-05 4.7237197e-07
0001b0 4b 63 41 36 0c 83 bb 37 e7 bf ff 34 93 07 08 35
       2.8817037e-06 2.235316e-05 4.763708e-07 5.067497e-07
0001c0 68 9f 9d 37 36 c9 87 37 a6 e7 b4 36 4f 9c 49 36
       1.8790088e-05 1.618695e-05 5.3913855e-06 3.0042318e-06
0001d0 00 b8 9e 36 2d 85 73 37 e2 69 15 36 ad 4d 77 37
       4.7301874e-06 1.4514936e-05 2.2264362e-06 1.4740433e-05
0001e0 0f fc 9f 37 c5 6c 0e 38 d3 96 de 35 57 ed 88 38
       1.9071651e-05 3.3956738e-05 1.6584185e-06 6.529193e-05
0001f0 94 6a 2f 38 59 42 ac 36 db ad fc 37 a5 65 42 38
       4.182251e-05 5.1337233e-06 3.0121699e-05 4.634787e-05
000200 59 6c 8a 38 0f f8 83 38 8e d0 6b 34 cc af 8a 37
       6.600534e-05 6.292771e-05 2.1961952e-07 1.6532744e-05
000210 b2 17 6f 36 1a 91 4c 36 f0 8e 02 36 9f 6e b1 37
       3.5627568e-06 3.048283e-06 1.945471e-06 2.1151556e-05
000220 7a 20 26 36 36 45 70 37 43 ea a1 37 0a 24 d5 37
       2.4754831e-06 1.4321229e-05 1.9301782e-05 2.540836e-05
000230 8f 54 44 36 63 a6 8c 34 33 4f 12 37 0f 92 25 38
       2.9255496e-06 2.6198094e-07 8.720718e-06 3.9475093e-05
000240 cd e5 28 37 41 e2 75 35 87 cb 98 38 4c a3 f1 36
       1.0067085e-05 9.1598855e-07 7.285835e-05 7.20137e-06
000250 10 eb 9d 39 d0 1d 77 36 3c 26 12 37 92 84 2b 37
       0.0003012051 3.6823221e-06 8.71118e-06 1.0223261e-05
000260 07 f8 35 37 fb 71 c6 35 df ae a2 38 2a 80 da 37
       1.0846189e-05 1.4785322e-06 7.757334e-05 2.6047306e-05
000270 6f ce f3 38 af 8a 6e 38 9e e6 2c 37 ce f3 cf 37
       0.00011625594 5.687278e-05 1.0305694e-05 2.4789853e-05
000280 95 1c 8b 37 a1 08 0e 37 2b c6 5f 37 b5 07 a6 37
       1.65834e-05 8.465869e-06 1.3337975e-05 1.9792331e-05
000290 d0 c6 7e 38 f1 60 93 38 ac b6 77 36 5c 2f 1d 37
       6.0743478e-05 7.027563e-05 3.6912197e-06 9.368956e-06
0002a0 3e 3b f1 37 5a 67 84 38 6a eb e8 38 16 1b 1b 37
       2.8757026e-05 6.313501e-05 0.00011106471 9.245026e-06
0002b0 a8 88 dd 37 2e 27 9b 39 0d b4 24 39 06 21 46 37
       2.6408889e-05 0.00029593095 0.00015707333 1.18094085e-05
0002c0 ff 11 65 38 a2 44 1e 38 6d 88 ee 38 04 d4 08 39
       5.4614615e-05 3.7734055e-05 0.00011374136 0.00013048953
0002d0 c9 bc 11 39 ff 5c 3a 39 a7 b6 97 38 60 5a a7 39
       0.00013898606 0.00017772986 7.234263e-05 0.00031920057
0002e0 0c 19 5d 37 3d e8 46 38 8f 50 ff 38 a7 62 a6 39
       1.3178458e-05 4.7423167e-05 0.00012174353 0.0003173549
0002f0 54 c3 1a 39 80 6e 38 39 fd 3c 9e 38 34 76 08 39
       0.0001475935 0.00017588772 7.545387e-05 0.00013014005
000300 40 07 b6 37 8e 78 12 39 a6 e8 0a 39 29 a8 c1 37
       2.1699467e-05 0.00013968555 0.00013247374 2.3085699e-05
000310 4b 63 25 39 da c4 19 39 dc be c5 39 cb 68 47 37
       0.00015772616 0.0001466455 0.0003771697 1.1885723e-05
000320 3a 97 19 38 65 0c e0 38 cd ad 81 37 25 8d d4 37
       3.6618883e-05 0.00010683461 1.545893e-05 2.5338095e-05
000330 fb ba a1 39 f1 e5 f2 38 b8 40 44 38 90 6d e4 37
       0.00030847624 0.00011582289 4.6790316e-05 2.7230737e-05
000340 53 58 eb 36 6f 0d 5e 38 79 ba 85 37 09 59 e5 39
       7.013828e-06 5.2941436e-05 1.5941669e-05 0.0004374462
000350 f6 f6 b6 39 b8 05 69 39 4b c9 87 39 f2 d8 a8 37
       0.00034897745 0.00022222742 0.00025899181 2.0128184e-05
000360 41 16 46 38 d5 eb 4f 38 80 39 2a 39 01 a2 be 39
       4.7227604e-05 4.957228e-05 0.00016233884 0.00036360326
000370 b8 92 35 39 68 94 05 39 ff 0a 78 37 8d 2e 24 37
       0.00017316162 0.00012739154 1.4784512e-05 9.786e-06
000380 db 78 2a 36 1c bd ba 36 5e 84 5c 37 0e d4 68 38
       2.5402321e-06 5.565247e-06 1.3143841e-05 5.55106e-05
000390 a4 9f 7a 37 8d d1 e7 37 0d 8c 07 36 40 17 3a 37
       1.493833e-05 2.7634926e-05 2.0198088e-06 1.1091877e-05
0003a0 c6 1e 39 37 64 0d 9c 36 32 4e 72 36 1a 69 87 35
       1.1034024e-05 4.650721e-06 3.6106326e-06 1.0088872e-06
0003b0 f1 31 aa 37 e5 ac a7 37 de 8d 8c 38 40 11 69 39
       2.0288835e-05 1.9988462e-05 6.702145e-05 0.00022227038
0003c0 21 87 67 39 e8 90 9b 36 71 1c 0a 38 d7 ca 09 38
       0.00022080216 4.6362293e-06 3.2928252e-05 3.2852255e-05
0003d0 c1 07 ab 37 04 69 4b 39 6c f8 94 37 9a fd 97 37
       2.03884e-05 0.0001939871 1.7758655e-05 1.8118695e-05
0003e0 f6 74 37 39 53 61 0e 39 52 0c d3 38 f5 66 72 38
       0.00017495811 0.00013578431 0.00010063559 5.7793182e-05
0003f0 89 bc 81 38 6d 9b 12 38 40 21 94 39 c9 10 b8 39
       6.186317e-05 3.4953864e-05 0.00028253533 0.0003510772

exp_avg f4 [128]
000000 a2 cb e4 3b 66 4f af 3a 48 37 07 bb 46 78 6c bb
       0.0069822827 0.0013375103 -0.0020632315 -0.003608243
000010 50 c0 80 3b df 02 7d bb ab b3 65 bb 24 c1 9d 3a
       0.0039291754 -0.0038606448 -0.0035049717 0.001203571
000020 1e d6 08 3b ba 6e 1b bb c1 6f a8 3b 4f f2 55 3b
       0.0020879577 -0.0023717121 0.005140275 0.0032645648
000030 c8 05 fb ba d7 de 2a 3b 4d 84 22 bb 24 a8 38 bb
       -0.0019151503 0.0026072764 -0.0024798096 -0.0028176391
000040 da 01 b7 ba d3 96 12 3b c6 d5 85 ba 0f 7c 04 bb
       -0.0013962344 0.002236773 -0.0010210804 -0.0020215546
000050 1b cc 52 3a 45 9e 02 bb 86 b6 be 3a ff e1 fc ba
       0.00080412783 -0.0019930762 0.0014550246 -0.0019293426
000060 ba 67 83 3b 2d b1 30 3b 41 da 17 3b 45 4c 99 3a
       0.004010168 0.0026961074 0.002317086 0.0011695704
000070 ac 4f 06 3b fc c1 3e 3b b0 cd 36 bb f9 ae 4d bb
       0.0020494265 0.0029107323 -0.0027893595 -0.003138481
000080 28 5c 95 3a 8e 12 c5 ba cd 43 d1 ba 0f 8b fc 3a
       0.0011395263 -0.0015035437 -0.0015965641 0.0019267517
000090 1d 91 37 bb f7 f6 6e 3b bf ba 3e bb 1c 3a 52 bb
       -0.0028010078 0.003646312 -0.0029103009 -0.0032078093
0000a0 76 55 44 bb 9c 8e d9 3b d8 50 61 3b a7 0e 2d bb
       -0.0029958165 0.006639315 0.0034380462 -0.0026406439
0000b0 a2 33 63 bb 56 27 30 3b 10 81 22 3b 3b 57 40 bb
       -0.0034668227 0.0026878915 0.0024796166 -0.0029348868
0000c0 7f 99 0e bb e0 c8 31 bb b2 74 40 bb ee 28 98 3b
       -0.0021758971 -0.0027127787 -0.002936643 0.004643551
0000d0 c5 af 64 3b b8 19 c5 ba bf 83 57 3b 52 23 1e 3b
       0.0034894806 -0.0015037572 0.0032884923 0.002412994
0000e0 0b 46 11 bb f6 7b 87 bb 78 e4 8a 3b d4 5a 59 3b
       -0.0022166993 -0.0041346503 0.0042386614 0.003316571
0000f0 b5 e3 57 bb 5f 34 1b bb 77 55 9a 3a dd 83 fc ba
       -0.003294212 -0.0023682339 0.0011774738 -0.0019265373
000100 37 ea 51 3b ca 76 33 bb 8a 11 87 bb b2 a9 be ba
       0.0032030472 -0.0027384036 -0.004121964 -0.0014546423
000110 78 29 20 bb 7b 49 17 bb 7a 97 1f bb 43 4b 13 3b
       -0.002443878 -0.002308457 -0.0024351762 0.002247528
000120 e1 d6 1e bb b6 b7 03 bb bc f2 84 3b 9c 7c 29 3b
       -0.0024236965 -0.0020098514 0.0040572565 0.0025861626
000130 9e cc 6c 3b 44 6d 30 3b 72 4f 38 bb c6 e8 f6 3a
       0.0036132704 0.0026920596 -0.0028123525 0.0018837682
000140 9f b4 ac 3b 80 69 ae 3a 66 21 b6 3a 51 5b 2a 3b
       0.005270555 0.0013306588 0.0013895452 0.002599437
000150 57 bb 52 3b 37 36 bf ba a8 ed d1 3a fa 6c 3d 3b
       0.003215512 -0.0014588301 0.0016016262 0.0028904066
000160 87 d4 08 bb d0 bd 76 bb dc f1 14 3b a9 f6 8b 3b
       -0.002087863 -0.0037649758 0.0022727167 0.0042713475
000170 77 3d 38 bb 68 38 84 3b 16 86 bb ba ec 77 bb 3b
       -0.0028112808 0.0040350445 -0.0014306928 0.005721083
000180 aa 92 77 3b d4 2c 8a 3a 1d 9c 4d bb c0 dc d1 ba
       0.0037776628 0.0010541924 -0.0031373568 -0.0016011223
000190 9d 22 89 3b 9b ae 88 bb 7a 44 07 bb b3 1b 6a 3b
       0.0041850344 -0.004171205 -0.002064018 0.0035722076
0001a0 17 5f 4d 3b a0 4b e1 3a 52 f0 38 bb 1a 46 ea ba
       0.0031337196 0.0017188676 -0.0028219414 -0.0017873675
0001b0 ae 8f 2b bb f5 cb 0d bb cd ac f8 ba 7e e8 07 bb
       -0.002617817 -0.002163646 -0.0018972397 -0.0020737941
0001c0 75 5a 2d 3b 06 2b 67 3b 0e 31 2e 3b 96 b8 6b bb
       0.0026451622 0.0035273447 0.0026579532 -0.0035968176
0001d0 1f 86 0e bb ad 4c e7 3b 58 ec 83 ba 03 7b 0b 3b
       -0.0021747423 0.007058701 -0.0010064943 0.0021283037
0001e0 67 66 8e 3b 81 5e 33 bb b1 cf 17 bb 7a 07 5c bb
       0.0043457034 -0.002736956 -0.0023164565 -0.0033573792
0001f0 93 f6 26 3b 4e 53 61 ba c2 4c f8 ba df 48 0c bb
       0.002547656 -0.0008595482 -0.0018943774 -0.002140574

exp_avg_sq f4 [128]
000000 9d 6c a4 3a 2e 04 26 38 07 87 fe 38 b4 e2 f4 39
       0.0012544576 3.9581377e-05 0.000121368146 0.00046708214
000010 51 ef 09 3a 14 6c ff 39 a2 0c bd 39 3c 6e 4e 38
       0.0005261796 0.00048717915 0.000360583 4.921689e-05
000020 54 c8 ce 38 29 db 63 39 5f d9 7b 3a 4b 1d 8e 39
       9.8601595e-05 0.0002173005 0.0009607281 0.00027106176
000030 f1 55 0e 39 a1 0a 6f 39 b0 31 2d 39 53 b3 88 39
       0.00013574191 0.00022796776 0.00016517076 0.00026073548
000040 b9 db 6d 38 d1 36 ff 38 5e db 3b 38 4d d3 14 39
       5.6709836e-05 0.00012169558 4.4788576e-05 0.00014193096
000050 94 33 0a 37 78 44 d8 38 48 8c 9a 37 50 ef 31 38
       8.23745e-06 0.00010312436 1.8423554e-05 4.2422966e-05
000060 d4 30 c6 39 a8 dc 31 39 48 56 2c 39 3a 76 13 38
       0.00037801883 0.00016962236 0.0001643534 3.515764e-05
000070 a4 87 d5 38 3a d7 84 39 64 ae 96 39 4e 69 9b 39
       0.000101818965 0.00025337358 0.0002874016 0.00029642362
000080 aa bd 3f 38 10 5f 87 38 1a 94 01 39 b7 ca 92 38
       4.5714587e-05 6.4550084e-05 0.00012357571 6.999581e-05
000090 38 4a a1 39 0d 10 d5 39 19 73 a2 39 35 01 ef 39
       0.0003076361 0.00040638485 0.00030984802 0.00045586532
0000a0 a4 61 96 39 d1 7e ce 3a 7e fe ff 39 88 03 87 39
       0.00028682977 0.0015754347 0.00048827002 0.00025751838
0000b0 aa e3 f5 39 f2 1e 3e 39 29 32 50 39 40 92 a9 39
       0.00046899664 0.0001813134 0.00019855112 0.00032343157
0000c0 fa 24 f4 38 ec 89 7a 39 7f d7 b2 39 25 85 50 3a
       0.00011641714 0.00023893238 0.00034111363 0.00079544104
0000d0 d6 b7 ce 39 82 01 bb 38 28 ed ca 39 5d 09 3b 39
       0.0003942835 8.917136e-05 0.00038705138 0.00017837198
0000e0 54 79 01 39 be a8 02 3a 3e a7 13 3a c2 e0 a5 39
       0.00012347597 0.0004984251 0.0005632526 0.0003163871
0000f0 b3 7e a8 39 e7 d7 59 39 b0 bc 52 38 0a de c0 38
       0.00032137855 0.00020775163 5.024363e-05 9.1966314e-05
000100 4b 00 8d 39 c6 61 8d 39 22 08 48 3a 63 dc ba 38
       0.00026893834 0.00026966463 0.00076306064 8.9102214e-05
000110 9c 84 27 39 8c 5f 6b 39 d3 ec 54 39 ba 78 3d 39
       0.00015975762 0.0002244694 0.0002030612 0.00018069419
000120 82 ab 83 39 2f 6b ee 38 7d 1c 09 3a dc 62 2c 39
       0.0002511405 0.00011368689 0.00052303803 0.00016440026
000130 10 c6 b8 39 a0 9e 5f 39 e9 f5 9c 39 c8 fc fc 38
       0.00035242783 0.0002132603 0.00029937856 0.000120633806
000140 f6 3d 8f 3a 06 e1 4a 38 4f 07 51 38 70 43 38 39
       0.00109285 4.8370122e-05 4.983629e-05 0.0001757273
000150 80 18 b5 39 14 05 9d 38 05 95 41 38 56 9b 15 39
       0.00034541264 7.487289e-05 4.615357e-05 0.00014267614
000160 d6 d5 20 39 3e a9 e0 39 96 46 0b 39 90 cd 1f 3a
       0.00015338449 0.00042850705 0.00013282368 0.0006096
000170 24 74 2b 39 17 bd ec 39 eb 56 9c 38 88 1d 8f 3a
       0.00016351097 0.0004515431 7.4548494e-05 0.0010918835
000180 d8 7f 02 3a 56 02 ab 37 d7 38 c1 39 5b 41 c8 38
       0.00049781566 2.0385876e-05 0.00036854178 9.5489166e-05
000190 75 56 f5 39 44 a1 39 3a 82 8a 0e 39 2d cb c6 39
       0.00046794457 0.00070812204 0.00013593773 0.0003791688
0001a0 b4 5c a9 39 fd 2a 82 38 75 f1 88 39 b4 a2 db 38
       0.0003230326 6.20689e-05 0.0002611984 0.000104730396
0001b0 fc c7 8e 39 da 9c 3e 39 a1 ac eb 38 3d 11 fc 38
       0.0002723335 0.00018178244 0.00011237828 0.00012019507
0001c0 12 b5 37 39 ac 54 d8 39 47 41 2e 39 0c 62 ee 39
       0.00017519694 0.00041261816 0.00016618251 0.00045467948
0001d0 da 00 40 39 aa e2 d8 3a 7e 08 14 38 6d 89 f5 38
       0.00018310864 0.0016547043 3.529386e-05 0.00011708108
0001e0 29 a8 0a 3a 14 73 9b 39 03 e6 43 39 3b 9c d5 39
       0.000528934 0.00029649644 0.00018682335 0.00040742927
0001f0 5a 5c 63 39 c1 18 04 38 e6 64 48 39 0a 12 40 39
       0.0002168281 3.1494306e-05 0.00019111074 0.00018317267
