our-vTR/2_fold_lightning_logs/dataset1/fold_0/version_2/checkpoints/epoch=0-step=20_fold0.ckpt (torch, 132113 bytes, 18 tensors)

conv1d.weight f4 [128, 4, 12]
0	0xbac8a416	-0.001530769
1	0xbce73955	-0.02822558
2	0xbdf6e2ff	-0.12055015
3	0x3d9d91f9	0.07693858
4	0xbd52e16f	-0.05148452
5	0x3bebf8d8	0.0072012953
6	0xbda4efac	-0.08053526
7	0xbe133d20	-0.14378786
8	0xbddf0d09	-0.10891158
9	0xbcac312d	-0.021019543
10	0xbdc57fcd	-0.09643517
11	0x3df521f4	0.11969367
12	0x3c8ba9c6	0.017048728
13	0xbd310b31	-0.043223564
14	0x3db53c28	0.088493645
15	0xbd56250f	-0.052281436
16	0xbd4442b0	-0.04791516
17	0x3aca517b	0.001543566
18	0x3da9412e	0.08264385
19	0xbd96dc80	-0.07366276
20	0xbdd6ebe0	-0.10494208
21	0x3dd3050e	0.103036985
22	0xbe1f32c5	-0.15546711
23	0x3e0155bb	0.1263036
24	0x3d6f3951	0.05840427
25	0xbdf41228	-0.119175255
26	0xbd23822c	-0.039919063
27	0xbddaab32	-0.10677184
28	0xbd613a3e	-0.054987185
29	0xbde0f68f	-0.10984527
30	0x3d0b6ce2	0.034039386
31	0xbc7063dc	-0.014672246
32	0x3d0ac5b9	0.03387997
33	0xbcc5b04d	-0.024131918
34	0xbde1f5f3	-0.11033239
35	0xbe0647ba	-0.13113299
36	0x3c381416	0.011235258
37	0x3dbb8ae0	0.09157348
38	0x3d2a96ef	0.041647848
39	0x3dc76c02	0.09737398
40	0xbc831ea7	-0.016005827
41	0xbdc09e1e	-0.094051585
42	0xbdae5b1e	-0.08513473
43	0xbe0515e7	-0.12996636
44	0xbd9a495a	-0.07533522
45	0xbd5c257f	-0.053746697
46	0x3d923c8a	0.07140453
47	0x3df789ba	0.12086816
48	0x3d90b994	0.07066646
49	0xbd7a66ab	-0.061133068
50	0x3d56af26	0.05241313
51	0xbd4f7ca7	-0.050655987
52	0xbd8c2023	-0.06842067
53	0x3e06c81e	0.13162276
54	0x3c2ba982	0.0104774255
55	0x3c822d62	0.01589078
56	0xbe0e2c1f	-0.13884018
57	0x3d8d1cd8	0.06890267
58	0xbc8efd7d	-0.017454857
59	0xbc619083	-0.013767364
60	0x3d5a571a	0.053305723
61	0xbdbfa017	-0.093567066
62	0x3dbbad9f	0.09163975
63	0x3d569d7e	0.05239629
64	0x3b5e0eb3	0.0033883273
65	0xbde93f60	-0.11389041
66	0x3d99c6e3	0.07508638
67	0x3d21227f	0.03933954
68	0x3e00d504	0.12581259
69	0x3dca8f8b	0.0989066
70	0x3da56dae	0.0807756
71	0xbe00bbb9	-0.1257161
72	0x3da79d20	0.08184266
73	0x3d3d503a	0.046219088
74	0xbdad6bd6	-0.08467834
75	0x3da81e85	0.08208946
76	0x3d972fe0	0.07382178
77	0xbe1046a4	-0.14089447
78	0x3dccf79a	0.10008164
79	0x3b8aabb7	0.004231896
80	0xbda4b18b	-0.08041676
81	0xbdfabf46	-0.12243514
82	0x3dadcab4	0.08485928
83	0xbe00c062	-0.12573388
84	0x3da0285e	0.078201994
85	0xbdeb3d21	-0.11486269
86	0x3da521ae	0.080630645
87	0xbdc0034e	-0.0937563
88	0xbd8768f7	-0.06611817
89	0xbd5f5362	-0.05452288
90	0xbd99585f	-0.074875586
91	0xbdc7e8a1	-0.09761167
92	0x3de4fff2	0.1118163
93	0x3d8aa642	0.067699924
94	0xbd2c81d2	-0.042115994
95	0xbdd85622	-0.105633035
96	0xbd8ffe00	-0.070308685
97	0x3da65b26	0.08122854
98	0x3df2cfed	0.11856065
99	0xbcf24ac8	-0.029576674
100	0xbd984cc2	-0.074365154
101	0x3dc026eb	0.09382423
102	0x3d97c6a6	0.07410936
103	0x3da95cb6	0.08269636
104	0xbd7ae17a	-0.061250187
105	0x3c1a05d3	0.009400803
106	0x3d94ed52	0.07271828
107	0x3d9ac967	0.07557946
108	0xbdf3630e	-0.118841276
109	0x3c515f2e	0.01277904
110	0xbd66cc93	-0.05634744
111	0x3da7c041	0.081909664
112	0x3deb235f	0.11481356
113	0x3d88c2e9	0.06677801
114	0x3bc647ec	0.006051054
115	0x3e06d50b	0.13167207
116	0x3d85870e	0.065199
117	0x3ce74afa	0.028233994
118	0x3e038946	0.12845334
119	0x3ca5b0e8	0.020225957
120	0xbdb8d5c9	-0.09025151
121	0xbdf3f234	-0.11911431
122	0x3d245e48	0.040128976
123	0xbdf5223b	-0.119694196
124	0x3e13c6f2	0.1443136
125	0x3ddfb932	0.10923995
126	0xbd969ac3	-0.07353737
127	0x3e0cf26e	0.13764355
128	0x3df4d206	0.11954121
129	0xbd8de11c	-0.06927702
130	0xbd53b80b	-0.05168919
131	0xbe03cca5	-0.12871034
132	0x3d7b43d4	0.061343983
133	0x3e097d06	0.13426599
134	0xbd45bb18	-0.04827413
135	0xbdd7a6d7	-0.10529869
136	0xbd018cd1	-0.031628434
137	0xbbda3d8c	-0.006660169
138	0xbd1a719c	-0.037706003
139	0x3dc518af	0.09623849
140	0x3d88248d	0.066475965
141	0x3dd7101a	0.10501118
142	0xbcbcbac9	-0.023038285
143	0x3e09d69e	0.13460776
144	0xbb4fa910	-0.0031686462
145	0xbdd86d40	-0.10567713
146	0x3ddafef4	0.1069316
147	0x3dd59687	0.104291014
148	0xba523e07	-0.0008020107
149	0xbcdae597	-0.026720805
150	0xbdfad408	-0.12247473
151	0x3d5f8005	0.05456545
152	0x3d5c96cf	0.05385476
153	0xbb329c9c	-0.002725399
154	0x3ded1cb0	0.11577737
155	0x3e0d2fcf	0.13787769
156	0x3e0e3fc5	0.13891514
157	0xbe0877c4	-0.13326937
158	0x3b11afc9	0.002223002
159	0x3d84dc25	0.06487302
160	0x3dda77e5	0.10667399
161	0x3d11f330	0.035632312
162	0x3cc90ed5	0.024543205
163	0xbde6a942	-0.11262752
164	0xba71320f	-0.000920088
165	0x3de6a7d6	0.11262481
166	0x3b5703d0	0.003280867
167	0xbd7191ed	-0.058977056
168	0x3df24950	0.118303895
169	0x3c0c7aa9	0.008574166
170	0x3de1dd53	0.11028542
171	0x3d919fad	0.07110534
172	0x3d8b17fd	0.06791685
173	0xbe10e8a8	-0.14151251
174	0xbdeb60db	-0.11493083
175	0xbdb21cbc	-0.08696887
176	0xbd948651	-0.07252181
177	0x3d043b1a	0.032282926
178	0xbde8420e	-0.11340724
179	0x3b5dc944	0.0033841887
180	0x3c7bf831	0.015378998
181	0x3db2ff48	0.08740097
182	0x3c930bbb	0.01794993
183	0x3d22acc6	0.03971555
184	0x3da4e8b7	0.08052199
185	0xbc2f2e02	-0.010692121
186	0xbd62c987	-0.055367973
187	0xbe0cb4b6	-0.13740811
188	0x3c97062f	0.018435566
189	0xbdef39b2	-0.116809264
190	0xbd5a646e	-0.053318433
191	0xbd9e1e93	-0.07720675
192	0x3e039e84	0.12853438
193	0xbd4ce4f2	-0.050023027
194	0x3d57cdf3	0.052686643
195	0xbe025f55	-0.12731679
196	0xbd9909ae	-0.074725494
197	0x3d07fec3	0.033201944
198	0xbd07581a	-0.033043005
199	0xbd241208	-0.04005626
200	0x3ddc333b	0.10751959
201	0xbd823b39	-0.06358952
202	0x3d03bf45	0.03216483
203	0xbe0ad7dd	-0.13558908
204	0xbcdd062f	-0.026980488
205	0xbe056d34	-0.13029939
206	0xbd6c86e0	-0.057745814
207	0xbdddecbf	-0.10836171
208	0xbd1d428d	-0.038393546
209	0x3df1dc0b	0.11809548
210	0x3d6628ee	0.056191377
211	0xbd13635a	-0.03598342
212	0x3df9c863	0.12196424
213	0x3df21ddb	0.11822101
214	0xbd810b97	-0.06301039
215	0x3deeea06	0.1166573
216	0xbd0a9e8d	-0.033842612
217	0xbdef6956	-0.11690013
218	0x3d31efd3	0.043441605
219	0xbdc7042d	-0.09717593
220	0xbe00ab31	-0.12565304
221	0xbd084c1f	-0.03327572
222	0x3d47f9f3	0.048822355
223	0xbc846142	-0.016159657
224	0x3b70df12	0.0036754054
225	0xbe02ffb8	-0.12792861
226	0xbd52b474	-0.051441625
227	0x3dd52975	0.10408298
228	0x3ccb83a4	0.024843045
229	0x3d644416	0.055728994
230	0x3e09d9ce	0.13461992
231	0x3d52019f	0.051271077
232	0x3ac99cf0	0.0015381854
233	0x3e10ea85	0.14151962
234	0xbd563082	-0.052292354
235	0xbda14b01	-0.07875634
236	0xbd874295	-0.066044964
237	0x3dfa53aa	0.12222989
238	0x3deb873d	0.11500404
239	0xbdafd6fe	-0.085859284
240	0xbc7d7c37	-0.01547151
241	0x3d2271a3	0.039659154
242	0xbcf2f892	-0.029659543
243	0x3d69e289	0.057100806
244	0x3d082e5f	0.033247348
245	0x3ced3ab4	0.028958656
246	0x3da51b14	0.08061805
247	0xbcd5d994	-0.026104726
248	0xbdfc952c	-0.1233314
249	0xbdb1b32a	-0.08676751
250	0x3d118fd3	0.035537552
251	0xbdf91438	-0.121620595
252	0x3da9b459	0.08286352
253	0xbd370af5	-0.044688184
254	0x3dc42fbb	0.09579416
255	0x3d01a06b	0.031647127

conv1d.bias f4 [128]
0	0x3d7e9aa9	0.062159214
1	0x3dfccee8	0.12344152
2	0x3e0afb24	0.13572365
3	0xbe0d7f5e	-0.13818118
4	0xbc69cf61	-0.014270634
5	0xbda1c9f3	-0.07899847
6	0x3d3c2254	0.045931175
7	0x3d8f66df	0.07002043
8	0x3c9b7988	0.018978849
9	0x3d5cb854	0.053886726
10	0x3c9553ee	0.018228497
11	0xbd99c973	-0.075091265
12	0xbda90fc9	-0.08254964
13	0x3d0cfe86	0.03442242
14	0x3d38f179	0.04515216
15	0xbdfb07fa	-0.12257381
16	0xbcdbb92a	-0.026821692
17	0x3d303bda	0.04302583
18	0xbd7ee124	-0.06222643
19	0xbdde778c	-0.108626455
20	0xbc30de8e	-0.010795249
21	0x3dc78f65	0.09744147
22	0x3db4d82e	0.088302955
23	0x3dfc03ab	0.12305387
24	0x3da06845	0.07832388
25	0x3d8fa1bf	0.070132725
26	0x3e0df33a	0.13862315
27	0xbb38d99e	-0.0028205882
28	0x3df99e23	0.12188365
29	0x3af5d162	0.0018754418
30	0x3c97e0c3	0.018539792
31	0xba8b0b89	-0.0010608296
32	0xbc619c45	-0.013770168
33	0xbdef48ce	-0.11683808
34	0xbab11f46	-0.0013513349
35	0x3de728f1	0.11287106
36	0xbdeac24e	-0.11462842
37	0xba71323c	-0.0009200906
38	0xbc77a17f	-0.015114187
39	0x3d4a3250	0.049364388
40	0xbccb2eba	-0.024802554
41	0xbd29a4e5	-0.04141702
42	0x3dd8fb3b	0.105947934
43	0xbddfd848	-0.10929924
44	0xbdaf2870	-0.08552635
45	0xbe118b27	-0.14213239
46	0x3d7328ae	0.059364967
47	0x3df65365	0.12027625
48	0x3e0b4cb4	0.13603479
49	0xbd9226b4	-0.07136288
50	0xbd82e81f	-0.0639193
51	0xbdc51946	-0.09623961
52	0x3dd28e89	0.10281093
53	0xbc2652ec	-0.010151606
54	0x3dcfdd3e	0.101496205
55	0x3e065712	0.13119152
56	0x3cdf28d6	0.027241152
57	0x3e0c7640	0.13716984
58	0x3df03beb	0.117301784
59	0x3e0d956e	0.13826534
60	0xbcaf2bc3	-0.021383172
61	0x3ba1277d	0.0049180374
62	0xbd8446ec	-0.0645884
63	0xbe002826	-0.12515315
64	0xbe13aee4	-0.14422184
65	0xbc8817f2	-0.01661298
66	0x3d7b64a0	0.06137526
67	0xbe03e00c	-0.12878436
68	0xbdab5726	-0.083662316
69	0x3e120264	0.14258724
70	0xbd889a5c	-0.06670067
71	0xbd34bf60	-0.044127822
72	0xbdfd0687	-0.123547606
73	0xbdf72773	-0.12068071
74	0x3dceafb8	0.100921094
75	0xbcb78152	-0.022400532
76	0xbcf01149	-0.029305117
77	0x3d9e7eb4	0.077390105
78	0xbc38057d	-0.011231777
79	0xbc1c3ea9	-0.009536424
80	0xbcf3bcbf	-0.029753087
81	0x3d41b7ae	0.04729431
82	0x3cd239e3	0.025662368
83	0xbcf7d7d0	-0.030254275
84	0x3dcfaa27	0.10139876
85	0x3dde6f53	0.10861077
86	0xbe0cb572	-0.13741091
87	0x3c88bb9a	0.016691018
88	0x3d01adf1	0.031660024
89	0x3d16ac3a	0.03678534
90	0xbd3a2df2	-0.045453973
91	0x3dec8ff3	0.11550894
92	0x3dc48fcf	0.09597742
93	0xbd890885	-0.06691078
94	0xbad39fd9	-0.0016145661
95	0xbd90cbab	-0.070700966
96	0xbc3f5647	-0.011678285
97	0x3d869049	0.06570489
98	0x3db14125	0.086550035
99	0x3ca2c5c7	0.019869698
100	0xbd0309dd	-0.03199183
101	0x3d0fa8a1	0.035072926
102	0x3db85c6f	0.09002005
103	0xbd4b7b5b	-0.049678188
104	0xbde044e2	-0.10950638
105	0xbdff3c74	-0.124627024
106	0xbbf65cf5	-0.0075184056
107	0xbda4843e	-0.08033036
108	0xbdb72ac7	-0.08943706
109	0xbdf240f6	-0.118287966
110	0xbd9674ce	-0.073464975
111	0xbd601ab6	-0.054712974
112	0x3dc18a0d	0.09450159
113	0xbdea3833	-0.114365004
114	0x3e11fc0a	0.14256302
115	0xbe0e859e	-0.13918158
116	0x3dedd6bc	0.11613223
117	0xbd0d0414	-0.034427717
118	0x3d8d3b83	0.068961166
119	0x3dd81049	0.10549981
120	0x3c8e083d	0.017337913
121	0xbd9ba2c1	-0.07599402
122	0xbda8ef83	-0.08248808
123	0xbdd19732	-0.10233916
124	0xbde06b3e	-0.10957955
125	0xbc648fda	-0.0139503125
126	0xbdf279ec	-0.11839661
127	0xbdb63538	-0.088968694

linears.0.weight f4 [32, 128]
0	0x3d99c9dd	0.075092055
1	0x3cba1f74	0.022720076
2	0x3c999e1f	0.018752156
3	0xbcc83d23	-0.024443215
4	0x3d5b01fc	0.05346869
5	0x3d91edc9	0.07125432
6	0xbd4c5f17	-0.049895372
7	0xbd6ac34c	-0.057315156
8	0xbd001c39	-0.031276915
9	0x3d481470	0.048847616
10	0xba635684	-0.00086722546
11	0x3a27726d	0.0006387595
12	0x3cf75be7	0.03019519
13	0x3cea8583	0.028628116
14	0xbd74ba98	-0.059748262
15	0xbba59303	-0.0050529256
16	0xbb154178	-0.0022774618
17	0x3cfbaff2	0.030723546
18	0x3d72515d	0.059159625
19	0x3cd4aab9	0.025960313
20	0xbad69448	-0.0016371096
21	0x3da2ea1c	0.07954809
22	0xbb46b657	-0.0030321085
23	0x3d45e23a	0.04831145
24	0xbd95fa0e	-0.07323085
25	0x3d811895	0.06303517
26	0xbd0c743f	-0.03429055
27	0xbd85d5d8	-0.06534928
28	0xbda341e8	-0.07971555
29	0xbae3beeb	-0.0017375624
30	0x3d2dc05f	0.042419787
31	0xbb843bd2	-0.0040354514
32	0x3da0d689	0.07853419
33	0xbd40fca0	-0.047115922
34	0x3c07cf85	0.008289223
35	0xbda59788	-0.08085543
36	0x3c60db12	0.013724105
37	0x3bd912b0	0.006624542
38	0xbcc65dd7	-0.024214668
39	0xbd49fbee	-0.049312524
40	0xbb115226	-0.0022174208
41	0xbd4fb9a1	-0.05071414
42	0x3c9eb833	0.019374942
43	0x3d6bcbd2	0.057567425
44	0xbda572df	-0.080785505
45	0x3b3990ba	0.0028315024
46	0xbd063210	-0.032762587
47	0xbd59f1e3	-0.053209197
48	0xbd4097cf	-0.047019776
49	0x3d54ccc7	0.051953103
50	0x3cf0cda7	0.029394938
51	0x3d972dcc	0.07381782
52	0xbcf2b6c0	-0.029628158
53	0xbd3228d8	-0.043495983
54	0xbd8f2a91	-0.06990541
55	0xbc8c7d85	-0.017149696
56	0x3d710451	0.058842007
57	0xbd2be292	-0.04196412
58	0x3d81ef0d	0.063444234
59	0x3843e540	4.670513e-05
60	0x3ca1284b	0.019672533
61	0x3d9122df	0.07086729
62	0xbd576c10	-0.05259329
63	0xbc23d1ec	-0.00999878
64	0x3d2e4c1b	0.04255305
65	0xbbebabbe	-0.007192104
66	0xbc45be45	-0.01206929
67	0xbd645f26	-0.055754803
68	0x3c390668	0.011293031
69	0xbd5da6da	-0.0541142
70	0xbce04e34	-0.02738104
71	0x3b2ea375	0.002664772
72	0xbb0b875a	-0.0021290393
73	0xbc5292e9	-0.012852409
74	0x3c9f3734	0.019435503
75	0xbc9d6d79	-0.01921724
76	0xbadac552	-0.0016690886
77	0xbd735d69	-0.059415255
78	0x3cfafe72	0.030638907
79	0xbd969a38	-0.07353634
80	0x3d307183	0.043077003
81	0xbd183acb	-0.037165444
82	0xbcb0dfd9	-0.021591114
83	0xbd373ba8	-0.044734627
84	0x3c10a6a7	0.0088287955
85	0x3d8afd8f	0.06786644
86	0x3d42c4d6	0.047551
87	0xbcd10f04	-0.025519855
88	0x3d91af2a	0.07113488
89	0xbd318a05	-0.043344516
90	0x3c51567f	0.01277697
91	0x3d22b186	0.03972008
92	0xbb21c3a6	-0.0024683266
93	0x3d921161	0.07132221
94	0x3d7c90c1	0.061661486
95	0xbc10df0b	-0.00884224
96	0x3cd003c0	0.025392413
97	0x3d71a166	0.058991812
98	0xbd88b94a	-0.06675966
99	0x3d07c910	0.033150733
100	0x3d831168	0.06399804
101	0x3c4768dc	0.0121709965
102	0x3d8f6585	0.07001785
103	0x3d92c788	0.07166964
104	0xbb0c26d6	-0.0021385453
105	0x3d29d0fb	0.041459065
106	0xbd7c5617	-0.06160554
107	0x3cca349f	0.024683295
108	0x3d0ba454	0.034092262
109	0xbc30be9a	-0.01078763
110	0xbccf291c	-0.025288157
111	0xbd87c07c	-0.0662851
112	0x3d92f401	0.07175446
113	0x3d359a31	0.0443365
114	0x3d85068b	0.064953886
115	0xbbceb2bb	-0.0063079274
116	0x3d5e63d1	0.05429441
117	0x39bad8d4	0.00035638234
118	0xbd2e050d	-0.042485286
119	0xbd0e3f43	-0.0347283
120	0x3c908338	0.017640695
121	0x3c4ddfee	0.012565596
122	0x3be6d817	0.007044803
123	0xbb0fed3e	-0.0021961476
124	0xbd97a7d1	-0.07405055
125	0xbae982bb	-0.001781545
126	0xbca7242f	-0.020402996
127	0x3d07b9cf	0.033136185
128	0x3d28c87c	0.04120682
129	0xbc1f84c0	-0.00973624
130	0x3bf7037a	0.0075382562
131	0x3d4cbe2f	0.04998606
132	0xbd29a9e6	-0.041421793
133	0xbd078e55	-0.033094723
134	0x3d78d77e	0.060752384
135	0xbcd0c4d8	-0.025484487
136	0xbb220f2d	-0.0024728284
137	0xbbb39cae	-0.005481324
138	0x3d12ab17	0.035807695
139	0xbd4ffd56	-0.05077871
140	0xbcf16d60	-0.0294711
141	0x3bc19d2c	0.005908629
142	0x3b76cbd5	0.0037658114
143	0x3c3418f5	0.010992278
144	0x3b192152	0.0023365808
145	0xbac1f92a	-0.0014798988
146	0x3d473206	0.04863169
147	0x3d1d3aab	0.03838603
148	0xbd34b6b5	-0.044119556
149	0x3cbe62c7	0.02324046
150	0xbcf4b13e	-0.029869672
151	0xbd15a6b3	-0.03653593
152	0xbd34a62d	-0.04410379
153	0xbd68e988	-0.056863338
154	0x3b1c4922	0.0023847301
155	0xbd0ceace	-0.034403615
156	0xbd572cb2	-0.05253286
157	0xbce9539d	-0.028482253
158	0xbcdf7b4a	-0.027280468
159	0xbcf49462	-0.02985591
160	0xbd3715c0	-0.044698477
161	0xbd33bdff	-0.043882366
162	0x3d6ddb87	0.058070686
163	0xbbce71dc	-0.006300194
164	0xbccd2181	-0.02504039
165	0x3d378aa0	0.044809937
166	0xbca5119d	-0.02015
167	0x3cbd351b	0.023096612
168	0xb9b47fbb	-0.00034427442
169	0xbd660ecb	-0.05616645
170	0x3a8b9c9a	0.0010651529
171	0xbceb7087	-0.02874018
172	0xbd84472d	-0.06458888
173	0x39cbc4d6	0.0003886583
174	0x3cd66fda	0.026176382
175	0xbd0a5195	-0.03376921
176	0xbd7ed547	-0.062215116
177	0x3cd7c939	0.026341068
178	0xbd2f1ab4	-0.042750075
179	0x3b28e0b6	0.0025768704
180	0x3bbe3674	0.005804831
181	0x3d0832e4	0.033251658
182	0x39598f66	0.00020748153
183	0xbca4a20b	-0.0200968
184	0x3ce5ba30	0.028042883
185	0xbd0928ee	-0.0334863
186	0xbcee204b	-0.029068133
187	0xbd583426	-0.052784108
188	0xbad184a2	-0.0015984962
189	0xbc6c4d00	-0.014422655
190	0xbcecc4c7	-0.028902424
191	0x3d367b76	0.044551335
192	0x3b003f61	0.0019569027
193	0x39c147a7	0.00036865214
194	0x3d08f6fd	0.03343867
195	0xba5599dc	-0.0008148232
196	0x3a66e232	0.00088075094
197	0xba06807c	-0.000513084
198	0xbc67fa54	-0.014158804
199	0xbd25aab1	-0.040445987
200	0x3cd03028	0.025413588
201	0x3c8942bb	0.016755452
202	0xbcefd970	-0.029278487
203	0x3d582e36	0.052778445
204	0x3897e52e	7.242929e-05
205	0x39c3f242	0.00037373794
206	0x3ce52328	0.027970865
207	0xbd370fb8	-0.044692725
208	0xbb8a6ee0	-0.004224643
209	0xbcbe12ad	-0.023202265
210	0x3ad95fbe	0.001658432
211	0x3909a6a1	0.00013127412
212	0xb93840d3	-0.00017571756
213	0x3d8820f8	0.06646913
214	0x3a319fe4	0.000677584
215	0xbd346901	-0.044045452
216	0xbad8864e	-0.0016519518
217	0xbd321f42	-0.04348684
218	0x3d3499d3	0.04409201
219	0x3d53c62f	0.051702674
220	0x3d81315d	0.063082434
221	0xbb35fbbe	-0.0027768458
222	0xbd5c985d	-0.053856242
223	0x3a814b99	0.0009864449
224	0x3b1def2d	0.0024098859
225	0x3d840dc2	0.064479366
226	0xbc6fe801	-0.014642716
227	0x3d329aa1	0.043604497
228	0x3a18e7f3	0.0005832903
229	0x3b06e101	0.002058089
230	0xbd10877b	-0.035285454
231	0xbcd4eea8	-0.025992706
232	0xbd81c00e	-0.0633546
233	0xbd1f1ae7	-0.038844015
234	0xbc5f0ea3	-0.0136143295
235	0x3d8212a3	0.06351211
236	0x3c63c66c	0.013902288
237	0xbca3794d	-0.019955302
238	0xbd03d82e	-0.032188587
239	0xba8401a1	-0.0010071286
240	0xbb052cd4	-0.002032091
241	0x3d40a694	0.04703386
242	0x3d478d6e	0.048718862
243	0x3d2da7f3	0.042396497
244	0x3aaf1522	0.0013357738
245	0xbca91b51	-0.020642908
246	0x3d641005	0.05567934
247	0x3d0df762	0.03465975
248	0x3d33f869	0.043938074
249	0x3d1c9fb9	0.03823826
250	0x39e7897b	0.00044162184
251	0xbd737458	-0.059437126
252	0x3c2c75e4	0.010526154
253	0x3d39524c	0.0452445
254	0xbd5abc16	-0.05340203
255	0xbaafd622	-0.0013415257

linears.0.bias f4 [32]
0	0x3d5f24ee	0.05447858
1	0xbce3f418	-0.027826354
2	0xbd225bba	-0.03963826
3	0x3d09241d	0.033481706
4	0xbba0f28c	-0.0049117263
5	0xbd98ea97	-0.074666195
6	0xbd4a7e0d	-0.049436618
7	0x3cd99aca	0.026563067
8	0x3d49190a	0.049096145
9	0xbccd9b82	-0.025098566
10	0xbaec46ed	-0.0018026509
11	0x3d45ba23	0.048273217
12	0xbd1c929f	-0.038225766
13	0xb9257458	-0.00015778968
14	0x3d38ee21	0.045148972
15	0x3d3968ec	0.045266077
16	0xbd215e94	-0.039396837
17	0x3d8509b8	0.06495994
18	0x3d2a55bf	0.04158568
19	0xbd321178	-0.04347369
20	0x3bf45fc2	0.0074577043
21	0xbb2ef723	-0.0026697598
22	0x3c913eb8	0.017730102
23	0xbd794138	-0.060853213
24	0x3befcc4c	0.0073180553
25	0x3d7f0a17	0.06226548
26	0xbd9e510e	-0.07730304
27	0x3c94c230	0.018159002
28	0xbd3afc3f	-0.045650717
29	0xbce2b656	-0.027674835
30	0x3c88ff18	0.0167232
31	0x3d6d24fd	0.057896603

linears.2.weight f4 [2, 32]
0	0x3e2758f4	0.16342527
1	0xbd3785e0	-0.044805408
2	0x3d2d5e5f	0.042326327
3	0x3e1adb95	0.15122826
4	0x3e200777	0.15627848
5	0xbd3025eb	-0.04300491
6	0xbd3fadd1	-0.046796624
7	0x3e19ec5e	0.15031573
8	0x3beda9c2	0.0072529027
9	0x3e1f53fd	0.15559383
10	0x3dfd6252	0.12372269
11	0x3d85f258	0.06540364
12	0xbbef94da	-0.0073114457
13	0xbe0da2a7	-0.13831578
14	0x3ddc1f70	0.10748184
15	0xbd2f067e	-0.0427308
16	0x3ded4862	0.115860716
17	0x3d5c83c8	0.053836614
18	0x3916da7b	0.00014386505
19	0xbe1b61cb	-0.15174024
20	0x3e123951	0.14279677
21	0x3b01808c	0.0019760458
22	0xbe05eb92	-0.13078144
23	0xbd82f70f	-0.06394779
24	0xbe0797d0	-0.13241506
25	0xbcef6055	-0.02922074
26	0xbd59f7f4	-0.053214982
27	0xbd291cc8	-0.041287214
28	0xbd63638a	-0.05551485
29	0xbde77ce6	-0.11303119
30	0x3c147f7b	0.009063597
31	0x3d82cc72	0.06386651
32	0x3e027cf9	0.12742986
33	0x3c81b24d	0.01583209
34	0x3e0b2f49	0.13592257
35	0xbe058949	-0.13040651
36	0x3b6feff5	0.0036611531
37	0xbde4afdb	-0.11166354
38	0xbc391382	-0.011296155
39	0x3d75ed90	0.06004101
40	0x39b7eec2	0.00035082368
41	0x3dd82e4d	0.10555706
42	0xbd9efc51	-0.07762969
43	0xbdb05425	-0.08609799
44	0x3d0fdf7a	0.035125233
45	0x3e165103	0.14679341
46	0xbddc23ab	-0.107489906
47	0x3e109898	0.1412071
48	0xbdbf987f	-0.09355258
49	0x3957fe84	0.00020598812
50	0x3e172c53	0.14763002
51	0x3e145d3e	0.14488694
52	0xbcfdddb7	-0.030989511
53	0xbcb3c535	-0.021944622
54	0x3dfa8abc	0.12233493
55	0x3d96c892	0.073624745
56	0xbe0a9067	-0.13531648
57	0xbdd4c735	-0.10389558
58	0x3b4b1b8c	0.003099176
59	0xbdf3e7e3	-0.11909463
60	0x3909bcfa	0.00013135737
61	0xbd9312f9	-0.07181353
62	0xbe107994	-0.14108878
63	0x3e0d0b54	0.13773853

linears.2.bias f4 [2]
0	0xbd3d0935	-0.04615136
1	0x3e1c8e53	0.15288667

exp_avg f4 [128, 4, 12]
0	0x378dddce	1.6911796e-05
1	0x376cb075	1.4107781e-05
2	0x34446a31	1.8292555e-07
3	0x384c6f80	4.8741233e-05
4	0x37a5ea93	1.9778765e-05
5	0x37abde4e	2.0488307e-05
6	0x35ddb61e	1.6518786e-06
7	0xb626686e	-2.4796714e-06
8	0xb47718af	-2.3012647e-07
9	0x370599df	7.963244e-06
10	0x36c41780	5.843991e-06
11	0x37a7def8	2.001178e-05
12	0xb7d4855f	-2.5334475e-05
13	0x368bb0e0	4.1631138e-06
14	0x389132b3	6.923582e-05
15	0x3682c995	3.897769e-06
16	0xb6dd32ef	-6.5922427e-06
17	0x37d6ad7d	2.5591575e-05
18	0x381f22a7	3.7940827e-05
19	0x37cc4660	2.4351466e-05
20	0xb7494868	-1.1997392e-05
21	0x37324fc1	1.0628196e-05
22	0x37881e8b	1.6226686e-05
23	0x37d4b3fc	2.5356181e-05
24	0x3831fce8	4.2435626e-05
25	0xb63e39f0	-2.834593e-06
26	0xb730a479	-1.0528712e-05
27	0x370dafea	8.445213e-06
28	0x37d6d17d	2.5608339e-05
29	0xb6e08c1a	-6.69203e-06
30	0xb69f2f25	-4.7440576e-06
31	0x3821b8f3	3.855764e-05
32	0x386b7682	5.6138735e-05
33	0x369beec8	4.6471578e-06
34	0x365a2c91	3.2510472e-06
35	0xb602510a	-1.941868e-06
36	0x3743da9d	1.1673806e-05
37	0x37fdc25c	3.0250456e-05
38	0xb75d83ac	-1.3203284e-05
39	0xb78129ca	-1.5397458e-05
40	0x369dab22	4.698887e-06
41	0x3689c559	4.1058925e-06
42	0x37185608	9.079937e-06
43	0xb77917a7	-1.48470635e-05
44	0x35e04cdb	1.6711668e-06
45	0x37bb6ee7	2.234378e-05
46	0x37a9f56d	2.0260655e-05
47	0x3635317e	2.699991e-06
48	0x3844e7bb	4.6945857e-05
49	0x37673557	1.3781092e-05
50	0x37d58351	2.5452728e-05
51	0x36ef1d90	7.1261966e-06
52	0x37282225	1.002153e-05
53	0x385e8ff9	5.306301e-05
54	0x374b472a	1.2116312e-05
55	0x3878ac88	5.928849e-05
56	0x00000000	0.0
57	0x381efa5c	3.79033e-05
58	0x376e0d4c	1.4189001e-05
59	0x38829735	6.2270476e-05
60	0x3627ce22	2.5004924e-06
61	0xb75fa714	-1.3330737e-05
62	0x389bf5ad	7.4367366e-05
63	0xb7bca9a9	-2.249035e-05
64	0x378d2979	1.6827822e-05
65	0x36014f8e	1.9268805e-06
66	0x38663f74	5.489537e-05
67	0xb7297339	-1.0100012e-05
68	0x38816190	6.169372e-05
69	0x37ef08aa	2.8495055e-05
70	0x389591d0	7.132033e-05
71	0xb773afc3	-1.4524851e-05
72	0xb708ddee	-8.157904e-06
73	0x3876ae97	5.881357e-05
74	0xb5c5a96b	-1.4726951e-06
75	0x388d8b94	6.7494024e-05
76	0x37dfafbf	2.666551e-05
77	0x35a008da	1.1923505e-06
78	0xb6e2fba3	-6.7646192e-06
79	0x368b57c7	4.1527414e-06
80	0x36b86c9e	5.496272e-06
81	0xb698aa3a	-4.54977e-06
82	0xb7baaf90	-2.225468e-05
83	0x35d691c4	1.5986666e-06
84	0x3795c4fc	1.7853912e-05
85	0xb4028a49	-1.2157501e-07
86	0xb8247018	-3.9205042e-05
87	0x36eb4cb9	7.0124775e-06
88	0x36bcd3ea	5.6275067e-06
89	0x3646a66e	2.9601174e-06
90	0xb5944552	-1.1047034e-06
91	0x36c2a77f	5.8011497e-06
92	0xb7070451	-8.047632e-06
93	0xb5b70f60	-1.3639037e-06
94	0x35020e7c	4.844985e-07
95	0x37491666	1.1985749e-05
96	0xb70f1400	-8.528121e-06
97	0x378df720	1.6923586e-05
98	0x368ff0bf	4.2897586e-06
99	0x372f2df8	1.0441516e-05
100	0xb690a700	-4.310976e-06
101	0x37e8eb0e	2.7766011e-05
102	0x370def13	8.459919e-06
103	0x37f47648	2.9142146e-05
104	0xb5215a7e	-6.010886e-07
105	0x36605058	3.3425367e-06
106	0xb78487ef	-1.5798925e-05
107	0x37d63731	2.5536488e-05
108	0x368bd2c9	4.1670614e-06
109	0x35c8d444	1.4962939e-06
110	0x37d17ab2	2.4971876e-05
111	0x3864808c	5.4479155e-05
112	0x387173e0	5.7566795e-05
113	0xb71f0368	-9.477932e-06
114	0x3700cca9	7.677046e-06
115	0xb7199027	-9.153074e-06
116	0x3595b044	1.1152665e-06
117	0x37fb3c6f	2.9949673e-05
118	0x386719c2	5.509868e-05
119	0x36e059ab	6.686159e-06
120	0xb682afc9	-3.894766e-06
121	0x368827be	4.0577424e-06
122	0x3701b4b7	7.731075e-06
123	0xb748dfaa	-1.1973005e-05
124	0x36bcdb63	5.6283766e-06
125	0x3764bb39	1.363345e-05
126	0x37a1be17	1.9281213e-05
127	0x37b2035a	2.1220814e-05
128	0x38297c17	4.0408308e-05
129	0x36a6d10b	4.9715213e-06
130	0x36ddf990	6.615366e-06
131	0x35c37d31	1.4565068e-06
132	0x386aa59b	5.594418e-05
133	0x37d37ba4	2.5210735e-05
134	0x37337175	1.0695648e-05
135	0xb6b0791e	-5.2593086e-06
136	0xb73bd5c1	-1.1195837e-05
137	0x37844305	1.5766835e-05
138	0x374ddc05	1.22701795e-05
139	0x36d961a8	6.4784726e-06
140	0x36e3066b	6.7658743e-06
141	0x371e1e6e	9.424619e-06
142	0x363c047d	2.8016796e-06
143	0x3778a264	1.4819761e-05
144	0xb960e07e	-0.00021445935
145	0xb78414c5	-1.5745298e-05
146	0x39abf28d	0.00032796376
147	0xb9abc427	-0.00032761807
148	0xb8428717	-4.6379017e-05
149	0xb79a82b2	-1.841909e-05
150	0xb7e85ad9	-2.769886e-05
151	0xb83a3696	-4.4396693e-05
152	0x37d77e83	2.5688909e-05
153	0xb7f520b6	-2.9221508e-05
154	0xba7bb694	-0.00096020964
155	0xba1e52aa	-0.00060395396
156	0x35b3f0ff	1.3406678e-06
157	0xb7af3de0	-2.0890438e-05
158	0xb8449368	-4.6867324e-05
159	0xb805e97f	-3.192713e-05
160	0xb9856750	-0.0002544471
161	0xb8bc977c	-8.992755e-05
162	0xb9be8acd	-0.0003634304
163	0x3709b57e	8.208093e-06
164	0xb90cfb8c	-0.00013445149
165	0xba522901	-0.00080169743
166	0x39d25566	0.00040117948
167	0x38c1709d	9.223933e-05
168	0xb97d4cff	-0.00024156643
169	0xb85975c8	-5.1846524e-05
170	0xba0c8d99	-0.0005361676
171	0xb9b3d2f4	-0.00034298713
172	0xb9efa542	-0.0004570876
173	0xb826f619	-3.980668e-05
174	0x3617916b	2.2585398e-06
175	0xb9d28784	-0.00040155288
176	0xb9a86214	-0.0003211653
177	0x39aa902d	0.00032532346
178	0x37f0c0fa	2.8700091e-05
179	0xb90ab272	-0.00013227182
180	0xb88bbefb	-6.6636094e-05
181	0xb9e2eea8	-0.00043283892
182	0xb98b977b	-0.00026625008
183	0x393e0385	0.00018121123
184	0x397815da	0.00023659263
185	0xb9c3a5bc	-0.0003731678
186	0xb90ae266	-0.00013245046
187	0xb8af477e	-8.357967e-05
188	0xb8d0253e	-9.92515e-05
189	0xb7c5d5e4	-2.358383e-05
190	0x3778fb03	1.4840395e-05
191	0x38dde8b7	0.00010581448
192	0xb668d89b	-3.4696775e-06
193	0x3893131c	7.0130656e-05
194	0xb82a9b7a	-4.0675957e-05
195	0x37c2ce8e	2.3222787e-05
196	0x370526f8	7.936491e-06
197	0x37ce1167	2.4565217e-05
198	0xb7160fef	-8.9444065e-06
199	0x38a8d11e	8.0498154e-05
200	0x389f58e5	7.598269e-05
201	0xb78d6cf3	-1.6859243e-05
202	0x3825819e	3.945978e-05
203	0xb64cc5e2	-3.0513552e-06
204	0x3897ee90	7.244677e-05
205	0x3888338b	6.494586e-05
206	0x37056625	7.9512e-06
207	0x37ae2b9a	2.076272e-05
208	0x3657a0e9	3.2131159e-06
209	0x38d83b9d	0.000103107865
210	0x386be9b7	5.624603e-05
211	0x3859b781	5.1907733e-05
212	0x380d746c	3.3725446e-05
213	0x38ed4648	0.000113141316
214	0xb6f0e3e7	-7.1790887e-06
215	0x388a6086	6.598332e-05
216	0x37b304eb	2.1340753e-05
217	0x3790ad72	1.7246904e-05
218	0xb7f4d507	-2.9186265e-05
219	0xb5e90743	-1.7361966e-06
220	0x3835bc6a	4.3329237e-05
221	0xb5b0ebd0	-1.3181652e-06
222	0x3860f7ef	5.3636668e-05
223	0x38a36c64	7.792635e-05
224	0x3769df2d	1.3939844e-05
225	0xb6e27613	-6.7490705e-06
226	0x38005385	3.059536e-05
227	0x38add55a	8.289023e-05
228	0x3808127f	3.2442153e-05
229	0xb7f7fef7	-2.9563422e-05
230	0x3941a441	0.00018467104
231	0x38a8d7d9	8.051069e-05
232	0x388f322a	6.828115e-05
233	0xb671405c	-3.594926e-06
234	0x37b70dbb	2.1821694e-05
235	0xb8b7a6fe	-8.757225e-05
236	0xb56e5e43	-8.879908e-07
237	0x380b5d30	3.322697e-05
238	0x387b2be7	5.988395e-05
239	0xb7b2fda8	-2.1337371e-05
240	0xb80c0e8a	-3.339214e-05
241	0x3924f567	0.00015731678
242	0x3838af2a	4.4032153e-05
243	0x38c9b756	9.618576e-05
244	0xb8f06122	-0.00011462184
245	0x390fe44a	0.00013722587
246	0x38035ce5	3.131935e-05
247	0x389149b1	6.927865e-05
248	0x36c35eb0	5.822476e-06
249	0x377e28d7	1.51490885e-05
250	0xb88fdd47	-6.8599875e-05
251	0xb54311d2	-7.266909e-07
252	0x39683af6	0.00022147209
253	0xb7f9410c	-2.9713403e-05
254	0x395fb105	0.00021332882
255	0xb7c35d11	-2.3289149e-05

exp_avg_sq f4 [128, 4, 12]
0	0x2dcf8d4b	2.3595922e-11
1	0x2e7ca659	5.7445913e-11
2	0x280e4d3c	7.899331e-15
3	0x2fc0234d	3.494968e-10
4	0x2e99ac0c	6.988196e-11
5	0x2f357fdf	1.6507283e-10
6	0x2de13efe	2.5607513e-11
7	0x2e22fd00	3.7059245e-11
8	0x2d21d925	9.200006e-12
9	0x2d1274c7	8.325069e-12
10	0x2e3a22b8	4.232234e-11
11	0x2e1b6c27	3.533898e-11
12	0x2f6d10fb	2.1561057e-10
13	0x2e01c93f	2.9509947e-11
14	0x301aff04	5.638727e-10
15	0x2de5ac42	2.6110784e-11
16	0x2f91a688	2.6493674e-10
17	0x2fe3388f	4.1331247e-10
18	0x2fbfe642	3.4906306e-10
19	0x2ea36721	7.430701e-11
20	0x2e8babc1	6.351498e-11
21	0x2fea9ebf	4.2677148e-10
22	0x2da5af88	1.883628e-11
23	0x2feacd3e	4.2710185e-10
24	0x2fb3a898	3.2679703e-10
25	0x2c763887	3.4990082e-12
26	0x2e4cc89e	4.6562414e-11
27	0x2d395826	1.0535605e-11
28	0x2ef25bd3	1.1021197e-10
29	0x2e0af4e9	3.159509e-11
30	0x2f4dff77	1.8735401e-10
31	0x30338ab7	6.5316946e-10
32	0x3000efab	4.690672e-10
33	0x2e929639	6.665996e-11
34	0x2d4b213c	1.15465935e-11
35	0x2b1cb0b5	5.5667564e-13
36	0x2edb2901	9.966251e-11
37	0x300a0dde	5.0223814e-10
38	0x2f38daac	1.681239e-10
39	0x2faaea15	3.1089145e-10
40	0x2e989c3b	6.939912e-11
41	0x2de017f3	2.5476487e-11
42	0x2ded650a	2.6988651e-11
43	0x2e88a294	6.2134436e-11
44	0x2f0963f8	1.2495593e-10
45	0x2e86eddc	6.135867e-11
46	0x30426c0b	7.0730327e-10
47	0x2f2efb33	1.5914452e-10
48	0x2fe63f35	4.1881668e-10
49	0x2f7362a9	2.2135772e-10
50	0x303970b0	6.7462747e-10
51	0x2e81f479	5.909668e-11
52	0x2ec97d11	9.162638e-11
53	0x310688bf	1.9577298e-09
54	0x2eff1962	1.1600566e-10
55	0x3089b3bb	1.0019144e-09
56	0x00000000	0.0
57	0x2ff53b55	4.4607398e-10
58	0x2e934042	6.6962005e-11
59	0x309f32e6	1.1583239e-09
60	0x2fff1aa4	4.640316e-10
61	0x2ecb6652	9.249547e-11
62	0x308a726f	1.0073345e-09
63	0x302a1a3e	6.188293e-10
64	0x2fe841df	4.2247358e-10
65	0x2c9cb68c	4.4540534e-12
66	0x302b9a2f	6.2428546e-10
67	0x305961b4	7.9082985e-10
68	0x30f1ef1a	1.7603015e-09
69	0x303bb90d	6.8293177e-10
70	0x302f472f	6.3765787e-10
71	0x2ecd2644	9.329118e-11
72	0x308c312a	1.0200314e-09
73	0x30e88c16	1.6920036e-09
74	0x2e0e02d3	3.228957e-11
75	0x3077552f	8.997913e-10
76	0x30b3b0bf	1.3074198e-09
77	0x2c4e28c2	2.9296986e-12
78	0x30b0e5cb	1.2870996e-09
79	0x2f82d483	2.379786e-10
80	0x2db01e36	2.00223e-11
81	0x2d955a66	1.6979484e-11
82	0x308b6ea6	1.0145029e-09
83	0x2f3fa831	1.7431102e-10
84	0x2f79ab08	2.270718e-10
85	0x2ec047e7	8.7439216e-11
86	0x2f738761	2.2148818e-10
87	0x2e7a99a7	5.697989e-11
88	0x2dad8f7d	1.9731545e-11
89	0x2dc3ebce	2.2273652e-11
90	0x2cfd69f8	7.2024574e-12
91	0x2e22601e	3.6919905e-11
92	0x2fc45668	3.5713588e-10
93	0x305ff2e8	8.147212e-10
94	0x2d918c67	1.6546943e-11
95	0x2f35ead4	1.6545282e-10
96	0x2e2b181f	3.8902322e-11
97	0x2eecc1b3	1.07664454e-10
98	0x306e07d3	8.6595014e-10
99	0x2f541fac	1.929254e-10
100	0x2d189d64	8.675147e-12
101	0x2ff664c7	4.4818746e-10
102	0x302db6b1	6.3196653e-10
103	0x2f602f3f	2.0389467e-10
104	0x2dbe8de1	2.1663506e-11
105	0x2f01c304	1.1801765e-10
106	0x2ee15a2c	1.0247833e-10
107	0x2fd74113	3.915451e-10
108	0x2ebe7250	8.6605056e-11
109	0x2f8dcf86	2.5795205e-10
110	0x2f5f317d	2.0299314e-10
111	0x3092cb25	1.0680635e-09
112	0x30969dd9	1.0958799e-09
113	0x2ea1235c	7.3277134e-11
114	0x2f7a9c7b	2.279296e-10
115	0x2ea15c04	7.3377776e-11
116	0x2f702bc6	2.1843424e-10
117	0x2f860cd7	2.438358e-10
118	0x30894b54	9.989471e-10
119	0x2ead70c7	7.8871625e-11
120	0x2f11cd72	1.3260662e-10
121	0x2d973a20	1.7192525e-11
122	0x2f3cc7c4	1.7169471e-10
123	0x2e4d3a7b	4.6663545e-11
124	0x2f780c13	2.2559758e-10
125	0x2f985f10	2.7716185e-10
126	0x2f1665e8	1.3678625e-10
127	0x3050683a	7.5818074e-10
128	0x3039fb8d	6.7660083e-10
129	0x2d864ab6	1.5267215e-11
130	0x2e008b9d	2.9227832e-11
131	0x2d19d6d2	8.744743e-12
132	0x30972006	1.0995798e-09
133	0x2fbe1e2e	3.4582243e-10
134	0x2eff1a8b	1.16007724e-10
135	0x2e1e8f3d	3.6052262e-11
136	0x2e9ec8d4	7.2206824e-11
137	0x2e8df111	6.4547596e-11
138	0x2ed5caaf	9.7221224e-11
139	0x2e8e40b4	6.468906e-11
140	0x2eae5789	7.928153e-11
141	0x30553e41	7.7577417e-10
142	0x2db1a6d3	2.0196655e-11
143	0x2feb3b75	4.2788498e-10
144	0x3170cca4	3.5040921e-09
145	0x313367ca	2.6106926e-09
146	0x32df2916	2.59793e-08
147	0x32fba88e	2.9296896e-08
148	0x31c85fd5	5.831661e-09
149	0x32baad97	2.173219e-08
150	0x31e0f4af	6.5470753e-09
151	0x33b0c7b8	8.231967e-08
152	0x3339eabb	4.3287155e-08
153	0x3211dcd6	8.490323e-09
154	0x33dbcc96	1.0235196e-07
155	0x33bf6005	8.9115964e-08
156	0x3372a7c2	5.649759e-08
157	0x30447177	7.146563e-10
158	0x322f03f0	1.0187236e-08
159	0x3243f489	1.1406095e-08
160	0x33258e63	3.8546556e-08
161	0x33506444	4.8519965e-08
162	0x338efd30	6.658445e-08
163	0x321974c1	8.932319e-09
164	0x3346fb4e	4.6329028e-08
165	0x33c198e9	9.015077e-08
166	0x329878b5	1.775002e-08
167	0x31b74932	5.3343223e-09
168	0x332fb3e4	4.0908972e-08
169	0x3288e279	1.5935472e-08
170	0x33818614	6.031419e-08
171	0x32f0e9ce	2.8046e-08
172	0x330047d6	2.9867657e-08
173	0x3046e281	7.235386e-10
174	0x31598709	3.1654415e-09
175	0x3258455b	1.2588624e-08
176	0x31d29e96	6.1298335e-09
177	0x32ccbe8a	2.3835373e-08
178	0x30bbfac8	1.3677317e-09
179	0x323098fb	1.0279332e-08
180	0x315009f6	3.0273646e-09
181	0x33b831f1	8.577252e-08
182	0x31eec5ed	6.949213e-09
183	0x32693218	1.3573775e-08
184	0x32a39955	1.9045425e-08
185	0x331b36d0	3.61386e-08
186	0x31e2747e	6.5907093e-09
187	0x314d4656	2.9871408e-09
188	0x32894260	1.5979083e-08
189	0x2fd9a41c	3.9588677e-10
190	0x31686662	3.3818641e-09
191	0x30d5c0f9	1.5552636e-09
192	0x30e0519e	1.6321342e-09
193	0x3027c0c8	6.1028205e-10
194	0x2faef78b	3.1826305e-10
195	0x2e840e2f	6.0051845e-11
196	0x2f307f49	1.6052328e-10
197	0x2fd26b95	3.827522e-10
198	0x2f9d3de8	2.860212e-10
199	0x3051b2ae	7.6287676e-10
200	0x3079c23d	9.08617e-10
201	0x2ef79ba5	1.12599076e-10
202	0x30a885c1	1.2261624e-09
203	0x2c405748	2.7333292e-12
204	0x30430cd0	7.0958794e-10
205	0x300b7931	5.074013e-10
206	0x2efb051c	1.1415066e-10
207	0x2fd14f44	3.80732e-10
208	0x308b76ad	1.0147311e-09
209	0x3162aae1	3.2984462e-09
210	0x30b063a8	1.2834009e-09
211	0x308ef920	1.0402665e-09
212	0x313156e8	2.580629e-09
213	0x3116c92b	2.1942224e-09
214	0x2f20844e	1.4598919e-10
215	0x310f7a2d	2.0878688e-09
216	0x3043e255	7.1262224e-10
217	0x2fe80f81	4.221157e-10
218	0x301d917e	5.7323024e-10
219	0x2f87c645	2.4697236e-10
220	0x2f6ad787	2.1358747e-10
221	0x2e95891d	6.800092e-11
222	0x30afa00d	1.2778415e-09
223	0x308bf7c2	1.0183998e-09
224	0x2f6c652b	2.1500017e-10
225	0x2d0b0ab3	7.903611e-12
226	0x2ef2c954	1.1040649e-10
227	0x30a8330c	1.2238117e-09
228	0x2ff85674	4.5172366e-10
229	0x30f3186a	1.7687516e-09
230	0x31a82960	4.8941473e-09
231	0x3187ef7b	3.956243e-09
232	0x30e4ac60	1.6638175e-09
233	0x30ad1e0b	1.2595945e-09
234	0x2fbbca79	3.4158967e-10
235	0x300c3793	5.101068e-10
236	0x2ef6fa58	1.1231255e-10
237	0x30983f26	1.1077403e-09
238	0x315897a0	3.1518326e-09
239	0x2eaa3f34	7.741932e-11
240	0x30a81dc9	1.2232074e-09
241	0x3268bb5b	1.3546777e-08
242	0x2ff95a58	4.535703e-10
243	0x31cb6f47	5.9207284e-09
244	0x308e41b7	1.0350537e-09
245	0x320f967c	8.357912e-09
246	0x31966c9b	4.3779216e-09
247	0x31af830b	5.108068e-09
248	0x2f2cbcdf	1.571041e-10
249	0x2f721f63	2.2020923e-10
250	0x30e59fa0	1.6707311e-09
251	0x2dff9d03	2.905987e-11
252	0x3281311d	1.503991e-08
253	0x3112cb89	2.1361493e-09
254	0x3213f4ca	8.612185e-09
255	0x3161b804	3.284641e-09

exp_avg f4 [128]
0	0x383f9fc6	4.568675e-05
1	0x38780fa3	5.914237e-05
2	0x384804fc	4.7688358e-05
3	0xba08a944	-0.0005213211
4	0x3900b922	0.00012275999
5	0x3934a773	0.00017228517
6	0xb9a9ea20	-0.0003240863
7	0xb937c1f0	-0.00017524487
8	0xb97c5a5a	-0.00024066251
9	0x3980dbea	0.0002457791
10	0xb8a1bb9c	-7.712023e-05
11	0x39f0aef5	0.0004590672
12	0xba71b40e	-0.00092202506
13	0x39665414	0.00021965831
14	0x392d929c	0.00016553182
15	0xb9234030	-0.00015568803
16	0xb9924662	-0.0002789973
17	0xb7a60ce5	-1.9794747e-05
18	0xb9d6d2af	-0.00040974232
19	0x399a1b80	0.00029393658
20	0x3861d8f3	5.384623e-05
21	0xb98b03b5	-0.00026514908
22	0x39ec2db5	0.00045047482
23	0x395c068a	0.00020983271
24	0x3a3c3048	0.00071788253
25	0x3a67ae73	0.00088379456
26	0xb79a8dd0	-1.8424267e-05
27	0x39404419	0.00018335915
28	0x398d2f9c	0.00026929087
29	0xb80db145	-3.3782115e-05
30	0x35c4c722	1.4661093e-06
31	0xb9b86e6e	-0.0003517749
32	0x390d4ef0	0.00013476214
33	0x393a6122	0.00017774527
34	0xb9f2c9d8	-0.00046308222
35	0x39cffdb2	0.00039671134
36	0xba045bf1	-0.0005049101
37	0x38f36090	0.00011605129
38	0x3970a68a	0.00022950224
39	0xba0eb0b8	-0.0005443203
40	0x39b6225b	0.00034739342
41	0x37f4d526	2.9186322e-05
42	0x38feee25	0.00012156022
43	0xb7aace5a	-2.036167e-05
44	0x39910083	0.00027656936
45	0xb9e1522e	-0.00042976573
46	0x37a7b29e	1.9991126e-05
47	0x3a009e20	0.0004906375
48	0x39729e9d	0.00023138007
49	0xb9196e33	-0.0001463227
50	0xb91f873b	-0.00015213799
51	0x3a2ee107	0.0006671105
52	0x3747c98e	1.1908252e-05
53	0xb9208c06	-0.00015310952
54	0xba1778ea	-0.00057782105
55	0x389f57b6	7.598048e-05
56	0xb9a2fdf6	-0.00031088263
57	0x39c84cc6	0.00038204173
58	0x392a180f	0.00016221426
59	0x381121dd	3.460223e-05
60	0x374ae90f	1.2094401e-05
61	0xb9171ff6	-0.00014412389
62	0xbaa1c386	-0.0012341596
63	0xba2c41c9	-0.0006571082
64	0x3414acfa	1.3846503e-07
65	0xb9c343c1	-0.0003724378
66	0x3a14a8b8	0.0005670893
67	0x398d225a	0.0002691921
68	0x3a112fbd	0.00055384246
69	0xb867960c	-5.5214434e-05
70	0x3999ddbb	0.00029347636
71	0xb9ac1b9d	-0.0003282697
72	0x39b58692	0.00034623273
73	0x39ecb7f1	0.00045150475
74	0xba162dcc	-0.000572887
75	0xb9a74622	-0.00031904975
76	0xb9d85f2a	-0.00041269633
77	0xba844ea2	-0.0010094235
78	0x396e250b	0.00022711248
79	0xb8f62272	-0.0001173661
80	0xba1e6bab	-0.00060432655
81	0xba010053	-0.0004921008
82	0x3a1ce4aa	0.00059850013
83	0xb8bd3495	-9.0220165e-05
84	0x384db0f7	4.904062e-05
85	0x38f16140	0.0001150989
86	0x3968fd45	0.00022219594
87	0xb9462811	-0.00018897677
88	0x3a304827	0.0006724619
89	0xb982be01	-0.00024937096
90	0xba13aa25	-0.00056329585
91	0x38bc39a6	8.9752764e-05
92	0x3a1001b4	0.0005493418
93	0x36e67978	6.868675e-06
94	0x3a22e70e	0.00062142394
95	0xb8d80275	-0.0001030014
96	0x3989fad5	0.0002631756
97	0xb800b477	-3.068565e-05
98	0xba082f3c	-0.0005195027
99	0x3a323b45	0.0006798993
100	0x399c8533	0.0002985388
101	0x39bc9070	0.0003596577
102	0x38e56362	0.000109380824
103	0x3a1b7684	0.0005930441
104	0xba14c885	-0.00056756317
105	0x39ae8559	0.00033287218
106	0xb91b39c7	-0.00014803476
107	0xb92aaf46	-0.00016277758
108	0x3a1df0ac	0.00060249376
109	0x393ecfba	0.00018197196
110	0xb98532f6	-0.00025405706
111	0x3921e0cd	0.00015437901
112	0x3802c9dd	3.1182415e-05
113	0x3a971203	0.0011525754
114	0x39d24863	0.00040108254
115	0x39bbd296	0.00035824318
116	0x39d7a99c	0.00041134364
117	0xb91b1701	-0.00014790522
118	0xb85dddb5	-5.2896987e-05
119	0x39d64e0a	0.00040875404
120	0x39b06bfe	0.00033649796
121	0x3a0077d2	0.0004900667
122	0x396aac45	0.00022380154
123	0x3997ba52	0.00028939784
124	0x38f92488	0.0001188005
125	0xb9d6cf77	-0.00040971834
126	0x394ad810	0.00019344711
127	0xb8620cd5	-5.389455e-05

exp_avg_sq f4 [128]
0	0x307056af	8.7434676e-10
1	0x31157c87	2.175314e-09
2	0x30b67bb2	1.3277399e-09
3	0x33fa571f	1.16573794e-07
4	0x319ffc0b	4.656163e-09
5	0x32818409	1.507762e-08
6	0x3350820c	4.854705e-08
7	0x3268abf2	1.3543273e-08
8	0x32f7cff6	2.8849154e-08
9	0x32b58074	2.1129587e-08
10	0x31b2c9dd	5.203431e-09
11	0x33b00f3a	8.198408e-08
12	0x34bc10b4	3.5029882e-07
13	0x327a4c1e	1.4569222e-08
14	0x32348696	1.050798e-08
15	0x325cd580	1.285423e-08
16	0x332a3ec6	3.96383e-08
17	0x30fed1d4	1.8540569e-09
18	0x33aeb065	8.1345924e-08
19	0x331174d9	3.3866716e-08
20	0x30de8bbd	1.6192342e-09
21	0x33172298	3.518889e-08
22	0x33a0ecfa	7.4936864e-08
23	0x3281517a	1.5054628e-08
24	0x346354a6	2.1171817e-07
25	0x34a2ce6d	3.0325046e-07
26	0x302065a1	5.8352084e-10
27	0x328833a5	1.5855969e-08
28	0x32cee6dc	2.4086539e-08
29	0x309018aa	1.0484389e-09
30	0x302ccaa5	6.286121e-10
31	0x336daf65	5.5340383e-08
32	0x32001f90	7.457757e-09
33	0x3236f36b	1.0649141e-08
34	0x33b4c6b7	8.418049e-08
35	0x33704571	5.594251e-08
36	0x33e54b56	1.0677347e-07
37	0x318cdd21	4.0996757e-09
38	0x32a463dd	1.9137525e-08
39	0x340f4b3b	1.3345282e-07
40	0x3337c4c6	4.2786972e-08
41	0x2fa748bb	3.04288e-10
42	0x317a2314	3.6399728e-09
43	0x302f9404	6.387497e-10
44	0x32e8d7bc	2.710646e-08
45	0x33a79702	7.804012e-08
46	0x306a1128	8.5153085e-10
47	0x33caf56b	9.450999e-08
48	0x32aa5fb0	1.9834118e-08
49	0x3228c2ed	9.823208e-09
50	0x3232c99c	1.0406804e-08
51	0x3437686f	1.7081196e-07
52	0x302bb47b	6.2465916e-10
53	0x3236ad7e	1.0633242e-08
54	0x341cee9a	1.4615435e-07
55	0x31108083	2.1027808e-09
56	0x333e63ca	4.432858e-08
57	0x336ac2c2	5.4659502e-08
58	0x323a3c1f	1.0840295e-08
59	0x307c77e6	9.184745e-10
60	0x300186ee	4.7121673e-10
61	0x32224ba7	9.446842e-09
62	0x352f7c6f	6.5373655e-07
63	0x3439cef3	1.7304755e-07
64	0x2fdb8a09	3.9933948e-10
65	0x3385dda4	6.233611e-08
66	0x3402d1f6	1.2183577e-07
67	0x3314b427	3.4622783e-08
68	0x34092315	1.2771882e-07
69	0x30c52f01	1.4346996e-09
70	0x330eb77d	3.3228833e-08
71	0x33620ebb	5.2633123e-08
72	0x334be887	4.7476103e-08
73	0x339d282d	7.31819e-08
74	0x341b4493	1.4460447e-07
75	0x334d02a2	4.7732676e-08
76	0x3394f432	6.936206e-08
77	0x34df744b	4.16216e-07
78	0x328fb5fd	1.673015e-08
79	0x32113f0f	8.454449e-09
80	0x3422f5e3	1.5176879e-07
81	0x33d24755	9.791862e-08
82	0x342666b6	1.5497321e-07
83	0x31e7f4f4	6.750833e-09
84	0x30bcbe4f	1.3732889e-09
85	0x31d2185e	6.1145746e-09
86	0x32d14de0	2.4366216e-08
87	0x32e1df72	2.6295059e-08
88	0x343b97e8	1.7470995e-07
89	0x32f3e1bf	2.839158e-08
90	0x34102476	1.342431e-07
91	0x31516888	3.0472922e-09
92	0x340e59f1	1.3257501e-07
93	0x30b162b5	1.2906499e-09
94	0x3422a824	1.5148595e-07
95	0x31885409	3.9676746e-09
96	0x3306fd12	3.1429472e-08
97	0x314fd2d4	3.0242306e-09
98	0x33f760c0	1.15194325e-07
99	0x34484f94	1.8655402e-07
100	0x3310c628	3.3707835e-08
101	0x33330183	4.167806e-08
102	0x318a6ad5	4.028474e-09
103	0x341cc2f3	1.4599554e-07
104	0x341099f0	1.3467047e-07
105	0x3348ee1e	4.6782695e-08
106	0x3246e4ff	1.15771845e-08
107	0x323d93c6	1.1034848e-08
108	0x34244a40	1.5300702e-07
109	0x327263b1	1.4108921e-08
110	0x32f98026	2.904569e-08
111	0x31d4bd36	6.191523e-09
112	0x3054dca7	7.7438717e-10
113	0x3507c684	5.05803e-07
114	0x33765c90	5.7360523e-08
115	0x33582a85	5.033009e-08
116	0x33853e47	6.204623e-08
117	0x3217785f	8.816726e-09
118	0x30e20369	1.6444633e-09
119	0x3389b481	6.412393e-08
120	0x333caa8e	4.392728e-08
121	0x33bf0772	8.895485e-08
122	0x32905ea7	1.680685e-08
123	0x3300e094	3.0006575e-08
124	0x31b6ce00	5.3203166e-09
125	0x339d0318	7.311445e-08
126	0x3271e3ff	1.4079887e-08
127	0x312d7be2	2.5245233e-09

exp_avg f4 [32, 128]
0	0x3a9eb89b	0.001210946
1	0x3ac58f51	0.0015072619
2	0x3adbb255	0.0016761521
3	0xba031cac	-0.0005001526
4	0x3aac1dea	0.0013131474
5	0x3aa94009	0.0012912761
6	0xb9c07ce7	-0.00036714153
7	0xb97191ad	-0.0002303782
8	0xb9cfb927	-0.00039620066
9	0x3ab9ceb4	0.0014175982
10	0xb9dc7243	-0.00042046802
11	0x3aa49896	0.0012557681
12	0x3aafc14f	0.0013409051
13	0x3ab64fbf	0.0013909264
14	0xb9dec261	-0.00042487963
15	0xba127528	-0.00055869156
16	0x3883f01e	6.291292e-05
17	0x3aac86bf	0.0013162716
18	0x3ab6d763	0.0013949688
19	0x3ab43726	0.0013749346
20	0xb9aacbcf	-0.00032576776
21	0x3a9eb7e6	0.0012109249
22	0x3995bb6a	0.0002855913
23	0x3ab80d35	0.0014042022
24	0xb9580c9d	-0.00020604064
25	0x3ac30b35	0.0014880659
26	0xb9974a34	-0.0002885625
27	0xb9863205	-0.0002559574
28	0xb9b6f7c3	-0.00034898342
29	0xb7e23b3a	-2.6968879e-05
30	0x3ab7fbf7	0.0014036883
31	0xb9ae1152	-0.0003320077
32	0x3aae867d	0.0013315227
33	0xba749097	-0.0009329407
34	0x3aa1dbb7	0.0012348805
35	0xb92b6fc3	-0.00016349465
36	0x3aac718f	0.0013156402
37	0x3aac000d	0.0013122574
38	0xb9f25ed6	-0.00046228495
39	0xb9c41bf3	-0.00037404857
40	0xba142216	-0.0005650831
41	0xb9bf0f50	-0.00036441768
42	0x3ac3fb04	0.0014952128
43	0x3ac0b338	0.0014701849
44	0xb9da514d	-0.00041640774
45	0x3aa52f59	0.0012602612
46	0xba0bf8d4	-0.00053395075
47	0xb962fa2b	-0.00021646234
48	0xb9e95929	-0.00044507653
49	0x3a9e7470	0.0012089144
50	0x3aa5037c	0.0012589539
51	0x3aca44dd	0.00154319
52	0xba403212	-0.000733168
53	0xb97332fc	-0.00023193279
54	0xb93553cd	-0.00017292723
55	0xb9fa6fcd	-0.00047767014
56	0x3abf57fd	0.0014598366
57	0xb9282221	-0.00016034443
58	0x3aca1563	0.0015417751
59	0x3ad2a676	0.0016071338
60	0x3ab05032	0.0013451634
61	0x3a9fd3ff	0.0012193917
62	0xb9f11871	-0.00045985312
63	0xb92539af	-0.00015757115
64	0x3aac7210	0.0013156552
65	0xba15dbc6	-0.0005716648
66	0xb9cea4f5	-0.00039414284
67	0xb9e68254	-0.0004396612
68	0x3aa2ebf8	0.0012429943
69	0xb94c1342	-0.0001946213
70	0xb9eebf14	-0.00045537262
71	0x3abf63e2	0.0014601911
72	0xb9a7557b	-0.0003191641
73	0xba096c77	-0.0005242298
74	0x3aaacb5f	0.001303058
75	0xba1214b5	-0.00055725436
76	0x3a76c1e9	0.000941305
77	0xb9901ee0	-0.00027488824
78	0x3add22a2	0.0016871283
79	0xba0da17b	-0.00054027856
80	0x3ab626b2	0.001389703
81	0xb9d55fee	-0.00040698
82	0xb9ba63ce	-0.00035551045
83	0xb98fd52a	-0.00027433905
84	0x3ac0354f	0.0014664325
85	0x3ab28ebc	0.001362286
86	0x3ab8b552	0.0014092124
87	0xba2c8daa	-0.0006582389
88	0x3aaa5861	0.001299631
89	0xb95cf4bd	-0.00021072007
90	0x3aacea70	0.0013192426
91	0x3ab8e846	0.0014107309
92	0x38e11f85	0.00010734707
93	0x3aa92c02	0.0012906792
94	0x3ac79172	0.0015225841
95	0xb94b2293	-0.00019372469
96	0x3aac5c3c	0.0013150047
97	0x3aac12a8	0.0013128119
98	0xb9a2ca63	-0.00031049838
99	0x3aa6cd8b	0.0012726052
100	0x3aab50a6	0.00130703
101	0x3a99e5f8	0.001174151
102	0x3ab40ed5	0.001373733
103	0x3a99fe87	0.0011748829
104	0x39787e05	0.00023698069
105	0x3ab4f8ab	0.0013807019
106	0xb9db77f3	-0.00041860304
107	0x3aa040c6	0.0012226335
108	0x3ac460fc	0.0014982517
109	0xb9c6539b	-0.00037827794
110	0xba0fa9a6	-0.00054802967
111	0xb9db79a8	-0.00041861576
112	0x3ab611b2	0.0013890772
113	0x3a823015	0.0009932542
114	0x3ab6b291	0.0013938715
115	0xb9d119e9	-0.0003988289
116	0x3ad491e3	0.0016217794
117	0x36b03a49	5.251994e-06
118	0x383ae052	4.455477e-05
119	0xb9837402	-0.000250727
120	0x3ad054be	0.0015894396
121	0x3aa7e5a5	0.0012809528
122	0x3a9b1bbc	0.0011833827
123	0xba34f858	-0.0006903461
124	0xba1c9ad3	-0.00059739983
125	0x39e2c4e2	0.00043252768
126	0xb9b20132	-0.00033951696
127	0x3abaac40	0.0014242008
128	0x3a6975df	0.0008905809
129	0xba6975df	-0.0008905809
130	0x3a6975df	0.0008905809
131	0x3a6975df	0.0008905809
132	0xba6975df	-0.0008905809
133	0xba6975df	-0.0008905809
134	0x3a6975df	0.0008905809
135	0xba6975df	-0.0008905809
136	0xba6975df	-0.0008905809
137	0xba6975df	-0.0008905809
138	0x3a6975df	0.0008905809
139	0xba6975df	-0.0008905809
140	0xba6975df	-0.0008905809
141	0x3a6975df	0.0008905809
142	0x3a6975df	0.0008905809
143	0x3a6975df	0.0008905809
144	0xb89612f2	-7.156086e-05
145	0x3a05d881	0.0005105809
146	0x3a6975df	0.0008905809
147	0x3a6975df	0.0008905809
148	0xba6975df	-0.0008905809
149	0x3a6975df	0.0008905809
150	0xba6975df	-0.0008905809
151	0xba6975df	-0.0008905809
152	0xba6975df	-0.0008905809
153	0xba6975df	-0.0008905809
154	0xb954a192	-0.00020278085
155	0xba6975df	-0.0008905809
156	0xba6975df	-0.0008905809
157	0xba6975df	-0.0008905809
158	0xba6975df	-0.0008905809
159	0xba6975df	-0.0008905809
160	0xba6975df	-0.0008905809
161	0xba6975df	-0.0008905809
162	0x3a6975df	0.0008905809
163	0xba6975df	-0.0008905809
164	0xba6975df	-0.0008905809
165	0x3a6975df	0.0008905809
166	0xba6975df	-0.0008905809
167	0x3a6975df	0.0008905809
168	0x3951fa5e	0.00020025062
169	0xba6975df	-0.0008905809
170	0xba350819	-0.00069058087
171	0xba6975df	-0.0008905809
172	0xba6975df	-0.0008905809
173	0x3869701c	5.565594e-05
174	0x3a6975df	0.0008905809
175	0xba6975df	-0.0008905809
176	0xba6975df	-0.0008905809
177	0x3a6975df	0.0008905809
178	0xba6975df	-0.0008905809
179	0xb89612f2	-7.156086e-05
180	0x3a6975df	0.0008905809
181	0x3a6975df	0.0008905809
182	0x382531ce	3.938545e-05
183	0xba6975df	-0.0008905809
184	0x3a6975df	0.0008905809
185	0xba6975df	-0.0008905809
186	0xba6975df	-0.0008905809
187	0xba6975df	-0.0008905809
188	0xba6975df	-0.0008905809
189	0xba6975df	-0.0008905809
190	0xba6975df	-0.0008905809
191	0x3a6975df	0.0008905809
192	0xba05d881	-0.0005105809
193	0x39d80a0d	0.0004120622
194	0x3a6975df	0.0008905809
195	0x3a6975df	0.0008905809
196	0xb877a7f8	-5.9045822e-05
197	0x39b4a60d	0.00034455993
198	0xba6975df	-0.0008905809
199	0xba6975df	-0.0008905809
200	0x3a6975df	0.0008905809
201	0x3a6975df	0.0008905809
202	0xba6975df	-0.0008905809
203	0x3a6975df	0.0008905809
204	0x38ffdc26	0.000122003534
205	0x3869701c	5.565594e-05
206	0x3a6975df	0.0008905809
207	0xba6975df	-0.0008905809
208	0xba6975df	-0.0008905809
209	0xba6975df	-0.0008905809
210	0x3982470b	0.00024848463
211	0xb8e937b0	-0.000111206784
212	0xb8f3e60e	-0.00011629994
213	0x3a6975df	0.0008905809
214	0xb92c8db6	-0.0001645599
215	0xba6975df	-0.0008905809
216	0xb982470b	-0.00024848463
217	0xba6975df	-0.0008905809
218	0x3a6975df	0.0008905809
219	0x3a6975df	0.0008905809
220	0x3a6975df	0.0008905809
221	0x389612f2	7.156086e-05
222	0xba6975df	-0.0008905809
223	0x39af6a4f	0.00033457807
224	0x384330d4	4.6537098e-05
225	0x3a6975df	0.0008905809
226	0xba6975df	-0.0008905809
227	0x3a6975df	0.0008905809
228	0xb92c8db6	-0.0001645599
229	0xba05d881	-0.0005105809
230	0xba6975df	-0.0008905809
231	0xba6975df	-0.0008905809
232	0xba6975df	-0.0008905809
233	0xba6975df	-0.0008905809
234	0xba6975df	-0.0008905809
235	0x3a6975df	0.0008905809
236	0x3a6975df	0.0008905809
237	0xba6975df	-0.0008905809
238	0xba6975df	-0.0008905809
239	0xb9af6a4f	-0.00033457807
240	0xb9203fb8	-0.00015282526
241	0x3a6975df	0.0008905809
242	0x3a6975df	0.0008905809
243	0x3a6975df	0.0008905809
244	0x3a6975df	0.0008905809
245	0xba6975df	-0.0008905809
246	0x3a6975df	0.0008905809
247	0x3a6975df	0.0008905809
248	0x3a6975df	0.0008905809
249	0x3a6975df	0.0008905809
250	0x392f4179	0.00016713691
251	0xba6975df	-0.0008905809
252	0x3a6975df	0.0008905809
253	0x3a6975df	0.0008905809
254	0xba6975df	-0.0008905809
255	0xba6975df	-0.0008905809
