our-vTR/10_fold_lightning_logs/dataset1/fold_1/version_2/checkpoints/epoch=49-step=1749_fold1.ckpt (torch, 132433 bytes, 18 tensors)

conv1d.weight f4 [128, 4, 12]
000000 a9 ec b4 bd 69 24 53 3e f4 e0 a8 3d 7a 24 28 be
       -0.08834202 0.20619358 0.082460314 -0.16420165
000010 f5 4a 85 3e 0a cb 13 3d 73 69 c8 3d 73 11 9d be
       0.2603375 0.036082305 0.09785738 -0.30677375
000020 4e 0a 66 be cd 14 6e 3e 63 ed 00 3c 80 35 94 bb
       -0.22464868 0.23250122 0.007869097 -0.0045229793
000030 7f 82 40 3e eb 99 2d be 57 60 1f 3e 97 de df bd
       0.1879978 -0.16953246 0.15564094 -0.109311275
000040 ca 1a a6 be be f7 f9 bc e1 9f 3a 3e f0 95 43 3e
       -0.32442313 -0.03051364 0.18225051 0.19100165
000050 ba 09 d5 bd 55 f6 ce 3d 33 56 5f be fc 2a 97 bd
       -0.10402246 0.10105578 -0.21810226 -0.073812455
000060 a9 f1 56 be 99 3d b5 3d 1f c0 1d be e5 46 0e 3e
       -0.20990624 0.088496394 -0.1540532 0.13894232
000070 b7 41 8c 3d f1 ec 5d be 84 2e c6 3d 6b 3d 1b be
       0.068484716 -0.21672417 0.09676841 -0.15160148
000080 ef b2 69 3e b7 e2 3b be fa 12 00 3e 13 04 b6 be
       0.22822164 -0.18348204 0.12507239 -0.35549983
000090 f9 fc 41 3d 43 84 f1 3d 95 dc 84 be a4 c5 d5 bd
       0.047360394 0.11792805 -0.2594954 -0.104380876
0000a0 db ee 38 3c fe c8 cb bd 89 4b 2d be 5e a2 ba bd
       0.011287416 -0.099504456 -0.16923346 -0.09113
0000b0 3d 9d b9 3d ed ab 67 be ae b9 b7 bd 74 37 7e 3e
       0.09063194 -0.22624178 -0.089709625 0.24825841
0000c0 ad 3e ec 3d 67 9a 0b be 8e 58 03 3e 32 04 c9 3d
       0.11535392 -0.13633119 0.1282675 0.09815253
0000d0 5a 07 92 3d 48 26 86 be 1a 50 43 bc 58 ca 4d 3d
       0.071303084 -0.2620108 -0.011920953 0.0502418
0000e0 82 1b 8c bd f3 c5 00 be d8 9d 87 3d a0 d7 d7 bd
       -0.06841184 -0.12575512 0.06621903 -0.10539174
0000f0 9b 6b 67 3e 62 3b a6 3d 88 54 a0 3c 25 02 e7 bd
       0.22599642 0.08116795 0.019571558 -0.11279706
000100 46 b6 30 3e 42 9f de 3d ef 69 58 be 86 47 7d 3d
       0.17257032 0.1087022 -0.2113416 0.06183579
000110 f8 bf 82 3e f9 b7 66 be b0 95 0d be d8 b9 84 be
       0.25537086 -0.22531117 -0.13826632 -0.25923038
000120 8c 80 95 be 33 9c 49 3d 4d f8 12 be cf a1 c0 bd
       -0.29199636 0.04922123 -0.14352532 -0.094058625
000130 33 31 09 be e1 e1 90 be f3 a7 6b 3d a6 5b f7 3d
       -0.13397674 -0.28297332 0.057533216 0.120780274
000140 f2 91 cf 3d 22 a4 de be 84 8a a9 3d f2 c0 a8 3e
       0.10135259 -0.43484598 0.08278373 0.32959706
000150 fc 5f d9 be 01 41 8b bd 8d 86 ac be 51 7a 06 3e
       -0.42456043 -0.06799508 -0.33696404 0.13132598
000160 c8 f9 2d be f2 a1 49 3e ee 6a 55 be c3 94 f2 bd
       -0.16989815 0.19690683 -0.20841572 -0.1184478
000170 e5 3e 6c bd 45 42 65 3e 28 fd 53 be ea 63 3b be
       -0.05767717 0.22388561 -0.2070204 -0.18299833
000180 ec 67 0d be 96 f0 f8 3c c6 6b 86 bd 18 bb 47 3e
       -0.13809174 0.030388158 -0.06563525 0.19504964
000190 9f e5 f3 bd a3 96 0b bd 10 03 3f be a7 c2 45 be
       -0.11909031 -0.034079205 -0.18653512 -0.19312535
0001a0 1c 2c c1 3d 82 76 ab bd 8f ff c8 3d 14 b3 34 be
       0.09432241 -0.08372213 0.09814369 -0.17646438
0001b0 52 c0 13 be f4 40 16 bd 7f ec 01 3e 86 9c 4b be
       -0.14428833 -0.036683038 0.12687872 -0.19883928
0001c0 1d ed 13 be 6f b0 ca bd 1f c0 84 3e 69 af 2f 3d
       -0.1444592 -0.09896933 0.25927827 0.042891894
0001d0 92 69 ba bd c2 92 d7 bd 81 e2 be be d3 93 99 3d
       -0.09102167 -0.10526039 -0.37282184 0.07498898
0001e0 f8 6b f2 3d 25 7a 7a 3d 9b 7e eb 3d aa 2a c5 bd
       0.11837 0.061151642 0.114987575 -0.09627278
0001f0 7d f8 3c 3d 0b 75 1a 3e 2a 86 a8 bd f4 e5 e6 bc
       0.046135414 0.15083711 -0.08228715 -0.028185822
000200 33 0d 29 3d 16 67 f1 3d 9a 7d 2e 3e 1f 3c e4 3d
       0.041272353 0.1178724 0.170401 0.1114428
000210 85 b8 24 3e 34 b4 ac be 04 1b a8 3d 2a 5a 7b be
       0.16086014 -0.33731234 0.08208278 -0.24546114
000220 c6 8c 6b 3e 68 b4 b7 be 74 f4 3a 3c 64 01 3b 3d
       0.2300292 -0.35879827 0.011410821 0.045655623
000230 a3 b7 2c be b0 9c 15 bd fa 6d 4a be f9 ea be bd
       -0.16866927 -0.036526382 -0.19768515 -0.09322161
000240 1d 05 45 bd 5c 60 4b bd b7 16 25 be e9 fa 3a be
       -0.04810058 -0.049652442 -0.16121946 -0.18259777
000250 ad 21 d7 be dd 6a 69 3e 24 66 22 be 7b 52 0f bd
       -0.4201788 0.22794671 -0.15859276 -0.03499077
000260 93 93 43 bd 99 a9 78 be 2d 52 af 3c c0 98 3d 3e
       -0.04774816 -0.24283446 0.02140149 0.18515301
000270 76 cc b6 be 4f b0 f0 bd f6 7d 46 bd 8f e3 c1 bd
       -0.35702866 -0.11752378 -0.04845997 -0.094672315
000280 80 bc 11 3c 8d ab 9c be ff b1 d2 bd 56 7c 1f 3d
       0.00889504 -0.30599633 -0.10287856 0.038936935
000290 44 18 2c 3e d4 a4 96 3d e7 f7 97 3d 4c 8a b0 bd
       0.16806132 0.07355657 0.074203305 -0.08620128
0002a0 41 ac af bc 96 d7 c4 3d ca 23 ef 3d ca 98 ac 3e
       -0.021444442 0.09611432 0.11676748 0.3371032
0002b0 9a a3 4f 3d 4e 1c c5 bc f1 02 8f 3e 30 62 53 3e
       0.050693132 -0.024061348 0.27931932 0.20642924
0002c0 08 65 b8 3d 06 74 13 3d 0b 3c d7 3c ce 2e 64 be
       0.09003645 0.03599932 0.026273748 -0.2228348
0002d0 19 02 93 3e eb 6d 7b 3e f1 d4 18 3e 1e 04 03 bd
       0.28712538 0.24553649 0.1492498 -0.03198635
0002e0 a4 5a 0f 3d 80 de 54 be ea 1b b3 be dd 4f 67 be
       0.03499855 -0.20788002 -0.34982234 -0.22589059
0002f0 c1 c7 30 be b8 98 75 3e 8e b6 9f 3d a4 eb a3 3d
       -0.172637 0.23984039 0.077984914 0.08003929
000300 4d 68 7b 3d af ad 8f be 3a 6d fd bc 47 ff f8 3d
       0.061378766 -0.28062198 -0.030935872 0.12158065
000310 33 c8 09 be b7 27 f4 bd 6f 20 3d 3e 73 8a b7 bd
       -0.13455276 -0.119216375 0.18469404 -0.08961954
000320 76 0d 44 3b f7 44 3e 3d 93 ee 34 3d 82 6e 11 be
       0.002991525 0.04645249 0.044172835 -0.14202312
000330 48 46 69 3d 9b f3 1f 3e 7a 96 41 3e d1 46 bf bd
       0.05695179 0.15620272 0.18905059 -0.09339679
000340 88 7b a0 3e 02 f1 f8 3d be 3b 0b be 3e aa 74 be
       0.31344247 0.121553436 -0.13597009 -0.23893067
000350 4e a0 42 be cf 1e 23 be 48 1a 3c be 86 86 61 3c
       -0.19006464 -0.15929721 -0.183694 0.013764983
000360 de bb 9b bd 1b d6 0d bd cb df 8e 3d 83 d9 bb bd
       -0.07604192 -0.034628015 0.06976279 -0.091723464
000370 d6 12 50 be 44 68 94 be 57 b1 f2 bd aa eb 4d bd
       -0.20319685 -0.28985798 -0.11850231 -0.050273575
000380 87 37 f1 3d a8 e1 32 be 8e bd e2 3d d6 66 f4 3d
       0.11778169 -0.17468894 0.11071311 0.11933677
000390 ec 84 c0 3d b0 f6 d1 3d 9a 41 ef bd cc a7 e4 3d
       0.09400353 0.1025213 -0.116824344 0.11164817
0003a0 59 e7 df 3d d0 1c 07 3d 7e 64 77 be 49 a5 10 3e
       0.10932798 0.032986462 -0.24159428 0.14125551
0003b0 ff 96 74 be bd 68 98 3e 4c 74 46 3e ef 6b 55 be
       -0.23885725 0.2976741 0.19380301 -0.20841955
0003c0 6b 6c 76 bd 40 6d 0e 3e 57 28 5e be ed 07 bf bd
       -0.06016199 0.13908863 -0.21695076 -0.093276836
0003d0 6f 3e ac bd c2 55 81 bd bd 14 b2 be a5 67 0f 3d
       -0.08410346 -0.06315185 -0.34781447 0.035010953
0003e0 08 07 50 be f6 4b 3b bd 95 a6 21 be 9b 77 29 bd
       -0.20315182 -0.04572674 -0.15786202 -0.04137383
0003f0 2f 30 8a be 97 70 91 be e8 60 2e bd ef 76 53 be
       -0.26989886 -0.28406212 -0.042572886 -0.20650838

conv1d.bias f4 [128]
000000 73 3e 25 3d 83 46 2d bd 0a ed aa bd f5 22 4b bd
       0.04034276 -0.042303573 -0.08345993 -0.049593884
000010 d1 ab b2 3d bc 52 c5 3d 55 25 b6 bd 6c 52 03 3e
       0.08724178 0.09634921 -0.08893839 0.1282441
000020 93 99 2a 3d 5a a1 06 3d 27 66 87 b9 22 74 02 bd
       0.041650366 0.03286872 -0.00025825316 -0.031849034
000030 d7 58 96 3d 6a a6 14 3e 99 d7 86 bc e0 6c a7 3d
       0.073411636 0.14516607 -0.016460227 0.08175063
000040 7c 2e a3 3b da 67 61 bc 2e 28 e2 3d 2a ac e6 3c
       0.0049799066 -0.01375767 0.1104282 0.028158266
000050 ec c7 b6 3c 32 d7 0b be 8e 7d 8d 3d 0a 42 a5 3b
       0.022312127 -0.13656309 0.06908713 0.005043273
000060 55 52 0d bd e4 d1 8a bd 6c 7f 2a 3e 26 f9 03 bd
       -0.034502346 -0.06778315 0.1665017 -0.03222003
000070 28 44 4e 3b 0c 64 78 bd 7e 30 41 be 71 d5 57 3d
       0.003147373 -0.060642287 -0.18866155 0.052693788
000080 8b 6a 0c be b4 b0 02 3d f1 e6 81 bc 1c 53 51 3b
       -0.13712518 0.0319068 -0.015857192 0.0031940406
000090 36 b8 37 bd 33 49 6e bd 56 d2 ae 3d cb fb 0b be
       -0.04485341 -0.058175277 0.08536212 -0.1367027
0000a0 8a b7 82 3d b0 1c 9b bd b2 61 8a 3c 13 a7 f8 bd
       0.063826635 -0.07573831 0.016892288 -0.12141242
0000b0 f6 46 f1 bd 16 eb ca bc 2e 61 d4 3d e6 9f 4d 3c
       -0.11781113 -0.0247703 0.10370098 0.01255033
0000c0 e9 c4 c2 3c 10 e7 36 be b1 e7 6e bd 49 f8 dd 3d
       0.023775535 -0.17861581 -0.058326427 0.10838372
0000d0 00 31 0e 3d 7c cc 91 3d c1 20 ab bd 3c 39 94 3c
       0.0347147 0.071190804 -0.08355857 0.018093698
0000e0 cf 8b ae 3d a5 61 4a be be 6c 78 bc e3 43 30 be
       0.0852276 -0.19763811 -0.015162645 -0.17213397
0000f0 38 43 01 3e 79 24 c5 bd 7f e9 0a 3d 83 b7 1c 3e
       0.12623298 -0.09626097 0.033914085 0.15304379
000100 03 a7 cf 3d 3e 1f 0a bd 03 3f cd bd ee 79 e2 bd
       0.10139277 -0.0337212 -0.10021784 -0.110584125
000110 b2 46 3e be dc c3 08 be 89 75 ab bd 7f b6 5a bc
       -0.18581656 -0.13355964 -0.083720274 -0.0133491745
000120 75 7e 09 bd 86 11 aa 3d 06 9c 20 3e 59 81 7c 3d
       -0.033567864 0.083041236 0.15684518 0.061646793
000130 a8 54 98 3d a7 33 a5 bd f7 be 64 3d fd 4f da 3d
       0.07438022 -0.080664925 0.05584618 0.10659788
000140 fd 25 fd bd 9e 5b b1 3d 8a 88 1c bb a3 4b d8 bc
       -0.12360761 0.08660053 -0.0023885095 -0.026403254
000150 7e d3 f1 bd 67 89 61 3d 58 60 b4 bd 49 19 4c be
       -0.11807917 0.055062678 -0.088074386 -0.1993152
000160 2a 6d d4 bd 71 26 93 bd bb 25 0d bd 46 dc d2 bb
       -0.10372384 -0.071850665 -0.03445981 -0.00643495
000170 13 aa 16 3b 1d 68 e0 bc 9e d0 d0 bd 9a 7f e6 bd
       0.0022989556 -0.027393395 -0.101960406 -0.11254807
000180 cd a9 35 be c8 c8 99 bd a8 33 d7 bd a5 53 d1 bd
       -0.17740555 -0.07508999 -0.105078995 -0.10221032
000190 51 01 46 be 4c dc 84 3d 56 06 e8 bd cf 0f 18 bd
       -0.1933644 0.06487331 -0.113293335 -0.03712445
0001a0 ba ab f2 bc 24 46 34 3d 11 21 3c bd c3 8a 10 be
       -0.029622901 0.044012204 -0.045929972 -0.14115433
0001b0 d2 04 e7 3c 53 75 e1 bd a7 a3 c1 3d c3 8b 12 be
       0.02820054 -0.11008706 0.09455042 -0.14311127
0001c0 17 47 f7 bc 7e 0c ea bd fd 21 50 3c a2 15 40 bd
       -0.030185265 -0.11428164 0.012703416 -0.04689563
0001d0 1c 57 68 3b ce 95 74 bd 52 f2 fc 3b 18 0d c9 bd
       0.0035452312 -0.059713177 0.0077193165 -0.098169506
0001e0 9f 88 ad bd 74 99 e2 bd 15 94 09 bd 06 43 28 be
       -0.08473324 -0.11064425 -0.033588488 -0.16431817
0001f0 18 f7 1b 3e 99 69 aa 3c a2 99 1c 3e 15 00 90 3a
       0.15230978 0.020802306 0.15292981 0.0010986353

linears.0.weight f4 [32, 128]
000000 95 00 e9 bc c9 78 86 bd b0 a9 0a ba fd 3f 0a bd
       -0.02844266 -0.06566007 -0.00052895676 -0.03375243
000010 fe e6 fd bc 8d fa 01 bc 24 2c db bc 96 ad bb bc
       -0.030993935 -0.007933271 -0.026754446 -0.02290992
000020 7c b1 a8 3d b2 59 98 bd 33 05 61 bc c9 e1 d9 bb
       0.082369775 -0.07438983 -0.01373415 -0.00664923
000030 11 a2 f4 b9 27 27 78 bd fb 56 95 bd a5 13 52 3d
       -0.00046660056 -0.060584214 -0.07291981 0.051288266
000040 40 15 a3 3d 4b 1e 62 bd 1f a6 2c bd c5 3e 89 3d
       0.079630375 -0.05520467 -0.042150613 0.067014255
000050 fe 09 e3 3c 3e 43 5c 3d 52 ac 3e 3d ca 40 83 3d
       0.027714726 0.053775065 0.046551056 0.06408842
000060 d2 a4 f0 bc 5f e8 fb b9 4b d9 a0 bd 80 e5 46 bd
       -0.029375467 -0.0004804758 -0.07853945 -0.048558712
000070 c3 39 66 3d be 07 58 ba 06 cd e4 3c e9 d2 76 bb
       0.05620743 -0.00082409 0.027929794 -0.0037662333
000080 79 34 d8 3c 3f 16 a7 bd 88 fa 4b 3d a9 d1 87 3d
       0.026392208 -0.0815854 0.049799472 0.066317864
000090 f4 dc 34 bd 47 a7 d2 3d a5 11 37 bd 7a 9b b5 3d
       -0.04415603 0.10285812 -0.04469456 0.088675454
0000a0 ff fc 3d 3d 05 9c 81 3b 24 de a7 3d d0 3e 09 3d
       0.046383854 0.0039553666 0.08196667 0.03350717
0000b0 9e d5 b9 3d 6f 85 dc 3c e8 b9 5e bd 07 f2 49 bd
       0.09073947 0.026919095 -0.054376513 -0.04930308
0000c0 fc de 82 bd 66 99 89 3d c2 ed 18 bd b9 81 90 bd
       -0.06390187 0.067187116 -0.03733612 -0.07055993
0000d0 e3 99 df 3d 94 31 94 3d 9d de 46 3d 68 bb 65 bd
       0.109180234 0.07236019 0.048552144 -0.056086928
0000e0 b0 55 5a bd 49 f5 a7 3d ae c1 3d b9 57 72 6a 3d
       -0.053304374 0.08201081 -0.00018096596 0.05723795
0000f0 1c b7 1b bd 9e c3 52 3e 8d 81 2e bd a3 2b 55 bd
       -0.038016424 0.20582435 -0.042604018 -0.05204357
000100 16 c0 8c bd ff cf 98 3d 1c ee 2d 3e 82 c2 72 3c
       -0.06872575 0.07461547 0.16985363 0.014816882
000110 b3 2a 3c b9 78 a3 51 3d f0 41 1c 3d 0e b1 7e bc
       -0.00017944984 0.051181287 0.03814882 -0.015545143
000120 bf 70 7c bd 97 dd 7a bd 55 78 78 bc 3d 3a 83 3d
       -0.06163096 -0.06124648 -0.015165408 0.064075924
000130 7c cf 29 bd e1 33 99 bc b2 95 25 3d e0 ee e6 3c
       -0.04145764 -0.018701496 0.040425964 0.028190076
000140 e2 39 5e bd 21 53 0d 3e e4 6f 44 3d 4b 51 29 bd
       -0.05425442 0.13801242 0.04795827 -0.041337293
000150 24 09 93 bc eb e5 8f 3d 60 37 14 3d 17 07 86 3d
       -0.017948695 0.07026275 0.036185622 0.06544321
000160 67 d3 b8 bb 0c a7 ac 3d 25 e4 1a 3d 83 ca 88 bd
       -0.0056404355 0.08430299 0.03781523 -0.06679251
000170 b2 09 44 3d 8c bb c6 bc 6d 8e 49 3c ce f3 1a 3e
       0.04786081 -0.024259351 0.012302023 0.15132067
000180 c9 cf 1a b9 6a 1d f4 b9 c3 5a 88 bd 82 51 c5 3d
       -0.0001476399 -0.00046561222 -0.066579364 0.09634687
000190 43 d4 06 3e fe 17 47 bd 57 0a 0e bd 15 78 4d 3d
       0.13166909 -0.048606865 -0.03467783 0.050163347
0001a0 ca 84 8d 3c 82 b7 1b bd e2 5f ee bc b8 f7 b6 3c
       0.017275233 -0.038016804 -0.029098455 0.022334918
0001b0 48 54 c3 3d f3 0c 7e 3c 96 9f 11 3c 3e e9 d1 bc
       0.0953756 0.015506017 0.008888146 -0.025623914
0001c0 5b ad 79 3d 60 a4 c6 3d 43 91 d9 3d c4 45 85 bd
       0.06095634 0.09699321 0.106234096 -0.06507447
0001d0 41 15 38 3b c8 00 a2 3d a5 e8 1f bc 1b 8e 1c bd
       0.002808884 0.07910305 -0.009760057 -0.03822146
0001e0 4e 33 9b bd 4b d6 a9 bd 02 6f b6 bc 95 6d 60 3d
       -0.07578145 -0.08292826 -0.02226973 0.054792006
0001f0 08 f0 49 bd bc d2 44 3c dc c5 51 bd 23 24 5c 3d
       -0.049301177 0.012013134 -0.051214084 0.0537454
000200 44 6d 94 bc cf 87 5b bd 58 37 03 ba ce 7b c2 bc
       -0.018118508 -0.053596314 -0.00050055 -0.023740675
000210 7f dc b9 bc 43 0a a7 ba 26 22 60 bc cf de 25 bd
       -0.022688149 -0.0012744147 -0.013680017 -0.04049569
000220 82 62 7d 3d 48 b7 aa bd e5 31 71 bd bb f3 e1 b9
       0.061861522 -0.083357394 -0.058885474 -0.00043096938
000230 59 57 bf b9 14 a2 5b bd 6c 42 81 bd a6 7a d0 3c
       -0.00036495438 -0.053621367 -0.06311497 0.025449108
000240 73 31 4a 3d 8b 87 33 bd a2 a9 02 bd d3 6b a5 3d
       0.049363565 -0.043830436 -0.031900056 0.080772065
000250 93 5b 79 3d 58 c3 68 3d 90 30 51 3d 0b 24 bf 3d
       0.060878348 0.05682692 0.051071703 0.093330465
000260 c7 4c b9 bc 1c 23 6d ba 40 3d b5 bd 7d 63 41 bd
       -0.022619618 -0.0009046064 -0.08849573 -0.04721402
000270 2b 0f 99 3d 37 71 cc b9 bc af b8 3c db f9 4d ba
       0.07473596 -0.00038994264 0.022544734 -0.0007857361
000280 b6 d9 5f 3c 27 e2 8e bd 23 45 e0 3c ce e1 01 3d
       0.013662746 -0.06976729 0.027376717 0.031709485
000290 0a f5 12 bd b3 7b 80 3d e7 fd 14 bd a1 8e 9b 3d
       -0.03587822 0.06273594 -0.036374953 0.07595564
0002a0 bc f8 15 39 65 a6 1f 38 71 44 40 3d 3f 40 cd 3c
       0.00014302408 3.806352e-05 0.04694027 0.025055049
0002b0 64 b0 9c 3d 0e 9d a4 3c c6 cd 48 bd fa 09 28 bd
       0.07650831 0.02009442 -0.049024366 -0.04102514
0002c0 88 3f 3b bd d5 fe 93 3d 98 d3 dd bc b7 7f 74 bd
       -0.045714885 0.0722634 -0.027078435 -0.05969211
0002d0 ae c6 a0 3d ff 41 0f 3d 70 a2 21 3d e9 20 3a bd
       0.07850395 0.03497505 0.039461553 -0.04544154
0002e0 bd 9c 2d bd 53 28 88 3d 4f d2 34 b9 70 60 30 3d
       -0.042385805 0.06648316 -0.00017244484 0.04306072
0002f0 c0 ef f5 bc 5d ba 41 3e 72 4b 0b bd cc 40 a2 bc
       -0.030021548 0.18918748 -0.034007497 -0.019806288
000300 ff 54 6d bd 66 36 a1 3d bc d2 0d 3e f2 3e 23 39
       -0.057942387 0.07871704 0.1384992 0.0001556834
000310 02 c6 95 b8 14 17 26 3d db 51 f0 3c 79 da fd bb
       -7.1417555e-05 0.040549353 0.029335907 -0.0077469912
000320 5b 2c 52 bd 12 cb b9 bc 39 85 14 bc e2 fc 11 3d
       -0.051311832 -0.02267984 -0.009064966 0.03564156
000330 2e ff 0b bd 58 41 3e bc d7 3e f2 3c b1 20 e4 3c
       -0.034178905 -0.011612259 0.02957098 0.02784762
000340 b2 7e 37 bd e7 f2 02 3e ba ff 26 3d 28 61 4d bc
       -0.04479856 0.12787972 0.040771224 -0.012535371
000350 2f 1b 80 bb 34 c7 83 3d d7 4c 9a 3d 0a a2 52 3d
       -0.0039094905 0.06434479 0.07534187 0.051424064
000360 6c f6 05 ba e4 77 96 3d f1 34 3b 3c 93 01 38 bd
       -0.0005110267 0.07347086 0.011426196 -0.044923376
000370 a6 41 8b 3d b5 c4 f2 b9 9c 2c c9 3b 32 4a 0f 3e
       0.06799631 -0.00046304395 0.006139351 0.13993147
000380 c7 3d a6 b9 5f f3 ea b9 91 db 98 bd d0 b9 a2 3d
       -0.00031708015 -0.00044813284 -0.07463754 0.07945597
000390 58 5f eb 3d 42 fa 18 bc c9 09 cf bc 04 4c 29 3d
       0.11492795 -0.00933701 -0.02527322 0.04133226
0003a0 f5 d6 81 3c c7 2c 89 bd 53 1a 59 bc a2 37 61 3c
       0.01584957 -0.06697994 -0.013250905 0.013746174
0003b0 7b 63 af 3d 39 16 97 3b 87 5e 3d 3b a7 80 b9 ba
       0.08563896 0.0046108034 0.0028895454 -0.0014152721
0003c0 2e 6c 59 3d ed 7e a8 3d 51 f2 47 3d fe 53 63 bd
       0.053081684 0.08227334 0.048815075 -0.055500023
0003d0 51 ae 01 b8 4d 9b a9 3d 33 16 28 bb 42 ee e5 bc
       -3.091834e-05 0.082815744 -0.0025647997 -0.028067712
0003e0 2b 9f 87 bd 00 f7 8e bd 85 cf 45 bc 69 01 f3 3c
       -0.06622156 -0.06980705 -0.012073402 0.029663758
0003f0 93 b9 91 bc 20 80 aa 3b 5c 98 2f bd d8 50 23 3c
       -0.017788684 0.005203262 -0.04286991 0.009968005

linears.0.bias f4 [32]
000000 de 51 d4 b9 b1 48 cf b9 93 15 8c 37 d9 f0 16 b9
       -0.00040496787 -0.00039536276 1.6699347e-05 -0.00014394837
000010 b9 3e 2e b9 04 f0 db b9 5b 65 b7 b7 bb cf b1 39
       -0.00016617299 -0.0004194976 -2.1862497e-05 0.00033914842
000020 8d e4 b8 b9 3f 5d 51 37 ba 93 d8 b8 87 f5 28 3c
       -0.00035265498 1.2479081e-05 -0.00010327199 0.0103124445
000030 5e 3e a6 b6 8d d9 04 b9 03 9c 1c b9 46 72 17 b8
       -4.954446e-06 -0.00012669545 -0.00014935438 -3.610763e-05
000040 cc 5d 92 39 47 d0 ad 39 ff bb ae 39 eb b7 b6 b8
       0.00027917174 0.0003315231 0.00033327934 -8.712694e-05
000050 45 23 8b 38 f6 dd 80 b7 f1 11 74 b8 8a 43 ca b9
       6.634606e-05 -1.5362148e-05 -5.8190843e-05 -0.00038578763
000060 a4 1d 06 39 41 a5 9a bb 0d da 50 b7 36 dd b8 b9
       0.00012790278 -0.004719407 -1.2448535e-05 -0.0003526003
000070 9d 83 47 39 94 96 63 b6 21 f8 14 38 de ce a7 b7
       0.00019027149 -3.3913284e-06 3.5517038e-05 -2.0004281e-05

linears.2.weight f4 [2, 32]
000000 05 03 13 bf 77 8a 18 bf 39 62 19 b9 0b 8f 80 39
       -0.5742648 -0.5958628 -0.00014627808 0.00024520638
000010 d6 d0 e0 38 a0 b3 26 bf 25 4d 81 b8 d0 e4 f8 3e
       0.00010720051 -0.65117836 -6.1655686e-05 0.4861207
000020 fd 8a 45 bf f4 10 2b 39 c4 ab e8 b8 d9 6a 3c 3f
       -0.77165204 0.00016314146 -0.00011094616 0.73600537
000030 b4 f2 07 b9 bf 34 06 b9 85 48 e6 35 61 30 6b 39
       -0.00012965017 -0.00012798885 1.7157441e-06 0.00022429369
000040 6c b0 2a b8 a4 7c 0a 3f c7 8f 06 3f fd 24 0b b9
       -4.0695464e-05 0.54096437 0.52563137 -0.00013269852
000050 d0 68 8e 38 5c 2f f6 38 46 b9 61 39 9c c5 0f bf
       6.7906105e-05 0.000117390155 0.00021526692 -0.561609
000060 ab 95 aa b8 a5 ea 2f bf 30 07 ef b8 bc 98 20 bf
       -8.1341095e-05 -0.68717414 -0.00011397747 -0.62733054
000070 3b 36 09 b9 23 fc aa 38 4b d3 4c 37 c7 de 07 38
       -0.0001308554 8.153196e-05 1.2208543e-05 3.2393986e-05
000080 90 e1 17 3f cd 48 f2 3e 60 1d a6 b7 32 90 97 35
       0.59328556 0.47321168 -1.980242e-05 1.1292343e-06
000090 f2 ef 4a 38 59 d1 20 3f c8 c7 59 39 b0 ae 0d bf
       4.838402e-05 0.6281944 0.00020769157 -0.55344677
0000a0 7e 06 3d 3f 7c 34 18 b8 0a c6 b9 b8 e6 ea 45 bf
       0.7383803 -3.6288504e-05 -8.858375e-05 -0.7731155
0000b0 dc 8f 66 b9 5e 2e 3f 39 84 c6 55 39 be 10 60 35
       -0.00021988101 0.00018232453 0.00020387216 8.3470866e-07
0000c0 3f d7 d8 b8 9e 3a 19 bf a4 e9 15 bf 29 de d8 38
       -0.00010339775 -0.5985507 -0.5855963 0.00010341063
0000d0 89 51 76 b9 a0 ad 9a 38 ac e5 eb b7 82 8c 16 3f
       -0.00023490762 7.3756324e-05 -2.8121132e-05 0.5880815
0000e0 05 41 31 39 01 84 0d 3f 97 66 1f b9 68 01 1d 3f
       0.00016904257 0.55279547 -0.0001520164 0.6133027
0000f0 20 08 fd 37 28 d3 84 b8 09 11 11 39 34 57 1d 39
       3.0163734e-05 -6.3335814e-05 0.00013834624 0.00015005172

linears.2.bias f4 [2]
000000 8b bc 2a 39 3f 0a b4 bd
       0.00016282701 -0.08791017

exp_avg f4 [128, 4, 12]
000000 aa 70 34 39 9b 41 be 3a 24 55 84 3a 76 47 bd 38
       0.00017208108 0.0014515402 0.0010096175 9.025533e-05
000010 ec 49 e5 ba e2 13 16 b7 d7 d8 04 b9 5a da c2 38
       -0.0017493344 -8.945326e-06 -0.0001266928 9.291312e-05
000020 23 f1 08 b9 11 fc 0c 3b 84 ca 81 3a 3c 12 82 3a
       -0.00013059801 0.0021512548 0.0009902273 0.0009923647
000030 6c 9a 04 3b a8 79 90 b6 b7 fe 3a ba e0 19 44 39
       0.0020233644 -4.305697e-06 -0.00071332924 0.00018701656
000040 4b e1 09 39 ef f7 d4 39 2c 7e 90 3a 69 99 15 3a
       0.00013149266 0.00040620516 0.001102393 0.0005706759
000050 5b 08 2e 3a 6f 12 1b bb 9e c0 00 37 b3 f5 d6 b9
       0.00066388183 -0.002366211 7.674242e-06 -0.0004100032
000060 c7 e5 13 38 69 c8 76 ba d3 58 e4 b9 f4 6f e6 b8
       3.5261528e-05 -0.0009414019 -0.00043553728 -0.000109881075
000070 a7 0e 61 b9 cb 6f 14 39 63 3c 82 ba 84 ab a8 b9
       -0.0002146313 0.00014156026 -0.000993621 -0.00032171246
000080 77 4c 17 b7 83 10 a2 38 2b 04 69 ba 58 b2 d8 3a
       -9.018105e-06 7.7278375e-05 -0.00088888657 0.0016532643
000090 0d 31 12 bb dc 99 04 ba 5f 03 12 39 a1 85 2f b9
       -0.0022307069 -0.0005058327 0.00013924901 -0.00016739081
0000a0 97 2f f0 3a 9c 3f 0d ba 97 54 96 37 e4 3d b3 b9
       0.001832473 -0.00053882017 1.7920784e-05 -0.00034187653
0000b0 de 6e 09 ba a2 5d 10 39 fa 9e e4 b8 92 83 12 bb
       -0.0005242656 0.00013767791 -0.00010901499 -0.0022356254
0000c0 8d 20 90 bb d9 5b 11 38 96 44 c9 3a 37 5d a0 b9
       -0.0043984116 3.4656234e-05 0.0015355523 -0.0003058703
0000d0 b6 fb 1d b9 b5 69 0e 3b bb 56 bf b9 e2 32 a7 b8
       -0.00015066456 0.0021730487 -0.00036494978 -7.972658e-05
0000e0 5a 04 e9 39 e5 76 c2 b9 39 4a 42 3b 55 c1 91 b9
       0.00044444465 -0.00037091147 0.002964629 -0.000278006
0000f0 39 24 98 3b fa cb 1f bb 41 5e 65 ba 7f e6 22 3b
       0.00464299 -0.0024383054 -0.00087497017 0.0024856625
000100 1d 31 76 3a 6d 99 88 ba 10 e8 42 38 8e ef b2 ba
       0.0009391474 -0.0010421701 4.646933e-05 -0.0013651715
000110 91 be a6 39 51 83 79 bb a7 1c 59 39 54 e7 98 39
       0.0003180397 -0.0038072655 0.00020705406 0.00029164052
000120 75 b3 93 b9 26 d7 bf b9 01 1a 28 ba dd af ce 39
       -0.0002817173 -0.00036590657 -0.0006412566 0.0003942241
000130 80 6d 50 ba 29 f8 20 b9 2f d5 9e 39 f0 24 9e 3a
       -0.0007950887 -0.00015351236 0.00030294943 0.0012065452
000140 8f c9 3a 3b f6 e3 d6 37 01 d8 3d bb fb 2e 3e b7
       0.0028501486 2.561694e-05 -0.002896786 -1.1335821e-05
000150 36 c5 1b 38 6f 81 35 3b 03 1d a2 b7 d5 b0 28 bb
       3.7138547e-05 0.0027695557 -1.9325415e-05 -0.0025740166
000160 68 a8 dd 36 f8 1a 80 ba f2 47 82 37 65 ee 79 39
       6.6059183e-06 -0.0009773662 1.553071e-05 0.000238353
000170 ed c1 6c bb 33 12 88 3b 23 20 90 b9 0d 45 1a b6
       -0.003612633 0.00415256 -0.00027489764 -2.298798e-06
000180 b5 77 b2 ba 12 2c 27 b9 ee 95 a6 3a 06 be 45 39
       -0.0013615998 -0.00015942779 0.0012709477 0.00018858173
000190 00 c6 b3 36 a1 3b 48 39 ad e1 cf 38 73 6a 84 b9
       5.357666e-06 0.000190957 9.9125646e-05 -0.00025256313
0001a0 3b 2d ef ba ba 2c b3 38 10 f2 8e 3a ce 66 58 b8
       -0.0018247733 8.543716e-05 0.001090588 -5.1594157e-05
0001b0 8e e7 c6 b7 56 4d 4d ba a4 6a fc ba 3b d8 f1 38
       -2.3711265e-05 -0.00078316533 -0.0019257856 0.000115320516
0001c0 65 5f b7 b7 a1 45 22 ba d3 d2 7f ba be 8b 4e 39
       -2.1859722e-05 -0.0006190185 -0.0009758893 0.00019697749
0001d0 29 08 82 b7 3e 4c 63 b8 54 cc f6 b5 61 4d d7 b8
       -1.5501008e-05 -5.4192024e-05 -1.8387896e-06 -0.00010266412
0001e0 7c cd 81 3a 27 19 5d 3a 53 4d 3f 3a e7 48 9f b9
       0.0009903158 0.0008434229 0.0007297594 -0.0003038116
0001f0 6a 05 be 3a ee c4 c6 39 ac b3 ba b8 56 1f 9a ba
       0.0014497463 0.00037912227 -8.902638e-05 -0.0011758606
000200 65 a3 e8 3a da 6a 77 ba e7 e3 9b ba 41 84 9e 39
       0.0017748891 -0.00094382244 -0.0011893482 0.00030234645
000210 5b 17 cf 39 92 f9 cf 38 18 1f 9d b8 78 b4 c2 b3
       0.00039499518 9.917015e-05 -7.492135e-05 -9.066656e-08
000220 b1 db bb ba 1f 44 4d 38 14 2d 7d 3a 7c 68 a1 3a
       -0.0014332441 4.893925e-05 0.0009657901 0.0012314464
000230 68 1f 89 38 05 3a 6f 3a ad f8 d2 38 1e 48 1b b9
       6.538519e-05 0.0009125772 0.000100599 -0.00014808818
000240 cb e6 f6 3a 7c 58 c4 b8 6f e0 78 37 cd e0 40 b8
       0.0018837092 -9.36249e-05 1.4834207e-05 -4.598573e-05
000250 3b 85 c0 38 0f 3b 35 39 da 3c d2 36 b1 94 08 ba
       9.1800895e-05 0.00017283506 6.2655718e-06 -0.0005210145
000260 79 b5 7a 39 c9 0c 93 b7 95 1a 02 39 0a 13 13 bb
       0.00023909462 -1.752972e-05 0.00012407669 -0.0022441768
000270 9b 9d d7 38 da dc 39 38 9c 98 83 b9 a8 25 ed b7
       0.00010281355 4.431312e-05 -0.0002509997 -2.8270137e-05
000280 58 d7 cf 3a 08 91 d7 38 5c e1 7e b9 5a 12 2d b8
       0.0015857024 0.00010279013 -0.0002430728 -4.1263505e-05
000290 7a 33 2c 3b ab 0c 25 3b 8b 10 0a bb 88 37 19 3b
       0.00262758 0.0025184553 -0.002106699 0.0023379046
0002a0 54 e6 03 38 01 13 27 3a 1a d8 d9 b9 b4 93 1f 3b
       3.1447344e-05 0.0006373376 -0.00041550474 0.0024349513
0002b0 18 88 05 bb 48 be 62 b9 bb 2e 58 39 f0 67 d3 39
       -0.0020375308 -0.00021623925 0.00020616774 0.00040322496
0002c0 b3 64 2c bb dd b0 90 b8 7a 05 1f ba ac 14 0d b9
       -0.0026305139 -6.8993984e-05 -0.0006066185 -0.00013454509
0002d0 eb 3f 04 bb bd 25 1a ba d9 d4 2a 3a e5 b5 1a bb
       -0.00201797 -0.0005880257 0.0006516702 -0.0023606953
0002e0 0a c2 bc 39 0e 15 79 b8 e2 82 00 38 7c c7 26 39
       0.00036002725 -5.9385835e-05 3.0639472e-05 0.00015905307
0002f0 f6 a1 77 b9 0b 61 1f bb 41 b0 29 3b 64 33 2b 38
       -0.00023616091 -0.0024319317 0.002589241 4.081744e-05
000300 c0 4d 23 3b a2 d0 9d b8 90 f9 d2 b8 62 86 9f 3a
       0.0024918169 -7.525204e-05 -0.00010060065 0.0012170787
000310 00 75 17 b8 c9 b4 39 b9 d9 e1 b5 b9 de 0c 21 b8
       -3.611017e-05 -0.00017710323 -0.0003469128 -3.8397375e-05
000320 98 f9 52 b9 59 26 38 ba 14 1e ea b9 c6 be 0a b9
       -0.00020120142 -0.0007024757 -0.00044654368 -0.00013231774
000330 e7 0c bc 38 01 6f 41 b9 95 b3 c6 ba 5f c4 10 ba
       8.966942e-05 -0.00018447266 -0.0015159721 -0.00055224256
000340 f1 d8 8a b7 f6 7b 7d 3a 83 ff 17 ba f6 86 bc b8
       -1.6551903e-05 0.00096696557 -0.0005798267 -8.989677e-05
000350 ed c8 df 39 7b 70 a4 3a f1 d8 65 39 87 f8 32 ba
       0.00042683576 0.0012545729 0.00021919959 -0.00068271946
000360 98 4c 16 ba 40 7a 10 b9 6f bf c8 3a 44 17 8f 39
       -0.0005733459 -0.00013778452 0.0015315841 0.0002729242
000370 9d 03 21 b9 c7 a6 50 38 4b 57 44 ba 86 40 08 3b
       -0.00015355503 4.9746388e-05 -0.00074898143 0.0020790412
000380 76 30 b4 b8 80 75 14 b7 fc f0 35 3a ab 2d 76 3a
       -8.5920954e-05 -8.848845e-06 0.00069405115 0.00093909603
000390 01 9b 03 bb c8 68 d0 39 ca 3b b2 38 07 d4 75 ba
       -0.0020081403 0.0003975092 8.498838e-05 -0.0009377603
0003a0 f6 3b 58 39 2f 19 5c ba dc a3 db 3a 37 b0 ff ba
       0.00020621702 -0.00083960866 0.0016757208 -0.0019507472
0003b0 10 80 12 b9 c4 68 0e ba 60 b0 f4 b9 c8 15 02 b9
       -0.00013971352 -0.00054324814 -0.00046670716 -0.0001240588
0003c0 97 75 81 38 ef cd 24 ba 5d b6 ab 3a 1b 94 22 b8
       6.173102e-05 -0.000628679 0.0013100613 -3.8761744e-05
0003d0 2d 6c c2 b8 4b 56 66 3a 72 56 68 b6 bb 39 65 ba
       -9.27079e-05 0.00087866624 -3.4621012e-06 -0.0008744259
0003e0 0c 8d 8a b9 07 68 21 b9 cb f8 62 b7 aa 79 63 3a
       -0.000264265 -0.0001539291 -1.3528576e-05 0.0008677492
0003f0 6c 7e f0 37 02 62 cf 37 53 7e ea ba c5 6a b4 b9
       2.86691e-05 2.4721961e-05 -0.0017890431 -0.00034411825

exp_avg_sq f4 [128, 4, 12]
000000 ce 90 a3 36 67 15 b0 37 64 80 bf 37 17 ed c5 36
       4.874636e-06 2.0990801e-05 2.282876e-05 5.8986584e-06
000010 59 3e 00 38 79 5a e1 37 ca b4 71 37 bc 88 e5 35
       3.0575644e-05 2.686422e-05 1.4406813e-05 1.7101625e-06
000020 11 1d 54 35 fa e2 ed 37 4d e6 96 37 52 99 43 37
       7.901845e-07 2.8358296e-05 1.7988636e-05 1.1658603e-05
000030 97 35 a6 37 51 59 83 37 b3 55 d2 37 ee 2a 87 37
       1.9813697e-05 1.5658008e-05 2.5073858e-05 1.6113245e-05
000040 90 c3 e1 35 45 c9 0c 38 ce 7f 9d 37 11 51 a0 37
       1.6820723e-06 3.3566048e-05 1.8775372e-05 1.9111236e-05
000050 45 f7 2a 37 47 dc d2 37 18 db 42 37 4e 17 15 37
       1.01903615e-05 2.5136525e-05 1.1614313e-05 8.886518e-06
000060 9b bb 5e 37 0c 0b 90 37 af e1 21 37 47 27 ab 37
       1.3275911e-05 1.7171282e-05 9.648894e-06 2.0403078e-05
000070 4b c8 c8 37 8f 94 f1 36 25 a9 52 37 b8 cb 81 37
       2.3935127e-05 7.199654e-06 1.2556357e-05 1.5472862e-05
000080 9a b7 b7 37 d8 d5 ab 36 c3 a4 c1 37 0b 2f e0 35
       2.1900796e-05 5.121092e-06 2.3084116e-05 1.6702992e-06
000090 fc 8b 62 37 89 36 95 37 e1 d6 af 35 a1 c8 8c 36
       1.3503242e-05 1.7787579e-05 1.3101054e-06 4.1956814e-06
0000a0 78 31 58 37 89 d2 00 37 3d 08 39 36 f4 8b b8 36
       1.2886121e-05 7.678414e-06 2.7571944e-06 5.49992e-06
0000b0 61 ad 83 37 e5 21 b3 36 f0 e8 ac 36 62 db aa 37
       1.5697153e-05 5.3385616e-06 5.153117e-06 2.0367737e-05
0000c0 56 10 61 38 fa a8 a7 37 fa f3 d8 38 8c 58 7f 38
       5.3659394e-05 1.9986637e-05 0.00010345127 6.0879203e-05
0000d0 f6 be 37 38 02 c0 d7 36 5b 9b 45 38 4b 64 0b 38
       4.3808446e-05 6.429852e-06 4.7113146e-05 3.3233588e-05
0000e0 3b 93 2c 37 cb 00 2b 37 61 de c8 38 ad 33 db 36
       1.0286279e-05 1.0192579e-05 9.5781645e-05 6.5327245e-06
0000f0 1d c2 6f 38 85 40 8e 38 a4 66 bd 38 30 78 96 38
       5.7162822e-05 6.783105e-05 9.0313406e-05 7.174944e-05
000100 48 6b 8c 38 2e b1 97 38 ce 58 27 38 84 ec 77 38
       6.695703e-05 7.2332434e-05 3.989861e-05 5.910966e-05
000110 12 ef 62 38 38 8f ba 37 e4 63 e9 37 1f 9c 8a 37
       5.410525e-05 2.223962e-05 2.782228e-05 1.6523582e-05
000120 ef 12 cd 36 4f e7 34 38 eb 5b ce 37 73 1d 15 38
       6.1116802e-06 4.3130767e-05 2.4599916e-05 3.5551795e-05
000130 02 e3 0b 38 12 be ba 36 32 3c 8e 38 91 90 81 38
       3.33516e-05 5.565359e-06 6.7823e-05 6.178127e-05
000140 27 e9 48 38 4b 42 89 36 2c 23 bf 38 28 c2 c7 37
       4.7900856e-05 4.0906357e-06 9.114141e-05 2.381306e-05
000150 16 c4 33 35 7a 33 ed 37 1e 16 bc 36 a1 d6 a0 38
       6.696804e-07 2.8276572e-05 5.6054114e-06 7.669372e-05
000160 d1 b0 04 37 e9 b4 a2 38 fe 0f ae 37 e9 7e a5 37
       7.908981e-06 7.758459e-05 2.0749863e-05 1.972863e-05
000170 45 22 53 37 8f 9c 18 38 e1 7d 3f 37 fd d1 87 36
       1.2584559e-05 3.638543e-05 1.1413796e-05 4.0477594e-06
000180 48 9e 9a 36 7e 9e 58 37 3f 4e ee 36 3b 7b 95 37
       4.607984e-06 1.2911505e-05 7.1020618e-06 1.7819568e-05
000190 01 71 59 36 f6 24 24 37 58 16 f6 35 d4 22 df 36
       3.2401297e-06 9.783767e-06 1.8334931e-06 6.6499724e-06
0001a0 2c 12 dd 37 92 f8 a5 37 d2 75 e7 37 4e 4e ef 35
       2.6353715e-05 1.9785282e-05 2.759221e-05 1.7829677e-06
0001b0 c4 67 fb 36 10 66 ac 37 ba ec da 37 86 6c 77 36
       7.492463e-06 2.0551524e-05 2.609786e-05 3.6869037e-06
0001c0 5f 4d 3d 36 5b 04 21 37 79 6e bd 37 ba 89 c1 37
       2.820823e-06 9.597362e-06 2.2581999e-05 2.3071527e-05
0001d0 c3 d5 1a 37 08 24 91 36 3b 0e ad 36 b0 ef c1 37
       9.228886e-06 4.3255313e-06 5.1574584e-06 2.3119006e-05
0001e0 92 b2 08 38 04 b2 e5 37 d7 be e5 37 c2 14 52 37
       3.2591233e-05 2.7381822e-05 2.7387794e-05 1.25218085e-05
0001f0 39 63 4b 38 33 11 98 37 bc fd 3d 37 b9 94 9d 37
       4.849138e-05 1.8127821e-05 1.1324355e-05 1.8785113e-05
000200 c1 3a 1a 38 a6 69 d5 37 43 90 f2 37 fc 44 ea 37
       3.677118e-05 2.5440775e-05 2.8915825e-05 2.7927097e-05
000210 1b 0b 12 38 9b d4 1d 36 43 b6 4e 37 93 93 c7 35
       3.4819455e-05 2.3518576e-06 1.2320993e-05 1.4869605e-06
000220 a7 96 45 38 76 9d 52 35 6f 26 1f 37 96 b3 e5 37
       4.7108766e-05 7.846023e-07 9.486087e-06 2.7382554e-05
000230 95 c5 ac 36 0e 3d 05 37 67 b4 c7 36 83 bc 30 36
       5.149001e-06 7.941633e-06 5.9516638e-06 2.6335772e-06
000240 99 77 48 37 d5 a3 92 36 f6 67 30 36 dd 19 b5 35
       1.1948775e-05 4.3702116e-06 2.6286557e-06 1.3493078e-06
000250 66 f9 76 36 4a 07 a0 37 77 88 f4 35 f4 05 a0 36
       3.6802026e-06 1.907688e-05 1.8219133e-06 4.7690646e-06
000260 e7 da d4 36 f3 0f 24 36 65 57 4a 37 09 2b 04 38
       6.343576e-06 2.4447188e-06 1.2060486e-05 3.1511332e-05
000270 3a 7e 0a 36 49 80 2a 37 7c 03 45 37 bb 52 e6 35
       2.0637076e-06 1.0162658e-05 1.1742926e-05 1.7160413e-06
000280 ce da 95 37 d6 81 0b 35 98 e7 89 36 f0 e1 6f 37
       1.7864073e-05 5.197047e-07 4.1098792e-06 1.4298115e-05
000290 f9 23 ec 37 39 df 85 37 b1 b1 ad 37 1a 7a 83 37
       2.8150143e-05 1.5958782e-05 2.0705951e-05 1.5673275e-05
0002a0 b1 c8 ec 37 48 53 13 38 c3 f0 f4 37 d1 7b 13 37
       2.8226847e-05 3.5125093e-05 2.919918e-05 8.790711e-06
0002b0 e3 90 cd 37 22 19 85 37 cb cb c5 36 54 d8 97 37
       2.4505372e-05 1.5866539e-05 5.894782e-06 1.8101338e-05
0002c0 d5 bd 01 38 f4 4f d0 37 b8 a1 e5 37 cb 9e 09 37
       3.093279e-05 2.4832763e-05 2.7374233e-05 8.202808e-06
0002d0 d9 86 1c 38 bb a1 29 38 a2 59 bc 37 71 4d c5 36
       3.7318885e-05 4.0443363e-05 2.2453085e-05 5.880073e-06
0002e0 51 1b bd 37 60 20 4f 36 6a 10 38 35 62 f6 55 36
       2.2543276e-05 3.0864248e-06 6.8569227e-07 3.1882887e-06
0002f0 2d b9 6a 36 50 d6 1e 38 b5 00 dc 37 3f b6 a1 37
       3.4976504e-06 3.786973e-05 2.6226373e-05 1.927756e-05
000300 21 0b b6 37 45 06 99 35 9c 7a 18 36 0b 75 fd 37
       2.1701273e-05 1.1401213e-06 2.2721133e-06 3.0214453e-05
000310 4e 4e 53 35 b0 2f c2 36 c9 d7 28 38 22 98 1d 37
       7.8717574e-07 5.787202e-06 4.0255287e-05 9.39335e-06
000320 4e 4b 2e 37 a1 f0 96 37 76 c5 57 37 7d 47 39 37
       1.0388741e-05 1.7993445e-05 1.2860974e-05 1.1043504e-05
000330 be e5 ef 37 ac df e2 37 aa 08 e2 37 a8 a7 80 37
       2.8598002e-05 2.7045455e-05 2.6945334e-05 1.533686e-05
000340 46 b2 16 37 d5 8c ac 37 07 d5 cf 37 12 df bc 36
       8.982204e-06 2.0569578e-05 2.4775522e-05 5.6288054e-06
000350 eb f0 28 37 c9 aa 8b 36 ee 54 bc 36 b7 a9 9f 37
       1.0069673e-05 4.162405e-06 5.6127237e-06 1.9033307e-05
000360 9b e8 8b 37 12 66 12 37 95 4f 9d 37 82 31 9e 37
       1.6678407e-05 8.726043e-06 1.8752917e-05 1.8858122e-05
000370 28 75 b3 35 d9 67 fd 35 3c 82 2d 37 16 c2 f4 37
       1.3370636e-06 1.8880193e-06 1.0341926e-05 2.9177445e-05
000380 38 9f a7 37 4f 08 2f 36 05 20 16 38 5d 5e d3 37
       1.9982093e-05 2.6081868e-06 3.5792607e-05 2.5197101e-05
000390 9f 67 ab 37 8c 11 ca 37 71 29 7a 37 f6 a9 b4 37
       2.043304e-05 2.4088447e-05 1.491081e-05 2.1536816e-05
0003a0 d4 52 03 37 a5 59 65 37 68 a1 0c 36 5c 21 10 38
       7.827493e-06 1.3670336e-05 2.0955576e-06 3.4363344e-05
0003b0 ed 19 ea 36 25 1d c7 37 80 90 1c 38 3b 01 2c 36
       6.9767616e-06 2.373622e-05 3.7327874e-05 2.5630713e-06
0003c0 40 46 49 36 5d c5 c4 37 40 f6 33 35 8e 9e 96 37
       2.9992225e-06 2.3456925e-05 6.704104e-07 1.7955226e-05
0003d0 cd 21 d0 36 8c b8 b0 36 bb 2b ad 34 2f ea a6 37
       6.202818e-06 5.266693e-06 3.225558e-07 1.9897792e-05
0003e0 90 e4 68 36 ff 27 70 37 b4 76 3e 36 e6 00 06 37
       3.4703735e-06 1.4314427e-05 2.83813e-06 7.987232e-06
0003f0 3b c6 56 35 3a 64 9f 35 43 69 d6 36 3e a5 02 37
       8.0009676e-07 1.1875593e-06 6.389951e-06 7.787077e-06

exp_avg f4 [128]
000000 26 5e d4 b9 f1 91 48 ba e0 7d 9d b9 c3 7d f2 b9
       -0.00040505937 -0.00076511415 -0.00030039158 -0.00046251537
000010 67 dc cf b9 3b da aa b9 b5 0a d1 b9 08 e6 9d b9
       -0.0003964633 -0.0003258752 -0.00039871564 -0.0003011676
000020 4b 10 f0 39 5e 1a 2d ba 3f 49 d5 b9 5f a8 8f b9
       0.00045788506 -0.0006603355 -0.00040681098 -0.00027400532
000030 c6 fc fd b8 ea d4 e7 b9 80 80 1a ba bd da b6 39
       -0.00012111063 -0.00044218387 -0.0005893782 0.00034876718
000040 48 ae 0d 3a 44 4d 16 ba fc 31 fb b9 24 bf 10 3a
       0.0005404693 -0.00057335594 -0.00047911692 0.0005521646
000050 e0 91 b9 39 09 05 e6 39 71 2a 05 3a 6b 75 1d 3a
       0.00035394635 0.0004387277 0.00050798716 0.00060065713
000060 f8 ff ae b9 a3 d3 23 b8 a4 85 38 ba ac b7 10 ba
       -0.00033378578 -3.905933e-05 -0.0007038957 -0.00055205333
000070 c0 9e 03 3a d3 a5 b6 b8 9f ec 8e 39 a4 d8 83 b9
       0.0005020909 -8.7093234e-05 0.00027260647 -0.00025147677
000080 19 ed a6 39 61 bc 3c ba fa bc e5 39 94 59 f7 39
       0.0003183864 -0.00071997015 0.00043819082 0.00047178252
000090 4c 1c e4 b9 90 89 2c 3a c1 f1 00 ba fb d4 49 3a
       -0.00043508632 0.00065817777 -0.00049188366 0.0007699278
0000a0 55 3b 81 39 f5 3c 6f 39 fc cc f2 39 e4 b1 ba 39
       0.00024649003 0.00022815524 0.00046310562 0.00035609223
0000b0 08 be 33 3a 18 25 96 39 64 61 17 ba b4 0f 12 ba
       0.0006856625 0.00028637866 -0.0005774705 -0.0005571798
0000c0 0a d6 f5 b9 5c 65 1d 3a 52 9f ab b9 18 8c 31 ba
       -0.00046889513 0.00060041784 -0.00032734365 -0.000677289
0000d0 08 4a 41 3a 0e 51 cd 39 4a ad e1 39 61 e2 0c ba
       0.0007373397 0.00039161037 0.00043044455 -0.0005374309
0000e0 56 56 0c ba 1a 4c 2d 3a a8 62 9d b8 ff 7a 04 3a
       -0.0005353441 0.0006610766 -7.5047195e-05 0.0005053728
0000f0 cb a1 fc b9 7a 33 bf 3a fd 8e d5 b9 8b b0 ee b9
       -0.0004818573 0.0014587485 -0.0004073306 -0.00045526432
000100 aa ec 24 ba 46 1b da 39 d2 6f 93 3a 58 51 7a 39
       -0.0006291369 0.0004160052 0.0011248535 0.00023872161
000110 05 8e 79 36 94 70 e9 39 e7 2d c7 39 74 9d a3 b9
       3.7186558e-06 0.000445251 0.00037990438 -0.00031207094
000120 2a e5 19 ba f9 58 db b9 3b 2a ae b9 28 e9 ca 39
       -0.0005870635 -0.00041837225 -0.0003321933 0.00038702157
000130 be 81 e9 b9 2c 66 6d b9 8a a6 eb 39 00 88 b0 39
       -0.0004453789 -0.00022640143 0.00044946774 0.00033670664
000140 e4 89 df b9 bc 78 8b 3a 71 a7 d1 39 95 2e 01 ba
       -0.0004263661 0.001064084 0.0003998834 -0.0004927901
000150 14 03 b1 b9 c4 c1 16 3a 0f 3a f6 39 bd e5 18 3a
       -0.00033762364 0.0005750919 0.00046964033 0.00058325735
000160 f0 31 27 b9 fc 1f 4e 3a a4 ab a3 39 6c 6b 14 ba
       -0.00015944964 0.00078630424 0.00031217665 -0.0005661759
000170 94 e7 e7 39 13 58 20 b9 9d fb a6 39 d0 02 9a 3a
       0.00044232293 -0.00015291599 0.00031849454 0.0011750106
000180 d8 a6 29 39 8d e4 7a b8 5c 21 45 ba b6 bd 5c 3a
       0.0001617925 -5.98175e-05 -0.00075199245 0.0008420603
000190 19 1c 83 3a 60 b3 e1 b9 5e 46 bf b9 77 ce f0 39
       0.0010002881 -0.0004304899 -0.00036482787 0.00045930195
0001a0 8e 2e 97 39 3d e0 1e ba cd 78 0c ba 9b 15 8f 39
       0.0002883565 -0.0006060636 -0.0005358577 0.00027291183
0001b0 04 8b 52 3a 94 07 ad 39 6c 88 91 39 00 15 13 ba
       0.0008031579 0.00033002777 0.00027758197 -0.0005610734
0001c0 fd 1a 03 3a 91 cf 63 3a e7 7a 1a 3a 43 c1 10 ba
       0.0005001275 0.00086902926 0.00058929477 -0.00055219623
0001d0 3b c5 4a 39 6b 0c 21 3a 1c 44 ad b9 a1 6f 13 ba
       0.00019337695 0.0006143513 -0.00033047877 -0.0005624239
0001e0 60 ca 22 ba 60 55 52 ba 78 e2 96 b9 28 05 05 3a
       -0.0006209966 -0.0008023586 -0.00028778962 0.00050743157
0001f0 fe 14 dc b9 56 3e 52 39 5a 12 0f ba 94 00 59 39
       -0.0004197731 0.00020050383 -0.00054577517 0.00020694948

exp_avg_sq f4 [128]
000000 d4 f0 73 39 b5 65 29 3a 39 e0 78 39 3f 3e 7c 39
       0.00023264001 0.0006461994 0.00023734652 0.00024055781
000010 6a 1c 81 39 6f 84 64 39 05 48 a0 39 49 4f b5 38
       0.00024625967 0.0002179311 0.00030571237 8.6455206e-05
000020 b7 26 5c 39 79 af d6 39 f0 c3 d5 39 3f bd 19 39
       0.00020995257 0.00040947998 0.0004077251 0.00014661717
000030 65 a3 3c 38 47 ba b2 39 e4 ae 76 39 59 db e2 38
       4.4974866e-05 0.00034089593 0.0002352554 0.000108173765
000040 3f c1 ab 39 2d ea b1 39 9d b3 53 39 cb 32 70 39
       0.0003275964 0.00033934545 0.00020189439 0.00022907105
000050 6d 42 6b 39 c8 5c 2c 39 20 cd b3 39 e0 54 9f 39
       0.00022436092 0.00016437762 0.0003429437 0.0003039008
000060 0a f8 c1 38 ea 1e 2e 36 f7 c7 01 3a b9 8d b4 39
       9.249158e-05 2.5946015e-06 0.00049507566 0.00034437867
000070 0c 19 5c 39 17 24 75 37 80 83 27 38 e5 a6 0a 39
       0.00020990166 1.4611541e-05 3.993837e-05 0.00013222879
000080 7d 40 c8 38 c4 2f 2a 3a bc cd 79 39 4a f2 5b 39
       9.548755e-05 0.0006492103 0.00023823133 0.00020975727
000090 0d a2 32 39 e6 3a 59 3a 46 5b b0 39 8b a6 69 3a
       0.00017035771 0.00082866696 0.0003363734 0.00089130615
0000a0 f7 43 1d 39 75 7a 35 39 2a 89 ad 39 85 4f 0b 39
       0.00014998006 0.00017307124 0.00033099327 0.00013285696
0000b0 7d af c0 39 b1 1d 94 38 f7 02 c2 39 e7 7e b9 39
       0.00036751843 7.0627204e-05 0.00037004772 0.000353805
0000c0 04 6d 2a 39 f5 a4 dd 39 bb aa 84 38 4c 43 fb 39
       0.00016253075 0.00042275307 6.3260515e-05 0.0004792459
0000d0 99 16 25 3a 53 f1 10 39 09 f5 06 39 eb a0 9f 39
       0.0006297618 0.0001382281 0.00012870519 0.00030446736
0000e0 38 c2 c7 39 23 6d e3 39 fe f1 84 37 15 68 6a 39
       0.00038100942 0.00043378127 1.5848313e-05 0.00022354753
0000f0 97 27 86 39 d7 ee 52 3b f5 24 4c 39 af d1 77 39
       0.00025587968 0.0032185817 0.00019468724 0.00023633869
000100 45 ee cc 39 f2 07 48 39 af 1e 83 3a e2 a1 08 39
       0.00039087437 0.00019076446 0.0010003651 0.00013030277
000110 ab d3 21 35 5b b1 09 39 d7 a9 ad 38 9d 3a 29 39
       6.028519e-07 0.00013131408 8.280918e-05 0.00016138931
000120 89 0b b6 39 04 f9 3e 39 c3 fa 3c 39 c8 74 83 39
       0.0003472234 0.00018212578 0.00018022493 0.00025073276
000130 a2 b2 43 39 10 71 08 38 74 55 c4 39 de 47 cc 38
       0.00018663195 3.2530224e-05 0.000374477 9.740864e-05
000140 7a 32 b9 38 79 ba 9e 3a 0b 72 ef 38 6d b8 9f 39
       8.8308894e-05 0.0012110017 0.0001141765 0.0003046425
000150 da 8b 55 39 52 c5 ef 39 db cb c5 39 81 5a a5 39
       0.00020365362 0.00045732647 0.00037726652 0.00031538683
000160 8a 6f fc 37 6e 4e 29 3a 39 9c 4e 39 fc 2b 9b 39
       3.009268e-05 0.00064585253 0.00019703888 0.00029596675
000170 bf 90 7f 39 40 ed aa 38 5e 9a 49 39 0d d4 ef 3a
       0.00024372617 8.150423e-05 0.0001922636 0.0018297449
000180 a0 f4 7f 38 31 5c 89 36 7d b3 64 3a 56 71 81 3a
       6.1024562e-05 4.0936507e-06 0.00087242556 0.0009875696
000190 60 f4 8b 3a 6c 17 a5 39 26 55 0e 39 86 60 6c 39
       0.0010677688 0.00031488703 0.00013573896 0.00022542672
0001a0 96 73 da 38 09 e3 41 3a b0 08 ec 39 8a a9 9d 38
       0.000104165796 0.00073961966 0.000450199 7.5179225e-05
0001b0 44 7b 05 3a e8 a8 5e 39 01 e3 f5 38 96 3e 14 3a
       0.00050919154 0.00021234492 0.00011724793 0.0005655078
0001c0 af 29 47 39 2e e7 7a 3a 58 bc c5 39 f2 1f 62 39
       0.00018993647 0.00095711916 0.00037715095 0.0002156494
0001d0 28 78 73 38 c9 f2 b1 39 3d 26 1b 39 9d 88 02 3a
       5.804762e-05 0.0003394096 0.00014796197 0.00049794634
0001e0 80 40 f3 39 b9 31 3b 3a 5b 67 03 39 4a 42 fa 39
       0.00046396628 0.0007140893 0.00012531636 0.00047733105
0001f0 6f 40 a1 39 ec 86 69 38 13 f6 8f 39 47 46 9c 38
       0.0003075632 5.5677185e-05 0.00027458425 7.45175e-05
