our-vTR/10_fold_lightning_logs/dataset1/fold_0/version_0/checkpoints/epoch=29-step=1049_fold0.ckpt (torch, 132433 bytes, 18 tensors)

conv1d.weight f4 [128, 4, 12]
00000000: 58d5 e93b 679c 7fbd a5af e6be 121d 6c3e
00000010: 2c86 123e 38f3 443d 1cfc 713d 5c13 bebe
00000020: 6f6e ffbd e555 133e eba0 31bd ba8c 42bd
00000030: e1bf 093d 6c45 14be 631f 92be 5ab5 26bd
00000040: 842d 3dbe 5f10 5bbd b0bd 663b 6c73 32be
00000050: b46c e73d b2ee 9ebe f843 7cbd 1a77 53be
00000060: a6d2 d9be 2c52 c03d 1687 303e 8ab2 3fbe
00000070: 264d e0bd 6b30 39be 7529 77bb ba64 463e
00000080: 532e a9bd 4bb4 87be 518e d03d 4a73 233e
00000090: a2d2 473e 5cb2 6cbe 82c6 4bbe 0aef 53be
000000a0: 6f76 18bd b38b d23d ae24 2bbd d958 efbd
000000b0: 5938 543e 24ba 533d 7805 99bc 2de5 83be
000000c0: 9439 febd d74e 5b3e a3b8 f2be 668e 30be
000000d0: ce80 b3be 16f8 0a3e 83f3 343d fc90 52be
000000e0: 222f 64be 8634 91be 6a57 76be 9ac2 0bbe
000000f0: 9335 213e 0912 973c 7e31 10be 76dd 17be
00000100: 3400 61bd f4fc 98be fc92 893d f320 273e
00000110: 9d50 283e 1775 413e 45f9 4abb 2d20 bc3d
00000120: ee62 213d e40f c03d b2d9 293e 985b 7b3e
00000130: 57bd 8c3d 479a 2e3e b78a 84be 74ea d7be
00000140: cd87 54be 2baf cabe 2769 b1bd 0f63 573e
00000150: 4948 d2bc 9ecc 1bbe edf8 ccbe f9ef 17be
00000160: bec7 f1bd 3ea5 983d b94b 483d 0dde 573d
00000170: 83e9 d63d 47b3 a2be 731b e13d 030a 3fbe
00000180: f1fe f83d 9d65 2dbc b555 463e 8348 9dbe
00000190: 2202 b93d 1c2a 003e 6b3d 10be d0be 55be
000001a0: 98ab d43b f6fc 01be 625d 2e3e deee b1be
000001b0: 4440 e4bd 4b51 3ebd 8ce6 afbe a763 c5be
000001c0: 199f 033d c55b b43d 2f27 00bd 9d3c 84be
000001d0: 1f5a 363d f8a1 9a3d eed6 75be 066a 833d
000001e0: 779f 503c dd2d 6d3d 25d8 6bbe 9b68 d43d
000001f0: 10d4 343e fd28 97bd e5b6 93bd 2961 c53d
00000200: dfe2 283e 7745 6d3c cb05 95be 7f06 15be
00000210: ef86 84be e092 2dbe e307 05be e0e0 eb3d
00000220: c4a6 32bd c743 0b3d dea6 f73d d07f 4f3d
00000230: b0b9 23be 48eb eabe d082 0b3d f7e8 a03e
00000240: e4f2 8ebe 7822 71be 9ae0 283e 8f87 72be
00000250: 1cb2 263e 1083 f5bd 3980 0bbe 0972 5dbe
00000260: 32b0 3e3b 924b 5ebe 3ebc 163e f89c 99bd
00000270: c4b9 713d 6683 093e aed7 8dbe b0b8 f3bd
00000280: 18b3 1fbe 8df2 c6bd 8e2d 44bd e757 e9bc
00000290: 94d2 6bbc d0d9 273b 88e3 70be eae1 45be
000002a0: b59f 23be c03b c93d 7af6 6e3d 2880 aebe
000002b0: f0dd a0be 602f 633e 4fee b63d 8761 63be
000002c0: 1771 c9bd d88d 01be 8e45 db3d 5825 db3b
000002d0: b60e 883d 845e 353d 2df1 dfbb 250c 5a3e
000002e0: 32cd febd 4daf f93a 3658 afba 1d1f b53d
000002f0: 8b23 063e c956 1d3d e663 3c3d c21f 8f3d
00000300: 1dde 5bbd a6b5 a23c 300f 563d 70d9 22be
00000310: f9ca 883d aea7 c23d dcd2 f93d 8978 03be
00000320: 7097 ce3c 1cd9 d0bd 3607 b6be 9870 03be
00000330: b0b4 1d3e 6e32 2ebd e66b 15be 85a8 edba
00000340: 61f4 41be cb56 05bd 8e6c a0be 6b50 393e
00000350: 7fdb 693e da12 293e bc62 083e 9f26 383d
00000360: 6d52 5cbe 9421 03be a0a6 5d3d fa67 6e3e
00000370: f4f3 3f3e 5952 2a3e d46e 21be 2132 02be
00000380: d050 8ebe c677 5fbe a280 1abe 5315 303e
00000390: 4d3c e5bd 177c 8ebe 96d2 acbe 2fc7 b9bd
000003a0: d322 22be 266f c1be 1484 0cbe 0849 6ebe
000003b0: 0aa4 95bd b4a1 38be 28d3 01be a046 dc3d
000003c0: 01ba ff3d fbc1 d0be 4b61 54bd 7e44 3ebe
000003d0: 1a8c 0cbe 3b9b d73d 1fdc eabd 63dc 6abd
000003e0: 1fc7 043e f061 923c 0074 193d 4b14 1b3d
000003f0: 5d31 f3bc c5fe 8abd fb66 443e 5c65 223e
0.0071360283 -0.062405016 -0.4505588 0.23057964 0.14308995 0.048083514 0.05907832 -0.37124145
-0.124722354 0.14388235 -0.043366354 -0.04749749 0.033630256 -0.14479607 -0.2853957 -0.040700294
-0.18474394 -0.05348241 0.0035208277 -0.17426842 0.1130003 -0.31041485 -0.061588258 -0.20650902
-0.42543525 0.09390673 0.17239031 -0.18720451 -0.10952215 -0.18084876 -0.003771392 0.19374362
-0.08260789 -0.2650474 0.10183395 0.15961948 0.19513944 -0.23114914 -0.19899943 -0.20696655
-0.037222322 0.10280552 -0.041783027 -0.11686868 0.2072462 0.05169119 -0.018679366 -0.25760785
-0.12413326 0.21416794 -0.47406492 -0.1724182 -0.35059208 0.135712 0.044177543 -0.2056312
-0.22283605 -0.28360385 -0.24056783 -0.13648453 0.15743093 0.018441217 -0.1408138 -0.14830574
-0.054931834 -0.29880488 0.06717488 0.16321163 0.16437002 0.18892322 -0.003097133 0.091858245
0.039400987 0.09378031 0.1658695 0.24546659 0.06872051 0.1705104 -0.2588708 -0.4217106
-0.20754929 -0.39586768 -0.08662634 0.21033882 -0.025669234 -0.15214774 -0.40033665 -0.14837636
-0.11805676 0.074533924 0.04890034 0.052702 0.104937576 -0.31777403 0.10991564 -0.18656163
0.12158001 -0.0105833085 0.19368632 -0.30719385 0.0903361 0.12516063 -0.14085929 -0.2087357
0.006490182 -0.12694153 0.1702781 -0.34752554 -0.1114507 -0.046464246 -0.3435558 -0.3855259
0.03213415 0.08806566 -0.03128737 -0.25827494 0.04451954 0.07550424 -0.2400777 0.06416707
0.012733332 0.057905067 -0.23031671 0.103715144 0.1765902 -0.07380865 -0.07212619 0.096376725
0.16492794 0.014481894 -0.29105982 -0.1455326 -0.25884196 -0.1695056 -0.1299129 0.11517501
-0.04361607 0.034000184 0.12092374 0.050659 -0.15988803 -0.4588263 0.0340603 0.31427738
-0.27919686 -0.23548305 0.16491929 -0.23684524 0.16278881 -0.11987889 -0.13623132 -0.21625532
0.002909672 -0.21708515 0.14720246 -0.075006425 0.05901505 0.13429031 -0.27703613 -0.11900461
-0.15595663 -0.09714232 -0.047895007 -0.028484298 -0.014393467 0.0025612004 -0.23524296 -0.1932446
-0.15978892 0.098258495 0.058340527 -0.3408215 -0.31419325 0.22186041 0.089321725 -0.22205172
-0.09836023 -0.12651765 0.10706626 0.0066878013 0.06643431 0.04427959 -0.0068341703 0.21293695
-0.12441482 0.0019049436 -0.0013377729 0.08843825 0.13099496 0.038412843 0.045993708 0.06988479
-0.05367862 0.019862007 0.052260578 -0.15903258 0.06679339 0.095046386 0.12198421 -0.1283895
0.025218695 -0.1019766 -0.35552377 -0.1283592 0.15400958 -0.042528562 -0.14591941 -0.0018131888
-0.1894088 -0.032553475 -0.3133282 0.18097083 0.22837637 0.16511098 0.13318914 0.044958707
-0.21515818 -0.12805778 0.054113984 0.23281851 0.18745404 0.16632976 -0.15764934 -0.12714435
-0.2779603 -0.21823034 -0.15088132 0.17195635 -0.11193142 -0.27829048 -0.33754414 -0.090711944
-0.15833597 -0.37780112 -0.13722259 -0.23270047 -0.073066786 -0.18030435 -0.12678206 0.10755658
0.12486649 -0.40772995 -0.0518506 -0.18580815 -0.1372532 0.10527655 -0.11467766 -0.057339083
0.12966584 0.017868966 0.03746414 0.03786115 -0.029686624 -0.06786875 0.19179909 0.15858978

conv1d.bias f4 [128]
00000000: 7d51 0abe 639c a0bc 781a 7cbd 8c9b 3b3d
00000010: 0ca7 14bd 0bd8 2aba fc4e bdbd 3853 e43d
00000020: 3730 883c 8fb9 d4bc c296 c7ba c28d 6b3d
00000030: 22f4 033e 6191 d5bc cf98 853d 1b57 613c
00000040: 103b 5b3d 4a73 cf3d 3c98 89bd 3ad7 b8bd
00000050: b6b9 febd 73a8 ecbd 0f15 00be a278 b13d
00000060: bdef b5bc 5343 19be 5d85 f4bd 8561 7c3a
00000070: d96a b03d b0c9 22be 8498 00be 6081 5ebd
00000080: 3eaf c2bd 47a3 81bd 685a 5c3d eba8 1ebe
00000090: f42a 72bd b4c4 0dbe eef7 063d ca12 3e3d
000000a0: 7852 843c be31 dabd 9905 94bd 2121 643d
000000b0: 906a b3bd 16d2 0bbc d251 55bd 2093 0e3e
000000c0: 49ee aebd bc5a b2bb fd0c 6f3c 9e8e 0abe
000000d0: d5a6 a8bd 6bbd d73c 955f 0a3d d886 1fbd
000000e0: e7ae 18bd bd27 cabd 006a 35bc 20db da3d
000000f0: ad8e a63d daa9 c4bc 6ace a13d 235b 0dbe
00000100: 3d4c 60bd 1d52 c1bd 15a9 9cbd d863 743d
00000110: b143 2fbe 092d b43a a5fb 6dbc 2517 18be
00000120: 8f97 c73d 2483 21be f96f 963d 2c0b 63bd
00000130: 2d7d 52bd 6f56 193b 11f6 30bd b4c2 9f3c
00000140: 8287 09be d299 04bd 1cd0 513c 8e7c af3d
00000150: b52a 4ebc 3f64 b03d b151 0abc c399 983d
00000160: e075 07be f553 74bd 54ee 8ebc 0693 debd
00000170: b027 20be 812a ff3c fb5d a7bd cc5f 27be
00000180: 6703 36bd 8e59 dcbc 53d2 6bbd 53f9 393d
00000190: f7e8 a6bd 9bbd 023c 525c aa3d 966c 82bd
000001a0: 7be1 d63c 07d8 6bbd c03c 883d a28a 5e3d
000001b0: e7a8 f4bd fb8e 29bd 71c4 49bd 6760 81bd
000001c0: 5754 fdbd b76e e73d 4517 5abc 3a4e 7ebd
000001d0: 38fa 5bbc 9290 563d a789 ae3d c13f 0bbe
000001e0: 1390 b9bd 5d83 ab3d 22ac e3bd 13bb 043e
000001f0: 9fee 1abc 79dc 1abe 15ec fa3d 505a 08bc
-0.13507648 -0.019605821 -0.06154868 0.045802638 -0.03629212 -0.0006517178 -0.09243581 0.11148685
0.016624553 -0.025967387 -0.0015227424 0.057508238 0.12886098 -0.026070299 0.065232866 0.013753678
0.053523123 0.101294115 -0.067184895 -0.09025426 -0.12437765 -0.11555567 -0.12508033 0.08665587
-0.022209043 -0.14967088 -0.119394995 0.00096275687 0.086141296 -0.1589725 -0.1255818 -0.0543226
-0.09506081 -0.06329971 0.053797156 -0.15494125 -0.059122995 -0.13844568 0.032951288 0.046404637
0.016152605 -0.10654019 -0.0722763 0.055695657 -0.087605596 -0.008533975 -0.052079983 0.13923311
-0.08541543 -0.0054429453 0.014590499 -0.13530967 -0.08234946 0.026335439 0.03378256 -0.038946956
-0.037276175 -0.09870861 -0.011072636 0.10686326 0.08132682 -0.024006773 0.079006985 -0.13804297
-0.054760206 -0.0943949 -0.07649437 0.05966553 -0.17115666 0.0013746332 -0.014525329 -0.14852579
0.097457044 -0.15772682 0.07345576 -0.055430576 -0.05138891 0.0023397466 -0.043203417 0.019502021
-0.13430598 -0.032373257 0.012805965 0.08568679 -0.012583424 0.086128704 -0.008442328 0.07451203
-0.1322856 -0.05965038 -0.017447628 -0.10867886 -0.1564014 0.031148197 -0.08172222 -0.16345137
-0.04443684 -0.026898172 -0.057573628 0.04540379 -0.08149903 0.007979776 0.0831839 -0.063683674
0.026230564 -0.057579067 0.06652212 0.05433143 -0.11946278 -0.041396122 -0.049259607 -0.063172154
-0.12369602 0.11300414 -0.013311212 -0.06208632 -0.013426356 0.052383967 0.08522349 -0.13598539
-0.09060683 0.08374665 -0.11116816 0.12961988 -0.009456306 -0.15123166 0.1225206 -0.008322313

linears.0.weight f4 [32, 128]
00000000: a6de 3fb9 c38c ec38 023c 7ab8 0b43 f437
00000010: 6ff4 c538 d14c b738 5467 9e38 3cef 6239
00000020: cd33 06b9 3017 1d38 91bd 32b7 b16f d838
00000030: 08a9 5eb9 d28f 5d39 b551 fcb8 1763 3cb9
00000040: e519 bab8 8379 8739 5725 2f39 bdee 0d38
00000050: b0f5 5939 9e90 a7b7 936f a8b8 b9ca eab8
00000060: 7721 5939 d37c 24b9 1588 71b9 4fca 4ab8
00000070: f655 ddb8 a448 dfb8 5490 f2b8 0339 7939
00000080: 30ae f4b8 3c1e 3a38 92dd 8539 c62f 05b9
00000090: 8f81 9cb8 20c5 c0b8 6aa6 6f39 23dd 9f38
000000a0: f48d c438 8e82 a1b8 48f7 bfb8 9d8d 4cb9
000000b0: 10d6 e4b8 704e 04b7 6ff8 07b9 5620 9a38
000000c0: 3cc3 92b9 4113 45b8 2b75 de38 b4eb bcb8
000000d0: 60cd 7a39 8f89 89b9 b67d fdb8 17ad db37
000000e0: 5a24 81b9 a6e2 04b8 460d 23b9 18eb 6239
000000f0: cd7d b5b8 2e48 50b9 b19a 47b8 c7bd ff38
00000100: 6aa1 12b9 db8c 1bb9 672b b4b8 69a4 c938
00000110: 3eba 31b9 f458 a838 b502 9339 2a3c bc35
00000120: 2e8f 89b7 54b6 efb8 8405 3ab9 69d7 5e39
00000130: 7a49 e9b6 69f8 53b8 7b4e abb8 579e 0338
00000140: 213f b2b8 d2e5 b7b7 bd4e d638 b8aa 9838
00000150: 7566 56b8 e110 1d39 7e7c c3b8 99ea 6d36
00000160: 4942 3739 e5ec 8c38 2d7d 73b8 ab3f a6b7
00000170: 0685 f1b8 5071 aeb7 905c 9ab9 7898 1938
00000180: 0bc6 fd38 ad00 3039 dde4 7238 0212 00b9
00000190: fa4c 00b8 faf5 1038 7777 fd36 70b8 9638
000001a0: 81a9 af37 812f 62b9 05bd 1037 47e6 2c39
000001b0: ee40 1739 d312 84b5 112a c0b8 5b66 8fb7
000001c0: 1dbe 2eb9 4a3a f2b8 f315 3cb9 a729 0239
000001d0: cbe7 a238 d099 1939 7d24 77b8 e6ee 8338
000001e0: 69a0 3db9 63a5 30b5 2114 8638 a529 4f38
000001f0: e5d2 01b8 1a04 fc38 e3c7 b038 b97f 13b9
00000200: e80b 6e38 d97d e0b8 b97e e0b7 b4ff 6d38
00000210: 36e1 2fb8 eaea 88b5 c72d ce38 672d 1b39
00000220: 6bf4 8338 dfdd dd38 e31d cfb8 1b4b 0937
00000230: 2adc 5eb8 5bc1 52b8 cd7c 1038 fed7 6a38
00000240: be52 efb7 06d9 fcb7 a52f 38b8 a1ae c638
00000250: 5068 2439 b6a5 02b7 101f c738 888a cab7
00000260: 373f b338 1d18 46b8 ae8f 30b8 25a6 0db9
00000270: 8d18 bb38 1d55 2539 8412 f438 a809 c338
00000280: b329 44b9 4ea5 c338 10a0 85b8 a1ef 58b9
00000290: 5ac9 2e39 41e0 a1b8 0cf9 01b9 31a8 c036
000002a0: 1627 0139 5efe 07b8 e3f5 9b38 ee20 6438
000002b0: 971a e838 53ea 2438 de7b 00b9 ad5c 8eb8
000002c0: 5fe6 4a38 d510 2439 5949 0f37 0258 b5b8
000002d0: 359a f0b8 e754 8538 a408 1cb9 d08c 83b8
000002e0: ccc7 9738 a98a 0cb8 4fc6 19b9 ebfb 2737
000002f0: c22c e5b7 e0f9 87b9 7f59 2b39 c84c df38
00000300: 3a91 4839 92b3 f338 454d 76b7 4412 9e38
00000310: d301 f238 59a5 41b8 4322 f838 5a43 3db9
00000320: 47b9 c235 689a 3a39 76f9 0db9 d2b9 8239
00000330: e130 cd38 d012 03b9 db6d 9fb8 f91c 9f38
00000340: 9150 f535 0213 e4b8 8dde 34b8 0fab 24b9
00000350: 85fa c9b5 28b2 17b9 13be 0eb8 9927 2638
00000360: 1244 4eb8 d2b5 b7b8 cb2b 7fb8 2f21 8eb9
00000370: 6ae4 3bb8 d3e1 19b9 770c 6d38 1305 3fb8
00000380: 4b47 7f38 20c6 beb8 a36a 0339 48e3 8139
00000390: 0682 2139 4f9a 06b9 5aad 12b7 075d fb38
000003a0: 253c 5837 0119 84b8 262e 74b4 6e13 4ab9
000003b0: bd2e 8d39 4549 ab38 f487 2e39 00bc 09b8
000003c0: fb60 1bb8 03da bb37 1a04 e2b7 9dbe 3bb9
000003d0: 0c4a 04b7 66a6 0139 7475 01b9 58cb 3035
000003e0: d34c 7fb8 1eef 1638 4ecf 0738 cdce f138
000003f0: 3f00 7737 2344 7938 d556 fb38 a111 80b8
-0.00018298122 0.00011279576 -5.966053e-05 2.9118286e-05 9.439221e-05 8.740428e-05 7.5532735e-05 0.00021642161
-0.00012798533 3.7453312e-05 -1.0653764e-05 0.00010320487 -0.00021234539 0.0002112978 -0.000120315155 -0.00017965991
-8.8739944e-05 0.0002583974 0.0001670321 3.3839362e-05 0.00020786258 -1.9975294e-05 -8.0316466e-05 -0.000111957495
0.000207072 -0.0001568676 -0.00023034246 -4.8348968e-05 -0.00010554113 -0.00010646999 -0.000115663424 0.00023767729
-0.000116672716 4.4374014e-05 0.0002553282 -0.00012701665 -7.462792e-05 -9.191991e-05 0.0002285481 7.622901e-05
9.372449e-05 -7.701396e-05 -9.1536494e-05 -0.00019507711 -0.000109117595 -7.886076e-06 -0.00012967152 7.349315e-05
-0.0002799275 -4.698639e-05 0.00010607609 -9.008442e-05 0.00023918366 -0.00026233165 -0.000120873956 2.6187436e-05
-0.0002463188 -3.1682335e-05 -0.00015549836 0.00021640619 -8.654185e-05 -0.00019863315 -4.7589365e-05 0.00012194696
-0.00013983776 -0.00014834425 -8.591153e-05 9.615051e-05 -0.00016949416 8.027433e-05 0.00028040042 1.4024602e-06
-1.6398346e-05 -0.00011430369 -0.00017740397 0.00021251816 -6.952495e-06 -5.053767e-05 -8.1685335e-05 3.13803e-05
-8.49946e-05 -2.1922318e-05 0.00010218981 7.279724e-05 -5.1116996e-05 0.00014978975 -9.321513e-05 3.5452306e-06
0.00017476933 6.719845e-05 -5.8052294e-05 -1.981839e-05 -0.00011516553 -2.0795182e-05 -0.00029442133 3.662004e-05
0.000121008685 0.0001678492 5.791044e-05 -0.0001221374 -3.0589268e-05 3.456136e-05 7.553895e-06 7.1869115e-05
2.0940557e-05 -0.00021570736 8.627078e-06 0.00016488983 0.0001442467 -9.840245e-07 -9.163109e-05 -1.7094591e-05
-0.00016664756 -0.000115503164 -0.00017937254 0.00012413283 7.767937e-05 0.00014648517 -5.892337e-05 6.291065e-05
-0.00018084202 -6.580578e-07 6.393367e-05 4.939143e-05 -3.0952408e-05 0.0001201706 8.429566e-05 -0.00014066593
5.675471e-05 -0.00010704593 -2.676189e-05 5.6743345e-05 -4.1932995e-05 -1.0201159e-06 9.831372e-05 0.00014798866
6.292093e-05 0.00010579428 -9.876096e-05 8.183323e-06 -5.313397e-05 -5.0247978e-05 3.4448505e-05 5.5991106e-05
-2.852955e-05 -3.01418e-05 -4.391339e-05 9.473903e-05 0.00015679118 -7.787186e-06 9.494845e-05 -2.4144785e-05
8.54716e-05 -4.7229336e-05 -4.2095482e-05 -0.00013508702 8.921428e-05 0.00015767333 0.000116382755 9.300123e-05
-0.00018707551 9.329115e-05 -6.371748e-05 -0.00020688634 0.00016668942 -7.718849e-05 -0.00012395176 5.741626e-06
0.0001231696 -3.2423406e-05 7.436776e-05 5.4390104e-05 0.00011067575 3.931888e-05 -0.00012253175 -6.78835e-05
4.8375103e-05 0.00015646529 8.540542e-06 -8.647145e-05 -0.00011472815 6.3577485e-05 -0.00014880538 -6.272795e-05
7.237456e-05 -3.350774e-05 -0.00014665093 1.001263e-05 -2.731977e-05 -0.00025935378 0.0001634117 0.0001064777
0.00019127587 0.000116205905 -1.4680733e-05 7.537429e-05 0.00011539799 -4.6168778e-05 0.00011831943 -0.00018049535
1.4508049e-06 0.00017795863 -0.0001353974 0.0002493398 9.784266e-05 -0.00012500142 -7.602173e-05 7.5871074e-05
1.827737e-06 -0.00010875428 -4.312261e-05 -0.00015703983 -1.5048578e-06 -0.0001446685 -3.403246e-05 3.9614362e-05
-4.9177623e-05 -8.759987e-05 -6.0837523e-05 -0.00027109074 -4.4797e-05 -0.00014675343 5.6516812e-05 -4.5542674e-05
6.0863134e-05 -9.09681e-05 0.00012532859 0.00024774135 0.00015402594 -0.0001283672 -8.74264e-06 0.000119859404
1.2888607e-05 -6.298908e-05 -2.274106e-07 -0.0001927146 0.00026928438 8.167563e-05 0.0001664458 -3.2838434e-05
-3.70452e-05 2.2393657e-05 -2.694321e-05 -0.00017904719 -7.8850535e-06 0.00012364387 -0.00012346153 6.5861013e-07
-6.0868286e-05 3.5985482e-05 3.2379576e-05 0.00011530295 1.4722405e-05 5.9429683e-05 0.000119847864 -6.106799e-05

linears.0.bias f4 [32]
00000000: a9a6 4a38 868a cab8 5dea 4f39 9c28 e9b6
00000010: 719a 99b7 2974 13b8 e20e 3338 bf7a 94b8
00000020: eecc 0e39 15bb 0cb9 09a8 323a 845e ba3b
00000030: 1a18 3b3d b8d9 63b8 2daa e2b7 afce 143a
00000040: a37d de37 af11 0f38 894a 103a 0b1b 6337
00000050: 052d 923c 83c9 5bb8 ad44 8837 d9f9 063d
00000060: 5426 4ab8 20bc 1338 1e30 dfb7 4a01 6cb7
00000070: db4b 7438 1999 6bb8 49ff 21b6 bd83 0c39
4.8315767e-05 -9.6579126e-05 0.00019828365 -6.9486687e-06 -1.8310939e-05 -3.5155714e-05 4.2690786e-05 -7.080053e-05
0.00013618518 -0.00013421134 0.00068152003 0.0056875367 0.045677282 -5.4323784e-05 -2.7020544e-05 0.000567655
2.6522966e-05 3.4110326e-05 0.00055042707 1.3536551e-05 0.017843733 -5.240134e-05 1.6244443e-05 0.032953117
-4.819625e-05 3.5222736e-05 -2.6606078e-05 -1.4066996e-05 5.824478e-05 -5.617095e-05 -2.4139465e-06 0.00013400517

linears.2.weight f4 [2, 32]
00000000: c687 c7b8 b571 a938 7dc6 6239 7c9d 9036
00000010: 8a0e a7b6 e1e1 0839 e06a 4337 1d47 03b9
00000020: 44a6 4e37 510f 8138 9b6c 8b3e 51bc 13bf
00000030: f0a9 eb3e 8c08 56bd 3747 4238 8f2d 953e
00000040: a94e 64b7 0cc6 6cb7 ba1f a73e b77b 8fb6
00000050: 19fd 19bf b19e 0639 9b7d 1139 17b0 043f
00000060: f2bc abb6 c803 4038 8147 f737 a304 2fb9
00000070: b0ca 22b8 699e b3b6 58a9 3ab8 af2b 4b38
00000080: b6a9 83b7 73c5 0138 07fe fd38 9c64 323d
00000090: bc69 e7b8 6401 6938 b53a 61b6 38e8 4cb9
000000a0: 5764 fd37 492e 2738 703c 6cbe bc63 1f3f
000000b0: 57e3 29bf 580a 43bd bb8d 5eb6 aacf 28be
000000c0: 0950 e337 f17a b7b7 3ea4 95be 870d f936
000000d0: 2b0c 083f 915d 3cb9 61c5 c739 be96 a9be
000000e0: 9907 1ab9 d9d2 2938 a8b8 a23c e544 1fb8
000000f0: 1596 ecb7 08a5 1bb8 bbec f136 8f9f 4939
-9.514349e-05 8.0797276e-05 0.00021626982 4.309868e-06 -4.9786804e-06 0.00013054117 1.16477895e-05 -0.00012519625
1.2317269e-05 6.154052e-05 0.27231297 -0.57709223 0.4602809 -0.052254245 4.631953e-05 0.2913632
-1.36081735e-05 -1.4112808e-05 0.32641393 -4.2761344e-06 -0.6015182 0.00012838353 0.00013875069 0.5183119
-5.1181933e-06 4.577989e-05 2.9477991e-05 -0.00016691028 -3.8812577e-05 -5.353057e-06 -4.450357e-05 4.8439655e-05
-1.5695445e-05 3.0939886e-05 0.000121112964 0.04355298 -0.00011034633 5.5552824e-05 -3.3561785e-06 -0.00019541464
3.0206675e-05 3.985901e-05 -0.2306993 0.6226156 -0.6636252 -0.047617286 -3.3163076e-06 -0.16485468
2.7097778e-05 -2.1872549e-05 -0.2922687 7.422353e-06 0.53143567 -0.00017963933 0.00038103297 -0.3312282
-0.00014689415 4.0489107e-05 0.019863442 -3.7972717e-05 -2.820328e-05 -3.7108577e-05 7.2099187e-06 0.00019228294

linears.2.bias f4 [2]
00000000: db0e 60bc 495f 0c3d
-0.013675417 0.03427056

exp_avg f4 [128, 4, 12]
00000000: 70f2 55b9 6693 f6b9 f545 8937 7edb 853a
00000010: b634 b1bb 700b db3a e01e 2db9 b282 da38
00000020: 2eb6 c039 9d0c 0fbc cbde 19bc 3f85 73ba
00000030: dbd4 9b38 6b64 ba3a fd5d 123a 0fe6 11bc
00000040: 3af7 82bb c169 deba a929 ddb9 b5ed 9f3a
00000050: 803f 0ebb 770e c439 ed7d a43a 2549 3db9
00000060: 23f7 3db9 8070 08bc f420 13bc 4914 d839
00000070: 04f8 1b3b b55a d33a 7571 f2bb c246 27bc
00000080: 4aaf f8bb 1640 3c3a 7e7c c33a 966e c4bb
00000090: 8aab cdbb b8ac 4e3a 8145 ee3a 6605 5c3a
000000a0: 7780 c239 72ff 07bc 7b53 a63a ce7c 0a3b
000000b0: 83b1 2d3b 6491 2d3a 4d16 fb37 6f0f 033a
000000c0: d24b 123b 538f ad39 c25d fb37 a651 1fba
000000d0: fb6a 2b38 b400 10ba c593 c2ba 4720 9239
000000e0: f168 203a 5d4d 7439 0e6a 913a d8ab 3c38
000000f0: a68d dbba 3b59 db39 4f54 273a 4997 513a
00000100: 35e1 af3a d097 373b c588 0b3c 9150 9e3b
00000110: c63b 563b ed9c a53b f809 66b8 cffa b23b
00000120: 2bcc e7ba 1d7c af3b 5dc4 a13b 0d38 ca3b
00000130: aaa3 8e3b 580a 8b3b be68 fb38 7181 9139
00000140: 343b b1b9 5ffb 3a39 33d4 2cb9 5fca 103a
00000150: 9eeb e13b 43f9 dcb9 2b33 a438 822d 32ba
00000160: 4daf 68b8 9da9 57ba 3bd8 c7ba 78dc 7239
00000170: a063 fe3a e5df f1b8 ab77 933b bce8 75ba
00000180: af6d d9bb ba01 a4b9 2278 b4bb 81c7 3237
00000190: b476 c6b9 1be7 1dbb 81f1 a7ba dca8 283a
000001a0: 4dfa 003b 987c 8d3a e183 29bb bacf e6b8
000001b0: 3eef 783a 0a1c 8b3a 61f2 4a39 1a87 8639
000001c0: f0dc 9439 f5bd a638 2ce4 27ba 7c94 08b9
000001d0: 5dd5 a4ba b384 00bc 925a dd39 02d8 753a
000001e0: 3521 303b 95c9 b9bb 08ce 2639 293d aaba
000001f0: b457 6a39 0c61 ee3a 7e8d 3c3a 1132 87bb
00000200: 1938 cdbb 5d03 d73a bac9 8639 9394 623a
00000210: d246 d7ba d81c 9339 f7c9 063a d486 6cbb
00000220: 014a 9cbb 8d50 87bb b674 61bb 6e51 87ba
00000230: 2ef5 603a 5686 e239 be9c 31bb 384b cdbb
00000240: 6a86 4639 fbd4 ad38 89f0 bc3a 45d0 39b9
00000250: 5f96 85bb 14c1 a8ba 30b6 96ba ad33 0139
00000260: b815 2c39 4154 f239 0bbc dfb9 da32 5539
00000270: dce9 58bb 2279 a5bb 4e5d cc39 cba1 0539
00000280: c078 093a a51d 1d3a 22bb 4bbb 3aa3 c138
00000290: 9e17 843a 5e21 9bbb bf28 a239 1a1c beb8
000002a0: 6f21 243a 6dc2 153b 0a78 c1ba 9f6b 0939
000002b0: 5552 8ab9 bbe0 4ebb a296 3239 d50f 7b3a
000002c0: c5c5 783a bc08 e339 af3a 2d3a 1e29 28bb
000002d0: 3e4f 21ba cc5d e0b9 5f0e 63bb 471a 51bb
000002e0: d58e 373a 2bab 293a 51ad 423a 32a7 99bb
000002f0: cd97 b9bb 6ff0 3c39 4995 8bbb 8a79 b7ba
00000300: 1d45 273b 4f14 9f3b b103 a7bb 8aee 853a
00000310: 105d 933a cd6a 5e3b 6982 f23b 6b7c 8e39
00000320: e0ab 1f3c 6b1b 5bba a346 2b39 b246 1cba
00000330: 6c8c 56bb 1fbe 043b f5a5 213b 18c6 c4b8
00000340: c3b6 13b9 edba 47bb 04a2 31b9 8361 d03b
00000350: fbac 43bb 075e c53b d09c 993b cc58 d73b
00000360: 812f e93b 97fa 1aba d71e 1d3c 980d a53b
00000370: 77c0 d13b 5f84 c33b a439 65b9 af2b f1b5
00000380: d85a bdb9 d1f7 a9b9 8259 103a cf78 aab7
00000390: 1bd6 1638 2caf 1439 919b 0aba 2d36 f439
000003a0: fa03 7aba 26d9 f638 fa22 4dba 6f33 d1b9
000003b0: 7c45 9db9 01f4 823a c0fd cc39 7766 2cb9
000003c0: e7f6 d9bb e86c a539 70f1 3a3a d267 6ab9
000003d0: 887f 4f38 311f f0bb aec5 153a 772a 1a3b
000003e0: 1991 cabb 7f80 eb3a f6c1 b83a 2269 dcbb
000003f0: e806 efb9 8b4c e439 4b52 0abc 8aa9 023b
-0.00020403578 -0.00047030597 1.6364249e-05 0.0010212508 -0.005407895 0.0016711783 -0.00016510068 0.00010419394
0.00036756828 -0.008731035 -0.009391497 -0.00092895696 7.4306234e-05 0.0014220601 0.00055834634 -0.008904948
-0.003996757 -0.0016968773 -0.00042183444 0.001220158 -0.002170533 0.0003739481 0.0012549736 -0.00018051693
-0.0001811651 -0.008327603 -0.008980025 0.00041213844 0.0023798952 0.0016125055 -0.007398779 -0.010209741
-0.0075892555 0.00071811804 0.0014914421 -0.005994628 -0.0062765526 0.00078840135 0.0018178673 0.00083931384
0.00037098277 -0.008300649 0.0012689674 0.0021131518 0.002650351 0.0006621091 2.9931916e-05 0.0004999553
0.0022323024 0.00033103916 2.9965191e-05 -0.0006077535 4.086921e-05 -0.0005493269 -0.0014845064 0.00027871339
0.0006119153 0.00023298473 0.0011094229 4.4982735e-05 -0.0016750589 0.00041837417 0.00063831074 0.00079952605
0.0013418557 0.0028014071 0.008516495 0.0048313816 0.0032689436 0.0050541074 -5.4845557e-05 0.0054620276
-0.0017684748 0.0053553716 0.0049367384 0.0061712326 0.0043530064 0.0042431764 0.000119881224 0.00027752997
-0.0003380418 0.00017831985 -0.00016482249 0.00055233197 0.006894543 -0.00042147384 7.82966e-05 -0.00067969423
-5.5476372e-05 -0.00082268735 -0.0015246937 0.0002316105 0.0019408353 -0.00011533479 0.0045003495 -0.00093806884
-0.0066353898 -0.00031281804 -0.005507485 1.0656077e-05 -0.00037853944 -0.0024094048 -0.0012813063 0.00064338534
0.001968044 0.0010794578 -0.002586596 -0.00011005947 0.0009496099 0.0010613215 0.00019354514 0.0002565913
0.0002839337 7.950879e-05 -0.00064045447 -0.00013025285 -0.0012575794 -0.007844138 0.00042219885 0.0009378196
0.0026875262 -0.0056697824 0.00015907746 -0.0012988198 0.00022348651 0.0018186881 0.0007192715 -0.0041258414
-0.006262791 0.00164042 0.0002570877 0.0008643355 -0.0016424304 0.00028059515 0.00051417894 -0.0036091106
-0.004769564 -0.0041294754 -0.003440184 -0.001032395 0.00085814565 0.00043206167 -0.0027101482 -0.0062650703
0.00018932825 8.2889535e-05 0.0014414947 -0.00017720561 -0.0040767635 -0.0012874925 -0.0011498388 0.0001232165
0.00016411289 0.0004622061 -0.00042673977 0.00020332207 -0.0033098375 -0.0050498405 0.0003897943 0.00012744141
0.00052441284 0.0005993492 -0.0031086882 9.2333605e-05 0.0010077839 -0.0047342023 0.00030929406 -9.06514e-05
0.00062610855 0.0022851482 -0.0014760506 0.0001310543 -0.00026382753 -0.0031567055 0.00017031518 0.00095772493
0.0009489919 0.00043303322 0.0006608171 -0.0025659273 -0.00061534706 -0.00042794493 -0.0034646017 -0.0031906532
0.00070021796 0.00064723444 0.0007426339 -0.0046891207 -0.005663848 0.00018018646 -0.0042597395 -0.0013998013
0.0025523372 0.004854716 -0.0050968756 0.0010218185 0.0011242945 0.003393817 0.0074008 0.0002717705
0.009745568 -0.00083582726 0.00016334145 -0.0005961462 -0.0032737507 0.0020254923 0.0024665568 -9.382906e-05
-0.00014087096 -0.0030476407 -0.00016940391 0.0063592806 -0.0029857743 0.006023172 0.004687883 0.0065718647
0.0071162586 -0.00059119746 0.009589872 0.005037021 0.0064011174 0.0059667076 -0.00021860615 -1.7968613e-06
-0.00036116573 -0.0003241883 0.0005506502 -2.0321835e-05 3.5962188e-05 0.00014179636 -0.00052874634 0.0004657967
-0.0009537336 0.00011770641 -0.00078253413 -0.00039901907 -0.00029997143 0.0009990932 0.0003909897 -0.0001644137
-0.0066517475 0.00031552394 0.0007131314 -0.00022354655 4.947142e-05 -0.007327937 0.00057133555 0.0023523846
-0.006181848 0.0017967372 0.0014095891 -0.0067264 -0.00045590778 0.00043544578 -0.008442472 0.001993748

exp_avg_sq f4 [128, 4, 12]
00000000: d97b 1938 7d75 cf37 d3a6 1c35 bcfd 6f39
00000010: 82e4 0f39 7896 a138 77d1 6a38 a818 5f35
00000020: effa 3d37 1945 2f39 0239 2c38 ed5a b037
00000030: c79f 0438 8d8c ee37 540b 9636 0379 a437
00000040: 2f5c b237 3677 1538 60c3 0738 f524 0137
00000050: 4745 8b38 fb36 bd36 cf8d e037 a254 8b36
00000060: 9c7d 4a36 31fc 2939 fbbd 8b39 6ed3 b336
00000070: 81df 1638 4389 7e37 5525 7938 44eb 7039
00000080: babb 3538 b996 6237 7b98 0439 50b6 5639
00000090: 36c9 1539 ebbf e236 e2fc aa36 a6f5 2836
000000a0: 2413 3737 ea92 4d38 97b1 3438 436c 9337
000000b0: 676c 9638 72ba 4938 aab0 6f37 039a f736
000000c0: 84df 2837 15cf d438 02f8 cf34 dacd 4937
000000d0: 3a5b 4436 6739 5038 caf2 2538 2d51 8a36
000000e0: 636f d436 6e7f 8e35 e4c5 1437 ea96 cb36
000000f0: 2116 ee38 c9f6 9737 1708 6e37 f5f0 4c36
00000100: 8e7d d537 c873 6b36 4f61 ab38 ff66 2239
00000110: 096f c638 7a1b 6339 5d27 2038 b23a 6138
00000120: be1f be37 9339 1738 c2c2 5139 7544 3e39
00000130: be34 f138 489f 8438 9475 0e36 4375 5635
00000140: 0aa1 d235 80d4 cd35 2cda 4937 d2f5 d638
00000150: 3067 7937 f337 ee36 a019 7335 1fd7 3d37
00000160: 062f e437 dc93 1638 5dc9 0538 3498 e437
00000170: ebb4 7d38 8150 4336 7933 ce38 831c a536
00000180: 2242 6238 4760 8237 4f2b 0539 aad2 2b35
00000190: 5549 cf37 e1c2 0d38 285e 4837 3c13 1a36
000001a0: 93d9 a937 0a3c 7e37 9491 9138 2d21 be33
000001b0: e98e a436 caeb d737 0366 d334 2121 b834
000001c0: 3f0a 2437 4ed1 ec37 966d 8437 42fe 4135
000001d0: 990d f036 f69b 6938 3a29 a136 ecd3 8f37
000001e0: 7894 0738 a0b5 8238 7518 c935 570d 9e38
000001f0: ab10 8738 591e e736 ebd3 c137 b75c ac38
00000200: 5a40 9c38 f257 1138 8c9d 8636 c641 9336
00000210: 46b7 3636 457d 4936 8e3f f236 26e1 1638
00000220: cc5a be36 dee8 af37 c54f 2838 ecdd c337
00000230: d6c0 8536 db20 9234 c36f fb37 fc41 b838
00000240: fc65 8435 870c 6a33 e798 5237 67b9 9635
00000250: 08e8 0638 13e6 0735 ac16 fa35 0667 da34
00000260: 7e40 9e36 44ef 4b35 3fae 4137 d067 4836
00000270: 9943 3437 d134 9237 1c0c 9734 74d8 6b36
00000280: 5bb4 2d36 0a44 3236 60fb ae36 bbc8 2937
00000290: 27db 1237 7b40 6637 1e22 a634 5664 b135
000002a0: 4650 0636 4f9d 3137 7a9e 2f37 9a04 3e34
000002b0: 854d 5535 4878 0638 0b5d 8037 47ff 5a35
000002c0: 2935 3a36 bd00 4336 e9cd 5437 e1d3 4837
000002d0: 6d5f c037 53cf 0437 9377 2537 d8a3 1f38
000002e0: aa4f a836 7504 8036 c841 2437 b0b6 cb37
000002f0: 78ed 9e37 5107 7e37 57f0 0137 c206 8337
00000300: 9ab5 0f38 d2a0 0439 bbc9 0539 1bb0 cd36
00000310: 6801 a638 9440 4a38 c1a8 8a39 57ee f336
00000320: 5c96 3138 a07f 9437 6a78 9436 74e5 9437
00000330: 5e54 6c39 03e9 bf38 d745 a037 2268 4838
00000340: 1878 1437 300c 1e38 80e7 5737 6058 aa39
00000350: 25c9 9139 3fcd 9c39 56fc 8a39 0925 8838
00000360: 40e6 9537 2728 e937 98ad 1139 2c86 9639
00000370: 0e4a 5c39 6a09 4f39 e4ab 6737 ca38 a837
00000380: 6c5d 8335 a054 2c36 b9f6 b637 e059 e738
00000390: a128 a737 75f7 7337 ed6b 1e36 b678 d836
000003a0: 1dfd f736 70d9 2a37 aeab f637 6110 8d36
000003b0: cb79 e537 8243 3137 2ecf 0138 cce2 9d38
000003c0: 01ba 8839 a390 4036 1e85 6637 46c1 6337
000003d0: a30e 2038 c379 6439 7f34 fe37 d406 f337
000003e0: f536 2f39 9860 0d39 a8f0 e738 f318 6a38
000003f0: 0ba9 bb38 c5bf d637 8271 b939 af7f cb39
3.6593385e-05 2.4731033e-05 5.835729e-07 0.0002288734 0.00013722669 7.705105e-05 5.5985027e-05 8.3109853e-07
1.1323703e-05 0.00016715041 4.106109e-05 2.1023176e-05 3.1620057e-05 2.843726e-05 4.471667e-06 1.9606674e-05
2.126218e-05 3.5635392e-05 3.2368465e-05 7.697604e-06 6.6409404e-05 5.6390395e-06 2.6768916e-05 4.1523754e-06
3.017346e-06 0.00016211045 0.00026653692 5.3592294e-06 3.597094e-05 1.51715385e-05 5.9400994e-05 0.00022975827
4.3328597e-05 1.3505743e-05 0.00012645304 0.00020476547 0.00014284704 6.757667e-06 5.0958342e-06 2.5176937e-06
1.09121065e-05 4.9012633e-05 4.3080738e-05 1.7574179e-05 7.172749e-05 4.8095775e-05 1.4286643e-05 7.379103e-06
1.0065622e-05 0.0001014752 3.8737204e-07 1.2028462e-05 2.9259377e-06 4.9644525e-05 3.956518e-05 4.1221706e-06
6.3310595e-06 1.0616911e-06 8.867562e-06 6.06744e-06 0.00011352846 1.8115521e-05 1.4187789e-05 3.0538624e-06
2.5450045e-05 3.5085122e-06 8.1720405e-05 0.00015487893 9.462058e-05 0.00021658643 3.8183633e-05 5.3698845e-05
2.2664546e-05 3.6054826e-05 0.00020004346 0.00018145314 0.000115015995 6.323919e-05 2.1228088e-06 7.989185e-07
1.5693088e-06 1.5335536e-06 1.2031331e-05 0.00010250103 1.4865582e-05 7.099466e-06 9.0561844e-07 1.1315365e-05
2.7201615e-05 3.590049e-05 3.1897205e-05 2.7250593e-05 6.0488394e-05 2.9104124e-06 9.832433e-05 4.9207024e-06
5.394419e-05 1.554204e-05 0.00012700002 6.400902e-07 2.471047e-05 3.3798515e-05 1.1942851e-05 2.2958984e-06
2.0247686e-05 1.5153559e-05 6.941255e-05 8.853599e-08 4.904218e-06 2.5739795e-05 3.9376036e-07 3.4296775e-07
9.777547e-06 2.8230857e-05 1.5786656e-05 7.2268097e-07 7.1541403e-06 5.569678e-05 4.8029733e-06 1.7145612e-05
3.232478e-05 6.232713e-05 1.4982785e-06 7.536512e-05 6.440406e-05 6.8878694e-06 2.3106075e-05 8.2188686e-05
7.450646e-05 3.46526e-05 4.011852e-06 4.3885984e-06 2.7226793e-06 3.002425e-06 7.2195608e-06 3.5972473e-05
5.6730114e-06 2.0970063e-05 4.0128612e-05 2.3349152e-05 3.986158e-06 2.7218525e-07 2.9973575e-05 8.786094e-05
9.864448e-07 5.4493764e-08 1.2552576e-05 1.122983e-06 3.2164186e-05 5.062622e-07 1.863305e-06 4.0680624e-07
4.716275e-06 7.597157e-07 1.1544266e-05 2.986275e-06 1.0744575e-05 1.742915e-05 2.8134752e-07 3.514372e-06
2.588399e-06 2.656367e-06 5.214868e-06 1.0119921e-05 8.7533035e-06 1.3724081e-05 3.0944733e-07 1.3216729e-06
2.0014281e-06 1.0586648e-05 1.0467711e-05 1.7696803e-07 7.946149e-07 3.206011e-05 1.5302116e-05 8.1582806e-07
2.7747103e-06 2.9057694e-06 1.2684127e-05 1.1970261e-05 2.293262e-05 7.9160845e-06 9.862607e-06 3.8061145e-05
5.0160643e-06 3.815216e-06 9.790478e-06 2.4284556e-05 1.8945648e-05 1.5141283e-05 7.744958e-06 1.5619564e-05
3.4262986e-05 0.00012648411 0.00012759019 6.1299775e-06 7.915759e-05 4.8220696e-05 0.00026447143 7.2697107e-06
4.234012e-05 1.7702405e-05 4.4247618e-06 1.7749822e-05 0.00022538143 9.1509915e-05 1.9106008e-05 4.7780697e-05
8.849449e-06 3.7681486e-05 1.2868899e-05 0.0003249077 0.0002780642 0.0002990756 0.00026509416 6.491884e-05
1.7869403e-05 2.7794462e-05 0.00013892946 0.00028710195 0.00021008422 0.00019744565 1.3808694e-05 2.0053605e-05
9.78745e-07 2.5679255e-06 2.181098e-05 0.00011031679 1.992687e-05 1.4541544e-05 2.3606656e-06 6.4513542e-06
7.39064e-06 1.0183416e-05 2.940543e-05 4.204034e-06 2.7355642e-05 1.056574e-05 3.0948948e-05 7.5285876e-05
0.00026078525 2.869442e-06 1.3740062e-05 1.3575254e-05 3.8160604e-05 0.00021789134 3.0303605e-05 2.8971037e-05
0.00016709774 0.00013482792 0.00011059764 5.5813183e-05 8.9483416e-05 2.5600088e-05 0.0003537052 0.0003881431

exp_avg f4 [128]
00000000: 83db d7bb 133b ba3b e010 98bb e8cc 4bbb
00000010: 85b9 d23b 67ee e4bb 4675 bfbb 6614 3d3b
00000020: cce6 383b f841 9cbb 55f1 113c 9764 1ebb
00000030: 7714 2bbb d42f 7a3b 795e 8ebb 86ef dabb
00000040: b79d 203b 4646 753b c400 99ba 18b9 5ebb
00000050: a1f1 b43a 1ad1 8abb c0af e23a 20a9 13bb
00000060: b176 ba3b f6a9 563b da81 9f3b b84d 1a3b
00000070: 899e 0dbb 7749 df3b 788c 9cbb af63 c2bb
00000080: afa6 193b fe99 56bb 7716 93bb 0961 533b
00000090: af7c a7bb f88a 893b 21c4 d8bb d887 a4bb
000000a0: a651 a9bb 7224 153c 387e 863b 18e9 6ebb
000000b0: 6c86 abbb b698 d43b dac5 963b 7c8a 9bbb
000000c0: 3d0a 233c e9f8 a5bb 6101 9bbb 0b33 f33b
000000d0: 4ab5 e73b 68b1 7dbb d4e8 8d3b 0ccd 933b
000000e0: 19cb 65bb 4290 a8bb 7c79 f43b ae6e dc3b
000000f0: 5b08 cfbb a00a afbb 7a8e a23b 4a31 7cbb
00000100: ef8c 8a3b faf4 2fbb c18a efbb 3c2f 51bb
00000110: 0cf6 8cba 219d 80bb 977d 8abb 71e1 723b
00000120: 0ad9 8fbb ed66 89bb dbab f43b c774 a43b
00000130: 73ca 6b3b ff4f 8a3b 2045 8cbb dab6 3c3b
00000140: 3efd 0a3c 92d6 e13a 0da8 4d3b 4d09 983b
00000150: cd7c df3b a1d5 b4bb e888 443b e5aa af3b
00000160: 87a0 a9bb 15ae 95bb 6579 373b 6698 053c
00000170: 49b7 343c 655b a83b 1746 efba fa8c 213c
00000180: 98d2 8e3b 2932 0d3b 7e2e aebb bce1 8abb
00000190: c26f c9bb 9bcd 0abc 4023 8ebb 047b f83b
000001a0: 289b a33b 696d 033b c700 96bb b298 64bb
000001b0: b0f3 8abb 40cf 7dbb e463 673b 6ba5 14bb
000001c0: 0768 2a3b 11ac c73b c978 053b 2ab3 f5bb
000001d0: 8e08 353b 2aae 293c f846 2bbb c8d2 3c3b
000001e0: 2bf0 a43b 6fd2 a0bb c534 86bb 987d 9bbb
000001f0: 1504 7c3b d5ec 16bb 8eb7 95bb 2c12 87bb
-0.006587447 0.0056833117 -0.0046406835 -0.0031097475 0.006430807 -0.0069864276 -0.0058428375 0.002885127
0.0028213738 -0.0047686063 0.008907636 -0.0024168843 -0.0026104727 0.003817548 -0.004344758 -0.0066813855
0.0024508068 0.003742592 -0.0011673202 -0.0033984836 0.0013804921 -0.0042363526 0.0017294809 -0.0022531226
0.0056904186 0.0032755113 0.0048677744 0.002354486 -0.0021609387 0.0068141776 -0.0047774874 -0.0059322934
0.0023445298 -0.0032745595 -0.004488762 0.0032253882 -0.005111299 0.0041974746 -0.0066151773 -0.0050210766
-0.005167204 0.0091029275 0.004104402 -0.0036454853 -0.00523453 0.006487931 0.0046012225 -0.0047467332
0.009951171 -0.005065073 -0.004730389 0.0074218563 0.007071172 -0.0038710479 0.004330734 0.0045105275
-0.0035063683 -0.00514415 0.007460771 0.0067270612 -0.0063181347 -0.005341843 0.004960832 -0.0038481527
0.0042282264 -0.0026848898 -0.007310242 -0.0031919023 -0.001075448 -0.003924981 -0.0042263973 0.0037060643
-0.0043898867 -0.004193178 0.007466776 0.0050188038 0.0035978823 0.004220962 -0.0042807013 0.0028795511
0.008483229 0.0017230085 0.0031380684 0.0046397806 0.0068202973 -0.0055186306 0.002998883 0.0053609484
-0.005176607 -0.0045678713 0.002799594 0.00815401 0.011030027 0.005137848 -0.0018255141 0.009860272
0.004358601 0.002154479 -0.005315601 -0.0042383354 -0.006147356 -0.008471872 -0.004337698 0.007583024
0.0049928613 0.0020054227 -0.0045777294 -0.0034881053 -0.0042404756 -0.0038728267 0.0035307342 -0.0022681605
0.0026001947 0.00609351 0.0020366183 -0.0074981647 0.0027623507 0.010356465 -0.002613483 0.002881216
0.005033513 -0.004907898 -0.004095646 -0.0047451966 0.0038454582 -0.0023029346 -0.0045690006 -0.0041220393

exp_avg_sq f4 [128]
00000000: 64d8 a039 9411 7b39 6779 1d39 b22f 5838
00000010: 14de d939 fa72 033a 8b47 8339 c58a a338
00000020: e8fe 3838 b55b 7039 e108 683a 0213 de37
00000030: 399a 9638 39f7 2f39 80f8 0939 94d7 c639
00000040: 582f fc37 6d1b ff38 71f1 7c37 3f0f f738
00000050: 7029 7b36 6618 ed38 1aa0 7837 5b67 2938
00000060: ea45 0f39 a474 4b38 b709 5c39 6d0e 0d38
00000070: 7d18 1138 4ecb ab39 a717 8139 117c a039
00000080: a074 6438 b0ca ca38 dc61 3739 9718 a938
00000090: 8c39 7d39 dbe1 fe38 70ab c539 5c9c 9f39
000000a0: 2a42 5839 c6e8 473a ed01 3539 6bca 0539
000000b0: 9af4 8839 2a50 ad39 56c2 6b39 632a 6539
000000c0: 1f48 383a 5c6b 5339 3bfc 8339 b2cd 1b3a
000000d0: 4a5f f139 238b 0939 1da4 5139 036d 4639
000000e0: 6fd5 9e38 f45b 3439 4198 0c3a a29a a939
000000f0: c9f9 9f39 19e8 7e39 5098 8639 efa0 dc38
00000100: 5341 1339 9dae 8e38 dc72 1e3a 027e cb38
00000110: 4d1e 8936 e951 5239 deaa 2a39 227b 2039
00000120: 0676 6639 0192 0539 7814 133a fee9 2139
00000130: b854 dc38 521d 1539 61af 5739 1c21 ab38
00000140: b636 543a de1a f537 2afa c238 14bd 2139
00000150: e1ea e039 d8f1 9939 38b0 6138 b5e2 7139
00000160: f1d7 8939 3ac9 0c39 7546 6538 051f 043a
00000170: e642 533a 507e 4b39 47c8 7037 7e09 573a
00000180: 59be 4539 66ab 0638 8fb5 7539 7268 1a39
00000190: 31ca 4939 c530 5c3a 1415 2139 67b8 fe39
000001a0: 70f8 7739 efc2 d737 7186 3b39 f63c cb38
000001b0: 5b15 1d39 6cda 5839 d3bf 5b38 6756 2338
000001c0: cc57 3738 b3fb a239 51b9 0d38 3d10 073a
000001d0: dbdc 4138 0c8a 803a 6e4e 5138 a176 9138
000001e0: 47fa 5b39 f3a1 8039 1aaf dc38 0509 7f39
000001f0: 0952 1239 e70c e437 8efa 6c39 b73f 4539
0.00030678802 0.00023943774 0.00015017913 5.1542833e-05 0.00041554926 0.0005014386 0.0002503957 7.7982935e-05
4.410642e-05 0.00022922347 0.0008851421 2.6473313e-05 7.1812836e-05 0.00016781398 0.00013157912 0.0003792612
3.0062787e-05 0.00012164456 1.5076585e-05 0.000117807176 3.7426034e-06 0.00011305585 1.4819228e-05 4.0388997e-05
0.00013663588 4.85076e-05 0.00020984454 3.3630455e-05 3.45935e-05 0.00032767135 0.0002462242 0.00030610015
5.446805e-05 9.669864e-05 0.00017488695 8.063128e-05 0.00024149398 0.00012153733 0.000377025 0.0003044334
0.00020624013 0.00076259335 0.00017262223 0.00012759275 0.00026122184 0.00033056858 0.00022483742 0.00021854932
0.000702979 0.00020162523 0.00025174193 0.0005943432 0.00046038098 0.0001311717 0.0001999293 0.00018923361
7.573782e-05 0.00017200393 0.0005363264 0.00032349402 0.00030512948 0.00024309791 0.00025671953 0.00010520394
0.00014043348 6.803612e-05 0.0006044337 9.703265e-05 4.0864456e-06 0.00020057675 0.00016276116 0.0001530466
0.00021978476 0.00012738259 0.0005610655 0.00015441325 0.000105061976 0.0001422067 0.00020569332 8.1600825e-05
0.0008095311 2.9218787e-05 9.2972376e-05 0.00015424594 0.00042899608 0.00029362622 5.3808297e-05 0.00023068006
0.00026291565 0.00013426403 5.4663473e-05 0.00050400227 0.000805898 0.00019406644 1.4351745e-05 0.00082030136
0.00018858294 3.2107717e-05 0.00023432657 0.00014725493 0.00019244176 0.0008399601 0.00015362009 0.00048584046
0.00023648306 2.572077e-05 0.00017883793 9.691149e-05 0.00014980642 0.00020680734 5.239232e-05 3.8942697e-05
4.3712367e-05 0.00031086578 3.378961e-05 0.0005152261 4.6220473e-05 0.0009806766 4.9902526e-05 6.936235e-05
0.00020978703 0.00024534724 0.00010523033 0.00024322055 0.00013954205 2.7185726e-05 0.00022600053 0.0001881112

exp_avg f4 [32, 128]
00000000: 58e7 7c38 e83d 13b9 fdc7 fbb8 e769 8338
00000010: 2d1a 8338 c29e 51b9 a7a0 85b7 6825 cf38
00000020: f07c af38 5359 8338 d3a9 96b8 a602 5ab9
00000030: 7138 9039 c9ce 90b9 80fe 6539 7f84 afb8
00000040: 2406 54b8 60fe d9b8 f649 2ab7 8228 cab8
00000050: 30e9 2a39 3880 b9b8 ba8d 84b8 be07 2439
00000060: 1ffa 6db9 a088 6938 9d88 bab7 bf21 cd37
00000070: 59ef 2339 4f35 51b8 32cb 0439 fafd 1237
00000080: d609 85b8 7d21 8fb6 968a dbb8 53d5 2a39
00000090: 39ec 5039 9ede 5237 6227 b7b8 fdd8 24b9
000000a0: 5c20 2eb8 92d1 79b7 79a5 3439 5229 8e38
000000b0: ccaa 0d39 b9de 87b7 3fd1 2339 72de 24b9
000000c0: 2ad0 b538 8992 b3b8 5a37 4638 12c8 3439
000000d0: 3cc4 d4b8 0a34 d838 bf28 5939 9249 8338
000000e0: 9311 c0b6 a07c c2b8 4c89 2938 851e b237
000000f0: b345 ebb8 6e0e cc38 2cf0 b3b8 13ed a8b7
00000100: 9f6d 8837 2de3 b9b7 70f7 3039 cbc7 4e38
00000110: 1626 dcb8 368a 56b7 8c49 ddb8 69bd 86b7
00000120: 7f31 1a39 35b2 73b8 8821 7c38 f9e5 d338
00000130: 436c fdb6 f879 1838 6bd2 2339 543d 18b9
00000140: 7efe da38 26e5 9a38 c01b f2b8 7ee0 eab8
00000150: 17a3 f837 e903 b337 e4d3 9e38 31ff 2d38
00000160: 8c04 6cb8 10d9 2db8 080a 0739 4a2c 0e38
00000170: 1336 e7b8 5045 c4b8 f509 0a39 71b7 f0b8
00000180: 8902 36b9 dd88 48b9 c4ac 00b8 c4bf 2339
00000190: 6a77 1138 952f 8338 420b 25b8 58bd 2eb8
000001a0: 2296 8db8 8e66 7739 70c1 12b8 c08b 4238
000001b0: 5e86 00b9 d8ff 84b8 c360 77b8 1f98 1539
000001c0: 2418 6938 941b 84b8 609a b538 0969 b337
000001d0: e5fe f737 81b3 45b9 d260 db38 180e 51b9
000001e0: d42f 4638 6249 3bb8 9832 00b8 b62f 78b7
000001f0: 5307 c6b6 f475 54b8 0cfb fbb8 a889 6b39
00000200: f8ff af38 76e2 0439 1af0 60b7 8320 82b7
00000210: 243b 15b9 2299 3d37 39aa 59b9 af8c e1b7
00000220: 71f7 50b9 64d8 2bb8 f426 9f38 aa4c dcb8
00000230: 8708 fe37 cccd db38 e3e0 1239 e469 24b9
00000240: 3a18 2239 3b0e dc38 a7e8 12b9 77c3 3eb9
00000250: 7ebb 59b9 29e2 b238 97ca 59b9 43b6 c3b8
00000260: 5044 06b8 c148 2439 6427 13b9 84fe b438
00000270: 7648 3438 4c27 3e38 7e61 10b9 8357 a236
00000280: 4c44 4738 e444 a0b8 559d fab8 4e72 8838
00000290: 8cd3 6ab8 d356 bab6 a703 ac37 700e 00b9
000002a0: 0053 24b9 2c93 7938 33be 6038 0c05 f4b8
000002b0: 4833 2cb8 f2f9 8338 b556 b9b7 fe03 2f39
000002c0: 8376 b436 2031 6ab8 3ccf bfb8 1c53 09b9
000002d0: ce30 0839 9455 dcb8 87fd e937 53f5 bcb6
000002e0: a85b bcb8 fb00 4d39 8823 b638 4e43 00b9
000002f0: 1021 9938 d358 e6b6 e962 b637 f4c6 0fb8
00000300: 4f64 5fb9 5681 6eb7 661b 1fb8 46ac 9db8
00000310: e660 0bb7 6949 c0b7 73fa 95b7 d2e4 1eb8
00000320: 5367 bfb8 ec83 38b8 b3c6 44b8 9c6e d0b8
00000330: 334e 8436 3734 c037 a1dd 60b8 6aee 6338
00000340: 1d67 98b8 1f5a 2439 c404 b7b8 bcca 2b38
00000350: 801e 24b8 fa0e 2c39 d398 bbb6 a2ab 90b8
00000360: 51ef b6b8 b012 2c38 4a9e f938 9437 db38
00000370: af03 4f39 54bf 8438 5757 24b9 7cce 8f38
00000380: 716f 07b9 e867 fa38 9263 65b9 b022 c0b8
00000390: a030 b6b8 2c18 51b8 7d7e 9637 b89a 27b9
000003a0: 091b 4cb9 3b01 e838 c119 d5b8 fafe 5ab7
000003b0: 48bd dcb8 4e89 12b9 9f02 45b9 3a33 13b9
000003c0: ae26 8f38 4acc 1fb9 6386 c3b8 d8f8 4238
000003d0: dfdc 84b8 f698 4138 2959 2439 4222 0e38
000003e0: c169 9038 5ae9 9038 da9e 5137 3d61 9cb6
000003f0: 2a2d dcb8 4979 8a37 feb6 6f38 d0be 1b39
6.0296938e-05 -0.00014042074 -0.000120058634 6.2662926e-05 6.2514424e-05 -0.00019990935 -1.5929645e-05 9.8774966e-05
8.367922e-05 6.263205e-05 -7.1841896e-05 -0.00020791087 0.00027507872 -0.00027619887 0.0002193395 -8.3693296e-05
-5.0550458e-05 -0.000103947474 -1.015001e-05 -9.639656e-05 0.00016299332 -8.84537e-05 -6.320649e-05 0.00015643143
-0.00022695259 5.567877e-05 -2.2236543e-05 2.4453619e-05 0.00015634055 -4.987913e-05 0.00012664197 8.761412e-06
-6.343766e-05 -4.2656307e-06 -0.000104685474 0.00016291933 0.00019924426 1.25688075e-05 -8.7334556e-05 -0.00015721093
-4.151497e-05 -1.4890351e-05 0.00017227781 6.778784e-05 0.00013510435 -1.6196967e-05 0.00015622842 -0.00015723126
8.669526e-05 -8.5626794e-05 4.725843e-05 0.0001724067 -0.00010145499 0.00010309376 0.00020709912 6.26027e-05
-5.724092e-06 -9.273854e-05 4.0420608e-05 2.1233465e-05 -0.00011218656 9.730166e-05 -8.5801206e-05 -2.0137557e-05
1.626351e-05 -2.2159506e-05 0.00016876846 4.93003e-05 -0.000104975115 -1.2787574e-05 -0.000105518004 -1.6062246e-05
0.00014705023 -5.8101683e-05 6.011271e-05 0.000101041 -7.552591e-06 3.6353216e-05 0.00015623278 -0.00014518696
0.00010442453 7.3859745e-05 -0.00011544628 -0.000111998044 2.9639848e-05 2.1340284e-05 7.573495e-05 4.148408e-05
-5.627102e-05 -4.144857e-05 0.0001287834 3.3896686e-05 -0.000110250105 -9.358919e-05 0.00013164415 -0.000114782604
-0.00017357817 -0.00019124472 -3.067848e-05 0.0001561633 3.4681907e-05 6.2554296e-05 -3.934955e-05 -4.1661173e-05
-6.751368e-05 0.0002359396 -3.4989265e-05 4.6383357e-05 -0.00012257087 -6.341905e-05 -5.8979505e-05 0.00014266417
5.557401e-05 -6.299387e-05 8.659507e-05 2.1387374e-05 2.9563389e-05 -0.00018854254 0.00010460768 -0.00019937044
4.7251422e-05 -4.4652617e-05 -3.0564697e-05 -1.47930605e-05 -5.9017125e-06 -5.065459e-05 -0.00012015374 0.00022462627
8.392328e-05 0.00012672864 -1.3407343e-05 -1.5512347e-05 -0.00014231779 1.1300932e-05 -0.00020758146 -2.6887601e-05
-0.00019928605 -4.0971107e-05 7.5889664e-05 -0.00010504697 3.028313e-05 0.000104810664 0.00014007422 -0.00015679706
0.00015458549 0.00010493068 -0.00014010315 -0.00018192628 -0.00020764579 8.529827e-05 -0.00020770203 -9.3322735e-05
-3.201171e-05 0.00015667362 -0.00014033687 8.630476e-05 4.298283e-05 4.5336128e-05 -0.00013769229 4.838164e-06
4.7508904e-05 -7.6422264e-05 -0.00011950234 6.506276e-05 -5.5986966e-05 -5.5533396e-06 2.0505699e-05 -0.0001221241
-0.00015671179 5.950329e-05 5.35829e-05 -0.00011635767 -4.1055755e-05 6.293123e-05 -2.2094095e-05 0.00016690788
5.3782146e-06 -5.58357e-05 -9.14619e-05 -0.00013096299 0.00012988152 -0.00010506358 2.7893822e-05 -5.631396e-06
-8.981611e-05 0.00019550689 8.6850545e-05 -0.00012232104 7.301767e-05 -6.8648746e-06 2.174215e-05 -3.4279146e-05
-0.00021304305 -1.4216019e-05 -3.793407e-05 -7.518432e-05 -8.307607e-06 -2.2922368e-05 -1.7878809e-05 -3.788324e-05
-9.126835e-05 -4.399188e-05 -4.6915095e-05 -9.9388155e-05 3.94301e-06 2.2912498e-05 -5.361217e-05 5.4343058e-05
-7.267131e-05 0.00015673832 -8.727008e-05 4.0958388e-05 -3.9129052e-05 0.00016408777 -5.5908254e-06 -6.898424e-05
-8.7230124e-05 4.10254e-05 0.00011902729 0.00010453086 0.0001974243 6.329888e-05 -0.00015672795 6.857232e-05
-0.00012916118 0.00011940283 -0.00021876235 -9.1617345e-05 -8.6874934e-05 -4.9851995e-05 1.7940294e-05 -0.00015983998
-0.00019465027 0.00011062851 -0.000101614285 -1.3053179e-05 -0.00010525674 -0.00013974795 -0.0001878836 -0.00014038096
6.825976e-05 -0.00015239525 -9.323356e-05 4.6484958e-05 -6.335391e-05 4.615724e-05 0.00015673474 3.3887343e-05
6.886153e-05 6.90992e-05 1.2494356e-05 -4.6604823e-06 -0.0001049883 1.650736e-05 5.7152465e-05 0.00014853035
