our-vTR/10_fold_lightning_logs/dataset1/fold_8/version_3/checkpoints/epoch=13-step=489_fold8.ckpt (torch, 132433 bytes, 18 tensors)

conv1d.weight f4 [128, 4, 12]
000000 16 c3 29 be 5a 11 2e 3e 42 12 88 3d 1d 13 38 be
       -0.16578326 0.16998807 0.066441074 -0.17976041
000010 a7 53 56 3e 9a ca 54 bd 34 e8 ba ba 1d 51 2c be
       0.20930348 -0.05195103 -0.0014259876 -0.16827817
000020 b2 01 61 bd 41 51 80 3e 11 9e 03 3e 30 8f b2 bd
       -0.054933257 0.25061992 0.12853266 -0.08718717
000030 54 67 cd 3d 97 62 7e bd ad 77 a7 3d db f1 17 bd
       0.10029474 -0.06210574 0.08177123 -0.037095886
000040 13 7a 09 be 6e 86 13 bd 23 96 47 3e ba e3 04 3e
       -0.13425474 -0.036016874 0.19490866 0.12977496
000050 0b bb 1d be be 39 33 3c 1e 61 09 be 38 b6 92 bd
       -0.15403382 0.01093906 -0.13415954 -0.07163662
000060 c3 b9 b6 bd 6d be 14 3d c1 1e 61 bd 94 cc d8 3d
       -0.0892215 0.036314417 -0.05496097 0.10585895
000070 1f c7 e2 3d 4a 8d fe bd d9 f2 8e 3d dc a9 e1 bd
       0.110731356 -0.124292925 0.06979913 -0.11018726
000080 a6 76 34 3e da 4c 04 be 8a 17 bc bd 88 89 6b be
       0.17623386 -0.12919942 -0.09184177 -0.23001683
000090 57 5e 82 3d 48 82 df 3d bc 80 23 be d5 25 06 be
       0.0636565 0.10913521 -0.15967077 -0.1310037
0000a0 6b 62 41 bd d6 1d dc bd 88 d1 59 3d 1b cf 00 be
       -0.047213 -0.10747878 0.05317834 -0.12579004
0000b0 00 ef ea 3d fe bc 78 bd 2f 2e 7c bd 59 9b 73 3e
       0.11471367 -0.060727112 -0.06156748 0.23789729
0000c0 11 cd dd 3d d1 de e7 bd 0a a4 27 3d 48 b8 ef 3c
       0.10830129 -0.11321796 0.040927924 0.029262677
0000d0 f0 f0 1d 3d da a8 37 be c9 b3 00 be 42 e2 70 bd
       0.038559854 -0.17935506 -0.12568583 -0.058809526
0000e0 ac ac 93 3c c8 0c 7e be c6 cd 87 3d a3 a9 53 bd
       0.018026672 -0.24809563 0.06631045 -0.05167545
0000f0 ea 83 38 3e 72 f9 de 3d c2 07 2d bd 48 13 28 bd
       0.18019071 0.10887422 -0.042243727 -0.041034013
000100 ca d5 0a 3e 41 a9 43 3e 73 e2 b8 bd 10 7e fb 3d
       0.13558117 0.19107534 -0.09027567 0.12279904
000110 69 24 51 3e e9 fc 7d be ba 42 16 bd 15 e1 86 bd
       0.20424046 -0.24803509 -0.03668473 -0.065859
000120 e4 68 a4 be 3d ed b4 bd 0a ef 7e bd 19 9d 8d be
       -0.32111275 -0.08834312 -0.062239684 -0.27658918
000130 8c 7f f0 bd 43 31 1b be 40 2c e0 bb 67 8d a7 3d
       -0.11743078 -0.1515551 -0.0068412125 0.08181267
000140 1b bd b8 3d 0a 59 a2 be 1e b2 87 bc c1 b4 54 3d
       0.09020444 -0.31708556 -0.016564425 0.051930193
000150 30 53 5b be 28 76 b3 bc 17 c4 f2 bd 1e 8d 29 3e
       -0.21418452 -0.021906927 -0.118538074 0.16557738
000160 35 e0 62 bd de e7 1e 3d 80 ab 0f be 33 e8 b9 bd
       -0.0553896 0.038795345 -0.14030266 -0.090774916
000170 a2 6b 69 bb 42 a0 69 3e 19 b3 07 be 8d 88 5c 3a
       -0.0035617133 0.2281504 -0.13251914 0.00084126816
000180 4a ea 92 bd 1d 0b 7d bd d9 70 50 bd 24 33 58 3e
       -0.07173593 -0.061778177 -0.05088887 0.21113259
000190 dd 21 d2 ba b0 a3 83 bd d0 88 01 be 12 7e d0 bd
       -0.001603182 -0.06427705 -0.12649846 -0.10180296
0001a0 f2 18 0c 3d d3 58 f3 39 33 61 53 3d 86 de 10 be
       0.034203477 0.0004641475 0.05160637 -0.14147386
0001b0 9d fd f0 bd 5c e5 08 3c 6e 4d 04 3e 4a 2c 8b be
       -0.11767123 0.008355465 0.12920162 -0.27182227
0001c0 eb 74 1f be 7c 84 c4 bd 0d 09 64 3e c3 5a 37 3d
       -0.15571944 -0.09595582 0.22269078 0.04476429
0001d0 41 b4 a0 bd fb d7 84 be dc 8e 9f be 63 31 ae 3d
       -0.07846881 -0.2594603 -0.3116368 0.085055135
0001e0 2c a3 fa 3d 5d b0 28 3d 8b fb f2 3d ad cc e0 bd
       0.12238154 0.041183818 0.11864384 -0.10976539
0001f0 33 63 d9 3d da 62 22 3e da 6a 95 bc 45 aa f1 bd
       0.10614624 0.15858021 -0.018239427 -0.118000545
000200 b4 3e c0 3d e7 c1 b3 3d 77 83 c1 3d 13 dc ea 3d
       0.0938696 0.08777218 0.09448903 0.11467757
000210 e5 53 bf 3d a2 a9 5c be 93 13 af 3c 1b 9a 4f be
       0.093421735 -0.21549085 0.021371638 -0.2027363
000220 5b 8e fc 3d f1 77 92 be 40 63 c0 bd 46 01 9f 3d
       0.1233184 -0.28607133 -0.093939304 0.07763915
000230 99 65 2d be 66 cf 30 bd f7 ab f1 3b 17 53 4c be
       -0.16933288 -0.04316654 0.007375236 -0.19953571
000240 42 bf 88 bb 58 b5 31 bd 28 e4 30 be 42 50 a6 bd
       -0.0041731903 -0.043385834 -0.17274535 -0.08120777
000250 2d 00 86 be db 2c ec 3d 61 68 c3 bd bc 57 c9 bd
       -0.2617201 0.11531993 -0.09541393 -0.09831187
000260 51 02 1b be 05 39 07 be a9 89 e9 bc 41 34 12 3e
       -0.15137602 -0.13205345 -0.028508024 0.14277746
000270 b2 b5 03 be 7f 52 3b 3c f7 cd 25 3d f1 6d 7b bd
       -0.1286228 0.011433243 0.040479627 -0.061384145
000280 7c 17 40 bd 97 9a 3a be 6d 4b c5 bd da db 24 bb
       -0.046897396 -0.18223034 -0.09633527 -0.0025155456
000290 81 80 4e 3e 66 32 c0 3d a7 34 3c 3d bd 97 2b bd
       0.20166208 0.09384613 0.04594865 -0.041892756
0002a0 c8 a7 27 3d b4 cf e8 3d 03 06 71 3d fa ed 7d 3e
       0.040931493 0.11367741 0.058843624 0.24797812
0002b0 81 90 90 3d 57 11 8e 3d 23 aa 19 3e 75 83 81 3e
       0.07058812 0.06936901 0.15006308 0.25295606
0002c0 9e 7e 8c 3d 8f 12 fe 3c c2 40 17 3d fc 69 41 bd
       0.06860088 0.031014709 0.036926992 -0.047220215
0002d0 95 dd 20 3e 44 86 18 3e 63 7d ce 3d 2e e9 b4 3b
       0.15709527 0.14894968 0.10082509 0.0055209612
0002e0 b1 6f d7 bc ac c1 43 be b8 75 5b be 08 03 39 be
       -0.026298376 -0.19116849 -0.21431625 -0.18067563
0002f0 16 37 32 be 50 c3 3b 3e e1 09 ca 3d 41 19 a2 bc
       -0.17403826 0.18336225 0.098651655 -0.019787433
000300 b0 88 9b 3d 51 4a a2 bd 2a 41 a8 bd 24 ed 65 3d
       0.075944304 -0.07924331 -0.08215554 0.056134358
000310 a8 93 6a 3e ca fe ca 3d 85 49 95 3d 22 b7 6a 3c
       0.22907889 0.099118784 0.07289413 0.014325889
000320 8a db 1d be 59 29 e3 bd de 97 61 3e c6 d7 1e be
       -0.15415779 -0.11091871 0.22030589 -0.15511999
000330 28 99 12 be 17 1b 5d bd 4f 81 3e 3e 8a 1e be bd
       -0.14316237 -0.053980913 0.18604015 -0.092831686
000340 36 ab 99 3d b2 4e 8c bd 8f 19 8c bd c1 42 8a bd
       0.07503359 -0.068509474 -0.068408124 -0.067510135
000350 14 99 08 be 83 62 4c 3e f5 f6 34 bd b8 d4 8b 3d
       -0.13339645 0.19959454 -0.04418083 0.06827682
000360 cf b7 88 bc 38 54 37 3e 9e 39 78 3d 51 a1 0d 3e
       -0.01668921 0.1790322 0.060601823 0.13831069
000370 59 73 e2 bd ee 75 dc bd 8b e2 e4 bd aa 90 40 be
       -0.11057157 -0.10764681 -0.11176022 -0.18805185
000380 a2 d3 dc 3d b8 53 c4 bd 63 ae 2d bd 78 e7 43 3d
       0.10782553 -0.095862806 -0.042402636 0.047828168
000390 68 19 23 3e 77 b9 49 bd c1 02 50 3c 25 75 a1 bd
       0.1592766 -0.04924914 0.012695969 -0.07883672
0003a0 4e e2 d5 3d a5 b4 7a bb 99 b3 8c bd cb 4b 5b 3d
       0.10443555 -0.0038254645 -0.06870193 0.05353908
0003b0 63 28 0e be 69 8b d2 3c 47 ca b2 3d 88 24 19 be
       -0.13882594 0.025701242 0.087299876 -0.14955342
0003c0 09 91 e9 3c b3 91 70 3d cf 42 3c be d2 46 50 be
       0.028511541 0.0587327 -0.1838486 -0.20339516
0003d0 97 4e 49 be 5c ec 7a bd 9e b9 51 be 6f ff b7 3d
       -0.19658886 -0.061260566 -0.20480964 0.08984267
0003e0 d3 1e 63 be 91 1a df bd 68 eb 76 bd 28 6c 71 3b
       -0.22179727 -0.10893739 -0.060283095 0.0036838148
0003f0 66 a3 59 be c2 0f f2 bd fd 6a f0 3a 7c 3f 41 be
       -0.21253738 -0.11819412 0.0018342432 -0.18871874

conv1d.bias f4 [128]
000000 a0 61 a5 3c 76 0c 64 bd 37 93 d6 bd 05 07 1b bd
       0.020188153 -0.055675946 -0.10477298 -0.03784849
000010 0a a0 09 3c 05 7a c1 3d f0 ef 3e be f4 bd 07 3e
       0.008399973 0.094471015 -0.18646216 0.13256055
000020 ec b5 66 3d c8 64 1a 3d aa 91 ad bb 4b 2e d6 bc
       0.056325838 0.03769377 -0.0052969055 -0.026145121
000030 49 51 93 3d 44 0b 10 3e 29 5a 2b 3c c0 16 ad 3d
       0.07193238 0.14066797 0.010458508 0.08451605
000040 8c 06 98 3c 5a 20 a8 bc ad 54 d9 3d 7a 7a d1 3d
       0.01855781 -0.020523239 0.10611854 0.10228439
000050 ab 9a f8 3c 40 29 52 bd 95 dc ab 3d 96 e5 c5 3c
       0.030347189 -0.05130887 0.08391682 0.024157327
000060 ea 44 a5 bd 95 c5 b9 bc a4 ee 21 3e 15 ac 02 bd
       -0.08069785 -0.022677222 0.1581369 -0.03190239
000070 44 0e 17 3d 50 be 01 bd 2e 4f 10 be 4d ae 3f 3d
       0.03687884 -0.031675637 -0.14092705 0.046797086
000080 c9 34 fd bd ca c3 03 3d 5c 65 b6 b9 8a 61 af 3c
       -0.123635836 0.03216914 -0.00034789264 0.021408815
000090 55 0e 89 bc 4f ba 6e bd 5c f5 9c 3d 67 71 0a be
       -0.016730467 -0.058283146 0.07663986 -0.13519822
0000a0 bd dd a0 3d ea 9b 8b bd 01 6b 84 3d c5 6e b1 bd
       0.07854793 -0.068168476 0.06465722 -0.08663706
0000b0 77 e8 a0 bd 7d 67 65 3a 37 29 a6 3d f1 ec 69 bc
       -0.07856839 0.00087510777 0.0811333 -0.014277683
0000c0 9f 6f 84 3c fd 4c 22 be bb 4a 02 bc 4e ff a8 3d
       0.016166506 -0.15849681 -0.007952387 0.082518205
0000d0 a7 38 30 3d c0 78 73 3d eb 3f 43 3b 5f cd 35 bc
       0.043022778 0.059441328 0.0029792737 -0.011096328
0000e0 a9 a0 c4 3d d9 3d 17 be e8 02 66 bc 6a 75 27 be
       0.09600956 -0.14769687 -0.014038779 -0.16353384
0000f0 14 3d 20 bc e5 96 b2 bd 9b ad aa bb b7 9d 1d 3e
       -0.009780187 -0.08720187 -0.0052086837 0.15392195
000100 4a 3f e4 3d b6 38 e6 bc 87 89 f5 bc 3c 9a bb bd
       0.11144884 -0.028103214 -0.029972805 -0.09160277
000110 e1 bb 08 be 73 95 e3 bd 2d 1d 46 bd eb 7f 44 bc
       -0.1335292 -0.111124896 -0.048367668 -0.011993389
000120 63 fb 3d bd 9e 9a 01 3d 55 85 7c 3d 82 79 c2 3d
       -0.04638232 0.031641595 0.061650593 0.09495832
000130 51 b8 a6 3d e9 85 a8 bd 76 2e 8e 3d a3 a1 eb 3d
       0.08140624 -0.08228666 0.069424555 0.11505439
000140 f7 44 1c bd b6 0b 05 3e 9b f2 f2 3b 7b e3 31 bd
       -0.038151708 0.12992749 0.0074141747 -0.043429833
000150 2a 0d d7 bd 20 b7 85 3d 93 da 85 bd dc ab 3b be
       -0.10500558 0.06529069 -0.0653583 -0.18327278
000160 91 8e 15 be cb 38 72 bd 60 98 c8 bc 6f e5 1b ba
       -0.14605166 -0.059136193 -0.02448672 -0.0005946969
000170 fe 65 0b bd 91 a6 06 bd 0a 74 b4 bd 23 c1 b6 bd
       -0.034032814 -0.032873694 -0.08811195 -0.08923557
000180 3a e1 27 be b8 41 0f 3d 38 63 09 be 76 29 bc bd
       -0.16394511 0.034974784 -0.13416755 -0.091875955
000190 f0 be 31 be d9 a5 6c 3d 99 68 e0 bd 6c a6 ce bc
       -0.17357993 0.057775352 -0.109574504 -0.02522584
0001a0 9d b2 56 bb 67 3d 3b 3d 91 89 7e bd 3a 45 e2 bd
       -0.003276027 0.045712855 -0.062142912 -0.1104836
0001b0 6d 86 50 3d f7 4d bd bd 27 8c e8 3d 7b 94 04 be
       0.05090945 -0.09243386 0.11354857 -0.12947266
0001c0 3d 8b 0a bc a6 dd db bd 03 df da 3c 7a 3d e5 bc
       -0.008456049 -0.107356355 0.026717668 -0.027983416
0001d0 cb 52 d9 3c 75 31 86 bd 35 ff 50 3c 26 a4 db bd
       0.026528737 -0.06552402 0.012756159 -0.10724668
0001e0 73 0a 17 be ab 57 03 be 63 01 ca bd 2e 96 15 be
       -0.1475008 -0.12826411 -0.09863546 -0.1460807
0001f0 e9 5a 0c 3e ec 73 58 3d 8e 51 08 3e f7 10 85 bc
       0.13706554 0.052844927 0.1331236 -0.016243441

linears.0.weight f4 [32, 128]
000000 02 5c a3 38 04 46 7c b8 d6 c7 f5 38 2a c5 1a b9
       7.7895835e-05 -6.014669e-05 0.00011719733 -0.00014760034
000010 5a ef 65 39 a4 d7 0a b9 7e 13 d7 38 27 98 94 b9
       0.00021928307 -0.00013241038 0.000102556296 -0.00028342122
000020 f2 a0 7b b8 8b bf e3 b8 af cf 9c b7 66 29 71 b9
       -5.9992955e-05 -0.00010859881 -1.869336e-05 -0.00022998973
000030 f9 29 8f 39 02 01 cf 37 24 29 c0 38 82 d6 9a 37
       0.00027306358 2.4676792e-05 9.1629365e-05 1.8458119e-05
000040 a6 d4 f9 b8 e4 3d 67 37 5c be 48 39 2d 4e 38 39
       -0.00011912854 1.3783083e-05 0.000191444 0.0001757673
000050 b3 eb b6 38 25 89 65 39 49 cf ec 38 91 88 7e b8
       8.722339e-05 0.00021890232 0.00011291967 -6.0685506e-05
000060 f4 ca 1d b8 e6 93 df b8 20 4a 64 39 dd b9 6c 38
       -3.762073e-05 -0.00010661017 0.00021771388 5.6439883e-05
000070 4b ea ad b8 05 b0 28 39 6b 4a 93 38 3d d4 1d 38
       -8.292923e-05 0.00016087301 7.023368e-05 3.762938e-05
000080 63 ae f6 36 be 07 26 b7 4c 32 14 b9 e3 3c ae b8
       7.3516726e-06 -9.896174e-06 -0.00014133117 -8.3083076e-05
000090 59 74 c5 35 15 ca 9f 38 c7 91 0f 39 4d df ba b7
       1.4711505e-06 7.6193515e-05 0.00013691849 -2.227691e-05
0000a0 67 dc 15 b9 cf 17 6f 38 b0 82 db 38 1f 40 8c b8
       -0.00014291854 5.7004214e-05 0.00010467076 -6.687664e-05
0000b0 3c 7d 89 b6 6c 68 40 35 dd 1f 34 37 3e ff b3 37
       -4.0974974e-06 7.167753e-07 1.0736255e-05 2.145732e-05
0000c0 ef 40 58 37 da ae d1 35 de 2e ca b7 6e d7 21 37
       1.2889722e-05 1.5622602e-06 -2.41021e-05 9.646506e-06
0000d0 d2 65 fa 37 ff bc 35 b9 93 68 3c b8 c4 e9 40 39
       2.9849736e-05 -0.00017331912 -4.4920085e-05 0.00018397631
0000e0 4d 3b 1f 39 f5 7a d3 b8 31 25 9d 39 47 8b a3 b8
       0.00015185513 -0.000100841666 0.00029973083 -7.798388e-05
0000f0 98 03 d2 b9 88 d6 93 38 88 58 23 b8 93 21 05 b6
       -0.00040057 7.049466e-05 -3.894468e-05 -1.9838087e-06
000100 da 29 8c 38 7c 5d a4 b9 30 da b5 b8 d3 52 e4 b8
       6.683516e-05 -0.0003135017 -8.671393e-05 -0.000108873144
000110 dc 8a e3 38 6f 55 67 b9 e5 ed 17 b8 09 d7 5f b8
       0.00010850068 -0.00022061703 -3.6222762e-05 -5.336761e-05
000120 17 56 df b8 5a b0 04 39 d4 f7 ee b7 82 f2 d5 38
       -0.00010649504 0.00012654197 -2.8487215e-05 0.00010201802
000130 0a 2b 00 b8 82 b0 d2 38 2e 95 f4 38 6b 2a 1f 38
       -3.055766e-05 0.000100464575 0.000116626135 3.794806e-05
000140 1a eb fc 37 c2 4f 07 39 af 10 fc 38 18 ed a2 37
       3.0150219e-05 0.00012904315 0.00012019404 1.942231e-05
000150 19 da 4b 39 2f 0b 52 b8 4c ea 64 b8 4b 65 5e b9
       0.00019440836 -5.0078317e-05 -5.4577642e-05 -0.00021209304
000160 4f b5 3e b8 db c2 37 39 b1 1b 7a b9 25 9f ac 37
       -4.5468387e-05 0.0001752483 -0.00023852174 2.0578105e-05
000170 17 86 a9 38 b0 ef af b9 4f e5 ef b8 4c 51 08 b9
       8.083524e-05 -0.00033557182 -0.0001143912 -0.00013000256
000180 e4 e5 ac b7 eb f3 83 b9 c0 0e b0 b7 bd 3e 7f b9
       -2.0611049e-05 -0.00025168 -2.0987703e-05 -0.00024342067
000190 32 c9 45 36 69 92 ac b7 ee 0b d0 37 04 bc 4a b9
       2.9472399e-06 -2.0572175e-05 2.4801087e-05 -0.00019334262
0001a0 3f e9 24 b9 c9 e0 d9 37 5d 8e a8 38 a1 e4 1b b9
       -0.0001572715 2.597309e-05 8.0373815e-05 -0.00014867123
0001b0 05 ee 21 39 b9 80 5b b9 5c 9b 9a 38 bf b8 69 b9
       0.00015442826 -0.0002093342 7.37223e-05 -0.00022289435
0001c0 fc a4 22 b9 de 5b ec b9 c0 dd 3b 37 5b f7 82 39
       -0.00015510985 -0.00045081874 1.1197699e-05 0.00024979826
0001d0 14 2e 3f 39 7d fb e2 38 e6 3b e0 37 0c ca 36 39
       0.00018232345 0.00010823363 2.6730773e-05 0.00017432141
0001e0 a6 5d 65 38 df c1 a6 b8 95 47 85 38 49 6c 9e b7
       5.468507e-05 -7.951608e-05 6.3552674e-05 -1.8885492e-05
0001f0 10 94 1a 39 74 96 d2 38 05 40 4b b9 cc 5e e1 b7
       0.00014741742 0.000100416044 -0.00019383438 -2.6866233e-05
000200 eb cb 9c bc 69 71 8c bc 0e af 8c bc 4c ab 95 bc
       -0.019140204 -0.017143922 -0.017173316 -0.018270157
000210 52 96 7b 3c cf 73 94 bc 1c 48 98 3c f1 36 1f bd
       0.015355663 -0.018121628 0.018589072 -0.038870756
000220 ff 75 54 3d 7e d6 50 bd c8 47 a6 bd de 88 68 bc
       0.051870342 -0.050985806 -0.0811916 -0.014192788
000230 00 db 2c bc 14 f0 9a bd c5 06 a3 bb 44 61 06 3c
       -0.010550261 -0.075653225 -0.004975172 0.008201901
000240 78 db 21 3d 66 62 9d bc c7 21 3d bc a2 42 97 bc
       0.039515942 -0.01921196 -0.011543698 -0.01846439
000250 14 31 dc 3d be 74 d7 bc f7 84 53 3d 9f 4a 76 3d
       0.107515484 -0.026300784 0.051640477 0.060129758
000260 65 e0 c1 bb 4e d7 ab 3b a2 fb 5f bd 29 cc 00 bd
       -0.0059166425 0.005244172 -0.054683335 -0.031444702
000270 c7 c3 63 3d f6 8b 14 bc ff 69 64 3d 5b 45 a0 bc
       0.05560663 -0.009066572 0.05576515 -0.019564321
000280 97 66 49 b9 c9 3f 4b bd 15 7f ff 3c 61 3b 16 3c
       -0.00019207071 -0.049621377 0.031188527 0.0091694305
000290 ff a0 97 bb 04 d9 93 3d 34 64 1c bc e4 18 86 3d
       -0.0046273465 0.07219127 -0.009545375 0.06547716
0002a0 b0 cc fa 3c d4 48 03 3e f2 c9 cb ba 86 09 45 3d
       0.03061518 0.1282075 -0.0015547855 0.048104785
0002b0 c6 d6 80 3c 0a 32 38 3c d0 ad a6 bb 44 42 59 bc
       0.015727412 0.011242399 -0.005086638 -0.013260428
0002c0 97 63 ae 3a cc 69 3b 3d 8b a8 a5 bc e5 f2 ac bc
       0.0013304827 0.045755193 -0.02022197 -0.021111915
0002d0 2a 7c 60 3d 7c 10 7f 3c 77 62 6d bc ce e8 0c 3b
       0.054805912 0.015567895 -0.014488808 0.0021501067
0002e0 ba 5b ad bc 80 bb 7a 3d 8a e8 e9 bb b5 75 53 3c
       -0.021161903 0.06121397 -0.0071383165 0.0129064815
0002f0 9f 69 4b ba e5 af 55 3e a3 fe 58 3c df 11 ff bb
       -0.0007759574 0.2086788 0.013244304 -0.007784113
000300 19 45 f1 bc a3 71 86 3d 5c d9 78 bc 3b 95 cc 3c
       -0.029451894 0.06564643 -0.015188541 0.024973502
000310 4e ef 36 b9 ee 70 78 3b 61 5c 66 3c e8 9b 8a bc
       -0.0001744602 0.0037909108 0.014060111 -0.016920045
000320 15 e3 e3 bc 6f 64 0a 3c e7 b9 f3 3c b2 45 bb 3d
       -0.027818242 0.008446797 0.029751731 0.09144153
000330 36 36 8e bb 3e 2e 71 3c 6a 99 2b 3d 4d af ac 3c
       -0.0043399585 0.014720498 0.041894354 0.021079684
000340 8d 6e 4c bc b7 d3 6e bc d0 70 2f 3b a5 d6 4e bc
       -0.012477529 -0.014576844 0.0026770122 -0.012624417
000350 ac c6 82 bc c5 84 42 3d 37 c9 77 3d 69 74 a8 3c
       -0.015963875 0.0474899 0.060494628 0.020563321
000360 42 70 c8 3b e1 c3 6a 3d c3 cc 12 3d 62 72 bb bb
       0.006116898 0.05731571 0.035839807 -0.0057204226
000370 0e 2b 6f 3c 60 42 b0 bc 29 8a 74 3d e7 7d 4c 3d
       0.014597667 -0.021516025 0.059702072 0.049924757
000380 39 ea b1 3c 27 be 0c bb e0 f0 5b bd 3a aa 9d 3d
       0.021718131 -0.0021475644 -0.053696513 0.07698484
000390 ca 78 18 3e cc 09 77 bc e5 8d b8 bb 47 0e 26 3c
       0.14889827 -0.015078019 -0.0056321495 0.01013524
0003a0 6c 18 b5 3c 64 3c e2 bd 43 39 fe bc eb 08 26 3b
       0.022106372 -0.11046675 -0.031033164 0.0025334905
0003b0 8d 99 05 3d 8c 06 9e 3c 3a 51 cf 3b cc e3 80 bd
       0.03261714 0.019290231 0.0063268216 -0.06293449
0003c0 e2 66 e4 3c ab 6e 5b 3d 24 0d 71 3c 45 aa b0 bc
       0.02788109 0.053572338 0.014712606 -0.021565566
0003d0 d2 87 5d 3a 47 36 a7 3d f1 09 11 bc 67 e5 8d bc
       0.000845072 0.081646495 -0.008852468 -0.017321302
0003e0 b1 ed 91 3c e0 a9 84 bc ed 34 3c 3b ff 9c 29 3d
       0.017813535 -0.016194284 0.002871807 0.04140949
0003f0 4b c7 b1 bc 22 bb 2c 3b 84 7c 86 bb ef a2 f8 3c
       -0.021701476 0.0026356657 -0.004104199 0.03035113

linears.0.bias f4 [32]
000000 84 0f 1d b9 87 b9 f4 b8 79 95 5d b8 07 68 26 38
       -0.00014978467 -0.00011669384 -5.2829713e-05 3.9674367e-05
000010 28 3b b1 38 00 3c 2f b8 9b 0c 2a 39 a0 26 35 3b
       8.4510364e-05 -4.177913e-05 0.0001621716 0.002764143
000020 73 32 5f bc ce 4f a1 b7 c8 0e 33 39 67 61 a5 3c
       -0.013622868 -1.9229858e-05 0.00017076277 0.020188047
000030 1b a8 99 38 9a f0 16 39 88 07 ac b8 2f 68 fb b7
       7.3269206e-05 0.00014394746 -8.203002e-05 -2.9970046e-05
000040 9b 10 82 b8 89 c4 04 b8 f7 05 44 3d 1d 1f 3a b8
       -6.201976e-05 -3.165429e-05 0.04785725 -4.4374832e-05
000050 2b c6 a8 38 10 14 8c b8 8a 7c 69 39 d0 ff a9 3b
       8.047776e-05 -6.679457e-05 0.00022267006 0.005187966
000060 c1 a9 6f b8 a8 68 05 bd 72 73 61 b8 5c 52 12 b9
       -5.7140136e-05 -0.03257051 -5.3751697e-05 -0.00013954326
000070 e2 e2 81 b9 dc d8 5d b8 8b fb dc b8 ed 5c 92 38
       -0.00024773838 -5.2892472e-05 -0.00010537271 6.979131e-05

linears.2.weight f4 [2, 32]
000000 10 70 0d b8 15 0b 91 be 58 73 84 b8 61 62 e0 b8
       -3.3721386e-05 -0.28328767 -6.315735e-05 -0.00010699477
000010 31 51 9c b7 31 fb a8 bb 09 57 36 38 b6 02 5e 3e
       -1.8634457e-05 -0.0051568975 4.347324e-05 0.21680722
000020 11 06 c2 be 0d 9f 55 38 fe 94 8e b8 46 1a c7 3e
       -0.37895253 5.0931285e-05 -6.7988396e-05 0.38887233
000030 1b a9 c0 38 3d 9d 97 38 16 23 a0 39 8d 99 61 38
       9.186772e-05 7.229529e-05 0.0003054372 5.3787186e-05
000040 98 82 a9 37 2f 15 9b b6 c3 b2 df 3e ed 9e 84 b8
       2.0207182e-05 -4.621826e-06 0.43691072 -6.323853e-05
000050 67 64 43 b7 a6 42 df b6 42 0a 50 b8 d4 4b 57 be
       -1.16462825e-05 -6.653677e-06 -4.9600618e-05 -0.2102502
000060 e9 e1 2e b7 69 43 96 be 09 62 8c bc a6 b3 84 be
       -1.0423807e-05 -0.29348305 -0.01713659 -0.2591831
000070 6f 95 14 bb b5 0c 6d 38 37 7f 5f b8 32 61 5e b6
       -0.0022672077 5.6517038e-05 -5.328582e-05 -3.3137153e-06
000080 f6 47 68 38 65 e8 24 3e b6 f7 15 b9 48 72 5a 39
       5.538013e-05 0.16104276 -0.00014302027 0.00020832673
000090 96 84 8c 38 6d a3 ca 37 ce ea cc 39 cf 79 91 be
       6.700416e-05 2.4156378e-05 0.00039084855 -0.28413245
0000a0 0f fd b0 3e 49 cc a0 38 5d 9f 26 39 5b 1a da be
       0.34568068 7.6674456e-05 0.00015890361 -0.42598233
0000b0 50 1d ca b9 12 2b 30 b8 ca c1 7e b8 0b 4d cd 38
       -0.00038550282 -4.2001782e-05 -6.07388e-05 9.789512e-05
0000c0 a2 e4 f0 b6 e5 8e 3f bb 6c 66 fe be b2 79 c8 37
       -7.1791737e-06 -0.002922946 -0.49687517 2.3898527e-05
0000d0 c3 35 07 39 c1 1e 74 38 8b ec 27 b7 6d 67 72 3e
       0.00012894631 5.8202775e-05 -1.000905e-05 0.23672266
0000e0 d8 ec 00 37 5c 2d 34 3e 68 cb 81 3c ee 09 7b 3e
       7.684539e-06 0.17595428 0.015844062 0.24515507
0000f0 3a e1 c8 3d 7e a6 11 b8 03 c4 87 b7 a8 80 c7 b8
       0.098085836 -3.4725752e-05 -1.618453e-05 -9.5130235e-05

linears.2.bias f4 [2]
000000 0a 44 77 bb 69 03 bd bd
       -0.0037729763 -0.09229166

exp_avg f4 [128, 4, 12]
000000 e6 6c 1e 37 24 63 40 bb 9f 75 73 bb 56 4c 2d 39
       9.442889e-06 -0.0029355967 -0.0037148965 0.00016527003
000010 f6 be 74 bb 0d c0 2f bb df 22 5e ba 73 c4 ea 39
       -0.0037345267 -0.0026817352 -0.0008473824 0.00044778324
000020 3d d3 ee b9 64 dc 8c 3a 1b ff 3d bb 9c 8b 22 3a
       -0.00045552282 0.0010746834 -0.0028991166 0.0006200613
000030 db a3 2a 3b ed 1c 5f 3b 4f ba a4 3a a0 09 7c 39
       0.0026037607 0.003404434 0.0012567731 0.00024036178
000040 d4 78 83 39 fe bb 90 ba bb 6e c0 3a 06 41 43 39
       0.0002507629 -0.0011042354 0.0014681438 0.00018620872
000050 1e 9d d3 b9 62 49 9d b9 20 81 cd 3a 94 07 02 b8
       -0.00040362118 -0.00030000048 0.0015678741 -3.1001473e-05
000060 1e d0 62 ba 41 f3 8b ba c3 95 3a 3b 33 3f f9 39
       -0.00086522277 -0.0010677354 0.0028470613 0.00047540068
000070 b5 4d 47 3b 06 44 93 ba 1b 96 52 39 ed 01 a2 b9
       0.0030411307 -0.0011235483 0.0002008308 -0.00030900483
000080 c9 54 3a 3a 2b 1b aa 37 ee cd 00 3b e0 92 a8 39
       0.0007107971 2.027823e-05 0.0019653994 0.00032152887
000090 83 1c e5 ba 5c ff 1c 3a 55 ea cb b9 19 f5 66 ba
       -0.0017479811 0.0005988979 -0.00038893768 -0.0008810326
0000a0 35 11 e8 39 07 e0 a0 3b 1f 60 57 ba 06 63 aa b9
       0.00044263309 0.0049095186 -0.0008215922 -0.00032498705
0000b0 8b 8d 1b 39 ef 64 50 ba 8d 3d 26 ba 90 b4 6e ba
       0.00014834681 -0.00079496106 -0.0006341569 -0.00091058854
0000c0 c6 c3 eb ba a2 21 d4 b8 c6 49 09 bb 72 2c 93 3b
       -0.0017987422 -0.00010115212 -0.0020948513 0.0044913823
0000d0 0a 24 5e ba 3b 50 a8 39 50 4e e9 38 1b 7a 84 ba
       -0.0008473998 0.00032103233 0.000111248926 -0.0010107191
0000e0 1c d9 5d ba e6 23 d4 b7 a8 3a 4b bb 9c 91 42 ba
       -0.0008462833 -2.5289086e-05 -0.0031010304 -0.000742221
0000f0 df 81 e2 3a a0 fb df 39 fa b8 59 3b 4f 75 6f ba
       0.0017281136 0.0004272135 0.0033221827 -0.0009134607
000100 32 84 f6 3a 99 96 cb 3a 3b c5 17 bb 05 ef 10 bb
       0.0018807708 0.0015532552 -0.002315833 -0.0022115123
000110 f1 d4 11 bb ae e6 92 39 48 85 a0 3b 0f b5 9c 3b
       -0.0022252167 0.0002801916 0.004898701 0.004782326
000120 e9 69 0a 39 f6 e8 de 36 97 e4 b4 ba cc bb c3 38
       0.0001320016 6.643236e-06 -0.0013801035 9.3333045e-05
000130 57 1e 02 ba bf 46 72 ba 78 bc a3 3a 62 aa 62 3b
       -0.00049636274 -0.00092421094 0.0012492081 0.003458642
000140 1d f9 41 3b e3 49 6a 39 d0 cd bc ba 22 10 09 bb
       0.0029597946 0.00022343504 -0.0014404599 -0.0020914157
000150 80 b5 80 b8 df 6e ae b9 82 31 20 39 70 99 70 bb
       -6.1373226e-05 -0.00033270472 0.00015277232 -0.003671255
000160 06 c6 0c ba 93 0e 79 ba 29 72 7a 3a ff e4 77 b9
       -0.0005370084 -0.0009500768 0.00095537544 -0.00023641063
000170 c1 43 ea 38 5f c9 fa b9 05 48 bb b9 2e 6b ff ba
       0.0001117061 -0.0004783375 -0.00035721078 -0.0019486898
000180 95 e2 ec 39 f1 71 bf ba 1a b1 3d ba fb e2 33 ba
       0.00045182245 -0.0014606101 -0.0007236168 -0.0006862131
000190 71 d1 5c ba b7 4a 91 ba c8 8c 7a 39 48 f2 6b ba
       -0.0008423543 -0.0011084889 0.00023894303 -0.00090006413
0001a0 20 5d f2 ba 24 41 5b 3b c0 4d e3 ba 2a c8 0a 3a
       -0.0018490888 0.0033455575 -0.0017341897 0.0005294109
0001b0 c4 52 7d 3b dc 45 fe 3a 31 c6 7e 3b 0e 48 32 39
       0.0038654068 0.0019399482 0.0038875456 0.00017002245
0001c0 bf b2 eb b8 24 ba e3 ba 20 63 5a ba c6 90 25 bb
       -0.00011238967 -0.00173742 -0.0008330811 -0.0025263294
0001d0 e0 a5 80 3b a8 57 80 b9 2d dd 31 39 f6 b3 1d 3b
       0.003926024 -0.00024479371 0.0001696243 0.0024063564
0001e0 19 56 20 bb 13 8c 8b ba 4d 52 2e bb 26 2e 42 38
       -0.002446538 -0.0010646604 -0.0026599348 4.6296183e-05
0001f0 8f 47 57 3b c0 5a 2b 3b 84 f9 34 3a 98 8d bc 39
       0.0032849049 0.002614662 0.0006903636 0.0003596365
000200 49 d2 1f bb cb a8 20 bb ef 30 11 3a f6 4c 4e bb
       -0.0024386814 -0.002451467 0.00055386027 -0.0031478978
000210 f9 31 f5 ba 4d 70 19 3a 75 1e 04 ba 29 5c f6 39
       -0.001870691 0.0005853221 -0.0005039939 0.0004698944
000220 9e b5 18 bb e0 7a 72 39 87 cc c9 b8 a4 fb 48 3b
       -0.0023301612 0.00023124693 -9.622523e-05 0.0030667568
000230 d8 a8 bd 39 99 35 2a ba a1 79 84 3a 56 6f 5e 39
       0.00036174688 -0.0006492972 0.0010107049 0.00021213046
000240 4b f0 2c ba 53 f0 b5 b8 6a 00 d6 39 5f ff 40 39
       -0.0006597086 -8.6755164e-05 0.0004081757 0.0001840568
000250 b3 d4 30 ba 2f e4 9f 3a e1 d8 14 ba 6d 3f f2 b8
       -0.0006745562 0.0012198741 -0.00056780694 -0.00011551273
000260 b9 03 b3 39 fa b1 2e b9 7d 30 51 ba 5e 8b 09 3b
       0.00034144314 -0.00016660235 -0.00079799426 0.002098761
000270 e2 8f 02 3a 1a bb 80 ba d7 6e 80 3b e4 aa 86 3b
       0.00049805467 -0.0009821386 0.003919463 0.004109727
000280 50 59 66 3b 96 07 1f b7 84 8a 41 39 23 de 93 ba
       0.003514845 -9.478905e-06 0.00018457515 -0.0011281412
000290 95 9c 80 ba ee 64 e3 ba 90 42 f1 3a 08 b7 13 ba
       -0.000981229 -0.0017348805 0.0018406678 -0.0005634879
0002a0 f6 5a 77 3b f1 a4 56 3b 6f c2 f9 ba 05 de 90 bb
       0.0037743426 0.0032752121 -0.0019055138 -0.004420998
0002b0 ce 3a f9 ba bb 29 0b bb 41 a2 4e b9 cd 76 8c 3a
       -0.0019014718 -0.002123459 -0.00019706135 0.0010716558
0002c0 21 ba 83 3a fe 95 9a ba 8c 66 46 3a 5f 94 8d 39
       0.0010049978 -0.0011793969 0.0007568381 0.0002700416
0002d0 dc c2 6c bb e2 97 10 bb 84 bc 1e bb bf 64 05 39
       -0.0036126887 -0.0022063185 -0.002422125 0.00012721399
0002e0 f5 1a 76 ba a8 5a 6f 3a cf 1e 18 3a 68 5a 34 39
       -0.0009388172 0.00091306353 0.00058029307 0.00017199817
0002f0 f3 79 bf b9 95 e8 49 3b 96 dd eb ba 51 a0 ec ba
       -0.00036521218 0.0030808796 -0.0017995115 -0.0018053149
000300 1a fc 11 ba a6 c7 36 39 05 9a 66 39 cf cc 10 3a
       -0.0005568877 0.00017431247 0.00021991886 0.0005523683
000310 9f 18 c6 ba 68 93 1a ba c2 79 9b 3a 4b c1 9d 3a
       -0.0015113539 -0.0005896599 0.0011861848 0.0012035755
000320 64 d9 c7 38 dc be bc 39 bd 55 4f 3a 32 91 38 38
       9.5295516e-05 0.00036000356 0.00079091993 4.4004242e-05
000330 61 3c 54 37 1c f9 64 39 6b 9c f4 39 ee 59 6e 39
       1.2650243e-05 0.00021836575 0.00046655847 0.0002273095
000340 7a 51 c3 3a e2 1f c9 36 08 96 ec ba d9 1b 3d 39
       0.0014901601 5.9939784e-06 -0.0018050084 0.00018034819
000350 08 7f ea ba d5 0a 37 ba 10 24 90 39 8f 7f c0 38
       -0.0017890641 -0.000698251 0.0002749269 9.179033e-05
000360 c0 f4 c7 38 14 ed 6c ba 39 0c 86 ba 66 e0 98 ba
       9.534648e-05 -0.0009038013 -0.0010227031 -0.0011663556
000370 54 dc 12 b7 15 ec 37 b9 9f 3d 7a b9 5a 74 ce b6
       -8.753577e-06 -0.00017540187 -0.00023864814 -6.1528235e-06
000380 6b 04 ca 3a 63 aa 2e 38 df 32 b0 b8 74 94 8e b9
       0.0015412694 4.1643518e-05 -8.4018095e-05 -0.00027194957
000390 21 59 eb 39 e3 fc 05 3a 74 47 b0 39 fd ba ca 39
       0.000448891 0.00051112304 0.00033622573 0.0003866776
0003a0 53 37 fb 37 31 fc 46 3a f4 c7 60 3a 52 96 b4 ba
       2.9947294e-05 0.000759068 0.0008574717 -0.0013777709
0003b0 2f e8 1f 39 83 81 9b 39 b5 b0 80 ba d4 c4 0e 39
       0.00015249917 0.00029660398 -0.0009818288 0.000136155
0003c0 c1 70 c6 b9 9b 8b 80 ba 23 de af b9 dd 8d a4 39
       -0.0003784951 -0.0009807231 -0.00033544106 0.00031386214
0003d0 41 29 6e b8 f2 ba 0f ba e9 fe 27 b9 d1 2d 22 3b
       -5.6782043e-05 -0.0005482874 -0.00016021323 0.0024746547
0003e0 83 fd 97 b9 bb ee 09 39 35 fc 01 3a c2 4e 90 ba
       -0.00028989845 0.00013154272 0.0004958541 -0.00110098
0003f0 3a a5 a7 39 91 75 df b9 f9 3d 8b 39 02 52 30 b9
       0.00031975826 -0.00042621468 0.0002655832 -0.00016815218

exp_avg_sq f4 [128, 4, 12]
000000 78 6e bc 34 7c 91 d2 36 3c b1 6d 36 12 3c 0a 35
       3.5098105e-07 6.2754243e-06 3.5418916e-06 5.149642e-07
000010 ab 0e ab 36 01 f5 60 36 9d cf a7 35 c6 0a 1d 35
       5.0979047e-06 3.3521212e-06 1.2502893e-06 5.8502735e-07
000020 af db 19 35 e5 10 6d 36 e9 32 f4 36 3c 27 58 35
       5.7316623e-07 3.5325586e-06 7.2776934e-06 8.0523364e-07
000030 99 8b c6 36 fc 34 90 36 21 2f a0 36 41 df 8e 36
       5.917111e-06 4.2977026e-06 4.773858e-06 4.25792e-06
000040 a4 14 3e 35 83 1a 8f 36 1b 04 a4 36 3a 8f 8a 36
       7.081055e-07 4.2648185e-06 4.888059e-06 4.1293943e-06
000050 86 4a 5a 35 79 ee 38 36 7f 52 9a 36 80 2d 09 36
       8.1319774e-07 2.7556946e-06 4.5991615e-06 2.0441075e-06
000060 0d 75 e6 35 c4 c6 70 36 57 e4 77 36 36 b5 92 36
       1.7170402e-06 3.5878484e-06 3.693878e-06 4.372235e-06
000070 83 50 9c 36 62 22 18 36 b2 30 26 36 6d 68 57 36
       4.658535e-06 2.2669778e-06 2.4764272e-06 3.209828e-06
000080 e5 ef b4 36 be 9c 35 35 d6 df 9b 36 cd ef ba 35
       5.3923454e-06 6.7655844e-07 4.645418e-06 1.3927871e-06
000090 98 cf c8 36 49 6b 6d 36 d3 cb c6 34 0d 45 33 35
       5.9846316e-06 3.53782e-06 3.7028676e-07 6.678318e-07
0000a0 67 40 05 36 17 e0 66 36 03 4c e8 35 22 01 84 35
       1.9856031e-06 3.4403108e-06 1.7307469e-06 9.835096e-07
0000b0 39 25 9f 36 d5 0e ce 34 1a 14 0f 36 62 3c 86 36
       4.7429025e-06 3.8381282e-07 2.1320361e-06 4.0005407e-06
0000c0 75 63 fe 36 81 e5 85 35 af 22 26 37 46 ea c6 36
       7.581368e-06 9.976067e-07 9.902446e-06 5.928133e-06
0000d0 0d 99 db 36 4a 18 b3 34 6e 64 e2 36 52 1f 37 36
       6.544526e-06 3.335902e-07 6.7470164e-06 2.7287356e-06
0000e0 10 40 7b 35 70 6e 0d 35 2d 33 3e 37 fa 5b 54 36
       9.359801e-07 5.26873e-07 1.1336798e-05 3.1644e-06
0000f0 b3 c0 0b 37 4c 65 04 37 0d 8e 48 37 fe a9 f0 36
       8.329912e-06 7.891398e-06 1.1954003e-05 7.172347e-06
000100 e0 a5 47 37 63 79 e9 36 1e 79 14 37 c4 4f 2b 37
       1.1899945e-05 6.9580724e-06 8.849687e-06 1.0210966e-05
000110 44 e3 fe 36 41 79 49 35 f3 d6 90 37 c4 93 27 37
       7.596247e-06 7.505478e-07 1.7266231e-05 9.98838e-06
000120 6d b5 d1 33 9a 82 4c 36 c6 9f 1a 37 d8 08 a8 34
       9.765322e-08 3.047439e-06 9.216315e-06 3.1298873e-07
000130 9e 86 81 36 d5 af f8 35 59 fd 31 37 b7 cd 13 37
       3.860171e-06 1.8528614e-06 1.0609009e-05 8.8097795e-06
000140 9e 3f c8 36 75 35 29 35 8f 49 ea 36 a8 cc 10 37
       5.9678705e-06 6.3035196e-07 6.982307e-06 8.630719e-06
000150 77 75 42 34 a0 4d df 36 f1 4a 30 36 70 04 4b 37
       1.8110391e-07 6.6549546e-06 2.6269665e-06 1.2100776e-05
000160 f2 a7 a4 35 58 a2 a4 36 4a eb d1 36 d1 b3 39 36
       1.2267831e-06 4.90648e-06 6.2560766e-06 2.7671815e-06
000170 9b bb ea 35 11 ee 0b 36 27 25 49 36 7d 86 03 37
       1.7488959e-06 2.0851187e-06 2.997296e-06 7.8395215e-06
000180 95 22 c2 35 72 49 54 36 c7 1b 49 36 3b 62 25 36
       1.4464191e-06 3.1633213e-06 2.9967503e-06 2.4644094e-06
000190 57 c5 5d 36 c0 c3 4d 36 70 ad 5c 35 2d ac 37 36
       3.3046433e-06 3.0661322e-06 8.220877e-07 2.7369344e-06
0001a0 ed 8c a0 36 79 b6 c7 36 74 ad a4 36 d3 c5 11 35
       4.7847775e-06 5.9519048e-06 4.9077735e-06 5.430458e-07
0001b0 5c 7c 47 36 4d a8 d5 36 3d ea 00 37 83 25 75 34
       2.9725697e-06 6.3674875e-06 7.683932e-06 2.283105e-07
0001c0 19 63 6f 35 54 66 21 36 ff 94 99 36 75 d9 e1 36
       8.9178644e-07 2.4050432e-06 4.5771008e-06 6.730838e-06
0001d0 c2 6c 97 36 ad 56 f3 34 c0 59 23 34 73 55 fd 36
       4.5128118e-06 4.5325342e-07 1.5213209e-07 7.549935e-06
0001e0 50 79 09 37 c3 65 b0 36 91 55 08 37 b2 36 f3 35
       8.194082e-06 5.2570554e-06 8.126154e-06 1.8120829e-06
0001f0 fa b2 1c 37 50 06 b0 36 20 14 5d 36 86 72 84 36
       9.339996e-06 5.2459436e-06 3.294328e-06 3.947239e-06
000200 e9 90 d6 36 c8 b5 ef 36 2d f0 17 37 90 7d 0d 37
       6.3945668e-06 7.143917e-06 9.056222e-06 8.43349e-06
000210 d9 8b fc 36 29 ed 6a 35 8a be e3 35 94 89 20 35
       7.5264657e-06 8.7516906e-07 1.6968272e-06 5.980485e-07
000220 df b3 ce 36 b4 53 2a 34 99 4b 25 35 cc 16 d5 36
       6.160218e-06 1.5862935e-07 6.15773e-07 6.3505486e-06
000230 85 2f c2 35 50 d1 59 36 f1 33 36 36 25 70 c3 34
       1.4467956e-06 3.2457356e-06 2.7150347e-06 3.6403176e-07
000240 6c 56 c6 36 cf 4c e0 35 5c b0 34 35 c4 65 15 35
       5.9109207e-06 1.6711655e-06 6.731186e-07 5.5654914e-07
000250 19 c2 d6 34 b5 16 0a 37 d6 a1 fc 35 75 c6 19 35
       4.000183e-07 8.230728e-06 1.8822564e-06 5.7285735e-07
000260 4d 94 51 35 31 70 3d 35 ad 8c 5e 36 61 c0 06 37
       7.8074373e-07 7.0571247e-07 3.3162462e-06 8.031814e-06
000270 b6 e6 83 35 16 32 a0 36 57 bd cb 36 f9 00 42 36
       9.827406e-07 4.7742024e-06 6.0719135e-06 2.890882e-06
000280 dc 08 b2 36 8a 99 2d 35 19 85 ba 35 b9 25 2e 36
       5.3058448e-06 6.467095e-07 1.3896816e-06 2.5949978e-06
000290 21 96 0e 37 37 b6 ae 36 c6 1c d5 36 a6 f3 7e 36
       8.498814e-06 5.2068167e-06 6.3512443e-06 3.7990771e-06
0002a0 6c 4c 1b 37 0e 8a ed 36 bb 80 14 37 56 4b d4 36
       9.256513e-06 7.079222e-06 8.85146e-06 6.3268626e-06
0002b0 69 98 04 37 74 32 fc 36 62 d9 aa 36 f0 79 6a 36
       7.903299e-06 7.5160588e-06 5.0917015e-06 3.4939694e-06
0002c0 28 b6 1f 37 71 ac 9f 36 74 53 f9 36 63 df 80 36
       9.51955e-06 4.758644e-06 7.4304935e-06 3.840703e-06
0002d0 f9 6a 28 37 1f 1e eb 36 99 cb 19 37 40 8d 24 36
       1.0038487e-05 7.0070523e-06 9.166914e-06 2.4520123e-06
0002e0 13 d8 8e 36 a0 b3 d7 35 05 22 fa 35 d1 99 c7 34
       4.257084e-06 1.6071026e-06 1.8636352e-06 3.7178555e-07
0002f0 e4 92 ce 34 a6 32 10 37 99 61 c2 36 7e c0 74 36
       3.8477367e-07 8.594861e-06 5.7930124e-06 3.6470879e-06
000300 3a 4c 7a 35 96 1b fe 33 dd 3c 85 33 1a 54 16 35
       9.324318e-07 1.18328146e-07 6.204366e-08 5.600174e-07
000310 6e ae 7f 35 af fd 7c 35 c7 b1 97 35 14 07 48 35
       9.524873e-07 9.4246474e-07 1.1302117e-06 7.4516106e-07
000320 47 30 05 34 ec ee c2 33 77 7e 7f 35 85 78 34 33
       1.2404153e-07 9.0772886e-08 9.5178933e-07 4.2019128e-08
000330 e6 50 74 34 2c 8d d7 34 72 89 7b 35 69 42 b2 34
       2.2753702e-07 4.0149587e-07 9.3704796e-07 3.3203403e-07
000340 6a 5a 63 35 40 1f 33 35 0e 89 91 35 30 c2 de 34
       8.469566e-07 6.672817e-07 1.084323e-06 4.1492012e-07
000350 7f 5f 10 35 4c 3c 14 35 bd 40 c1 34 b2 94 48 35
       5.3783145e-07 5.522204e-07 3.5996155e-07 7.4722186e-07
000360 b4 07 d4 34 76 d6 4b 35 d1 0a 8d 35 37 74 51 35
       3.9493682e-07 7.5935475e-07 1.0508467e-06 7.802768e-07
000370 ee d9 9f 33 42 6b e6 34 e0 67 05 35 cd d7 b1 34
       7.443656e-08 4.291888e-07 4.969752e-07 3.3125835e-07
000380 d7 d0 31 35 d6 ca 72 34 76 da f9 33 9a 81 4e 35
       6.624154e-07 2.2611798e-07 1.1634704e-07 7.6929575e-07
000390 2d fe 9c 35 5b 94 0f 34 70 03 46 34 00 6a 0d 34
       1.1696881e-06 1.3371884e-07 1.8441438e-07 1.3170211e-07
0003a0 cb aa a0 34 ed 6d f4 34 b3 ec 5d 34 e9 78 55 35
       2.992659e-07 4.5528523e-07 2.066834e-07 7.952463e-07
0003b0 5e 69 ed 33 13 f7 9f 34 cc 78 56 35 44 6c 9e 33
       1.1055339e-07 2.9795828e-07 7.9896995e-07 7.377142e-08
0003c0 b4 6b a9 36 1b c2 0c 37 93 63 50 34 8b 50 08 36
       5.049131e-06 8.389844e-06 1.9407734e-07 2.0312461e-06
0003d0 27 d6 d9 35 62 fa e8 35 00 92 8e 34 33 77 4d 37
       1.6230086e-06 1.7358218e-06 2.655579e-07 1.2246705e-05
0003e0 26 1a 3d 35 cf a2 cc 36 32 ba 23 36 9b 3f c6 36
       7.044604e-07 6.098627e-06 2.4397273e-06 5.9082645e-06
0003f0 eb e7 97 35 75 fc 80 35 cf 14 26 36 fc b8 64 36
       1.1317874e-06 9.610218e-07 2.474804e-06 3.4082323e-06

exp_avg f4 [128]
000000 c7 e1 71 3a ae 30 9e 3a 13 0e 8f 3a 08 78 9e 3a
       0.0009227064 0.0012068951 0.0010914229 0.0012090215
000010 53 07 02 ba fe 91 a4 3a 7d 9b 10 ba 4b 89 0c 3a
       -0.0004960198 0.0012555716 -0.00055163336 0.00053610344
000020 62 05 3d ba 35 53 87 3a 1e ae b8 3a 2e ec 99 3a
       -0.000721058 0.001032448 0.0014089977 0.0011743361
000030 64 9f 43 3a 9d bb a0 3a f7 f0 24 3a 4a 19 ea b9
       0.0007462411 0.0012262944 0.000629201 -0.000446508
000040 73 9b 46 ba a6 f9 98 3a 8b 9f 56 3a 17 1d 5d 3a
       -0.00075762643 0.0011671081 0.0008187226 0.00084348157
000050 32 da df ba 70 0f 9e 3a a7 65 72 ba de 0e 48 ba
       -0.0017078577 0.0012059044 -0.0009246715 -0.000763161
000060 be af cd 39 88 62 86 b9 59 5f 96 3a 61 9a 99 3a
       0.00039231585 -0.00025631883 0.0011472508 0.0011718982
000070 cc ad 36 ba f1 ae 51 3a 83 d0 76 ba b0 46 9a 3a
       -0.0006968647 0.00079987856 -0.0009415226 0.0011770334
000080 d6 f2 13 38 28 3a a6 3a d4 a2 98 ba 2b 70 0b ba
       3.527369e-05 0.0012682127 -0.0011645206 -0.00053191435
000090 7f 3b 4f 3a d7 bd dc ba 02 1f 49 3a 6b 93 d8 ba
       0.0007905289 -0.0016841245 0.0007672162 -0.0016523426
0000a0 9b ba 90 ba 96 4a 35 bb 1a fb f8 39 38 40 a8 ba
       -0.0011041941 -0.0027662865 0.0004748933 -0.0012836521
0000b0 db 04 33 ba 78 84 bd b9 c5 6a e2 39 22 54 5e 3a
       -0.00068290316 -0.00036147586 0.0004318563 0.00084811647
0000c0 6d 5a 3d b9 61 0f 32 ba be 02 ab 39 c5 93 64 3a
       -0.00018058131 -0.0006792453 0.00032617705 0.0008719529
0000d0 12 f2 aa ba e1 97 00 ba 8f d2 22 3a 8d e2 9a b9
       -0.0013042113 -0.0004905444 0.0006211185 -0.00029541962
0000e0 3c 15 88 3a d7 5f 83 ba 40 6c 03 3a 43 7e 06 ba
       0.0010382305 -0.0010023069 0.0005013384 -0.0005130509
0000f0 0b 2a 81 39 cf 5f 80 bb b2 70 d6 b9 fa 93 98 3a
       0.00024636122 -0.0039176713 -0.00040901225 0.001164078
000100 99 0f 9f 3a 32 e0 24 ba 83 6d 81 3a ea 51 80 ba
       0.0012135386 -0.0006289511 0.0009874556 -0.0009790037
000110 ac d8 f3 37 6b a7 cd b9 c3 ba 25 ba fb 38 70 3a
       2.9068753e-05 -0.00039225383 -0.000632208 0.0009163764
000120 d9 71 69 3a 54 39 e3 b9 a9 2a 08 ba 91 d0 c4 ba
       0.0008905209 -0.00043339527 -0.0005194345 -0.0015015771
000130 f2 b8 57 3a 34 f7 bb b9 da 1c b2 ba d8 cb 22 ba
       0.0008229158 -0.000358516 -0.0013588921 -0.00062101847
000140 9e 07 33 3a ce ae 3b 3a 4d c7 82 b9 1c 0c 83 3a
       0.0006829443 0.0007159532 -0.00024944023 0.0009998116
000150 79 97 9a 3a 3f cf a5 ba 05 2c 14 ba 7a d8 37 ba
       0.001179441 -0.0012650265 -0.00056523114 -0.00070131535
000160 51 eb 0b ba 23 25 cd ba af ea 9d ba 62 6f 5e 3a
       -0.0005337494 -0.0015651326 -0.001204809 0.0008485225
000170 60 84 b0 b8 cf ae 6e 3a 5a 61 b2 ba 8a 20 8e ba
       -8.416991e-05 0.0009105028 -0.0013609335 -0.0010843438
000180 30 90 8a ba 4a 49 f3 39 b2 41 ba 3a 05 06 09 bb
       -0.0010571536 0.00046403176 0.0014210253 -0.002090813
000190 3c cc 42 bb 59 dd 82 3a 86 03 20 3a 42 23 3d ba
       -0.0029723784 0.000998418 0.00061040407 -0.00072150317
0001a0 9c df 05 ba da 4a 20 3b 90 b7 ad 3a e8 60 d9 b9
       -0.0005106868 0.0024458678 0.0013253558 -0.00041461666
0001b0 1c 37 7a ba e8 30 4c ba 1e 13 2c ba 33 d0 11 3b
       -0.0009544955 -0.000778927 -0.0006564128 0.002224934
0001c0 d5 03 72 ba 46 4a c9 ba a4 27 25 ba 44 3d 7f 3a
       -0.00092321384 -0.0015357218 -0.00063001574 0.00097366073
0001d0 da 64 e1 b9 01 8e ac ba f9 bc 9e 3a e7 a7 9c 3a
       -0.00042990485 -0.0013164879 0.0012110762 0.0011951894
0001e0 e3 bf 0f ba 28 6e 77 3a 9d e4 1d ba d3 1f a1 ba
       -0.00054836104 0.0009438717 -0.0006023141 -0.001229281
0001f0 d9 64 78 3a be c9 fe b9 06 43 25 3a 15 6f 0b ba
       0.00094754767 -0.00048596965 0.0006304238 -0.0005318982

exp_avg_sq f4 [128]
000000 64 80 0c 38 6f 5a 8a 38 7d b3 43 38 89 9b 59 38
       3.3498174e-05 6.597197e-05 4.6658784e-05 5.1881685e-05
000010 1d b3 b4 36 7b 55 99 38 0a 8f d3 36 8a e0 21 37
       5.3852696e-06 7.3115305e-05 6.304942e-06 9.648627e-06
000020 bc b0 e9 37 e7 54 fc 37 58 e6 cd 38 96 31 83 38
       2.7858063e-05 3.0080277e-05 9.8180666e-05 6.255803e-05
000030 57 2d 9d 37 d5 6c 7f 38 82 89 66 37 ca f3 be 36
       1.8736971e-05 6.0898095e-05 1.3741084e-05 5.690822e-06
000040 50 c4 de 37 32 7f 71 38 ca 85 02 38 9e 04 9c 37
       2.6555877e-05 5.7577337e-05 3.1119016e-05 1.85988e-05
000050 92 d7 f5 38 9e a6 5b 38 d4 d2 0e 38 58 f1 db 37
       0.000117226635 5.2368843e-05 3.4051787e-05 2.6219219e-05
000060 99 46 50 36 32 d8 26 36 b3 25 86 38 87 41 70 38
       3.1035509e-06 2.486177e-06 6.39664e-05 5.7281486e-05
000070 1b 38 a9 37 6f 3c b9 37 88 71 0f 38 4e 1b 93 38
       2.0172496e-05 2.208186e-05 3.419959e-05 7.014592e-05
000080 eb 20 2a 33 32 02 2d 38 1e 1d 52 38 a4 61 68 37
       3.9611148e-08 4.124846e-05 5.009502e-05 1.3851011e-05
000090 0a 96 cb 37 6c da b9 38 24 ef c9 37 c7 d5 a9 38
       2.4269353e-05 8.862172e-05 2.4072426e-05 8.098367e-05
0000a0 6c b0 4b 38 ff 83 5f 39 ea 42 12 37 30 f3 66 38
       4.8563277e-05 0.0002131611 8.717858e-06 5.506276e-05
0000b0 2e 81 d7 37 e3 71 05 37 50 f3 b7 36 b6 bc f7 37
       2.5690151e-05 7.953934e-06 5.4821503e-06 2.953257e-05
0000c0 12 e0 1f 36 3f cb 87 37 84 03 36 36 db f6 bb 37
       2.3823272e-06 1.6187898e-05 2.712216e-06 2.2407088e-05
0000d0 93 7e 57 38 a4 44 91 36 4c ae fd 36 bf 9f c2 36
       5.1377876e-05 4.3293276e-06 7.5602784e-06 5.8002474e-06
0000e0 99 69 1c 38 e9 3a de 37 50 c5 a5 36 9a 57 18 37
       3.7291644e-05 2.6491894e-05 4.9403534e-06 9.080302e-06
0000f0 62 db 05 35 20 cc c7 39 41 0e c7 36 10 43 98 38
       4.9865605e-07 0.00038108323 5.9323215e-06 7.260416e-05
000100 88 0f 3b 38 89 01 95 37 3f d5 0a 38 87 f0 10 38
       4.459874e-05 1.7762899e-05 3.3100365e-05 3.4556284e-05
000110 0a ee 5e 33 ed a9 e0 36 ce 16 7e 37 15 4d 43 38
       5.1904898e-08 6.695502e-06 1.5144889e-05 4.656341e-05
000120 cc 61 91 37 bd 42 14 37 1b 7b ac 36 23 0c 75 38
       1.7330887e-05 8.837026e-06 5.140331e-06 5.8423855e-05
000130 89 0a ed 37 1b 74 8c 36 d3 1c c2 38 82 00 9d 37
       2.8257507e-05 4.1858416e-06 9.25601e-05 1.8716095e-05
000140 75 16 89 37 18 19 71 37 76 60 36 36 49 ab 31 38
       1.634213e-05 1.4370562e-05 2.717626e-06 4.235961e-05
000150 c8 06 72 38 b9 71 84 38 68 23 0f 37 43 30 92 37
       5.770361e-05 6.315433e-05 8.531708e-06 1.742703e-05
000160 31 02 4f 37 c6 68 b5 38 26 b6 83 38 ed 1a e5 37
       1.2338672e-05 8.650268e-05 6.2804946e-05 2.7311466e-05
000170 d1 29 0a 35 a4 5a 01 38 6c e5 8d 38 3d d5 45 38
       5.1469857e-07 3.0840412e-05 6.766137e-05 4.7167054e-05
000180 d5 63 65 38 f8 c0 09 37 cd 40 9c 38 23 ea 0a 39
       5.469083e-05 8.210765e-06 7.45073e-05 0.00013247928
000190 00 75 59 39 7a 8d 45 38 17 c5 8f 37 88 80 d5 37
       0.00020738319 4.710022e-05 1.7138706e-05 2.545143e-05
0001a0 0e ae 92 37 50 bf 78 39 a7 7a 5b 38 ad 62 4f 37
       1.7485607e-05 0.00023722393 5.2327898e-05 1.2361136e-05
0001b0 98 58 f4 37 8f e7 fb 37 97 d6 cf 37 50 53 25 39
       2.9128321e-05 3.002936e-05 2.477625e-05 0.00015766663
0001c0 7e be fc 37 38 17 9e 38 40 c1 5d 37 77 55 06 38
       3.0129446e-05 7.538352e-05 1.3217621e-05 3.2027685e-05
0001d0 e3 a1 72 37 d7 0d 64 38 f8 96 99 38 e8 a6 66 38
       1.4462016e-05 5.4372325e-05 7.323729e-05 5.4991717e-05
0001e0 be fa eb 36 b7 ff f7 37 c2 ba 93 37 0b d1 88 38
       7.032736e-06 2.9563771e-05 1.7610731e-05 6.523923e-05
0001f0 33 d4 e9 37 94 cb 6b 37 84 ff 8d 37 4a e6 68 37
       2.7874577e-05 1.4054491e-05 1.6927494e-05 1.3881896e-05
