our-vTR/10_fold_lightning_logs/dataset1/fold_6/version_3/checkpoints/epoch=13-step=489_fold6.ckpt (torch, 132433 bytes, 18 tensors)

conv1d.weight f4 [128, 4, 12]
00000000: 832f b4bd c94a 393e 4499 ae3d b25c 66be
00000010: 1a0b 613e 339f b9bc 2ad0 ca3c 5b6f 32be
00000020: be68 39bd 402e 5b3e 52ef fd3d 8e6c 84bd
00000030: 01c4 f73d 95a4 89bd 0949 e33d bd0e 21bd
00000040: 929c 1abe 7c5b 02bd c607 693e 9076 073e
00000050: 0671 57be 37d8 d73c 0973 3abe c56a e4bd
00000060: 3f81 0dbe 6e15 253d 2968 dabd 316f 0d3e
00000070: c25b de3d 18d7 0fbe 365d fe3c a286 0bbe
00000080: 5ad4 4c3e a7b3 a3bd 8958 3bbd fc47 4ebe
00000090: 5342 3d3d 9f3b bd3d 542a 17be 87df 23be
000000a0: 9076 57bd 46f8 fcbd f54f 0e3d e4ab b8bd
000000b0: 0b6d e73d d98c 8fbd 7ac2 96bd a8f2 803e
000000c0: 8226 dd3d 18e1 efbd 2307 a43d ae8f e03c
000000d0: b864 413d 9f29 38be 10af aebd a78b 3f3c
000000e0: d377 923b 804b 88be 49c5 633d 795a 55bd
000000f0: 93b3 323e f24b 003e 519f 2dbd b20c b8bd
00000100: e99b 103e 0f5f 253e 5db8 26be 566e a83d
00000110: f2e3 5a3e f86b bebd 3310 07bd d482 afbd
00000120: b31f 5abe 8a04 e3bd 91d3 98bd 1341 32be
00000130: a228 0ebe 98fa 07be 9859 2d3d e9d1 dd3c
00000140: 948c 863d 6b6f 9dbe 5147 883b ab78 f23d
00000150: a10f 6dbe c9c4 e1bc facb 23be 9796 493e
00000160: 93d7 60bd 3f35 6c3d 27a9 1abe 72cb 983c
00000170: ea78 ad3c 18df 013e 8b19 35be ca02 90bd
00000180: 669b 2dbd 501b babd 1a78 07bb 7e83 503e
00000190: b557 bcbb 46f2 a5bd 9090 07be bffe 28be
000001a0: 3c9a 963c 83fe 13bc e1a2 ed3d afb7 15be
000001b0: 68ea 8fbd d5f9 41bc 60fe 1f3e 836e 73be
000001c0: 70c1 18be 3a4a d4bd 7535 493e 86e6 be3b
000001d0: 6b50 81bd f4fd 2ebe 8555 8abe b05f ca3d
000001e0: 2f61 ca3d 1c0b ac3d fab0 d13d 8236 10be
000001f0: c8b7 aa3d 1d20 2d3e a0c2 313c c4c2 ecbd
00000200: 8e6a 663d 1fc8 c93d 1851 8e3d 0ff7 c63d
00000210: 1314 a13d 9d82 89be 7436 80bd 4c3c 17be
00000220: 6a85 203e e6ef 86be 0224 c0bd 0c3b 0b3e
00000230: b8f8 bdbd 0412 abbd 2175 4ebd 8976 0ebe
00000240: 11f1 243c 7ce5 ae39 0e46 3bbe 931c cabd
00000250: 9c65 57be b09e 053e 3d84 b2bd 8b7a d9bd
00000260: 3bf5 1ebe af78 79bd 84dd aabc cad6 1b3e
00000270: 0a6d 57be 238d ed3c b940 c63d b48c f5bd
00000280: f36f 5bbc e4cd 2fbe e87e d8bd b21d 433d
00000290: e081 4c3e b21d b23d f1e6 e23c abfe 4ebd
000002a0: 2650 a73c a63d c63d 468f 2d3d 9cf5 763e
000002b0: 9125 d23c 38b7 233d 731f 2f3e dbc5 583e
000002c0: 3c82 973d c2de 393d 3e44 833d 1916 eebd
000002d0: 1b04 443e 973b 053e d68a a33d 3f94 253d
000002e0: 6105 b9bb 2098 34be 7686 87be e62b 16be
000002f0: 5460 02be 6286 263e 4b89 c53d da4c 223d
00000300: 1ed7 e03c 4a48 85bd 7f92 e1bd 30b0 853d
00000310: 77b8 003e 3d6b 943c 76bc 003e dd97 e7bc
00000320: f2a7 2cbe 92b7 653b f685 253e 5e2c acbd
00000330: 336b debd d5d9 2dbd e3c5 fa3d 4cda 6abd
00000340: 8d8b c53d 5751 b6bd 7d98 33be 23c0 9fbd
00000350: c6f8 20be b51b 3a3e 7215 a63b 3d7f 7a3d
00000360: 90ff 04bd f520 143e 4612 213e 344d fe3d
00000370: 631f 23bd 2410 f4bd dc91 cfbd 5b1d 50be
00000380: 2e23 943d 10cc 06be 50b3 36bb 3456 0e3d
00000390: d74b 513e 4fb8 dbbb 2722 7ebd 06c5 c7bd
000003a0: ee3b 283e 2ff2 9b3d 6bfb 8abc 95e1 dc3d
000003b0: 099c 91bc ce85 463c 4d7c be3d 534c d8bd
000003c0: 519f 5d3d 1a3f c63d 6cbb 4ebe 66a2 3bbe
000003d0: 707b 0bbe eb1c 81bd 297d 28be fd09 b83d
000003e0: bb58 1dbe 0688 f2bd 7b1f 6ebd d156 3339
000003f0: dd7d 70be 3672 2fbe a7cb 2c3b a01f 4ebe
-0.08798125 0.18094935 0.08525327 -0.22496298 0.21976891 -0.02265892 0.024757463 -0.17425291
-0.045265906 0.21404362 0.12399162 -0.06466018 0.12097932 -0.06720845 0.11097915 -0.039320696
-0.1509879 -0.031825528 0.22756872 0.13228822 -0.21039209 0.026348216 -0.18207945 -0.11153177
-0.13818835 0.04030364 -0.10664398 0.13811947 0.10857345 -0.14046896 0.031050306 -0.13625577
0.2000288 -0.0799325 -0.04573873 -0.20144647 0.04620583 0.092398874 -0.1476224 -0.16003238
-0.052603304 -0.12352042 0.03474422 -0.090171605 0.11300095 -0.070092864 -0.07361312 0.25185132
0.107983604 -0.11712855 0.08009174 0.027412262 0.047215194 -0.17984627 -0.08529484 0.011691011
0.0044698506 -0.26620102 0.055608068 -0.052088235 0.17451315 0.12528971 -0.042388264 -0.089867964
0.14121975 0.16149543 -0.16281267 0.0822417 0.21376017 -0.09297937 -0.032974433 -0.08569875
-0.21301155 -0.1108485 -0.07462228 -0.17407636 -0.13882688 -0.13279188 0.04232177 0.027077632
0.06569782 -0.30749068 0.004158892 0.11839422 -0.23150493 -0.027559655 -0.1599578 0.19686352
-0.054893088 0.057667967 -0.15103589 0.018651698 0.02117582 0.1268276 -0.17685525 -0.07031782
-0.042384528 -0.09087241 -0.0020670951 0.2036266 -0.00574776 -0.081028506 -0.1323874 -0.16503428
0.018384092 -0.009032848 0.11603332 -0.14620851 -0.07027131 -0.01183935 0.1562438 -0.23772626
-0.1491754 -0.1036572 0.19649298 0.0058258204 -0.06314167 -0.17089063 -0.2701837 0.09881532
0.098818175 0.084005564 0.10238834 -0.14083293 0.08335835 0.16906781 0.010849625 -0.11560586
0.056253962 0.09852623 0.06949061 0.097150914 0.07865157 -0.26857463 -0.06260386 -0.14769095
0.15675893 -0.26354903 -0.09381868 0.13596743 -0.09275955 -0.083530456 -0.05040467 -0.13912405
0.01006724 0.00033358845 -0.18288442 -0.09868731 -0.21034855 0.13048816 -0.08716629 -0.10619076
-0.15523235 -0.06090611 -0.02085758 0.15218654 -0.21037689 0.028997963 0.096803136 -0.119897276
-0.01339339 -0.17168385 -0.105710804 0.04763574 0.19971418 0.0869707 0.027698012 -0.05053584
0.02042396 0.09679727 0.042372964 0.2411713 0.025652679 0.039969653 0.1710184 0.21169226
0.07397887 0.045378454 0.064095005 -0.116253085 0.19142191 0.13011013 0.07985465 0.04042458
-0.005646393 -0.17636156 -0.26469773 -0.14665183 -0.12732059 0.162622 0.09645327 0.039624073
0.027446326 -0.06507929 -0.1101427 0.06527746 0.12570368 0.018117541 0.12571892 -0.028270656
-0.16860941 0.0035052043 0.16164383 -0.084069 -0.108602904 -0.04244407 0.12244775 -0.05733709
0.09645758 -0.08902233 -0.17538638 -0.07800319 -0.157199 0.18174632 0.0050684744 0.0611565
-0.032470286 0.14465697 0.15729627 0.12417069 -0.039824855 -0.11917141 -0.10135242 -0.20323698
0.072332725 -0.13163781 -0.0027877875 0.03475018 0.20439087 -0.006705321 -0.06204429 -0.09754376
0.16429111 0.07614552 -0.016965589 0.10785214 -0.017774599 0.012116862 0.09301052 -0.10561433
0.054107014 0.096800044 -0.20188683 -0.18323669 -0.13621306 -0.06304344 -0.16453995 0.0898628
-0.15365879 -0.11842351 -0.05813549 0.00017103112 -0.23485513 -0.17133412 0.0026366503 -0.20129251

conv1d.bias f4 [128]
00000000: ebae 8d3c 1eb2 75bd 49e7 d3bd e395 15bd
00000010: 82ea 3e3c 025a c13d fbff 47be 9470 053e
00000020: dd3d 713d 97e5 253d 5743 6cbb fa14 d8bc
00000030: 73cd 813d 48bf 0d3e 23b3 743c 100b d53d
00000040: f50c c93c d15c abbc dff6 d73d 5617 df3d
00000050: 7986 0e3d df56 4abd 48c6 be3d f757 d83c
00000060: 8373 31bd 4ebd debc fe06 213e 2b77 ffbc
00000070: 7fef 193d 5890 02bd 7c39 10be 25c6 493d
00000080: bf8b 2bbd 4228 1c3d f14a 68ba af9e cd3c
00000090: d7d0 8bbc e17a 5ebd 4f4e 9d3d ebef 00be
000000a0: e2df a53d 81ee 80bd 6aba 8c3d b3be acbd
000000b0: e6e4 9bbd e02e aa3c 055e b33d 2a54 64bc
000000c0: 4802 c53c 8fba 21be 5692 123c d0f8 af3d
000000d0: dca7 3b3d 79cc a83d f477 853c 78f8 25bc
000000e0: 7328 c63d b503 18be 1ce9 5e3c f192 25be
000000f0: 055a 263d 5908 adbd 422d 04bc cba8 1c3e
00000100: a659 e23d dac4 abbc 1b6a d6bc d3e4 b4bd
00000110: 2a1b babd fa6d d8bd f761 45bd fa2d 44bc
00000120: 80ef 12bd 8a48 9f3c 8cd6 ac3d 060f bd3d
00000130: 5594 aa3d 800d 0abe e869 953d ba9f f53d
00000140: 80ea 06bd a80d d03d 1c7f 443d cd5a 40bd
00000150: f6e2 d7bd 0ac5 893d 6f84 babc 54ff 32be
00000160: 6cab 1ebe ea2b 5bbd 3baf aabc 3ae0 3f3b
00000170: 68aa 2c3c 7fc9 f3bc 115a a9bd 23f1 b4bd
00000180: 3110 25be 7a3c 163d 6bc7 14be 4810 bbbd
00000190: c5d8 2bbe af54 6d3d ba96 d8bd 0260 c9bc
000001a0: 33ad 46bb 22b1 3b3d 02d6 7dbd bf99 dabd
000001b0: 86e7 573d bf5d adbd 3fb8 f13d cad7 00be
000001c0: 577f cebb 8e23 d5bd f317 ea3c 8480 e1bc
000001d0: 7713 f33c bc39 7dbd 1b85 5a3c 4a11 dabd
000001e0: d54c 03be 44e7 01be 2db0 c6bd f220 14be
000001f0: fe0e 0d3e 21b6 4f3d bcdd 073e 757d a23c
0.017295321 -0.05998432 -0.103468485 -0.036519896 0.011652591 0.09440996 -0.19531243 0.13031226
0.058896888 0.040502157 -0.003605088 -0.02637719 0.063380145 0.138425 0.014935288 0.10402501
0.024542311 -0.020918282 0.10545134 0.10893123 0.034796212 -0.049399253 0.09315163 0.026409132
-0.04332305 -0.027189877 0.15725324 -0.031184753 0.037581917 -0.03187594 -0.14084429 0.04926123
-0.04188132 0.03812433 -0.0008861265 0.02510008 -0.017067356 -0.054316405 0.07680952 -0.12591521
0.08099343 -0.06295491 0.06871493 -0.084348105 -0.07612018 0.020774305 0.08758167 -0.013936082
0.02404894 -0.15793823 0.008946022 0.08592379 0.04581438 0.08242125 0.01629255 -0.01013004
0.09675684 -0.14845164 0.013605382 -0.16169335 0.040613193 -0.08448858 -0.008067431 0.15298764
0.11052255 -0.02096789 -0.026173642 -0.08832707 -0.090872124 -0.10567851 -0.04818913 -0.011973852
-0.035872936 0.019443769 0.08439359 0.09231381 0.08329073 -0.13481712 0.07295591 0.11993356
-0.03293848 0.10158855 0.047972783 -0.046961594 -0.10541336 0.06727035 -0.022768227 -0.17480212
-0.1549508 -0.053508677 -0.02083551 0.0029277937 0.010538675 -0.029759167 -0.08269132 -0.08835056
-0.16119458 0.03667877 -0.14529197 -0.09133965 -0.1678191 0.05794209 -0.10575624 -0.024581913
-0.0030315637 0.045823224 -0.061971672 -0.10673856 0.052711032 -0.08465146 0.1180272 -0.12582317
-0.006301801 -0.10407172 0.028575873 -0.027527101 0.029672367 -0.061822638 0.013337399 -0.10647829
-0.12822278 -0.12685877 -0.097015716 -0.14465693 0.1377525 0.0507108 0.13268179 0.019835213

linears.0.weight f4 [32, 128]
00000000: fade b5b8 da42 eeb8 0b48 2db7 557e a139
00000010: e075 9db7 92b0 0bb9 ecff 3cb9 4a08 ceb8
00000020: 0237 7db8 d6d4 1ab9 68a6 08b9 77e3 d639
00000030: ca00 2139 bd1f 24b9 8d0d 01b9 1e95 0039
00000040: aef2 3fb9 cbc8 6038 1836 0739 2f11 03b9
00000050: e209 fdb7 7e5a 3639 9254 7bb9 25d4 8eb8
00000060: d0e8 79b8 5448 0739 c520 56b8 1776 0339
00000070: 78fe 9a38 5daf a438 cb0d a739 7c97 a338
00000080: b049 6db8 48f7 84b9 f377 2bb9 f9c0 0c39
00000090: 3dec bb38 6ebc 8837 a99f 73b8 9c74 0cb8
000000a0: b146 0ab9 9912 f8b8 5835 9ab5 5c83 b5b8
000000b0: 07e5 cf38 4f20 3bb8 4233 ea37 e162 db38
000000c0: 0c0e d438 5168 fd35 f96d 8438 2d5e a038
000000d0: b254 5bb9 b487 70b9 dc46 abb5 7e5a e538
000000e0: f7bd a039 0619 9538 ec8f a0b8 d9fb f538
000000f0: f568 c4b8 1965 83b9 6af0 6b39 c2e9 92b8
00000100: b07a 60b8 978c 4238 3fbc 4bb9 8f60 55b9
00000110: e0c0 3fb9 0884 2538 6981 ccb7 580f 1cb8
00000120: a18d 4636 9a20 6cb7 a641 b2b8 24d1 feb7
00000130: 2156 27b9 fda1 38b9 72fc 0038 e7f7 28b9
00000140: 09e1 cfb8 1988 7eb8 ec56 01b8 6d4c 03b8
00000150: e1f8 5ab8 6276 75b8 8aaf 92b4 8850 5438
00000160: 4f68 c738 493f 82b9 4258 b638 4367 eb38
00000170: a46a 0bb9 03e5 fe37 6784 91b8 408d bab8
00000180: 4365 8bb8 9c51 7638 dc3c 0738 54d6 b839
00000190: 6232 bbb8 ba0a b2b8 2464 9a39 5c8f 49b8
000001a0: 89c1 a7b8 421e 41b9 b12c 36b9 9118 1ab9
000001b0: f314 53b9 222b 99b9 2f4a 3138 43a8 2e37
000001c0: d161 9f39 728f 5538 5d47 fd38 9013 afb5
000001d0: e372 3f38 b114 da37 bf26 1fb9 0b5c ed39
000001e0: 85cc b7b7 c40d f838 9704 65b8 00c9 90b8
000001f0: e563 22b7 ecf0 3a38 701f df38 23f6 35b9
00000200: 80ce d3bc 1546 62bc 1bfb 22bc 7186 1ebc
00000210: 99c5 623b 24e4 2bbc fdab 953c 9a8f 10bd
00000220: 4d7c 463d 1f6f 66bd c987 b4bd ded3 85bb
00000230: 53ae f4bb 4150 91bd 718b bebb c9b8 b73b
00000240: 6e8a bd3c 72e4 aebb cbf7 a5bb 81fa a0bb
00000250: 9088 c93d 3c71 8abc cf8d 873d d651 643d
00000260: 4855 87bc 16c3 133a d43e 44bd 98c3 2abd
00000270: 70b8 6a3d e53a 65bb f77b 233d 5724 2cbc
00000280: e8d8 9abc ee80 3bbd fb29 863c 4d4d 8d3c
00000290: 5068 b2ba f520 443d 1b50 d2bb a3bf 443d
000002a0: 48ff 843c 45bd b63d 119f 99ba 110b 563d
000002b0: a232 5c3c 701c 1b3c 7787 f6bb 6ff2 76bc
000002c0: 73cc d439 51fc 723d e7c9 39bd 5cb4 a9bc
000002d0: 9a27 323d 8b79 0b3d b483 ebbb 9c3d 9a3a
000002e0: 7482 cbbc 7acd 9a3d f54b 01bc 210a 533c
000002f0: a11a 47bc 8f30 553e 2f02 943c 13b2 61bb
00000300: 1558 8fbc efe7 9d3d e515 1fbc 1fc7 0f3c
00000310: c0c8 553a b44a 1f3a e172 633b fb11 9bbc
00000320: e103 b8bc d554 e13c 754d d73c 0758 6dbc
00000330: c3f7 f8bb f460 de37 2ab4 fb3c 42e4 ac3c
00000340: b1d9 a4bc 0efa b33c b8b4 e3bb acc0 4cbc
00000350: 68cf f8bb 657d 333d d62b b1bc 10e1 8c3a
00000360: c965 683c 36f1 073d ccf2 d73c e4c0 91bb
00000370: 826d dd3c 3c91 6ebc 8cac 523d f9a9 733d
00000380: 8da1 753c 37a1 8fbb 20d5 2dbd 31d3 b53d
00000390: a406 bf3d 1991 93bc bc9f e4bb be73 e43c
000003a0: a5b9 043d 95cf d2bd 2653 02bd afe4 003d
000003b0: 5c74 7d3c c57c a63c 5610 563b f624 6fbd
000003c0: 0ab6 113d 60d1 863d 54f6 773c 8151 7fbc
000003d0: eb6c 0f3a 966c 9d3c 062f 5fbc 962d fbbc
000003e0: 369d c43c d01e 9ebc 3869 133b 1204 643d
000003f0: e1b0 a4bc 3cb6 283b b9da 8abb 1d78 f53c
-8.672285e-05 -0.000113611764 -1.0328377e-05 0.00030802438 -1.8770748e-05 -0.0001332185 -0.00018024415 -9.8243894e-05
-6.037113e-05 -0.00014765872 -0.00013031962 0.00040986735 0.0001535445 -0.00015652082 -0.00012307447 0.00012262582
-0.00018305585 5.3592765e-05 0.00012894755 -0.00012499535 -3.0164552e-05 0.00017390584 -0.0002396873 -6.810603e-05
-5.958305e-05 0.00012901548 -5.1052095e-05 0.00012537125 7.390691e-05 7.852793e-05 0.00031863 7.800662e-05
-5.657383e-05 -0.0002536124 -0.00016352515 0.00013423328 8.960858e-05 1.6300208e-05 -5.808441e-05 -3.3487202e-05
-0.0001318704 -0.000118290256 -1.1489419e-06 -8.65522e-05 9.913189e-05 -4.4614364e-05 2.7918843e-05 0.000104611514
0.00010111564 1.8880329e-06 6.3147345e-05 7.646936e-05 -0.00020917019 -0.00022938737 -1.2761116e-06 0.000109364264
0.00030659113 7.1095346e-05 -7.656202e-05 0.00011729421 -9.365558e-05 -0.0002506159 0.00022500908 -7.005363e-05
-5.3520023e-05 4.638414e-05 -0.00019429716 -0.00020349234 -0.00018287031 3.946203e-05 -2.4378956e-05 -3.720759e-05
2.9586738e-06 -1.4074287e-05 -8.4999294e-05 -3.0376548e-05 -0.00015958447 -0.00017607953 3.0752686e-05 -0.0001611408
-9.912445e-05 -6.068507e-05 -3.083695e-05 -3.130401e-05 -5.2207037e-05 -5.8522804e-05 -2.732234e-07 5.061974e-05
9.5084884e-05 -0.00024842683 8.6948756e-05 0.00011224907 -0.000132958 3.0385801e-05 -6.938801e-05 -8.895481e-05
-6.646898e-05 5.8726975e-05 3.2243188e-05 0.00035254902 -8.9262394e-05 -8.4896994e-05 0.0002944778 -4.805565e-05
-7.999229e-05 -0.00018417186 -0.00017373521 -0.00014695736 -0.00020130332 -0.0002921457 4.2269177e-05 1.0410385e-05
0.00030399722 5.091675e-05 0.000120772725 -1.304421e-06 4.5644945e-05 2.599726e-05 -0.00015177856 0.0004527274
-2.1910537e-05 0.000118281256 -5.460213e-05 -6.903894e-05 -9.679211e-06 4.457023e-05 0.00010639324 -0.00017353198
-0.025855303 -0.013810654 -0.0099475635 -0.009675608 0.003460264 -0.010491405 0.018270487 -0.0352932
0.048458386 -0.056258317 -0.088149615 -0.0040840944 -0.00746707 -0.07095385 -0.0058149626 0.005606745
0.023137297 -0.0053372914 -0.0050649396 -0.004912675 0.098405 -0.016899697 0.06618845 0.055742107
-0.016520157 0.0005636675 -0.04791148 -0.04169044 0.0573048 -0.003497773 0.039913144 -0.010506711
-0.018902257 -0.045777254 0.01637744 0.017248774 -0.001361141 0.047882993 -0.0064182407 0.04803432
0.016235009 0.08922819 -0.0011720379 0.052256647 0.013439806 0.009467229 -0.007523473 -0.015072449
0.00040588118 0.05932266 -0.045358565 -0.020715885 0.0434948 0.03405146 -0.007187331 0.0011767629
-0.024842478 0.07558723 -0.007891645 0.012880833 -0.012152345 0.20819305 0.018067447 -0.0034438416
-0.017498055 0.077102534 -0.00970981 0.0087755015 0.0008155219 0.00060765 0.0034705924 -0.018929472
-0.022462787 0.027506271 0.026282052 -0.014486319 -0.007597895 2.650961e-05 0.030725557 0.021104936
-0.020123335 0.021969821 -0.0069490336 -0.012497108 -0.007593084 0.043820757 -0.021627348 0.0010748226
0.014184424 0.03318902 0.026360892 -0.004448043 0.027029756 -0.014560994 0.051434085 0.05948827
0.01499213 -0.004383232 -0.04243958 0.08878172 0.093274385 -0.018013524 -0.0069770496 0.027887221
0.032403607 -0.102934994 -0.031817578 0.03146809 0.015469637 0.020323167 0.0032663546 -0.058384858
0.035573997 0.06582904 0.015134413 -0.015583397 0.0005471247 0.019216817 -0.013622051 -0.030661386
0.024000745 -0.019301802 0.0022493135 0.055667944 -0.020103874 0.0025743386 -0.0042374996 0.029964501

linears.0.bias f4 [32]
00000000: d345 f838 10fa 9db9 9937 f537 4fe7 aeb8
00000010: 41ba cbb5 ad72 b2b9 5bc5 98b8 e524 443a
00000020: b327 4fbc 4539 2eb9 7f65 d738 6400 993c
00000030: 5e7f 4fb7 a4f1 0ab9 328c 9638 d9ff 6738
00000040: 9932 f535 b4f6 48b8 4ed5 433d 088d 59b9
00000050: 405d 1c39 ed9b 5339 d186 3ab7 47b7 c93b
00000060: 2f7f b635 bf53 ecbc 91b8 993c 9a86 95b9
00000070: 5678 9137 3930 d9b8 8400 28b7 c7e3 f638
0.00011838567 -0.00030131685 2.9232166e-05 -8.340051e-05 -1.5178886e-06 -0.00034036246 -7.284685e-05 0.00074823044
-0.012643742 -0.00016615268 0.00010270904 0.018676944 -1.2367816e-05 -0.00013250724 7.178671e-05 5.531297e-05
1.8268648e-06 -4.7913476e-05 0.047810845 -0.00020747271 0.00014912058 0.00020180615 -1.1117853e-05 0.0061558816
1.3597072e-06 -0.028848527 0.018764766 -0.0002851978 1.7341383e-05 -0.000103563485 -1.00137e-05 0.00011772621

linears.2.weight f4 [2, 32]
00000000: 03a5 0fb9 a429 8abe 9106 1fb8 b0ff 1d39
00000010: d3ed 9437 d086 76be 94de 54b7 bc43 343e
00000020: 9003 bebe 18c9 0939 02e9 af38 ad39 ce3e
00000030: 19e0 deb8 8824 27b9 e9ea 82b8 d37a 47b8
00000040: 3718 6238 b84c d639 e89d f23e 82fc 86b9
00000050: 0d9b a238 7b8d e7bb 52d5 f638 0fe7 59be
00000060: fa66 f0b7 dacc 8abe 1136 75be 3da2 81be
00000070: 057f 8c38 3a2d 8b38 69d4 c836 0e5c f138
00000080: 60ad 55b8 a2ad 143e bfb1 2139 c437 3fb9
00000090: 35ed 7db8 b5fd 5e3e 6631 ac38 ad34 79be
000000a0: 96fa ac3e 5f8d bd37 7263 2a38 b639 e1be
000000b0: ec81 a038 f3ce a0b8 9965 5539 35c0 8a38
000000c0: 317a 0ab9 f5f6 8039 cea8 08bf 3dac a338
000000d0: c563 8e38 ddde 23b6 48ee dfb8 b102 753e
000000e0: 8067 e0b8 f0b6 1f3e 3de3 733e 26e7 743e
000000f0: a383 5738 555e 7c38 1590 1eb8 651a c439
-0.00013699014 -0.26984894 -3.791467e-05 0.00015067938 1.775372e-05 -0.24074864 -1.2688008e-05 0.17603964
-0.37112093 0.00013140251 8.388051e-05 0.40278378 -0.00010627526 -0.0001593997 -6.2426385e-05 -4.7559686e-05
5.390515e-05 0.0004087442 0.47386098 -0.00025746605 7.7536424e-05 -0.0070664263 0.00011769928 -0.21279548
-2.8658182e-05 -0.27109414 -0.23946406 -0.2531909 6.6993794e-05 6.6364606e-05 5.9851923e-06 0.00011508922
-5.0944625e-05 0.1451936 0.00015420372 -0.00018235954 -6.0540817e-05 0.21776469 8.2108e-05 -0.243365
0.33784932 2.2596387e-05 4.0623774e-05 -0.43989342 7.6535944e-05 -7.667942e-05 0.00020351111 6.616154e-05
-0.00013206225 0.0002459806 -0.53382576 7.8045276e-05 6.789671e-05 -2.4418616e-06 -0.00010677852 0.23926808
-0.00010700431 0.15597129 0.23817153 0.23916301 5.138259e-05 6.0169335e-05 -3.7804322e-05 0.000374037

linears.2.bias f4 [2]
00000000: 158c 1bbb b0dd bfbd
-0.0023734618 -0.093684554

exp_avg f4 [128, 4, 12]
00000000: a798 29ba 0920 4cbb 083f 72bb 36be 0cb9
00000010: 1d85 08bc 7070 57ba 40e0 08bb e646 82ba
00000020: 5015 163b c158 b2ba 470f f8bb 1ddb 0d3a
00000030: ff77 9f3b 9efa 943b 62b7 37ba db18 87b9
00000040: e00f ff39 55fb 75bb e715 523b c196 063b
00000050: c960 f739 2c9f 443b 0926 f73a b33b 1539
00000060: edcc 1aba 8f58 b2ba d779 b93b 740f 8a3a
00000070: 8691 9f3b 802d 2eba 38d4 d538 4232 49ba
00000080: fc11 8eba 7be3 64ba e304 ec3b 0a4b 583a
00000090: 98d6 6dbb 701d 95b8 9a8d a5ba ef62 2dba
000000a0: 6c0f 433b 68b1 ab3b 92c8 9fba ef35 99b9
000000b0: daf0 dbba b3e7 48ba 74fc c6ba 8bba c5ba
000000c0: a5d8 1f3a 5097 aab9 1759 d5bb ce5c a33b
000000d0: 020e e03a 1b5d adb8 f648 b0ba 9211 78bb
000000e0: 5467 7cba 4b25 9d39 0078 0dbb 0ba6 25bb
000000f0: ca78 91ba d8de e43a efdf 3c3b c020 3b3a
00000100: 608d b0ba f33f 3fb9 2246 9dba c380 d5ba
00000110: 41bd 90ba 1d66 fbb9 96b0 893b 1541 953b
00000120: 4dd9 ed37 d87f 4136 879f 6b3b 5751 31b8
00000130: 561a b439 cae8 76ba bbaa ed3a 1e38 bf3b
00000140: e676 223b b10e 1839 8677 cdba 8a48 8dba
00000150: 4654 f739 c499 baba 34ad 0c38 435e b9bb
00000160: 6d0e 39ba 3532 9e3a b7c8 3f3a 35f2 dcb9
00000170: 7cf3 d7b9 9ecb 1138 3a6b f9b9 5edf 78ba
00000180: c005 f0b9 4dcd 9dba 9223 84ba b3cc b2ba
00000190: 7219 06ba c93c 7aba 3a86 d9b9 952e 85ba
000001a0: a551 f9ba 4e7c 193b af4b 9cbb 0fa2 b839
000001b0: 7b03 923b 96ad 3c3b e984 6239 27dc e139
000001c0: 9b96 f1b9 35e1 8cba 3d3c a6ba c91e 27bb
000001d0: ae94 263b 9f8a 1aba a10e 8a39 dcc8 4f3b
000001e0: e09a c4ba f431 1fbb a1e3 9f3a 35da cf39
000001f0: b241 e13b e2a7 003b 8a3a f73a 5d94 2f3b
00000200: 4b09 0abb c511 c3ba b14d 8f3b a560 4dbb
00000210: ceb8 23bb 17ac 453a a442 e0b9 3ebe 0c3a
00000220: 1a65 c1bb 59fd 8a38 fae5 54b9 df86 683a
00000230: e33a c03a 2186 8ab9 89a2 0b39 cae3 cbb9
00000240: dd60 bb3a be99 853b 18c1 b837 3757 0939
00000250: ccae 0eb9 572b 84ba 08d0 5bb7 4068 feb9
00000260: ff51 cf38 407f 2db8 cf91 07ba b209 0ebb
00000270: c297 8d39 65e6 263b 5b5e 4fb8 ecd4 90b9
00000280: 1056 43ba 8ae1 64b9 f714 b4b9 c68a a1ba
00000290: ade1 bbb9 4ebb b43b 3270 983b bffd 483b
000002a0: 6418 9db8 e5e5 4cbb a515 3f3b c9b9 903a
000002b0: f78b 51bb 1afe f339 3f48 9939 2df0 e33a
000002c0: dcce 2b3a c514 38bb d233 29b9 3792 f239
000002d0: 45f5 d4ba fc33 65bb ae49 3dbb e95e 7bba
000002e0: 33a6 853b 0290 473a 08ad 8638 c1d5 b2b7
000002f0: 7c90 cfb9 dcab 2ebb 5b34 82bb a88c b2ba
00000300: 20ae e639 cc31 7639 6cd9 4839 4de8 a9ba
00000310: 7f35 443a 4dbc 9e3a ef5b 8f3a 1171 433a
00000320: f585 41ba 53b0 253a 2f07 d5b8 e6c0 9b39
00000330: c2a8 d037 bcd1 fa38 7030 2aba c0ac 9639
00000340: b528 d4ba c098 6d38 3cd5 1c39 9f4e 0739
00000350: 6146 9bba 1bb1 73ba db46 fc39 46eb bcb7
00000360: 4f24 b8b7 0452 82ba 8976 ef39 e087 3a3a
00000370: 1f8d c738 8fd4 19b9 1c9e 01bb b6cf 61b8
00000380: 614d d43a c512 07b7 cba8 6e38 2503 0fba
00000390: 6736 e8b9 5dbd 273a f140 7b35 b8e4 9b39
000003a0: 472a 4b3a 82ee 92ba 458b 403a be27 57ba
000003b0: e5ef 9e39 273a a039 27da e4b9 1a14 8e39
000003c0: 3635 38bb 1dbb 35bb 7971 bab8 1bfb 02ba
000003d0: dff5 3d3b 7e42 0cba 19be cfb8 a0eb 483b
000003e0: 63c2 04ba bbe1 0ebb bb43 963a e152 c8ba
000003f0: e79c e338 0dd1 59ba ec19 84b9 5c04 f83a
-0.00064695854 -0.0031147024 -0.003696384 -0.000134223 -0.008332518 -0.00082183536 -0.0020885617 -0.0009939342
0.0022900887 -0.0013606773 -0.0075701806 0.00054113736 0.0048665996 0.0045464775 -0.0007008222 -0.00025767725
0.00048649218 -0.0037533839 0.0032056512 0.0020536634 0.00047183622 0.00300021 0.001885594 0.00014231987
-0.000590517 -0.0013606715 0.0056602764 0.001053317 0.0048696427 -0.0006644353 0.0001019616 -0.00076750305
-0.00108391 -0.0008731407 0.007202731 0.0008250928 -0.0036291238 -7.110357e-05 -0.0012630702 -0.00066141685
0.002976383 0.0052396543 -0.0012190512 -0.00029222618 -0.0016780153 -0.00076639204 -0.0015181438 -0.0015085501
0.0006097651 -0.00032537663 -0.0065108645 0.0049854284 0.0017094018 -8.266625e-05 -0.0013449478 -0.003785227
-0.0009628434 0.0002997316 -0.0021586418 -0.0025275971 -0.001109862 0.0017461432 0.0028819998 0.0007138364
-0.0013469867 -0.00018239002 -0.0011999051 -0.0016288984 -0.001104273 -0.0004795053 0.004201959 0.0045548775
2.835379e-05 2.8833656e-06 0.003595324 -4.2275842e-05 0.00034351897 -0.00094188435 0.0018132547 0.005835547
0.0024790107 0.00014501323 -0.001567588 -0.0010779065 0.000471743 -0.00142365 3.353991e-05 -0.005656989
-0.00070593396 0.0012069406 0.00073159806 -0.00042142128 -0.00041189406 3.4760327e-05 -0.0004757287 -0.00094937335
-0.0004578065 -0.0012039334 -0.0010081402 -0.0013641327 -0.0005115486 -0.0009545801 -0.00041489472 -0.0010160977
-0.0019021524 0.0023420039 -0.0047697644 0.00035215958 0.0044559813 0.0028789989 0.00021602552 0.0004307937
-0.00046079312 -0.0010748269 -0.0012682747 -0.0025500527 0.002541821 -0.000589529 0.0002633231 0.0031705415
-0.001499977 -0.002429125 0.0012198576 0.00039644694 0.0068742866 0.0019631316 0.001886205 0.0026791312
-0.0021062668 -0.0014882615 0.004373275 -0.0031338122 -0.0024981978 0.0007540597 -0.0004277426 0.00053689245
-0.005901945 6.6275425e-05 -0.00020303568 0.0008870195 0.0014665987 -0.00026421345 0.00013316622 -0.00038888893
0.0014295835 0.0040771654 2.2024426e-05 0.00013097828 -0.00013607292 -0.0010083717 -1.3101853e-05 -0.00048524328
9.885802e-05 -4.1364925e-05 -0.00051715685 -0.002167326 0.00027006684 0.0025466916 -4.944052e-05 -0.0002762446
-0.0007451484 -0.00021827794 -0.00034347895 -0.0012324683 -0.0003583556 0.0055154925 0.0046520466 0.0030668823
-7.4908865e-05 -0.0031264958 0.0029157188 0.0011041696 -0.0031974295 0.00046537892 0.00029236262 0.0017390304
0.0006553957 -0.0028088551 -0.000161364 0.00046266775 -0.0016247412 -0.0034973612 -0.0028883028 -0.0009589033
0.0040786504 0.00076127064 6.4218475e-05 -2.131879e-05 -0.00039589766 -0.002665273 -0.0039735264 -0.0013622241
0.00043998752 0.00023478939 0.00019154482 -0.0012962908 0.0007484778 0.0012110561 0.0010937433 0.0007455508
-0.0007382327 0.0006320525 -0.000101579695 0.00029707624 2.4874116e-05 0.00011959995 -0.0006492203 0.00028738938
-0.0016186448 5.6647463e-05 0.00014956755 0.00012903892 -0.0011846536 -0.0009296105 0.00048117977 -2.2520904e-05
-2.1951417e-05 -0.0009942655 0.00045673948 0.0007115584 9.515345e-05 -0.00014670401 -0.0019778078 -5.3837626e-05
0.0016197377 -8.050997e-06 5.6900823e-05 -0.00054554857 -0.0004429102 0.0006398762 9.359929e-07 0.00029734313
0.0007750135 -0.0011209997 0.00073449715 -0.0008207521 0.00030314844 0.00030560905 -0.00043650085 0.00027099327
-0.0028107888 -0.0027729936 -8.890307e-05 -0.0004996524 0.0028985662 -0.0005350484 -9.9059376e-05 0.0030658022
-0.0005064366 -0.0021802026 0.0011464277 -0.0015283489 0.00010853429 -0.0008309044 -0.00025196315 0.0018922198

exp_avg_sq f4 [128, 4, 12]
00000000: 7091 6735 69b7 0837 cd54 c936 ad2b d934
00000010: 83ab 2937 d80b da36 9192 0d36 c2d4 a435
00000020: 8d1c d835 603f 0337 2a08 5637 57e8 0336
00000030: 2bc7 2c37 0480 c136 cc60 0137 27b5 b836
00000040: f806 af35 f10a 0a37 ae23 d736 125e bd36
00000050: 59f4 9035 f30d b836 4a60 a936 43fa 5236
00000060: 53cf 0e36 efce bd36 c800 aa36 7829 c436
00000070: 8e0d 0137 9b39 8136 a3e9 4836 591f 7b36
00000080: 5edb d436 7dab 0a36 1db3 4737 7a0f 3e36
00000090: 2f7e 1a37 c98e b136 ef33 0235 3ea9 5f35
000000a0: d6f5 1a36 0a18 ab36 4453 f535 33ac 0c36
000000b0: 37c6 d336 abdd 9d35 e357 2e36 cae3 0137
000000c0: 1ea3 fa36 f512 a035 d839 9637 37bc d636
000000d0: 2517 0837 86de b735 e2d0 d636 f569 aa36
000000e0: e426 6235 09cd d834 bbaa 3837 26a5 6836
000000f0: 6eca 0e37 7458 1b37 2bb3 9937 4bac 1e37
00000100: 9969 5137 1b82 4437 0f9b 0137 d5a6 6637
00000110: 265f 0237 d76b c936 9344 8537 374f 4d37
00000120: 214c bd34 eec2 1736 3dd6 1037 7991 0936
00000130: 0318 1936 674c a535 03ca 3837 02f3 0737
00000140: 31ed c136 0996 5635 7d66 0c37 f8bc 2537
00000150: 3fe2 bf34 6b3e cb36 92ac ff35 ebe5 6837
00000160: f8fa bf35 7538 1d37 772b e136 80c4 0337
00000170: 80f8 bc35 f363 e836 d700 da35 7ad8 9c36
00000180: 4598 0c36 6bf7 4836 68f3 2236 3c7c 2c36
00000190: ccf8 6d36 bf09 b435 d582 9f35 6d42 0d36
000001a0: 92b7 d636 457b a536 9bfe 1737 a353 2535
000001b0: d52d 7436 cb6e 0337 1836 fb36 2c84 eb34
000001c0: 1652 5b35 f5d7 1f36 97ac aa36 d5d5 b836
000001d0: 4b0c 9a36 e366 7335 7094 8634 2250 1037
000001e0: 40e5 e936 60cd e036 7e5d 1137 01fd d735
000001f0: 4b3d 6537 a85e 8636 e190 b836 df98 2e36
00000200: 2e4c 2337 d083 d536 1f93 3a37 7840 1a37
00000210: 292c c936 b94d b035 a97f 8b35 625f 4535
00000220: ade3 2c37 89fc 8434 f632 8235 27d0 e136
00000230: 8742 1936 b425 4336 fb34 1036 3a2e 3635
00000240: 646c 3236 2e76 2836 7165 0635 e0ba ee34
00000250: 7e06 0a36 b518 e936 c5ea 8d35 8bdf 2335
00000260: e46b 1935 ee77 a835 04b8 2236 57e7 ec36
00000270: 7abf 2b35 0c78 9f36 2728 d736 b524 fc34
00000280: 3033 9e36 ef3a 5b35 8ae3 8235 6c30 5736
00000290: 1fcb c136 404a 0e37 4716 0137 d8d8 a536
000002a0: 9107 eb36 cde6 bf36 0fe7 ef36 f3ed 9c36
000002b0: fd2b 0937 339c b536 acd7 3336 3142 9436
000002c0: 8b4a b836 46a3 b136 194c f236 0ca2 0236
000002d0: 7f6b e536 1014 0937 e4c5 f336 bba3 7836
000002e0: ac07 d136 9410 0636 b3ed 1c34 69bd 9d35
000002f0: 1ac8 1635 b1f9 fc36 159b bd36 d49b 9736
00000300: ad0d a834 8183 ae33 90a6 a232 58dd 3235
00000310: 8e0d 0b35 5779 0435 96a4 6435 2950 b534
00000320: f5d6 d433 962c 2434 39db d834 65c9 ad33
00000330: a938 0434 08fe 1934 6721 a334 e268 2834
00000340: c7bc 4935 a60e 9034 5e89 5a34 9dbf 8134
00000350: 9fbc 9534 4ae9 f634 b2c6 cd34 c108 d234
00000360: edb9 4f34 c4a2 1c35 7d23 c134 3ea5 3e35
00000370: 07af 9934 1ed2 8d34 b13e 4e35 7071 a134
00000380: 8856 5c35 2490 3d33 8a95 1934 f8ef d734
00000390: cd50 0135 6fc5 3a34 c9cf 6933 8d1a f933
000003a0: 884d 0035 5529 3435 49dc 8134 ef51 1835
000003b0: e30b 0a35 9e51 7734 d5cc e234 061c b133
000003c0: 978f cd36 3c4d 4137 5509 3234 a663 3236
000003d0: d4b9 5236 23f0 af35 3c85 b234 f639 3d37
000003e0: ba2f ee35 1b0e b936 2ab7 2136 f42a a436
000003f0: b20c 4b35 2d1f 3035 5917 2836 2e4a 9636
8.6265845e-07 8.148935e-06 6.000139e-06 4.0451178e-07 1.0113118e-05 6.498285e-06 2.109595e-06 1.2280873e-06
1.6101563e-06 7.822964e-06 1.2757295e-05 1.965576e-06 1.0298371e-05 5.766751e-06 7.711536e-06 5.5047162e-06
1.3040544e-06 8.2279885e-06 6.411653e-06 5.64359e-06 1.0799951e-06 5.485251e-06 5.047802e-06 3.143811e-06
2.1280327e-06 5.656729e-06 5.0664858e-06 5.846083e-06 7.692155e-06 3.8512057e-06 2.9938317e-06 3.7420161e-06
6.34363e-06 2.0663422e-06 1.1903027e-05 2.8321215e-06 9.208495e-06 5.2916334e-06 4.850435e-07 8.3320253e-07
2.3090884e-06 5.0989956e-06 1.8278156e-06 2.0961859e-06 6.3113653e-06 1.1761925e-06 2.5979177e-06 7.742035e-06
7.46957e-06 1.1926446e-06 1.7908329e-05 6.399608e-06 8.11162e-06 1.3699325e-06 6.402014e-06 5.07873e-06
8.4248154e-07 4.0382318e-07 1.1007006e-05 3.4666823e-06 8.510991e-06 9.2593145e-06 1.8322453e-05 9.457649e-06
1.2481957e-05 1.1712803e-05 7.725102e-06 1.3747912e-05 7.770757e-06 6.002821e-06 1.5886768e-05 1.2237396e-05
3.5259384e-07 2.2614217e-06 8.63295e-06 2.0499267e-06 2.2812753e-06 1.2315694e-06 1.1014289e-05 8.103207e-06
5.779461e-06 7.993954e-07 8.368513e-06 9.878764e-06 3.5741138e-07 6.057138e-06 1.9049205e-06 1.38818095e-05
1.430365e-06 9.371074e-06 6.7105825e-06 7.85396e-06 1.4079415e-06 6.9257744e-06 1.624251e-06 4.6743635e-06
2.0950258e-06 2.9946339e-06 2.4281562e-06 2.5702311e-06 3.546057e-06 1.3413882e-06 1.18845e-06 2.1049302e-06
6.3990674e-06 4.9317337e-06 9.059581e-06 6.1589e-07 3.638551e-06 7.8340045e-06 7.4866803e-06 4.386833e-07
8.170331e-07 2.381855e-06 5.086487e-06 5.5085206e-06 4.5909887e-06 9.0674274e-07 2.5067447e-07 8.601726e-06
6.9706293e-06 6.699629e-06 8.664441e-06 1.6092382e-06 1.36637345e-05 4.0045306e-06 5.5004934e-06 2.6017003e-06
9.733294e-06 6.3632397e-06 1.1120718e-05 9.194126e-06 5.9954077e-06 1.3135642e-06 1.0393461e-06 7.352702e-07
1.0305009e-05 2.477066e-07 9.700586e-07 6.7297547e-06 2.28375e-06 2.907921e-06 2.148851e-06 6.786755e-07
2.6587159e-06 2.510274e-06 5.0066507e-07 4.4466924e-07 2.0567381e-06 6.9468174e-06 1.0573646e-06 6.104753e-07
5.7153943e-07 1.255188e-06 2.4246992e-06 7.0602796e-06 6.39811e-07 4.7525446e-06 6.4121737e-06 4.6965366e-07
4.714726e-06 8.166962e-07 9.751977e-07 3.2065682e-06 5.7754946e-06 8.481147e-06 7.694186e-06 4.942627e-06
7.0044266e-06 5.7191123e-06 7.149654e-06 4.676863e-06 8.176078e-06 5.4124043e-06 2.6798616e-06 4.4184494e-06
5.4923053e-06 5.2940186e-06 7.221021e-06 1.9465833e-06 6.837246e-06 8.1705075e-06 7.265002e-06 3.7050183e-06
6.2295785e-06 1.9977206e-06 1.4615107e-07 1.1752537e-06 5.617054e-07 7.539253e-06 5.650693e-06 4.5182915e-06
3.130239e-07 8.126427e-08 1.8935026e-08 6.6632265e-07 5.180126e-07 4.9350405e-07 8.5176123e-07 3.37722e-07
9.91112e-08 1.528991e-07 4.039264e-07 8.092574e-08 1.2314071e-07 1.4341651e-07 3.038542e-07 1.5684375e-07
7.515304e-07 2.6832748e-07 2.0352806e-07 2.416754e-07 2.7890653e-07 4.599081e-07 3.8328795e-07 3.9121917e-07
1.9346017e-07 5.8351384e-07 3.5974873e-07 7.1020975e-07 2.862582e-07 2.6416177e-07 7.683221e-07 3.0071124e-07
8.2082306e-07 4.4136087e-08 1.4303637e-07 4.022147e-07 4.8173825e-07 1.7394426e-07 5.443852e-08 1.15997956e-07
4.779654e-07 6.711537e-07 2.41884e-07 5.674364e-07 5.1426304e-07 2.303336e-07 4.2244815e-07 8.247302e-08
6.126192e-06 1.1521679e-05 1.6580937e-07 2.658207e-06 3.1400605e-06 1.3108405e-06 3.3252024e-07 1.1278773e-05
1.7746272e-06 5.5150717e-06 2.4097485e-06 4.8925813e-06 7.564187e-07 6.5610476e-07 2.504754e-06 4.478984e-06

exp_avg f4 [128]
00000000: e27d 053c 34f3 0c3c 4184 e23b 9239 e63b
00000010: bc70 05bb 6e1a 023c 6083 83bb ab36 663b
00000020: db57 9abb ff1d e93b 8c8b 313c 8b3b e93b
00000030: 6a28 833b 552c 003c 7d2b a43b fb9b 2dbb
00000040: b5b6 6abb 82ac bf3b 919f b03b fccd 8e3b
00000050: 2645 32bc c7f3 023c 7404 10bc 50d1 87bb
00000060: 4581 bc3b 36ad afb8 df3e f53b 1c7c 0b3c
00000070: 19e1 9fbb ab48 8d3b 0c28 96bb cce5 fc3b
00000080: fd2c e13b c88f 0e3c b9d6 bcbb e6aa b1bb
00000090: 1349 833b dbfd 0ebc 0c1d 973b 0e60 2abc
000000a0: ecf2 aebb d215 73bc b6b0 5c3b 1714 27bc
000000b0: 68f8 a4bb d2a7 6cbb e219 9e3b 4162 c43b
000000c0: 910c 94ba c995 d6bb 0afc 883b 08d9 ec3b
000000d0: 3df5 f6bb f1ba d1bb c1c8 853b 11d0 15bb
000000e0: 5509 013c 3997 10bc d7d4 893b 4d46 82bb
000000f0: 57d0 973b f638 e8bc f16c 84bb e865 f73b
00000100: 766e dc3b 92e4 c1bb 1ec5 ce3b b04a b1bb
00000110: 1671 aaba 4bd7 e9ba 6aa8 36bb 31e5 db3b
00000120: f18b e53b bbe7 a9bb 41c8 33bb f109 9f3b
00000130: e59b ab3b e54b 69b9 4af0 0bbc faab 7dbb
00000140: 5b9d a83b d4e7 95bb e12a 703b 6aaa d63b
00000150: 64ff e03b a272 05bc 4c41 f03b acaf 58bb
00000160: e657 adbb 1b2e 08bc 9a6e f9bb c48e bc3b
00000170: fb11 f0ba 2136 c03b 98f8 1abc 75e0 11bc
00000180: ff1c d7bb 2d59 453b a642 083c 5681 85bc
00000190: 8f39 74bc 87c7 063c 53d9 b83b 4e58 ebbb
000001a0: 8599 91bb 9dfa 7c3c 1de2 213c b957 d0bb
000001b0: 21ce 98bb ca35 ecbb 407c 9fbb f0b7 673c
000001c0: 6ad9 febb 2c4d 53bc 474f 98bb eeaa ce3b
000001d0: fab6 35bb e58c 06bb f819 173c eb88 1d3c
000001e0: 6533 b4bb f3c7 d83b 8504 80bb 1bf5 2cbc
000001f0: 452b d53b a26c 56bb e850 8e3b 6b1a 75bb
0.008147689 0.008602906 0.0069127386 0.007025906 -0.0020361384 0.007940872 -0.004013464 0.00351278
-0.00471018 0.0071141715 0.010836493 0.007117694 0.0040026205 0.00782307 0.005010067 -0.0026490677
-0.0035814468 0.005849422 0.0053901155 0.0043580513 -0.010880744 0.007992691 -0.008790124 -0.004144825
0.005752715 -8.376913e-05 0.0074843015 0.008513477 -0.0048791287 0.004311641 -0.0045824107 0.0077178236
0.006871818 0.008701272 -0.0057629016 -0.005421984 0.004006514 -0.008727516 0.004611617 -0.010398878
-0.005339017 -0.014836745 0.0033674664 -0.010197661 -0.005034495 -0.003611077 0.004824863 0.005993158
-0.0011295249 -0.0065486175 0.004180436 0.0072280206 -0.007536559 -0.006400459 0.0040827696 -0.0022859613
0.00787576 -0.008825117 0.0042062807 -0.0039756657 0.0046329903 -0.028347474 -0.004041307 0.00754999
0.006727035 -0.0059171403 0.0063101193 -0.005410515 -0.0013003673 -0.0017840652 -0.0027871379 0.0067106714
0.0070052077 -0.005185095 -0.0027432593 0.00485348 0.00523709 -0.00022248884 -0.008541176 -0.0038707242
0.0051457114 -0.004574755 0.0036646652 0.0065510767 0.0068663824 -0.008145006 0.0073320027 -0.0033063693
-0.0052900193 -0.008311774 -0.0076120617 0.0057543237 -0.0018315905 0.0058658277 -0.009458683 -0.008903612
-0.006564736 0.0030112967 0.0083166715 -0.016297024 -0.014906301 0.008226282 0.0056411414 -0.0071821576
-0.00444335 0.01544061 0.00988057 -0.0063581136 -0.0046632444 -0.0072085606 -0.0048671067 0.014142975
-0.0077773826 -0.012896817 -0.0046481225 0.0063069975 -0.002772747 -0.0020530757 0.0092225 0.009615163
-0.005499291 0.0066156327 -0.003906789 -0.010556485 0.0065054023 -0.0032718559 0.004343141 -0.003739978

exp_avg_sq f4 [128]
00000000: ac71 5b38 22a4 9738 41cd 4838 c010 3d38
00000010: f81d 7836 348a 8e38 a7fd 0337 5051 0537
00000020: c5f8 de37 d555 2138 be3a fe38 d93c 6838
00000030: 6b1c 2d37 bc00 8338 953d a637 327d cb36
00000040: 938d 7f37 ed75 0638 0a30 d937 7d52 7437
00000050: da9d 0639 8913 6738 2c59 9638 76c1 c437
00000060: c157 b637 9ce5 a634 ed34 7238 742b 9238
00000070: 25a4 bd37 b65c 8b37 5840 c237 3562 8038
00000080: 952b 0d38 a452 6638 3c5d 1738 8a5f ee37
00000090: cc45 8b37 39b7 a038 1dba 9137 c774 c238
000000a0: 961d 1838 f2a6 3139 afa0 3c37 e708 9438
000000b0: 0706 d537 d5e5 6137 6d77 a937 fda2 ca37
000000c0: 44b3 3e36 5b21 0a38 b605 3137 2c3d 1e38
000000d0: 1b19 4b38 d3af c737 ed3c 3237 9297 ff36
000000e0: 97fb 4238 c48d 6038 5eeb 4837 2801 4a37
000000f0: abef 4537 31bc 123a 9fb7 3537 edca 9138
00000100: b98d 2138 6e40 2738 755f 0338 e3a9 0038
00000110: 98a5 1e36 4b43 f136 2bc2 0a37 2013 4e38
00000120: 1e81 1a38 138d 8e37 3db4 f036 a469 6537
00000130: c45a c737 f2e9 c333 23ca aa38 d1e7 b437
00000140: 5237 c037 5152 4f37 657e 0737 09cd 1c38
00000150: fee3 3e38 e8b9 9538 0e07 2738 d77d 6c37
00000160: 9243 c037 5019 8f38 8c94 8838 62d6 0f38
00000170: c1f5 3636 2ca1 f837 154b b138 d097 8738
00000180: 4a3a 7438 3b2c bf36 0b46 8f38 c4a3 5b39
00000190: bbd3 1239 5bb5 8238 8678 f537 3dba 5e38
000001a0: 4eea ac37 5f47 7b39 4fbe 9238 87e8 4738
000001b0: 20c0 c037 c835 6638 315c 0738 6173 3639
000001c0: 4caa 5c38 a9b3 f538 1d8b b237 1464 f137
000001d0: 8f3e 5a37 671d 9a36 1be5 af38 ca8b a838
000001e0: 43d7 be37 a032 eb37 cbf2 9e37 7cf7 dd38
000001f0: c975 f737 1e50 7937 5839 7937 9afc a137
5.2319534e-05 7.230813e-05 4.7874873e-05 4.507671e-05 3.6972324e-06 6.79683e-05 7.8672665e-06 7.94635e-06
2.6580305e-05 3.846533e-05 0.000121226054 5.536978e-05 1.031822e-05 6.2467036e-05 1.9817418e-05 6.064446e-06
1.5232147e-05 3.2057917e-05 2.5890786e-05 1.4562739e-05 0.0001283804 5.5092885e-05 7.169167e-05 2.3455108e-05
2.1736954e-05 3.1086972e-07 5.7746587e-05 6.969916e-05 2.2606991e-05 1.6613263e-05 2.3156565e-05 6.121808e-05
3.365761e-05 5.491324e-05 3.6088037e-05 2.84163e-05 1.6602593e-05 7.6635224e-05 1.7372013e-05 9.272392e-05
3.6267178e-05 0.00016942227 1.1243085e-05 7.058848e-05 2.5394385e-05 1.3464557e-05 2.0201982e-05 2.4156174e-05
2.8416553e-06 3.293283e-05 1.0551352e-05 3.7727106e-05 4.8422353e-05 2.3804523e-05 1.0623812e-05 7.6172373e-06
4.6487516e-05 5.353779e-05 1.197573e-05 1.20404075e-05 1.1797917e-05 0.0005597501 1.0831193e-05 6.951937e-05
3.851738e-05 3.9875908e-05 3.1321735e-05 3.0675797e-05 2.3640223e-06 7.1901936e-06 8.270649e-06 4.913204e-05
3.683671e-05 1.6993412e-05 7.17354e-06 1.367406e-05 2.3764915e-05 9.1229495e-08 8.1438826e-05 2.156562e-05
2.2913944e-05 1.2357327e-05 8.076056e-06 3.7384252e-05 4.5511864e-05 7.1395014e-05 3.9822473e-05 1.40959955e-05
2.2919648e-05 6.823486e-05 6.512654e-05 3.4293516e-05 2.726316e-06 2.9638955e-05 8.454003e-05 6.465579e-05
5.822842e-05 5.6973927e-06 6.831818e-05 0.00020946475 0.00014002521 6.232663e-05 2.9262399e-05 5.3102372e-05
2.0613104e-05 0.00023963813 6.99727e-05 4.7661855e-05 2.2977649e-05 5.488636e-05 3.2272368e-05 0.00017399855
5.261069e-05 0.00011715975 2.1284033e-05 2.8776041e-05 1.3008378e-05 4.5929805e-06 8.3873245e-05 8.036902e-05
2.2750004e-05 2.8037757e-05 1.8948127e-05 0.00010584199 2.9499543e-05 1.486021e-05 1.4854908e-05 1.9310322e-05

exp_avg f4 [32, 128]
00000000: 18ed 2e38 9f53 3539 89c0 81b7 239e e636
00000010: 742b 0bb8 38f7 5b39 246c 5a39 27b2 60b6
00000020: 346c 65b8 68f8 3238 ca95 ac38 a0fe 01b8
00000030: efb2 c7b7 f782 c937 2858 1139 e1af cd37
00000040: bfe3 3bb8 2964 d8b8 1335 65b9 98db 5a39
00000050: 53f8 82b6 64e0 40b8 b2f5 1db7 4d7c c936
00000060: b730 beb8 5493 4eb8 bf65 80b8 6c89 11b8
00000070: 8308 dab8 5ed5 01b9 2728 3c36 fdd0 3cb9
00000080: 0862 8239 19cb 9039 ca34 b838 e468 4db8
00000090: 89e8 2db9 d034 04b9 8494 0638 c735 d937
000000a0: e064 57b8 34be 3338 b53d acb7 5ed6 7fb8
000000b0: 0b84 23b9 3c7c 8239 6a18 21b8 2ce8 07b9
000000c0: 481b 0238 7a86 55b8 ae2c 5fb7 16b7 11b7
000000d0: bc16 6538 4a69 1cb7 ceeb ce38 e296 f0b8
000000e0: a64f e2b8 846b 0338 57a9 99b8 52b8 28b9
000000f0: 9ca0 1338 b434 d138 fa8b 5537 6009 1738
00000100: e3ce f838 a57c cf37 153b 5b39 101b 1cb8
00000110: 6a87 5b39 e834 8738 248f 4d39 925c c738
00000120: 6371 ec36 a566 a4b7 f767 0939 647e 82b8
00000130: f3fd dfb8 186b 3138 8b00 8938 a778 0239
00000140: 997e 5736 5560 2d39 6f13 ba38 b75e 8e38
00000150: 5ccd 0eb9 ca03 8a38 1696 4b38 066c bcb8
00000160: aceb 28b8 ba44 9338 cd84 8e35 b6f7 9fb8
00000170: 7608 80b8 126b 04b9 19a4 a0b8 8a03 0bb9
00000180: fc20 00b8 7d20 0e39 73df 10b9 240e 09b9
00000190: 3a94 c438 2db6 ed38 ce11 a0b9 12c1 f7b8
000001a0: 5bb2 f8b8 daf9 d9b8 be1a 0139 9477 2cb8
000001b0: 2b4c d8b8 4f60 a437 dd60 56b9 a307 d536
000001c0: d2ff b038 ad7e d9b8 2a83 13b9 843f 95b8
000001d0: 2a4b ae38 4edc 59b7 7aa6 57b8 5fcc 4b38
000001e0: ae62 2637 7874 5538 8e1c 2539 5135 1e39
000001f0: a88e 1639 b275 56b9 78bd 22b9 007d 3a38
00000200: 1c7d 82bb 3e8e 9bbb edae 99bb 5125 a2bb
00000210: 54ba 83bb 7a54 03bc 9ea3 26bb 34fd cfbb
00000220: 66c7 afbb 44a3 83bb 4279 38bb 37fd e2bb
00000230: 4bc5 b7bb e4d6 d5bb 24e3 8dbb 3b9a dbbb
00000240: 02e0 88bb 320f b3bb 4b87 6dbb 8c29 bebb
00000250: c74c 09bc e594 85bb 50a6 07bc 7e74 8dbb
00000260: 5f83 a3bb ea9a 82bb 12b7 dabb c3db 97bb
00000270: 0451 ccbb ecd0 b9bb 4a1e 90bb 4b88 83bb
00000280: 2db4 43bb e5e9 a1bb 9765 b8bb e2e2 dfbb
00000290: a4ba 8cbb 9d93 89bb 84d3 b1bb 9466 8fbb
000002a0: df29 acbb 2772 9ebb ca64 75bb 589f c9bb
000002b0: 56a0 74bb bb93 d1bb 25ec d9bb afbe 94bb
000002c0: 8098 b2bb 7e0a efbb 7b11 5dbb b7b1 7ebb
000002d0: ca9f 09bc bd27 0fbc 508c 5dbb 2053 babb
000002e0: eacb abbb fc18 afbb a732 8dbb 5f77 66bb
000002f0: a581 8dbb 45ba ddbb 044e 9dbb c190 e6bb
00000300: ec6c d8bb 69ef d3bb 97f3 21bb 5e52 85bb
00000310: 8abd babb 773d 45bb 8b70 60bb 09cc c5bb
00000320: 3e33 4abb b2d5 bdbb 3782 b8bb b541 88bb
00000330: b837 e8bb 0fe5 31bb a446 d2bb e726 d0bb
00000340: 5360 c2bb 00fe cebb d2d3 abbb 4ff6 b7bb
00000350: 0907 55bb ec4c 04bc 7c2b c1bb e2e6 7bbb
00000360: 6b41 e8ba cd32 ccbb 3273 a9bb dd0e fbbb
00000370: 99b4 d7bb 3649 dcbb 7c86 b8bb e20f ccbb
00000380: 8080 1ebb e40c 84bb 17d1 83ba 6d89 c5bb
00000390: d3d6 9fbb f22b a6bb fc7f 9bbb daf6 e0bb
000003a0: 1447 95bb fdac 49bb bd6e 30bb 3f65 b8bb
000003b0: 1b3e c2bb 1746 b6bb b28d aabb ceb2 74bb
000003c0: b415 c4bb 3193 a5bb d454 9abb 3e82 c1bb
000003d0: 0207 bdbb a448 dfbb 5b8b 84bb 4597 7fbb
000003e0: 7e13 dabb 23fa 28bb cbcb 8ebb fe4f e5bb
000003f0: 72fb 6dbb ea2f aabb a196 d4bb da19 a7bb
4.1705644e-05 0.00017292656 -1.5467655e-05 6.8729437e-06 -3.318065e-05 0.00020977564 0.00020830386 -3.34823e-06
-5.4698627e-05 4.2669853e-05 8.2294995e-05 -3.0993135e-05 -2.3805971e-05 2.4022052e-05 0.00013861118 2.4519804e-05
-4.479638e-05 -0.00010318339 -0.00021858914 0.00020871905 -3.9032107e-06 -4.5985347e-05 -9.415135e-06 6.0047373e-06
-9.06898e-05 -4.9251437e-05 -6.122467e-05 -3.4698678e-05 -0.000103966355 -0.00012381884 2.8037555e-06 -0.00018006931
0.0002486857 0.0002761714 8.7836364e-05 -4.8973496e-05 -0.00016585192 -0.00012608175 3.2086406e-05 2.5893458e-05
-5.135394e-05 4.2854066e-05 -2.0532732e-05 -6.0996383e-05 -0.00015594081 0.00024888094 -3.840813e-05 -0.00012961094
3.1019823e-05 -5.09084e-05 -1.3302239e-05 -8.6853015e-06 5.4619028e-05 -9.322839e-06 9.8667675e-05 -0.00011472196
-0.000107913555 3.1332966e-05 -7.3271505e-05 -0.00016090393 3.519711e-05 9.975713e-05 1.272838e-05 3.6009937e-05
0.00011864097 2.4734365e-05 0.00020907477 -3.7218502e-05 0.00020935913 6.447156e-05 0.00019603648 9.506302e-05
7.046548e-06 -1.9598121e-05 0.00013104068 -6.222425e-05 -0.0001068077 4.2299827e-05 6.53277e-05 0.00012442713
3.2111186e-06 0.00016534452 8.872791e-05 6.78873e-05 -0.00013618678 6.5810586e-05 4.853875e-05 -8.9846595e-05
-4.0273808e-05 7.0223075e-05 1.0618475e-06 -7.6278506e-05 -6.1050916e-05 -0.00012628388 -7.65996e-05 -0.00013257391
-3.0548297e-05 0.00013554278 -0.00013816151 -0.00013070606 9.373618e-05 0.000113349735 -0.00030530844 -0.0001181384
-0.00011858783 -0.00010393905 0.00012312361 -4.111936e-05 -0.0001031387 1.959517e-05 -0.00020444715 6.3487837e-06
8.439984e-05 -0.000103709615 -0.00014067875 -7.1167044e-05 8.310967e-05 -1.2985502e-05 -5.1415038e-05 4.8589307e-05
9.917347e-06 5.0891627e-05 0.00015746264 0.00015087916 0.00014358258 -0.00020452475 -0.00015520107 4.446227e-05
-0.0039821994 -0.004747181 -0.004690042 -0.004948296 -0.004020015 -0.008015746 -0.0025427113 -0.006347323
-0.0053643463 -0.0040172655 -0.0028148447 -0.006927158 -0.005608236 -0.006525861 -0.004330056 -0.0067017353
-0.0041770944 -0.005464458 -0.003624397 -0.0058032926 -0.008380122 -0.0040765875 -0.008279398 -0.0043168655
-0.004990026 -0.0039857524 -0.0066746557 -0.004634352 -0.0062352438 -0.0056706574 -0.004398142 -0.00401405
-0.0029862032 -0.0049412125 -0.005627345 -0.0068324665 -0.0042947102 -0.004198505 -0.005426826 -0.004376242
-0.005254015 -0.0048353854 -0.0037444108 -0.0061530285 -0.0037327013 -0.0063957847 -0.006650465 -0.004539333
-0.0054503083 -0.007294952 -0.0033732343 -0.003886325 -0.008399913 -0.008737502 -0.0033805557 -0.005686179
-0.0052428143 -0.0053435545 -0.0043090167 -0.0035166366 -0.0043184333 -0.00676659 -0.00480056 -0.007036299
-0.0066047814 -0.006467749 -0.0024711841 -0.004068657 -0.0056988643 -0.003009645 -0.0034246768 -0.006036286
-0.0030853297 -0.0057932967 -0.005630757 -0.0041582235 -0.0070867203 -0.0027144586 -0.0064171124 -0.006352294
-0.005931893 -0.0063169003 -0.005243757 -0.005614079 -0.0032505414 -0.00807498 -0.0058950763 -0.0038437177
-0.0017719691 -0.006231642 -0.005171203 -0.007661684 -0.006582808 -0.0067225946 -0.005631266 -0.0062274793
-0.0024185479 -0.004029857 -0.001005682 -0.0060283453 -0.004877904 -0.0050711567 -0.0047454815 -0.0068653645
-0.0045555923 -0.0030773275 -0.0026921474 -0.005627304 -0.0059278137 -0.0055625546 -0.0052048797 -0.0037338021
-0.0059840325 -0.005052947 -0.0047098193 -0.0059054187 -0.0057686577 -0.0068140794 -0.004044933 -0.0039000076
-0.0066551557 -0.0025783859 -0.00435779 -0.006998061 -0.0036313203 -0.0051937 -0.006487683 -0.0050995173
