our-vTR/10_fold_lightning_logs/dataset1/fold_4/version_3/checkpoints/epoch=13-step=489_fold4.ckpt (torch, 132433 bytes, 18 tensors)

conv1d.weight f4 [128, 4, 12]
00000000: 2f3e 08be 6a08 013e 507b 943d 00db 1cbe
00000010: 0857 3d3e 2aff e6bc 3bfc acbc 238d dabd
00000020: d286 1ebd 128e 5a3e f999 e23d 1962 acbd
00000030: 1873 a03d 7aad 2bbd 6fe0 e63d 1928 8bbd
00000040: b6f2 1abe 261d 27bd 4399 613e 0203 983d
00000050: b348 2abe b1f7 203d 22ee 0cbe d764 99bd
00000060: a26e fabd 87a2 2b3d 7d70 c1bd 3837 c43d
00000070: e31f 873d 7424 1ebe 0565 b53d 2e98 d0bd
00000080: c235 053e 584b 8ebd e661 90bc 002e 43be
00000090: 27c1 b53d c7cd 153e 9ec2 0cbe d4c7 64bd
000000a0: 9422 7b3d 5fef b2bd bc22 4abc eee2 adbd
000000b0: 1ad1 2d3e 3447 fcbd 7de5 26be d3e3 7a3e
000000c0: b01d a23d f4f7 aabd 3a39 f93c 3c56 853d
000000d0: 1b37 bb3d 32ad 2ebe 7dd1 d4bd afce eebb
000000e0: f87d 9abd 7a01 65be 44c6 c73d 9031 72bd
000000f0: 92fb 353e 7528 e23c 623a 1f3d cd36 5bbd
00000100: e657 f03d c804 e83d 5ee1 19be 2ed8 1f3d
00000110: 1e66 843e 5398 c9bd 1f6c 99bd b64a cdbd
00000120: 2de4 28be 2c17 14bd 32b3 10be 91b9 2abe
00000130: a9c5 eabd e834 e1bd 066b 543c 1358 ac3d
00000140: 1b58 d53c ae8d 89be 50ec 04bd 8ec7 ba3d
00000150: 6549 34be 8a3d 133d d6eb 3cbe 279d 0f3e
00000160: 957e 10be 6068 ca3d 0285 05be 1bd3 2c3d
00000170: eeeb a63c 5d60 a33d 022b e9bd e998 18bc
00000180: 0d83 b6bc 2df9 e7bd 7fa9 13bd 6859 4b3e
00000190: b16e ccbd 2a40 8ebc a20a 91bd 69bf 31be
000001a0: 8d53 ca3c 99a8 843d 409b d43d 736a debd
000001b0: 16d6 e5bd 39af 02bd 205d be3d 0c2a 6dbe
000001c0: 2dee b3bd 3026 d3bd 2acc 823e 6ec7 b6bc
000001d0: cb34 d53c 951e 31be 6623 7bbe e817 9a3d
000001e0: 5e92 f23d 7549 ed3d 2dee 023e 8004 17be
000001f0: a8a6 0e3e 681a f83d 37e2 01bd 993c 00be
00000200: 271c adba e21d 493c f83f 953d e532 fe3d
00000210: d848 9b3d 3eba a1be f225 523d 262a 16be
00000220: 961f 003e 6295 70be 7bad 1dbe 2e01 153e
00000230: ab35 9ebd 4608 44bd 6605 5dbd 24da 41be
00000240: 6506 8e3b 9396 a5bd 3a5b 2dbe f1f8 cebd
00000250: f6ee 70be afb9 3c3e a627 05be 59c8 30bd
00000260: c394 d1bd d6af 46bd b0f1 a9bd 4c38 363e
00000270: 383c 02be fdb2 95bc a92e 913d dc59 22be
00000280: c7bf 9dbd e1d7 54be 7b11 80bd 98f5 c53a
00000290: 3352 1d3e a763 ff3d 4a95 653d a0a8 d5bd
000002a0: 4750 c03c cdb0 ba3d d5a4 a43d 12c4 9e3e
000002b0: fa98 8a3d 3291 ffbb e3bd 133e 3efa 553e
000002c0: f958 e33d 7183 fc3c af6e ed3c 6efa 34be
000002d0: ac2f 2a3e 07dc 443e f985 7f3d 61f2 a7bc
000002e0: b9f8 be3c 8e36 2dbe 8ef8 5ebe ada7 26be
000002f0: 9047 38be 22ee 113e f2d2 013e 0346 ad3d
00000300: e100 743c 292f c3bd 3299 14be 2474 e53d
00000310: c578 243e 8a11 9c3d 4249 bc3d dbf2 34bd
00000320: 32dc 2bbe 5c36 53bd d41a 4a3e 14d9 50be
00000330: da6f dbbd e7b3 8cbd 9640 0f3e 5c03 89bd
00000340: e77a b33d 6606 e6bd 9684 d9bd 40cc 8fbd
00000350: 9995 4ebe 6a40 743e 52eb 89bd 5855 b23d
00000360: c280 133c 16c1 203e 34a1 0f3e 5499 af3d
00000370: 804f 35bd 9bd7 10be 9692 9fbd 53b7 6abe
00000380: 3a5f 0b3e 9c65 57be 319c d93c ad0d 693d
00000390: 5d97 283e 7b2a 8e3c 98d9 69bd 9bfd b0bd
000003a0: 1819 183e dd78 703d 69f5 aabd acd2 e13d
000003b0: 22d6 abbd 5966 4ebc d31f bb3d 1a63 70be
000003c0: 3f5f a73b 4c98 873d a38b 49be d467 28be
000003d0: d813 29be 0923 cdbd 9e14 37be 8639 a73d
000003e0: 533b 3cbe ff3e d0bd 3a84 1fbd 42d6 15b9
000003f0: aa03 2dbe 5ee1 1cbe 287b 0ebd dd34 84be
-0.13304971 0.12600866 0.072500825 -0.15317917 0.18490231 -0.028197844 -0.021116367 -0.10671451
-0.038702793 0.21343258 0.11064524 -0.08417148 0.078344524 -0.041913487 0.11273276 -0.067947574
-0.1513165 -0.040799282 0.22031121 0.07422449 -0.16629295 0.039298717 -0.13762715 -0.07489937
-0.12228133 0.041903045 -0.094452836 0.09580845 0.06597879 -0.15443593 0.088571586 -0.10185276
0.13008788 -0.069479644 -0.017624807 -0.19060516 0.088747315 0.14629279 -0.13746116 -0.055854633
0.061312273 -0.08737063 -0.012337383 -0.08490549 0.16974297 -0.123182684 -0.1629848 0.2450097
0.07915819 -0.083480746 0.030422796 0.065105885 0.0914137 -0.17058256 -0.10391519 -0.007287822
-0.07543558 -0.22363845 0.09754613 -0.059129298 0.17771748 0.027607182 0.038874038 -0.05351906
0.11735515 0.11329037 -0.15027377 0.039024524 0.2585916 -0.09843507 -0.074913256 -0.100240156
-0.16493292 -0.03615491 -0.14130858 -0.1667235 -0.11463482 -0.10996419 0.0129649695 0.08415236
0.026042989 -0.26865906 -0.032451928 0.09120093 -0.17606123 0.03594736 -0.1844934 0.14024793
-0.14110787 0.09883189 -0.1303902 0.042193513 0.020376172 0.07977364 -0.11385156 -0.0093138
-0.022279287 -0.113268234 -0.036050316 0.19858325 -0.0998205 -0.01736458 -0.07082106 -0.17358173
0.024698043 0.0647747 0.10381174 -0.10860147 -0.11222474 -0.031905387 0.09295106 -0.23160571
-0.08785663 -0.10310018 0.2554639 -0.022311892 0.02602615 -0.17296822 -0.24525222 0.07524091
0.118443236 0.115862764 0.1278617 -0.1474781 0.13930762 0.121144116 -0.031709876 -0.12523116
-0.0013207243 0.012275191 0.07287592 0.12412051 0.07582253 -0.31587404 0.05130572 -0.14664516
0.12512049 -0.23494485 -0.15398209 0.14551231 -0.0772508 -0.047859453 -0.053960226 -0.1893087
0.0043342584 -0.080853604 -0.16929331 -0.101060756 -0.23528656 0.18430208 -0.13003406 -0.043159816
-0.10233452 -0.048507534 -0.08298051 0.17794913 -0.12718284 -0.018273825 0.07088978 -0.15854591
-0.07702594 -0.20785476 -0.06253334 0.00151031 0.15363388 0.12470179 0.056050576 -0.10432553
0.02347578 0.09115753 0.08039252 0.31008965 0.06767459 -0.007799291 0.14427905 0.20896241
0.111009546 0.030824395 0.028983442 -0.17673656 0.16619748 0.19224559 0.062383626 -0.020501317
0.02331196 -0.16915342 -0.21774504 -0.162749 -0.17996049 0.14250997 0.12678126 0.08460619
0.014892788 -0.095304795 -0.14511564 0.11203793 0.16061695 0.07620533 0.0919366 -0.044176918
-0.16783217 -0.051565513 0.19736797 -0.20395309 -0.10714693 -0.06870251 0.13989481 -0.06690094
0.08763676 -0.11231689 -0.10620992 -0.070213795 -0.20174254 0.23852697 -0.06734337 0.08707684
0.009002866 0.15698656 0.14026338 0.08574167 -0.04426527 -0.14144747 -0.07791631 -0.22921495
0.13610545 -0.21034855 0.026563736 0.056897808 0.1646399 0.01735424 -0.05709228 -0.086421214
0.14853323 0.058709014 -0.083475895 0.110265106 -0.08390452 -0.012597644 0.09136929 -0.23475304
0.0051077898 0.06620845 -0.19682173 -0.16445857 -0.16511476 -0.10016448 -0.17878959 0.081652686
-0.18382005 -0.101682656 -0.03894446 -0.00014289565 -0.16895929 -0.15320346 -0.03478542 -0.2582158

conv1d.bias f4 [128]
00000000: 66fa e63b 869b 80bd 0cd2 d0bd 8c61 16bd
00000010: af9a 213d 9742 bd3d 4bdd eabd d38c 073e
00000020: ca99 723d 0850 073d f960 92bb 8e40 f2bc
00000030: bef1 0e3d c3b5 0a3e e693 633c bf90 e03d
00000040: 2828 ba3c 2dea 97bc df0c db3d be30 c33d
00000050: c140 183d e7f8 5dbd 602a b33d de0a c43c
00000060: dd0a f6bc 8307 ceba 8315 1f3e a7cc 05bd
00000070: 60a7 173d 66b8 16bd fb64 0ebe 1e2c 383d
00000080: 330a 9ebd a6ea 2f3d 20da 50bb 7ba1 ef3c
00000090: 13d4 7ebc 579b 56bd 66ca 953d da77 f4bd
000000a0: acdb a73d a10b 6cbd 8a21 813d c21a b3bd
000000b0: 139e 99bd fed9 033d b3cf 623d 394e a5bb
000000c0: bde6 d23c c33c 18be 001a 59bc ecc2 a33d
000000d0: d44f ff3c 8956 ec3d 3bc1 c53b d6c4 7aba
000000e0: 9c1d a13d 2325 17be e9dd d53c 56de 21be
000000f0: 8e18 5b3c a081 9bbd 13ed 073d 81f8 1a3e
00000100: 6290 ca3d f12f 7bbc f1ea f5bc 0cb7 a9bd
00000110: 8bf1 bdbd cd71 ebbd 52be 32bd 1b39 58bc
00000120: cbcc 32bd 9f31 3ebc 5f02 ca3d 8e00 b93d
00000130: ca19 aa3d 1fc0 6abc fe6c 9b3d 3efd fc3d
00000140: fdf4 0dbd 5155 d13d 2312 7a3d 3a04 1dbd
00000150: aa6c dfbd 891e 8f3d fd8b fcbc e8dc 21be
00000160: b914 15be 9f3d 64bd 5a6f 54bc 9ad7 263a
00000170: ea24 163d dfd4 06bd a84c aebd 4f45 cfbd
00000180: 9b2b 22be a4c2 2e3d c8c7 38be c258 afbd
00000190: 052e 21be e576 693d d75f d8bd c2db cebc
000001a0: c0b7 c1bb 20e9 363d 5609 84bd e2cd d1bd
000001b0: 9a59 603d 2fb2 a7bd 31dc f33d 2dae 3abe
000001c0: 8b03 2dbc 3fde d2bd f205 b23c 9ca9 fabc
000001d0: 22c0 f93c 8876 5bbd 1ac5 453c b73c dcbd
000001e0: 8d8f e0bd 5e94 f8bd b4b3 b0bd 73f4 18be
000001f0: deee 0a3e 0509 403d 389a 0c3e 30e1 113d
0.007048893 -0.06279664 -0.10196313 -0.03671412 0.03945416 0.09241217 -0.114679895 0.13237314
0.059228696 0.033035308 -0.0044671264 -0.029571798 0.034898512 0.13545899 0.013890242 0.10965108
0.022724226 -0.01854428 0.10695814 0.09530781 0.03717113 -0.05419245 0.08748317 0.023930963
-0.030034477 -0.0015718791 0.1553555 -0.032665875 0.037024856 -0.03679695 -0.13905708 0.04496395
-0.07716789 0.042948388 -0.0031868294 0.029251805 -0.015553492 -0.052394237 0.07313995 -0.11936922
0.08196196 -0.057628278 0.06305225 -0.08745338 -0.075008534 0.032190315 0.05537386 -0.0050447253
0.02574479 -0.14866929 -0.013250828 0.07996163 0.031165995 0.11539943 0.0060349978 -0.0009566074
0.07866976 -0.1476026 0.026106792 -0.1580747 0.0133725535 -0.075930834 0.033185076 0.15133859
0.0989082 -0.015331254 -0.030019255 -0.082868665 -0.09274586 -0.11496315 -0.043638535 -0.013197209
-0.043652337 -0.01160851 0.098637335 0.09033309 0.083057 -0.014328032 0.07589148 0.123529896
-0.034657467 0.10221351 0.061052453 -0.03833411 -0.10909398 0.06988246 -0.03082847 -0.15806925
-0.14558686 -0.05572283 -0.012966001 0.00063645246 0.036656298 -0.032917853 -0.08510715 -0.101206414
-0.15836947 0.042666093 -0.1804496 -0.08561851 -0.15740211 0.056998152 -0.10565155 -0.025251273
-0.0059117973 0.04465592 -0.06447093 -0.10244347 0.05477295 -0.08188283 0.119072326 -0.18230505
-0.010559927 -0.10296296 0.02173135 -0.030598454 0.030487124 -0.053579837 0.012070918 -0.10753768
-0.1096488 -0.12137674 -0.08628026 -0.14937 0.13567683 0.0468836 0.13730705 0.035615146

linears.0.weight f4 [32, 128]
00000000: fc1e d2b7 92f6 83b9 86cb 3ab9 fda8 f2b6
00000010: 2c63 b938 4714 8ab9 6cdf 1439 f3c9 d6b9
00000020: 6fad b8b9 6526 42b9 2fe9 80b9 6be0 12b9
00000030: eb12 8138 a9e0 00b8 61ea e6b8 e496 a8b9
00000040: 80a4 c838 9a8e acb9 3ec3 0c37 848f 8bb9
00000050: addb 91b9 43b0 2eb9 5bc6 4e38 1e00 0738
00000060: e38a 6bb9 547a 30b9 85c9 c2b9 7798 11b9
00000070: 7778 1cb9 79b4 9338 11f2 43b9 3612 55b8
00000080: c41b 3eb9 6ca4 1139 d4de 60b9 299d 1ab8
00000090: b3a3 ff38 8833 a637 3110 c1b9 5e51 4f38
000000a0: 9c4b 81b9 5b36 a837 a3cd 8bb9 2ec3 17b9
000000b0: 396a e038 8152 acb9 49e4 8bb9 92a5 64b7
000000c0: 9281 adb9 d163 75b9 fcf6 b738 4569 05b9
000000d0: 427e 1bb9 4532 d4b9 af0f 9638 6eb1 14b9
000000e0: 1fc3 87b9 51cc 8cb9 28cc 9ab8 4b23 e237
000000f0: e426 37b9 a023 b838 4685 a037 f1df bcb9
00000100: 5994 9eb9 ba2f acb9 3eff 2db7 7dd4 e438
00000110: bce6 cbb9 bf59 95b9 79de 98b9 fc86 afb9
00000120: daa3 0f38 ac28 3939 413f 8f38 b7d0 a9b8
00000130: 4b90 1ab9 689a 3ab9 ef87 eab8 777e cab9
00000140: f89a d6b9 2802 fd35 7f5e 88b8 4437 1439
00000150: f1f2 5238 964b bcb9 40f7 db38 7f45 8bb8
00000160: ccf2 7a39 f71f 84b8 280d e138 e6bc 83b9
00000170: 285a 7ab9 9443 6db8 5405 92b7 574f 1bb9
00000180: 9480 0738 8b56 eeb9 d6d6 0439 2344 7637
00000190: 70e3 b538 e718 13b9 0e24 e4b8 d9f9 ecb7
000001a0: 6832 c938 c035 99b9 9b03 eb38 c2e8 4738
000001b0: 5d0a 88b9 2d55 49b9 da3d 6ab9 ff6e 5137
000001c0: 05f3 37b9 6e7c 8d37 a1ec 9a38 5357 7738
000001d0: 2f87 6eb9 6b34 3cb9 3f13 80b8 a4cb 1f39
000001e0: eeaf 5ab9 d6da 2039 ece4 cfb9 da59 fa37
000001f0: fc32 b237 b37d 9fb8 77ec 9e37 b2b8 a137
00000200: 48d2 68bb 3d3b f0ba 815a e1bb ef16 84bc
00000210: 421e 1c3c 3a8e 5abc 4991 19bc 11ba f0bc
00000220: ea72 363d f692 4bbd b0e3 adbd 733d f1bb
00000230: a285 aa3b 28d3 98bd aa05 26bc dd6b 813b
00000240: f5f5 a93c 3c53 53bc ddd2 a3ba 1587 65bc
00000250: e9a9 933d 1205 65bc 52ce 5e3d d658 183d
00000260: 03fd 39bc f708 023a 6038 52bd 7b08 cbbc
00000270: 8e18 3d3d 9f3a 98ba eb89 bb3c 8956 2cbc
00000280: 7e93 1f3b 1626 36bd ca27 9d3c e7d9 203c
00000290: 6ca6 bcbb 884f bd3d d3e1 87ba 76d4 1b3d
000002a0: bb7a 283c 139e 933d 8fb7 9cbb 5cc7 153d
000002b0: d237 0e3c 8ffb 1a3c 8a13 c23d a46e 69bc
000002c0: c34e 143a a822 7e3c 55e4 14bd 3141 cebb
000002d0: afc0 173d 709d 57ba 9170 74bc 7641 0b3b
000002e0: 9d5b 25bc 5ecf 623c db8e 823b 3d0d 913c
000002f0: 19ed 36bb fd3f a0bc 8795 44bc af80 34bc
00000300: 5d97 35bc 256d 6c3d 3fc9 afbb 46d5 763c
00000310: 08e2 8239 0e1f a23a 9f7f 023c 7e37 86bc
00000320: fce1 dfbc e85d fc3a 9270 153d e725 8e3d
00000330: 4644 9bba 4ffc 2bbc 3503 e53c 7a92 533c
00000340: 17d6 41bc 54ac 063d 339e 71bc 9052 36bc
00000350: 7568 a1bc 9f28 343d e8c3 89bc 8d76 cb3c
00000360: 8b40 c5bc efb2 293d d00c fc3c 207f b5bb
00000370: 104b 933d d710 4abc 280d 723d aee4 d13c
00000380: 3b93 ac3c caae ecbb 50ee 833c 2044 883d
00000390: f42e 033e 2419 65bc 0a59 05bc 91e8 c23b
000003a0: 39aa f53c 9b99 cdbd 0b23 23bb 826c 553c
000003b0: 3ff3 623c 5c34 433c 652a bb3b b26d 0a3b
000003c0: 4642 8e3c abe8 8a3d 9575 a93b c5de efbb
000003d0: baad 403a 6a33 673d a33d 9abb 319a febc
000003e0: 31aa 8e3b 3aad d5bc 9044 0b3c cd8c e73c
000003f0: 5bc4 09bd 374a ac3c 87a8 b0bb 6ecb ce3c
-2.5048379e-05 -0.00025169976 -0.0001781416 -7.231835e-06 8.8399596e-05 -0.0002633652 0.00014197611 -0.00040967725
-0.00035224433 -0.00018515585 -0.00024587798 -0.00014007247 6.154723e-05 -3.072681e-05 -0.00011010911 -0.0003215588
9.567384e-05 -0.00032912643 8.390109e-06 -0.00026619073 -0.00027820226 -0.00016659596 4.929896e-05 3.2186617e-05
-0.00022463086 -0.00016830239 -0.00037152707 -0.00013885075 -0.00014922196 7.043122e-05 -0.00018686826 -5.0800118e-05
-0.00018130156 0.0001388953 -0.00021445315 -3.6862828e-05 0.00012189839 1.9812738e-05 -0.00036823892 4.9428425e-05
-0.0002466113 2.0052472e-05 -0.00026665357 -0.00014473192 0.00010700938 -0.00032867867 -0.00026682232 -1.3628409e-05
-0.0003309367 -0.00023402205 8.7721244e-05 -0.00012723084 -0.00014828987 -0.00040473245 7.155479e-05 -0.00014180478
-0.00025894583 -0.00026855108 -7.381319e-05 2.6957734e-05 -0.00017466728 8.7804394e-05 1.9135547e-05 -0.00036025004
-0.00030246636 -0.00032841956 -1.0371032e-05 0.00010911466 -0.00038891088 -0.0002848636 -0.00029157454 -0.00033479172
3.4246455e-05 0.00017658126 6.830553e-05 -8.097424e-05 -0.00014740338 -0.00017795863 -0.00011183309 -0.00038622666
-0.00040932721 1.8850596e-06 -6.5025866e-05 0.00014134968 5.029416e-05 -0.0003591447 0.00010488788 -6.640981e-05
0.00023932307 -6.3002044e-05 0.000107312866 -0.00025127007 -0.00023875444 -5.656814e-05 -1.7407037e-05 -0.00014811508
3.2306256e-05 -0.00045459377 0.00012668534 1.4678607e-05 8.673116e-05 -0.0001402829 -0.00010878603 -2.8249737e-05
9.593816e-05 -0.0002922248 0.00011206345 4.766207e-05 -0.00025947663 -0.00019200584 -0.0002233902 1.2483214e-05
-0.00017542772 1.6866452e-05 7.387368e-05 5.8970716e-05 -0.00022747809 -0.00017948604 -6.1071005e-05 0.00015239284
-0.00020855639 0.00015340312 -0.00039652677 2.9844163e-05 2.1242995e-05 -7.605124e-05 1.894518e-05 1.9278701e-05
-0.0035525728 -0.0018328201 -0.006877244 -0.016124217 0.009528698 -0.0133395735 -0.009373018 -0.029385598
0.044543184 -0.0497007 -0.084906936 -0.0073620616 0.0052039186 -0.0746215 -0.010133186 0.003949626
0.020747164 -0.012898263 -0.0012498755 -0.014009257 0.07210142 -0.01397826 0.05439598 0.037194096
-0.011351827 0.00049604423 -0.051323295 -0.024784317 0.046165995 -0.001161415 0.022892913 -0.010518678
0.0024349387 -0.044469915 0.019184012 0.009817577 -0.0057571437 0.09243685 -0.0010366983 0.038044415
0.0102831675 0.07207885 -0.004782624 0.036567077 0.008680301 0.00945939 0.09476383 -0.01424757
0.00056574884 0.015511192 -0.036350567 -0.0062943925 0.03704899 -0.0008225059 -0.014919416 0.0021248735
-0.010092643 0.0138433855 0.003984315 0.017706508 -0.0027912317 -0.019561762 -0.011998541 -0.011017009
-0.011083451 0.057721276 -0.0053645666 0.015065497 0.0002496394 0.0012368874 0.007964998 -0.016383883
-0.027329437 0.001925406 0.03648431 0.06940823 -0.0011845909 -0.010497167 0.02795563 0.012913341
-0.011830828 0.03287919 -0.01474719 -0.011128083 -0.01970313 0.04398405 -0.016817048 0.024836803
-0.024078628 0.04143041 0.030767828 -0.005538836 0.071920514 -0.0123331165 0.059094578 0.025621738
0.021066299 -0.007222985 0.016104847 0.06653619 0.1281088 -0.013983045 -0.008138904 0.005948134
0.029988395 -0.100390635 -0.0024892713 0.013026359 0.01385194 0.011914339 0.005711841 0.0021122512
0.017365586 0.06782659 0.0051714876 -0.0073202574 0.0007350106 0.056445517 -0.0047070547 -0.031079384
0.0043537845 -0.026083577 0.008500233 0.028265381 -0.033634525 0.021031482 -0.005391184 0.025243487

linears.0.bias f4 [32]
00000000: 585e 81b9 649f 22b9 ee67 42b9 5f98 acb7
00000010: 0cfe 17b8 66b7 98b9 d5b5 72b8 779d 463a
00000020: 6fd9 67bc 0ebc 21b6 4193 8036 61ef 8c3c
00000030: 27a1 0438 434e 8636 beaf abb8 8217 16b9
00000040: 02ea 96b8 1518 b0b8 f965 393d a899 d638
00000050: c7e7 8bb6 5cfc 1438 65d9 1f39 3743 d639
00000060: 77a7 c035 c88b 3eb9 3f33 523d 601f f6b9
00000070: be81 80b7 4476 5938 877b 3d3a 6ba9 1f37
-0.0002467509 -0.00015508902 -0.00018539999 -2.0574951e-05 -3.6237805e-05 -0.00029128342 -5.786664e-05 0.00075765647
-0.014150961 -2.4100332e-06 3.83184e-06 0.017203989 3.1621337e-05 4.002622e-06 -8.18665e-05 -0.00014313872
-7.196145e-05 -8.3968196e-05 0.045263264 0.00010232936 -4.1695052e-06 3.5520978e-05 0.00015244407 0.0004086734
1.4353853e-06 -0.00018171885 0.051318403 -0.00046944153 -1.5319205e-05 5.1846975e-05 0.0007228185 9.516584e-06

linears.2.weight f4 [2, 32]
00000000: 9487 9fba c229 7ebe 9467 74b8 acde d538
00000010: 3572 8638 7ba8 68be 9aab 2d39 95d7 783e
00000020: 3c1a bebe 2442 6ab7 a510 0b38 0a96 c23e
00000030: b48a d9b9 ed35 0038 a63c 9b39 bafc 90b6
00000040: 9c01 7fb9 e496 9238 24db eb3e b196 12b7
00000050: a922 8538 2848 8e37 1ac1 e039 557c 31be
00000060: 09af 58b9 5211 38b8 3d05 8cbe 5160 8bbe
00000070: 21a1 02b9 6dc2 7f37 3c94 733e 0514 bf37
00000080: d9c9 a53c 3a1d fd3d d1fb 2bb9 5b77 0639
00000090: 8a5a bfb8 5d1f 513e 53cd 5c38 43e4 9ebe
000000a0: 3b11 ad3e 9029 2039 2fdd 3d39 1c96 d5be
000000b0: 99f7 2037 b9b0 6238 7b41 5238 586c 2eb9
000000c0: 6ade 50b9 751a f8b7 6847 05bf a159 1537
000000d0: 3d50 8337 e687 c838 ac6b d5b9 f497 4c3e
000000e0: 27ef 9438 7efd fdb8 d35b 8b3e a631 843e
000000f0: f5a6 32b8 22b4 a4b8 c996 19be 4850 0c39
-0.0012171143 -0.24820617 -5.8270598e-05 0.00010198107 6.410891e-05 -0.2272052 0.00016562492 0.24300988
-0.3712939 -1.3962886e-05 3.3155684e-05 0.38005096 -0.00041492807 3.05678e-05 0.0002960909 -4.3209557e-06
-0.00024319295 6.989928e-05 0.4606563 -8.737364e-06 6.34839e-05 1.696132e-05 0.0004286848 -0.17332585
-0.00020664571 -4.388515e-05 -0.27347746 -0.2722192 -0.00012457791 1.5244453e-05 0.23787016 2.2778297e-05
0.02023785 0.1235909 -0.0001640164 0.00012823699 -9.124454e-05 0.2042212 5.264331e-05 -0.31033525
0.33802208 0.00015274272 0.00018106842 -0.41716087 9.5943915e-06 5.4047185e-05 5.0128885e-05 -0.00016634294
-0.00019919281 -2.9576224e-05 -0.5206208 8.90196e-06 1.565378e-05 9.562056e-05 -0.00040706748 0.1997984
7.1017355e-05 -0.00012111197 0.27218494 0.2581913 -4.2593998e-05 -7.853682e-05 -0.14998926 0.00013381348

linears.2.bias f4 [2]
00000000: 3836 3ebb b8c2 bebd
-0.0029024016 -0.093144834

exp_avg f4 [128, 4, 12]
00000000: dc22 f8b7 e8aa 753a c277 543a c027 1c39
00000010: 6555 19bb d334 3d3b fdd9 07b9 581e 5c3a
00000020: a80a 803b 70f2 38bb 5728 c1ba 95d3 2eb8
00000030: a857 873b b1fc 3d3a 309e 13ba 6686 82ba
00000040: 0ae3 aeb8 73ca 16bb f26e cd3a c009 e73a
00000050: eb16 9139 1f3a 643b c37c 8a3a 371a dab9
00000060: 18ca 9eba 36f6 92ba bf45 8a39 2976 e53a
00000070: 9f58 ba38 3a33 7fb9 2f5f 9eba c8a7 d7ba
00000080: d155 eeba a309 ebb9 8fa6 5b3a 8904 1e3a
00000090: fe59 3dbb 36bb 0dba 72fc 05ba 75e9 6cba
000000a0: baf9 183b 5bb9 b3b9 1ba4 70b9 49e2 7aba
000000b0: 440d 1bbb a567 5eb9 d09e dcb9 dc28 18b9
000000c0: e232 943b 626a f8b9 3ba6 87bb 6e0b 07bb
000000d0: f7aa ae3a 3667 b9b8 1c6d 57ba 2b5b b93a
000000e0: f037 74b9 cfed aeb9 3674 ff3a dccc 693a
000000f0: ec17 88bb 5510 3e3b 7fe4 8c39 331b 71b8
00000100: cc80 97ba 886f f7ba c5e6 16ba 6ac5 d5ba
00000110: 9620 2b39 ddce 1939 9798 cd39 07be 0039
00000120: cd19 a9b9 9fab f7ba e772 8d3b 015c dab9
00000130: 2e2c e538 594b d73a cad1 143b 6bb7 24bb
00000140: fbaa 8139 4160 67b9 4060 bdba 6454 873a
00000150: 79ac 44b8 e5b4 0cba 31af e9b9 5b1b 263b
00000160: b2f3 95b9 7dea ae39 3af3 64ba 8bec 323b
00000170: 9a3e 3ab9 7eb6 d539 34f4 6aba 4929 06bb
00000180: 55fc 4cba b762 d43b 2593 9aba 7fd5 193a
00000190: b967 fab8 67f6 853b 85c4 08ba 841f 3239
000001a0: 2e07 afba abdb 30ba 3873 70b9 f3d2 0fba
000001b0: d49b acb8 59b0 1cb9 3a22 d7ba a892 26b9
000001c0: 50fd b23b dcc5 41ba 2710 9c3a 1a82 1e39
000001d0: 9c1b beba d782 0cba da38 693a 8d98 49bb
000001e0: 9a78 9b3b 133b d4bb 817f 9b3b 4695 80b9
000001f0: a8ed 87ba 43a5 52bb 7a54 aeb9 bf56 2a3a
00000200: 13de 573b e4f3 2e3b 589f 85b9 5af0 5c3a
00000210: 404d 7ebb ebbb 1739 a548 fcba c798 3fb9
00000220: 4718 8dbb 5161 0db9 1663 b0b9 2c7f 7eba
00000230: b932 05ba 8738 bfba bc98 d4b9 3351 363b
00000240: a3c9 ee3b 2f11 8ab9 31ef 8eb9 9b15 593a
00000250: 04ea 6339 ad7c a1bb 3a78 8ab9 ab6a 913a
00000260: c8c4 a138 c939 f4b9 0c38 fdb9 c2d0 b13a
00000270: c2be 763a e87f b13b 07fa 1c3b 65b3 65b8
00000280: c0d1 baba 5fd3 8939 8fba 3fb9 0ec2 adba
00000290: 5e20 66bb b7c7 2a3b 5d52 d13b d010 12ba
000002a0: 747c 3cba ddc7 3cbb 34ed ceba 5035 39ba
000002b0: d857 f5b9 9350 963b bb1c 7a39 27c8 88b7
000002c0: a639 873b ccf3 caba df2b 51ba b113 8b38
000002d0: ed11 f6bb ccf5 14bb 2296 0eba 7828 8cb8
000002e0: 73aa db3a 0cb9 a338 448e 5a39 21d4 7339
000002f0: 5084 35ba 5d1a 1bba 6159 a7bb 26f3 62ba
00000300: f23f ef39 e512 083a 4906 ddb6 7871 9aba
00000310: a894 0db8 27e3 ee3a 65fb de3a e18a e939
00000320: c6e4 28bb f0ab 9538 3fc8 b7b9 f560 c139
00000330: ceed 3cb9 3d69 ba39 67b3 f63a b325 ad3a
00000340: b53c 1bbb f11d 9b39 723a 0aba 4eb9 8839
00000350: b8a8 2e3a 6710 07ba 2a1d c239 6e33 093b
00000360: 6ab7 81b9 f714 00bb 45c8 06bb 02d2 5dba
00000370: 1f0a da39 79c5 b2ba bfc6 04bb 7644 b539
00000380: d860 c23a 80d2 bb38 349d b5b8 0450 32bb
00000390: e319 f1b7 2b86 8d3a 45d1 3d39 8c69 383a
000003a0: c231 023b 57ca 45ba a25e 5f3a 29e2 89ba
000003b0: 5851 e039 32c1 b939 8449 8c38 bb83 8739
000003c0: cedd ceb9 7c66 23bb bf1e 39b8 cdce 70b9
000003d0: 2635 bc3b 63ea 2f3b 275c 0e34 a774 a33b
000003e0: 27f2 d9b7 eafb ddba ec77 9eb9 ff31 0abb
000003f0: 4887 423a 2dea 66b9 4aa2 5bba 29b6 da3b
-2.9580136e-05 0.00093714753 0.00081050035 0.00014892127 -0.0023396846 0.0028870597 -0.0001295581 0.00083968556
0.0039075203 -0.0028220676 -0.0014736754 -4.1681884e-05 0.0041303225 0.0007247432 -0.0005631177 -0.0009958267
-8.339256e-05 -0.0023008853 0.0015673323 0.0017626807 0.0002767363 0.0034824682 0.0010565746 -0.00041599732
-0.0012114672 -0.0011212293 0.00026373376 0.0017506528 8.885678e-05 -0.00024337778 -0.001208281 -0.0016453201
-0.0018183534 -0.00044829873 0.0008379006 0.00060278975 -0.002889275 -0.000540662 -0.00051111646 -0.00090374734
0.0023342208 -0.0003427964 -0.00022949318 -0.0009570462 -0.002365903 -0.0002121018 -0.00042079994 -0.00014511071
0.0045226673 -0.00047381507 -0.0041396893 -0.0020606178 0.0013326098 -8.840712e-05 -0.00082178577 0.001414155
-0.00023290492 -0.00033365047 0.001948959 0.0008918771 -0.0041532423 0.0029001434 0.00026873124 -5.748421e-05
-0.001155877 -0.0018877843 -0.0005756433 -0.0016309444 0.0001631997 0.0001466828 0.00039214335 0.00012277822
-0.00032253415 -0.0018895752 0.004316676 -0.00041648748 0.000109278 0.0016425654 0.0022708052 -0.002513374
0.00024732188 -0.00022065734 -0.001444824 0.0010324833 -4.689067e-05 -0.00053675316 -0.0004457175 0.0025345895
-0.00028601062 0.00033362574 -0.00087337533 0.0027301635 -0.00017761663 0.00040762493 -0.00089627807 -0.0020471385
-0.0007819583 0.0064814943 -0.001179312 0.00058683 -0.00011940249 0.0040882113 -0.0005217272 0.00016987143
-0.001335358 -0.00067466 -0.00022931106 -0.0005486451 -8.2306244e-05 -0.00014943014 -0.0016413399 -0.00015885627
0.005462326 -0.0007391849 0.0011906669 0.00015116521 -0.0014504078 -0.0005360073 0.0008896716 -0.0030761093
0.0047446014 -0.0064767688 0.0047454243 -0.0002452528 -0.001037051 -0.003214196 -0.00033250806 0.00064979115
0.0032938763 0.0026695663 -0.00025486457 0.0008428149 -0.0038803369 0.00014470487 -0.0019247724 -0.00018272093
-0.0043058726 -0.00013483061 -0.0003364316 -0.0009708281 -0.00050811056 -0.001458899 -0.00040549587 0.0027819395
0.0072872206 -0.00026334214 -0.00027262562 0.00082811125 0.00021735585 -0.0049281926 -0.00026410987 0.0011094412
7.7137316e-05 -0.0004658236 -0.0004829768 0.0013566243 0.00094125804 0.005416859 0.002395274 -5.476493e-05
-0.0014253184 0.0002628816 -0.00018284678 -0.0013256685 -0.0035114507 0.002605898 0.0063879923 -0.0005571963
-0.0007190176 -0.0028805651 -0.0015787245 -0.0007065134 -0.0004679549 0.004587242 0.00023852561 -1.6305667e-05
0.0041267453 -0.0015484034 -0.00079792546 6.631704e-05 -0.007509461 -0.0022729514 -0.00054392416 -6.683258e-05
0.0016759172 7.806913e-05 0.00020843098 0.0002325331 -0.0006924318 -0.0005916709 -0.0051070903 -0.0008657448
0.00045633275 0.0005190804 -6.587045e-06 -0.0011783084 -3.3755467e-05 0.0018225656 0.0017012177 0.00044544696
-0.0025771125 7.1368995e-05 -0.00035053675 0.00036884067 -0.00018017666 0.00035555093 0.0018821777 0.0013210088
-0.0023687307 0.00029586212 -0.0005272991 0.00026078004 0.00066627143 -0.00051522854 0.00037024292 0.0020935195
-0.00024741451 -0.0019543746 -0.0020566147 -0.00084617746 0.0004158774 -0.0013639174 -0.0020260063 0.00034574018
0.0014829887 8.9560635e-05 -8.660034e-05 -0.0027208338 -2.8741493e-05 0.0010797431 0.00018102404 0.00070347707
0.0019866084 -0.00075451046 0.0008520876 -0.0010519671 0.00042785215 0.0003542989 6.6894136e-05 0.00025847353
-0.0003945664 -0.0024932912 -4.413607e-05 -0.00022965223 0.0057436405 0.0026842586 1.3258305e-07 0.0049882713
-2.5981177e-05 -0.0016936038 -0.00030225457 -0.002108693 0.0007420671 -0.00022021747 -0.000837837 0.006674547

exp_avg_sq f4 [128, 4, 12]
00000000: 1219 9c34 24c5 4536 768f 4a36 f514 d734
00000010: e71d 9636 f744 a836 45a2 3335 e472 7c35
00000020: 2609 ba35 2264 9636 1796 df36 513d 1135
00000030: 9455 e336 6c4f d135 dafc 6a36 2e28 f435
00000040: 2bc5 6734 b6c6 9936 4850 9336 f380 7f36
00000050: 688a 1e35 9fdf 8936 22aa 8e36 8aa3 5e35
00000060: 0bb9 1836 a9f0 0e36 556c ec35 fab1 1936
00000070: 018c 8c36 9216 8335 9b10 2f36 e33c 0436
00000080: 6dc9 8036 c6c0 8635 5d5e c736 46df 3335
00000090: cf43 a236 4c3b 8e36 b118 8234 cf25 2b35
000000a0: b152 4236 1882 fb35 585c 3535 459f 3d36
000000b0: 62fd 6f36 eb23 2234 9b5d a034 8d75 f535
000000c0: a590 fe36 a566 1736 6808 0f37 90db da36
000000d0: de83 0c37 751e a834 5356 8b36 e42f 9536
000000e0: e8b7 4734 65f3 0535 9a5e 2f37 8ee1 8536
000000f0: 5c58 1437 d772 5c37 64fb 4837 f55e d336
00000100: fbf2 4837 7615 1f37 2a0d b836 33b4 2837
00000110: 8f14 a136 8999 da36 2eb9 2c37 50a7 fe36
00000120: 1a9b 7534 5253 8136 0575 9436 21c8 1235
00000130: a2e5 2836 f1cc 2536 8891 1637 b0b3 fb36
00000140: db8b 2436 df61 4e35 1ebe b836 09cb 2737
00000150: d2ea 2d34 4fe7 c636 04c9 8235 1cfa ee36
00000160: 691c 3b35 f1cb f636 de80 a936 2db4 d336
00000170: ad5e 9935 9123 f436 2d8e a536 9bd5 6b36
00000180: 3d57 2636 7b5b e236 e1e2 f635 865d 4f36
00000190: 7e7e 8436 f36b fc36 91e0 a035 7d4e d835
000001a0: 3f5b 0337 8040 1d37 110d 3f37 2a0e 8735
000001b0: 2678 3b36 36a1 a136 c758 ff36 270a b534
000001c0: 07fd 7136 d3db 8036 aaac 9436 0e88 0a37
000001d0: db36 8336 e379 b135 f57e e834 c6aa 0b37
000001e0: 80e8 3837 f3c5 2437 05f1 6d37 e177 ce35
000001f0: 2021 4f37 505a 1a37 6e13 7536 e87f 1c36
00000200: cfbf 4037 2b01 2b37 6792 5137 81c9 1637
00000210: b7b9 0a37 4ebd 9534 23a2 7e36 e4db b635
00000220: eb5f 0537 3640 1335 8dba 2c35 569e 2137
00000230: fba7 2636 52dc 5336 55c6 2536 086f 9f35
00000240: 2451 6537 f3c7 db35 d7cf 5b35 83af 4235
00000250: b7d2 3e35 7cc9 1537 0e57 af35 457c c536
00000260: fe11 af35 5735 9c36 1ac8 c335 ca11 2537
00000270: e63f c435 cf28 e336 f121 5e37 0809 2834
00000280: c71c 5436 ea12 2535 5213 8936 7052 3d36
00000290: e640 2937 5dd3 5337 6ece 7837 ee06 b836
000002a0: 926f 6d37 6ef7 5137 a13e 9637 8fb4 2236
000002b0: 9928 1437 9f7e 0f37 b12b da36 af9f f236
000002c0: d1f2 2137 9cd7 e336 4a3a 9637 660c 3936
000002d0: cd55 8e37 fdab 6037 1805 de36 855a c135
000002e0: b842 ec36 12bc c135 612c ac35 4d78 1b35
000002f0: f271 4d35 9d13 1837 5e4c 4a37 2d5f 0f37
00000300: 2741 f935 c1bd 8634 373e 8233 cb38 0d36
00000310: d977 0e36 e658 3f36 e8fe 4436 32fc 7b35
00000320: c0a0 7735 9df5 8134 3f16 1b36 829a da33
00000330: 0ab0 7934 59d9 7a35 fc79 0636 c79f 6b35
00000340: f4df f235 8f3a b035 1a49 3a36 38a6 3735
00000350: 59cd 9f34 f98c 6a35 e3fd e234 f33f 0e36
00000360: a0e7 e635 65f6 4336 4de7 2336 6117 1c36
00000370: 75fd 8c35 bcd2 d835 8108 1c36 15f9 a334
00000380: 9f7d 2536 e632 8d33 75a4 8435 1103 2036
00000390: ac6e 3c36 132b ca35 6082 5134 3683 2035
000003a0: 8a71 2936 50ff ed35 f386 0f35 ccdb da35
000003b0: 3bd4 ea35 30c3 e634 c24a c835 835e 9633
000003c0: 0673 0b37 6ca6 5637 e4db 4933 ed65 e836
000003d0: 61e3 e036 1289 fe35 4e7a c634 2b7b 5337
000003e0: eec1 c035 584d 3737 2bad aa36 4fa1 b336
000003f0: 21cc e635 e826 3c35 f8d0 c035 0b63 ab36
2.9075505e-07 2.9470038e-06 3.018385e-06 4.006212e-07 4.4738294e-06 5.0148187e-06 6.691883e-07 9.4044503e-07
1.3860742e-06 4.4820054e-06 6.6633906e-06 5.4105936e-07 6.77509e-06 1.5594828e-06 3.5015896e-06 1.819111e-06
2.1585281e-07 4.5828883e-06 4.3902874e-06 3.807302e-06 5.9060994e-07 4.108951e-06 4.251736e-06 8.2939425e-07
2.2757474e-06 2.1299732e-06 1.7614899e-06 2.2902373e-06 4.1886237e-06 9.766829e-07 2.6086698e-06 1.9704974e-06
3.8381463e-06 1.0039882e-06 5.9416475e-06 6.70076e-07 4.83587e-06 4.238833e-06 2.4232352e-07 6.3757483e-07
2.8956385e-06 1.873882e-06 6.756213e-07 2.8255902e-06 3.5761263e-06 1.5100493e-07 2.987043e-07 1.8288134e-06
7.5866287e-06 2.25605e-06 8.525421e-06 6.5224667e-06 8.375353e-06 3.13146e-07 4.1525723e-06 4.4461212e-06
1.8600224e-07 4.9900547e-07 1.0452839e-05 3.989967e-06 8.84206e-06 1.313976e-05 1.197946e-05 6.2993445e-06
1.1977502e-05 9.482135e-06 5.48516e-06 1.0055536e-05 4.8005672e-06 6.51478e-06 1.0295114e-05 7.5892676e-06
2.2873829e-07 3.8541993e-06 4.4243666e-06 5.4680464e-07 2.5167615e-06 2.4706208e-06 8.974581e-06 7.5013013e-06
2.451931e-06 7.68834e-07 5.50576e-06 1.00012485e-05 1.6197308e-07 5.9277877e-06 9.744258e-07 7.1220693e-06
6.970427e-07 7.355113e-06 5.0515946e-06 6.3092652e-06 1.1426943e-06 7.275907e-06 4.9339346e-06 3.5142064e-06
2.4786707e-06 6.7459746e-06 1.8394459e-06 3.0899841e-06 3.948632e-06 7.522752e-06 1.1986286e-06 1.6116097e-06
7.829453e-06 9.372947e-06 1.1387529e-05 1.0062406e-06 2.7935107e-06 4.8169413e-06 7.6099273e-06 3.3721264e-07
3.605908e-06 3.840288e-06 4.4308445e-06 8.257119e-06 3.9104902e-06 1.3223001e-06 4.330574e-07 8.324807e-06
1.1021388e-05 9.82125e-06 1.41824175e-05 1.5383085e-06 1.2345874e-05 9.200143e-06 3.6519154e-06 2.3320263e-06
1.1488751e-05 1.0192666e-05 1.2491458e-05 8.987613e-06 8.268681e-06 2.789115e-07 3.7943325e-06 1.3624053e-06
7.94975e-06 5.4855207e-07 6.434646e-07 9.633213e-06 2.4833705e-06 3.1569693e-06 2.470236e-06 1.1878737e-06
1.3668356e-05 1.6374964e-06 8.1886304e-07 7.2526035e-07 7.1087146e-07 8.928004e-06 1.3063852e-06 5.8855244e-06
1.3043752e-06 4.655372e-06 1.4586869e-06 9.838908e-06 1.4621735e-06 6.769878e-06 1.3240134e-05 1.5649505e-07
3.1607212e-06 6.1494814e-07 4.0851673e-06 2.821118e-06 1.0088295e-05 1.2625792e-05 1.4830015e-05 5.484434e-06
1.4152278e-05 1.251498e-05 1.7910557e-05 2.424498e-06 8.83094e-06 8.5529455e-06 6.5019926e-06 7.2307516e-06
9.652883e-06 6.7902274e-06 1.7908536e-05 2.7574365e-06 1.6967673e-05 1.3391485e-05 6.6167086e-06 1.4405965e-06
7.041115e-06 1.4434356e-06 1.2827915e-06 5.791706e-07 7.6534263e-07 9.064473e-06 1.2057919e-05 8.545624e-06
1.8570908e-06 2.509751e-07 6.0649135e-08 2.1043695e-06 2.122941e-06 2.8512964e-06 2.935465e-06 9.387178e-07
9.224859e-07 2.420683e-07 2.3109749e-06 1.0179521e-07 2.3253975e-07 9.344854e-07 2.003856e-06 8.777683e-07
1.8095584e-06 1.3130065e-06 2.775871e-06 6.841469e-07 2.9765468e-07 8.7376935e-07 4.2280507e-07 2.1196872e-06
1.7203747e-06 2.9200685e-06 2.4423528e-06 2.325942e-06 1.0504579e-06 1.6154586e-06 2.3250761e-06 3.0542347e-07
2.4660037e-06 6.5750825e-08 9.88263e-07 2.3843643e-06 2.8078603e-06 1.5062709e-06 1.9512072e-07 5.979558e-07
2.524905e-06 1.7732182e-06 5.346803e-07 1.6306235e-06 1.7496126e-06 4.2982856e-07 1.4922919e-06 7.002111e-08
8.311827e-06 1.2794142e-05 4.699895e-08 6.9260045e-06 6.7021906e-06 1.8964367e-06 3.6969362e-07 1.2605257e-05
1.4361556e-06 1.0925658e-05 5.086554e-06 5.3533945e-06 1.7195745e-06 7.0092074e-07 1.4365933e-06 5.1077272e-06

exp_avg f4 [128]
00000000: e483 a93b 00fb e93b b487 fc3b e8fc 083c
00000010: 6f6a 81bb a2f3 103c 9ffd c83b 6d74 743b
00000020: 17b2 a1bb fd09 fb3b b289 4d3c 3789 043c
00000030: c32c e3ba dd8a 1d3c 9c60 bd3b 520d 87bb
00000040: 793b 94bb e5da 043c 73f1 a53b 3f74 f63b
00000050: c297 15bc 4a49 053c cd1f 0bbc 2fe9 5bbb
00000060: d95d c93b 5bf5 cfba 2dd0 153c 3dcf 0e3c
00000070: 8a5e a2bb 1f5b 553b ad93 7fbb 7f3f 293c
00000080: 0394 43bb 6fc8 213c 9370 f1bb 381c afbb
00000090: e040 cc3b 4b0c 83bc aa29 813b 6403 2bbc
000000a0: 2204 a6bb 38b9 63bc 6c10 973b cdf7 13bc
000000b0: b180 afbb 9b61 8fbb ebe1 32bc cd59 133c
000000c0: 564d 97ba fe33 47bb f55a 9d3b 522f af3b
000000d0: 4aa3 e1bb a561 5f3b 5205 ce3b 345b 22bb
000000e0: 557a 9a3b 18a7 34bb 83ab 3ebb 7020 babb
000000f0: 7d21 1f3b 5788 023c 9a2f a83b a67a 2c3c
00000100: 226b bc3b 4efa a2bb 03ff cd3b 6562 d8bb
00000110: a2d7 8eba d01d 05bb 4d01 93bb 6b80 f33b
00000120: e7a8 113c 9aad 0ebb 2be7 9bbb ab0d 1ebc
00000130: b180 733b 8a13 dd3b 6d27 1cbc b02f 82bb
00000140: 2025 b03b 38f9 ecbb 5092 ca3b 5942 fb3b
00000150: fd02 303c afb0 1ebc bd38 f33b 2234 03bc
00000160: 712f fc3b 2615 38bc 8e34 25bc 2e6a d93b
00000170: 2cf4 ffbb fe90 df3b b12c 37bc 0309 d6bb
00000180: b1f1 19bc 7d37 9b3b b632 b3bb e363 79bc
00000190: 20d8 aabc 9211 1c3c cdb4 c53b eb71 a1bb
000001a0: 8935 9cbb babc 8e3c 32d1 e43b 5646 bcbb
000001b0: 5e8e a6bb c93a e5bb 4cf8 c6bb 11e1 caba
000001c0: 7eae bcbb 8441 65bc dbcc 51bb a9bd d13b
000001d0: 38ea 50bb a6ac f1bb 5c0a 043c ccee 383c
000001e0: a6b2 8cbb f3fa 163c 098c bfbb 6ee6 f8bb
000001f0: 425b 153c 2de5 bebb 11ee b13b 33e9 8abb
0.0051731933 0.0071405172 0.0077066068 0.008361079 -0.0039494555 0.008847149 0.0061337496 0.003730084
-0.00493456 0.007661103 0.012545036 0.008089355 -0.0017332066 0.009615627 0.005779339 -0.004121461
-0.0045236913 0.008108829 0.0050641834 0.007521182 -0.00913042 0.008135149 -0.008491469 -0.0033555736
0.0061452207 -0.0015865968 0.009143871 0.008716402 -0.0049551176 0.0032555533 -0.0038997934 0.01033008
-0.002984286 0.009874447 -0.007368156 -0.00534394 0.0062333196 -0.015997073 0.0039417343 -0.01043782
-0.0050664106 -0.01389914 0.004610112 -0.009031248 -0.0053559174 -0.004375649 -0.010918121 0.008993578
-0.0011543434 -0.003039598 0.0048021027 0.005346217 -0.0068859207 0.00340853 0.0062872553 -0.00247736
0.00471429 -0.0027565416 -0.0029093928 -0.0056801364 0.0024281435 0.007967076 0.0051326277 0.010527289
0.005750076 -0.0049736863 0.0062865033 -0.0066035264 -0.0010898004 -0.002031196 -0.004486239 0.00743108
0.008890367 -0.0021770955 -0.004757782 -0.009646813 0.0037155563 0.006746714 -0.009530884 -0.00397297
0.0053755194 -0.0072318576 0.0061819926 0.0076678214 0.0107429 -0.009685679 0.007422535 -0.008008035
0.007696085 -0.011235511 -0.010083331 0.006634972 -0.00781109 0.0068227043 -0.011180089 -0.006531836
-0.009396003 0.0047368393 -0.0054686917 -0.015221569 -0.02085501 0.009525673 0.006033516 -0.00492691
-0.004767124 0.017423976 0.006982946 -0.0057456894 -0.0050828895 -0.006995533 -0.0060720798 -0.0015478452
-0.005758106 -0.013992671 -0.0032012973 0.006400783 -0.0031877887 -0.0073753176 0.0080591105 0.011287402
-0.0042937575 0.009215104 -0.005845551 -0.0075958287 0.009115996 -0.0058256597 0.005429991 -0.0042392253

exp_avg_sq f4 [128]
00000000: 7017 cf37 ec70 7138 4ac1 7f38 8a6a 8c38
00000010: a944 6337 9a9c b738 3a39 e537 f780 4237
00000020: 2f44 d737 4e2a 4438 5cfd 3739 5bbf 9038
00000030: 391f 0836 d331 da38 5a05 cc37 5cd4 9837
00000040: a7b5 b437 108f 7938 fe35 c437 9369 4938
00000050: b113 e138 173f 7a38 9316 8c38 6c88 9737
00000060: 462d 0738 3289 8e36 bf4f c938 f362 a438
00000070: 12da d137 126c 2337 383f 9e37 a7cc 0439
00000080: 6920 0037 3206 ab38 d179 5438 eb7b fe37
00000090: 4fc0 0938 bab1 6339 6dac 8737 7cd6 db38
000000a0: 22c7 0a38 bb0c 2139 30b3 9237 187c 7e38
000000b0: 8cd2 f437 9a3a b037 6339 d038 b1c9 a038
000000c0: 9064 4a36 0098 5837 e97c 3737 a5f9 be37
000000d0: e627 2038 2b34 3037 41b7 da37 4375 1037
000000e0: 6b01 6537 3975 ff36 8597 1137 f4b3 ca37
000000f0: 3140 2336 e354 3538 7c48 9137 38b6 0739
00000100: 5a32 d937 d9da 0638 3e7e 1338 dfc0 3038
00000110: 3f77 c635 0248 b536 69e2 a237 e062 6538
00000120: 7bd0 8238 a581 8236 4525 9637 3413 7a38
00000130: 5999 6437 59de 2338 c907 d338 d64a b537
00000140: c862 d837 7ef9 1738 9813 ec37 a05b 6738
00000150: 8428 f938 b9a8 dc38 3156 3738 6119 6338
00000160: c180 f037 2efd 0639 e941 0d39 3ddb 3b38
00000170: cdf9 5a38 494c 3a38 955a 0139 0e82 fe37
00000180: 3851 e738 2013 8437 230d b637 4c0a 5e39
00000190: db9b 9e39 9c6a c738 7848 fa37 6183 0438
000001a0: 025d d437 3264 ae39 390d 4d38 53ed 2a38
000001b0: d30f c337 6c8d 5e38 2543 4438 7437 d435
000001c0: 5fad 0038 d370 2639 37a1 2437 a188 1938
000001d0: 51bf 8637 3441 7238 8800 9038 5ebb ef38
000001e0: 2e00 cc37 1618 7e38 4ea8 4c38 7f86 8238
000001f0: 1fdc 7638 ac2b e737 cb2a c637 b0ae e237
2.4687237e-05 5.7564044e-05 6.0976752e-05 6.695565e-05 1.3546241e-05 8.755289e-05 2.7325576e-05 1.1593328e-05
2.5661748e-05 4.676944e-05 0.00017546624 6.902098e-05 2.0283753e-06 0.000104043305 2.4321187e-05 1.82187e-05
2.154226e-05 5.9499464e-05 2.3390163e-05 4.8020458e-05 0.00010732504 5.96634e-05 6.679925e-05 1.806413e-05
3.2228672e-05 4.2479014e-06 9.599281e-05 7.83856e-05 2.5016288e-05 9.740719e-06 1.8864506e-05 0.0001266474
7.636941e-06 8.1550694e-05 5.065819e-05 3.0336863e-05 3.2842447e-05 0.00021714615 1.6173546e-05 0.000104826846
3.308722e-05 0.00015358899 1.7487997e-05 6.067389e-05 2.918511e-05 2.1008123e-05 9.928902e-05 7.6669625e-05
3.015888e-06 1.29099935e-05 1.0936733e-05 2.2766015e-05 3.818413e-05 1.0502564e-05 2.607296e-05 8.610371e-06
1.3649794e-05 7.6132387e-06 8.677952e-06 2.4164074e-05 2.4326257e-06 4.323282e-05 1.73191e-05 0.00012942485
2.5891863e-05 3.2151907e-05 3.5165103e-05 4.2141295e-05 1.4786855e-06 5.402603e-06 1.9417335e-05 5.468994e-05
6.2377156e-05 3.8893945e-06 1.7898748e-05 5.962253e-05 1.3625563e-05 3.9069306e-05 0.00010062714 2.161173e-05
2.5795205e-05 3.6233563e-05 2.8142516e-05 5.5160024e-05 0.00011880792 0.000105218445 4.3710872e-05 5.4144653e-05
2.8670185e-05 0.00012873553 0.00013471361 4.4788456e-05 5.2207895e-05 4.44169e-05 0.00012336143 3.0339721e-05
0.000110300665 1.5744532e-05 2.1702208e-05 0.00021175406 0.0003025223 9.508917e-05 2.9836068e-05 3.159361e-05
2.531568e-05 0.00033262518 4.8888123e-05 4.0752184e-05 2.325318e-05 5.3060634e-05 4.6792575e-05 1.581137e-06
3.0679043e-05 0.00015873024 9.8126975e-06 3.660529e-05 1.6063133e-05 5.775802e-05 6.866554e-05 0.00011431308
2.4318779e-05 6.058075e-05 4.8794136e-05 6.223935e-05 5.8855974e-05 2.7557682e-05 2.3623366e-05 2.7022645e-05

exp_avg f4 [32, 128]
00000000: 4432 0e38 fe5b 51b9 4317 89b9 d6b7 aeb9
00000010: 0496 b8b9 69e7 7ab8 4e2c bfb9 b168 06b9
00000020: ec7d 8a39 4ce9 9db9 e444 7ab9 c7b1 8eb9
00000030: b3dd b8b9 6c28 a2b9 4273 93b9 7194 36b9
00000040: ecd3 27b9 34e5 36b9 b942 9db9 c3e2 88b9
00000050: 1a80 19b5 da2a 5fb9 88bb 28b9 3d95 a2b9
00000060: 3b46 dcb8 5413 91b9 925e 0eb8 46bd 8fb9
00000070: e6b9 5db9 217b db38 fecf 66b9 545c 97b9
00000080: 9cff 13b9 ec61 beb9 4346 68b9 ce6a 9db9
00000090: 30ea 4bb9 793d a8b9 00f1 0b38 794b 36b6
000000a0: 054d 3fb9 b556 a4b9 dbd9 25b9 4fc6 69b9
000000b0: fe5b 3cb9 df59 c1b8 9dfb e0b8 b5e6 a4b9
000000c0: b526 b5b8 4a8e 67b9 3411 45b9 5b6e 95b9
000000d0: 4812 0db9 853d 80b8 0073 3ab9 4df5 8cb9
000000e0: 0411 73b9 6b0a 67b9 d652 92b9 7971 86b9
000000f0: e13e 8cb9 0fa6 a5b9 ef70 b5b9 9809 3d38
00000100: eee4 edb8 9f34 b437 103c a5b9 4b52 a7b7
00000110: dd53 f3b7 1134 01b9 19a5 e9b7 314e 16b9
00000120: 996a 0eb6 e4d3 50b8 cef0 27b9 669f 6ab9
00000130: c974 4eb9 23e8 40b9 4272 6bb9 47d8 b937
00000140: 7e98 4e37 9fe8 b1b9 238e 66b9 ecfc 44b9
00000150: bd42 a2b9 7a5b 1339 fdeb b7b9 a2c9 86b9
00000160: e7ff cab7 2b4f 3bb8 387b 2db9 a8e5 c5b8
00000170: 0a88 e2b8 78c4 95b9 b783 95b9 e844 6ab9
00000180: 0c20 0f39 6a61 8cb8 a04c 3bb9 0d17 de38
00000190: a1d3 e238 b4e8 60b9 f49b 6cb9 f635 96b9
000001a0: 1253 31b9 ab50 33b9 8ccb 1cb8 5d66 50b3
000001b0: 8c0a bcb8 1110 0db9 8356 49b9 48f8 e938
000001c0: 251d 89b9 b66c a8b9 6cf1 b4b9 b8b9 b6b9
000001d0: 9aeb bdb8 5057 0cb8 9a5f aab9 5aaf 3fb9
000001e0: ab15 b737 7abd 46b9 676f 37b9 57de a7b9
000001f0: 9765 bbb9 6172 80b9 88ea b2b9 e4c4 aeb9
00000200: 6586 96bb b480 9dbb 27a0 4fbb edf9 85bb
00000210: 327f b3bb 6472 c6bb 6d02 5abb 114d c0bb
00000220: fa34 b0bb 64ee 8dbb 98cc bfbb 6730 a0bb
00000230: 8627 fbbb 0858 b0bb b7ae acbb 6275 cebb
00000240: a1b8 b8bb 5cba 98bb fce9 94bb d3ef ccbb
00000250: 4241 92bb a254 7bbb f4a5 e0bb 0d55 51bb
00000260: 25f2 8fbb 4f7f 9cbb c1c6 aebb 2eb6 a9bb
00000270: 902a cbbb db90 a5bb 66e1 8fbb 4a47 88bb
00000280: 6666 a6bb 3c58 42bb 5d56 9dbb 0934 babb
00000290: f7ba 72bb 547c 0dbc 14eb a2bb f47d a3bb
000002a0: 3ae2 b1bb 0b93 b6bb c81d a8bb 671f a8bb
000002b0: f95f 30bb 86a9 d9bb 1d6a cebb 2afe c3bb
000002c0: 7bba e1bb 6b6b 86bb a674 90bb 2737 9cbb
000002d0: 6954 ccbb ef22 b4bb d52d 52bb a945 a3bb
000002e0: 644e d4bb ed84 37bb f954 b6bb 45e0 12bb
000002f0: 6f23 71bb 99c5 32bb 2ee7 8dbb 99ef c1bb
00000300: 5871 60bb f9a0 b3bb 2d40 7bbb 1309 7cbb
00000310: d56a 69bb ffe7 62bb bf41 b5bb b5c2 b8bb
00000320: a1cd 45bb 9226 91bb 948c cdbb 61d1 46bc
00000330: 21e9 cbbb dc6e 9cbb 4468 debb c3b8 bdbb
00000340: 2625 cabb f24e a5bb 40c2 bcbb 5f1c 48bb
00000350: 93fc 3dbb 922f dcbb 6d4a b0bb 07de 3fbb
00000360: a8e6 38ba 69a9 6abb ce6d 95bb 20e1 cebb
00000370: 0d4b e6bb 7115 b2bb fa74 22bb 5c12 83bb
00000380: cb66 64bb 056a bcbb fa27 88bb cdff bfbb
00000390: 2b15 81bb 3805 adbb 07a7 aabb 476d c9bb
000003a0: 8e44 94bb 1d56 7dbb 4a60 16bb e2e8 bcbb
000003b0: 3971 a4bb e469 00bc 3ff4 a3bb 2d15 b4ba
000003c0: d385 e1bb 4eab aabb 67bc 90bb 844f ccbb
000003d0: 7e68 a9bb aa5f b9bb f14a 97bb 28ff 62bb
000003e0: 5309 d3bb 043a 9dbb 4031 86bb 92ce 88bb
000003f0: 8b92 61bb e5ac eabb a7dd 8bbb 5382 f4bb
3.390225e-05 -0.00019966063 -0.00026148008 -0.00033324835 -0.00035206985 -5.9820162e-05 -0.00036463368 -0.00012818236
0.0002641523 -0.00030119193 -0.00023867522 -0.00027216805 -0.00035260394 -0.00030929164 -0.000281239 -0.00017412171
-0.00016005308 -0.00017442257 -0.00029995086 -0.00026108892 -5.7183354e-07 -0.000212829 -0.0001609159 -0.0003101024
-0.00010503499 -0.00027670956 -3.3943514e-05 -0.00027416105 -0.00021145455 0.00010465668 -0.00022011992 -0.00028869754
-0.00014114234 -0.00036312582 -0.00022151419 -0.0003002495 -0.0001944683 -0.00032089258 3.336463e-05 -2.7164044e-06
-0.00018243871 -0.0003134512 -0.00015816784 -0.00022294487 -0.00017963347 -9.219697e-05 -0.00010728019 -0.00031452408
-8.637962e-05 -0.00022082884 -0.00018793793 -0.00028501716 -0.00013453618 -6.1149745e-05 -0.00017781183 -0.00026885644
-0.00023180625 -0.00022033758 -0.00027909008 -0.00025643015 -0.0002674973 -0.00031594976 -0.00034607152 4.5070046e-05
-0.00011343682 2.1482176e-05 -0.00031516002 -1.9946272e-05 -2.900691e-05 -0.00012321795 -2.7852644e-05 -0.00014334243
-2.1221697e-06 -4.9788403e-05 -0.00016016068 -0.0002237536 -0.00019689197 -0.00018397025 -0.00022453911 2.215443e-05
1.2314062e-05 -0.00033933387 -0.0002198746 -0.00018786237 -0.00030948772 0.0001405309 -0.00035080305 -0.000257087
-2.419944e-05 -4.4658005e-05 -0.00016544468 -9.436469e-05 -0.00010801859 -0.00028565875 -0.0002851763 -0.00022341649
0.00013649481 -6.693865e-05 -0.00017862255 0.000105900785 0.00010815939 -0.00021448993 -0.00022564811 -0.00028650434
-0.00016910982 -0.00017100821 -3.7382866e-05 -4.8521873e-08 -8.966503e-05 -0.00013452793 -0.00019201082 0.00011156552
-0.0002615239 -0.00032124453 -0.0003451215 -0.00034852116 -9.0561065e-05 -3.3459917e-05 -0.00032496155 -0.00018280503
2.182539e-05 -0.00018953337 -0.0001749374 -0.00032018378 -0.0003574311 -0.0002449928 -0.00034125545 -0.0003333456
-0.004593658 -0.0048066024 -0.0031681152 -0.0040886314 -0.0054778093 -0.006056117 -0.0033265606 -0.005868562
-0.005377409 -0.004331397 -0.005853247 -0.0048885825 -0.0076646237 -0.005381588 -0.005269851 -0.006300614
-0.005637244 -0.0046608876 -0.0045444947 -0.006254175 -0.0044633457 -0.0038350006 -0.0068557207 -0.0031941563
-0.0043928795 -0.0047759186 -0.005333752 -0.005179188 -0.006200142 -0.0050526685 -0.0043908833 -0.004158889
-0.005078125 -0.0029654643 -0.004801555 -0.0056824726 -0.003703771 -0.008635599 -0.004971871 -0.00498938
-0.0054285796 -0.005571728 -0.0051305033 -0.0051306966 -0.0026912673 -0.006642523 -0.006299271 -0.0059812265
-0.0068886853 -0.0041021607 -0.004408437 -0.004767317 -0.0062356484 -0.0054973285 -0.0032070775 -0.0049826694
-0.0064790715 -0.0028002814 -0.0055643287 -0.0022411507 -0.0036794802 -0.0027278422 -0.0043305373 -0.005918455
-0.0034247246 -0.005481836 -0.0038337812 -0.0038457557 -0.0035616655 -0.0034623144 -0.005531519 -0.0056384453
-0.0030182379 -0.004429647 -0.0062728617 -0.012134881 -0.0062228595 -0.0047739577 -0.006787332 -0.0057898476
-0.006168979 -0.0050448114 -0.005760461 -0.0030534489 -0.0028989657 -0.006719538 -0.005379966 -0.0029276626
-0.00070534134 -0.0035806543 -0.004560209 -0.006313458 -0.0070279897 -0.005434685 -0.0024788962 -0.0039999913
-0.0034851308 -0.005749943 -0.004155156 -0.0058593513 -0.003939291 -0.005280163 -0.0052078995 -0.00614706
-0.004524774 -0.0038656064 -0.0022945576 -0.0057650665 -0.00501838 -0.007837746 -0.0050034816 -0.0013739221
-0.006882408 -0.0052084094 -0.0044169906 -0.006235065 -0.005169927 -0.005657156 -0.004617088 -0.0034636948
-0.0064403205 -0.0047981758 -0.0040952265 -0.0041750157 -0.0034419622 -0.007161724 -0.0042683664 -0.007461825
