our-vTR/10_fold_lightning_logs/dataset1/fold_3/version_3/checkpoints/epoch=13-step=489_fold3.ckpt (torch, 132433 bytes, 18 tensors)

conv1d.weight f4 [128, 4, 12]
000000 96 f1 4f be 34 20 4f 3e df 3a 33 3d d4 8a 25 be
       -0.20307001 0.20227128 0.043757316 -0.1616624
000010 ab 38 1d 3e a2 7e 89 bd 91 ac 03 3e 95 31 39 be
       0.15353648 -0.067136064 0.12858798 -0.1808532
000020 36 15 09 be 3c 58 6a 3e 83 9c 8f 3d 51 bb 83 bd
       -0.13386998 0.22885221 0.07012274 -0.06432212
000030 76 74 d3 3d f1 ae 2b be 6f 74 05 3d 42 66 26 3b
       0.103249475 -0.16765954 0.032581743 0.002539054
000040 09 80 fb bc f0 07 d5 3c 9a d3 0d 3e e1 b1 0b 3e
       -0.0307007 0.026004761 0.13850251 0.13642074
000050 a7 8a 01 be 08 25 bf bc 3b 96 03 be a9 a6 8e bd
       -0.12650548 -0.023333088 -0.12850277 -0.06965382
000060 8e ec f7 bd aa 54 bb 3d 3b 05 8c 3c 60 10 97 3d
       -0.12105666 0.09147008 0.017092338 0.0737617
000070 cc c2 0f 3e 92 34 3c be 64 b1 aa 3d 38 eb 8b bd
       0.14039153 -0.18379429 0.08334616 -0.06831974
000080 75 be 55 3e 54 d8 81 bc c2 6c 0c bc ca 52 41 be
       0.20873435 -0.015850224 -0.008570852 -0.18879238
000090 a0 be ad 3d b5 6e 9c 3d 80 5c d8 bd f9 73 2f be
       0.084836245 0.07638303 -0.10564518 -0.17134084
0000a0 4d 49 02 bd a6 f0 02 be d6 09 1d bd ec 22 3a be
       -0.031808186 -0.12787113 -0.03833946 -0.18177384
0000b0 1a 0b b8 3d eb 57 d2 bd 1c 1f d3 bd 1d 1e 5a 3e
       0.089864925 -0.10270675 -0.10308668 0.2130055
0000c0 3b 23 03 3e 48 24 10 bd 23 97 dd 3c f4 4f 9e 3c
       0.12806408 -0.03519085 0.027049607 0.019325234
0000d0 3c 42 ab 3d 34 6f 3d be 01 36 e0 bd db 36 e0 bc
       0.083622426 -0.18499452 -0.109478004 -0.027369907
0000e0 63 34 31 bd b9 7c 83 be 84 a9 36 3d e6 8c 63 bd
       -0.04326285 -0.25681093 0.044595256 -0.055554293
0000f0 ba 0b 1a 3e 7d ed b6 3d ee 6e b2 3c e7 3e 1f bd
       0.15043536 0.08932016 0.021781411 -0.038878348
000100 1e 52 c8 3d b3 5a 1a 3e d6 f3 18 be e3 73 b6 3d
       0.097812876 0.15073662 -0.14936766 0.089088224
000110 0b f2 65 3e 4c a0 02 be 4f d4 c8 bb 9a 8b 5c bd
       0.22455613 -0.12756461 -0.006128825 -0.053844072
000120 6c 4c 5e be 88 ee c5 bd 6c a8 8c bd 80 ff 65 be
       -0.2170884 -0.09664637 -0.068680614 -0.22460747
000130 00 e3 7f bd 88 0a 0c be 1e f8 5b 3d 37 01 33 3d
       -0.062472343 -0.13675892 0.05370342 0.04370233
000140 5a 37 a3 3d 0c 73 91 be 0b b1 5a bd cd ce ae 3d
       0.07969542 -0.28408086 -0.053391498 0.08535538
000150 f9 65 53 be 75 a9 1e bd ff d7 5b be 45 40 22 3e
       -0.20644368 -0.038735826 -0.21469115 0.1584483
000160 4d d1 a3 bd 1a 36 9b 3d 4a f0 30 be 77 f3 c8 3c
       -0.07998905 0.075786784 -0.17279163 0.024530156
000170 7d 5d 40 3b c1 ab e7 3d 20 8b e7 bd cc df 76 bd
       0.0029352598 0.11312056 -0.11305833 -0.060272023
000180 45 ac 56 bd 6d df 5c bd 9f 2f ac bc 4d 15 40 3e
       -0.052410383 -0.053924013 -0.021018801 0.18758126
000190 e2 53 83 bd 94 c7 a2 bd c2 2d d6 bd aa 86 0d be
       -0.06412484 -0.07948223 -0.10457946 -0.13820902
0001a0 22 29 cf 3c e0 b8 96 3d 7e db d0 3d 33 a3 36 be
       0.025288168 0.07359481 0.10198115 -0.17835693
0001b0 71 b9 f9 bd f5 05 85 bc 4c 80 0b 3e d8 6a 5a be
       -0.12193573 -0.016238192 0.1362316 -0.2132982
0001c0 0a 89 0f be b1 cd b0 bd cc 5b 6f 3e a9 fd 03 bd
       -0.1401712 -0.086329825 0.23374861 -0.03222433
0001d0 ef be 63 bd 0a b4 3b be 59 c7 82 be fb 75 94 3d
       -0.05560201 -0.18330398 -0.25542715 0.072490655
0001e0 36 66 81 3d ed 1c 7c 3d d3 bc d9 3d a8 d6 c9 bd
       0.06318323 0.061551023 0.106317185 -0.098553956
0001f0 d4 4e 02 3e 86 02 22 3e cc 2b e5 bb 7c 1d 89 bd
       0.12725383 0.15821275 -0.0069937464 -0.06695077
000200 43 7a 20 3d fa 38 1f 3d 8f f8 9c 3d b5 3c 1d 3e
       0.039179098 0.038872696 0.07664596 0.15355189
000210 21 4e 1f 3e b6 ff 85 be 2a d6 9d bc bd dd 5b be
       0.15557148 -0.26171654 -0.01926716 -0.21471305
000220 b0 c2 0e 3e 59 c2 8e be 6d 85 05 be 70 28 e8 3d
       0.13941455 -0.2788265 -0.13039179 0.11335838
000230 77 b6 8e bd 11 de d0 bd 58 35 7f bd a6 88 59 be
       -0.06968396 -0.10198606 -0.062306732 -0.21243533
000240 8a b1 a1 3c 18 6e 90 bd 2c 4e 36 be 6c 73 9b bd
       0.019737978 -0.07052249 -0.17803258 -0.07590374
000250 5b 7c 76 be 53 f1 1a 3e b2 a9 dc bd 05 ca b7 bd
       -0.24070875 0.1513112 -0.10774554 -0.08974079
000260 c0 3f d2 bd 74 6b db bd 6f b8 a3 ba eb 53 10 3e
       -0.102660656 -0.107138544 -0.0012490879 0.14094512
000270 6b f6 29 be 38 72 45 3d 90 94 42 3d 86 39 04 be
       -0.16597907 0.04820463 0.04750496 -0.12912568
000280 97 03 98 bd fe 45 59 be 9f 9f a0 bd 96 c8 09 3b
       -0.0742256 -0.21218106 -0.07842945 0.00210241
000290 bc cd 2a 3e 17 62 04 3e b0 78 2a 3d 20 ec 96 bc
       0.16680044 0.12928043 0.041619003 -0.01842314
0002a0 e8 15 9b 3c 7e a0 b1 3d 07 ab 54 3d 6d e9 85 3e
       0.018931344 0.086731896 0.051920917 0.26154652
0002b0 96 80 c5 3d a3 af 21 3d 97 0f 1e 3e 9d 6a 86 3e
       0.096436664 0.03947414 0.15435635 0.26253214
0002c0 ba 7d ce 3d cd 01 12 3d 8e cf 0d bc 19 84 e2 bd
       0.10082574 0.03564625 -0.008655442 -0.11060352
0002d0 fe 60 32 3e 55 82 1c 3e f0 d5 de 3d 38 23 64 3c
       0.17419812 0.15284093 0.10880649 0.013924412
0002e0 d4 7d f8 bc 53 cf 34 be 52 f3 6c be 8c 77 64 be
       -0.030333437 -0.17657213 -0.23139694 -0.22311229
0002f0 a4 b6 4e be a5 72 20 3e 4e 86 09 3e 62 61 5f 3b
       -0.2018686 0.15668733 0.1343014 0.0034085144
000300 22 c5 0e 3d 47 32 1f bd a2 0e 24 be 4d 27 d2 3d
       0.03485597 -0.038866308 -0.16021207 0.10261402
000310 b7 ee f7 3d 19 03 33 bd d6 25 fb 3d 5c 3c 95 bd
       0.12106078 -0.043704126 0.12263076 -0.07286903
000320 1b 02 32 be 4d 1e 07 bd 71 9b 0a 3e de b5 b8 bd
       -0.17383616 -0.03298788 0.13535859 -0.090190634
000330 da 1b d4 bd ef 40 cb bc 1d a3 c1 3d b2 60 8a bd
       -0.10356875 -0.024811236 0.094549395 -0.067567244
000340 59 c3 eb 3d c2 0c 97 bd f5 7e 18 be 66 a8 91 bd
       0.11511869 -0.0737548 -0.1489218 -0.071121976
000350 41 70 06 be 0c 79 34 3e 09 e0 1f bd 75 97 7b 3d
       -0.13128759 0.176243 -0.039032016 0.061423738
000360 16 50 dc bc a6 92 fc 3d 93 c2 42 3e 82 bf 9e 3d
       -0.026893657 0.123326585 0.19019537 0.07751371
000370 1d ed d3 bc 65 85 c6 bd ba c6 f7 bd a0 21 29 be
       -0.0258699 -0.09693412 -0.12098451 -0.16516733
000380 0c 7e e4 3d 25 2e a9 bd 7b 56 11 3c 87 1f e2 3c
       0.11156854 -0.082607545 0.008870716 0.027602924
000390 82 45 3b 3e 2c 79 e1 3a 4c f0 a6 bd 7b cd ad bd
       0.18288234 0.001720225 -0.08151302 -0.08486458
0003a0 53 16 0d 3e 0e b8 d2 3d 1e 60 15 bd 90 45 d2 3d
       0.13778047 0.10289012 -0.036468618 0.10267174
0003b0 6d 5c 20 be a0 2f 1f 3c 88 6c 17 3e ae 31 c1 bd
       -0.15660258 0.0097159445 0.14787495 -0.09433304
0003c0 03 64 f4 3b 0f ba 46 3d b7 75 20 be d2 85 35 be
       0.0074582114 0.048517283 -0.15669905 -0.1772683
0003d0 f2 8b 29 be aa 88 bb bd f4 6a 40 be 16 9a ea 3d
       -0.16557291 -0.09156926 -0.187908 0.11455171
0003e0 d0 9f 06 be a1 bc cd bd 63 e8 92 bd 9e 1f b8 3c
       -0.13146901 -0.10045744 -0.071732305 0.022476014
0003f0 2f ea 17 be 85 8a 04 be 27 e3 a8 3a c4 1b 6d be
       -0.14835428 -0.12943466 0.001288508 -0.23155123

conv1d.bias f4 [128]
000000 78 7b 84 3c df 8c 71 bd c3 60 ca bd ca 5e 11 bd
       0.016172156 -0.058972236 -0.09881737 -0.03549079
000010 c6 96 2a 3d 92 0d c4 3d ec 9e 14 be 6a 31 08 3e
       0.041647695 0.09572901 -0.14513749 0.133001
000020 69 6d 78 3d e2 23 3a 3d 68 6a 8b ba d5 51 cc bc
       0.060651217 0.045444377 -0.001063657 -0.024941364
000030 8b b9 49 3d e5 70 0a 3e d2 17 a8 3c 60 e9 eb 3d
       0.049249213 0.13519628 0.02051917 0.11519122
000040 fb 8b e7 3c 40 a0 51 bc 67 5e ea 3d 2f 9c e1 3d
       0.02826499 -0.012794554 0.11443787 0.11016118
000050 2d 53 07 3d 78 fa 46 bd ff f3 be 3d 11 4a d8 3c
       0.033038307 -0.04857871 0.09323882 0.026402505
000060 26 0b 9a bd 77 0c 9e bc 93 ab 23 3e 4c 60 fa bc
       -0.07521658 -0.019293053 0.15983419 -0.030563496
000070 c1 f7 34 3d 44 b8 e7 bc 59 88 0e be 41 dd 6a 3d
       0.04418159 -0.028286107 -0.139192 0.05733991
000080 dc ee 5e bd ea 2d 1d 3d 5c af e2 ba 11 51 e0 3c
       -0.054427013 0.038373865 -0.0017294693 0.027382405
000090 b4 63 80 bc 46 97 58 bd a2 b4 af 3d 69 1e fa bd
       -0.015672542 -0.05287864 0.08579375 -0.122128315
0000a0 09 8f a1 3d 66 01 6b bd 98 9d 91 3d 53 db a6 bd
       0.0788861 -0.05737438 0.07110137 -0.081473015
0000b0 18 cc 8e bd 30 f4 81 3c 36 0b 9a 3d d1 6c bf bc
       -0.069725215 0.015863508 0.075216696 -0.023367317
0000c0 26 ef 03 3d cf e1 22 be e0 d4 99 3b b6 19 be 3d
       0.03221049 -0.15906452 0.004694566 0.09282248
0000d0 1c 61 55 3d cc 1f 9e 3d 43 4c 9f 3c 81 a9 4d bc
       0.052094564 0.077209085 0.019445544 -0.01255262
0000e0 58 f9 cc 3d 50 e9 1e be 39 39 9a 3c f5 2d 1b be
       0.10008496 -0.15518689 0.018826114 -0.1515425
0000f0 a4 98 ad 3d 15 f4 9c bd fa 31 08 3c b7 33 1f 3e
       0.084763795 -0.076637425 0.008312697 0.15547071
000100 34 c1 df 3d b4 31 b1 bc 8b c6 c2 bc 15 d9 ad bd
       0.109255224 -0.021630146 -0.023776313 -0.08488671
000110 90 3c ac bd ef 02 d3 bd bf 8b 48 bd 27 fc d9 bb
       -0.08409989 -0.10303294 -0.048961397 -0.0066523734
000120 98 a3 15 bd 7b b6 f0 3c 3d dd 4d 3d 4c 94 b8 3d
       -0.03653297 0.029383888 0.050259817 0.090126604
000130 a6 34 b2 3d bd ef 50 bd de 83 97 3d 5e 40 02 3e
       0.08701448 -0.051009882 0.073981985 0.12719867
000140 ad 74 e7 bc ad 85 13 3e 90 10 9d 3d fd 27 51 bd
       -0.028253878 0.14406462 0.07669175 -0.051063526
000150 0d 3f d9 bd cd 6c 81 3d 05 ed 8d bc 09 ce 32 be
       -0.10607729 0.0631958 -0.017324934 -0.17461409
000160 20 ab 29 be 2c cd 4c bd 56 dd 88 bc a3 8d 61 3b
       -0.16569185 -0.050000355 -0.016707104 0.0034416697
000170 a5 02 79 3d bd 72 e8 bc f5 a8 a4 bd 53 b0 b2 bd
       0.060793538 -0.028375024 -0.080400385 -0.087250374
000180 89 da 25 be 33 15 27 3d 93 c8 0c be 7e c7 b4 bd
       -0.16196646 0.0407917 -0.13748388 -0.088271126
000190 84 24 28 be 9a c3 77 3d dd eb d4 bd 28 a8 b5 bc
       -0.1642018 0.060489275 -0.1039655 -0.02217491
0001a0 a0 31 74 39 2f f3 46 3d cb f0 77 bd f6 29 e0 bd
       0.0002328814 0.04857176 -0.060532372 -0.109455034
0001b0 1a b2 5c 3d b0 fa b8 bd 0d 88 f2 3d 05 e7 fa bd
       0.05388079 -0.0903219 0.11842356 -0.12251095
0001c0 6f 4c f1 ba 39 cd c9 bd 6f 9f fa 3c df bd c6 bc
       -0.001840962 -0.09853596 0.030593602 -0.02426046
0001d0 db f5 fb 3c f6 c6 4a bd 9a 68 83 3c 31 1b d5 bd
       0.030756881 -0.04950615 0.016041089 -0.10405577
0001e0 3b 38 d9 bd 3e ff ff bd b3 63 cb bd 09 f6 12 be
       -0.10606428 -0.124998555 -0.099311255 -0.14351667
0001f0 3f 7f 0e 3e 65 cc 29 3d c6 94 09 3e 97 f8 d3 3c
       0.13915728 0.04145469 0.13435659 0.025875373

linears.0.weight f4 [32, 128]
000000 bc 5b c3 37 da d0 8b b9 f8 cd 11 b8 8a a0 13 39
       2.3288529e-05 -0.00026667753 -3.4762517e-05 0.00014078818
000010 0f d8 61 38 0c ea 8c b8 25 de a2 b9 fd 78 83 b9
       5.38454e-05 -6.719315e-05 -0.00031064558 -0.0002507641
000020 7e 6c a4 39 45 cc 93 b8 7f 18 01 39 3b d8 dc b8
       0.0003136135 -7.0475544e-05 0.00012311524 -0.000105306935
000030 12 d9 00 b9 1c 76 5a 34 d8 f2 f4 38 c5 48 ea 37
       -0.00012287896 2.03458e-07 0.0001168006 2.792886e-05
000040 23 10 87 39 f3 2e 74 b9 72 96 9a 38 af 01 d0 b8
       0.0002576123 -0.00023287143 7.371315e-05 -9.9185265e-05
000050 f7 5a 42 39 91 ab 83 b8 1e 05 60 37 53 c5 42 b8
       0.00018535169 -6.2785235e-05 1.3352632e-05 -4.6436977e-05
000060 0b aa e9 b8 eb 94 12 b8 c3 64 fd b7 cf 13 9f b7
       -0.00011141979 -3.4947803e-05 -3.0206871e-05 -1.8963501e-05
000070 88 67 8c b7 b6 1d 53 b6 82 a0 9a 39 a4 5b ef 38
       -1.6737511e-05 -3.1458744e-06 0.00029492757 0.000114134775
000080 5c 66 4c b9 5a 3a d7 b8 6a d5 94 39 6c 07 1a 38
       -0.00019493088 -0.00010262868 0.00028387766 3.6723373e-05
000090 f1 5e c3 36 9f 6f 83 37 1b 9b e4 38 96 3e 42 b6
       5.8225055e-06 1.5668395e-05 0.00010900778 -2.8944683e-06
0000a0 5f da 96 b8 75 b7 d5 b8 6a 1e 97 b8 95 74 67 b9
       -7.193232e-05 -0.00010190803 -7.205906e-05 -0.00022073307
0000b0 54 85 16 b8 e8 f3 78 39 4e 73 58 b8 19 c1 af 36
       -3.588696e-05 0.00023741985 -5.16058e-05 5.237886e-06
0000c0 cf 90 d6 38 cd 92 c4 38 6e d2 17 b8 96 74 52 38
       0.00010231288 9.373352e-05 -3.6197183e-05 5.017648e-05
0000d0 60 1b 1b 39 76 ed 33 b9 89 6a 46 39 de b6 33 b8
       0.0001479215 -0.00017159231 0.00018922439 -4.2847234e-05
0000e0 47 4f 4f b8 a8 83 81 b9 8a 71 8a b8 8f 34 30 39
       -4.942648e-05 -0.0002470289 -6.601501e-05 0.00016804248
0000f0 f2 d9 93 38 ed 5c c7 37 86 15 69 b8 17 e3 e5 35
       7.050102e-05 2.376592e-05 -5.5571574e-05 1.7127921e-06
000100 b8 19 fd 37 07 82 80 b8 45 6f d5 b8 07 23 00 b8
       3.0171926e-05 -6.127735e-05 -0.00010177357 -3.05502e-05
000110 c8 a8 81 b9 02 ac 5e 37 ec 06 14 39 e6 6f 54 39
       -0.0002473055 1.327228e-05 0.00014116958 0.00020259581
000120 b9 ce 2a 39 92 46 25 b9 35 35 cf 38 27 3c 42 b8
       0.00016289474 -0.00015761916 9.88044e-05 -4.6309226e-05
000130 6f 23 94 36 81 b5 f6 36 73 7c 3f b9 6c 0d 5f b7
       4.4148687e-06 7.352501e-06 -0.0001826154 -1.3294961e-05
000140 3f e5 18 38 89 1a a1 b8 53 74 01 b7 7d 53 e3 38
       3.6453126e-05 -7.682021e-05 -7.716083e-06 0.000108397544
000150 a6 0a 08 b9 4b ce 27 38 61 99 e6 37 da eb 9b 39
       -0.00012973938 4.0008028e-05 2.748956e-05 0.00029739627
000160 4a b1 30 39 97 76 2f b9 93 45 32 39 f5 5c d9 37
       0.00016850713 -0.00016733479 0.00017001321 2.5911702e-05
000170 8f 82 10 b9 ad d4 2e b9 3d 4c 57 39 3f a5 25 b8
       -0.00013781547 -0.00016673161 0.00020532399 -3.9492963e-05
000180 81 0f 94 b9 fd 64 fa 37 b9 cd bc b8 dd 83 d1 b8
       -0.0002824031 2.9849349e-05 -9.0028574e-05 -9.990458e-05
000190 ec 2e 6a b8 7b 1c 3e 38 38 a3 80 38 f8 d6 41 b9
       -5.5833647e-05 4.5326055e-05 6.1339175e-05 -0.00018485996
0001a0 db bc 0b b9 c0 8a 89 38 79 a0 a3 37 92 e3 33 b7
       -0.00013326427 6.558513e-05 1.950584e-05 -1.0722217e-05
0001b0 9f af 09 39 fb fe da 38 32 ab 1b 39 f7 60 50 37
       0.00013130762 0.00010442544 0.00014845727 1.24203425e-05
0001c0 83 2a 50 39 37 c0 83 b9 6a 42 06 38 05 c3 2c 39
       0.00019852263 -0.00025129478 3.2009943e-05 0.00016475849
0001d0 7c d5 86 38 6d 26 b5 b8 7e df be 38 72 25 4f b7
       6.4293825e-05 -8.63791e-05 9.101535e-05 -1.234688e-05
0001e0 85 c0 07 b9 94 db 06 39 c8 3a 81 38 6a 0c 88 b9
       -0.00012946322 0.00012861035 6.162148e-05 -0.0002594919
0001f0 5f 68 4b b8 57 6b f2 b7 23 63 28 b9 2b 18 b9 36
       -4.8496175e-05 -2.8898632e-05 -0.0001605866 5.516243e-06
000200 52 56 8b bc 66 60 1e bb e7 d2 53 bc c3 9e a7 bc
       -0.017008934 -0.0024166345 -0.012928701 -0.020461446
000210 d1 ef 45 3b bd a8 5b bc fb a4 d3 3c 31 b0 b3 bc
       0.0030202756 -0.01340693 0.025835505 -0.0219346
000220 23 5a 6c 3d 85 70 72 bd 67 48 b0 bd 5e bf ae bc
       0.05770315 -0.05918934 -0.0860756 -0.021331485
000230 58 02 19 b9 48 70 93 bd fc cc 8b bc de 44 26 3b
       -0.0001459209 -0.0719915 -0.017065518 0.0025370638
000240 37 42 fd 3c bd a7 52 bc 74 84 b4 ba b9 55 68 bc
       0.030915363 -0.012857375 -0.0013772384 -0.014180594
000250 a8 c7 da 3d 7e 36 a6 bc b9 90 56 3d 1e e2 73 3d
       0.10682613 -0.020289656 0.052384112 0.059541814
000260 e6 f2 84 bb 0d 0e a9 3a ee 3f 42 bd b7 5d d3 bc
       -0.004057276 0.0012897864 -0.04742425 -0.025801523
000270 4b 65 21 3d e5 f6 2c ba d9 c7 27 3d d8 6a 5e bc
       0.03940324 -0.00065980694 0.040962074 -0.013575278
000280 7a 93 98 bc 4b a4 2d bd 48 64 f6 3c 7d 2f d2 3c
       -0.01862501 -0.04239301 0.030077115 0.02565741
000290 27 aa 94 b9 71 99 cf 3d a6 71 8a bb 41 11 68 3d
       -0.00028355533 0.101366885 -0.0042249737 0.05665708
0002a0 d3 d9 86 3c 90 75 b5 3d 76 bb 4d bc ed 3d 05 3d
       0.016461289 0.08860314 -0.012556901 0.03252976
0002b0 4e a1 ab 3c dd 34 55 3c 78 8e b4 3d 6b 77 3b bc
       0.02095094 0.013013092 0.08816236 -0.011442046
0002c0 b0 64 62 3b 14 31 19 3d bb 58 36 bc f4 85 cf bb
       0.0034544878 0.03740032 -0.011129553 -0.006333107
0002d0 71 0b 68 3d b8 ca 4f 3c f2 2f 71 bb b0 d0 72 3b
       0.056651536 0.012682609 -0.003680226 0.0037050657
0002e0 dc 07 a6 bc 69 47 32 3d 11 48 f0 bb 37 6d fb 3c
       -0.02026742 0.043525133 -0.0073328097 0.030691726
0002f0 3c 4d c9 bc b5 74 61 3e 5a 92 53 3c 03 95 25 bc
       -0.024572961 0.22017176 0.012913311 -0.010106328
000300 27 b4 98 bc d2 bf a1 3d 99 e7 28 bc 2d 7e 43 3c
       -0.01864059 0.07897915 -0.010309123 0.011931938
000310 c3 a9 b1 3b 27 7f 4a 3b 0b 91 bb 3b 69 67 c2 bc
       0.0054218485 0.0030898543 0.0057240776 -0.02373095
000320 d5 ee 18 bd d8 02 9d 3b 6f 51 74 3c 84 14 2f bc
       -0.037337143 0.0047915988 0.014911993 -0.010686044
000330 9f e0 8d ba 8d 08 c7 bb b3 1f 34 3d f1 bb 6f 3c
       -0.0010824389 -0.0060740174 0.043975543 0.014632211
000340 bb de 13 bc de ed ba bc db b3 60 bc b6 db 34 bc
       -0.009025271 -0.022818502 -0.013714756 -0.011038711
000350 be a0 3e bc b1 58 7b 3d 6a 7e bf bb 96 94 30 3d
       -0.011635004 0.06136388 -0.005843927 0.043110453
000360 2d 7d ff 3c 17 8f 73 3d f1 3f 09 3d d7 01 87 ba
       0.031187618 0.059462633 0.033508245 -0.0010300231
000370 a3 b4 22 bc fa 5c 3c bc 4c ab e8 3c 6f 02 99 3d
       -0.009930762 -0.011496777 0.028401993 0.07471167
000380 9a 0f c4 3c c5 f6 ee bb a0 64 06 bd e7 6d be 3d
       0.02393322 -0.007292601 -0.032810807 0.09298306
000390 81 8e 2b 3e 8d 34 b8 bc 65 15 b5 bb 9d c5 ce 3c
       0.1675358 -0.022485996 -0.005526232 0.025240714
0003a0 1f 90 84 3c e3 9d c1 bd 2a 89 19 bd 34 63 8d 3c
       0.016182004 -0.094539426 -0.037484325 0.017259218
0003b0 6c 36 72 3c 49 52 fd 3c 94 45 a6 3a a5 d8 91 bd
       0.014783483 0.030923026 0.0012685531 -0.071214
0003c0 29 66 d9 3c 2d 55 4f 3d b2 90 2f 3b ac 7a d2 ba
       0.026537972 0.05061834 0.0026789126 -0.0016058288
0003d0 cc b9 09 3a 1b 66 f3 3c f1 51 e5 bb 08 19 1b bd
       0.0005253821 0.029711774 -0.0069982936 -0.03786567
0003e0 33 06 73 bd 26 6b 85 bc 81 ad 81 3c eb a6 60 3d
       -0.059332084 -0.016286444 0.015829803 0.054846685
0003f0 e5 d8 85 bc 1e e8 32 3c 9b be e2 ba 7d c2 01 3d
       -0.016338775 0.010919599 -0.0017299236 0.03167962

linears.0.bias f4 [32]
000000 1e 5d 48 b7 ff e5 2f 39 3a e8 63 39 98 f5 c5 37
       -1.19426095e-05 0.00016774981 0.00021734918 2.3598594e-05
000010 c7 aa 4b b9 cf d3 1e 39 62 6d 52 b9 3b 32 28 38
       -0.00019423208 0.00015146959 -0.00020067909 4.0101102e-05
000020 83 36 49 bc 2d 89 ef 38 0e 86 43 b9 2b d8 a6 3c
       -0.012281063 0.00011421959 -0.00018646588 0.020366749
000030 52 72 34 b9 27 74 2d b9 61 74 88 b8 1c 18 43 b6
       -0.00017208725 -0.00016541836 -6.5066626e-05 -2.9071298e-06
000040 dd 2b 30 37 12 b7 24 37 2e 72 44 3d 72 0d 95 b8
       1.050063e-05 9.817786e-06 0.047960453 -7.107378e-05
000050 67 e3 6e 38 ec de 72 b8 05 71 af b8 c3 67 55 37
       5.6955407e-05 -5.790491e-05 -8.365702e-05 1.2719948e-05
000060 ea 37 ef b8 62 f2 11 bd 26 f7 5c 3a 52 15 30 b8
       -0.00011406823 -0.035631545 0.0008429162 -4.1981526e-05
000070 98 e5 af b9 30 8b b0 39 ea 45 6a b8 42 f4 ed b8
       -0.00033549662 0.0003367304 -5.585506e-05 -0.00011346537

linears.2.weight f4 [2, 32]
000000 eb 30 ef 38 5b 9c 91 be 3c b1 ab b9 7c 74 1b 38
       0.0001140552 -0.28439602 -0.00032747712 3.7063364e-05
000010 73 f4 00 38 cd c0 81 be 06 c8 67 39 fd a6 42 37
       3.074524e-05 -0.25342408 0.00022104391 1.1602181e-05
000020 e3 6c bf be b1 da e0 b8 e5 b3 55 b8 ad fd d0 3e
       -0.3738776 -0.00010721887 -5.0950697e-05 0.4081854
000030 2f 33 8e b9 f1 7e fe 35 cc 48 e5 b8 01 97 0e b9
       -0.00027122485 1.896142e-06 -0.000109331304 -0.00013598429
000040 d5 d5 7f b8 36 6b 86 38 ed 34 f8 3e 77 21 ce b9
       -6.0995884e-05 6.4095875e-05 0.4847788 -0.00039316315
000050 80 7f 0f 38 c5 0e 86 b8 50 5e b1 38 15 38 81 38
       3.42126e-05 -6.392369e-05 8.457585e-05 6.1616454e-05
000060 ca e9 09 b9 a8 1d 98 be f5 25 31 be 55 5c 93 be
       -0.00013152431 -0.29710126 -0.17299636 -0.2878138
000070 cb b4 d2 37 35 05 e7 b7 03 34 a7 b8 8f f1 ee b8
       2.511814e-05 -2.753977e-05 -7.9728685e-05 -0.00011393718
000080 a7 5a a5 b8 ad 73 24 3e 1f 07 b4 38 2a d0 85 38
       -7.8846984e-05 0.16059752 8.584395e-05 6.380708e-05
000090 63 f3 19 38 79 f8 6b 3e 6a 38 20 38 49 3e 79 b8
       3.6704714e-05 0.23044004 3.8199512e-05 -5.9424234e-05
0000a0 e6 63 ae 3e 07 e4 f8 b6 60 99 ab 38 b9 fd e3 be
       0.3406059 -7.417522e-06 8.182484e-05 -0.44529513
0000b0 0e 9f 7c b6 b0 e8 5b 38 eb 6e 91 b9 1e b8 99 38
       -3.7643508e-06 5.2430376e-05 -0.00027739196 7.329903e-05
0000c0 c4 49 f4 36 3d 04 12 39 4c 74 0b bf 63 da 9e 38
       7.280354e-06 0.00013925224 -0.5447433 7.574705e-05
0000d0 53 09 60 37 e7 52 7e 37 ac c7 70 b8 a5 22 15 37
       1.3353611e-05 1.5158882e-05 -5.7406418e-05 8.889158e-06
0000e0 4e 92 08 39 3d b4 29 3e 23 d3 2f 3e ac 2d 8c 3e
       0.00013024473 0.16572662 0.17170386 0.27378595
0000f0 bb 79 2a 3d e5 de 18 b7 37 8c c2 b7 32 87 db b8
       0.041619997 -9.111803e-06 -2.3191895e-05 -0.00010467916

linears.2.bias f4 [2]
000000 a6 84 24 bb 8f 6b bf bd
       -0.0025103479 -0.09346687

exp_avg f4 [128, 4, 12]
000000 a4 a8 18 b9 e1 b7 59 3a 71 55 d5 3a 94 8d 77 39
       -0.00014558673 0.0008305293 0.0016276074 0.00023608498
000010 7a 9b e5 ba 1f c0 81 ba 39 4c 06 3b b0 f4 53 b9
       -0.0017517649 -0.0009899175 0.002049221 -0.00020213681
000020 06 30 a5 b9 1d ea 40 38 d6 e6 51 bb 91 ed 13 3b
       -0.00031507033 4.5994402e-05 -0.0032028458 0.002257202
000030 c8 6a 09 3b 25 4b 0f 3a e9 b1 5d ba d9 7e 5f ba
       0.0020968188 0.00054662145 -0.00084569916 -0.00085256767
000040 89 2f 2a 39 ff 32 cf ba ea 00 aa ba 85 58 12 38
       0.00016230172 -0.0015808045 -0.0012970243 3.4891553e-05
000050 57 3d 37 b9 d8 c3 87 3a 7e 3a 17 3b ed a9 57 ba
       -0.00017475091 0.0010358049 0.0023075636 -0.000822692
000060 ed 80 8b b9 ef d4 c9 b8 13 ed 19 bb 0f 45 e3 39
       -0.00026608203 -9.624089e-05 -0.0023487255 0.00043348267
000070 a9 4c 4d 3a 32 43 23 3b 3c 84 e6 b9 45 9c 0f 3a
       0.00078315526 0.0024911878 -0.0004396754 0.0005478303
000080 69 18 8b 3a 0f dd a4 ba d5 5d bc 3a dd 04 c2 39
       0.0010612133 -0.0012578088 0.0014371226 0.00037006187
000090 42 e0 dc ba 36 e4 a7 ba a9 5d cd 3a ae e3 3f 39
       -0.0016851502 -0.0012809101 0.0015668172 0.00018299997
0000a0 68 5e 53 3a a0 cb a6 38 e9 d9 a3 b9 4f 89 c7 b9
       0.0008063079 7.953425e-05 -0.00031252138 -0.0003805854
0000b0 79 c9 15 ba 32 8f 38 39 50 0a 0e ba 63 87 ec ba
       -0.00057139207 0.00017600952 -0.0005418407 -0.001804572
0000c0 f0 03 89 3a da 09 09 3b b6 37 3f bb f5 d5 09 3b
       0.0010453444 0.0020910413 -0.0029177493 0.002103207
0000d0 f7 ff 8a 39 68 b7 42 39 f6 6f 2f ba 0a 14 03 ba
       0.0002651212 0.00018569606 -0.00066924037 -0.00050002395
0000e0 1a ec 7e b9 83 24 c4 36 17 c0 c9 3a 65 ab d3 ba
       -0.00024311282 5.8455057e-06 0.001539233 -0.0016149102
0000f0 d4 23 33 ba 7b d9 a0 ba cb 79 e4 ba 26 d4 0a 3a
       -0.0006833647 -0.0012271845 -0.0017431317 0.0005295895
000100 bf 78 03 bb 9b 25 2a 3a f0 f2 ad ba 92 9c 6e 3a
       -0.0020060984 0.0006490589 -0.0013271254 0.000910231
000110 8d 59 0b 3b c6 96 8b 39 50 33 5a b9 09 88 90 3a
       0.0021263093 0.0002662448 -0.00020809215 0.001102687
000120 ec 0c 78 b9 20 39 0e b9 49 d2 9d 3b 6f 58 ff b9
       -0.00023655937 -0.00013563456 0.0048163277 -0.00048703278
000130 b8 7c 24 3b 05 f2 33 ba b0 90 94 3a 1f 30 96 ba
       0.0025098752 -0.0006864372 0.0011334624 -0.0011458433
000140 27 1e ce ba 87 b8 ae 39 9f ab 94 ba 40 76 db 3a
       -0.0015725539 0.0003332535 -0.0011342651 0.0016743615
000150 49 83 03 b9 29 e6 3e ba 70 ff 22 b9 f1 9f 0c bb
       -0.00012542041 -0.00072822213 -0.00015544682 -0.0021457637
000160 db 8f 49 ba c1 85 1b b9 79 34 62 3a b5 d7 40 3a
       -0.00076889776 -0.00014831779 0.0008629035 0.00073563616
000170 ca dd a2 b9 ef af 1e ba 69 70 4e b9 e1 52 98 ba
       -0.00031064294 -0.0006053438 -0.00019687567 -0.001162138
000180 bc 48 d4 b9 8d 7e b8 ba 8c 3d c5 3a 63 0a 39 bb
       -0.00040489982 -0.0014075801 0.001504825 -0.002823495
000190 f1 6f 84 ba 49 80 96 ba 43 cf b0 b8 a7 ab 2c 3b
       -0.0010104162 -0.0011482324 -8.4309395e-05 0.002634743
0001a0 dc 0f 0b 3b 30 1a 8a ba 52 f6 23 ba 3a bb d5 39
       0.002121917 -0.0010536369 -0.0006254661 0.0004076602
0001b0 82 1f a3 3a 53 5b 29 3b 1e b2 c7 b9 bf c7 b2 39
       0.0012445303 0.0025841787 -0.00038088945 0.00034099628
0001c0 f1 fb e3 b9 a0 56 c3 ba 7d 7e 89 bb 71 c5 ed 38
       -0.00043484525 -0.0014903136 -0.004195987 0.00011337817
0001d0 fa df 4c bb fb 06 cb 38 68 b8 31 3a 7b dd ad ba
       -0.003126143 9.6810945e-05 0.0006779493 -0.0013264859
0001e0 e5 17 01 bb 88 d8 9b ba 10 cf 18 ba 5e 78 1e 3b
       -0.001969808 -0.0011890093 -0.00058291946 0.002418063
0001f0 f4 6e bc 3b 32 95 22 3b 49 b3 94 3b 51 85 e9 3a
       0.0057505313 0.0024808166 0.004537974 0.0017816221
000200 6f af 9d 3a 66 62 b8 3a ee 4a 68 b8 6e 17 84 3a
       0.0012030433 0.0014067411 -5.5382894e-05 0.0010077783
000210 76 22 94 3a e8 37 50 37 f5 d2 0d ba cd 21 87 38
       0.0011301774 1.2410783e-05 -0.0005410158 6.4435975e-05
000220 38 13 8d bb 23 64 25 39 f8 18 87 b9 3d 6e 94 bb
       -0.0043052696 0.0001577293 -0.0002576781 -0.004529743
000230 87 79 50 b9 9c e2 eb b9 11 9a 42 36 fc 8b ba b8
       -0.00019881698 -0.0004499153 2.8997931e-06 -8.895245e-05
000240 8b 02 c1 3b f8 30 e9 39 fe ec 45 3a b7 97 b7 b9
       0.0058901957 0.00044477708 0.0007550268 -0.00035017516
000250 c8 f2 12 b8 94 15 19 3a 79 fd 3c ba 7f c9 5f 3b
       -3.503522e-05 0.0005839702 -0.0007209401 0.00341472
000260 61 7e ef 39 67 c5 83 b9 fe a8 9a 3a 8e ab 7a bb
       0.00045679792 -0.00025133343 0.0011799631 -0.0038249227
000270 7d e2 02 b6 1e 02 15 3b 95 1c 3d bb df c3 a4 38
       -1.9503343e-06 0.0022736858 -0.0028856148 7.856613e-05
000280 98 0a 35 ba d1 ad 09 39 8c 74 12 ba 7c 9c 8e ba
       -0.00069061806 0.0001313009 -0.0005586825 -0.0010880376
000290 ee b2 9c ba a2 48 21 bb 87 be 0b 3b 63 75 e4 3a
       -0.0011955181 -0.0024609943 0.002132328 0.0017430003
0002a0 8f d2 d9 b8 09 f2 7b ba 47 93 4a b8 61 6d d9 3a
       -0.00010386586 -0.0009610956 -4.8297716e-05 0.0016588384
0002b0 37 a5 cd 3a 12 8e b9 ba 0a b3 a4 3a 0c f6 20 bb
       0.0015689497 -0.001415672 0.0012565565 -0.0024560718
0002c0 24 48 8a 3a 23 c6 86 ba f3 2e b4 3a 0d 1b 18 b9
       0.0010550064 -0.0010282438 0.0013746902 -0.00014505927
0002d0 e4 8a bd bb 74 57 e6 ba a3 cb 0e 3b b2 d3 b5 ba
       -0.0057843793 -0.001757367 0.0021788857 -0.0013872294
0002e0 a7 10 5d ba 19 9b 37 3a 55 7e c1 37 d2 ac 07 39
       -0.00084329623 0.00070040073 2.306622e-05 0.00012938984
0002f0 40 d3 a5 b9 61 24 75 3b 41 95 99 bb 8e f2 11 3b
       -0.00031628646 0.0037405717 -0.004686982 0.0022269818
000300 11 9c b6 39 8b 4f 2c 39 4c 22 c5 37 1c 08 af b8
       0.00034830024 0.0001643283 2.35002e-05 -8.346161e-05
000310 5f a7 4a b9 73 e6 04 3a 21 43 53 38 de c5 4d 39
       -0.00019326572 0.000506974 5.036884e-05 0.00019624035
000320 32 aa 0a ba 0f 2e 5e 39 2a 4d 29 39 05 7a 08 39
       -0.00052896433 0.00021188728 0.00016145842 0.00013015427
000330 5d 67 4b 38 02 d6 a1 b7 2b 24 80 39 fd cf 31 39
       4.8495236e-05 -1.929235e-05 0.0002444101 0.00016957517
000340 5a 79 dd b9 48 35 ac 38 0c b1 44 39 f6 4f 9c 38
       -0.0004224282 8.2115235e-05 0.00018757972 7.4535536e-05
000350 d3 69 20 39 07 c3 07 ba 1a 07 33 39 39 c8 e5 39
       0.00015298212 -0.00051789026 0.00017073416 0.0004382746
000360 72 21 a0 b9 c2 61 be b9 d4 87 8a b9 71 b1 ae b9
       -0.00030542497 -0.0003631246 -0.0002642261 -0.0003332007
000370 47 ca 21 39 85 3b 04 ba fc 0a fe b9 8e 04 eb 38
       0.0001542951 -0.00050442695 -0.0004845484 0.000112065216
000380 8b 3f 9e 39 17 68 01 39 08 fa 9c 38 df ad 19 ba
       0.00030183452 0.00012341175 7.4852316e-05 -0.00058623956
000390 22 9e bf b8 ba ae 64 39 ec 3d 77 b6 7c 8b 81 39
       -9.137044e-05 0.00021808865 -3.6841911e-06 0.0002470872
0003a0 e6 e7 f1 39 bf 8c b1 b8 12 4a 81 39 10 b8 c8 b9
       0.0004613988 -8.466234e-05 0.00024659984 -0.0003828411
0003b0 be 7f 9b 38 f4 75 3f 39 a1 68 d5 b9 4b 68 95 37
       7.41477e-05 0.0001825912 -0.0004070448 1.781075e-05
0003c0 e0 83 90 ba 15 62 88 3a 4f e7 ba 38 3a a1 4f 3a
       -0.001102563 0.0010405207 8.912256e-05 0.0007920448
0003d0 8e dc 9b b9 d4 fb ba 37 1e 36 92 b9 f5 ed 77 b5
       -0.0002972823 2.2290194e-05 -0.0002788761 -9.2360943e-07
0003e0 95 26 33 3b e3 01 bf ba d0 05 78 b8 b2 af 19 bb
       0.002733623 -0.0014572706 -5.913322e-05 -0.002345067
0003f0 a9 fc 0f 3a c3 a1 07 b8 4e d5 f6 3a e8 b3 32 3b
       0.00054926664 -3.233716e-05 0.001883188 0.0027267877

exp_avg_sq f4 [128, 4, 12]
000000 c1 86 2c 34 c8 f8 8b 36 88 db 7f 36 a5 c2 01 35
       1.6067771e-07 4.1714848e-06 3.8125745e-06 4.833949e-07
000010 6d 09 92 36 f3 23 3e 36 b7 a6 a1 36 a2 bc 3c 35
       4.3522364e-06 2.8333131e-06 4.817582e-06 7.0309954e-07
000020 1d 1e 8a 35 98 94 2e 36 d5 b1 d5 36 77 09 a9 35
       1.0290565e-06 2.6014513e-06 6.368597e-06 1.2594236e-06
000030 af 8e ce 36 f6 c1 54 35 d4 60 c0 36 d4 7c 4a 36
       6.155889e-06 7.9258405e-07 5.733318e-06 3.0173005e-06
000040 95 be f4 35 91 c0 92 36 e1 25 a1 36 a6 81 47 36
       1.8234883e-06 4.3735567e-06 4.8025836e-06 2.9728776e-06
000050 4b 12 df 35 95 eb 93 35 a8 26 53 36 1a 58 98 35
       1.6620119e-06 1.1020917e-06 3.146395e-06 1.1350523e-06
000060 5f 73 b2 35 c0 2a 4b 36 eb c1 e4 36 3d f5 63 36
       1.3295611e-06 3.027424e-06 6.8175045e-06 3.3968383e-06
000070 6a f1 83 36 26 0e e4 35 ed 3b 85 36 c4 ed 35 36
       3.9322085e-06 1.6991441e-06 3.970685e-06 2.71095e-06
000080 b4 ab 99 36 10 ff d4 35 a1 92 fa 36 60 95 37 36
       4.579744e-06 1.5869464e-06 7.4676504e-06 2.7356073e-06
000090 e4 f6 a2 36 0c b8 0c 36 53 56 59 35 64 ce e7 34
       4.856718e-06 2.0968755e-06 8.096442e-07 4.3177272e-07
0000a0 e1 2e be 35 64 c7 50 36 24 07 4e 35 9a be 27 35
       1.4169747e-06 3.1110476e-06 7.675137e-07 6.248971e-07
0000b0 13 41 56 36 40 22 9f 34 4a 89 0b 35 e1 16 8b 36
       3.1926363e-06 2.9640978e-07 5.1981317e-07 4.1451863e-06
0000c0 d2 e8 2d 37 a7 b2 5f 36 3b 2c f8 36 75 3a 8b 36
       1.0365811e-05 3.3333579e-06 7.396125e-06 4.149328e-06
0000d0 5a 11 01 37 f3 5e d0 34 25 35 93 36 28 b9 4b 36
       7.693039e-06 3.8812104e-07 4.3871282e-06 3.0357132e-06
0000e0 24 e7 c0 34 63 09 ca 34 e1 57 19 37 20 dd 2e 36
       3.5930964e-07 3.7632262e-07 9.139972e-06 2.6056732e-06
0000f0 13 50 43 37 9c cc 0c 37 e8 04 70 37 3f 63 c7 36
       1.16415495e-05 8.39229e-06 1.4306257e-05 5.942216e-06
000100 c5 8c 43 37 a6 77 12 37 cf fe 66 36 cb 94 2a 37
       1.1655681e-05 8.730136e-06 3.442099e-06 1.0167433e-05
000110 4a 3d d0 36 80 1d 90 36 d7 3f 50 37 01 7c 30 37
       6.206018e-06 4.2949687e-06 1.241263e-05 1.0519289e-05
000120 77 2a 48 34 ce 29 2b 36 f3 9c f0 36 29 26 0f 35
       1.86419e-07 2.550532e-06 7.1708287e-06 5.332718e-07
000130 1e 8b 7c 36 14 7c 25 36 08 a9 e7 36 0a 53 0f 37
       3.7631903e-06 2.465914e-06 6.9040143e-06 8.542798e-06
000140 f5 c3 7c 36 f3 9e c7 34 66 f0 97 36 3a 2f 3d 37
       3.7664988e-06 3.718229e-07 4.5281367e-06 1.1276274e-05
000150 88 ed c0 34 5d 59 c1 36 d2 0b b6 35 22 45 06 37
       3.5935614e-07 5.7622515e-06 1.3563497e-06 8.003119e-06
000160 49 20 8d 35 18 a9 eb 36 40 91 70 36 93 fc eb 36
       1.0514715e-06 7.023231e-06 3.5847333e-06 7.0329493e-06
000170 f4 77 93 35 df 47 94 36 87 fa a6 36 a8 fd 64 36
       1.0987264e-06 4.4191106e-06 4.9763507e-06 3.4122295e-06
000180 56 6c 0e 36 43 73 9f 36 fe df 45 36 42 dd a8 36
       2.1222709e-06 4.7519875e-06 2.9485668e-06 5.032548e-06
000190 d6 24 03 36 05 08 9e 36 f7 c4 90 35 0f 46 65 36
       1.9541963e-06 4.7097005e-06 1.078616e-06 3.4164439e-06
0001a0 ec 62 f6 36 9b 59 10 37 7b 5b 28 37 11 4d 3d 35
       7.3428873e-06 8.603932e-06 1.003488e-05 7.0520133e-07
0001b0 e2 fe 2f 36 0b 31 fd 36 64 2e c9 36 93 69 fa 34
       2.6225393e-06 7.545697e-06 5.9956674e-06 4.6642944e-07
0001c0 78 b3 0c 35 83 fa 36 36 a7 3c f3 36 48 17 f6 36
       5.2415226e-07 2.726593e-06 7.249025e-06 7.3340816e-06
0001d0 5d e9 57 36 4d 3b ae 35 c2 63 ad 34 d1 2e b8 36
       3.2173332e-06 1.2981269e-06 3.2296344e-07 5.4890775e-06
0001e0 9c 7e 43 37 b1 24 ec 36 c8 71 fd 36 9f ac 88 36
       1.1652384e-05 7.0376195e-06 7.5532334e-06 4.0732116e-06
0001f0 77 90 33 37 5c 0d f1 36 08 f8 df 36 2a 38 97 36
       1.0702867e-05 7.183915e-06 6.6747925e-06 4.506689e-06
000200 f5 54 1d 37 bc e3 1a 37 5f ba 45 37 2e 08 d0 36
       9.37771e-06 9.232139e-06 1.1785508e-05 6.1998353e-06
000210 14 e6 37 37 a9 6a 1f 35 b8 30 86 35 f3 24 4b 35
       1.0961219e-05 5.9387327e-07 9.997957e-07 7.567716e-07
000220 63 96 0a 37 39 76 7a 34 85 c1 2e 35 f8 fd 0e 37
       8.260456e-06 2.3326074e-07 6.510166e-07 8.522991e-06
000230 48 b0 19 36 04 01 04 36 14 e8 fd 35 e2 2b 73 34
       2.2901386e-06 1.9670124e-06 1.8917513e-06 2.2647103e-07
000240 a7 f3 16 37 5b a2 7d 36 63 dc 8e 35 c0 39 3a 35
       8.997426e-06 3.7794441e-06 1.0643965e-06 6.9374437e-07
000250 b4 31 21 35 1f 8c 46 37 06 14 fd 35 3b 2d 18 36
       6.00495e-07 1.1834344e-05 1.8855796e-06 2.2676093e-06
000260 94 b6 ef 35 a2 a9 9e 35 41 1b 5c 36 9a 79 76 37
       1.7860025e-06 1.1821287e-06 3.2798418e-06 1.4691055e-05
000270 61 d8 b9 35 11 db 13 37 d6 41 0d 37 df 6d b9 34
       1.3846549e-06 8.812888e-06 8.4195835e-06 3.4538877e-07
000280 df e8 a8 36 70 1a 52 35 45 4c 22 36 82 a6 72 36
       5.0339e-06 7.826957e-07 2.4184276e-06 3.615773e-06
000290 af 0b 30 37 6c 04 2f 37 94 23 56 37 f3 91 3e 37
       1.0493138e-05 1.0431842e-05 1.2763678e-05 1.1358864e-05
0002a0 56 1c 3f 37 d4 78 3f 37 16 4a 7a 37 05 7b b0 36
       1.1391085e-05 1.141262e-05 1.4918411e-05 5.25953e-06
0002b0 e2 b2 0e 37 8e 3e 44 37 21 ae ba 36 d4 a1 fb 36
       8.505509e-06 1.1697075e-05 5.5635032e-06 7.499222e-06
0002c0 8c 3a 32 37 03 87 11 37 3d c6 1e 37 22 42 dc 36
       1.0623258e-05 8.674108e-06 9.46369e-06 6.56421e-06
0002d0 8e a2 8c 37 15 34 4a 37 0f c8 3f 37 4b b4 79 36
       1.6764996e-05 1.20522645e-05 1.1431067e-05 3.7208836e-06
0002e0 ff 94 65 36 e0 8f 0a 36 57 69 e8 35 2b 24 09 36
       3.4210386e-06 2.0647349e-06 1.7316005e-06 2.0435643e-06
0002f0 35 a4 7f 35 d0 18 8f 37 fc d2 4b 37 f4 5a 06 37
       9.5233855e-07 1.7058483e-05 1.21488665e-05 8.008199e-06
000300 7e 80 6a 34 c1 2a a8 33 f1 d7 8e 31 a1 ce d5 34
       2.1839693e-07 7.8308865e-08 4.1572936e-09 3.9824684e-07
000310 a3 bd ba 34 9c ab 63 34 5d 9e de 34 e5 74 5e 34
       3.478318e-07 2.1203454e-07 4.1465947e-07 2.0717887e-07
000320 d9 a1 31 33 0b ee 6d 33 a3 b8 ca 34 ee 2e 61 33
       4.1358224e-08 5.539736e-08 3.7759773e-07 5.2429577e-08
000330 63 3e 85 33 5c 07 b8 34 d6 9d c3 34 85 df 8b 34
       6.204643e-08 3.4278025e-07 3.643642e-07 2.60534e-07
000340 64 cd 10 35 5e 80 09 35 ea 71 85 34 71 f9 eb 34
       5.3943063e-07 5.1223276e-07 2.4856064e-07 4.3953654e-07
000350 14 eb e2 33 9b 30 bb 34 4e 24 33 34 84 1d d4 34
       1.05667056e-07 3.486683e-07 1.6683882e-07 3.9509553e-07
000360 69 1f 45 34 19 c5 03 35 78 5e f2 34 a6 fe 11 35
       1.8358482e-07 4.908812e-07 4.5144748e-07 5.438727e-07
000370 d4 e4 20 34 2a b3 ac 34 42 a6 79 34 00 f7 e9 33
       1.4984408e-07 3.2167856e-07 2.3250416e-07 1.0894837e-07
000380 65 6e 48 34 22 39 fc 33 10 b9 9a 33 60 ff bd 34
       1.8666613e-07 1.1745057e-07 7.2048465e-08 3.5389803e-07
000390 f1 09 a9 34 a1 ea fb 33 32 eb 9c 33 d5 51 8e 33
       3.1485936e-07 1.1730777e-07 7.307098e-08 6.6272754e-08
0003a0 5e 35 cb 34 81 7c ec 34 bc f0 02 34 2b 50 0d 35
       3.7850526e-07 4.4049014e-07 1.2194772e-07 5.2643253e-07
0003b0 32 76 6f 33 e9 1f 46 34 f6 a1 eb 34 2e 6c 0d 33
       5.5754022e-08 1.8451796e-07 4.3890003e-07 3.292751e-08
0003c0 bc 78 9c 36 3e f7 2a 37 1a e4 6d 34 68 9e bc 36
       4.6632176e-06 1.0190355e-05 2.2155328e-07 5.6212775e-06
0003d0 de a5 44 36 95 eb 89 35 c1 51 be 34 27 25 7f 37
       2.9302823e-06 1.0275859e-06 3.5449742e-07 1.5207835e-05
0003e0 61 64 4f 36 23 c0 02 37 a0 67 fe 35 4e 38 c2 36
       3.0903832e-06 7.793339e-06 1.8954634e-06 5.7882053e-06
0003f0 05 01 e6 35 5c ee 82 35 44 1b 54 36 cd 7e ab 36
       1.7136632e-06 9.755126e-07 3.1606332e-06 5.1109587e-06

exp_avg f4 [128]
000000 e7 4b a0 3b 90 45 b6 3b d3 b4 b4 3b 14 38 e3 3b
       0.0048918608 0.0055624917 0.00551472 0.0069341753
000010 7b 0e a2 ba d6 cf d3 3b d0 93 86 bb d0 36 f9 3a
       -0.0012363935 0.006463985 -0.004106976 0.0019013528
000020 12 58 9b bb 18 3c b4 3b f9 02 08 3c fc 94 00 3c
       -0.0047407234 0.005500328 0.00830149 0.007848021
000030 fa cb 1b 3b d1 2e cb 3b 86 b6 9f 3b f5 4c d1 ba
       0.0023772703 0.0062006493 0.0048740534 -0.001596837
000040 d8 db 85 bb 49 6d a4 3b fc 36 68 3b d0 6e 75 3b
       -0.0040850453 0.0050179106 0.0035433164 0.0037450083
000050 d1 be 11 bc 24 6a c8 3b 1d 2e b9 bb 0d f0 7a bb
       -0.008895592 0.0061161686 -0.005651249 -0.0038290054
000060 8f 6d c4 3a d0 34 06 ba 43 20 ba 3b 27 92 b7 3b
       0.0014986264 -0.0005119564 0.0056801154 0.0056021395
000070 cd 41 2e bb 8a f4 21 3b 74 b7 89 bb cf 0c c4 3b
       -0.0026589513 0.0024712407 -0.0042027775 0.005982972
000080 38 a0 96 3b 61 02 d9 3b 52 60 b3 bb df 0c 9c bb
       0.0045967363 0.006622598 -0.0054741288 -0.0047622765
000090 28 45 3c 3b b1 d9 3b bc 0c 73 66 3b d9 d3 0c bc
       0.0028727744 -0.011465476 0.0035163788 -0.00859543
0000a0 17 7b 79 bb c2 18 34 bc 98 55 74 3b 4b cc b5 bb
       -0.0038067752 -0.010992231 0.0037282463 -0.0055480353
0000b0 2b ed 9e bb cc fa 41 bb a8 ed d7 bb a7 0a 4f 3b
       -0.00485005 -0.002959895 -0.00658961 0.0031592043
0000c0 3c 06 05 bb 81 1e 6c bb 12 ac b4 3a 9a d0 83 3b
       -0.0020297905 -0.0036028924 0.0013784191 0.00402267
0000d0 f5 d0 e5 bb 86 aa 3e bb b2 e6 1e 3b 7a af c4 ba
       -0.007013435 -0.002909334 0.0024246392 -0.0015005909
0000e0 d1 d8 b5 3b 4d 08 90 bb bc ae 2c 3b 9f 83 9d bb
       0.005549528 -0.004395521 0.0026349267 -0.00480695
0000f0 35 53 ae 3b 96 d3 ac bc 4e 64 19 bb 1a cd dc 3b
       0.0053199776 -0.021096986 -0.0023405734 0.006738317
000100 33 3e a6 3b fa f3 ab bb 36 94 9f 3b 62 8e 86 bb
       0.0050733327 -0.00524759 0.004869963 -0.004106329
000110 10 49 e8 ba c3 cf 37 bb a1 2b 05 bb 6a eb cb 3b
       -0.001772197 -0.002804742 -0.0020320194 0.006223132
000120 a7 cd d4 3b 02 a8 13 bb f5 7e f5 ba b2 41 1c 3b
       0.006494242 -0.002253056 -0.0018729853 0.0023842868
000130 5a cd 4e 3b 1a 21 36 3b db fd ff bb 6e d6 49 bb
       0.0031555505 0.0027790726 -0.0078122444 -0.0030797976
000140 bc 4c 6b 3b 50 c9 a0 3b 31 9a 74 3b 24 72 a1 3b
       0.0035903892 0.004906811 0.003732335 0.0049269367
000150 52 df ba 3b c4 00 f6 bb c1 15 00 3b df 40 ca bb
       0.0057028914 -0.0075074155 0.0019544216 -0.006172284
000160 2c 34 ae bb 7e 78 11 bc 1c 96 ca bb 2f ac 83 3b
       -0.005316278 -0.008878825 -0.006182445 0.0040183286
000170 b7 06 24 3b 54 ec 81 3b 64 b6 af bb f8 d3 06 bc
       0.0025028416 0.00396494 -0.005362319 -0.008229248
000180 e8 83 c7 bb 70 98 38 3b 99 69 c9 3b 73 22 4d bc
       -0.0060887225 0.0028167032 0.0061466214 -0.01252042
000190 dd 4e 8a bc c0 c3 c1 3b cf ce 8a 3b f1 b7 b3 bb
       -0.016883308 0.005913228 0.0042360793 -0.005484574
0001a0 1c 15 25 bb 72 83 31 3c 31 e0 05 3c f3 50 81 bb
       -0.0025189584 0.010834562 0.008171127 -0.0039464175
0001b0 4a ea 69 bb 2e 02 c1 bb 86 40 73 bb 05 7c 39 3c
       -0.0035692626 -0.0058901524 -0.0037117316 0.0113210725
0001c0 2b a8 a0 bb f4 96 03 bc 31 6f 0b bb 28 f0 43 3b
       -0.0049028597 -0.0080315955 -0.0021275992 0.0029897783
0001d0 1d c6 3a bb 90 2e 37 bb c2 2e cd 3b c7 d4 ff 3b
       -0.0028499432 -0.0027951337 0.0062616775 0.0078073475
0001e0 ca 2c cf 3b 61 12 95 3b ac 34 91 bb e9 c7 04 bc
       0.006322478 0.00454931 -0.004431328 -0.008104303
0001f0 18 b2 99 3b c5 2c 40 bb 5d 81 4e 3b 19 1b 5c bb
       0.00469042 -0.002932356 0.0031510212 -0.0033585487

exp_avg_sq f4 [128]
000000 b8 d5 e8 37 e2 cc 67 38 30 fc 49 38 eb 57 8d 38
       2.7756076e-05 5.5265504e-05 4.8157002e-05 6.73978e-05
000010 3d dd 1e 36 51 c3 90 38 26 60 6b 37 7e 8a 7a 36
       2.3672612e-06 6.9028356e-05 1.4029478e-05 3.7333516e-06
000020 54 1e 0f 38 a8 a1 0e 38 33 19 e9 38 82 6b c4 38
       3.4122102e-05 3.4005992e-05 0.000111149995 9.366033e-05
000030 cf 00 06 37 36 ed 7d 38 a7 25 e2 37 06 a2 81 36
       7.987211e-06 6.054082e-05 2.6958833e-05 3.8633616e-06
000040 6a 01 cb 37 46 16 0b 38 b3 d3 98 37 ad 6f 6c 37
       2.4200144e-05 3.3160926e-05 1.8218392e-05 1.4092698e-05
000050 95 ef 00 39 c2 b3 50 38 eb 58 38 38 83 61 bb 37
       0.00012296283 4.9758477e-05 4.395183e-05 2.2337545e-05
000060 a9 67 da 35 e4 fc 00 35 d7 50 5b 38 40 5a 47 38
       1.6272435e-06 4.805172e-07 5.2288957e-05 4.752935e-05
000070 70 66 50 37 c7 d2 46 37 90 74 dd 37 f0 25 7c 38
       1.2421617e-05 1.1850795e-05 2.6399532e-05 6.0116814e-05
000080 e1 53 a6 37 80 b9 5e 38 e2 b7 27 38 9e 78 f3 37
       1.9827801e-05 5.3101685e-05 3.9987157e-05 2.9024024e-05
000090 c0 97 83 37 26 7e 2e 39 4e b7 94 37 fd 5c bb 38
       1.5687081e-05 0.00016640927 1.7728333e-05 8.934175e-05
0000a0 a7 90 e5 37 76 3a 0e 39 2d 84 75 37 7e a1 23 38
       2.7366286e-05 0.00013563954 1.46339125e-05 3.901263e-05
0000b0 f9 b6 01 38 c1 7f 3e 37 0b ed 3b 38 48 93 11 37
       3.0926403e-05 1.13546275e-05 4.4805038e-05 8.676965e-06
0000c0 32 44 ef 36 4b ef 80 37 9d 46 0a 36 11 a7 ac 37
       7.130694e-06 1.5370219e-05 2.0604705e-06 2.0581794e-05
0000d0 cd 9b 84 38 a9 d2 18 37 4c 03 c4 36 25 cd 87 36
       6.323271e-05 9.108954e-06 5.841639e-06 4.0471955e-06
0000e0 c4 48 26 38 a7 fe 96 37 f5 23 d7 36 f4 31 dd 37
       3.9645252e-05 1.7999975e-05 6.4116853e-06 2.6368514e-05
0000f0 52 ac ea 37 4f 22 f0 39 55 92 ae 36 ee 62 a2 38
       2.7975217e-05 0.0004580193 5.2026394e-06 7.743189e-05
000100 8e ef f7 37 0f 90 3b 38 7f 3b f0 37 48 c8 b9 37
       2.9556246e-05 4.471844e-05 2.8637935e-05 2.2146982e-05
000110 9c 6b 6d 36 82 18 6a 37 76 35 bd 36 0c 88 6c 38
       3.537839e-06 1.3953193e-05 5.6388626e-06 5.639349e-05
000120 78 58 3d 38 e1 76 dd 36 44 a6 1e 36 f9 0b 7e 36
       4.5143504e-05 6.6001526e-06 2.3640614e-06 3.7855918e-06
000130 92 42 8d 37 12 06 0b 37 40 a9 bf 38 02 5a a1 37
       1.6839509e-05 8.286459e-06 9.139115e-05 1.9234609e-05
000140 ea 0e 8c 37 6e f7 c3 37 db 5b 75 37 91 5a 15 38
       1.6696245e-05 2.336103e-05 1.4624525e-05 3.5608715e-05
000150 51 50 4a 38 40 79 b3 38 7c 00 2d 36 68 fc 1e 38
       4.8235353e-05 8.55797e-05 2.577929e-06 3.7905207e-05
000160 ce 59 c1 37 d5 be d5 38 56 21 89 38 45 89 e1 37
       2.3049211e-05 0.00010192177 6.5388784e-05 2.6886011e-05
000170 6e a5 9c 36 3e d7 bd 37 2c 2d 48 38 42 5b 9f 38
       4.668421e-06 2.2630786e-05 4.7725785e-05 7.598709e-05
000180 12 b4 78 38 a7 f4 fb 36 79 44 38 38 aa 9a 42 39
       5.929551e-05 7.508864e-06 4.393279e-05 0.00018558899
000190 8c 24 87 39 f3 fd 57 38 7d 9a dc 37 43 f5 47 38
       0.00025776436 5.1496503e-05 2.6297983e-05 4.7673715e-05
0001a0 71 a9 68 37 4e 0f 3c 39 3d ba a5 38 6a bc d1 37
       1.3867729e-05 0.00017934779 7.902503e-05 2.5002479e-05
0001b0 eb 8c 9a 37 54 55 44 38 d3 32 fb 37 b7 ed 0c 39
       1.842385e-05 4.680951e-05 2.9945199e-05 0.00013439996
0001c0 b8 4e 04 38 17 98 95 38 49 d7 0d 37 da 93 66 37
       3.1544565e-05 7.1332026e-05 8.45438e-06 1.3743493e-05
0001d0 e9 ed 9c 37 df a1 09 37 d8 41 82 38 f9 d7 a8 38
       1.8707435e-05 8.203525e-06 6.2111474e-05 8.051092e-05
0001e0 50 a3 4d 38 f1 6a af 37 25 c9 eb 37 cb d2 cb 38
       4.9027905e-05 2.0911424e-05 2.8107848e-05 9.7190576e-05
0001f0 c6 08 d3 37 ec 82 5d 37 43 ee 59 37 fc 25 be 37
       2.5157246e-05 1.3203109e-05 1.2989683e-05 2.2667453e-05
