our-vTR/10_fold_lightning_logs/dataset1/fold_9/version_2/checkpoints/epoch=49-step=1749_fold9.ckpt (torch, 132433 bytes, 18 tensors)

conv1d.weight f4 [128, 4, 12]
00000000: 5044 d1bd 01ab e43d 6501 783e cfeb 29be
00000010: 72b8 5c3e 8c86 e6bd 7962 8b3e d86f c8bd
00000020: 24b9 52be 7685 4e3e ea05 463e d94f 253e
00000030: c8d5 08be 3110 16be c3d1 25be 0cb1 d83d
00000040: fba5 6fbe 4a1e 96ba f8e3 b4bc 9a7d 5b3e
00000050: 0ed3 bcbd 0747 d73d 076a 3fbe 4532 45be
00000060: 9a68 833e e20c e23d d72a 36bd 186a b83c
00000070: af6e 073e e032 24be b759 0d3e a15b afbe
00000080: d3ed 0a3e 6f4b 34be a856 2dbe d20a 84bd
00000090: eb30 dabd 8724 123e 6ac3 0bbe 49c9 8abe
000000a0: c1c6 863c 9e73 e7bc 64e5 25be 5357 21be
000000b0: c59d 563e 070a 32bb f7da 0fbd 5870 d43d
000000c0: 3ca7 033e 6c7f 24bd a53e 2b3a 3212 a53c
000000d0: 2629 b53d e534 28be 8f03 b3bd f7ea 743d
000000e0: a08e 34bd 2ac7 cabe 83aa f93d f5af 19bd
000000f0: 0ffb 2e3e d13c 8b3d 51ce 8b3c 8d7e d7bd
00000100: c9fa 073e 83e8 543e fe8b d4bd 85a8 813d
00000110: 3942 483e cb85 25be 2115 4bbd b613 45be
00000120: 1651 8cbe e5f0 a8bd 20df 65bd c1f6 61be
00000130: d495 afbd ae2b 32be a985 61bc d418 7a3d
00000140: eb95 343e 1bd6 d5be c245 86bd 5589 003e
00000150: 5480 c3be 0540 70bc 6db9 31be 8c0b 723e
00000160: e48c 93be ce91 ad3c 94d4 22be 9c93 3abd
00000170: fa4a 09be 4d27 763e 7478 3dbe e453 213d
00000180: 3979 eabd 0b8e febd 3cb2 d5bd 3ed0 753e
00000190: 2df7 edbd 6af3 0a3d 8695 1abe 4536 98be
000001a0: 87fd c93c 67ee 8ebd e0bf 013e 267c 5bbe
000001b0: 067c 86be 4098 84bc 3557 1f3e 552f 8cbe
000001c0: 288b 11be e18b e6bd 17b0 473e 3df2 ff3d
000001d0: e7f2 02bd 6c11 96be 0483 c0be 58e6 9d3c
000001e0: 2ed9 173e 6402 e63d 584f e33d 7779 45be
000001f0: 0de5 c63d f824 d33d c228 82bd 7926 28be
00000200: b47c c73d f7ac 3c3e d206 033e 5155 173e
00000210: 7817 303e 9798 a6be 5ef6 133d 8c86 efbd
00000220: fe10 4e3e ad9b 8fbe f96f 543d add7 d33d
00000230: e505 5ebe 70b3 9ebd 83d5 2cbe bc1d 50bc
00000240: d39b c6bc 7789 d8bd 1321 c8be 3a67 16bd
00000250: 1de1 bdbe d74a 4a3e e1be b9bd dbfe 89be
00000260: ed47 9fbe cf4f ebbd 1401 21bc 2d8e b23d
00000270: 65d5 cbbe b242 453c 9751 f13d 76ae 64be
00000280: 7f5f b7bd 783d 8ebe 5b1e 77be e9d9 9d3d
00000290: 76b8 2b3e 4740 c83d e9e8 3b3d a619 e33d
000002a0: 30eb 09bd 23af f53d 4122 18bc 49ab a63e
000002b0: f459 093e 8278 423d 3975 853e 0ca0 973e
000002c0: 225a cb3d 2d33 58bc f172 debb 0873 2dbe
000002d0: 6669 993e cfd5 213e 7344 1f3e 87d4 aabc
000002e0: dc91 2cbd 29d2 9dbe da5e e8be ca96 99be
000002f0: add0 bfbd 6bba 5f3e 5a98 0b3e 35a0 9abc
00000300: e332 4cbc cf4b 18be 55cc f7bd 22d9 253e
00000310: d832 0b3e 3435 443d fb01 1e3e 974f b2bd
00000320: c13c 27be 8331 4a3d a867 8b3e 5802 3fbe
00000330: 199f fabd 594c bbbd 5f9a 123e 684e 75bd
00000340: 039c eb3d 229d 51bd 94cc 3abe 1dda 95bd
00000350: ae0b 89be 9521 a83e 56ef 51bd 3f5f 243e
00000360: b136 16bd bb2b 173e d3c8 443e e6a9 873d
00000370: 3481 7aba 5c42 0fbe 2e24 4cbd cde8 b1be
00000380: da73 7a3e 8832 d3be 7802 c0bb 9ab6 1bbd
00000390: 3b8c 7a3e 4ba6 bf3d f368 59be 06c0 40be
000003a0: 32af e63d e536 373d e275 25be f3f5 4a3e
000003b0: c123 7ebe b459 38be d2df 433b b9c6 e0bd
000003c0: 35f7 eebc a036 513d 6684 21bd bce6 12be
000003d0: 87d8 49be 5ba5 2fbd 2a92 8bbe 2e24 793c
000003e0: a9cb 9dbe 8e72 22be 6495 6ebe 4366 20bd
000003f0: 989c 5cbe e664 aabd 3019 4fbd 6d55 aebe
-0.10218108 0.11165429 0.24219282 -0.1659386 0.21554735 -0.112561315 0.27223566 -0.097869575
-0.20578438 0.20168099 0.19338194 0.1614374 -0.13362801 -0.14654614 -0.16193299 0.10580644
-0.2340316 -0.0011453119 -0.02208136 0.21434632 -0.09219943 0.10511594 -0.1869279 -0.19257458
0.25665742 0.110376135 -0.04447445 0.022511527 0.13225816 -0.16035032 0.13803755 -0.34249595
0.13567285 -0.176069 -0.16927588 -0.06447376 -0.106538616 0.14271747 -0.13648763 -0.27106693
0.016452195 -0.028253373 -0.16200787 -0.15755968 0.20958622 -0.0027166621 -0.03512093 0.1037299
0.12856764 -0.04016058 0.0006532467 0.020150278 0.08845739 -0.16426428 -0.08740913 0.059794392
-0.04408133 -0.39605075 0.12190726 -0.03752132 0.17087959 0.06798709 0.017066153 -0.105221845
0.1327926 0.20791821 -0.10378264 0.06330971 0.19556512 -0.16164319 -0.049580697 -0.192458
-0.27405614 -0.08249072 -0.05612099 -0.22066785 -0.08573499 -0.17399475 -0.013764777 0.061058834
0.17635314 -0.41764912 -0.06556274 0.12552388 -0.38183844 -0.014663701 -0.1735589 0.23637217
-0.2881843 0.02118769 -0.15901405 -0.045550928 -0.13407508 0.2403843 -0.1850298 0.039386645
-0.11448903 -0.12429436 -0.10434386 0.2400522 -0.11619411 0.033923544 -0.15096101 -0.29728904
0.024657024 -0.069790654 0.12670851 -0.21434078 -0.26266497 -0.01618588 0.1556061 -0.2737986
-0.1421324 -0.112571485 0.19500767 0.12497375 -0.03196993 -0.29310167 -0.37599957 0.019274876
0.14828941 0.11230925 0.11099118 -0.19284616 0.09711657 0.103097856 -0.0635543 -0.16420926
0.09740582 0.18425356 0.1279557 0.1477864 0.17196453 -0.32538292 0.036123626 -0.11695585
0.2012367 -0.2804846 0.051864598 0.10343871 -0.21681936 -0.07749069 -0.16878323 -0.012702402
-0.024244225 -0.10573094 -0.39087734 -0.03671954 -0.3708581 0.19755112 -0.090696104 -0.26952252
-0.31109563 -0.11489832 -0.009826917 0.08718524 -0.39811245 0.012039827 0.1178314 -0.22332177
-0.08953761 -0.27781272 -0.24132673 0.07707579 0.16769585 0.09777885 0.045876417 0.110888764
-0.033671558 0.11996295 -0.0092855105 0.32552555 0.1341322 0.047478206 0.26065996 0.29614294
0.09929301 -0.013195795 -0.0067886044 -0.16938412 0.29963225 0.15804218 0.15553455 -0.020853294
-0.04213129 -0.30824402 -0.45384866 -0.29997855 -0.093659736 0.21848457 0.13632336 -0.01887522
-0.012463304 -0.14872669 -0.1209952 0.16196111 0.13593614 0.0479023 0.15430443 -0.08706587
-0.1633177 0.049363624 0.2722752 -0.18653238 -0.12237377 -0.091454215 0.143167 -0.059889227
0.11504366 -0.051175244 -0.18242103 -0.073169924 -0.26766723 0.3283812 -0.05125364 0.16051959
-0.03667325 0.14762776 0.19217233 0.066242024 -0.0009555996 -0.13990158 -0.04983919 -0.34747925
0.24458256 -0.4124949 -0.0058596693 -0.03801594 0.24467556 0.0935789 -0.21231441 -0.18823251
0.112638846 0.044730086 -0.1615825 0.19820385 -0.24818327 -0.18002969 0.0029888046 -0.10975403
-0.029170612 0.051077485 -0.039432906 -0.1434583 -0.19711505 -0.042882305 -0.27259952 0.01520638
-0.30819443 -0.15864012 -0.23299176 -0.039160024 -0.21544111 -0.08320026 -0.05056113 -0.3404955

conv1d.bias f4 [128]
00000000: 8f42 febc e79b 5fbd 040c c4bd 0835 ccbc
00000010: b369 12bc ab57 ca3d 1ba7 e7bd f630 0b3e
00000020: 52d6 033d 202d 243d c04c 9fb9 4ed7 88bc
00000030: 54cf 723c 6993 183e e8c4 a63c ab74 333d
00000040: 45fa 88bb 52ad 20bc 52bf ea3d 3a25 c93d
00000050: ef95 d33b 7460 37bd 5294 a43d 7f8a b5bb
00000060: 52da dabc 8efd e83b 66d5 273e 012c a0bc
00000070: f0d2 f23c 69a5 00bd 49d6 16be 53a5 493d
00000080: f6d8 a9bd 7e56 493d 9a10 32bc eb58 a1bb
00000090: d412 7cbc 1e25 8cbd 4b8e a73d 24d7 11be
000000a0: cbda 923d 2bbc 87bd 0710 873d 3f38 dcbd
000000b0: 5703 8bbd dadb af3c e4c2 ba3d 332b 343a
000000c0: b4e9 2a3c b771 27be 6e7d 0d3c 3e1c b23d
000000d0: a725 043d cf2e 23bb 4993 92bb 1f85 84bc
000000e0: d4a8 853c 0114 edbd ac29 d7bd e8cb 04be
000000f0: aa7b 223c 2315 46bd 36d4 4d3d a957 243e
00000100: 5378 503d 9fd4 f4bc 30e3 debc de4e e2bd
00000110: 74bb c7bd 151d 05be 1e30 afbd 441f bfbb
00000120: 1f0e 11bd df71 0ebd 226b fa3d 88c1 aa3d
00000130: 3387 b43d 3883 86bc 4e6d 413d 7815 ae3d
00000140: 0e3b 10bd bff2 d53d 7a59 683d 834f 03bd
00000150: d9c1 c0bd 07bf 523d 9f6f e4bc a73c 22be
00000160: 098d 22be 5b28 6fbd 4052 36bd 4d92 743b
00000170: bb22 fc3c 524a 25bd 2dc6 d9bd d256 dbbd
00000180: 3bdd 36be 1fd9 243d 761f 83be d73d d9bd
00000190: 02b4 33be 12ce 713d ff05 c9bd a880 29bd
000001a0: 4754 bbbc 1165 623d ac5e 58bd 2d66 febd
000001b0: c6e8 f43c ae0c cebd fb6d d33d 5841 10be
000001c0: e58b 31bd d707 11be 767f bebc 219c c8bc
000001d0: e6a5 b2bb a61b 9abd 479d fe3c 1ae0 cabd
000001e0: 48e6 01be 068c f0bd 8584 edbd dd18 20be
000001f0: 3cc4 123e 18f5 f33c 87fa 133e bac3 29bd
-0.031037597 -0.05459204 -0.09572604 -0.024927631 -0.0089363335 0.098800026 -0.1131117 0.13592896
0.032186814 0.040082097 -0.00030384026 -0.016704228 0.014819939 0.14899983 0.020357564 0.043812435
-0.004180225 -0.009806948 0.11462273 0.098215535 0.0064570825 -0.04476972 0.08036102 -0.0055401917
-0.026715431 0.007110304 0.16389999 -0.019552233 0.029641598 -0.031407747 -0.14730181 0.04922993
-0.08293335 0.04915475 -0.010868216 -0.00492393 -0.015385348 -0.06843017 0.08181437 -0.14242226
0.07170638 -0.06627687 0.06594854 -0.107529156 -0.067877464 0.021467138 0.09119204 0.0006872892
0.010431696 -0.16351973 0.008635862 0.08696793 0.03226247 -0.0024899726 -0.004473124 -0.016176758
0.016315855 -0.11576081 -0.10505995 -0.12968409 0.009917179 -0.04836 0.05025121 0.16049065
0.050896 -0.029886542 -0.02720794 -0.11050199 -0.09752551 -0.12999375 -0.085540995 -0.0058325846
-0.035413858 -0.034776565 0.12227465 0.083376944 0.0881485 -0.016419992 0.04722338 0.085001886
-0.03521257 0.10446691 0.056725956 -0.03205825 -0.094119735 0.05145171 -0.027885256 -0.1584345
-0.15874113 -0.058388095 -0.044512033 0.0037318647 0.03077828 -0.04035408 -0.10633502 -0.10709919
-0.1785783 0.040246125 -0.2560994 -0.10607498 -0.17549136 0.059034415 -0.09815597 -0.04138246
-0.022867335 0.055272166 -0.05282466 -0.12421832 0.029896151 -0.10061012 0.103237115 -0.14087427
-0.043346304 -0.14163147 -0.023254137 -0.02448851 -0.0054519055 -0.07524805 0.031080855 -0.09906025
-0.12685502 -0.11745457 -0.11597542 -0.15634485 0.1433267 0.029779956 0.14451037 -0.041446425

linears.0.weight f4 [32, 128]
00000000: 5e3c 7638 842f e7b8 16b2 c137 b6cb 78b8
00000010: 7936 5cb8 3cd2 9939 73bb 04b9 aaed a3b8
00000020: 0133 5fb8 db2e f436 efd2 bb37 0c01 40b9
00000030: bd2e bc35 7734 aa38 fed6 2639 0042 5538
00000040: e614 3db9 cb9d 18b9 7c77 44b9 6937 c2b7
00000050: a68e e0b8 5d07 0739 7006 a438 3e83 1239
00000060: 24a0 53b8 c733 e838 5e34 02b8 2589 15b9
00000070: c0ab e8b8 3bd9 8037 fcb4 21b9 b585 0f39
00000080: 8285 4f39 4a74 9937 02dc edb8 242a dd37
00000090: bef1 4438 54cc d9b7 2df0 b937 6a81 59b8
000000a0: 0e16 00b8 ad90 d038 6a8e e6b9 da31 ecb8
000000b0: 1b7d 0d39 9585 cfb7 77d6 58b8 9fe0 9339
000000c0: 0269 b438 5d5c fb37 1f36 8738 918d 3838
000000d0: e089 03b9 cd1a 7eb7 2bb8 9c39 c9ea 5c37
000000e0: 3fc5 0eb9 1de4 afb8 a196 aeb8 0fe8 bfb8
000000f0: 4bc0 80b9 4908 d638 63dc 55b6 2af1 1937
00000100: 3a41 4436 102d d5b8 8445 82b9 3a3c f9b8
00000110: 9464 86b8 03da 3639 5dd3 4239 5278 18b9
00000120: 018c 17b9 6d63 ca37 57ea f1b8 67bc 6238
00000130: e793 2239 3651 2136 bd9b 2338 e4e3 7fb9
00000140: 0e79 fb38 ca8a dd38 966c bfb8 ae63 01b9
00000150: aa49 f034 66dd e538 6289 3c39 52fb f1b6
00000160: 63c2 7cb8 7c9a 8c38 c4d4 aab8 e60b fdb8
00000170: 9580 a1b8 936a 2db9 715c 8838 bc0e 04b9
00000180: 98e1 17b8 5e6a afb8 d4f8 34b9 5b8a 2ab9
00000190: 83d7 d5b8 bd75 2a39 d9ce 6a38 60fd ed36
000001a0: 7299 dab8 d776 5937 c32d 1039 4af5 2439
000001b0: 50e3 e4b7 fdb2 05b9 6d0d 06b9 2f79 8f38
000001c0: 457f 9337 fb90 a338 0ef6 83b7 9491 54b8
000001d0: beab b636 6289 2cb9 3da7 1038 8bc3 e738
000001e0: 6628 3839 9c34 9338 e36f c4b8 4199 00b9
000001f0: af37 9039 28bc e037 218e ceb6 5b9a a3b7
00000200: 6a03 12b4 ce38 f9b7 42e9 91b7 e352 23b7
00000210: b49c 9d38 f970 db37 84dc f9b8 3f89 8db7
00000220: 9427 3a38 5d25 cc37 ac53 d5b7 b157 05b7
00000230: bba2 ebb7 88c3 aeb7 4966 9038 6a98 57b7
00000240: f227 eeb7 22c7 26b7 dc4e 2437 145d 8fb8
00000250: 15a5 5cb8 0124 8ab8 907f f437 c58b 8238
00000260: 9a84 6fb8 ddf3 ce36 b688 bfb8 0f98 4238
00000270: fa82 3cb8 e929 87b8 4c31 9938 bda7 5ab8
00000280: e3e9 1936 9c2d 0db8 ae57 40b7 17e1 8337
00000290: 01f4 0f38 215d ddb6 af67 c838 05b0 9438
000002a0: 4a9d 8537 4460 8938 e755 efb7 47b6 4fb8
000002b0: eb5a 1939 bc9d 69b7 7900 0a37 2c30 3db7
000002c0: bc6d ca38 c610 8ab8 a122 b0b7 8d7e df36
000002d0: 477e 7437 aa39 7f38 547c 9438 1456 9c36
000002e0: 7f91 db36 c51a 4ab7 c29e bdb8 6a8b 6ab8
000002f0: 9c40 1cb7 5642 35b8 a85e 05b8 9631 2838
00000300: 91b4 c0b5 5ac3 54b8 0a3d 0b38 7df9 0fb8
00000310: c3e4 76b8 a835 0bb6 ff87 f3b7 acd8 15b7
00000320: 157c 98b8 e996 f838 3113 7337 b775 12b8
00000330: 8a04 7ab5 0c39 6d37 4ce9 8837 6e35 b335
00000340: 526b 9cb8 bb13 9337 c2df 16b8 996a ebb8
00000350: 40a1 8eb8 6d95 38b8 9a75 1f38 9a43 e538
00000360: 918d 39b7 d24b be37 c1ff 7338 1173 8338
00000370: e985 0938 3fa9 eab7 850d b4b5 af5e 0438
00000380: 8c0f ff37 ecc2 e4b6 e092 0039 4bbd afb8
00000390: e7ef 09b8 1f2f dbb6 36e8 d3b7 38f6 94b8
000003a0: 865a 9837 50b0 2238 abbb b6b8 f99a 1136
000003b0: 5bbe e6b7 d4fd 92b7 83d6 fd36 3de4 7b38
000003c0: 7966 8338 b546 deb4 c56b 65b8 1678 93b8
000003d0: a75e 9437 9c6e db38 fcac adb7 b09e 0eb7
000003e0: dbb7 4737 38b7 9538 fd39 0db8 0651 9f37
000003f0: 6741 7db8 1b97 ff37 4598 f1b7 2b16 5fb7
5.870719e-05 -0.00011023789 2.309032e-05 -5.931753e-05 -5.250282e-05 0.0002933907 -0.00012658331 -7.816714e-05
-5.3214844e-05 7.2772214e-06 2.239036e-05 -0.00018310937 1.4020694e-06 8.116004e-05 0.00015911084 5.0844625e-05
-0.0001803223 -0.00014554632 -0.00018736528 -2.3152405e-05 -0.00010707723 0.00012877346 7.8213285e-05 0.00013972537
-5.0455463e-05 0.00011072266 -3.1043186e-05 -0.00014260838 -0.00011094613 1.5359945e-05 -0.00015421578 0.00013687352
0.00019790794 1.8293173e-05 -0.0001134202 2.6364876e-05 4.695518e-05 -2.5963564e-05 2.216556e-05 -5.1857358e-05
-3.0538118e-05 9.945161e-05 -0.00043975125 -0.000112626425 0.00013493413 -2.4738527e-05 -5.169815e-05 0.0002820538
8.602628e-05 2.9964542e-05 6.4473825e-05 4.4000863e-05 -0.00012544496 -1.514582e-05 0.00029891855 1.3167687e-05
-0.00013615655 -8.38714e-05 -8.3250234e-05 -9.150814e-05 -0.00024557332 0.000102058584 -3.1867755e-06 9.175661e-06
2.9244243e-06 -0.00010165025 -0.00024847325 -0.00011884463 -6.408352e-05 0.00017438088 0.0001858002 -0.00014540672
-0.00014452638 2.4126575e-05 -0.00011535425 5.4058062e-05 0.00015504622 2.403814e-06 3.900727e-05 -0.00024403591
0.00011991161 0.00010563953 -9.1278154e-05 -0.00012339532 4.475708e-07 0.000109608096 0.00017980256 -7.2116172e-06
-6.026252e-05 6.704495e-05 -8.1458624e-05 -0.00012066196 -7.7010285e-05 -0.00016538268 6.502204e-05 -0.0001259399
-3.6211306e-05 -8.364463e-05 -0.00017258833 -0.00016264005 -0.00010196774 0.00016256324 5.598259e-05 7.092647e-06
-0.000104236315 1.29618775e-05 0.00013749958 0.00015731636 -2.7285569e-05 -0.00012750547 -0.00012784237 6.8413436e-05
1.758303e-05 7.7994504e-05 -1.5730995e-05 -5.068032e-05 5.444016e-06 -0.00016454377 3.4488028e-05 0.00011051361
0.00017562657 7.0193055e-05 -9.366849e-05 -0.00012264123 0.00027507308 2.6790498e-05 -6.1558244e-06 -1.9502992e-05
-1.3598552e-07 -2.9709565e-05 -1.7393966e-05 -9.734856e-06 7.5155316e-05 2.6159441e-05 -0.000119143195 -1.687242e-05
4.4382716e-05 2.4336094e-05 -2.5430541e-05 -7.947835e-06 -2.808996e-05 -2.0833468e-05 6.885507e-05 -1.2850485e-05
-2.8390412e-05 -9.940735e-06 9.793523e-06 -6.8361085e-05 -5.2605832e-05 -6.587059e-05 2.9146468e-05 6.224917e-05
-5.7105535e-05 6.167668e-06 -9.133054e-05 4.639482e-05 -4.4944674e-05 -6.445108e-05 7.304791e-05 -5.213147e-05
2.2934917e-06 -3.3659497e-05 -1.1464506e-05 1.5721233e-05 3.4321103e-05 -6.597155e-06 9.556056e-05 7.089976e-05
1.5928079e-05 6.5506e-05 -2.8531022e-05 -4.9522405e-05 0.00014625087 -1.3924608e-05 8.225551e-06 -1.1276494e-05
9.65255e-05 -6.583477e-05 -2.099696e-05 6.6606503e-06 1.4572935e-05 6.085044e-05 7.080348e-05 4.659183e-06
6.5436466e-06 -1.2046371e-05 -9.041793e-05 -5.5919787e-05 -9.313368e-06 -4.3215543e-05 -3.1797827e-05 4.01005e-05
-1.4357666e-06 -5.0726674e-05 3.319703e-05 -3.432621e-05 -5.886402e-05 -2.0743846e-06 -2.9031185e-05 -8.93154e-06
-7.271037e-05 0.00011853671 1.4488397e-05 -3.4918743e-05 -9.313886e-07 1.4139583e-05 1.63211e-05 1.3352089e-06
-7.4586496e-05 1.7532953e-05 -3.5971178e-05 -0.000112255286 -6.801123e-05 -4.4008182e-05 3.801808e-05 0.00010932163
-1.105982e-05 2.2685072e-05 5.8173904e-05 6.2679996e-05 3.278806e-05 -2.7973785e-05 -1.341498e-06 3.1559433e-05
3.0405608e-05 -6.8176214e-06 0.00012261746 -8.379909e-05 -3.288677e-05 -6.532194e-06 -2.5261292e-05 -7.103052e-05
1.8161965e-05 3.8788014e-05 -8.713392e-05 2.169689e-06 -2.7506778e-05 -1.7522754e-05 7.56496e-06 6.0055627e-05
6.265654e-05 -4.1402168e-07 -5.4698223e-05 -7.031874e-05 1.768705e-05 0.000104633364 -2.070376e-05 -8.500807e-06
1.19041315e-05 7.139001e-05 -3.3671025e-05 1.8992007e-05 -6.038081e-05 3.0468733e-05 -2.8800345e-05 -1.3296997e-05

linears.0.bias f4 [32]
00000000: 00a0 49b8 61ad 4bb8 ad88 8bb8 2cb1 c538
00000010: 6f6f 09b7 4feb 7db8 fa30 4338 a415 a238
00000020: c743 2037 20e4 c538 0ab9 b9b5 4bbd 6338
00000030: 8d80 a138 8b3d 9a38 eba8 e738 5621 da3c
00000040: 74b9 eb37 182c b7b6 75d9 f73c f534 c338
00000050: 8537 b437 c80e b438 f2aa 0c38 8d0b c637
00000060: 0ade 0db9 5936 7438 e16e 163b c0f3 e0b7
00000070: 3d77 5838 be4a 9bb8 b838 2f39 46f2 b3b7
-4.8071146e-05 -4.8560443e-05 -6.653494e-05 9.426693e-05 -8.1917815e-06 -6.053905e-05 4.6537236e-05 7.728793e-05
9.552524e-06 9.4361836e-05 -1.3837428e-06 5.429731e-05 7.701023e-05 7.3547555e-05 0.00011046402 0.026627224
2.8100541e-05 -5.458958e-06 0.030255059 9.3081886e-05 2.1483525e-05 8.585822e-05 3.3537806e-05 2.3608818e-05
-0.00013529524 5.822475e-05 0.0022954273 -2.6816386e-05 5.1609462e-05 -7.404898e-05 0.0001671043 -2.145128e-05

linears.2.weight f4 [2, 32]
00000000: ef80 efb8 9da1 cfb7 135b b038 2187 7639
00000010: a5c7 1c39 97ff 2dbf 83bc 9237 c626 f33e
00000020: 8f20 48bf a77a beb8 1097 0238 f7f5 243f
00000030: 5488 2339 e208 9f37 8a5b 0939 88ce 46bf
00000040: 19b7 52b9 646d 9db6 4169 3e3f ee86 f536
00000050: a63f 9039 7ff0 8037 6109 85b8 c9c1 81bd
00000060: 3025 f4b4 1231 c8b8 1cf0 3abf ec5d 35bf
00000070: 2c1f d2b7 d62a 0239 1fe2 1f38 9982 c6b8
00000080: b10a 1a39 bfac 83b7 5996 cbb7 8135 bbb8
00000090: 086e 4839 4f1d 283f 9f31 18b8 97cf 0abf
000000a0: 179c 3f3f 8756 46b9 6650 99b6 fa75 2ebf
000000b0: 04c4 1db8 7ac9 51b9 5574 38b9 bc57 4b3f
000000c0: 20f7 1338 704e 6838 1ac3 4dbf 07d5 0db9
000000d0: 8409 3cb9 d34d 54b8 959d 57b9 ecf8 b73d
000000e0: 9a37 4db8 1dc8 8b38 659b 3a3f 9bc6 313f
000000f0: abfe 4138 5c9d 49b9 aaf4 8238 3384 8338
-0.00011420424 -2.475158e-05 8.409298e-05 0.00023510728 0.00014951693 -0.67968124 1.7492339e-05 0.4749052
-0.7817468 -9.082752e-05 3.1135103e-05 0.6443781 0.00015595678 1.8958413e-05 0.00013099439 -0.7765889
-0.0002009537 -4.6916994e-06 0.74379355 7.317277e-06 0.00027513242 1.5370779e-05 -6.343681e-05 -0.0633579
-4.54756e-07 -9.545883e-05 -0.7302263 -0.7084644 -2.5048466e-05 0.00012413724 3.8119146e-05 -9.4657014e-05
0.00014690567 -1.5696858e-05 -2.4269497e-05 -8.926821e-05 0.00019114476 0.6566972 -3.6285837e-05 -0.54223007
0.7484755 -0.00018914985 -4.569115e-06 -0.6814877 -3.761427e-05 -0.00020006849 -0.00017590944 0.7943075
3.5277684e-05 5.538616e-05 -0.80375826 -0.00013526167 -0.00017932622 -5.061722e-05 -0.00020562702 0.08983025
-4.892759e-05 6.6653105e-05 0.72893363 0.6944367 4.6251964e-05 -0.00019227475 6.244455e-05 6.271191e-05

linears.2.bias f4 [2]
00000000: 8d52 8538 2815 b5bd
6.3573105e-05 -0.08841926

exp_avg f4 [128, 4, 12]
00000000: acca 3b39 3dfd d039 5df6 b239 fc14 93b9
00000010: d6ab 9d39 93c5 703a 6c05 143a a96d da39
00000020: 1c18 5638 6c5d aa39 5351 2bb9 904a 59b9
00000030: 1a73 01b9 5488 0d39 778f c2b8 1fbf 7c3a
00000040: 961b 2039 3084 afb9 1020 3b38 9d43 f7b9
00000050: 9bd4 ce39 1862 0fb9 45b8 cf39 6d65 8f39
00000060: b398 d938 f058 03b9 107d 35b9 162e 42ba
00000070: d196 cbb9 4e09 4939 232c 2eba 9c25 3f39
00000080: 919c 0739 cdd2 8734 5ab3 9fb9 b7ae 1fb9
00000090: ec23 27b9 ed14 d6b9 dc4f 9eb8 6497 6f38
000000a0: 388b 88b8 d045 4bba 4d4b 6738 b579 05b9
000000b0: f3b2 16ba a79c 45b9 018f 9638 d05c b438
000000c0: 7877 1fba adba 2bba 951b 63b9 4603 62b9
000000d0: c0ef c4b6 193f 2938 dbfc 6339 30ff 1fba
000000e0: 7168 99b7 f777 5738 9b34 8cb9 23d0 8bb9
000000f0: 152c 1a3a 9eaa 7739 2cbe 14ba 84fa a738
00000100: 198f 1a39 a020 30b8 4864 f8b9 f430 36b9
00000110: 91b9 6839 09b2 0739 bf57 1739 6cee af38
00000120: 4c7f d636 7617 2939 9073 3f3a f18d 4838
00000130: d0ec 5fb9 0d5e 5639 1f79 b839 1b32 d239
00000140: e3bf 47b9 0d39 8e37 3ea7 ad37 cf00 9738
00000150: ae98 6737 5014 8739 1518 6138 01c5 b738
00000160: 6f0a 9738 aba5 54b9 0a4d c8b8 c4e4 c839
00000170: cbc9 5cb7 2757 4fb9 24b9 d638 4b51 e838
00000180: 972f be37 47cb 8338 7e1c 22b8 bb63 3db8
00000190: b063 fb39 5b8a e1b9 f0bb 16b9 4929 aa38
000001a0: 29b8 8a39 b894 d539 aca2 cf39 8f31 ab39
000001b0: 67ad 3138 43b8 1fb9 1d4e 2db8 ef9f 0639
000001c0: f69d a0b8 0a9f 7939 a3f8 4f3a ee36 043a
000001d0: 9e3b 8eb9 fb91 5839 5d43 8837 1303 90b9
000001e0: 18a1 5bba 23aa e238 328e e138 fa15 19b9
000001f0: cb9b 96b7 6d22 6039 e640 0eba 5302 53b9
00000200: 3cbe 8f37 015a 4cba 42ce aa39 c391 9437
00000210: c794 4a3a eb13 9cb7 a163 e7b7 ff9d 8338
00000220: 76d2 c9b9 0a66 b5b7 0446 e0b8 0677 c9b9
00000230: 250e 2fb7 95ac 2d39 937a 41ba 78de 91b8
00000240: 3225 9539 eb4a 4639 a37d 4439 114b 9fb9
00000250: d711 3738 7c49 0c39 e8f9 b939 8381 3539
00000260: 342c 7439 e13b 4d39 8ea4 26b9 dbb0 8bba
00000270: e72b 7f38 f910 423a 739f 1e39 a1c4 3b39
00000280: dbb6 5ab9 3f17 05b8 a1db 4238 821b a3b9
00000290: 6a8e 5139 ba91 3639 34cc c9ba 75e5 013a
000002a0: bff0 6039 fcd9 b238 4e53 4839 0dfc a03a
000002b0: 78e8 06b9 65a6 81b8 2cad d2b9 3b67 ab37
000002c0: b39a cab9 638f 1339 4e86 683a 0b38 c738
000002d0: 89c1 12ba 7aff 84ba 1adc 0aba dba1 90ba
000002e0: 6fed 9939 f4c1 28b8 b29d 2f35 3191 f638
000002f0: dd14 42b8 3ed7 05ba 3dbb 543a 7e2a f939
00000300: d7e9 03b8 703d 8eb8 70ed 63b7 12ec 04ba
00000310: 88bc 243a 6afe afb9 893a 253a 8f11 46ba
00000320: 424d 7f38 d11a 5e39 8567 fa39 8174 bc38
00000330: 9257 0bb9 aed0 7d3a b0b5 f239 0e81 11ba
00000340: 2322 43ba 16ff bfb9 aad4 1239 b739 9739
00000350: c494 c3b7 94f4 18b9 a450 82b9 1c1a d4b9
00000360: 61a1 bc38 8b4d c0b9 55b2 02ba 3161 843a
00000370: a84d 9ab9 c492 573a 618b 75ba 8d7d c138
00000380: 8f08 beb8 48ed f536 2212 a638 c048 ba39
00000390: a202 9c38 3be2 0bba 0673 4e38 baab 5a38
000003a0: e018 d739 29a0 fcb8 b36e 2e39 038a c439
000003b0: 498e 5e38 4cab 99b8 6a9b a1b9 d35d 2ab8
000003c0: 7c2f 8739 564d 3f39 a45f 00b9 5cfb 7139
000003d0: 63af 36b9 d799 d7b9 97b6 6137 9eb6 e2b9
000003e0: f42a 0339 6f66 3238 c2f8 2539 cfda e1b9
000003f0: 3031 4638 a4a6 a8b8 af99 6cb8 d3a1 9d37
0.00017909211 0.0003986153 0.0003413436 -0.0002805366 0.000300734 0.0009184714 0.000564656 0.00041661903
5.104403e-05 0.00032494531 -0.00016338126 -0.0002072251 -0.00012345277 0.00013497594 -9.277363e-05 0.00096415164
0.00015269066 -0.00033477088 4.4614135e-05 -0.00047161887 0.00039449785 -0.00013674085 0.00039619408 0.00027350654
0.00010375809 -0.00012526265 -0.00017308095 -0.000740738 -0.00038831544 0.0001917232 -0.000664415 0.0001822919
0.00012932929 2.5299087e-07 -0.0003046047 -0.00015228508 -0.00015939743 -0.00040832852 -7.548902e-05 5.7123034e-05
-6.510917e-05 -0.00077542383 5.514482e-05 -0.00012729208 -0.00057487114 -0.00018845742 7.179194e-05 8.6003565e-05
-0.0006083171 -0.0006550949 -0.00021658682 -0.00021554259 -5.8691658e-06 4.0351504e-05 0.00021742603 -0.00061033946
-1.8287656e-05 5.137172e-05 -0.00026742075 -0.0002666722 0.00058812025 0.00023619315 -0.000567409 8.009843e-05
0.00014739893 -4.1992054e-05 -0.0004737696 -0.00017375109 0.00022194373 0.00012940927 0.0001443317 8.38906e-05
6.3925163e-06 0.00016125836 0.0007303292 4.781591e-05 -0.00021355157 0.00020443667 0.00035185457 0.00040091653
-0.00019049602 1.6954285e-05 2.0701085e-05 7.200392e-05 1.3804221e-05 0.0002576434 5.366661e-05 8.762815e-05
7.2021845e-05 -0.00020279612 -9.551093e-05 0.00038317416 -1.3160005e-05 -0.00019773525 0.000102388 0.00011077764
2.2671926e-05 6.28443e-05 -3.8650345e-05 -4.5153993e-05 0.00047948724 -0.00043018427 -0.00014375127 8.113922e-05
0.0002645862 0.0004073733 0.00039603317 0.00032652586 4.2361582e-05 -0.00015232064 -4.1319163e-05 0.00012838816
-7.658817e-05 0.00023805737 0.0007933473 0.00050435856 -0.0002712877 0.00020653747 1.6243832e-05 -0.0002746811
-0.0008378192 0.0001080821 0.00010755322 -0.00014599404 -1.795394e-05 0.0002137513 -0.0005426541 -0.00020123394
1.7135513e-05 -0.0007795394 0.000325786 1.771085e-05 0.0007727858 -1.8605924e-05 -2.758374e-05 6.275996e-05
-0.00038494513 -2.1624397e-05 -0.00010694194 -0.00038426387 -1.0434106e-05 0.00016562857 -0.00073806307 -6.955577e-05
0.00028447207 0.0001891066 0.0001873882 -0.00030382772 4.3647215e-05 0.00013378815 0.00035472144 0.00017309752
0.0002328612 0.0001957263 -0.00015892295 -0.0010657565 6.0837625e-05 0.0007403042 0.00015127454 0.0001790696
-0.00020858219 -3.173132e-05 4.645775e-05 -0.00031110278 0.00019984847 0.0001741116 -0.001539594 0.0004955151
0.0002145199 8.528304e-05 0.0001910452 0.0012282148 -0.00012865837 -6.182193e-05 -0.00040183344 2.0432859e-05
-0.00038643702 0.00014072428 0.00088701106 9.499498e-05 -0.0005598297 -0.0010146939 -0.000529708 -0.0011034565
0.00029359336 -4.0234954e-05 6.5422057e-07 0.00011757238 -4.6272635e-05 -0.0005105621 0.0008115059 0.0004752464
-3.1450614e-05 -6.782531e-05 -1.3585537e-05 -0.00050705776 0.0006284197 -0.00033568154 0.0006302973 -0.0007555717
6.086869e-05 0.0002118156 0.00047760844 8.986239e-05 -0.00013288695 0.000968228 0.00046293205 -0.00055505417
-0.00074437464 -0.00036620413 0.00014002869 0.00028843965 -2.3315086e-05 -0.00014586962 -0.00024855614 -0.00040455244
8.994598e-05 -0.00036678868 -0.000498568 0.0010099766 -0.00029431027 0.0008223469 -0.00093667774 9.226343e-05
-9.0615e-05 7.329192e-06 7.918874e-05 0.00035530888 7.43915e-05 -0.000533614 4.922135e-05 5.2135183e-05
0.0004102653 -0.000120461285 0.00016635172 0.0003748686 5.3061438e-05 -7.327515e-05 -0.00030824105 -4.061854e-05
0.00025784585 0.0001824399 -0.0001224266 0.0002307719 -0.00017422209 -0.00041122615 1.3453558e-05 -0.0004324214
0.00012509135 4.2533906e-05 0.00015828296 -0.0004307837 4.7252688e-05 -8.0419035e-05 -5.6409914e-05 1.8791214e-05

exp_avg_sq f4 [128, 4, 12]
00000000: f4a6 9836 cc17 3f37 adca 8137 01dd 2e36
00000010: 0443 6f37 84e5 d236 085d 8737 5251 5636
00000020: 468b 1436 e437 af37 327c 6037 9048 7637
00000030: c50b 4a36 5414 7736 2fda e835 f30b 8a37
00000040: b93a 8d35 23ba 8537 a237 2a37 018a b036
00000050: fa35 0c37 a42c a437 5f8f cc36 8c97 d436
00000060: af6e 1637 0a40 ad37 79b4 6d37 168d 9537
00000070: 4618 1237 c5d2 3837 d20e 2137 72ca 3c35
00000080: 36ae 4d37 cbdd dc36 12fc d236 347e 3637
00000090: 3d28 1036 4ad1 9637 3fd5 8f35 6946 7835
000000a0: 395a 3b37 e30a 3437 5107 ab35 6fff ca35
000000b0: 6d57 7737 c5ff 2036 c40d dd36 1b6a 2137
000000c0: 4aca b637 b08e b536 8766 8937 d63a 3d37
000000d0: e994 b537 61f1 0f36 e0a9 6037 19b1 2f37
000000e0: fb96 0635 be27 0c35 3450 2e38 dacd 0437
000000f0: 1493 bb37 fd5d b837 e6fc ce37 4e1c 1937
00000100: 4a7a cd37 7283 6237 f2a1 bc37 00a3 d637
00000110: 5b8a ca37 5490 0237 f553 0838 fd12 4e37
00000120: 65db 0a35 1e80 b236 99f6 9937 a830 5636
00000130: 33a2 bc36 920f 8735 71ef a737 09f7 b437
00000140: de72 ae37 f651 0035 b5f7 7a37 60c5 c637
00000150: 3c79 e333 4b51 7d37 33c9 9836 f95e b037
00000160: d344 9d35 9551 3b37 1897 2a37 3069 3737
00000170: f2bb 8e36 3dd2 0d37 51f6 8936 2f03 7a37
00000180: 8b0a e736 044c c536 753c 8536 d14a 8737
00000190: a712 c936 2096 6d37 405e 4536 d8ad 8c36
000001a0: 622e a437 d96c 2937 64fa cc37 240d 5e36
000001b0: de2b 8136 3749 9f37 124d ee37 711c 0536
000001c0: 3a3f 1237 0547 9337 0169 a537 8d0b ca37
000001d0: 8c20 4837 9f07 9835 84d7 1735 c449 7e37
000001e0: 6f19 e437 ecf7 af37 6cb6 fa37 2a6d 0637
000001f0: 1b51 2c38 f8a5 ca37 d789 7637 38fc 1a37
00000200: 6473 c837 122b 9c37 2bda e337 ea1e ad37
00000210: 9da7 bd37 f5d5 e835 b5d8 d636 5b21 d836
00000220: 61e5 2838 bb95 7a36 df69 df36 d831 e037
00000230: 98d6 9836 5bf3 3237 0313 ba36 0755 6736
00000240: 4c3e 9437 badb b636 01bb c935 f6f7 1337
00000250: 789d a935 ca85 0938 0743 2637 348a 9935
00000260: 83ca 7036 2d20 a736 5395 2837 ba4c 1538
00000270: f5a9 3535 bf3e bb37 4bc2 0638 7b40 0436
00000280: e19f 2437 a9ba 1236 68cd d035 62fd 1c37
00000290: 49e1 2e38 ef4c f637 485f 1838 f39c 1c38
000002a0: a9fd 0438 1651 2d38 1930 2138 6f46 aa37
000002b0: a991 b537 3efe 0138 1903 3e37 95d0 3e37
000002c0: 48aa 2138 06c0 9a37 1ccc ed37 00be 5437
000002d0: e7fd 3c38 1119 3838 fc8f 1338 2059 1c37
000002e0: d26f 8737 685a 8336 bb8d cd33 f925 d435
000002f0: 90be 7b37 e346 2238 97cd 3b38 3566 6c37
00000300: d598 0937 b08e 3036 7de3 5735 dab8 b237
00000310: b073 9937 b61c 7537 dee7 dd37 286c d636
00000320: d3bf 1236 ca3e ac36 311f 6e37 e603 fa35
00000330: 7ba4 9b36 efc2 a036 b0a0 8637 fa60 f736
00000340: 021e 6d37 c80b b737 20e5 1937 cfe1 0d37
00000350: 9326 ff35 79bf 2337 99c4 db36 202c 8337
00000360: a82d 7237 0041 9f37 ecbb 8d37 acca 9037
00000370: 3890 2537 a635 2037 7902 7a37 49d6 7636
00000380: 131b 9b36 5837 fb33 5ddc 2d36 5aaf 6037
00000390: f9a2 cf37 8726 8237 e38c f035 ac89 6036
000003a0: 5d32 3537 c612 5537 bb97 cc36 8f2a 7d37
000003b0: 0b4f 2735 1d70 a736 9bd6 d336 a94a 7b36
000003c0: e576 ca36 0bda b237 afc8 1636 4f3c 7e37
000003d0: 6d4d a436 66d7 df36 9289 2735 0987 da37
000003e0: c82b a735 bad6 5637 4ed9 6136 b4a9 8537
000003f0: 4782 1836 086f c936 3447 cf36 8833 4e36
4.549389e-06 1.1390028e-05 1.5472377e-05 2.6056662e-06 1.4261113e-05 6.285207e-06 1.6136575e-05 3.193582e-06
2.2134786e-06 2.0887652e-05 1.3380357e-05 1.4679637e-05 3.0107196e-06 3.68177e-06 1.7348847e-06 1.6456446e-05
1.0522409e-06 1.5941512e-05 1.0145743e-05 5.2612745e-06 8.357218e-06 1.957111e-05 6.0963644e-06 6.3357347e-06
8.966467e-06 2.0653028e-05 1.416832e-05 1.7827882e-05 8.70793e-06 1.1016328e-05 9.599798e-06 7.0330054e-07
1.2259514e-05 6.582331e-06 6.2878325e-06 1.0877429e-05 2.1481094e-06 1.7978851e-05 1.0716393e-06 9.248966e-07
1.1167075e-05 1.0731371e-05 1.2742622e-06 1.5124514e-06 1.4742703e-05 2.3990735e-06 6.587916e-06 9.621052e-06
2.1790289e-05 5.4108314e-06 1.6379416e-05 1.1278977e-05 2.1646223e-05 2.1449162e-06 1.33909925e-05 1.0472047e-05
5.0138595e-07 5.2211897e-07 4.1559528e-05 7.915742e-06 2.2360626e-05 2.1978276e-05 2.4674879e-05 9.126101e-06
2.449485e-05 1.3501254e-05 2.2486758e-05 2.558669e-05 2.4144703e-05 7.782208e-06 3.2503118e-05 1.2282978e-05
5.172827e-07 5.319728e-06 1.8353852e-05 3.1916807e-06 5.621719e-06 1.0062815e-06 2.001945e-05 2.1572707e-05
2.0795906e-05 4.7802985e-07 1.4958835e-05 2.369535e-05 1.05925636e-07 1.5098903e-05 4.5533757e-06 2.102506e-05
1.1717442e-06 1.1165063e-05 1.0167969e-05 1.0932141e-05 4.2538095e-06 8.453205e-06 4.111593e-06 1.4901902e-05
6.885564e-06 5.879907e-06 3.970747e-06 1.6128093e-05 5.992438e-06 1.41612545e-05 2.9410148e-06 4.192563e-06
1.9571922e-05 1.0098528e-05 2.4435292e-05 3.3088227e-06 3.8496064e-06 1.898837e-05 2.84077e-05 1.98351e-06
8.716999e-06 1.7556837e-05 1.9718429e-05 2.4085655e-05 1.1928507e-05 1.13271e-06 5.65655e-07 1.5156755e-05
2.7191561e-05 2.0977073e-05 2.988727e-05 8.012439e-06 4.108353e-05 2.4157562e-05 1.4694836e-05 9.23784e-06
2.389559e-05 1.8616705e-05 2.7162101e-05 2.0637603e-05 2.2608607e-05 1.7347617e-06 6.402925e-06 6.4411847e-06
4.0267947e-05 3.7340058e-06 6.658243e-06 2.6726091e-05 4.554935e-06 1.0666287e-05 5.545445e-06 3.4471175e-06
1.7671984e-05 5.449602e-06 1.5030092e-06 8.819616e-06 1.2637311e-06 3.2787946e-05 9.909977e-06 1.1439611e-06
3.5880664e-06 4.9807336e-06 1.0048348e-05 3.5595825e-05 6.7675074e-07 2.2321356e-05 3.212904e-05 1.9707065e-06
9.812386e-06 2.1864346e-06 1.5556989e-06 9.35732e-06 4.1694646e-05 2.936131e-05 3.632836e-05 3.733947e-05
3.1707492e-05 4.132193e-05 3.8430186e-05 2.0298377e-05 2.164471e-05 3.099278e-05 1.1325604e-05 1.1373447e-05
3.8543978e-05 1.8447648e-05 2.8347647e-05 1.26804225e-05 4.5059158e-05 4.3892363e-05 3.5181627e-05 9.319076e-06
1.6145324e-05 3.914629e-06 9.571837e-08 1.5806282e-06 1.5005135e-05 3.868983e-05 4.4775745e-05 1.4090493e-05
8.20142e-06 2.6309099e-06 8.042478e-07 2.1305332e-05 1.8292892e-05 1.4609823e-05 2.6453225e-05 6.390288e-06
2.1867352e-06 5.133309e-06 1.4193168e-05 1.8627586e-06 4.638508e-06 4.791065e-06 1.604887e-05 7.372463e-06
1.4133288e-05 2.1820786e-05 9.172858e-06 8.45683e-06 1.9010207e-06 9.760138e-06 6.5495956e-06 1.5636964e-05
1.4434954e-05 1.8984545e-05 1.6896018e-05 1.7260514e-05 9.868345e-06 9.549234e-06 1.4901737e-05 3.6781587e-06
4.622512e-06 1.1698165e-07 2.5907277e-06 1.3392268e-05 2.4752213e-05 1.5515148e-05 1.7922397e-06 3.3458737e-06
1.0800167e-05 1.270016e-05 6.0973375e-06 1.5089884e-05 6.232737e-07 4.9900395e-06 6.3132734e-06 3.7445373e-06
6.0339103e-06 2.1320788e-05 2.2468555e-06 1.51536215e-05 4.8965944e-06 6.6709936e-06 6.241254e-07 2.6050506e-05
1.2455212e-06 1.2805389e-05 3.36541e-06 1.593386e-05 2.2725596e-06 6.0031925e-06 6.17737e-06 3.0726387e-06

exp_avg f4 [128]
00000000: c5ce 2f39 1591 0eb9 9ae0 26b9 a7d7 5db9
00000010: 31e6 3739 76fc 24b9 6a47 ddb8 33e0 01b9
00000020: ac92 3039 df1b 4cb9 3f8b 1cb9 beea 3cb9
00000030: 2094 1139 714c 17b9 3abf 30b9 4ab0 6039
00000040: 73e0 1a39 9c9d 4eb9 c5f4 39b9 409a 78b9
00000050: fe72 7439 a36d 99b9 c94e 7439 35f3 2f39
00000060: 6757 fbb8 1ce9 c838 e272 46b9 d359 6fb9
00000070: 42dc 0939 7f64 66b9 9020 4439 93c6 40b9
00000080: fd01 1639 33f7 6bb9 b707 0d39 68ea 7339
00000090: 13d7 30b9 b4c3 8b39 6ee8 50b9 7a7c 8039
000000a0: 1a5b 8538 37d2 af39 560f 0bb9 2db2 b139
000000b0: 5843 9eb9 71ab 0d39 a1f6 1cb9 ec38 82b9
000000c0: b3c8 c338 c011 4d39 e119 48b8 722e 4cb9
000000d0: b581 9439 5dea 3739 d940 2eb9 4feb f138
000000e0: bbd4 9139 23fc 75b9 68cb 4739 d299 b0b9
000000f0: 15cf 5539 82e2 4db9 d6af 65b9 0e2b 63b9
00000100: 64e0 8939 8001 2039 7e1a 72b9 96b2 6d39
00000110: d374 fb38 4187 3a39 4dbc 3539 18f2 c8b8
00000120: 7e6b 47b9 4918 2739 2530 2cb9 7c85 8439
00000130: f4bf 6eb9 bfa9 26b9 ecb5 2939 bbd5 3839
00000140: f3af d2b8 9285 4fb9 db83 2cb9 0c68 15b9
00000150: 1f0c 44b9 5d5d 5239 312b 21b9 bb3a 74b9
00000160: 0e4e d838 8a73 a039 9ab7 5a39 0cbb 4fb9
00000170: 1628 4c39 8632 55b8 0e4e 3a39 c358 7239
00000180: 8445 fc38 503f f1b8 266b 8139 e634 e739
00000190: 3a3d c739 4b8a 0eb9 20a2 2db9 6d61 3639
000001a0: 3368 2239 a707 bbb9 2755 92b9 5ed9 0739
000001b0: 1ebd 5c39 9130 5339 3095 4339 9271 b3b9
000001c0: d55a a539 ef3c d839 d8fe 1939 2b3b 8db9
000001d0: ad02 d538 8410 2639 fc54 2fb9 dde2 8ab9
000001e0: 6014 3a39 c2ce 31b9 5fbe 4639 0119 4b39
000001f0: a0a0 82b9 0117 4e39 5efb 5ab9 1fee af38
0.00016766328 -0.00013596223 -0.00015914664 -0.00021156539 0.00017537993 -0.00015734308 -0.00010551403 -0.0001238592
0.00016839308 -0.00019465339 -0.00014929193 -0.00018016525 0.00013883458 -0.00014428959 -0.00016855905 0.00021427977
0.00014770198 -0.00019704405 -0.00017734159 -0.00023708586 0.00023312491 -0.0002926412 0.00023299003 0.00016779902
-0.000119848926 9.580163e-05 -0.00018925549 -0.00022826278 0.0001314739 -0.00021971947 0.00018704147 -0.00018384522
0.00014305855 -0.00022503435 0.00013449682 0.00023261609 -0.0001686479 0.00026657956 -0.00019923013 0.00024506805
6.358903e-05 0.00033535223 -0.00013261786 0.00033892822 -0.00030186283 0.00013510675 -0.00014969196 -0.00024837942
9.335708e-05 0.00019556936 -4.7707817e-05 -0.00019472258 0.000283254 0.00017539547 -0.00016618091 0.00011535605
0.00027815052 -0.00023458949 0.00019053894 -0.0003368394 0.00020390407 -0.00019634704 -0.00021904646 -0.00021664446
0.0002629786 0.00015259348 -0.00023088788 0.0002266861 0.00011990373 0.00017788728 0.00017331653 -9.581837e-05
-0.00019018163 0.00015935408 -0.00016421133 0.00025276456 -0.00022768957 -0.00015894229 0.00016184867 0.00017627228
-0.000100463534 -0.00019790817 -0.00016452318 -0.00014248508 -0.00018696532 0.00020061941 -0.00015370247 -0.00023291532
0.000103142214 0.0003060366 0.00020858497 -0.00019810739 0.00019469889 -5.083021e-05 0.0001776742 0.00023111985
0.00012029245 -0.000115035684 0.0002468463 0.00044099166 0.00038001855 -0.00013593693 -0.00016558962 0.00017393166
0.00015488341 -0.0003567312 -0.00027910733 0.00012955579 0.00021051287 0.0002014062 0.00018652226 -0.00034226157
0.00031538928 0.0004124413 0.00014686154 -0.000269377 0.0001015713 0.00015837146 -0.0001672096 -0.00026490437
0.00017745933 -0.00016957059 0.0001895367 0.00019368903 -0.00024915207 0.0001965426 -0.00020883742 8.389004e-05

exp_avg_sq f4 [128]
00000000: c345 e738 a514 1f39 9462 3039 ff8a 6739
00000010: 80a6 fb38 3a4f 3e39 9620 a838 275d 8838
00000020: 4d8c f038 544e 4939 f47c 7739 1472 5d39
00000030: 4fe2 7838 82dd 3039 dc12 0c39 ca3d 1239
00000040: 74e9 e138 447a 3f39 a771 1e39 331f 9a39
00000050: 1653 a939 31a7 e839 b840 8739 f2b9 f738
00000060: 370e ea38 9d33 ba38 7dd1 4e39 d936 8839
00000070: 4303 c638 d0ef 2739 8a82 5a39 f63c 6e39
00000080: 33d6 cc38 5eab a639 74fb 2039 9cb8 8439
00000090: d05b f838 09a9 e639 06a5 2639 cff3 bb39
000000a0: 4b46 9738 3e3c 5f3a 7153 b838 d2d4 013a
000000b0: c510 ce39 df4e b938 8364 0c39 f0cd 9d39
000000c0: 9b4b 0b38 8fd9 4239 2d36 c637 bf0f 3c39
000000d0: dfa8 d539 7bdf 8038 4deb 1439 894b 6e38
000000e0: 7514 b239 9a7b 8f39 66d0 b238 d541 e439
000000f0: aa95 0b39 3f8c ad39 1180 8939 2b26 8e39
00000100: 3a64 9639 bed1 0a39 e72a a639 c9e4 5b39
00000110: 45d8 8238 9240 a138 4b2a e838 73a7 7238
00000120: de9a 6e39 260e 9538 9421 3239 ca99 9739
00000130: 273e 4d39 ac4a 0739 198b 5d39 cc25 0839
00000140: 452e ad38 5011 1a39 9ab5 1539 06c3 0739
00000150: ac3a 8e39 cb4f 6839 6d42 0539 0287 7339
00000160: a0f9 9d38 1890 003a d9ae 5939 b193 1439
00000170: e099 6139 3671 2e38 72e8 3139 44dc ac39
00000180: bb8a 1f39 7b21 9a38 b924 4639 a33e 983a
00000190: 40b1 623a 9b3d 0139 7d61 3239 6f8d 0c39
000001a0: 2bd5 b938 8645 3b3a 12b9 ea39 13bc a638
000001b0: 9337 2139 713d 6e39 7b2d 4e39 9361 043a
000001c0: a905 c739 3ab6 6d3a cc7f 4b38 6cb5 9339
000001d0: 184f 2238 f57b 2a39 07be 0239 5f24 de39
000001e0: a60e 4639 71fd ff38 88fe 2639 dab2 a439
000001f0: 8f92 9c39 27d6 0f39 3f58 3039 28a0 ea37
0.000110279325 0.00015171112 0.00016821391 0.00022081657 0.00011999626 0.00018149326 8.016934e-05 6.502336e-05
0.00011470225 0.00019198033 0.00023602304 0.000211187 5.9338574e-05 0.00016867186 0.00013358466 0.00013946663
0.0001077232 0.00018260727 0.00015110393 0.00029396414 0.00032296096 0.00044375056 0.00025797426 0.00011812513
0.00011160637 8.878785e-05 0.00019723731 0.00025980806 9.441983e-05 0.00016015698 0.0002083873 0.00022720158
9.767376e-05 0.00031789666 0.00015352463 0.00025314547 0.00011842663 0.0004399496 0.0001589247 0.0003584907
7.213334e-05 0.00085157517 8.789346e-05 0.0004952672 0.00039303876 8.836178e-05 0.00013388884 0.0003009881
3.3210596e-05 0.00018582329 2.3628667e-05 0.00017934943 0.00040752345 6.145142e-05 0.00014202036 5.681397e-05
0.00033966047 0.00027367176 8.526519e-05 0.00043536598 0.00013311827 0.00033101623 0.00026226093 0.00027112788
0.00028684904 0.0001323884 0.00031693952 0.00020970697 6.2391664e-05 7.6891054e-05 0.000110705 5.7853245e-05
0.00022755141 7.107509e-05 0.00016987912 0.00028915546 0.00019573477 0.0001290242 0.0002112802 0.00012984051
8.257901e-05 0.00014693034 0.00014277399 0.00012947255 0.00027128065 0.0002215497 0.00012708614 0.0002322458
7.53284e-05 0.0004904284 0.00020759868 0.00014169399 0.00021514995 4.159027e-05 0.00016966628 0.00032970507
0.00015215103 7.3495285e-05 0.00018896432 0.0011615347 0.0008647628 0.00012325349 0.0001701172 0.00013404129
8.861193e-05 0.00071438437 0.00044769846 7.9505284e-05 0.0001537486 0.00022720337 0.00019662634 0.000504994
0.00037960455 0.00090679864 4.851799e-05 0.00028173195 3.869747e-05 0.00016258641 0.00012468557 0.00042370238
0.00018888208 0.00012206555 0.00015925814 0.00031413772 0.00029863833 0.0001371732 0.00016817542 2.7969552e-05

exp_avg f4 [32, 128]
00000000: a02a 28b8 6b04 fbb8 4c6e 3ab8 f5db 8138
00000010: ece5 1938 9457 d9b8 f71b d937 fd7c e436
00000020: 1db5 beb7 a987 beb7 cc7e 04b9 dfc4 4439
00000030: 96ee 0e38 dcf9 8338 c9d0 59b9 2069 24b9
00000040: b931 4639 5805 2c39 e6fe 2d37 ea12 cab8
00000050: e863 84b8 2702 dab7 c5a4 8037 ddaf fa38
00000060: 31bc e7b7 cec7 0bb9 525e b638 17ae 6fb8
00000070: 16a5 5939 c6f0 21b9 2ac8 f2b8 c65c 4438
00000080: f97e b637 f30e 2e38 d923 2536 1619 b038
00000090: 7a1a 8438 dcf0 4c39 015c c338 098a f138
000000a0: e662 6f37 a54c cf37 c8fe 0a38 d25b 84b8
000000b0: 251a 8438 e239 2439 d8e5 db38 f37b e236
000000c0: a377 b636 68c9 98b8 dfb6 fa38 0e68 24b9
000000d0: 0682 72b8 29ae 93b8 ce00 c1b8 48b1 c1b8
000000e0: c8a7 5939 67dd f338 440b 0a38 b2a7 c338
000000f0: 341c b638 2e61 24b9 ed68 8db7 1bce 98b8
00000100: d1e7 fcb7 8e5a 77b8 1144 b7b7 2396 50b8
00000110: 13af 5939 346f 2cb8 e48b 2cb8 88b4 6fb8
00000120: ecf5 2b38 8a8a 7237 4a85 57b8 32d5 1139
00000130: 4b4a b0b7 832a 17b9 b744 ebb7 0e2a 5137
00000140: 4d40 f237 84db e6b8 0929 e538 cafd 50b8
00000150: 0ef5 87b8 340b 8438 0671 27b7 ceaf bcb8
00000160: bf62 fd37 5e26 8438 b1f0 db38 adc4 f936
00000170: f900 a8b8 b9a5 5939 b6be 90b8 0a46 2439
00000180: 0a2e 0539 a75d 0eb6 1c78 4138 68fe 4038
00000190: 4951 2439 161a 00b9 e051 dcb8 4d08 04b9
000001a0: 230b fbb8 bdd3 17b9 4b4f 2bb9 349c 2cb8
000001b0: 7e2d 0539 d597 b7b7 c3ab 5939 a393 0f39
000001c0: 84d5 17b9 d862 2cb8 a143 8637 934e bbb6
000001d0: db35 15b9 0f00 f537 14af a3b8 ae72 60b7
000001e0: 64c5 6ab8 6cc6 05b8 7609 ed38 a5f3 0839
000001f0: cda4 a837 9088 8db8 1936 8237 ef29 03b9
00000200: 3678 3eb8 fd05 9db8 f024 5039 f361 8139
00000210: 0c7b 73b8 884f f1b8 9b7e 9039 d558 ff38
00000220: c854 24b9 5dae 7ab3 977c 1b39 72d5 4e39
00000230: 1850 2c38 2a05 b9b6 1ea9 4238 3973 37b9
00000240: 98c1 5939 ba42 0039 ad08 4db9 df3c b638
00000250: 42b0 b6b7 5644 2c38 bba9 33b9 16ec b637
00000260: fd19 4538 6815 dcb8 34f1 92b8 2cd9 5ab8
00000270: 59dd 2539 fbbf 5939 1215 5cb8 c5d4 6939
00000280: 2af7 30b8 e85c 2439 b106 9038 eb19 dcb8
00000290: 826f 89b7 8b77 37b9 2a45 dab8 3e4c 39b9
000002a0: 7ba7 b238 98d1 40b9 8210 d537 622f ae37
000002b0: 9d13 9f36 088d adb7 fc7d 9338 b161 c2b8
000002c0: c869 9bb7 d6c1 5939 9c27 7fb4 013b 8438
000002d0: 42f4 eb37 f457 61b8 b602 2b39 f095 c4b8
000002e0: 6bc1 17b9 4846 1939 4e69 6a38 c5bd 5939
000002f0: 982e 84b8 4135 84b8 87d8 fab8 e6c0 85b8
00000300: 3ebb ff38 f8f7 3b39 ac38 2cb8 f61b 0039
00000310: 5a4a 2c38 3f6e 1539 f7a9 af38 ef9e b638
00000320: f2ff 8639 6e07 9338 e33b 05b9 6162 9f38
00000330: 0587 d438 633c 05b9 e0ac 06b9 b370 bb37
00000340: 12b1 aeb8 d420 88b8 64cd b6b7 0442 1639
00000350: ded4 2537 df94 deb8 f298 35b9 4e34 b6b8
00000360: 3807 b0b8 2499 0f39 5331 b6b8 f573 88b8
00000370: f677 0fb9 3340 b0b6 ea0f 09b8 a60f e8b6
00000380: e39a afb8 9e7c c3b8 2c48 d938 ffb4 3d39
00000390: b83b 2438 f487 c038 3c3c 2c38 ac22 8138
000003a0: 267f a3b8 249a dfb8 7236 21b8 1d23 ba36
000003b0: 4cf2 f035 a714 8238 96b4 26b8 d030 2cb8
000003c0: 782e 2cb8 5051 39b8 96d0 8538 d0e9 2d38
000003d0: 39ac 06b9 057b 9bb7 be05 fe37 7528 dc38
000003e0: 253a 05b9 2b38 b6b8 9b34 0a38 bf98 aa38
000003f0: 5d66 6a39 cb55 24b9 105c 2439 6c92 1139
-4.009402e-05 -0.000119694356 -4.4448578e-05 6.1921695e-05 3.6692174e-05 -0.00010363679 2.5881438e-05 6.80948e-06
-2.2734102e-05 -2.2712937e-05 -0.00012635736 0.00018765357 3.407764e-05 6.293107e-05 -0.00020772511 -0.00015679421
0.00018901275 0.00016405189 1.0370952e-05 -9.6356336e-05 -6.3128595e-05 -2.5988627e-05 1.5335516e-05 0.00011953686
-2.762498e-05 -0.00013330506 8.696005e-05 -5.7144174e-05 0.00020756232 -0.00015443852 -0.00011576743 4.6816444e-05
2.1755217e-05 4.1498755e-05 2.4607782e-06 8.3970066e-05 6.299182e-05 0.00019544683 9.315462e-05 0.000115174866
1.4268537e-05 2.4712013e-05 3.3139047e-05 -6.311353e-05 6.29912e-05 0.00015661822 0.000104855455 6.7497544e-06
5.43795e-06 -7.28544e-05 0.00011954991 -0.00015679022 -5.781839e-05 -7.041946e-05 -9.203107e-05 -9.235978e-05
0.00020757236 0.00011628382 3.2912256e-05 9.32956e-05 8.6836895e-05 -0.00015676461 -1.685737e-05 -7.286315e-05
-3.0148689e-05 -5.8973725e-05 -2.1846996e-05 -4.973089e-05 0.00020759953 -4.111156e-05 -4.113828e-05 -5.7150173e-05
4.099861e-05 1.445658e-05 -5.138413e-05 0.00013907699 -2.101543e-05 -0.00014416319 -2.804618e-05 1.2467162e-05
2.887859e-05 -0.000110081426 0.00010927214 -4.9827424e-05 -6.4829466e-05 6.296337e-05 -9.980291e-06 -8.997285e-05
3.0205932e-05 6.301397e-05 0.00010487566 7.4436743e-06 -8.0110454e-05 0.00020756469 -6.901978e-05 0.0001566635
0.0001270102 -2.1214162e-06 4.6126646e-05 4.60133e-05 0.0001567054 -0.00012216749 -0.00010505668 -0.00012591593
-0.00011970687 -0.00014479361 -0.0001633737 -4.115347e-05 0.00012700816 -2.1886002e-05 0.00020758719 0.00013692542
-0.00014480023 -4.110005e-05 1.6005537e-05 -5.5821815e-06 -0.0001422981 2.9206303e-05 -7.8050565e-05 -1.3378141e-05
-5.5973782e-05 -3.1894466e-05 0.00011302803 0.00013060735 2.0103902e-05 -6.748841e-05 1.5522399e-05 -0.00012508755
-4.5411485e-05 -7.487459e-05 0.00019850186 0.00024677775 -5.805031e-05 -0.00011506589 0.0002756015 0.00012175894
-0.00015671842 -5.8366243e-08 0.00014828365 0.00019725205 4.108259e-05 -5.514031e-06 4.6410707e-05 -0.00017495164
0.00020766852 0.00012231889 -0.00019553555 8.6897744e-05 -2.1778167e-05 4.107164e-05 -0.00017134 2.1806027e-05
4.6992664e-05 -0.00010494405 -7.00675e-05 -5.2177507e-05 0.00015818085 0.00020766251 -5.247171e-05 0.00022299874
-4.219186e-05 0.00015674869 6.8677014e-05 -0.00010495245 -1.6383598e-05 -0.00017496773 -0.00010407933 -0.00017671377
8.518897e-05 -0.00018388627 2.5399266e-05 2.076448e-05 4.7408525e-06 -2.068888e-05 7.032973e-05 -9.268837e-05
-1.8526698e-05 0.00020766942 -2.3763135e-07 6.305241e-05 2.8127924e-05 -5.3726093e-05 0.0001630884 -9.373936e-05
-0.00014472536 0.00014617399 5.588802e-05 0.00020765427 -6.302929e-05 -6.30417e-05 -0.0001196126 -6.377864e-05
0.00012194224 0.00017926085 -4.1060775e-05 0.00012217448 4.107724e-05 0.00014250817 8.376309e-05 8.70804e-05
0.00025749166 7.01089e-05 -0.00012706178 7.600035e-05 0.00010134097 -0.00012706364 -0.00012843637 2.2344617e-05
-8.3299485e-05 -6.4911e-05 -2.1791733e-05 0.00014329707 9.884328e-06 -0.00010613514 -0.00017318482 -8.688179e-05
-8.3936786e-05 0.00013694592 -8.6876236e-05 -6.506584e-05 -0.00013682232 -5.2526825e-06 -3.2678166e-05 -6.9159605e-06
-8.3735e-05 -9.321536e-05 0.000103608094 0.00018091871 3.9156264e-05 9.180597e-05 4.1064093e-05 6.1576575e-05
-7.796129e-05 -0.000106621796 -3.8436097e-05 5.5473197e-06 1.7951911e-06 6.20273e-05 -3.9745668e-05 -4.1053456e-05
-4.1051273e-05 -4.4183165e-05 6.380786e-05 4.146417e-05 -0.00012843394 -1.8534725e-05 3.0281833e-05 0.00010497953
-0.00012705529 -8.6888984e-05 3.2950757e-05 8.134683e-05 0.00022354112 -0.00015672219 0.00015674555 0.00013882824
