our-vTR/10_fold_lightning_logs/dataset1/fold_2/version_3/checkpoints/epoch=13-step=489_fold2.ckpt (torch, 132433 bytes, 18 tensors)

conv1d.weight f4 [128, 4, 12]
00000000: 7c8a 1cbe e0a8 473e ef8d 963d 4fee 3fbe
00000010: 1a6f 233e c9c8 debb 8ce4 283d 5570 48be
00000020: b346 f1bd 8975 5e3e 4041 343d eb48 adbc
00000030: 8e4a 003e 4570 19be ea75 a03d ec7b edbd
00000040: c236 4bbe 11fb 49bd be8d 2f3e 3eb3 e23d
00000050: 5905 04be a478 873d ef3a 0abe 6b67 91bd
00000060: 851f 48be 7a48 933d 1b08 24bd 618e 3e3e
00000070: edaa 353e 7a99 23be 4a1d 573d 8e34 1dbd
00000080: 6bd6 e43d 6a52 fcbd ebbe 963c 7d88 0ebe
00000090: f11c b63d 522e ad3d c8b8 23be 45f9 43be
000000a0: 2bb1 aebd c967 99bd 112f 933d d488 22be
000000b0: 9179 413e 70f0 13be 3452 47bd 9103 2e3e
000000c0: 6944 953d c5b7 66bd eacf c43d 8d86 023c
000000d0: 22de ed3d 59e8 1ebe 66ff c9bd f0dd b43b
000000e0: 6612 7abd 9b08 89be e8ec 1b3c 8538 82bd
000000f0: 3f83 4a3e 54e9 c83d 5ef4 43bd 81e7 b0bd
00000100: 2d25 e53d a3f0 3c3e 99db 08be eea8 e83c
00000110: aeb3 3d3e 200c ecbd f21f 0d3d e263 95bd
00000120: 85f0 7cbe d114 cabc 0473 06bd c418 8fbe
00000130: fb21 11be 51b5 0fbe 93f0 ff3c 0e49 9e3d
00000140: 7e67 123e 50d8 8ebe 16e0 c2bd 7702 983d
00000150: efa0 19be 254f 8dbd 767e 83be 79dd 5c3e
00000160: 48e0 57be 51ab 213d 029e 37be 152a 593d
00000170: a57a d9bc 018c e53d 3342 f5bd 841f 86ba
00000180: acd4 87bc eb28 01be e555 0f3d 3405 573e
00000190: ab58 2dbd f7c8 53bd e048 00be 3be7 0fbe
000001a0: 035f 0f3d bd04 b73d d52e be3d 1f43 26be
000001b0: 4b43 0dbe bb8e 693c 3302 d83d b5ee 74be
000001c0: b4f7 d9bd b988 6fbd 2d19 813e 13f3 b13c
000001d0: a543 3dbd 8795 27be 9d38 72be 3bc2 4d3d
000001e0: 0911 be3d 03d6 bb3d 369c d23d 76ec 10be
000001f0: 2758 fa3d 2835 fc3d fa2f fdbc 8b7a c9bd
00000200: 7531 0a3d da43 a73b da74 c83d 4d75 193e
00000210: de39 e53d 5788 7ebe 5ef2 083c 3253 25be
00000220: bb27 033e 1373 afbe d7e7 dabd 0c30 c63d
00000230: 66c5 99bd 781e a7bd 81b8 c4bd b3cc 43be
00000240: 1550 5a3d fd4b b7bd 4c24 41be 6199 97bd
00000250: 743d 93be b565 263e 4ced d1bd e191 053c
00000260: fc61 fcbd a0a2 1abe db72 9bbd c7e4 393e
00000270: eba9 2fbe 89e9 f7bb fb30 803d 2bd8 60bd
00000280: 997f 4abd 9451 29be cb16 dbbd 6705 5bba
00000290: d351 243e e589 bc3d e1b7 ae3c 34b5 a0bc
000002a0: 55ba 6e3c 61ef d73d bb6e 573d c9a3 673e
000002b0: 5234 af3d b194 ee3c 7532 363e 038c 603e
000002c0: 9c62 ea3d 63c2 c03c b7a3 d23c c472 0fbe
000002d0: 14aa 253e a4a0 303e 3a9d db3d 054f c93c
000002e0: 320f e2bc 4fd2 2ebe 9cbb 6fbe 5ecb 81be
000002f0: 27d0 16be 8357 4d3e b45c 1c3e 2dae 23bb
00000300: 24dd e13c aed5 8bbd f06e fbbd ec2b 003e
00000310: 067e 0b3e ab78 8a3c 58ce bd3d eafa 89bd
00000320: 20da e1bd 480d 66bd 4684 203e dfa7 d4bd
00000330: a6bf e7bc e60c 56bd 482b 193e c4dc dcbd
00000340: 9c71 f03d 4740 87bd c7b3 e2bd 8ccb 11bd
00000350: 4231 11be 66f4 453e 2c5a f8bc 9447 583d
00000360: dde7 f93b 9674 2a3e a205 fe3d 16da bf3d
00000370: 4f80 dbbc e846 ebbd 9a30 ebbd 3cef 65be
00000380: ea3a 8d3d 1def babd 97a3 f13b 14d6 0e3d
00000390: bb3f 0a3e f646 4dbc bf94 80bd dc16 d1bd
000003a0: b38b f83d c525 6f3d 66c2 52bd 3db2 c73d
000003b0: 15aa a4bd ef3a aa3c bcd7 f73d 47e0 94bd
000003c0: fc29 bcbb dd75 c63c 3774 31be 6fe5 59be
000003d0: 0ac4 31be ebda c1bd 2167 1bbe c5a1 d53d
000003e0: 37e0 39be 1a6f 98bd ea30 bdbd aa16 ed39
000003f0: 87bf 00be b3af 04be afa8 8b3b a7d9 5ebe
-0.15287203 0.19498014 0.073512904 -0.18743251 0.1596035 -0.006798838 0.041233584 -0.19574101
-0.11781063 0.21724524 0.04400754 -0.021152934 0.1252844 -0.14984234 0.0783499 -0.11595902
-0.19845107 -0.0493117 0.17143914 0.11069344 -0.12892665 0.06614807 -0.13499044 -0.070998035
-0.19543274 0.07191558 -0.040046792 0.18609 0.17740984 -0.15976515 0.052518167 -0.0383802
0.111737095 -0.12320407 0.018401584 -0.13919254 0.08892239 0.084561005 -0.15988457 -0.19138058
-0.08529886 -0.074904986 0.071867116 -0.15872508 0.1889403 -0.14447188 -0.04866238 0.16993548
0.07288439 -0.0563276 0.09609969 0.00796665 0.11614634 -0.15518321 -0.098631665 0.005519621
-0.061052702 -0.26764378 0.009516932 -0.063584365 0.19776629 0.09810129 -0.04784047 -0.08637906
0.11188731 0.1845117 -0.1336502 0.028400864 0.18525574 -0.1152575 0.034454294 -0.07294442
-0.24701126 -0.02466813 -0.03282453 -0.27948582 -0.14173119 -0.1403401 0.031242644 0.07728778
0.14297292 -0.27899408 -0.09515397 0.07422345 -0.15002798 -0.06899861 -0.2568242 0.2156886
-0.2108165 0.03947002 -0.17931369 0.05301865 -0.02654774 0.11208344 -0.11975517 -0.0010232781
-0.016580902 -0.12613265 0.034994025 0.20998079 -0.04232089 -0.051705327 -0.125278 -0.14053051
0.03500272 0.08936451 0.09286276 -0.16236542 -0.13795201 0.014255221 0.105472945 -0.23919185
-0.10642949 -0.05848 0.2521452 0.021722352 -0.04620709 -0.16365634 -0.23654409 0.05023406
0.09280593 0.09171679 0.10283701 -0.14152703 0.12223845 0.12314826 -0.030906666 -0.09837826
0.033738572 0.005104524 0.09787913 0.14986153 0.11192678 -0.24856697 0.008358566 -0.16145018
0.12808125 -0.34267482 -0.10688751 0.09677133 -0.07508354 -0.08160108 -0.09605504 -0.19121055
0.05329903 -0.089500405 -0.18861502 -0.074023016 -0.28757823 0.16249736 -0.10250339 0.008152456
-0.123233765 -0.15101099 -0.07590266 0.18153678 -0.17154662 -0.0075656814 0.06259342 -0.054893654
-0.049438093 -0.16535026 -0.10697707 -0.0008354992 0.16046838 0.09205989 0.021327915 -0.019617654
0.014570792 0.10543705 0.052595835 0.22621073 0.08554901 0.029123636 0.17792685 0.2192841
0.114445895 0.02353019 0.025712831 -0.14008623 0.16178161 0.1724878 0.10723348 0.024573812
-0.027595136 -0.17072414 -0.23411411 -0.2535047 -0.14727841 0.20052914 0.15269738 -0.0024975643
0.027571268 -0.068278655 -0.12277019 0.12516755 0.13622293 0.016903242 0.092678726 -0.06737311
-0.11027932 -0.05616501 0.15675458 -0.10383581 -0.028289627 -0.052258395 0.14957917 -0.10784295
0.11740419 -0.06604057 -0.11069446 -0.035594508 -0.14178947 0.19331512 -0.030316435 0.052802637
0.007626517 0.16646037 0.12403418 0.093677685 -0.02679458 -0.11488134 -0.114838794 -0.22454542
0.068960026 -0.091276385 0.0073742378 0.03487213 0.13500874 -0.012529125 -0.06278371 -0.10209438
0.121360205 0.05838563 -0.051454924 0.09750793 -0.08040253 0.020780055 0.12101695 -0.0726934
-0.0057423096 0.024226123 -0.17329489 -0.21278928 -0.17359939 -0.094655834 -0.1517606 0.10431246
-0.18151937 -0.07443066 -0.09237845 0.0004522105 -0.12573062 -0.12957649 0.004262052 -0.21762715

conv1d.bias f4 [128]
00000000: b99d 983c 9da0 59bd 2bdb c6bd 3982 06bd
00000010: e969 fb3c e2ae ca3d 299a 1ebe c2ff 093e
00000020: 3056 713d a9e4 2c3d 777a 633b eee7 cebc
00000030: eb5e 3f3d c68e 0e3e 0add bb3c f77f db3d
00000040: c9ea c33c 7330 49bc 4526 e33d 801e e63d
00000050: 4dff f63c d611 35bd 62fb b73d 61c6 ae3c
00000060: 9b32 afbd d8eb 98bd 18b3 253e ecf4 f0bc
00000070: 3915 f03c dca6 f3bc 8a1f 19be 94fc 753d
00000080: 4c4c 5abd 3676 443d c0a8 9eba 369b cf3c
00000090: b5dc 46bc bb19 60bd 3847 b73d 3567 02be
000000a0: b4cb a03d 4d75 87bd 3b30 523d 0184 b6bd
000000b0: aeab 9dbd 8fa1 623c 932f c13d cf1a 78bd
000000c0: 2ada 513c dffe 2bbe 174c 3d3c dc4d c43d
000000d0: 989a 4b3d 4968 be3d 2799 5f3c ae2d 9cbc
000000e0: ce88 cb3d 1d48 1cbe 63e6 cebc a513 22be
000000f0: 8c64 953d 659f a2bd ca96 833a 94ff 1e3e
00000100: 108d ec3d d268 c7bc 6d39 98bc 6017 b4bd
00000110: 6e12 c7bd 8776 ddbd 2b48 4fbd d2c3 a5bb
00000120: 0a7c 0abd a438 a8ba 5708 843d 5def ae3d
00000130: 79a2 b33d 9678 9fbd 2821 8f3d f435 ee3d
00000140: 03c0 a1bd 027d 133e 434b 663c bec2 2ebd
00000150: 4405 d6bd 604d 803d c3e3 79bd bd2d 37be
00000160: 8f1a 24be e609 70bd 6bcf b0bc 6d2a 363b
00000170: 676c 7a3d 351c dbbc e28e aebd 549f c9bd
00000180: bbc5 26be 209c 1d3d 56f4 18be 2398 c0bd
00000190: 284f 2dbe 67b5 733d 2e87 cfbd 6fab dcbc
000001a0: 060c d1bb 884c 4c3d a612 64bd f635 e3bd
000001b0: 0337 453d 89c7 c1bd 7312 e23d 7556 01be
000001c0: 52e1 31bc a20d cfbd 7692 f63c 58b3 95bc
000001d0: 7456 cc3c b08e 5ebd e3c0 963c 65ec ccbd
000001e0: fd77 c9bd 0a6e f9bd 5bba c4bd 5872 18be
000001f0: 9f3d 123e 7f96 323d 8e01 0f3e 28ec b93c
0.018629896 -0.05313169 -0.09709772 -0.032839034 0.03069015 0.098966375 -0.15488495 0.1347647
0.058920085 0.042210255 0.0034710446 -0.025257077 0.04672138 0.13921651 0.022932548 0.10717767
0.023915665 -0.012279618 0.11091284 0.11236286 0.030151034 -0.044206463 0.08983494 0.021334829
-0.08554574 -0.074668586 0.161816 -0.029413663 0.029306995 -0.02974265 -0.14953437 0.06005533
-0.05329542 0.047964297 -0.0012104735 0.025342565 -0.012137582 -0.05471204 0.08949131 -0.12734683
0.07851353 -0.0661417 0.051315527 -0.089118965 -0.07698761 0.013832464 0.09432902 -0.06057244
0.012808362 -0.16796444 0.011553786 0.09585163 0.04970798 0.092972346 0.013647354 -0.01906475
0.09938203 -0.15261884 -0.025256341 -0.15827806 0.072945684 -0.07940558 0.0010039445 0.15527183
0.11550343 -0.024341974 -0.01858207 -0.08793521 -0.09720312 -0.10813623 -0.050605934 -0.005058744
-0.0338097 -0.0012834263 0.06446903 0.08541749 0.087712236 -0.07786672 0.06988746 0.116313845
-0.078979515 0.14403155 0.01405603 -0.04266619 -0.10450223 0.06264758 -0.061008226 -0.17888542
-0.16025756 -0.05860319 -0.02158328 0.0027796284 0.061138537 -0.026746849 -0.085233465 -0.098448426
-0.16286366 0.03847897 -0.14936957 -0.09404018 -0.16924727 0.05949917 -0.10133205 -0.026937215
-0.006379607 0.049877673 -0.055681847 -0.110942766 0.048148166 -0.094618864 0.11038675 -0.12630637
-0.010856943 -0.10110022 0.030099135 -0.018273994 0.024943568 -0.054335296 0.018402522 -0.10006026
-0.09837339 -0.121791914 -0.09605857 -0.14887369 0.14281319 0.043600556 0.13965437 0.022695616

linears.0.weight f4 [32, 128]
00000000: 4ebf fcbc 3e32 c0bc 9a07 a5bc fdab ddbc
00000010: 62cf 563b dcdd adbc fbe5 a53c e8f8 aabb
00000020: adea 7c3d b7cb 72bc a4e0 08bd c665 b7bc
00000030: 558e 883d 1412 87bd 4f0b e4bc 20fb 7f3d
00000040: 63be 443d d664 93bc 5da5 a3bc 2485 a5bc
00000050: 0178 653d fa39 adbc dfd1 163d 7640 b53c
00000060: 8f47 4eba b941 3b39 8826 1fbd 040e b4bc
00000070: 5447 a53b 8004 9eba e66a c33c 5340 87bc
00000080: 01c6 88bc 2b99 6abd b3de 2a3d 439e 203d
00000090: 38d5 0cbb 6061 b93d 9fd4 d0bc c6cc 403d
000000a0: ed43 723d 1db8 803d 6c5f 8a3d 30d7 0a3d
000000b0: 03d2 d13c aef4 723c e99e 76bc 971f eeb9
000000c0: 72fc 1b3b 6195 9e3c d270 0cbb d42a 15bc
000000d0: 1380 8f3d 8c3d 1b3d b6e2 fabb e4ff ad3b
000000e0: 4f91 00bd b2fc 183d 9b43 0c3c 9c79 c43c
000000f0: 538a 9dbc d042 553e 95ed ae3b 259b 2cbd
00000100: 00c4 a3bc 94a8 123d 3912 bbbc 5e1f 163d
00000110: 5c4a 813a 92d3 c03a 1bc5 7c3c 7218 9dbc
00000120: 3e8a c4bc 759f 453c db7d 083c cf04 bd3d
00000130: c9fa 5dba fc5e 333c 8f1a 183d 96d4 823b
00000140: 2b46 04bc 465b e0bc 1670 403a c17b 1bbd
00000150: 30ff 9bbc b29c 4e3d c25f a63a 97eb 103d
00000160: d704 123b f7ef 2c3d 86f0 8a3d 2cc4 efbc
00000170: 358f afbb 6a69 88bd 13d8 bd3c 2ce9 ce3d
00000180: a05b 2d3d 4643 63bb 887d 23bc 4d4f 563d
00000190: b32f fb3d fe8c 2abd 93f8 7ebc 7ade ee3c
000001a0: a15f 3a3c 2e87 8bbd 55d9 ebbc 5eea 6b3c
000001b0: 25b2 353d 748b 4f3c 8da2 953a 0424 b8bd
000001c0: 7bd1 203d 73a9 7f3d b260 5c3d a1a5 82bc
000001d0: 3277 3b3a b375 243d 1377 3cbc 78e9 23bd
000001e0: ee63 3bbd fb61 0cbd 540c ca3a 9a42 933d
000001f0: 6d61 6bbd 50ff fa3a e924 1fbb dd2f 963d
00000200: b297 b8bc dbd9 56bc 921a b5bb a586 88bc
00000210: 1b73 d53a 59b2 7cbc 06db 1d3c 321f c1bc
00000220: d531 303d e96d edbc 6f91 9cbd 31c4 b0b9
00000230: 147b 933c 08e6 6abd 39bf b3bc 9615 ae3c
00000240: 70ff a03c cdcd 32bc fb15 70bc c451 46bc
00000250: 70e0 b43d 4cd1 5ebc b99c 263d 7418 723d
00000260: 9dec 22ba c4cf 6f39 8b8a 3ebd 0ac4 d5bc
00000270: 3afd ca3c 4c73 86ba c1bd f83c 39b1 b5bb
00000280: 7a6f 3ebc 9a0d 4abd b16f 9b3c bd30 da3b
00000290: b07b b7ba dfc2 483d f910 90bc 9037 163d
000002a0: 45cb f63b b449 553d b463 093d a3d8 db3c
000002b0: 037c 693c 1bba 003c 4acf 25bc 91cb 00ba
000002c0: b127 b23a a353 a83c c3d2 70bc c3c5 c7bb
000002d0: 0421 193d 12e4 e63a 33fd 98bb 7c25 123b
000002e0: cc28 bdbc aea3 273d 842a 843b 5d63 7f3c
000002f0: 30eb 3dbc 7cf8 3a3e 9d59 2d3b 17b1 50bb
00000300: 4eda 59bc 69dd 253d 0794 8abc 1282 fc3a
00000310: f6fb 453a 421c a63a b7db 0a3c 0662 13bc
00000320: 60e8 8cbc 77b2 003c 60ef fe3b d018 833d
00000330: bd05 6dba fc25 e73b 254e c73c 640d d93b
00000340: 58a9 a2bb 80e0 b9bc 91da f139 c11e 1dbc
00000350: 2cf1 0dbc 015e 2c3d fad9 8f3c 8760 c13c
00000360: 9f62 213b 37b2 ec3c dc62 303d 45f5 dfbb
00000370: af90 38bb e5d1 f2bb 9f6a 7f3c a5f2 be3d
00000380: 0043 123c ce7a a2ba df9f b9b9 b13b 2d3d
00000390: f893 e33d 071f 99bb 0e89 20bc 9c0d a93c
000003a0: 7a91 b73c 3eaf cabd 0fe3 90bc 0aca bd3b
000003b0: edde 203d 8e49 853b 5fdb 323a d0e4 58bd
000003c0: 3c50 ef3c c03b 4e3d c83b 4c3b 7050 18bc
000003d0: 7577 123a 7d3a 4c3d aefb 31bb c8c2 cebc
000003e0: 4da6 04bd 40dc d9bc 41d3 b23a ea2d 433d
000003f0: 4199 a5bc fd71 9c3a 3f3c 51ba 5aef e93c
-0.03085294 -0.023461457 -0.020145226 -0.02705955 0.0032777418 -0.021223955 0.020251265 -0.00521766
0.06174724 -0.014819077 -0.03341736 -0.022387397 0.06667773 -0.06595245 -0.027837424 0.06249535
0.04803313 -0.017992418 -0.019976312 -0.020205088 0.056022648 -0.02114581 0.036821242 0.022125464
-0.00078689394 0.00017858193 -0.038855106 -0.02197934 0.0050439034 -0.0012055784 0.023854684 -0.016510164
-0.016695978 -0.05727498 0.04171629 0.03921343 -0.0021489393 0.09051776 -0.02549201 0.047070287
0.05914681 0.06285117 0.067564815 0.033896625 0.025612837 0.014828844 -0.015052536 -0.00045418434
0.0023801592 0.019358339 -0.002142955 -0.009104449 0.0700685 0.037900493 -0.0076564206 0.0053100456
-0.031388577 0.037350364 0.00856104 0.02398377 -0.019230997 0.20826268 0.0053383806 -0.042140145
-0.019990921 0.0358053 -0.022835838 0.036651008 0.000986408 0.001471149 0.015427853 -0.019176695
-0.0239917 0.012061943 0.0083307875 0.09229433 -0.0008467851 0.010947939 0.037134703 0.0039926274
-0.00807337 -0.027387273 0.0007340921 -0.037959818 -0.019042581 0.050442405 0.0012693333 0.035380926
0.0022280717 0.042221036 0.067841575 -0.029268347 -0.005357648 -0.06660731 0.023174321 0.10103068
0.04232371 -0.003467755 -0.009978659 0.05232172 0.12264957 -0.041638367 -0.015562194 0.02915882
0.011375339 -0.06812893 -0.028790155 0.014399139 0.044359345 0.012667526 0.0011416242 -0.089912444
0.039262276 0.06241746 0.053803153 -0.015948119 0.00071512454 0.04015131 -0.011502999 -0.040017575
-0.045749597 -0.03427313 0.0015415051 0.071904376 -0.05746596 0.0019149575 -0.0024283475 0.07333348
-0.022533271 -0.013113464 -0.005526849 -0.016665766 0.0016284914 -0.015423381 0.009634739 -0.023574445
0.043016274 -0.028983073 -0.07644927 -0.0003371551 0.018003024 -0.05734828 -0.021941768 0.021250527
0.019653052 -0.010913325 -0.014653678 -0.012104455 0.088318706 -0.013599705 0.040676806 0.05910535
-0.00062150677 0.00022870215 -0.046518844 -0.026094455 0.024778951 -0.001025775 0.03036392 -0.005544808
-0.011623258 -0.049329378 0.018974157 0.006658642 -0.0013998654 0.04901397 -0.017586218 0.036674082
0.007531556 0.052072242 0.03354235 0.026836699 0.014250758 0.007856871 -0.010120222 -0.0004913146
0.0013592151 0.020547694 -0.014698687 -0.006096573 0.037385 0.0017615578 -0.0046688556 0.0022300174
-0.023090743 0.04092758 0.0040333886 0.015587655 -0.011591718 0.18258852 0.0026451119 -0.0031843835
-0.013296677 0.040494356 -0.016916288 0.0019264838 0.0007552499 0.0012673216 0.008475236 -0.008995539
-0.017200649 0.007855049 0.0077800006 0.06401217 -0.00090416876 0.0070540886 0.024329254 0.0066239107
-0.004964035 -0.022690058 0.00046129947 -0.009589852 -0.008663457 0.042081837 0.017559994 0.023605598
0.0024625433 0.028893573 0.04306303 -0.0068346583 -0.002816241 -0.0074102753 0.015589385 0.093236245
0.008927107 -0.0012396218 -0.00035405063 0.042293254 0.11112207 -0.004672888 -0.009798301 0.020636372
0.022408236 -0.09896706 -0.017686395 0.005791907 0.0392751 0.0040676063 0.000682285 -0.052952588
0.029213063 0.05034995 0.0031163562 -0.009296522 0.00055872585 0.049860466 -0.002715807 -0.025239363
-0.03238516 -0.026594281 0.0013643281 0.04765121 -0.020214679 0.0011935827 -0.00079816947 0.028556515

linears.0.bias f4 [32]
00000000: 9c41 f8bc 7aea 21b9 8824 0839 39d6 6e37
00000010: 93d2 d1b8 aaab e5b8 7214 46b8 a9eb 0a38
00000020: 1625 54bc 9e32 27b9 63b4 2338 8027 a93c
00000030: 4735 6cb8 87a9 7bb9 6a94 8238 3e6d 7cb6
00000040: fa4c 9c38 84eb 8cb8 c0c5 453d 602f 0ab7
00000050: e6ed 8c39 ffce 0339 3b9a 4f39 d02d 2638
00000060: 0012 d138 b476 0abd 7f2a 31b8 35f0 04b9
00000070: 790e 05b8 cb8d 1f39 7d71 1bb9 8bc7 0d38
-0.030304722 -0.00015441506 0.0001298358 1.4235783e-05 -0.00010005119 -0.00010951546 -4.722592e-05 3.312124e-05
-0.012948295 -0.00015945217 3.9030227e-05 0.020648718 -5.6316403e-05 -0.00024000379 6.226527e-05 -3.7614514e-06
7.452998e-05 -6.7195884e-05 0.048284292 -8.236471e-06 0.0002688013 0.00012570246 0.00019798514 3.962015e-05
9.9692494e-05 -0.03380461 -4.2239666e-05 -0.00012677985 -3.172315e-05 0.00015216244 -0.0001482423 3.380286e-05

linears.2.weight f4 [2, 32]
00000000: 5022 69be 9174 82be 3748 1a38 3bbf 70b8
00000010: 2d54 29b7 ecc2 75be 9a98 e5b8 4940 94b8
00000020: d022 c8be a7f7 bcb7 320c 2db9 adcd e33e
00000030: ed48 cf38 c837 d7b8 83ec 0039 660a 3bb9
00000040: a17d 94b9 237a 6db8 7d8b fc3e bb72 8638
00000050: f13f 4839 08be 34b8 266a c1b7 0ebe e5bd
00000060: 5d00 49b9 2dd0 94be ed5f 61b8 bb8a 89be
00000070: 29f4 0a39 1d82 eab7 561b c339 4c18 e8b8
00000080: 7a9c 7c3e 17d0 073e 63a4 7e37 eb96 2c38
00000090: aeae 1db9 cb39 5e3e 3162 13b9 04f5 4dbc
000000a0: d319 b73e 679c 50b9 ec31 c237 bccd f6be
000000b0: 42c6 53b9 35c4 2238 321e c4b8 947a 8c39
000000c0: 0c7e e338 885f 7db8 979f 0dbf f319 ca38
000000d0: 0c4d 9338 7b6a 3237 2a7b 3db9 aefa 0d3e
000000e0: 169b c6b6 f71e 263e a08e 0cb9 105c 823e
000000f0: 217c 6db8 75d6 eab7 24d7 08b9 912e 8e39
-0.22766995 -0.25479558 3.6783716e-05 -5.7398556e-05 -1.0092784e-05 -0.24000138 -0.00010947995 -7.069164e-05
-0.3908906 -2.2526669e-05 -0.00016503109 0.44492856 9.884113e-05 -0.00010262389 0.00012295139 -0.00017837583
-0.0002832236 -5.6618952e-05 0.4932517 6.410988e-05 0.00019097306 -4.3092325e-05 -2.3056822e-05 -0.11217891
-0.00019168989 -0.29065076 -5.3733518e-05 -0.26863655 0.00013251662 -2.7955562e-05 0.00037213665 -0.00011067148
0.24669066 0.13262974 1.5177854e-05 4.114855e-05 -0.0001503776 0.21701734 -0.00014055592 -0.012570623
0.3576189 -0.0001989469 2.3149849e-05 -0.48203838 -0.00020196385 3.8806542e-05 -9.3516326e-05 0.0002679421
0.000108476816 -6.040887e-05 -0.5532164 9.636944e-05 7.023857e-05 1.0634419e-05 -0.00018070327 0.13865158
-5.918914e-06 0.1622275 -0.00013404572 0.25460863 -5.6620807e-05 -2.7994838e-05 -0.00013050117 0.00027119045

linears.2.bias f4 [2]
00000000: 7dca 1f3a 8887 c4bd
0.0006095542 -0.09596163

exp_avg f4 [128, 4, 12]
00000000: 5871 f2b8 0f1a c7ba bc15 fe3a edb7 a939
00000010: 91e3 fdb9 4fbe 653b 4fab 1cba aa9b 78b9
00000020: 2007 1a3b 880f e7ba 40ab ceba 8885 513b
00000030: fff7 4b3a f7d7 26b9 7e12 353b 4c20 23b9
00000040: bf3c 9537 f3b5 5638 ea51 02b7 bdc6 393b
00000050: 0748 313a 4052 3b3b 7ca9 98b9 6b1d 2b38
00000060: 5593 f7b8 6bbb 563a 3cf0 87bb 31ce 32ba
00000070: 6d1f 24bb a261 a7b6 8622 a2ba 3603 44bb
00000080: d32d 903a 2b92 3cba 314d 4c3b 7376 963a
00000090: 6db7 0eba b32e 613a 94f3 10ba 49ba 063a
000000a0: 66b1 423b 76c5 68bb d37c f13a 9131 ce39
000000b0: 0638 87bb 822f c5b9 c4c4 a3ba 9cb6 8fbb
000000c0: 70ce 543b e78e 1b3a b9c4 7cbb 034a 35b9
000000d0: 03fc 023b 90f0 11b9 a41f c1b9 370b 57ba
000000e0: f4d9 e939 d8f6 0b3a 9f9f 9b3a 5fb2 f539
000000f0: 171f 15bb cf91 d2ba 101e 8b3b 9517 a139
00000100: 22ca 0bbb f4d4 dab9 47ef 90bb 6184 59ba
00000110: 6dba 1ebb 6db5 2fbb 4857 d7ba 866d be3a
00000120: c8cf 21b8 dde7 a439 63c1 81ba 6cc0 69b9
00000130: f410 9bb9 d20e 63b9 c827 783b b4cc 30b9
00000140: d2b2 b63a a287 ef38 3a41 103a 93cc d3ba
00000150: 68a0 74ba cf20 373a 1ea5 1d3a 99b6 b938
00000160: ff81 e139 53aa 4a3a 75b5 833a 6161 ee3a
00000170: 1197 183a 7a3b 053b 2d8f c6b8 5236 a0b9
00000180: 6eed a3ba 4cf9 9539 dc85 88ba 4818 29bb
00000190: e09a 99ba 1f25 c0b9 2c95 d838 2c5f 1c3a
000001a0: 1008 733b 4d8f fb3a 0448 593a 8dcf 0cbb
000001b0: a896 a73a ae2f 21ba c58d 073b b81c cf38
000001c0: 868c 26ba 04e1 a43a 5f6e 07bb f9df 033a
000001d0: ad4f 34ba afe4 6639 1705 0cbb 395c 90ba
000001e0: 734e f0ba e8e8 2b39 24f0 0cba f901 f03a
000001f0: e1bc 573b 6431 9eba 790e 063b 5879 a73a
00000200: 4aab a8ba d4f0 14bb 5482 8639 13d9 4a3b
00000210: 3aa5 ec3a 39e3 2c39 393b 00ba 9879 2a3a
00000220: 9e98 c2ba a066 a539 7c98 acb8 76cc 1bbb
00000230: 003d e3ba 16ae 0b39 95c5 893a 5d49 2239
00000240: f6fb e33b 9f08 4d39 cc74 4c39 6537 9d37
00000250: 3a40 533a c8c2 05bb 1a87 67ba 352f 6e3b
00000260: bd36 013a a40d 1038 52f8 493b 455b 5cbb
00000270: aef9 1eb9 d085 a436 0987 8bb9 6d72 4bb9
00000280: 7653 c5b9 93db 8eb8 3b8e d8b8 faff 9938
00000290: e415 c3ba e377 8738 7ec9 053b 5cb2 92b9
000002a0: 4684 2a3a 0a93 82bb 53f8 d138 5900 5739
000002b0: e132 693a 99d7 c03a 53fa 783a 81b4 7cbb
000002c0: cb9a 9b3a 56d7 223a 843d 78b9 142c 73b9
000002d0: b354 f4bb 4803 783b 0b18 f3b7 b6a6 f9b7
000002e0: b0e4 acba 6437 273a cce8 1938 d054 1b39
000002f0: 2502 49b9 35c7 3cba fa1e a0bb 52e4 7d3b
00000300: 958d f437 0104 ab38 dd18 54b7 0fef 013a
00000310: 3163 1839 aa82 363a 912b a339 6577 0539
00000320: 5375 13ba fdf1 b037 7b16 a1b9 9484 a538
00000330: 1f71 34b9 a069 07b9 fd0c 113a 1d75 9338
00000340: cac9 39ba ccdd d636 eeb3 c638 963b a2b7
00000350: 6d84 8f39 5283 2fb9 87fc f938 a236 363a
00000360: 454f 173a ee36 1dba 282b 13ba 0dd8 2bba
00000370: e10c 8039 378b e9b9 7fe7 22ba 7f79 8139
00000380: 7295 3937 88d0 1d39 683c c9b8 f096 4bba
00000390: d5ae e3b9 d7b0 293a 05d2 ad37 d2d2 bb38
000003a0: 1a55 a739 96d5 86b9 e3ec 6139 7611 bab9
000003b0: 8e99 9139 3e6e 8db6 72e6 9439 d1bb 2f36
000003c0: 13d6 74bb b6a9 cf3a f138 fbb8 bfee ed39
000003d0: 6b1a a939 2399 6839 01e6 d837 cae4 423b
000003e0: 426f 5d38 761d 94ba dfc2 df38 366a 3cbb
000003f0: 8409 4f3a 4f81 4439 4e8f 2d3b c097 c43b
-0.00011560571 -0.0015190261 0.001938514 0.00032371227 -0.0004842547 0.003505606 -0.00059764547 -0.00023709112
0.0023502782 -0.001762853 -0.0015767589 0.003197046 0.000778079 -0.00015911447 0.002762943 -0.00015556923
1.7790471e-05 5.119103e-05 -7.767676e-06 0.0028347217 0.0006762747 0.002858296 -0.00029117975 4.0796975e-05
-0.000118053205 0.00081913796 -0.004148511 -0.0006820886 -0.0025043145 -4.988354e-06 -0.0012369908 -0.002990914
0.0010999985 -0.00071934116 0.003117394 0.0011479392 -0.00054442027 0.00085900276 -0.000552946 0.0005139453
0.0029707788 -0.0035518087 0.0018424041 0.00039328312 -0.0041265516 -0.00037610164 -0.0012494554 -0.0043857824
0.003247168 0.0005934075 -0.0038569404 -0.00017289077 0.0019986636 -0.00013917894 -0.00036835403 -0.000820327
0.0004460361 0.0005339212 0.0011873132 0.00046862938 -0.0022754127 -0.0016065183 0.004245527 0.00030725883
-0.0021330197 -0.00041738863 -0.0044230553 -0.0008297619 -0.0024220005 -0.002681102 -0.001642921 0.001452849
-3.8578903e-05 0.0003145327 -0.0009899553 -0.00022292294 -0.00029576535 -0.00021653928 0.0037865508 -0.00016860926
0.0013938791 0.00011421672 0.00055028836 -0.001615899 -0.0009331764 0.0006985785 0.0006013679 8.855499e-05
0.000430122 0.0007731069 0.0010048585 0.001818698 0.00058208505 0.002032964 -9.468044e-05 -0.0003055805
-0.0012506673 0.00028605235 -0.001041587 -0.0025801826 -0.001171913 -0.0003664875 0.00010327468 0.00059651094
0.0037083663 0.0019192487 0.0008288624 -0.0021486015 0.0012785988 -0.00061487674 0.0020683866 9.8758785e-05
-0.0006353337 0.0012579267 -0.0020665152 0.0005030628 -0.00068783277 0.000220197 -0.0021365338 -0.0011013813
-0.0018333927 0.00016394595 -0.000537636 0.0018311135 0.0032918977 -0.0012069163 0.0020455404 0.0012777252
-0.0012868431 -0.0022726553 0.00025655574 0.003095214 0.0018054612 0.00016487845 -0.00048916374 0.0006503104
-0.0014846509 0.00031547714 -8.2300015e-05 -0.0023772991 -0.0017336905 0.00013320925 0.0010511155 0.00015476854
0.0069575263 0.00019553535 0.00019498466 1.8741654e-05 0.0008058582 -0.0020410288 -0.00088320824 0.0036344056
0.0004929116 3.434498e-05 0.0030818176 -0.0033623737 -0.00015161067 4.9031587e-06 -0.00026612755 -0.00019402216
-0.0003763695 -6.8119865e-05 -0.00010326175 7.343288e-05 -0.0014883843 6.459632e-05 0.0020414288 -0.00027980178
0.00065046956 -0.0039848136 0.000100121506 0.00020504127 0.0008895826 0.0014712691 0.00094977504 -0.0038559737
0.0011871693 0.0006211897 -0.0002367404 -0.00023190706 -0.007456386 0.0037843753 -2.8979053e-05 -2.9760744e-05
-0.0013190713 0.0006378798 3.669485e-05 0.00014813547 -0.00019169653 -0.0007201315 -0.004886505 0.0038740826
2.9152996e-05 8.154661e-05 -1.2641974e-05 0.0004956582 0.00014532801 0.00069622195 0.00031122242 0.00012728346
-0.00056250877 2.109352e-05 -0.00030725062 7.892508e-05 -0.00017208279 -0.00012913952 0.00055332464 7.03132e-05
-0.0007087259 6.4035175e-06 9.47489e-05 -1.9339652e-05 0.0002737375 -0.00016738221 0.00011920282 0.000695089
0.0005772005 -0.000599726 -0.0005614036 -0.00065553264 0.00024423658 -0.00044544946 -0.0006214305 0.0002469532
1.1061655e-05 0.0001505037 -9.5956784e-05 -0.0007766327 -0.00043427074 0.00064731896 2.0721005e-05 8.956123e-05
0.00031916128 -0.00025717606 0.0002154592 -0.00035489694 0.00027770962 -4.2149613e-06 0.00028400455 2.6186356e-06
-0.0037359043 0.0015843424 -0.00011979219 0.00045382042 0.00032253875 0.00022182292 2.585631e-05 0.002973842
5.2794123e-05 -0.0011300284 0.00010669766 -0.002874983 0.0007897841 0.00018740188 0.0026483121 0.0059995353

exp_avg_sq f4 [128, 4, 12]
00000000: e376 8435 ce11 2037 3a72 0b37 6e98 c734
00000010: dc93 fa36 ad07 3e37 0481 8c36 d3cf 9c35
00000020: 5c67 0e36 824d 1f37 ef6b 0f37 91fb ad36
00000030: cb4b 6037 87e8 9f35 f865 4a37 0935 7336
00000040: dc5a 1934 92fc ed36 d3d8 1a37 f931 b836
00000050: 4336 1b36 2a53 1337 2bd8 1637 e519 b236
00000060: d834 9235 d005 1d37 d826 4337 a2c3 9b36
00000070: 9d58 0d37 7357 7b36 8910 c636 b2f7 8036
00000080: 5a0f d436 39de a235 0a0b 3537 2ae9 be36
00000090: 37b8 3737 eefb d536 c06f 0d35 80f6 2b35
000000a0: ff46 ba35 5b09 1037 574e 5f36 b4cc 9f35
000000b0: 0fcd 2a37 ba5c d334 e46f 4336 a170 3f37
000000c0: 94d6 2537 02ef d036 0908 8c37 71ee cd36
000000d0: 45d0 7437 8ea1 4d35 3011 d236 210d 0037
000000e0: 1988 0935 7b22 a835 ac79 9937 ba55 6c36
000000f0: 474d 3c37 1add 7e37 88b6 b937 81a3 cd36
00000100: 6c46 8c37 3f6d 6637 1b95 4037 e0be 4c37
00000110: b205 7e37 17c5 1637 0a46 b037 becb a637
00000120: 0356 5b34 8fd9 a536 8cc3 7237 e350 9834
00000130: 0c9b 2336 b3b0 d935 8155 7337 7e33 7e37
00000140: fffa 2937 2484 3936 bcb8 9c36 5c63 4937
00000150: c787 8e35 7022 bc36 13a5 9735 7375 2837
00000160: 1ec6 0b35 f423 4937 3636 8e36 deb7 0037
00000170: e4f7 1b36 c588 3037 87cb fd36 315d 4e37
00000180: ad26 2936 3364 5636 c4aa ce36 66fe 9036
00000190: 784c 3636 c860 b536 ace0 8d35 48d4 1736
000001a0: b4fd 3f37 d96b 7a37 8efe 0e37 1c1d b235
000001b0: 6d53 a436 97e9 1537 2775 0d37 2d50 bd34
000001c0: 7ce2 8935 e32e a736 1d4f be36 14b3 df36
000001d0: bb69 5e36 b58c be35 1440 8635 b121 b236
000001e0: b7c0 5537 5e04 e836 c62c 1537 f6a9 5736
000001f0: ec21 6e37 d80d 0e37 cd22 9136 d552 8e36
00000200: 8592 4837 e946 5737 1c34 3937 eece db36
00000210: 2bf0 3137 408a 7536 f2d3 c135 26a2 6c35
00000220: aea6 0637 30a0 4234 6c37 4b35 d9a2 1b37
00000230: cd12 8436 1899 3e36 faa3 f935 1768 bd34
00000240: 6730 8a37 2127 2236 8bf7 8d35 c686 ae35
00000250: 020c 5f35 fce4 4337 6fa6 d735 bdca 2537
00000260: 7951 b136 ea8d 9835 f1c0 1836 6339 9f37
00000270: 00e3 ad35 37ba c436 6021 7a37 bbf6 2936
00000280: 36f2 d536 6745 6335 460a 3436 21a1 0237
00000290: 566a 8d37 6175 2537 2c86 5037 187b 1f37
000002a0: 2433 9837 85c5 c237 801b ce37 b9b5 2b37
000002b0: 77ec 5737 2cf1 3237 aff1 a836 208b 8937
000002c0: c57f 6a37 9157 1a37 779d 8637 3c95 8736
000002d0: c72e d737 235b b437 4f4b 6237 f3fe 0037
000002e0: 8a79 cf36 9756 2536 6ec1 b034 3eaf 0236
000002f0: 9e86 a035 f8a6 6937 d2ee 9837 14c7 2637
00000300: ab46 3034 0f72 b832 0f5b 1332 9d6c 9b34
00000310: 0902 a634 338d 8034 0f54 a834 08cf ff33
00000320: 061f 8733 da3f 0633 f3b1 8d34 0c72 6033
00000330: 352c 8d33 3469 a434 add7 be34 ca07 3934
00000340: 5d84 cd34 c6f7 cf34 ddbf 4e34 5d89 9334
00000350: 71d1 ca33 dad1 5034 b56e da33 1343 c134
00000360: 2318 6434 4206 e634 005f d534 1363 d634
00000370: 046e 1f34 bd05 2434 9f7e 4234 bff2 5c33
00000380: 2114 9134 bfc3 0233 f804 5833 b013 8934
00000390: 83dd a334 6a42 fb33 fbe8 a232 1da0 5933
000003a0: da96 9934 d808 be34 07b3 d733 c7d6 aa34
000003b0: bd77 0534 1f08 fb33 c9fc 8b34 9d05 4133
000003c0: 065d c236 832d 4437 022f 6934 1ab1 f036
000003d0: f487 f535 2801 3636 eec1 0d35 fb17 6e37
000003e0: 0f69 be35 4387 2c37 5f44 c835 29d6 3137
000003f0: 7425 ff35 c512 b035 eb8f a436 307d f936
9.869367e-07 9.540889e-06 8.311641e-06 3.7177546e-07 7.4677937e-06 1.132667e-05 4.1873445e-06 1.168339e-06
2.1219812e-06 9.495185e-06 8.548594e-06 5.185088e-06 1.3369087e-05 1.1914098e-06 1.206388e-05 3.6240692e-06
1.428229e-07 7.0925535e-06 9.229599e-06 5.489445e-06 2.3128384e-06 8.781246e-06 8.991027e-06 5.307828e-06
1.0893227e-06 9.359283e-06 1.163195e-05 4.6421346e-06 8.424887e-06 3.7452817e-06 5.902785e-06 3.843533e-06
6.3198795e-06 1.2134616e-06 1.0791011e-05 5.689585e-06 1.0950541e-05 6.377223e-06 5.268921e-07 6.406117e-07
1.3878742e-06 8.585247e-06 3.327519e-06 1.1906e-06 1.01805335e-05 3.936928e-07 2.9122393e-06 1.1410711e-05
9.884727e-06 6.2267072e-06 1.6693042e-05 6.1372343e-06 1.4592025e-05 7.6603544e-07 6.2604886e-06 7.632451e-06
5.1234525e-07 1.252701e-06 1.829568e-05 3.521664e-06 1.1223666e-05 1.5191059e-05 2.2138716e-05 6.1285104e-06
1.6722093e-05 1.3734504e-05 1.1478808e-05 1.2203789e-05 1.5140906e-05 8.986585e-06 2.101345e-05 1.9883617e-05
2.0427255e-07 4.9427103e-06 1.4469853e-05 2.837106e-07 2.4379142e-06 1.6219186e-06 1.4503837e-05 1.5151569e-05
1.0131625e-05 2.7644064e-06 4.670668e-06 1.20036675e-05 1.0619341e-06 5.6068457e-06 1.129842e-06 1.0040926e-05
5.2069834e-07 1.1988905e-05 4.2382408e-06 7.672204e-06 2.3241091e-06 1.0522262e-05 7.5636813e-06 1.2300255e-05
2.5205475e-06 3.1946809e-06 6.159158e-06 4.3211503e-06 2.7164624e-06 5.405487e-06 1.0570707e-06 2.2624317e-06
1.1443557e-05 1.4926271e-05 8.523128e-06 1.3270505e-06 4.897293e-06 8.935479e-06 8.431532e-06 3.526233e-07
1.0273211e-06 4.982446e-06 5.6716513e-06 6.6667653e-06 3.314212e-06 1.4197054e-06 1.0002427e-06 5.3087356e-06
1.2740659e-05 6.914647e-06 8.891517e-06 3.2136427e-06 1.41938035e-05 8.467083e-06 4.325388e-06 4.2415727e-06
1.1955043e-05 1.2831509e-05 1.1038992e-05 6.5507984e-06 1.0605941e-05 3.6588317e-06 1.4441305e-06 8.815281e-07
8.0258305e-06 1.8125934e-07 7.570404e-07 9.276636e-06 3.9360953e-06 2.8401319e-06 1.8599669e-06 3.527973e-07
1.6473421e-05 2.4162657e-06 1.0577363e-06 1.3003234e-06 8.309145e-07 1.167622e-05 1.6067187e-06 9.88197e-06
5.2844957e-06 1.1366185e-06 2.2762072e-06 1.8981e-05 1.295557e-06 5.8629334e-06 1.4908932e-05 2.5326578e-06
6.3760917e-06 8.4665083e-07 2.682807e-06 7.78612e-06 1.6858026e-05 9.862096e-06 1.2429005e-05 9.5057985e-06
1.8143626e-05 2.321858e-05 2.456992e-05 1.0234705e-05 1.2870055e-05 1.0665779e-05 5.034926e-06 1.6396458e-05
1.39772355e-05 9.199503e-06 1.604737e-05 4.0406867e-06 2.565178e-05 2.1500111e-05 1.3488184e-05 7.6887545e-06
6.1832297e-06 2.4637318e-06 3.2923293e-07 1.9473514e-06 1.1960108e-06 1.3926758e-05 1.8231021e-05 9.9407225e-06
1.6416986e-07 2.1472287e-08 8.5772305e-09 2.8950026e-07 3.092139e-07 2.3944594e-07 3.13536e-07 1.19120216e-07
6.2920705e-08 3.125738e-08 2.6392772e-07 5.225779e-08 6.5738654e-08 3.0623926e-07 3.5547183e-07 1.7232301e-07
3.8280533e-07 3.8737033e-07 1.9255044e-07 2.748083e-07 9.444455e-08 1.9447853e-07 1.01715536e-07 3.5997854e-07
2.1242936e-07 4.2845392e-07 3.9743463e-07 3.9932692e-07 1.4848052e-07 1.5275778e-07 1.8113722e-07 5.1443518e-08
2.7023e-07 3.0446014e-08 5.0295938e-08 2.5532563e-07 3.0522287e-07 1.1700179e-07 1.896523e-08 5.0669872e-08
2.860823e-07 3.5396693e-07 1.00442826e-07 3.182124e-07 1.2430151e-07 1.16895755e-07 2.6074693e-07 4.494142e-08
5.79248e-06 1.1693107e-05 2.1716917e-07 7.1731747e-06 1.829349e-06 2.7120786e-06 5.28088e-07 1.4191489e-05
1.4186679e-06 1.0283492e-05 1.492106e-06 1.0599885e-05 1.9009881e-06 1.3118485e-06 4.904335e-06 7.435352e-06

exp_avg f4 [128]
00000000: 144e f83a 3726 0b3b 5171 e23a 8412 0e3b
00000010: 526a 76b9 1707 043b 2df3 57ba c11e 4c3a
00000020: d1ac a3ba 8ed0 a73a 7c46 253b 98f2 e73a
00000030: 3952 69ba cbf2 f83a 9c2c e23a 41b2 a7ba
00000040: aa19 91ba 2dce d43a db43 cb3a 101d a73a
00000050: aa15 15bb 7626 f13a df86 c4ba 10e6 a3ba
00000060: 497f 9239 e65b 4838 79aa 003b 2011 013b
00000070: 0b78 17ba e7f9 413a 111c 99ba 7e19 e73a
00000080: 68d3 c93a 4476 263b 4fec bcba cfb3 77ba
00000090: 1876 933a ac71 20bb cd8f e23a ec1f 05bb
000000a0: 597b 8aba 11d4 1cbb 1805 99ba f060 c9ba
000000b0: 5016 aeba 76eb 45ba da63 8d3a 36ac 8939
000000c0: 1c89 87b9 3c8d 78ba bcfb 2f3a 712b a53a
000000d0: c378 f2ba b16a cbb9 906a 783a 4ed3 91b9
000000e0: c834 f83a c502 b9ba 9102 a4b9 d49e 89ba
000000f0: 3bf8 a93a 31a7 bdbb 2cf3 99b9 8f14 003b
00000100: 4b6e d23a fdb6 42ba 5372 bf3a b102 96ba
00000110: 02e9 a937 d58f 6bb9 d593 4aba fb1f e03a
00000120: 95fe c13a 907a 22ba a5f0 cdb9 89e9 06bb
00000130: eace 793a 6b2c f0b9 13bc f3ba c3db 53ba
00000140: 82a6 1e3a 96c1 cb3a bbb3 63b8 378a e83a
00000150: ce3c ed3a bfbc efba a030 4eb9 edba c0ba
00000160: 44e8 f0b9 e3c6 f4ba fdb3 0dbb 0da9 c73a
00000170: e2a7 503a e280 cf3a 6fa6 adba 5981 53bb
00000180: ed29 d6ba 5146 403a a28d a83a 7ec8 20bb
00000190: 0412 76bb 2b8a c83a 7a9f c93a 183b c7ba
000001a0: fa22 85ba 1482 713b 70b7 103b 0c2d 7fba
000001b0: 7be3 e7ba 5fd5 83ba a7d3 34ba c8f5 7e3b
000001c0: 0a89 ccba 3c61 26bb be68 51ba f62f c03a
000001d0: b71b 29ba 28fb b1ba 1f1c 013b e92f 183b
000001e0: 86c0 db3a 0938 0a3b 0d5a 43ba 747e 1bbb
000001f0: 7600 f43a 06b2 f6b9 4ac1 813a 3617 93ba
0.0018944168 0.0021232495 0.0017276203 0.0021678517 -0.00023499996 0.0020145827 -0.0008237835 0.0007786565
-0.0012487416 0.0012803243 0.0025219014 0.00176962 -0.0008900497 0.0018993256 0.0017255726 -0.0012794213
-0.001107027 0.0016235762 0.0015507893 0.001274975 -0.0022748508 0.0018398303 -0.0014993808 -0.0012504477
0.00027942125 4.7769303e-05 0.001963286 0.0019694045 -0.00057780807 0.0007399604 -0.0011681338 0.0017631499
0.0015398087 0.0025400082 -0.0014413687 -0.0009449096 0.0011250405 -0.0024481816 0.0017285288 -0.0020313216
-0.0010565325 -0.0023930112 -0.0011674492 -0.0015363973 -0.0013281796 -0.000755004 0.0010787204 0.00026258983
-0.0002585136 -0.0009481495 0.00067132316 0.0012601448 -0.0018499125 -0.00038798669 0.0009476328 -0.0002781399
0.0018936628 -0.0014115205 -0.0003128243 -0.0010499605 0.0012967655 -0.005787753 -0.0002936361 0.0019543504
0.0016054598 -0.000742778 0.0014606215 -0.0011444894 2.0254873e-05 -0.00022464928 -0.0007727717 0.0017099375
0.0014800603 -0.0006198073 -0.0003927994 -0.0020585975 0.0009529429 -0.0004580946 -0.0018595479 -0.0008081758
0.0006052033 0.0015545364 -5.4288404e-05 0.0017741387 0.0018099786 -0.0018290504 -0.00019663805 -0.0014704146
-0.0004594942 -0.0018674996 -0.0021622174 0.0015232876 0.0007959587 0.0015831257 -0.0013248454 -0.0032273142
-0.0016339399 0.0007334697 0.0012859593 -0.0024533565 -0.003754736 0.0015299966 0.0015382611 -0.0015200106
-0.0010157519 0.0036851214 0.0022081994 -0.00097341905 -0.0017691696 -0.0010058096 -0.0006897994 0.0038903821
-0.0015604806 -0.0025387546 -0.0007988325 0.0014662731 -0.0006450968 -0.0013578879 0.00197006 0.0023221916
0.001676575 0.0021090528 -0.0007452078 -0.0023726495 0.001861586 -0.00047053414 0.0009899524 -0.0011222127

exp_avg_sq f4 [128]
00000000: 0b36 5538 a6d5 b438 2d01 7138 82a6 b838
00000010: 3278 ee35 3e68 af38 8d2d 3137 701d dc36
00000020: 35ce 2c38 ebb4 be37 aa64 0f39 7e84 9838
00000030: 4b28 4b37 41ab 9638 48a0 1938 28aa d937
00000040: 2159 ee37 6be6 3f38 bb23 1c38 3910 cb37
00000050: 4d68 fd38 58b2 7138 2d6d 5638 1d59 0738
00000060: 2185 f134 0d4d f532 1167 aa38 c7ea 8a38
00000070: 1275 4137 ae17 1937 1f1c 0138 43b6 9338
00000080: 9502 0b38 f12e b538 97b1 3938 a3c2 b737
00000090: 6271 d237 ce41 f238 53de 3d38 ed3e ba38
000000a0: 0b63 0c38 5731 e838 4634 a637 c786 5e38
000000b0: c333 2238 af05 8537 5302 6537 dd5a bb34
000000c0: d8e6 6436 44b1 8937 887b f136 75dd cc37
000000d0: 44c6 9838 816d 8a36 b8fc 3a37 bd78 4836
000000e0: a846 5f38 aa4c d737 3495 0a36 cf7b 9237
000000f0: 4bb5 9337 2a97 fe39 cc04 3b36 b3df b938
00000100: 30eb 2738 3f9d b337 f8f4 e237 238a 1238
00000110: 6f48 0b35 7d25 9136 35f5 4b37 322a 8138
00000120: 3457 e637 908f 0137 d03e 1d36 f815 8338
00000130: 7a68 a137 6757 6036 c70f b638 cf8a 9e37
00000140: e8c3 0c36 1203 e737 da1b 9634 059c 7038
00000150: 1fd6 8338 1610 ae38 1731 ce35 820c 1938
00000160: d62a fb36 4eaf a238 ac9e e838 b486 2338
00000170: 71f7 0937 30b4 6238 97f6 3b38 0802 2139
00000180: 3ada 9138 cb23 e736 1cee db37 e2ec fb38
00000190: 11b7 4739 2b59 3f38 62b8 2038 19bf 6c38
000001a0: a00a d637 81fe 9239 99ef 9d38 ff81 fb37
000001b0: 00fc 5a38 9cda ef37 6d81 a537 05ac 7e39
000001c0: 8467 4138 bde6 e438 771c 9537 af14 0e38
000001d0: 07f9 8e37 d129 0738 10de b338 20eb c738
000001e0: 0fe1 3838 3925 7638 649b b037 d792 ee38
000001f0: a6e1 4f38 f89c 2037 f0d6 8437 fcdc 3338
5.083349e-05 8.622864e-05 5.7459973e-05 8.804818e-05 1.7767363e-06 8.364067e-05 1.0560628e-05 6.559938e-06
4.120004e-05 2.2734012e-05 0.00013675043 7.2726034e-05 1.2109124e-05 7.184456e-05 3.6627316e-05 2.5947651e-05
2.8413315e-05 4.5752542e-05 3.7226575e-05 2.420704e-05 0.00012083408 5.7624973e-05 5.1123254e-05 3.22695e-05
4.4986612e-07 2.8556792e-08 8.125429e-05 6.6240835e-05 1.1530954e-05 9.125024e-06 3.0782187e-05 7.043455e-05
3.3142587e-05 8.639496e-05 4.427283e-05 2.1905935e-05 2.5086749e-05 0.00011551716 4.5268167e-05 8.880892e-05
3.3470842e-05 0.00011071812 1.9813084e-05 5.3054446e-05 3.8672017e-05 1.5857482e-05 1.3650005e-05 3.4897576e-07
3.4109016e-06 1.6414218e-05 7.1967406e-06 2.4421819e-05 7.284855e-05 4.1254684e-06 1.1145305e-05 2.9872601e-06
5.3233147e-05 2.5665697e-05 2.065045e-06 1.746221e-05 1.7608187e-05 0.0004855928 2.7867964e-06 8.863155e-05
4.0034938e-05 2.1411686e-05 2.7055372e-05 3.4937762e-05 5.188694e-07 4.325701e-06 1.2156835e-05 6.159059e-05
2.7458744e-05 7.722425e-06 2.3431385e-06 6.250659e-05 1.9241346e-05 3.3429476e-06 8.681375e-05 1.8899706e-05
2.0975658e-06 2.7538776e-05 2.7959942e-07 5.7365763e-05 6.28645e-05 8.299963e-05 1.5362483e-06 3.648969e-05
7.4853697e-06 7.757415e-05 0.00011092177 3.898768e-05 8.223448e-06 5.405041e-05 4.481393e-05 0.00015354913
6.954787e-05 6.8885033e-06 2.6217713e-05 0.000120127355 0.00019046316 4.5620993e-05 3.8318693e-05 5.644476e-05
2.5515736e-05 0.0002803691 7.530972e-05 2.9982066e-05 5.2209944e-05 2.8592818e-05 1.9729801e-05 0.0002428741
4.6111192e-05 0.000109148656 1.777544e-05 3.38747e-05 1.7043682e-05 3.2225453e-05 8.5767475e-05 9.532855e-05
4.407862e-05 5.8685637e-05 2.1053194e-05 0.000113760754 4.9562797e-05 9.57329e-06 1.5835714e-05 4.2882733e-05

exp_avg f4 [32, 128]
00000000: 01ac d8ba 493d a8ba b7ca 90ba c9af 8d3a
00000010: 4dea 18bb f21c dbba 2ce4 c1ba a9c7 26bb
00000020: f5c9 10bb ee4a 03ba fc0c 4fbb 1da5 2cbb
00000030: 914b 9bbb 69b3 04bb 1cfc f5ba 25a9 03bb
00000040: c4c0 01bb cd19 90ba 1d5e dcb9 738d 48bb
00000050: a9b9 c3ba d4da 78ba d168 fdba a118 b0ba
00000060: 85f0 a2ba 31b3 7339 4f6a 4438 b41f e5b9
00000070: ab25 aaba f474 65bb 18bd 61bb ac1c 3ebb
00000080: 4b28 3cb9 7fa1 74ba 78ad 10bb 71c9 e0ba
00000090: 66f2 0cbb fc40 66bb c775 8c3a 0178 44bb
000000a0: 3f4e 62bb 6008 24bb 3d87 83bb c441 39bb
000000b0: 3e15 ddba 4ee9 4abb b0c9 b1ba acff 99ba
000000c0: ffc9 f1ba 8308 48bb 5dd1 e8ba da69 fcba
000000d0: 7c5f 39bb b26e fbba ab39 dcba 4443 a5ba
000000e0: efe7 adba 9431 24bb 825e 36bb 5013 9aba
000000f0: 06d1 bbba 3b8e 00bc 7163 0bbb a5f3 9cba
00000100: a2ef 413a 6939 97ba c3aa 78ba 668d f7ba
00000110: 4e9a 88ba 8166 a1b7 d976 3cbb 6742 40bb
00000120: 1dee 09bb 60ed 4ebb 8310 f9ba 4ee3 c3bb
00000130: 0202 03bb 61e9 f1ba 7fb1 54bb ba6a 28bb
00000140: e89a 39b9 ea5f 0dbb 7483 9fba 9b1a a9ba
00000150: 0fc1 0aba 30cc 95bb d8ea a6ba 887b 40bb
00000160: 8db3 c2ba 099e d5ba 6e7d d6ba 3ddd c2b9
00000170: d037 a7ba f6e8 60bb 49e4 a7ba e1f4 7abb
00000180: 4620 ebba 17d8 2039 4d37 cdba 2b23 66bb
00000190: 6bcb b6bb 280b e2ba bd39 0abb f40f 75bb
000001a0: d940 3fbb 4191 eb37 92cb 88b9 1dc8 c0ba
000001b0: 7868 69bb b5b3 84bb 73bd 0ebb 01fe a1ba
000001c0: e4aa 51bb e0d1 86bb c84b 3dba 14d6 a4ba
000001d0: 33c8 50bb 4307 a4ba 24a0 e0ba c89e f3b9
000001e0: 1264 31b8 3840 7aba 4a15 4fbb 94b9 b6ba
000001f0: 42a9 44ba acec 67bb 40bb 9fba f83c 19bb
00000200: 923a c7ba 008a 9eba 034d 8bba 52e1 403a
00000210: e072 f3ba 74aa c7ba e4e1 84ba b2b7 12bb
00000220: e5f2 d1ba 0cfd 19ba 918c 34bb 2a68 17bb
00000230: 1737 70bb a196 edba dbc8 dfba fa4d bcba
00000240: 6fcb b9ba 8c60 8bba 2814 05ba 0c92 2ebb
00000250: 5097 85ba 34bb 76ba 6c40 b4ba 6342 69ba
00000260: 5311 98ba 160e 6739 5214 eeb8 d441 09ba
00000270: f1ca 5fba 4eee 43bb 9889 2abb eea5 25bb
00000280: 1f20 a6b9 8e83 74ba b1e4 d2ba 9441 9dba
00000290: e6be fbba 7477 2fbb 6954 3c3a 1d18 13bb
000002a0: c5a2 2bbb 73d5 f2ba 93ed 49bb 0f87 0abb
000002b0: 0753 9bba e785 18bb 5cf8 a5ba 904e 84ba
000002c0: 4e32 c1ba 9a13 16bb 4c1b d3ba 5e67 e3ba
000002d0: 729f 0abb 7336 b2ba 4082 c9ba 1383 59ba
000002e0: 210d a3ba 4479 f2ba 3a11 08bb be6c 48ba
000002f0: d48d b0ba 5690 cbbb 926f c9ba 4d5e 94ba
00000300: 1fc2 e339 f021 42ba 1a3a 79ba 8900 bfba
00000310: b650 4dba e06a e237 8e63 0cbb 7b2f 27bb
00000320: cede f6ba 58c8 1bbb bda9 b1ba 3a50 99bb
00000330: 1181 e1ba d411 abba 8d86 1fbb 0875 f7ba
00000340: 5501 a1b9 9145 fdba 07a1 6fba 89d3 9fba
00000350: 0d15 1eba 6d63 67bb af86 22ba 35f3 0fbb
00000360: 7474 a0ba 4123 94ba 44be 93ba 8cd5 f7b9
00000370: fa58 9eba d530 41bb ac05 5dba 2132 40bb
00000380: aba0 a5ba 0394 40b8 8a1e 72ba 88f8 2ebb
00000390: c9f0 8ebb d9d6 ccba 5580 f7ba e757 3abb
000003a0: 2865 0fbb b3b9 0bb9 b95a c9b9 c874 83ba
000003b0: f1bf 31bb 8cff 4bbb f5fc ecba 10b2 9bba
000003c0: 1079 1ebb ae92 4fbb 9652 cfb9 ca84 9dba
000003d0: 0b34 27bb 2541 58ba bfc7 ccba 78e4 0fba
000003e0: 9afe 53b9 5b97 79ba 3c72 24bb 9d9a 78ba
000003f0: 074b 4eba 566a 47bb d3fd 5dba 2741 dfba
-0.0016530753 -0.0012835647 -0.0011046742 0.0010809834 -0.0023333014 -0.0016717 -0.0014792732 -0.0025448597
-0.0022093032 -0.0005008419 -0.0031593433 -0.0026343532 -0.004739233 -0.0020248538 -0.0018767151 -0.0020089832
-0.0019798735 -0.0010994017 -0.0004203179 -0.0030601888 -0.001493265 -0.0009493057 -0.0019333606 -0.0013435074
-0.00124313 0.0002324104 4.682905e-05 -0.00043701904 -0.0012981197 -0.0035012336 -0.0034444984 -0.002900879
-0.00017944087 -0.0009331926 -0.0022076052 -0.0017149878 -0.0021506785 -0.0035133949 0.0010716253 -0.0029978754
-0.0034531502 -0.0025029406 -0.0040139244 -0.002826796 -0.0016867293 -0.0030961814 -0.0013564136 -0.001174917
-0.001844704 -0.0030522652 -0.001776259 -0.001925762 -0.0028285673 -0.001918277 -0.0016801854 -0.0012608548
-0.0013267974 -0.0025053965 -0.0027827327 -0.0011755023 -0.0014329262 -0.00784641 -0.0021268988 -0.0011974467
0.0007398074 -0.0011537495 -0.00094858947 -0.0018886745 -0.0010421963 -1.9240428e-05 -0.0028757362 -0.0029336454
-0.0021046468 -0.0031574592 -0.0019002113 -0.0059780246 -0.001999021 -0.0018456393 -0.0032454429 -0.002569838
-0.00017700682 -0.0021572062 -0.0012169913 -0.0012901606 -0.000529305 -0.00457146 -0.0012734784 -0.0029370505
-0.0014854536 -0.0016297708 -0.0016364285 -0.000371674 -0.0012757722 -0.0034318543 -0.0012809123 -0.0038292932
-0.0017938695 0.00015339289 -0.001565674 -0.0035116177 -0.0055784485 -0.0017245756 -0.0021091544 -0.0037393542
-0.002918294 2.8081822e-05 -0.00026091613 -0.0014708076 -0.0035615247 -0.004049743 -0.00217804 -0.0012359024
-0.0031992728 -0.0041143745 -0.000722107 -0.0012576007 -0.003185761 -0.0012514371 -0.0017137569 -0.00046466873
-4.2293286e-05 -0.00095463125 -0.0031598383 -0.0013940805 -0.0007502028 -0.003538887 -0.0012186542 -0.0023382287
-0.001519995 -0.001209557 -0.001062781 0.0007357794 -0.0018573664 -0.0015233294 -0.0010138121 -0.0022387323
-0.0016017823 -0.0005874194 -0.0027549604 -0.0023102858 -0.003665393 -0.0018126556 -0.0017073409 -0.00143665
-0.0014175008 -0.0010633632 -0.0005076551 -0.0026637344 -0.0010192189 -0.0009412051 -0.0013752109 -0.0008898137
-0.0011601843 0.00022035124 -0.00011352509 -0.00052359444 -0.00085370155 -0.002989668 -0.0026021954 -0.0025275904
-0.0003168592 -0.00093274645 -0.0016089884 -0.0011997693 -0.0019206672 -0.002677408 0.0007184209 -0.0022444793
-0.0026189547 -0.0018526748 -0.0030811771 -0.002113763 -0.0011850306 -0.0023273171 -0.0012662518 -0.0010094214
-0.0014739723 -0.0022899867 -0.0016106158 -0.0017349531 -0.0021152166 -0.0013596549 -0.00153739 -0.00082974246
-0.0012439826 -0.0018499275 -0.002076222 -0.00076455984 -0.0013470002 -0.0062122745 -0.0015368334 -0.0011319608
0.00043441445 -0.000740557 -0.0009507254 -0.0014572303 -0.0007832156 2.6991067e-05 -0.0021421644 -0.0025510478
-0.0018834712 -0.0023770537 -0.0013554614 -0.004678753 -0.0017204602 -0.0013051578 -0.0024341673 -0.0018879483
-0.00030709305 -0.00193231 -0.00091411214 -0.001219378 -0.00060303585 -0.0035307065 -0.0006199879 -0.002196503
-0.0012241737 -0.001130201 -0.0011271914 -0.00047270616 -0.001208096 -0.002947857 -0.0008431326 -0.0029326754
-0.0012636384 -4.5914214e-05 -0.0009236118 -0.002669843 -0.0043622 -0.0015627994 -0.001888285 -0.0028433742
-0.0021880362 -0.00013325251 -0.000384053 -0.001002931 -0.0027122463 -0.003112766 -0.0018080758 -0.0011878628
-0.0024181046 -0.0031673121 -0.00039543648 -0.0012017724 -0.0025513198 -0.00082494534 -0.0015623494 -0.00054890616
-0.00020217375 -0.000952115 -0.0025092503 -0.00094834884 -0.00078694563 -0.0030428371 -0.0008468304 -0.0017032967
