our-vTR/10_fold_lightning_logs/dataset1/fold_1/version_0/checkpoints/epoch=29-step=1049_fold1.ckpt (torch, 132433 bytes, 18 tensors)

conv1d.weight f4 [128, 4, 12]
00000000: 0452 be3c b62f a3bc b727 48be b435 273e
00000010: a3b8 6e3d 38b4 e8bc 63ec 763d 7c4f 80be
00000020: 837d 14be d592 533d c15c a43b d52c 2bbe
00000030: ee90 323d 925a 6dbd 948b 55be 1dbd f93b
00000040: f36b babc b35c 21bd d9aa 04be 3380 21be
00000050: 0493 2e3e b7a7 88be 5bf3 c8bd bba3 1abe
00000060: 6675 a0be 8820 983c 4d13 eb3d b3ea 17be
00000070: bf11 e3bd 4af7 19be 5823 1f3d 149e 1d3e
00000080: c3ad 05be 62b8 33be b249 fbbc 56a0 503c
00000090: c82e ca3d da69 96be 9ce4 3ebe c146 68be
000000a0: de91 03be 4b37 983d 2c19 74bd 6665 60be
000000b0: 0a1e 053e 451c 3a3d 72eb 2d3d a82c d3bc
000000c0: 572a 20be c988 cd3d 89a5 e1be 3751 11be
000000d0: 4fdd acbe 57e4 f43d dece d03d f523 08be
000000e0: 185c 92be b0ed 8abe 5680 86be 930b 60be
000000f0: b8c8 123e 0d5b 133d 9dc7 56be f844 0dbe
00000100: a797 debd 4868 7bbe 127a 46bd a145 023e
00000110: 70a2 993d 858f 233e 168b 733c 16f8 3abc
00000120: e2e5 1b3d 289d af3d e58e 203e a633 403e
00000130: 5c36 583d 3323 1b3e b441 bcbe 3ba2 73be
00000140: 3729 75be bbfe 84be cb52 e9bc 35d1 4a3e
00000150: 931b cebb 9b6d 513d 3cec c6be e24b bdbd
00000160: 20c3 12be 982d 2e3c ade6 843d 6b26 0c3c
00000170: 2f72 2a3e b094 5ebe d350 043d cd70 1abe
00000180: ae97 aebd 0be3 cbbd 4e2e a63d 60ec 54be
00000190: 8ee9 3f3e 20c2 063e 6614 64be 2aa8 2fbe
000001a0: 90b7 c13d 7cca 98be a7ec 0abe 23eb 30be
000001b0: 8a82 84be c4e3 223c a0a9 83bd f530 35be
000001c0: 5bb9 79bd e45c d63d 19c4 94bd 118b 24be
000001d0: 366e fcbd 6119 4ebd 13c5 80be d721 ebbd
000001e0: 29cc ef3d 4c96 973d 5768 97bd a389 1d3e
000001f0: 0913 673d ffb9 173d 3acc 8dbe 1410 973d
00000200: ee74 0c3d e9d5 cc3d c732 83be ce97 793e
00000210: 6729 b3bc ef59 ddbd 95e9 c83d a3af a4bc
00000220: 5d39 b93d c797 4abe 2c3f 0a3e 5017 eb3c
00000230: 7bae 073e 092c 8abe 2cf1 433e 5493 95bc
00000240: 53f4 2fbe 0aba 02bd 5099 3e3e 1dc7 9b3d
00000250: eed6 3a3e 5822 9fbe e302 0abe 4d12 2fbe
00000260: 6a19 82be ef95 97be 8f4c a63d cef0 6f3c
00000270: f29b 943d f32b d7bc 6502 23be 227d 263d
00000280: 2422 b1be 9f78 6d3e 9ea4 fa3c 9e34 ca3d
00000290: 4823 9bbe d919 bebd fda0 aabe 3e2b eebd
000002a0: 96ce dfbc 0e78 053e e682 783c 712a 68be
000002b0: d139 c7be 66e3 0cbe add8 7bbe 1a2b 23be
000002c0: b281 e1be df15 09be c864 0a3e 9c5a dfbc
000002d0: 2860 febd a494 3f3d cf9d 69be 975a 2bbd
000002e0: c872 49be 97af 92be ca3b bf3d 0868 0ebe
000002f0: 15ef 713e 6a71 ae3d 66dd 7a3d 717b dbbd
00000300: 2630 ffbd dcf0 5f3c 9508 863d 7b3a 26be
00000310: 2edb 0d3e 0359 4f3d 3e79 153e 84fd e1bd
00000320: e32b f63c 9f2d 59bb b678 97be ed7c f1bd
00000330: 62d6 253e c287 0cbd aac5 1ebe 9ff7 ddbc
00000340: 3afd 38be f24e 75bd 5483 8abe ac7f 293e
00000350: dc04 623e 8efa ce3d 72d2 d63d 8beb d0bc
00000360: e21b 13be 123b e0bd 3197 073d 033a 583e
00000370: 5963 133e 17bb 343e 3e23 2ebe 1a4e 74bd
00000380: e9d7 b5be aaaa 04be e040 58bd 3560 c83d
00000390: f759 15be c766 9fbe 0867 84be c664 a03c
000003a0: 8734 d5bd 525b 8fbe e9ed 6fbe 6833 6bbe
000003b0: 4e86 50bd d6d7 20be dda3 26be 7938 383e
000003c0: 495b 303e bdf2 03be 5067 97bc 0901 84bd
000003d0: cb7f c5bd d370 b03d 89a0 d8bd 2cb9 25bc
000003e0: d16e 0e3e 2ecc 283d 545d b03c 2757 3a3e
000003f0: ed61 69bd f780 1c3b 69ec 2a3e 9be5 0b3e
0.023232467 -0.019920211 -0.195464 0.1632908 0.058281552 -0.028406247 0.06028403 -0.25060642
-0.14501004 0.0516537 0.00501594 -0.16716321 0.043595247 -0.057947703 -0.20854026 0.007621421
-0.022756552 -0.039395045 -0.12955798 -0.1577156 0.1704827 -0.26690456 -0.09812041 -0.1510152
-0.31339568 0.0185702 0.11478291 -0.14835624 -0.11087369 -0.1503574 0.038852066 0.15392333
-0.13054566 -0.17550805 -0.03067479 0.01273354 0.09872204 -0.29377633 -0.18641895 -0.2268324
-0.12848613 0.07432421 -0.05959432 -0.2191368 0.1299974 0.045437116 0.042460866 -0.02577813
-0.15641151 0.10035855 -0.44071606 -0.14191137 -0.33762595 0.11957615 0.10195707 -0.13294967
-0.28585887 -0.27134466 -0.26269788 -0.21879415 0.1433438 0.035975505 -0.20974584 -0.1379584
-0.10868769 -0.24551499 -0.04845626 0.12721874 0.075016856 0.15972717 0.014864704 -0.011411687
0.03806103 0.08574897 0.1567951 0.18769702 0.052786216 0.15150146 -0.36768878 -0.23792355
-0.23941503 -0.25975594 -0.028481862 0.19806369 -0.006289908 0.05112992 -0.38852108 -0.09242989
-0.14332247 0.010630988 0.064893104 0.008554081 0.1664512 -0.21736407 0.032303642 -0.15082093
-0.08525024 -0.099554144 0.08114301 -0.20793295 0.18741438 0.1315999 -0.22273406 -0.17153993
0.0945884 -0.29841983 -0.13566838 -0.17277198 -0.25880843 0.009941999 -0.06428838 -0.17694457
-0.060967784 0.10466936 -0.07263965 -0.16068675 -0.123257086 -0.050317172 -0.25150356 -0.11481064
0.11708862 0.07401714 -0.07392948 0.15384535 0.056414638 0.037042614 -0.27694875 0.073761135
0.0342912 0.100017376 -0.25624678 0.24374315 -0.021870328 -0.10808169 0.09810177 -0.020103281
0.09044144 -0.19784461 0.1350066 0.02869764 0.13250153 -0.2698672 0.19134969 -0.018258728
-0.17183046 -0.031915702 0.18613172 0.07606337 0.18246052 -0.3108089 -0.13477664 -0.17096825
-0.25410014 -0.29606578 0.08120071 0.014644815 0.07256307 -0.026266074 -0.15918882 0.04064668
-0.3459636 0.23190545 0.030596074 0.09873317 -0.30300355 -0.09282274 -0.3332595 -0.116293415
-0.027320188 0.13034078 0.015167927 -0.2267244 -0.38911298 -0.1375862 -0.24594374 -0.1593441
-0.44044262 -0.1338725 0.13515007 -0.027264886 -0.12420684 0.046772614 -0.22814105 -0.04183444
-0.19672692 -0.2864959 0.09337576 -0.13906872 0.23626359 0.08517726 0.0612463 -0.10716904
-0.124603555 0.013668265 0.06544606 -0.16233246 0.13853142 0.050621998 0.14597031 -0.110346824
0.030050224 -0.0033138765 -0.29584283 -0.11791406 0.16195062 -0.034309156 -0.1550509 -0.027095614
-0.18065348 -0.05988974 -0.2705332 0.16552609 0.22072166 0.10106383 0.10489358 -0.02550294
-0.14366105 -0.10948767 0.03310317 0.2111588 0.14393367 0.17649494 -0.17005631 -0.059644796
-0.3551629 -0.12955728 -0.052796245 0.09783975 -0.145851 -0.311331 -0.25859857 0.019579303
-0.104104094 -0.2799936 -0.234306 -0.22968829 -0.050909333 -0.15707335 -0.16273446 0.17990293
0.17222323 -0.12885566 -0.01848188 -0.0644551 -0.09643515 0.086152695 -0.10577495 -0.010114949
0.1390946 0.041210346 0.021528877 0.18197308 -0.056978155 0.002388058 0.16691746 0.13661806

conv1d.bias f4 [128]
00000000: 8f24 22be 9cb9 3dbd 2706 89bd 8bc1 983c
00000010: ccfe 19bd c405 003c 193f d6bd 20c1 cc3d
00000020: 4bdf 143d 3f41 b2bc 355b c239 34d1 c5bb
00000030: 96f1 093e eb06 d3bc a371 8c3d 3d2c 583c
00000040: 5802 863d 83c9 c93d bd44 8ebd 971a babd
00000050: 690a 02be 6802 edbd bbe6 02be dfcb c93d
00000060: 371b 05bd 11e7 fdbd f40c 1fbe cd06 6c3c
00000070: 8b15 a53d bfad 17be 6f88 fdbd 286d 3dbd
00000080: ceb1 26be 9f9b 82bd 6591 633d aaae 1fbe
00000090: 379b 6dbd 1055 f9bd 3f8e 2d3d 4030 4c3d
000000a0: 5f04 a83c ac6a d1bd 4137 9abd 26a8 733d
000000b0: 39d7 cbbd 03a2 69bc b8ba 7bbd 1e46 113e
000000c0: 3814 85bd 30f1 b9bb 641e a73c 7d9e 1ebe
000000d0: 2064 c5bd 8909 de3c f453 143d 397f 1fbd
000000e0: 2337 86bd f526 babd 6a19 27bc eabc ea3d
000000f0: 5750 943d f378 84bc f963 4d3d 175c 03be
00000100: 97a0 bcbd 50b5 b4bd 187e 97bd 4cfd 5e3d
00000110: 5af7 0ebe b2d6 e03b affd 26bc df8e 17be
00000120: c41c ca3d ef47 1fbe e714 9d3d cf1d 57bd
00000130: 27e8 5cbd 30e9 5cb9 b53a 1abd 6561 fb3c
00000140: d3ac 20be 440f f4bc 3bf9 723c 4510 ab3d
00000150: 2ae1 acbc 2699 d83d a8c6 b6bb 3271 813c
00000160: fa63 03be 967a 4fbd f9d9 74bc 5443 f4bd
00000170: 0ddc 09be 17ab 0e3d b40d 63bd e48f 2cbe
00000180: a190 44bd 14cb 6cbd 9e38 61bd 7c63 423d
00000190: a660 30bd 81ad 2c3c a20e b33d 5be8 8abd
000001a0: 4873 913c b652 87bd 4619 813d 1cc3 803d
000001b0: c044 f2bd 27c0 18bd 497b 81bc 61bf 89bd
000001c0: b991 e8bd 78d0 eb3d e53f 3fbd 1cbb 65bd
000001d0: 4723 90bc 255b 4a3d 6862 a63d 81fe 13be
000001e0: 33b2 98bd 4eb5 b13d 4518 ddbd 2992 093e
000001f0: c660 e7bc 0004 28be ddaf 073e 0050 7abb
-0.15834258 -0.04631959 -0.066906266 0.018646976 -0.03759651 0.007813875 -0.10461254 0.09997773
0.03634576 -0.021759627 0.00037070518 -0.006036902 0.13471064 -0.025760135 0.06857612 0.013194141
0.06543416 0.098528884 -0.069467045 -0.09087103 -0.12699284 -0.115727246 -0.12783329 0.098533385
-0.032496657 -0.12397588 -0.15532285 0.014405918 0.080607496 -0.14812373 -0.12379538 -0.046246678
-0.16278765 -0.063773386 0.05555858 -0.15593973 -0.058009353 -0.121744275 0.042371985 0.049850702
0.020509897 -0.10225424 -0.0753007 0.05948653 -0.0995316 -0.014259818 -0.061457366 0.14186904
-0.06497997 -0.0056745037 0.020400234 -0.15490146 -0.09638238 0.027104156 0.036212876 -0.03893969
-0.06553485 -0.09089462 -0.01019893 0.11461814 0.07241886 -0.016170954 0.05014417 -0.12828098
-0.092103176 -0.08823645 -0.07397097 0.05444078 -0.13961545 0.006861531 -0.010192319 -0.14800595
0.09868768 -0.15554784 0.076700024 -0.052518662 -0.053932335 -0.00021067704 -0.037653644 0.03068609
-0.15690927 -0.029792435 0.014829929 0.083527125 -0.02110346 0.10576086 -0.005577881 0.015801046
-0.12831107 -0.050654016 -0.014944547 -0.11926904 -0.13462849 0.034831133 -0.05543299 -0.16851765
-0.04798949 -0.057810858 -0.054985635 0.047458157 -0.04306092 0.010539413 0.08743025 -0.067825995
0.017755166 -0.06607573 0.06303649 0.06287214 -0.11829519 -0.037292626 -0.015805857 -0.06725956
-0.113559194 0.11514372 -0.046691794 -0.056086645 -0.017594947 0.04940333 0.08124238 -0.14452554
-0.07455864 0.08677159 -0.10795645 0.13434662 -0.028244387 -0.16407776 0.1325068 -0.0038194656

linears.0.weight f4 [32, 128]
00000000: f3bf 2db7 84a4 2739 af1f 1e38 0ab2 32b8
00000010: adcc 2837 1b80 00b9 9bcb 89b7 f629 3139
00000020: 6a9b c439 394f d839 6409 9bb7 8072 35b9
00000030: 6ea8 4b38 858b 9a39 0264 93b8 b1f2 1439
00000040: f276 ce37 37b8 4338 5b65 c1b8 4c3c d038
00000050: b1b3 2eb8 7e01 17b9 d534 d8b9 f3f8 20b9
00000060: d3f4 03b8 f730 0a39 61f3 05b9 588b 82b8
00000070: 8663 0f37 c088 2eb7 1a47 32b8 b750 7039
00000080: bdd7 4038 01e9 0237 7a02 dbb8 474a abb8
00000090: 236b 2139 4e37 9638 019b 5538 38a5 82b8
000000a0: f9e7 98b8 4a0f eb35 3b33 2db9 14bf ecb8
000000b0: e8a4 3038 37df 9239 872f 40b8 9800 5fb8
000000c0: cb78 95b8 18d4 83b8 6d8e 7c39 b155 1638
000000d0: 4d3a bbb6 cac1 d638 9069 be38 ca9d 5f38
000000e0: 9e59 0ab9 ac62 e1b8 013c 1138 5f77 6137
000000f0: 6c0b bf39 ca4e dbb7 fa0a 09b9 0dda bb38
00000100: 2dba c438 b5cf e8b7 1dbb f4b8 c301 47b9
00000110: 6d5c edb8 0d76 b6b8 31f8 1db8 545f 99b8
00000120: 30aa d638 a123 9837 f4dd e1b7 1995 8cb9
00000130: 3622 8f39 3333 8838 f7ec 2db8 4278 a6b8
00000140: 74c6 e138 b4b5 2d39 e7c1 3eb8 4010 0a39
00000150: b773 3db9 1ead 0f39 fe4c e4b8 3ae6 8eb8
00000160: 7cd3 6e39 5226 0537 b9e9 3838 f0f5 09b9
00000170: dc5c 0039 64f1 3238 75c2 9139 b622 85b9
00000180: c308 24b5 7fad 9eb7 ff0d d7b7 ee37 57b8
00000190: e7d5 6039 f5dd a0b8 2a67 81b9 d4ba d1b7
000001a0: d3bb 3039 8b41 42b8 d6f0 92b8 4478 38b9
000001b0: 5eaa 88b9 5b88 0e37 7e5a 24b9 80e0 1ab9
000001c0: f440 4fb9 8ca1 0139 045a a7b9 4c78 81b8
000001d0: 7bc3 45b8 2ac8 f1b7 a88e e6b8 35e0 1cb9
000001e0: 23fa 2939 1db9 3339 2072 6c37 b35d b1b8
000001f0: 7bd1 24b9 b281 35b7 5cd7 0639 aaac ab39
00000200: 5dd8 3339 9f0f 3637 639a aa38 5f0b 03b8
00000210: a4be 62b9 9a91 7237 a950 3c39 bed3 50b9
00000220: 47ed fd37 033c b239 b98b d8b8 a798 d6b8
00000230: 42b8 1d39 00e2 8cb8 8521 8837 8adb 4db9
00000240: 3d80 5038 7322 b1b9 ad35 7538 e835 81b8
00000250: 1f33 4039 873b 6a37 e090 b9b8 09d9 fc38
00000260: 794f 0bb8 06f1 ef37 9477 80b8 aaeb 9ab7
00000270: b2e4 a9b7 b8a9 da38 0ab9 e0b7 370f abb9
00000280: e68d a1b8 384c 8e37 7df6 20b8 8115 4438
00000290: a7da 5eb9 a7d6 f138 1832 70b9 d695 7537
000002a0: ada1 1539 1367 7b37 576e 1f38 cc74 d337
000002b0: 3009 3cb9 0f0d 7938 5a38 f838 0581 1d38
000002c0: a4ab 14b8 757e 1939 b447 8238 35f1 dcb8
000002d0: e93f 5339 66a8 d9b8 2ea1 8838 213b bd37
000002e0: 9cae d7b9 9a74 2138 fb90 5139 a531 4f39
000002f0: efcb 60b9 4b7c c239 8071 a738 cbcd 8c36
00000300: b54f 9db9 2368 71b8 4751 2cb9 d043 0fb5
00000310: a231 5639 5376 17b9 37fe bf38 893d 52b8
00000320: 7b10 6db8 4438 b638 bc49 55b8 4886 6f39
00000330: da80 be38 6d64 12b9 7b43 3639 fef5 4eb8
00000340: 1fca 1a37 e41b 83b9 845b 0c37 2bb6 0cb8
00000350: 0738 97b9 2517 4938 0b5a 5eb8 a585 8638
00000360: 8745 8a38 e240 6e39 f009 f4b8 6f36 43b8
00000370: 4f37 0539 fcd7 2739 c2d5 8437 d023 5d37
00000380: 9784 1f39 c033 6e38 0dce 6438 83cc c638
00000390: 0430 8237 027f 26b8 886a cbb8 e8f4 7639
000003a0: 42ce 3a38 0fd2 1bb8 bb04 97b9 7634 9db9
000003b0: aef5 a9b8 0d76 ad38 47ba fd38 6ec2 8f38
000003c0: 6751 ebb8 c253 f9b8 584b 04b9 4e33 1db8
000003d0: 17f6 b339 b5a9 6739 7175 15b8 6355 b7b8
000003e0: 08ae 2039 bcde 9637 7389 0db9 367d f5b8
000003f0: c10c 9db9 d362 5ab8 6954 09b9 4a3d d038
-1.0356295e-05 0.00015987648 3.7699643e-05 -4.260432e-05 1.0061235e-05 -0.00012254754 -1.6426484e-05 0.00016895667
0.00037499826 0.00041257756 -1.8481813e-05 -0.0001730416 4.8555834e-05 0.0002947712 -7.028134e-05 0.0001420479
2.4612502e-05 4.6663186e-05 -9.221836e-05 9.929444e-05 -4.1652183e-05 -0.00014401038 -0.00041238093 -0.0001535153
-3.1460844e-05 0.00013178946 -0.00012774534 -6.224838e-05 8.546636e-06 -1.0403048e-05 -4.2504726e-05 0.00022918252
4.597729e-05 7.802854e-06 -0.00010443195 -8.167751e-05 0.00015394068 7.162859e-05 5.0927516e-05 -6.2296574e-05
-7.291133e-05 1.7513314e-06 -0.0001651765 -0.00011288948 4.211525e-05 0.00028013598 -4.582063e-05 -5.3167896e-05
-7.127373e-05 -6.286072e-05 0.0002408565 3.5842593e-05 -5.5798214e-06 0.00010240411 9.0795686e-05 5.3314296e-05
-0.0001319409 -0.00010747215 3.4626577e-05 1.3438838e-05 0.0003643887 -2.6143523e-05 -0.00013069427 8.95747e-05
9.380686e-05 -2.7753276e-05 -0.00011669679 -0.00018978775 -0.00011318256 -8.700425e-05 -3.7662863e-05 -7.313365e-05
0.00010236015 1.8136403e-05 -2.6925445e-05 -0.00026813967 0.00027300575 6.494522e-05 -4.1467105e-05 -7.9378966e-05
0.00010765801 0.00016566255 -4.5480116e-05 0.00013166759 -0.00018067552 0.00013702034 -0.00010886228 -6.813971e-05
0.00022776233 7.93634e-06 4.408669e-05 -0.00013156957 0.00012241624 4.266332e-05 0.00027801437 -0.00025393598
-6.110751e-07 -1.8915858e-05 -2.5636515e-05 -5.1312083e-05 0.0002144199 -7.670737e-05 -0.0002468166 -2.500174e-05
0.00016854638 -4.6314246e-05 -7.006682e-05 -0.0001759241 -0.00026066875 8.495607e-06 -0.0001567397 -0.00014770217
-0.00019765255 0.0001236258 -0.0003191979 -6.1736064e-05 -4.7150515e-05 -2.8822647e-05 -0.000109938264 -0.00014960843
0.00016210279 0.0001713973 1.4093268e-05 -8.4574705e-05 -0.00015718296 -1.0818638e-05 0.00012859463 0.00032744306
0.00017151372 1.0851682e-05 8.1349885e-05 -3.1243424e-05 -0.00021624059 1.44582245e-05 0.00017959125 -0.00019915306
3.0270441e-05 0.00033995518 -0.00010325708 -0.00010232749 0.00015041328 -6.717816e-05 1.6228072e-05 -0.00019632108
4.9710496e-05 -0.00033785737 5.846254e-05 -6.16124e-05 0.00018329591 1.3961347e-05 -8.8484725e-05 0.00012056722
-3.3214197e-05 2.8603255e-05 -6.125789e-05 -1.846797e-05 -2.0252864e-05 0.000104266626 -2.6789046e-05 -0.00032626998
-7.703509e-05 1.6963211e-05 -3.8376533e-05 4.675007e-05 -0.00021253024 0.000115317576 -0.00022906845 1.4638024e-05
0.00014269976 1.4984765e-05 3.8011316e-05 2.5207548e-05 -0.000179325 5.9378388e-05 0.00011836058 3.7551876e-05
-3.5445802e-05 0.00014638326 6.212239e-05 -0.00010535346 0.00020146336 -0.00010378733 6.5150074e-05 2.255809e-05
-0.0004113809 3.8493985e-05 0.00019985803 0.00019759552 -0.00021438276 0.0003709517 7.9843216e-05 4.1962826e-06
-0.0003000476 -5.7555862e-05 -0.00016433476 -5.337033e-07 0.0002042712 -0.00014444561 9.154941e-05 -5.012521e-05
-5.6520552e-05 8.6889166e-05 -5.0851828e-05 0.0002284284 9.0839065e-05 -0.00013961057 0.00017382011 -4.9343325e-05
9.226175e-06 -0.00025007047 8.365958e-06 -3.354826e-05 -0.00028842708 4.794369e-05 -5.3012784e-05 6.414511e-05
6.593303e-05 0.0002272162 -0.00011636678 -4.6542318e-05 0.00012704472 0.00016006822 1.5835165e-05 1.3180965e-05
0.00015212815 5.6791818e-05 5.4551336e-05 9.479469e-05 1.5519567e-05 -3.969577e-05 -9.699637e-05 0.00023551623
4.453795e-05 -3.7150512e-05 -0.0002880449 -0.0002998446 -8.1043094e-05 8.2712715e-05 0.00012098677 6.854987e-05
-0.000112208356 -0.00011888846 -0.00012616569 -3.7479498e-05 0.00034324892 0.00022093098 -3.5633744e-05 -8.7420245e-05
0.00015323621 1.7985112e-05 -0.00013498012 -0.00011705833 -0.00029954876 -5.2067287e-05 -0.00013096783 9.929629e-05

linears.0.bias f4 [32]
00000000: 9bb2 3538 73cc ab38 dc76 57b8 4a73 4837
00000010: 588b 0d39 ff73 beb7 3876 7e38 f804 1fb9
00000020: 5fed 0ab6 509e 15b6 f655 feb8 2ea0 f039
00000030: ab91 473d 3018 1039 8e3a c238 04ed 2db8
00000040: a7b9 0eb9 3f58 d6b8 7cb9 82b8 d22d c938
00000050: 76db 453c 9d0d 6db8 5955 aab8 3418 1f3d
00000060: b534 ad37 8394 7ab8 7014 343d 14c3 9639
00000070: be76 8338 34b6 0fb9 12f5 7f38 57ef 6638
4.3320102e-05 8.191997e-05 -5.137069e-05 1.1947772e-05 0.00013498717 -2.270378e-05 6.066842e-05 -0.00015165273
-2.070177e-06 -2.229488e-06 -0.00012127675 0.0004589571 0.048722904 0.0001374192 9.2615475e-05 -4.1467152e-05
-0.00013611336 -0.00010220752 -6.233432e-05 9.5929616e-05 0.012076249 -5.651788e-05 -8.122129e-05 0.03884144
2.064775e-05 -5.9742957e-05 0.043964803 0.00028755574 6.268684e-05 -0.00013705419 6.1024977e-05 5.5059176e-05

linears.2.weight f4 [2, 32]
00000000: ffbf 3f38 aa6b 0237 4fef bab8 32f2 3eb9
00000010: 34c8 8e37 972b 0fbf d16c 96b8 7e18 46b6
00000020: 0fd2 b5b8 96cb 56b8 fbe0 513e c15a 11bf
00000030: c86e 953e f327 04bd b290 a5b8 0b51 7f3e
00000040: ae66 c2b7 e136 36b9 0903 803e 19d8 b1b5
00000050: 4565 10bf 66c6 1636 33a1 12b8 0fe1 c83e
00000060: 8d68 2db8 d450 9b38 d7ed f7be f1aa 91b6
00000070: 2294 98b7 996f bf39 e6fa ebbe 1c12 70b9
00000080: 3d12 9e38 e7f2 bbb8 f0e6 c5b7 4d10 8d38
00000090: e4e6 c1b8 91f1 fa3e 1988 3239 df8c 04b9
000000a0: 6ab3 e238 ac05 ddb8 3b44 27be 3302 1d3f
000000b0: 79f7 fdbe 3b87 e6bc 1170 c038 6a8b fbbd
000000c0: b286 f3b8 1382 3139 1b0f 5dbe 542c bbb5
000000d0: a8e8 fc3e 0677 1638 cab9 a0b9 3722 59be
000000e0: ca77 f537 9efd a8b8 4f77 1b3f 90db 1439
000000f0: d6b7 ed37 5b2a 0a39 258c 7f3e a3f3 9537
4.571676e-05 7.773671e-06 -8.913746e-05 -0.00018210037 1.7020946e-05 -0.5592589 -7.172826e-05 -2.9518555e-06
-8.669879e-05 -5.121118e-05 0.2049598 -0.56779104 0.29186082 -0.03226466 -7.894765e-05 0.24933259
-2.3174416e-05 -0.00017377317 0.25002316 -1.325042e-06 -0.56404525 2.2467225e-06 -3.495924e-05 0.39234206
-4.1343785e-05 7.406031e-05 -0.48423645 -4.341237e-06 -1.8188792e-05 0.00036513506 -0.46089858 -0.0002289493
7.537424e-05 -8.962099e-05 -2.3591769e-05 6.72644e-05 -9.245964e-05 0.49012426 0.00017026103 -0.0001264098
0.00010809938 -0.00010539158 -0.16334622 0.6133148 -0.4960287 -0.028140655 9.1761474e-05 -0.122824505
-0.00011612232 0.00016928492 -0.21587794 -1.3945487e-06 0.49396253 3.5873636e-05 -0.00030656002 -0.21204458
2.9262057e-05 -8.058104e-05 0.60728925 0.00014196173 2.8338207e-05 0.00013176484 0.24955805 1.7875636e-05

linears.2.bias f4 [2]
00000000: ae71 53bb 3425 c33c
-0.0032263803 0.02382145

exp_avg f4 [128, 4, 12]
00000000: cd94 1939 4718 e33a 7ab0 4439 fec3 e939
00000010: 7e1b d9b7 b1df d1ba acdb e03a c9b5 6ab8
00000020: 2e13 8039 620f 1fba 2533 813a 4470 b1b9
00000030: 4754 20ba 3580 29ba 90d0 0539 03d9 0dba
00000040: 2bcb cc39 2f22 a7b9 6a45 0439 7dbb 44b9
00000050: 7863 86ba 3626 ceb8 fef0 7bb9 9852 7a39
00000060: bb60 de38 811f 95ba 0ac6 eab9 1289 a236
00000070: 430c aeb9 d167 95b9 81e8 edba 42b7 a939
00000080: d243 12b7 865e a5b9 e8ff afb9 4172 b2ba
00000090: 94cf a039 6b3e 4437 6728 c238 8448 9b38
000000a0: 964f 41b9 6021 023b 0626 7cb9 f602 29b9
000000b0: e23a 3e3a 9bc1 7e3a 2a4e 42b9 f03e cf3a
000000c0: 187f c839 30cc 203b c08a b238 e4ed fe39
000000d0: 3094 463a 5cc6 533b d703 e33a b5e8 2337
000000e0: cb4e 6539 2b25 bc39 d0e5 e039 71c3 2ab9
000000f0: 480c cb39 b06b 95bb ec3b 0b3a f439 a63a
00000100: e592 123b 3f0c 1e3a 2e39 0f3b b682 6b3b
00000110: 8a34 c03a 43e2 32ba c76c 283b bbef 0d3b
00000120: 479d 323b 674d 9f39 b1b7 6db8 d16b 0abb
00000130: 3ca5 33bb b127 43bb 45ba 5d39 af1d f139
00000140: 3670 b7b8 afeb 0f39 97a5 6dbb a976 0ebb
00000150: 8d86 45bb aea9 153b 4189 a4b8 07e5 5b3a
00000160: 4657 6f39 a9cc c4b9 e8a8 72bb 1f52 72bb
00000170: 6bac acba 6e4d 233a 0e41 973a 9067 493a
00000180: ed99 183a 9159 063a 38ef c13a 2121 3b39
00000190: 3b4a 5f3b 9ece c03a c00a a23a f6a3 e2b9
000001a0: 2f76 233a 1f11 08b9 6d3d 0639 b607 b538
000001b0: 5420 e039 e7a3 57bb 4d50 fbb9 de0c 103a
000001c0: 39b0 093b 5098 263b 3c49 863a 75f0 b43a
000001d0: db18 6d3a 2153 7abb 6547 48b6 f269 5a3a
000001e0: 3748 543b 0099 c03a df91 9e39 23e6 2f3b
000001f0: b750 afba 1117 68bb 8535 fc38 6a39 533b
00000200: d8b1 ab39 765d 623b 4406 9937 f5e8 a7ba
00000210: a83d 7dbb 2dec dd3a e5aa 70ba 5866 46bb
00000220: 011d 78bb 4a6f b6b8 96d6 02bb 6e28 78bb
00000230: 2427 c1ba 7682 2a3a f824 6db9 b928 8a39
00000240: 9b2a 343a ab80 80ba 7d33 59ba bdba 91bb
00000250: 921e 0cba 2e0a 4b3a 15b5 363b c346 d839
00000260: d2ac 7538 b14d f939 6514 58bb 1c66 073a
00000270: 64df b3b9 6581 73bb fe68 67b9 47d5 8f3b
00000280: 2e54 8038 11e9 be3b 8469 4dbb 11bd 8dbb
00000290: 8c05 d139 694b 99bb 828d 0439 9d10 973a
000002a0: 9ad9 5e39 214b bb3b da54 fa3a ac27 caba
000002b0: 47b5 683a f80a d5bb 71fd a13a 85b9 f63a
000002c0: da59 6039 dd22 a33a b462 10bb e25b 253a
000002d0: d3c7 b438 714e c6b9 68c4 65b9 f12b 103b
000002e0: 8fcb 4139 5e07 003a ca34 12ba 3d3b cd3a
000002f0: 3173 b7ba a4ee ea3a b3f1 8d3b f571 81bb
00000300: 634b 313b 5978 a23b 5548 86bb c128 453a
00000310: be20 65bb d3ef 983a b7c8 c6ba aa8f 283a
00000320: a196 dd3a 7c54 9c3a 7d38 733a 64b9 5a39
00000330: 5f29 30bb c825 10b9 7fd6 8eba 311f 8dba
00000340: 87b4 41b9 bb3c 7f3a 594b 1a39 48f1 cdba
00000350: 27ef 19bb 3181 3638 f3bb 133b 507c b83a
00000360: dddf 1b39 3fcd a5bb 7828 9f3b 707f ae3a
00000370: 114d 6a3b b8dd b4ba 81b3 983a 8787 a43a
00000380: 5fcf 0339 76f0 c3ba eedf 83bb f875 3a3a
00000390: 56e6 cb39 ce23 503a 191f 683a 47ec ecb9
000003a0: fa2e 2d3a bcc3 57b9 3937 2a3a b598 e538
000003b0: d99b 763a dafd 093a aa78 833a e396 1bbb
000003c0: 5b85 003a dec1 54ba 7b7b 293a 73d5 9aba
000003d0: 0fc4 8639 2ab9 86ba e523 0b3a c331 b1ba
000003e0: 678a a33b ebff 883b 67b0 edba 2261 de3a
000003f0: 6dd2 22bb dbef ebba 6520 0c3a 5c4f 97bb
0.0001464665 0.0017325961 0.00018757759 0.0004458725 -2.5881218e-05 -0.00160121 0.0017155311 -5.5959248e-05
0.00024428352 -0.0006067661 0.0009857161 -0.00033843715 -0.0006116074 -0.0006465943 0.00012761564 -0.00054110604
0.00039061284 -0.0003187819 0.0001261436 -0.00018761861 -0.0010253033 -9.829963e-05 -0.00024027002 0.00023872626
0.000106038024 -0.0011377187 -0.0004477951 4.8439333e-06 -0.00033197002 -0.00028496844 -0.0018150957 0.0003237073
-8.718069e-06 -0.00031541678 -0.00033569266 -0.0013614373 0.00030672236 1.1697043e-05 9.2581664e-05 7.404483e-05
-0.00018435562 0.0019856319 -0.00024046758 -0.00016118199 0.0007256699 0.00097181805 -0.000185304 0.0015811604
0.00038241665 0.0024535768 8.5135456e-05 0.00048623898 0.0007575182 0.0032314276 0.001731987 9.769738e-06
0.00021868495 0.00035885847 0.00042895833 -0.00016285271 0.00038728327 -0.0045599565 0.0005311358 0.0012682066
0.0022365388 0.00060290465 0.002185415 0.0035936064 0.0014664095 -0.0006823877 0.0025699602 0.0021657783
0.002725439 0.00030384513 -5.667628e-05 -0.0021121392 -0.002741172 -0.0029778297 0.00021145593 0.00045989218
-8.747021e-05 0.00013725342 -0.003626203 -0.0021738207 -0.0030140013 0.0022836733 -7.845695e-05 0.0008388315
0.00022825328 -0.00037536517 -0.0037026946 -0.0036975218 -0.0013173943 0.00062294945 0.0011539774 0.00076829735
0.00058212766 0.0005125041 0.0014796024 0.00017846051 0.0034071344 0.0014710014 0.0012362823 -0.0004322824
0.0006235567 -0.00012976349 0.00012802119 8.632189e-05 0.00042748696 -0.003290409 -0.0004793428 0.00054950814
0.0021009578 0.0025420375 0.0010245214 0.0013804572 0.0009044536 -0.0038196521 -2.984388e-06 0.0008331827
0.0032391676 0.0014694035 0.0003024479 0.0026840053 -0.0013375495 -0.003541414 0.00012026265 0.0032230266
0.00032748166 0.003454057 1.8241939e-05 -0.0012810515 -0.0038641486 0.0016931348 -0.00091807387 -0.0030273404
-0.0037859085 -8.6991655e-05 -0.001996433 -0.0037865895 -0.0014736396 0.00065044255 -0.00022615853 0.00026351752
0.0006872804 -0.0009803971 -0.00082855654 -0.0044473098 -0.00053451315 0.00077453523 0.002787893 0.00041251452
5.8573503e-05 0.00047550866 -0.003297114 0.0005165057 -0.0003430798 -0.0037155983 -0.0002206899 0.0043894383
6.119195e-05 0.0058261235 -0.003134341 -0.004325517 0.0003986772 -0.004678179 0.00012641217 0.0011525337
0.00021252633 0.005715743 0.0019098774 -0.00154232 0.000887711 -0.0065015517 0.0012358857 0.00188236
0.00021395777 0.0012446303 -0.0022031488 0.0006307942 8.620289e-05 -0.00037823946 -0.00021912309 0.0021998847
0.00018481746 0.00048839103 -0.0005577324 0.0015657913 -0.0013996122 0.0017923904 0.0043317913 -0.0039503523
0.002705299 0.004958194 -0.004097978 0.00075210264 -0.0034962143 0.0011668153 -0.0015166019 0.0006430099
0.0016905853 0.0011927034 0.0009278132 0.00020859163 -0.0026880128 -0.00013746985 -0.0010897665 -0.0010766742
-0.00018473166 0.00097365276 0.00014714654 -0.0015712166 -0.0023488493 4.35125e-05 0.0022542446 0.0014075134
0.00014865347 -0.0050598676 0.004857119 0.0013313126 0.0035751502 -0.0013798987 0.0011650176 0.0012552597
0.00012570385 -0.0014948982 -0.0040244972 0.00071129156 0.0003889079 0.00079399056 0.00088547316 -0.00045189468
0.00066064263 -0.00020576915 0.0006493214 0.00010948015 0.00094073784 0.0005263962 0.0010030468 -0.0023741059
0.0004902684 -0.00081160467 0.00064652384 -0.001181288 0.00025704547 -0.0010278572 0.0005307778 -0.0013518858
0.004990864 0.0041808984 -0.0018134237 0.0016966204 -0.0024844662 -0.001800056 0.00053454033 -0.0046176147

exp_avg_sq f4 [128, 4, 12]
00000000: 7fd9 d236 e038 9b36 aaee c234 4dfe c737
00000010: b952 2c37 4a16 b736 f6e8 1437 e7fd 1134
00000020: f5d8 be34 40da 1f37 154b 5236 cf5d 2235
00000030: 5d45 c436 50d2 0836 40c4 1735 0e23 9036
00000040: cbbc 0937 00fd aa36 2853 9e35 8591 2235
00000050: df56 5c37 f3a1 c834 18f3 1536 d810 4536
00000060: 23c7 fe33 d368 9137 33e4 0b38 99f0 8035
00000070: b2c7 8436 512f 0c36 9b4d 2437 cb96 0a38
00000080: 50ed 3835 77de 4a35 41aa d036 ae06 4837
00000090: 5c27 1637 1218 6d34 a500 8e34 c3d0 9d33
000000a0: 4003 1935 bf12 0f37 7d7b d335 14f2 a734
000000b0: 5903 1837 4c62 3637 c6be 0237 b3b7 e136
000000c0: 8fac e137 5cd7 c038 b3c2 ce34 49d8 d936
000000d0: 19da 8636 94af 2c38 a674 9638 4fbe bc36
000000e0: 6764 a736 94fe 1036 b0aa fe36 c29b 3736
000000f0: fab5 f938 9008 8c37 465d c836 e7bd 5436
00000100: 364e 3f37 5366 0636 a7a8 0f38 7895 5639
00000110: 3631 a838 30c1 8b39 cfa7 8c38 1cdb d137
00000120: 1d19 1b38 f86a 1338 8a73 9939 a945 6f39
00000130: 7479 5e39 25df e538 ab70 2235 0666 3036
00000140: 8a77 d236 147d 2437 a073 ba37 0e63 4d39
00000150: a8ca 8037 bb7d 0938 b5f1 3435 f50c 3037
00000160: 81ca 8937 652c 2b38 8407 9738 290f c037
00000170: e187 f638 1fb7 8136 d479 cd38 b1b1 db36
00000180: 610a 2937 f693 9837 6217 7138 4913 2436
00000190: e65c 8338 6a4a 0638 d769 be36 9af6 6e36
000001a0: 084c eb37 161e 1b35 e24e 1537 4ac0 7e35
000001b0: 73a9 4836 1c74 2e38 141d 8536 d7bb 8637
000001c0: 17e8 9d37 a70f 7e38 14f7 7a37 74c1 5337
000001d0: 44e6 ac36 cb06 c237 c438 2935 dfe0 8836
000001e0: cbea ec38 5b3d d238 d392 4137 67e5 2839
000001f0: aad0 3338 626f 7a38 b35a 4436 e926 0a39
00000200: b4fb 1d38 0ba0 3e39 4057 2c36 3193 6039
00000210: 4bc7 3238 8a3f fc36 7744 b038 2890 b137
00000220: 4e77 0438 b7dc 9535 82d1 2939 ba27 0338
00000230: 7b87 bb38 aec6 a835 451b 5a39 fc5b e536
00000240: 7151 e537 5c86 3638 092f ab39 90c8 0339
00000250: ae31 363a f11d b335 da4f f837 0037 1637
00000260: f45c a536 a16b af36 5281 a638 5ab5 e438
00000270: e9b8 9739 30e1 b938 8547 7937 77f8 9e39
00000280: e707 3138 1ded 333a c68b 7d39 267c 183a
00000290: 8779 0a37 abae fd38 a3b1 e036 8836 9238
000002a0: 5f6e 2d39 3cfe 9639 b956 4139 e17c 0a38
000002b0: 2363 0736 7a01 0138 f3ec ab36 3e0f b337
000002c0: 1a93 c235 019e d738 399e 9839 c2be 3c39
000002d0: 2a98 3a38 ff39 a338 9df9 3337 df40 5938
000002e0: d91f 4e37 0d51 1036 d0c6 7739 b25d 2c38
000002f0: 51fb 443a b48a 8639 4e14 c638 c390 7438
00000300: 1bde 5638 ac7b 1339 2c12 4839 0bbb cb36
00000310: 4784 0d39 f676 5138 40da e739 40ca 5037
00000320: 29fb 3438 d5a5 8838 f2a8 ee36 5854 0337
00000330: 53ca be39 f09a 3b39 53bd 1538 2876 9537
00000340: 27b7 8636 d443 3938 6389 2837 f4bc f639
00000350: bb3d df39 3586 a039 0b57 b539 b1cc 8a38
00000360: 7770 ab37 876a 4b38 7035 3039 aff1 f139
00000370: d4cf 8339 3075 ac39 c14c 2538 90c8 9e37
00000380: 373b 1235 853e d237 5456 5a38 4b18 a438
00000390: 04ca 3e37 8675 f636 9578 c836 5fc0 6a37
000003a0: c08a d237 f768 0e36 8217 4a37 16e1 6436
000003b0: da4a c937 a228 a037 6c85 db37 9cef 5939
000003c0: 0058 d139 84cb 8937 fbc7 8238 38a8 f837
000003d0: 15bc 2938 e839 9d39 7c93 1838 d134 5238
000003e0: c55e 8d39 6e2a 5f39 3688 bf38 51df 4f39
000003f0: 2e90 d438 7734 bc38 6292 da39 b8cf 033a
6.2838076e-06 4.625981e-06 3.6308967e-07 2.3841067e-05 1.0271259e-05 5.45642e-06 8.875728e-06 1.3596546e-07
3.5548115e-07 9.527954e-06 3.1336142e-06 6.048621e-07 5.84933e-06 2.0387997e-06 5.6537465e-07 4.2956153e-06
8.209793e-06 5.095848e-06 1.1796119e-06 6.056146e-07 1.3133248e-05 3.7370737e-07 2.234423e-06 2.9365092e-06
1.18640195e-07 1.733416e-05 3.335271e-05 9.606766e-07 3.957154e-06 2.0889167e-06 9.793231e-06 3.30422e-05
6.8890677e-07 7.5574593e-07 6.218703e-06 1.1922484e-05 8.949861e-06 2.2081102e-07 2.645003e-07 7.348856e-08
5.700167e-07 8.527829e-06 1.5756665e-06 3.128231e-07 9.060685e-06 1.0870932e-05 7.793022e-06 6.726908e-06
2.6902444e-05 9.195387e-05 3.8512152e-07 6.492283e-06 4.018901e-06 4.1171515e-05 7.174285e-05 5.6249914e-06
4.988676e-06 2.1605856e-06 7.5896605e-06 2.7359788e-06 0.00011907141 1.6693288e-05 5.971323e-06 3.1701e-06
1.1402697e-05 2.0027117e-06 3.4250927e-05 0.00020464312 8.0200305e-05 0.00026656082 6.706977e-05 2.5016772e-05
3.697827e-05 3.5147154e-05 0.00029268517 0.00022818767 0.00021216815 0.00010961135 6.0513656e-07 2.628543e-06
6.272404e-06 9.804284e-06 2.222677e-05 0.00019587224 1.5353158e-05 3.278044e-05 6.7406955e-07 1.0493434e-05
1.642597e-05 4.0810923e-05 7.201641e-05 2.2895243e-05 0.000117555035 3.8658177e-06 9.797854e-05 6.5473946e-06
1.00756015e-05 1.8188712e-05 5.7480655e-05 2.444913e-06 6.2638705e-05 3.2017393e-05 5.6747626e-06 3.5608305e-06
2.8049588e-05 5.778578e-07 8.899458e-06 9.490219e-07 2.9900955e-06 4.1592968e-05 3.967094e-06 1.6061515e-05
1.8823934e-05 6.0572896e-05 1.4958689e-05 1.2621622e-05 5.152806e-06 2.3129765e-05 6.304001e-07 4.0792943e-06
0.000112970905 0.00010025009 1.1537882e-05 0.00016107188 4.287126e-05 5.9708378e-05 2.925907e-06 0.00013175201
3.7666134e-05 0.00018179433 2.5680783e-06 0.00021417138 4.2624113e-05 7.517582e-06 8.4050866e-05 2.1167172e-05
3.1582364e-05 1.1165602e-06 0.00016195144 3.1269832e-05 8.94209e-05 1.2574799e-06 0.00020800259 6.83544e-06
2.7336851e-05 4.3517313e-05 0.00032650706 0.00012567849 0.0006950152 1.3345253e-06 2.9601088e-05 8.953502e-06
4.9282044e-06 5.227936e-06 7.9395846e-05 0.000109056666 0.00028938733 8.863432e-05 1.48582085e-05 0.0003032123
4.2207448e-05 0.0006863641 0.0002418003 0.00058168394 8.253736e-06 0.000120965145 6.6964e-06 6.97198e-05
0.00016539682 0.0002879965 0.00018438221 3.3018066e-05 2.0174273e-06 3.0757372e-05 5.1237816e-06 2.134556e-05
1.4496939e-06 0.000102814294 0.00029109584 0.0001800014 4.448757e-05 7.783248e-05 1.0727349e-05 5.1797248e-05
1.2285972e-05 2.150485e-06 0.00023629819 4.1095256e-05 0.00075142557 0.00025661814 9.445158e-05 5.8308953e-05
5.1228428e-05 0.00014065084 0.00019080256 6.071646e-06 0.00013496085 4.9940274e-05 0.00044222362 1.2444856e-05
4.3149255e-05 6.515874e-05 7.1126206e-06 7.827846e-06 0.00036390367 0.00017891428 3.570069e-05 1.7817205e-05
4.014833e-06 4.4170607e-05 1.0045568e-05 0.00047061557 0.00042579867 0.0003061757 0.00034587862 6.6184795e-05
2.0437159e-05 4.8498183e-05 0.00016804575 0.0004614717 0.0002514111 0.00032893708 3.941055e-05 1.8928462e-05
5.447541e-07 2.5063064e-05 5.205565e-05 7.824654e-05 1.1371918e-05 7.345053e-06 5.974502e-06 1.3992277e-05
2.5098561e-05 2.1220746e-06 1.2045612e-05 3.4105665e-06 2.3995923e-05 1.9092407e-05 2.6168964e-05 0.00020783994
0.00039929152 1.6426442e-05 6.236132e-05 2.9642237e-05 4.0467905e-05 0.00029988517 3.637698e-05 5.011709e-05
0.00026964225 0.00021282744 9.132961e-05 0.0001982425 0.00010135803 8.974311e-05 0.00041689264 0.0005028206

exp_avg f4 [128]
00000000: 51b3 5bb8 3a41 fc39 94a8 c939 3e8a 283a
00000010: 1173 113a 8cb0 cbb9 f1f9 c039 e0a3 9139
00000020: f722 c739 db92 7fb9 543b 383a 320c ec36
00000030: 2f5d 4bb9 67ba d039 6a86 82b9 301c c0b9
00000040: ed85 d5b8 a795 fa39 c189 0538 9b43 62b9
00000050: f43f eb39 644d 8bb9 687a 6bb9 71fd a939
00000060: f752 593a 7259 003a 492f 1439 9192 b439
00000070: 13f8 a339 03db f739 5d09 8fb9 04af 82b9
00000080: c135 f238 e1d3 253a c83d 5bb9 fedb b439
00000090: 8d17 aeb9 d7e1 e039 7312 beb9 7693 bcb9
000000a0: 742d 8eb9 3dd9 663a 0b43 043a ef95 57b9
000000b0: a9d1 b9b9 202f a839 94d7 c239 ad76 8ab9
000000c0: fd29 5a3a c1c0 79b9 432b cab9 b3b3 fe39
000000d0: 30e5 0f3a 068c 0eb9 9192 c539 6a0f e539
000000e0: ce52 cf39 54e7 06ba cbd3 263a 5ef7 333a
000000f0: c799 8eb9 c7eb 96b9 c1f9 97b8 5038 97b9
00000100: 4372 1e37 4ad4 a1b9 0483 05ba b65f 30b9
00000110: 8017 ddb8 53da 06b9 3059 a6b9 a1d7 dd39
00000120: 24fa 87b9 aeeb 6ab9 b08a 113a 4114 1f3a
00000130: d0ef 063a 04f1 b639 b607 b2b9 6bbc bf39
00000140: 3a81 3a3a d56e 5e39 3ba6 8939 d744 d139
00000150: 8589 1a3a 7520 61b9 3db1 3139 295c fa36
00000160: 426a 51b9 4fcf f7b9 f3e1 9939 d46d 423a
00000170: a4b6 2a3a e138 d639 44d1 d339 1d79 5e3a
00000180: 1ab6 cf39 9a21 eb38 6db5 92b9 a8e8 5db9
00000190: 605f b1b9 29c3 ebb9 8e1f 62b9 dd0d ee39
000001a0: f3b0 003a cb07 af39 f51f 73b9 1054 19b9
000001b0: d36a a5b9 ce68 70b9 8dc0 07b9 2d24 afb8
000001c0: 7e71 af39 43f8 0d3a 86eb 0239 6623 ccb9
000001d0: 785b 9339 786c 853a f463 acb8 27a3 c239
000001e0: d10d dd39 74af 8bb9 a6da c8b9 8310 cbb9
000001f0: 5aac 0a3a 1a70 d337 4f91 38b9 6993 34b9
-5.238067e-05 0.00048113783 0.00038463308 0.0006429291 0.0005548457 -0.00038850715 0.00036807315 0.00027778652
0.0003798229 -0.00024373403 0.00070278835 7.034768e-06 -0.00019394302 0.00039811732 -0.00024895679 -0.00036642095
-0.00010181577 0.00047795216 3.1837964e-05 -0.00021578225 0.00044870342 -0.00026569807 -0.00022456946 0.0003242302
0.0008290256 0.0004896141 0.00014131995 0.00034441476 0.00031274612 0.00047274688 -0.00027282062 -0.0002492593
0.00011549472 0.0006325823 -0.00020908483 0.00034496182 -0.00033205413 0.00042892873 -0.0003625337 -0.0003596802
-0.00027118216 0.0008806175 0.00050453906 -0.00020559852 -0.0003544216 0.00032078568 0.00037163182 -0.00026409831
0.0008322297 -0.00023818297 -0.00038560675 0.00048580542 0.00054891687 -0.00013594338 0.0003768397 0.00043689768
0.0003954381 -0.0005146165 0.0006363957 0.00068651687 -0.00027198924 -0.00028785897 -7.2467614e-05 -0.0002884292
9.4441375e-06 -0.0003086648 -0.000509307 -0.00016820323 -0.000105424784 -0.00012860568 -0.00031728437 0.0004231306
-0.00025935576 -0.00022403777 0.0005551977 0.0006068387 0.0005147429 0.00034893316 -0.0003395655 0.0003657074
0.0007114593 0.00021212858 0.00026254528 0.00039914876 0.0005895126 -0.00021469763 0.00016946062 7.4613095e-06
-0.00019971377 -0.00047265968 0.0002935078 0.00074168784 0.0006512201 0.0004085964 0.0004040097 0.0008486675
0.00039617793 0.00011211932 -0.00027982463 -0.00021162874 -0.0003383113 -0.00044968099 -0.00021564795 0.00045405226
0.000490918 0.00033384407 -0.00023186191 -0.00014622533 -0.00031550843 -0.00022927226 -0.00012946334 -8.3513885e-05
0.0003346316 0.0005415717 0.00012485505 -0.00038936286 0.00028106174 0.0010179421 -8.220217e-05 0.0003712412
0.000421627 -0.0002664287 -0.00038309878 -0.0003873148 0.00052899646 2.5205361e-05 -0.00017601739 -0.00017221052

exp_avg_sq f4 [128]
00000000: e319 2738 e0f4 aa39 cf77 8a39 920d 653a
00000010: adf1 263a ec1a 3a3a 399e 3a39 20bf d138
00000020: 571d 4b39 8255 bf39 1c80 a73a 92fb fb32
00000030: aed6 8839 e3f8 9c39 48e3 7e39 d987 0c3a
00000040: 984e 9e38 7d10 b539 351f 8437 f5e9 6939
00000050: c9c0 2939 ea5c 9c39 6e40 4839 f2b5 3739
00000060: b0cc 4f3a 6613 9039 7abb 7e37 2627 1c39
00000070: 32ad da38 0c25 a939 745e bd39 1382 9139
00000080: b33a 9536 21be 493a ca74 a239 3b03 f438
00000090: 53d8 083a bfde c239 21e8 123a 4dcf 2b3a
000000a0: 1c60 b039 d6dc 013b 7668 0f3a bb6e 8f39
000000b0: a061 113a b80f 1839 b367 5e39 65b5 ce39
000000c0: 9f78 9e3a 455b a539 f41d 263a 2427 b839
000000d0: 77b7 093a 3d51 2539 bf43 9339 1c6d a539
000000e0: d17e 3139 ce46 883a 8814 6d3a e58a 673a
000000f0: b03e a739 8617 c039 0fc8 4d38 a8be b239
00000100: c699 4633 48ab db39 3440 9e3a 9b96 2439
00000110: def7 df38 6c8a 2539 0675 f139 24eb ba39
00000120: bf14 dd39 4be1 8139 b94f 3a3a e02c 103a
00000130: 1233 db39 32be 1a39 1b82 0a3a 18f2 3939
00000140: d09f b53a d6e0 3838 b8f5 bd38 1060 4739
00000150: b4dd 233a bfe7 7139 6079 db37 d381 c736
00000160: 6346 5439 1120 593a 92c2 f638 bb00 8b3a
00000170: dbe1 563a 889b 8239 772f 7039 9159 cd3a
00000180: c9a1 9d39 1214 ad36 07e9 bb39 d7ff 6439
00000190: 378c 0f3a 75a6 803a 3025 8739 28df b339
000001a0: e7c3 c939 811f 0b39 7f0f 8039 7eb6 3f39
000001b0: 16b7 f739 8920 b139 0db7 ea38 beb1 8d38
000001c0: d43d 2a39 99f0 243a 2fff cc36 068c 303a
000001d0: 519c 9438 0602 213b a4da 9f38 43a5 3239
000001e0: ef15 9b39 f512 d539 1bde 0c3a 2b7c 313a
000001f0: 07c8 ee39 87bb 1f37 e751 6639 3254 7039
3.984001e-05 0.00032607373 0.00026410675 0.0008737679 0.000636841 0.00070993486 0.00017797285 0.000100014964
0.00019370519 0.00036494067 0.0012779268 2.9334647e-08 0.0002609989 0.00029940074 0.00024307997 0.0005360819
7.548666e-05 0.00034535295 1.5750158e-05 0.00022307767 0.00016188914 0.00029823865 0.00019097488 0.0001752002
0.0007926924 0.00027480273 1.518323e-05 0.00014891903 0.0001042731 0.00032261794 0.00036119262 0.00027753468
4.4473795e-06 0.0007695873 0.00030986062 0.000116354284 0.0005220223 0.00037168522 0.0005604048 0.00065540225
0.00033640943 0.0019815466 0.0005470583 0.00027357586 0.00055458583 0.00014501705 0.00021210201 0.0003942653
0.0012090391 0.00031539254 0.0006336861 0.00035124377 0.00052534736 0.0001576589 0.000280885 0.00031552545
0.00016927278 0.0010397078 0.0009043892 0.00088326476 0.00031899428 0.0003663862 4.9062128e-05 0.00034092856
4.6240324e-08 0.0004189855 0.0012073577 0.00015696364 0.000106796375 0.00015787192 0.0004605429 0.00035651878
0.00042167862 0.00024772654 0.00071072165 0.0005499851 0.00041808985 0.00014757438 0.00052836695 0.00017733162
0.0013856832 4.4078413e-05 9.057991e-05 0.00019013905 0.0006250993 0.00023069883 2.6163354e-05 5.9457757e-06
0.00020244117 0.00082826713 0.00011766436 0.0010605076 0.0008197107 0.00024911412 0.00022905866 0.0015666952
0.00030065913 5.1581383e-06 0.00035841038 0.00021839082 0.0005475911 0.0009815233 0.00025776913 0.00034307805
0.00038483666 0.00013267809 0.00024425608 0.00018283163 0.0004724792 0.0003378431 0.000111920854 6.756511e-05
0.00016235496 0.00062919554 6.109381e-06 0.00067347323 7.086306e-05 0.0024567856 7.622436e-05 0.00017036968
0.00029580246 0.0004064065 0.00053736725 0.00067705166 0.0004554393 9.520801e-06 0.0002196502 0.00022919549

exp_avg f4 [32, 128]
00000000: ddc4 4a39 10c4 db38 c052 91b8 3d14 4d39
00000010: 50ea 05b9 6c1a 2438 b6b8 88b8 cc5e 42b9
00000020: 2d3d 1ab9 6df2 1cb9 2d20 c638 0eda dbb8
00000030: c3af 83b8 83fe 8a36 792e 8ab8 077a 26b9
00000040: 727b 8338 281c 81b8 3fe0 9f38 0f3f 7f38
00000050: 14b0 8638 015a fc38 8f15 0338 80ce 5138
00000060: 751b da38 a39e 7f38 b321 1339 c7df f038
00000070: 2988 50b9 8667 1639 ac03 4d39 af71 81b8
00000080: f0df b536 80a2 89b8 0be3 2739 7f3d feb8
00000090: 02dc 26b9 fe22 e1b8 13dd b9b8 ef6b 3b39
000000a0: b3e0 2d39 916d 1d39 d84c f4b8 6338 59b8
000000b0: de46 a838 4a01 b9b8 48d2 39b9 29f2 11b9
000000c0: 4a69 fdb8 0ee9 4e37 f821 91b9 519a 25b9
000000d0: 90fb 2eb8 f399 7f38 a7b5 8cb7 bd66 e1b8
000000e0: 1ccf b238 2936 ed38 d338 2eb8 2b64 f738
000000f0: 81b5 9038 924f 12b7 677e fcb8 c986 a2b8
00000100: 868a fab8 4b93 beb7 330c 2238 f6b6 26b8
00000110: 3574 2239 192f 88b8 bc3b 8338 466c bd38
00000120: c591 29b8 7a1f cdb7 ba0a 2a38 d723 fdb6
00000130: 3b34 8b37 a3d8 93b8 2e3b 3b39 9118 ba38
00000140: 79ea 33b8 5ba4 34b8 fe17 88b8 83bb 12b9
00000150: c433 2f38 6556 5cb9 5ec4 0b39 b2b4 0537
00000160: a7ff 84b8 e507 06b9 3b54 1ab9 69c2 85b8
00000170: 3a0b 7038 d36c 1339 70b5 9436 156b 8839
00000180: 5d99 1d39 6b44 c5b8 5d6d 88b8 54a1 b5b8
00000190: b3ea a737 c506 2e39 5f83 b138 484f 04b9
000001a0: 63ca 04b8 4a5d 87b8 3c07 0138 713e 6538
000001b0: 8b79 bab7 f8b6 3838 c0e9 6739 e265 2339
000001c0: 1fd3 3338 f9d8 0eb9 d6cd 9537 6e87 3c39
000001d0: 44c6 39b9 ee6e d538 4bf2 f838 5069 2138
000001e0: 7423 df38 ead5 7eb8 ce53 c038 1827 2238
000001f0: 2152 2438 4add cf38 fece dc37 a52d efb8
00000200: b3ae 88b8 f3db 50b8 d7f9 0ab9 7a47 e1b6
00000210: 2b62 21b8 aa14 de36 fb27 65b8 c5cb 6c39
00000220: ddf6 8238 66bf e3b8 a6d3 0839 4eaf e138
00000230: 8ff4 2f39 e26d 0139 e8b7 d9b8 bd27 2cb8
00000240: 7f6f 23b9 01e2 e338 a7b0 1f36 5ae3 e238
00000250: 1711 6eb9 0185 2438 7b1b 6837 1f40 f038
00000260: 2c2e 2239 937f 3b36 56e5 6337 805d 1bb7
00000270: ee6d 8ab7 c1bb 27b9 cb68 1f38 6697 80b6
00000280: aa67 a2b8 57dc dfb8 7f7b 5938 ad62 7336
00000290: f27f 7239 fadf 16b8 acca a738 3793 9fb8
000002a0: 19b4 3838 7e68 c838 501e 89b8 bcb1 27b8
000002b0: cab5 ca36 acbf a438 bc38 7038 55ce 03b9
000002c0: 22b6 1639 35e6 1d38 f1e9 1db9 c32f e238
000002d0: 13fd 89b9 6816 1638 1650 84b9 6d0b 8fb8
000002e0: e1c7 1739 23f8 89b8 1fe0 d838 0423 1538
000002f0: 334f 7138 b344 8d38 1c7c 0fb8 c93a bb38
00000300: 9fdc 9b37 7bbe 2bb7 3ee9 3739 6cf5 50b9
00000310: f3b4 d538 d782 3b39 bc21 e7b8 61fe adb8
00000320: 1d7d 12b7 0a08 f038 ef31 6c38 cdae 2f37
00000330: 52c1 27b9 cc55 4a38 a713 6fb9 c541 e038
00000340: ae69 d4b8 4929 8e39 2659 52b9 f0d6 d838
00000350: 00f8 1ab7 291b dbb8 b6b2 11b9 f3d1 f838
00000360: f8b6 28b9 d552 73b9 96e3 d9b7 2816 31b7
00000370: 0743 e337 8553 67b8 c5cd cd38 89cb 8438
00000380: c247 f238 1b4c 26b9 0438 e3b8 7624 e5b8
00000390: 87e5 52b9 9df2 5038 8b1a efb8 7d24 8537
000003a0: 1a4d 54b9 a088 17b9 1ab8 23b7 ed77 1ab7
000003b0: 0044 5eb5 5e0b f7b7 ccb8 55b9 4656 9a37
000003c0: 395a 59b8 c134 3639 3315 0839 e3af 3337
000003d0: 6818 b234 77ac b037 1291 7338 f5f8 8eb8
000003e0: b103 e4b7 9cb6 4839 303e 01b9 c3ba 0839
000003f0: ab1c d338 261d 9db7 2199 a338 5171 c137
0.00019337558 0.00010479253 -6.929552e-05 0.00019557863 -0.00012771157 3.9125254e-05 -6.5193904e-05 -0.00018536596
-0.00014709374 -0.0001496763 9.447369e-05 -0.000104833496 -6.279305e-05 4.1423496e-06 -6.589009e-05 -0.00015876452
6.26956e-05 -6.156444e-05 7.62348e-05 6.0855466e-05 6.422415e-05 0.00012033061 3.1252912e-05 5.00218e-05
0.00010400164 6.094448e-05 0.00014031566 0.000114857736 -0.0001988715 0.0001434368 0.00019551691 -6.1723746e-05
5.42029e-06 -6.562937e-05 0.00016010941 -0.00012123118 -0.00015912953 -0.00010735354 -8.862666e-05 0.00017873918
0.00016582273 0.00015013503 -0.0001164914 -5.1789346e-05 8.024064e-05 -8.8217275e-05 -0.0001772131 -0.0001391849
-0.00012083592 1.2332819e-05 -0.00027681864 -0.00015793114 -4.171912e-05 6.0940114e-05 -1.6773889e-05 -0.000107479726
8.5262785e-05 0.00011311129 -4.1537754e-05 0.000117965355 6.900263e-05 -8.7208045e-06 -0.00012039841 -7.749868e-05
-0.00011946731 -2.2718354e-05 3.863517e-05 -3.974788e-05 0.00015492814 -6.493758e-05 6.257693e-05 9.03239e-05
-4.04285e-05 -2.4452562e-05 4.054115e-05 -7.54416e-06 1.6594413e-05 -7.049858e-05 0.00017855756 8.873747e-05
-4.2895295e-05 -4.3068412e-05 -6.489454e-05 -0.00013993499 4.1771462e-05 -0.0002101302 0.00013329225 7.969489e-06
-6.3418694e-05 -0.00012782177 -0.00014717963 -6.378146e-05 5.7230915e-05 0.00014059553 4.431866e-06 0.00026019724
0.00015029819 -9.406436e-05 -6.505356e-05 -8.660802e-05 2.0017242e-05 0.00016596455 8.4644875e-05 -0.00012618036
-3.165974e-05 -6.454678e-05 3.0762734e-05 5.4656008e-05 -2.2229526e-05 4.403942e-05 0.00022116955 0.00015582846
4.2873547e-05 -0.00013623004 1.7858034e-05 0.00017979529 -0.00017716835 0.00010177294 0.00011870692 3.848347e-05
0.00010640072 -6.0757542e-05 9.170883e-05 3.866022e-05 3.9177135e-05 9.9117475e-05 2.6322432e-05 -0.0001140491
-6.5175256e-05 -4.9795908e-05 -0.00013253778 -6.7138435e-06 -3.8476817e-05 6.618521e-06 -5.463509e-05 0.00022582624
6.244865e-05 -0.00010859854 0.00013048816 0.00010761489 0.00016780406 0.00012343333 -0.000103816215 -4.1045005e-05
-0.00015586427 0.000108663 2.3795671e-06 0.00010818867 -0.00022703815 3.9224517e-05 1.3834676e-05 0.00011456035
0.00015466724 2.793943e-06 1.3583651e-05 -9.26049e-06 -1.6502072e-05 -0.00015996305 3.800615e-05 -3.8323224e-06
-7.744071e-05 -0.0001067451 5.1851846e-05 3.6267259e-06 0.00023126582 -3.597138e-05 8.000931e-05 -7.609132e-05
4.4036748e-05 9.556206e-05 -6.538315e-05 -3.998143e-05 6.041232e-06 7.855831e-05 5.7273297e-05 -0.00012569998
0.00014372965 3.7646114e-05 -0.00015059837 0.00010785416 -0.0002631923 3.5783654e-05 -0.0002523667 -6.8208996e-05
0.00014474943 -6.578888e-05 0.000103414284 3.555698e-05 5.7532638e-05 6.7362e-05 -3.4209443e-05 8.9278044e-05
1.8580175e-05 -1.0236744e-05 0.0001753913 -0.00019927853 0.00010190336 0.00017882451 -0.00011021222 -8.2966646e-05
-8.731408e-06 0.00011445589 5.631329e-05 1.0471512e-05 -0.00015998379 4.8240458e-05 -0.00022800137 0.00010693403
-0.00010128632 0.0002711511 -0.00020060371 0.00010339718 -9.236857e-06 -0.00010447793 -0.00013894853 0.000118646676
-0.0001608989 -0.00023205143 -2.5974394e-05 -1.0555181e-05 2.709172e-05 -5.5152475e-05 9.813489e-05 6.332162e-05
0.00011552825 -0.00015859345 -0.00010834637 -0.00010926362 -0.00020112666 4.9817016e-05 -0.00011401352 1.5871827e-05
-0.00020246618 -0.00014451379 -9.758422e-06 -9.207038e-06 -8.28004e-07 -2.9449988e-05 -0.00020382105 1.8398405e-05
-5.1820858e-05 0.00017376525 0.00012977868 1.0710183e-05 3.3172842e-07 2.1061145e-05 5.8070822e-05 -6.8174595e-05
-2.7181437e-05 0.00019141514 -0.00012325565 0.00013039545 0.00010066604 -1.8729432e-05 7.800968e-05 2.306016e-05
