our-vTR/10_fold_lightning_logs/dataset1/fold_0/version_1/checkpoints/epoch=29-step=1049_fold0.ckpt (torch, 132433 bytes, 18 tensors)

conv1d.weight f4 [128, 4, 12]
0.060807724 0.15569623 -0.15673798 -0.022857198 0.13029703 -0.33837503 0.029801553 -0.2733613
-0.2117753 -0.0038059624 -0.0009124353 0.050125826 0.007306227 0.054044116 -0.027216407 -0.051926397
-0.16227654 -0.08602477 0.0291729 -0.16508257 0.0021807628 -0.099396765 0.03533793 -0.13826488
-0.1085396 -0.038524795 0.14082104 -0.009022872 -0.16608362 0.07121596 -0.09567079 0.29173148
-0.019361362 0.29514083 -0.074406296 0.19904776 -0.2400198 -0.02823795 -0.072673745 -0.008978639
0.015015539 -0.17616698 0.11477946 0.029178035 0.1934661 -0.1246616 0.1352386 -0.13216797
0.30579793 0.036708586 -0.22897874 -0.20462933 -0.04184764 -0.099502906 0.24010134 -0.034663666
-0.0886614 -0.08895727 0.12563552 -0.03946762 -0.17469291 -0.027955387 -0.025566952 0.2069089
-0.06953046 -0.06602645 -0.14559525 -0.018626131 -0.039883364 0.11599294 0.060146235 -0.021317191
-0.20032297 0.14864056 0.1597651 0.014381534 -0.011303514 -0.043887004 0.09504173 0.049912084
0.12841475 0.09787857 -0.15022711 0.101930246 -0.23207074 -0.055914603 -0.11505952 0.19005825
0.26394716 0.028426755 -0.29240724 -0.061299868 -0.11811186 -0.2459211 -0.15541406 -0.2323896
-0.014222262 0.14862753 0.15598054 -0.096784756 0.032512337 -0.14142518 -0.009059404 -0.11666878
-0.13929215 -0.16626155 0.19151376 0.043470968 -0.13886675 -0.20753391 0.13576968 0.15225467
0.060957205 -0.018958692 0.15068908 0.02421483 0.13338114 0.0070247157 -0.23822206 -0.056549575
-0.34416097 -0.10000395 0.16727987 -0.119749986 0.017653244 0.15609682 -0.023677845 -0.10951769
0.17005405 0.19766311 -0.14526874 0.092009835 0.25595427 0.15151961 -0.16652864 -0.19814059
0.12848647 -0.30085582 -0.27646637 0.25510758 -0.03434998 -0.22896542 -0.060478847 -0.23107907
0.09966961 0.0039962525 -0.19049934 -0.17637527 -0.25945282 0.28607124 0.011238362 -0.03979764
0.27034417 -0.114479564 -0.3920718 0.10850827 -0.20891228 0.103613876 -0.0074968413 0.18531072
0.12898287 -0.0019909253 -0.19287488 -0.195947 -0.07848357 -0.23513624 0.20556554 -0.047451414
-0.08392424 0.09315878 0.09372437 0.04033689 -0.42705274 -0.22025025 0.023433678 0.30864874
0.031136021 0.0629866 0.107623465 0.10393478 0.24031276 -0.38493916 0.14500213 -0.021221826
0.08269559 -0.33282828 0.03934062 -0.0762278 -0.09680659 0.20461456 -0.169544 0.20660709
-0.030971037 0.25858715 0.033286598 0.17206565 -0.0821639 0.24925782 -0.12619556 -0.2733256
0.2575996 0.2115954 0.17041738 0.056546636 -0.0861441 0.037393615 0.032967284 -0.283245
0.08109578 0.040811405 0.20622748 0.19789903 -0.17694457 -0.10772972 -0.2424778 0.058979325
-0.006797799 -0.23023339 0.21646014 0.0054329704 -0.15907517 0.08758937 -0.15510464 -0.14831693
-0.06005259 -0.20570749 -0.20581958 0.14332962 0.05147689 -0.04771651 -0.22998671 0.011875989
-0.17653409 -0.08484897 -0.11884964 -0.13978095 0.042476926 -0.0402593 0.090563044 -0.10437977
0.14608833 0.058701824 -0.19972815 -0.15251923 -0.3807573 -0.024918126 -0.14897965 -0.14396872
0.101123676 0.17154334 0.10980028 0.11373065 -0.147181 -0.093896784 0.17089793 0.25350952
00000000: 8511 793d d56e 1f3e ec7f 20be 053f bbbc
00000010: 966c 053e 7e3f adbe 6322 f43c 03f6 8bbe
00000020: a0db 58be 746d 79bb 7f30 6fba bd50 4d3d
00000030: 1369 ef3b 5d5d 5d3d f1f4 debc c6b0 54bd
00000040: d22b 26be c12d b0bd 01fc ee3c 680b 29be
00000050: 21eb 0e3b 8890 cbbd 81be 103d 4f95 0dbe
00000060: 034a debd 2dcc 1dbd 6433 103e abd4 13bc
00000070: d311 2abe acd9 913d 0cef c3bd d45d 953e
00000080: b89b 9ebc b31c 973e 5462 98bd 2dd3 4b3e
00000090: c0c7 75be 4653 e7bc f9d5 94bd 241b 13bc
000000a0: bc03 763c 1e65 34be 7e11 eb3d c606 ef3c
000000b0: fa1b 463e 954e ffbd fd7b 0a3e 0a57 07be
000000c0: 8c91 9c3e be5b 163d 6779 6abe 5a8a 51be
000000d0: 6e68 2bbd 2ec8 cbbd 20dd 753e 7dfb 0dbd
000000e0: 1c94 b5bd 3b2f b6bd 99a6 003e cda8 21bd
000000f0: b3e2 32be b202 e5bc c971 d1bc eddf 533e
00000100: fc65 8ebd e038 87bd ec16 15be d495 98bc
00000110: bd5c 23bd b58d ed3d e65b 763d 64a1 aebc
00000120: 7721 4dbe 3b35 183e 7699 233e 87a0 6b3c
00000130: 6032 39bc dcc2 33bd 3da5 c23d 9d70 4c3d
00000140: 287f 033e 8f74 c83d 23d5 19be cec0 d03d
00000150: f4a3 6dbe b606 65bd 53a4 ebbd a19e 423e
00000160: 1524 873e 3adf e83c 67b6 95be 9215 7bbd
00000170: a1e4 f1bd bed2 7bbe dd24 1fbe 8af7 6dbe
00000180: 7e04 69bc d131 183e 5db9 1f3e 1637 c6bd
00000190: a82b 053d c3d1 10be e56d 14bc 0bf0 eebd
000001a0: 9aa2 0ebe 7840 2abe 2f1c 443e 9d0e 323d
000001b0: 1633 0ebe c583 54be 3507 0b3e a6e8 1b3e
000001c0: 43ae 793d 424f 9bbc 3d4e 1a3e 2e5e c63c
000001d0: 1195 083e 962f e63b 7cf0 73be 87a0 67bd
000001e0: de35 b0be dfce ccbd 6a4b 2b3e 7b3f f5bd
000001f0: 899d 903c d8d7 1f3e 0af8 c1bc d04a e0bd
00000200: a622 2e3e 3368 4a3e 54c1 14be a76f bc3d
00000210: 700c 833e f527 1b3e 7c86 2abe 5ee5 4abe
00000220: f591 033e c609 9abe 008d 8dbe 769d 823e
00000230: 91b2 0cbd e975 6abe abb8 77bd fe9f 6cbe
00000240: 951f cc3d fff2 823b 4212 43be b89b 34be
00000250: 00d7 84be ee77 923e 1b21 383c da02 23bd
00000260: 8d6a 8a3e 4374 eabd a3bd c8be 9539 de3d
00000270: 1aed 55be 8333 d43d 10a8 f5bb 18c2 3d3e
00000280: 1614 043e 2f7a 02bb fe80 45be 55a6 48be
00000290: febb a0bd 8ec7 70be c67f 523e 6a5c 42bd
000002a0: 79e0 abbd 08ca be3d 90f2 bf3d 4b38 253d
000002b0: a8a6 dabe 4889 61be fcf7 bf3c 3507 9e3e
000002c0: f810 ff3c 1eff 803d b169 dc3d c2db d43d
000002d0: 8c14 763e bf16 c5be 707b 143e 65d9 adbc
000002e0: 4e5c a93d 7868 aabe a123 213d 521d 9cbd
000002f0: 8942 c6bd 7b86 513e f19c 2dbe cf90 533e
00000300: f9b6 fdbc 8965 843e 8757 083d fa31 303e
00000310: 8c45 a8bd 713d 7f3e 6939 01be 55f1 8bbe
00000320: 18e4 833e 77ac 583e e581 2e3e 729d 673d
00000330: 516c b0bd 0c2a 193d b408 073d 7d05 91be
00000340: 8b15 a63d dc29 273d 4c2d 533e 0ba6 4a3e
00000350: f530 35be 66a1 dcbd 1a4c 78be 4e94 713d
00000360: 12c0 debb 4dc2 6bbe baa7 5d3e 0f07 b23b
00000370: 9ae4 22be 0e62 b33d c0d3 1ebe 65e0 17be
00000380: b4f9 75bd fca4 52be 5ec2 52be 00c5 123e
00000390: 6ed9 523d 6372 43bd a381 6bbe 8293 423c
000003a0: 5ac5 34be 4cc5 adbd 7167 f3bd bd22 0fbe
000003b0: 49fc 2d3d f0e6 24bd 1e79 b93d 10c5 d5bd
000003c0: 2e98 153e 5371 703d 8985 4cbe 002e 1cbe
000003d0: 9ff2 c2be 1921 ccbc 1f8e 18be 896c 13be
000003e0: ee19 cf3d 0fa9 2f3e f8de e03d 9deb e83d
000003f0: 9eb6 16be f54c c0bd deff 2e3e 00cc 813e

conv1d.bias f4 [128]
0.046945155 -0.022604188 -0.06960499 0.05074642 -0.16011457 -0.10108104 -0.1272834 -0.076694116
0.05368183 -0.021499742 0.14906542 -0.11500457 -0.21549131 0.11198383 0.027715283 -0.080046535
-0.12280924 -0.10275343 -0.0016055933 -0.083375804 0.121912934 0.06702405 -0.20203747 -0.13418508
-0.15504694 0.06676688 -0.0691845 -0.09771412 -0.006822607 -0.13247249 -0.072876334 -0.11826663
-0.108572744 -0.12586173 -0.12480556 -0.057543065 0.054065734 -0.0111475075 0.028594105 -0.14859939
-0.04710152 -0.0014213184 -0.13150106 0.010611863 -0.10841846 -0.060454056 0.10414909 -0.045309033
-0.070523836 0.01762325 -0.033165287 0.12357158 -0.05000991 0.12840413 0.11326934 0.009526924
0.044619396 0.15455525 -0.124273956 0.084008306 0.12104718 0.07425775 -0.022404835 0.043875802
0.022171455 0.08315466 -0.13682868 -0.10130312 0.017898764 0.106447354 -0.17747752 -0.196
-0.008461368 0.06884725 0.017805094 0.08480111 -0.09571052 0.15482813 -0.026276369 0.049400598
0.07314527 -0.08648548 -0.07676226 0.16060503 0.099153325 -0.10587508 -0.0709995 -0.14977011
0.11292421 -0.017886968 -0.08948621 -0.16286351 -0.049456615 -0.19199467 -0.04873533 0.15932766
-0.104753576 -0.0019708546 -0.007156747 -0.12795797 0.023455242 -0.05712871 -0.117244445 -0.03447255
0.029851673 -0.16206163 -0.08423194 -0.08404841 0.11053963 -0.10219075 -0.013914571 -0.07018362
-0.13874325 0.033418406 -0.10503824 -0.045360204 -0.0458574 -0.09073848 0.08166517 0.05080735
0.08366257 0.07895136 0.045834977 0.11866811 0.105724566 -0.08219032 -0.0688474 0.13702714
00000000: 9049 403d 6b2c b9bc 108d 8ebd 7adb 4f3d
00000010: 13f5 23be 9403 cfbd 9456 02be ce11 9dbd
00000020: 7be1 5b3d 3a20 b0bc 9ba4 183e 8487 ebbd
00000030: c1a9 5cbe c757 e53d 290b e33c 70ef a3bd
00000040: 6983 fbbd 6470 d2bd c572 d2ba efc0 aabd
00000050: 7dad f93d e843 893d e9e2 4ebe d067 09be
00000060: a0c4 1ebe 13bd 883d 9ab0 8dbd 571e c8bd
00000070: 2d90 dfbb dea6 07be 3040 95bd c635 f2bd
00000080: 635b debd e6e1 00be 0f9a ffbd 47b2 6bbd
00000090: 0874 5d3d 09a4 36bc 2f3e ea3c 702a 18be
000000a0: 86ed 40bd 884b baba 37a8 06be 61dd 2d3c
000000b0: 7f0a debd ac9e 77bd 1e4c d53d f795 39bd
000000c0: cd6e 90bd a25e 903c 53d8 07bd 1913 fd3d
000000d0: 31d7 4cbd 5f7c 033e c1f9 e73d d116 1c3c
000000e0: d4c2 363d bb43 1e3e 5883 febd 8c0c ac3d
000000f0: 95e7 f73d 7214 983d 588a b7bc 1db7 333d
00000100: e9a0 b53c fe4c aa3d d11c 0cbe 0378 cfbd
00000110: 6ea0 923c 1201 da3d abbc 35be 39b4 48be
00000120: 8da1 0abc c9ff 8c3d fddb 913c 34ac ad3d
00000130: e103 c4bd 448b 1e3e 8a41 d7bc 4858 4a3d
00000140: 30cd 953d 4d1f b1bd 8835 9dbd a575 243e
00000150: e610 cb3d 09d5 d8bd 3068 91bd 565d 19be
00000160: cf44 e73d b187 92bc 8c44 b7bd b1c5 26be
00000170: 0593 4abd 409a 44be b39e 47bd ca26 233e
00000180: 0b89 d6bd 7429 01bb 2583 eabb 6a07 03be
00000190: 3525 c03c cbff 69bd db1d f0bd 1733 0dbd
000001a0: 7f8b f43c 7cf3 25be cc81 acbd 9321 acbd
000001b0: 9a62 e23d 6249 d1bd f1f9 63bc 6ebc 8fbd
000001c0: b612 0ebe bde1 083d 4a1e d7bd 9fcb 39bd
000001d0: f8d4 3bbd 19d5 b9bd 1240 a73d 5e1b 503d
000001e0: 4857 ab3d 40b1 a13d 75bd 3b3d 4408 f33d
000001f0: 1f86 d83d 6653 a8bd deff 8cbd d850 0c3e

linears.0.weight f4 [32, 128]
6.0090755e-05 -0.00018038234 3.491497e-05 -4.230969e-05 9.104439e-05 -0.00011810851 -0.00012502783 -4.28993e-05
8.5805324e-05 5.418809e-05 0.00024364004 0.00023334567 2.5117402e-05 3.5052846e-05 -0.00014437137 0.00015907799
-0.00017727437 -0.00024985778 -0.00026819776 -3.7130317e-06 7.649035e-05 2.3575723e-05 3.1968655e-06 -3.370614e-05
0.00010486229 -0.00012755241 -0.00022951742 -1.4198085e-05 -0.00023360805 0.00018284302 1.7982791e-06 -0.00020430255
-6.3810956e-05 -3.211002e-05 5.610322e-05 -8.3074e-06 -1.1903955e-05 0.0001816756 -3.0026658e-05 -7.667043e-05
-0.00024725596 7.316416e-05 3.087315e-06 -8.200827e-06 -8.4822466e-05 9.656119e-05 -0.000117674965 -8.784098e-05
-5.3650092e-05 -9.4999405e-06 -6.2802064e-05 8.754478e-05 0.00015376735 -7.970673e-05 0.00012795921 2.6230899e-05
0.00016438737 -0.00019948801 -3.9299874e-05 4.5102975e-06 8.9463734e-05 0.00013834915 0.00023049738 0.00015686042
4.73914e-06 -7.9026744e-05 0.00017238244 0.00024613496 -7.032838e-05 -2.4529796e-05 0.00013525481 -0.00011388294
-0.00021401026 -0.00024045823 4.2018866e-05 -8.16095e-06 9.9634315e-05 0.00019185862 -4.0131392e-05 0.00012388949
-0.00022799047 2.7456586e-05 -4.0734616e-05 -4.042551e-06 0.000100454105 7.7074015e-05 -0.00022285768 5.3685794e-06
-0.00015947854 3.449978e-05 -0.0001261969 6.0057213e-05 -3.2439635e-05 1.3917486e-05 -8.290919e-05 -0.000108806686
3.8129397e-06 0.00027539607 4.852031e-05 2.9263785e-05 5.045289e-05 -2.389335e-05 -0.0001548591 -0.000104684754
0.00023477519 5.903447e-05 -1.5888494e-05 3.462116e-05 7.501183e-05 -6.0409544e-05 0.00013764776 0.00015324779
0.00015685947 0.00012964403 9.6309974e-05 -9.90201e-05 -0.00019339957 0.00017725649 -8.7109904e-05 -7.675968e-05
5.0423655e-06 9.537185e-06 -0.00018972105 8.639251e-05 2.1895583e-05 8.9113324e-05 -7.446125e-05 0.00014579839
-0.00015535858 8.118212e-05 5.4205657e-06 9.795532e-05 4.258895e-05 0.0001215859 0.000100037956 7.786887e-05
-5.974493e-05 1.1514154e-05 -1.9944848e-05 -0.00013040385 -0.00013287169 7.980301e-05 -3.9979797e-05 0.000102628284
0.00021178571 0.00011297974 -2.6048065e-05 2.8860635e-05 -1.3831689e-05 8.605724e-05 5.4187865e-05 -2.7717922e-06
5.6876026e-05 4.561963e-05 -5.2325016e-05 0.00012649129 -6.492556e-05 0.00018428604 4.7012858e-07 -4.5635268e-05
-0.00015807204 -2.3541427e-06 -7.7808494e-05 6.3718458e-06 1.9730962e-05 1.509154e-06 5.224032e-05 2.1905804e-05
-0.00015989866 -0.00016541491 9.014251e-05 9.139461e-05 -0.00010332009 6.225684e-05 -8.350511e-06 -1.0135963e-05
-7.5481345e-05 -0.00013147881 -0.00010934447 1.16604515e-05 -0.00010940362 0.00014575658 0.0001996076 -0.00014702202
-8.761446e-05 9.757678e-05 -0.00018781167 -0.00014099074 6.717631e-05 -7.587642e-05 6.2292524e-06 -0.00023742653
-3.9748542e-05 3.060646e-05 0.00013003878 0.00023581789 -4.959063e-05 -0.00012656952 -0.00010599656 -9.597363e-06
-5.5830265e-06 -8.5790976e-05 6.871111e-06 3.8255585e-05 -0.0001266899 7.782697e-05 0.0001473365 0.00015497569
1.6305657e-05 -0.0001121867 -0.00022949946 -4.9085917e-05 6.807988e-05 -0.00041208643 6.750902e-05 -3.91893e-05
6.505336e-05 3.096796e-05 0.00012930449 -2.0773641e-05 -7.916516e-05 0.0003420371 7.941441e-05 -0.00011620709
1.6091204e-05 -0.00012777493 0.00013473415 7.486273e-05 -8.0590755e-05 0.00011729467 7.409363e-05 -1.9929143e-05
3.781762e-05 -4.4248656e-05 -9.1267044e-05 9.6656215e-05 -5.2455016e-05 -0.00018177394 0.00018249823 -0.0001766778
-4.801791e-06 0.00013481038 7.803727e-06 3.585675e-05 8.43471e-06 -5.2184205e-05 7.1431286e-06 7.983095e-06
0.00015717799 3.3172455e-05 -2.1236841e-05 0.00017051626 4.400587e-06 0.00014872219 0.00013850142 6.182123e-05
00000000: f509 7c38 0425 3db9 aa71 1238 af75 31b8
00000010: 16ef be38 06b1 f7b8 e719 03b9 c6ee 33b8
00000020: 62f2 b338 0548 6338 a079 7f39 40ae 7439
00000030: 36b3 d237 b505 1338 6562 17b9 2cce 2639
00000040: bae2 39b9 58ff 82b9 e59c 8cb9 662d 79b6
00000050: 7269 a038 7bc4 c537 bb89 5636 b15f 0db8
00000060: 83e9 db38 97bf 05b9 9daa 70b9 5034 6eb7
00000070: aff4 74b9 8db9 3f39 665c f135 0c3a 56b9
00000080: 3fd2 85b8 dfad 06b8 6050 6b38 0360 0bb7
00000090: 19b7 47b7 2c80 3e39 c2e1 fbb7 20ca a0b8
000000a0: 22a2 81b9 b66f 9938 ab2f 4f36 4996 09b7
000000b0: b7e2 b1b8 e580 ca38 44c8 f6b8 4437 b8b8
000000c0: 5906 61b8 ef61 1fb7 9ab4 83b8 3f98 b738
000000d0: 9c3c 2139 3a28 a7b8 ca2c 0639 6d0a dc37
000000e0: 665f 2c39 a82d 51b9 ebd5 24b8 2957 9736
000000f0: 7a9e bb38 d111 1139 abb1 7139 e67a 2439
00000100: e704 9f36 29bb a5b8 8fc1 3439 ad0b 8139
00000110: 437d 93b8 56c5 cdb7 30d3 0d39 70d4 eeb8
00000120: f167 60b9 8423 7cb9 6a3d 3038 03eb 08b7
00000130: c4f2 d038 a82d 4939 c152 28b8 55e8 0139
00000140: ba10 6fb9 9252 e637 76da 2ab8 40a5 87b6
00000150: e3aa d238 cca2 a138 e7ae 69b9 bf23 b436
00000160: b239 27b9 dbb3 1038 b953 04b9 f1e5 7b38
00000170: cb0f 08b8 267f 6937 88df adb8 252f e4b8
00000180: cee1 7f36 0963 9039 4982 4b38 807b f537
00000190: 619d 5338 946e c8b7 ac61 22b9 338a dbb8
000001a0: fc2d 7639 c89b 7738 4848 85b7 3036 1138
000001b0: ab4f 9d38 4160 7db8 8a55 1039 24b1 2039
000001c0: a57a 2439 0ef1 0739 06fa c938 03a9 cfb8
000001d0: 4dcb 4ab9 eddd 3939 c6ae b6b8 0afa a0b8
000001e0: 9731 a936 e601 2037 dbef 46b9 a02d b538
000001f0: 68ac b737 5ae2 ba38 1428 9cb8 75e1 1839
00000200: c0e7 22b9 5240 aa38 4ee2 b536 5d6d cd38
00000210: 89a1 3238 effb fe38 78cb d138 884d a338
00000220: a196 7ab8 ea2c 4137 3c4f a7b7 04bd 08b9
00000230: 7953 0bb9 ea5b a738 fbaf 27b8 243a d738
00000240: cb12 5e39 89ef ec38 cb81 dab7 be19 f237
00000250: a70e 68b7 a179 b438 c747 6338 0703 3ab6
00000260: 2b8e 6e38 b457 3f38 8f77 5bb8 bfa2 0439
00000270: a528 88b8 e83c 4139 fb65 fc34 7f68 3fb8
00000280: 24c0 25b9 ddfb 1db6 1e2d a3b8 bdcd d536
00000290: eb83 a537 238e ca35 9e1c 5b38 5bc2 b737
000002a0: 78aa 27b9 3a73 2db9 e40a bd38 1cab bf38
000002b0: 8dad d8b8 e38f 8238 2c19 0cb7 a10d 2ab7
000002c0: bd4b 9eb8 93dd 09b9 de4f e5b8 42a1 4337
000002d0: 9f6f e5b8 3cd6 1839 c24d 5139 ec29 1ab9
000002e0: a8bd b7b8 23a2 cc38 50ef 44b9 ead6 13b9
000002f0: 02e1 8c38 d81f 9fb8 df04 d136 b3f5 78b9
00000300: acb7 26b8 705f 0038 055b 0839 e245 7739
00000310: 89ff 4fb8 bfb7 04b9 784a deb8 5c04 21b7
00000320: d555 bbb6 aeea b3b8 658e e636 9f74 2038
00000330: 10d8 04b9 0937 a338 577e 1a39 f880 2239
00000340: 22c8 8837 c745 ebb8 cba5 70b9 9ae1 4db8
00000350: 1bc6 8e38 4e0d d8b9 a193 8d38 315f 24b8
00000360: 426d 8838 98e3 0138 e995 0739 0e43 aeb7
00000370: 7905 a6b8 7153 b339 498b a638 35b4 f3b8
00000380: 99fb 8637 52fb 05b9 6c47 0d39 9fff 9c38
00000390: d502 a9b8 19fc f538 b762 9b38 822d a7b7
000003a0: 5c9e 1e38 a297 39b8 9f66 bfb8 e9b3 ca38
000003b0: 2503 5cb8 929a 3eb9 ff5c 3f39 9642 39b9
000003c0: 121f a1b6 e35b 0d39 c1ec 0237 e464 1638
000003d0: ce82 0d37 5de0 5ab8 02af ef36 22ef 0537
000003e0: 25d0 2439 a722 0b38 c525 b2b7 9ccc 3239
000003f0: c1a8 9336 4ff2 1b39 b13a 1139 05a6 8138

linears.0.bias f4 [32]
0.00017644737 1.1095512e-05 2.1356342e-05 7.3982446e-05 2.0372758e-05 -5.882403e-05 -5.978293e-05 -2.7825172e-05
-0.00012395561 -4.6184137e-05 0.00016316594 -8.614455e-05 0.0002555178 -3.5862395e-05 -8.787575e-05 -7.1760616e-05
-3.2573524e-05 -9.7985394e-05 -0.00019328638 -0.000104625986 -0.00016007727 0.00011019864 2.611084e-06 0.010655116
-0.00015390519 -0.0001362404 0.0004013089 -0.0001266595 2.9908326e-05 -5.940312e-05 -2.4772053e-06 0.04511124
00000000: bb04 3939 dc26 3a37 6526 b337 0627 9b38
00000010: 2ae6 aa37 d2b9 76b8 6fbf 7ab8 1a6a e9b7
00000020: 15fa 01b9 d7b5 41b8 8617 2b39 81a8 b4b8
00000030: 05f7 8539 f46a 16b8 ef49 b8b8 307e 96b8
00000040: 8e9f 08b8 827d cdb8 ebac 4ab9 a66a dbb8
00000050: 6ada 27b9 721a e738 153a 2f36 cc92 2e3c
00000060: 9c61 21b9 c1db 0eb9 c566 d239 e7cf 04b9
00000070: a4e3 fa37 9d27 79b8 103e 26b6 90c6 383d

linears.2.weight f4 [2, 32]
-8.4123516e-05 7.130732e-05 -0.00010551628 -3.0789506e-05 -4.3256667e-05 0.000113813934 -4.879958e-05 2.424179e-05
0.0001312081 -0.60549635 -0.0001680907 -7.300961e-05 1.5515183e-05 -0.5708098 -5.0275867e-05 -3.7751847e-06
-4.366053e-05 -7.00931e-05 -0.2901549 -6.6993474e-05 -0.3328185 2.8409491e-05 -0.024234587 0.7839277
-8.5678694e-05 8.731575e-05 -0.00011848662 -0.00025058782 0.00016907082 2.561653e-06 -1.787538e-05 0.88946855
6.9573114e-05 6.858202e-07 -6.792855e-05 -3.9448136e-05 3.5107132e-05 -0.0001221684 -0.00010080586 1.53035e-05
7.744615e-05 0.59098506 5.050762e-05 -2.1632277e-05 -1.2864134e-05 0.61142105 -0.00011119901 5.0424565e-05
2.9565404e-05 4.397321e-05 0.36016884 1.5133483e-05 0.17818953 5.6858193e-05 -0.043744106 -0.80698526
0.00012889027 -6.5594475e-05 3.4810073e-06 -3.4210363e-05 -0.00022965271 -0.00021779056 4.223787e-05 -0.8941534
00000000: 786b b0b8 d38a 9538 9f48 ddb8 fb23 01b8
00000010: 7e6e 35b8 64af ee38 26ae 4cb8 d95a cb37
00000020: e894 0939 cf01 1bbf 8141 30b9 bc1c 99b8
00000030: 9a26 8237 9720 12bf 4ddf 52b8 2e59 7db6
00000040: 2320 37b8 f2fe 92b8 2f8f 94be d97e 8cb8
00000050: 3067 aabe eb50 ee37 9d87 c6bc 7caf 483f
00000060: 66ae b3b8 491d b738 057c f8b8 5461 83b9
00000070: 9a48 3139 dde8 2b36 16f3 95b7 36b4 633f
00000080: c8e7 9138 3519 3835 dd74 8eb8 1d75 25b8
00000090: ff3f 1338 551a 00b9 bc67 d3b8 0460 8037
000000a0: 966a a238 cc4a 173f 25d8 5338 f676 b5b7
000000b0: 09d3 57b7 1786 1c3f 8433 e9b8 f77e 5338
000000c0: 3903 f837 e06f 3838 0d68 b83e d1e5 7d37
000000d0: 5177 363e 057b 6e38 052d 33bd 9696 4ebf
000000e0: b826 0739 c48f 89b8 409b 6936 197d 0fb8
000000f0: eece 70b9 b55e 64b9 9128 3138 3de7 64bf

linears.2.bias f4 [2]
0.08387722 -6.165126e-05
00000000: d2c7 ab3d c54a 81b8

exp_avg f4 [128, 4, 12]
0.00012872324 -0.00018840935 5.8707083e-05 0.00016127346 0.00021227966 -3.6042577e-05 0.00012922486 3.5278538e-07
3.325913e-05 -9.5110976e-05 -0.0002800629 0.00010978158 -0.00038494225 -0.0004289387 0.00051604817 0.00024854232
-0.00030788247 0.0007255144 6.848564e-05 5.045146e-06 0.0002038207 -1.0062302e-05 -0.00086813606 0.00015326194
1.107387e-05 0.0005348189 -0.000813047 -0.0003692848 -0.0001368813 -0.00077479595 1.433366e-06 0.0002560628
-0.00040716043 5.3028027e-05 0.0012741251 -0.00018517347 0.00024514514 8.2529186e-05 0.00023829166 -4.053094e-05
0.00023248408 8.532408e-05 -0.00019914396 -0.00026146075 0.0001700807 5.2145228e-05 -0.00012592603 -7.787006e-05
-0.00016055208 0.0003620692 8.147616e-05 -6.109765e-05 -0.00020498263 -0.00017012103 -0.00061639736 -0.00084557576
-8.2392806e-05 0.00074087584 -0.00027690892 -0.00011078629 -0.000118725424 0.00017554675 0.0003243992 0.00063992944
-7.148828e-05 -0.00036032495 1.572732e-05 -0.00033470622 0.001817328 0.0006321806 0.00045507858 -0.00023560351
0.00026684414 -0.000103299775 -0.00083804794 -0.00016035036 0.00023095845 -0.00074386084 0.00056169985 0.0010300024
-0.0017115575 -0.0012322202 -6.701093e-05 0.00016372459 1.24333565e-05 -0.0004343162 0.00043217253 -0.00041848124
4.5512377e-05 0.001274307 3.8970316e-05 0.00015027983 -2.3377848e-05 -0.00014083632 -0.00011115877 0.00018266519
0.0003304745 0.003092549 0.003138405 0.00053604454 0.0012358696 -9.629956e-05 -0.0014083425 0.00031476456
-0.00027833713 -0.00081897824 -0.0023883723 -0.0016869359 0.0025008637 0.00030419833 -0.0028561552 -7.915587e-05
-0.00122998 0.001576157 -0.0002115591 -0.0007554625 -0.00018108399 -0.001301882 4.2574906e-05 -0.00055647304
0.00033655437 -0.0013165956 -0.0007455302 -0.00028176318 0.0006625337 -0.0015784806 0.0014325464 0.00011833219
0.00034160583 0.002025739 0.002428478 0.0018990973 -0.0031678928 -0.0020801518 0.0004632801 -0.00017512547
-0.0006684235 9.862288e-05 0.0001873553 0.0003223656 0.000117815325 9.5121424e-05 -8.2680606e-05 0.00034431161
-5.5326254e-06 0.00023475688 7.860578e-05 -2.689777e-06 -2.8728316e-05 -0.0009845283 -0.0014961712 -0.00045294137
0.00013044433 -0.0008321538 8.214103e-05 -0.00020164232 0.00055929855 0.0010758387 7.2825e-05 -0.0008010325
0.00043226013 0.00079929177 0.00016533291 0.00013265492 -0.0004357069 -0.0006264949 0.00053890835 -0.00024021346
0.002063404 -0.0013911936 -5.8052417e-05 0.00010873538 5.6456298e-05 0.00017720468 0.0012238228 0.00033288522
-0.00031178043 -0.0001970695 -0.0013360786 -0.0011941718 -0.0026171694 8.0597885e-05 -9.337832e-05 0.00069498696
-0.00045998808 8.032052e-06 0.00010701542 -1.2598767e-05 0.00061704294 0.0016557183 0.00071502913 0.0016360277
-0.0007350347 -0.002033185 0.0021183237 0.00061306654 -0.0010223993 -0.0017645153 0.0003196528 -0.00012596932
-0.0011319935 -0.00019941223 -0.0020027638 0.0004623544 -0.00046404076 0.0008648293 -0.0034827024 0.0005541519
-0.00054364285 -8.8105146e-05 -0.0012553206 -0.0012117624 -0.0007458347 -0.0022600624 -0.00056145206 0.0018304546
0.004593742 0.0009700909 0.00083282246 -0.0007665338 0.001952131 0.0014772549 0.0005188062 0.0008560319
0.00095769786 0.0010718276 -0.00019810107 -0.0022806106 -0.0033946673 0.00019826446 0.0005315559 -0.00040068477
-0.00038608917 0.00037536575 0.00041686159 0.00048170012 0.0009201304 0.0013876467 0.002762317 -1.2198124e-05
-0.00055927417 -0.00024249594 0.00012737335 0.00015412213 2.4985971e-05 0.00011466059 0.0007493438 0.00012127123
-0.0003748934 -0.0005362923 -0.00071403984 -0.00067145214 -0.00032309422 -2.2029471e-05 0.00044835324 -0.0005053802
00000000: e2f9 0639 c08f 45b9 403c 7638 841b 2939
00000010: 6397 5e39 6c2c 17b8 8980 0739 7466 bd34
00000020: b87f 0b38 5176 c7b8 68d5 92b9 893a e638
00000030: 13d2 c9b9 2ee3 e0b9 6847 073a c94e 8239
00000040: 496b a1b9 7230 3e3a f39f 8f38 7949 a936
00000050: b4b8 5539 42d1 28b7 a093 63ba f0b4 2039
00000060: e9c9 3937 1733 0c3a a922 55ba 919c c1b9
00000070: cb87 0fb9 ad1b 4bba 1562 c035 2b40 8639
00000080: 2678 d5b9 696a 5e38 8b00 a73a 202b 42b9
00000090: d386 8039 8513 ad38 eedd 7939 c4ff 29b8
000000a0: f8c6 7339 04f0 b238 4dd1 50b9 ab14 89b9
000000b0: b157 3239 83b6 5a38 030b 04b9 2c4e a3b8
000000c0: df59 28b9 1bd4 bd39 2ede aa38 8d21 80b8
000000d0: 9bf0 56b9 8462 32b9 ba95 21ba a1a9 5dba
000000e0: 4dca acb8 5637 423a 162e 91b9 f055 e8b8
000000f0: 3afc f8b8 f912 3839 2014 aa39 f0c0 273a
00000100: faeb 95b8 ffe9 bcb9 2aee 8337 827b afb9
00000110: 6933 ee3a ecb8 253a 9d97 ee39 560c 77b9
00000120: 37e7 8b39 a5a2 d8b8 72b0 5bba b923 28b9
00000130: 702d 7239 a8ff 42ba 0a3f 133a 2501 873a
00000140: 5756 e0ba 7382 a1ba 3888 8cb8 7cad 2b39
00000150: dc98 5037 efb4 e3b9 3795 e239 9a67 dbb9
00000160: 8be4 3e38 a606 a73a 0f74 2338 6f94 1d39
00000170: 8c1b c4b7 76ad 13b9 e91d e9b8 d089 3f39
00000180: 8943 ad39 5dac 4a3b b3ad 4d3b 5785 0c3a
00000190: e7fc a13a 6ff4 c9b8 2298 b8ba fc06 a539
000001a0: c7ed 91b9 b3b0 56ba 3d86 1cbb 2d1c ddba
000001b0: 88e5 233b cf7c 9f39 552e 3bbb 7c00 a6b8
000001c0: 4837 a1ba 0e97 ce3a f7d5 5db9 3b0a 46ba
000001d0: 5de1 3db9 e9a3 aaba 7592 3238 46e0 11ba
000001e0: 9073 b039 9e91 acba af6f 43ba 9db9 93b9
000001f0: e2ad 2d3a 05e5 ceba 48c4 bb3a 1c29 f838
00000200: 8f19 b339 43c2 043b 1a27 1f3b 22eb f83a
00000210: 6c9c 4fbb 2853 08bb 67e4 f239 e3a1 37b9
00000220: 2439 2fba c1d3 ce38 ce74 4439 2e03 a939
00000230: 9f13 f738 ed7b c738 d064 adb8 b984 b439
00000240: e4a4 b9b6 1229 7639 28d9 a438 0482 34b6
00000250: 97fd f0b7 4a0b 81ba 2d1b c4ba c378 edb9
00000260: e2c7 0839 e524 5aba 2143 ac38 f36f 53b9
00000270: e49d 123a 2803 8d3a a0b9 9838 62fc 51ba
00000280: f9a0 e239 9087 513a 375d 2d39 4919 0b39
00000290: 976f e4b9 5c3b 24ba 8745 0d3a cfe1 7bb9
000002a0: 2d3a 073b b658 b6ba 4f7d 73b8 dd08 e438
000002b0: 7dcb 6c38 05d0 3939 ae68 a03a 1987 ae39
000002c0: 7676 a3b9 71a4 4eb9 5c1f afba c285 9cba
000002d0: d184 2bbb a906 a938 1bd4 c3b8 c92f 363a
000002e0: 8e2a f1b9 67c1 0637 776d e038 4b5f 53b7
000002f0: 0dc1 213a b004 d93a cb70 3b3a fb6f d63a
00000300: 58af 40ba 2f3f 05bb 93d3 0a3b 33b6 203a
00000310: 0702 86ba 4f47 e7ba 1397 a739 a216 04b9
00000320: 665f 94ba 5019 51b9 cd40 03bb 2868 f239
00000330: 7f4a f3b9 b6b5 623a 0d3e 64bb 8144 113a
00000340: 4183 0eba 17c5 b8b8 9289 a4ba 00d4 9eba
00000350: 1f84 43ba 8e1d 14bb 692e 13ba ddeb ef3a
00000360: 1a87 963b b34d 7e3a c551 5a3a 36f1 48ba
00000370: a6de ff3a 73a0 c13a 7f00 083a 5467 603a
00000380: 040e 7b3a 917c 8c3a 5ab9 4fb9 4c76 15bb
00000390: 1179 5ebb 36e5 4f39 1d58 0b3a 0013 d2b9
000003a0: 036c cab9 bdcc c439 378e da39 b28c fc39
000003b0: e834 713a b2e1 b53a fd07 353b 8ba6 4cb7
000003c0: 419c 12ba 8246 7eb9 868f 0539 d89b 2139
000003d0: f798 d137 ef75 f038 9c6f 443a ff52 fe38
000003e0: 578d c4b9 f895 0cba 672e 3bba 6404 30ba
000003f0: f964 a9b9 eecb b8b7 f410 eb39 7e7b 04ba

exp_avg_sq f4 [128, 4, 12]
6.614583e-06 7.327633e-06 9.385283e-07 5.5650903e-06 6.9048915e-06 1.8083597e-07 3.5872054e-06 1.2958256e-08
3.7637284e-07 9.882755e-07 3.082708e-06 1.8711737e-06 6.309795e-06 5.017457e-06 3.4071252e-06 3.5428593e-06
2.924752e-06 3.6514807e-06 4.7701815e-06 4.0492213e-07 3.2490793e-06 8.865535e-07 3.412892e-06 9.735261e-07
3.8086205e-06 4.0994787e-06 5.160336e-06 7.571148e-06 4.622416e-06 4.505768e-06 3.5361375e-06 1.2715944e-06
6.789716e-06 1.997234e-06 4.016877e-06 3.023529e-06 5.0311615e-07 1.2358074e-06 1.513285e-06 4.0115224e-06
4.6617424e-06 8.8274675e-07 6.607801e-06 8.739174e-07 6.9570688e-06 1.4623666e-07 6.5627187e-06 1.3574537e-07
1.7480988e-06 4.5497827e-06 8.8046994e-07 1.5506726e-07 1.6400113e-06 2.8619015e-06 1.2770948e-05 5.5613177e-06
1.3480116e-06 1.6774164e-06 8.4482135e-06 4.108199e-06 5.499025e-07 4.225192e-06 4.963556e-06 7.9675065e-06
6.5562135e-06 6.6559587e-06 7.8954946e-07 6.068819e-06 5.9658046e-06 1.03682505e-05 8.839109e-06 7.2526623e-06
1.1219557e-06 9.731554e-06 7.175185e-06 7.2660537e-06 9.020672e-06 1.1443098e-05 1.2809329e-05 1.26005625e-05
6.0364705e-06 9.863477e-06 3.104033e-06 9.264686e-06 1.5802895e-07 9.702371e-07 2.489723e-06 9.1176225e-06
1.3809185e-05 7.2035505e-06 4.8982162e-08 3.5482408e-06 1.9167633e-06 8.5616165e-07 2.0203854e-06 7.758838e-07
8.573579e-06 1.7993474e-05 1.322727e-05 3.8395365e-06 9.083012e-06 3.2158591e-06 8.144309e-06 1.8232347e-06
9.244991e-07 1.8585877e-06 1.991719e-05 1.4454272e-05 9.809945e-06 3.944032e-06 1.2874185e-05 1.006579e-05
1.6870226e-05 1.5834921e-05 1.491211e-05 1.6170077e-05 1.5139585e-05 9.736971e-06 1.9694828e-06 8.595275e-06
1.7137038e-06 1.591574e-05 1.877005e-05 6.828352e-06 6.257096e-06 1.6482576e-05 1.1420245e-05 3.0739568e-06
1.7404462e-05 1.3062617e-05 8.61425e-06 1.7513325e-05 1.7251754e-05 2.102027e-05 1.2934341e-06 1.1528006e-06
1.49912685e-05 8.221711e-07 7.490259e-07 1.5426649e-05 3.1265233e-06 6.9033473e-07 1.1139717e-05 4.95192e-07
2.2260698e-05 2.4083494e-05 4.1783655e-06 1.1899987e-06 1.846032e-06 4.0311723e-05 2.5756777e-05 3.916426e-06
4.446384e-05 6.51628e-06 1.1274946e-07 2.268738e-05 8.079185e-06 3.150284e-05 4.3068907e-05 3.155109e-05
3.359433e-05 2.410479e-05 7.947534e-06 2.7377807e-06 7.183601e-06 3.6661133e-06 3.84214e-05 1.7097373e-05
1.7374208e-05 2.8956465e-05 2.6858575e-05 1.9829202e-05 3.9507051e-07 1.3286753e-05 3.8541908e-05 8.093856e-06
3.2489228e-05 4.063284e-05 3.984869e-05 2.507258e-05 3.4527493e-05 1.9312215e-07 3.5415105e-05 1.8312032e-05
3.224594e-05 1.9253874e-07 2.1562342e-05 2.2354625e-06 7.980976e-06 4.618603e-05 1.2644083e-06 2.801834e-05
3.6598747e-05 7.54065e-05 3.513583e-05 0.00010359278 4.1983567e-05 7.6835946e-05 1.995176e-05 5.524453e-06
0.000113155744 0.0001101815 9.557033e-05 3.646676e-05 7.064394e-05 6.0167164e-05 5.7366167e-05 6.9914117e-06
0.0001061842 5.279829e-05 3.893662e-05 4.1286698e-05 1.474975e-05 5.473784e-05 6.0174814e-05 4.949844e-05
9.954403e-05 2.0155583e-05 8.178645e-05 7.730612e-05 6.255666e-05 2.7476231e-05 1.323738e-05 2.6949816e-05
9.3990064e-05 5.7897567e-05 2.154982e-05 8.562633e-05 0.00010156167 1.398748e-05 3.2697735e-06 6.372387e-05
8.043976e-06 1.05820545e-05 8.286282e-06 1.1448855e-05 2.7542748e-05 1.9434543e-05 5.200197e-05 8.086215e-06
2.9072787e-06 1.6438461e-06 9.697579e-08 4.183887e-08 1.3081589e-08 4.820317e-07 2.919542e-07 1.4183269e-07
1.3481389e-06 3.4127986e-06 2.044258e-06 2.8299514e-06 3.0975917e-07 2.2850952e-06 2.255992e-06 1.0645585e-06
00000000: d6f2 dd36 e3df f536 2cef 7b35 c3bb ba36
00000010: 91b0 e736 d02b 4234 b8bb 7036 039f 5e32
00000020: 4a10 ca34 e3a4 8435 85e0 4e36 0a25 fb35
00000030: bab8 d336 a15b a836 f7a5 6436 dcc1 6d36
00000040: db46 4436 f60b 7536 8c0f a036 1364 d934
00000050: c20a 5a36 7efb 6d35 0a09 6536 1aaa 8235
00000060: 9a97 7f36 418e 8936 f326 ad36 ab0b fe36
00000070: 401a 9b36 4130 9736 614e 6d36 a7ab aa35
00000080: 37d3 e336 3808 0636 b6c8 8636 d5e7 4a36
00000090: e10d 0735 05de a535 141c cb35 b79a 8636
000000a0: 106c 9c36 e5f5 6c35 94b8 dd36 2597 6a35
000000b0: c470 e936 3a05 1d34 5335 dc36 67c1 1134
000000c0: 38a0 ea35 56aa 9836 6f59 6c35 9080 2634
000000d0: 5c1e dc35 180f 4036 ce42 5637 5b9b ba36
000000e0: 53ed b435 9723 e135 cdbc 0d37 29d9 8936
000000f0: 039d 1335 1fc6 8d36 9f8c a636 2eac 0537
00000100: 72fd db36 4056 df36 6df1 5335 c2a2 cb36
00000110: df2d c836 4cf3 2d37 af4b 1437 e55b f336
00000120: 1b96 9635 b544 2337 5fc2 f036 edce f336
00000130: 7e57 1737 bbfb 3f37 a6e7 5637 0167 5337
00000140: e38c ca36 507b 2537 e24e 5036 866f 1b37
00000150: abae 2934 1839 8235 1e15 2736 e4f7 1837
00000160: ffad 6737 07b6 f136 7560 5233 501e 6e36
00000170: bea1 0036 fbd2 6535 f595 0736 5446 5035
00000180: 3ed7 0f37 b1f0 9637 b1ea 5d37 5ed5 8036
00000190: 3d63 1837 0ad0 5736 8aa3 0837 deb5 f435
000001a0: 182b 7835 9674 f935 d713 a737 a080 7237
000001b0: 6595 2437 fa56 8436 34fe 5737 3de0 2837
000001c0: 8984 8d37 3cd5 8437 062f 7a37 faa4 8737
000001d0: 0600 7e37 f95b 2337 752b 0436 6d34 1037
000001e0: 6a02 e635 cb82 8537 6074 9d37 191f e536
000001f0: 0cf4 d136 1044 8a37 9499 3f37 2d4a 4e36
00000200: ccff 9137 8327 5b37 ec85 1037 94e9 9237
00000210: dcb7 9037 b054 b037 0f9a ad35 edb9 9a35
00000220: 0283 7b37 2bb3 5c35 ab10 4935 7a68 8137
00000230: 43d1 5136 714f 3935 b8e4 3a37 56ed 0435
00000240: 7cbc ba37 e906 ca37 e333 8c36 0bb8 9f35
00000250: 2dc5 f735 6214 2938 4210 d837 d869 8336
00000260: af7e 3a38 6ba6 da36 ac20 f233 c750 be37
00000270: d68b 0737 eb21 0438 e3a4 3438 ba55 0438
00000280: a3e7 0c38 a434 ca37 6656 0537 b7ba 3736
00000290: aa0a f136 5907 7636 aa26 2138 546c 8f37
000002a0: d4be 9137 89e7 f237 5a4e e137 e356 a637
000002b0: 141a d434 2bea 5e37 0fa8 2138 d9ca 0737
000002c0: 0b45 0838 2e6d 2a38 3523 2738 f552 d237
000002d0: 9dd1 1038 035d 4f34 ae8a 1438 ca9c 9937
000002e0: d03f 0738 a5bc 4e34 c7e0 b437 f404 1636
000002f0: 08e6 0537 dfb7 4138 bdb4 a935 ed08 eb37
00000300: 9b81 1938 8e23 9e38 cf5e 1338 f33f d938
00000310: 8317 3038 fc22 a138 145e a737 b15e b936
00000320: 074e ed38 3e11 e738 ee6c c838 e3f3 1838
00000330: ad26 9438 005c 7c38 749c 7038 c597 ea36
00000340: 35af de38 bb73 5d38 e14f 2338 412b 2d38
00000350: b275 7737 4f96 6538 3764 7c38 8c9c 4f38
00000360: 4bc2 d038 c913 a937 c484 ab38 681f a238
00000370: da30 8338 c27c e637 1d16 5e37 4a12 e237
00000380: 881c c538 0ad7 7238 e3c5 b437 4992 b338
00000390: 82fd d438 c5ab 6a37 486e 5b36 7ea3 8538
000003a0: 9df4 0637 9489 3137 4f05 0b37 7514 4037
000003b0: 9a0b e737 5d07 a337 b11c 5a38 07aa 0737
000003c0: ab1a 4336 1fa2 dc35 0141 d033 53b2 3333
000003d0: 70bd 6032 f764 0135 e1bd 9c34 ac4a 1834
000003e0: b3f1 b435 6f07 6536 1630 0936 32ea 3d36
000003f0: fa4c a634 a359 1936 a665 1736 f4e1 8e35

exp_avg f4 [128]
0.00022732494 -0.00027019362 -0.0004438778 -0.00053195015 0.0008753257 -0.00020027295 0.00028803237 -0.00023298414
0.001085336 -0.00057222246 -0.0003829875 -0.000492084 0.00019039775 0.00050920434 0.00040913542 -0.00032293377
0.00021487112 0.0005255395 -0.0006028436 0.0006902336 0.0003205102 0.00042309868 0.0006118887 0.0005369881
0.0007713491 0.0001931287 0.00042120347 0.0002817093 0.00043989051 -0.00032850888 -0.0008438926 -0.00059915776
-0.0003615762 -0.0005243556 0.0004765626 0.0004991656 0.0003064499 0.00045952067 -0.000676615 0.00056863367
-0.00040980504 -0.00041500278 0.00062570354 0.00040092733 -0.0004193914 0.00025509717 -0.00042131936 0.00049337134
-0.0008673403 -0.0005274953 0.00063306 -0.00059895887 -0.00051215687 -0.0005348007 0.0002788579 0.00029355707
-0.0007251843 -0.00038804123 -0.00049191597 0.0005767607 -0.000459443 -0.00051232596 -0.0005703354 -0.000512757
0.0009094101 -0.00065072434 -0.00043975338 -0.00032030963 -0.00038423666 0.0010279397 0.00036859149 0.00023638608
-0.0005785619 -0.00059610815 0.0007335414 0.0004889179 0.001364301 -0.00040068175 -0.0004432895 -0.00042036152
0.00037551628 0.0003799985 -0.0005282357 -0.00067536044 0.0005742385 0.0005194434 0.00034540435 0.00056480133
-0.0002779467 0.0005304776 0.00035099903 0.0003368123 0.0005285728 1.5819254e-06 -0.0007550753 -0.00039707712
0.00049064704 0.00036418825 0.00020066975 -0.0005215615 -0.00030764577 0.0005193731 0.0006448079 -0.0005922327
0.00063925545 0.00037808085 0.000539503 -0.0006167039 -0.00053756236 -0.00042550563 -0.00036189068 -0.00039298923
0.00032406623 -0.0006702689 0.00047506197 0.0003379718 -0.00045516758 -0.00044575232 0.00047570682 -0.000533281
0.00036572522 -0.00040269003 -0.0004711341 0.00047416944 0.000537721 0.0004112661 -0.00081378315 -0.00049107964
00000000: 135e 6e39 c6a8 8db9 45b8 e8b9 9272 0bba
00000010: 1d76 653a 5c00 52b9 0d03 9739 344d 74b9
00000020: d541 8e3a 3301 16ba b6cb c8b9 33ff 00ba
00000030: 82a5 4739 207c 053a 3a81 d639 704f a9b9
00000040: 074f 6139 5cc4 093a 2608 1eba cbf0 343a
00000050: 270a a839 58d3 dd39 2867 203a a9c4 0c3a
00000060: 5d34 4a3a 9782 4a39 f9d4 dc39 62b2 9339
00000070: 1ba1 e639 b73b acb9 ac38 5dba cc10 1dba
00000080: f091 bdb9 e974 09ba 26db f939 70da 023a
00000090: 02ab a039 d2eb f039 dd5e 31ba 5c10 153a
000000a0: 1adb d6b9 bb94 d9b9 4106 243a 8e33 d239
000000b0: c3e1 dbb9 90be 8539 87e4 dcb9 9755 013a
000000c0: 395e 63ba 9c47 0aba f0f3 253a 7303 1dba
000000d0: 4442 06ba de31 0cba ac33 9239 90e8 9939
000000e0: 4b1a 3eba 0372 cbb9 ecf3 00ba c131 173a
000000f0: 65e1 f0b9 9d4d 06ba 9082 15ba 8a6a 06ba
00000100: 7b65 6e3a 5f95 2aba b38e e6b9 3bef a7b9
00000110: 5f73 c9b9 efbb 863a 833f c139 68de 7739
00000120: a2aa 17ba 2444 1cba 214b 403a ba2a 003a
00000130: 58d2 b23a 9812 d2b9 4f69 e8b9 f863 dcb9
00000140: f1e0 c439 893a c739 4c79 0aba ac0a 31ba
00000150: 7e88 163a 422b 083a 6317 b539 2d0f 143a
00000160: 60b9 91b9 c00f 0b3a 4b06 b839 2f96 b039
00000170: ec8f 0a3a 8b52 d435 3ff0 45ba ca2e d0b9
00000180: c49e 003a 85f0 be39 e06a 5239 66b9 08ba
00000190: 844b a1b9 8a26 083a 5308 293a 1040 1bba
000001a0: b593 273a 2739 c639 6f6d 0d3a 4caa 21ba
000001b0: 33eb 0cba 6616 dfb9 25bc bdb9 1f0a ceb9
000001c0: 6fe7 a939 fcb4 2fba bd11 f939 cf31 b139
000001d0: 8fa3 eeb9 ddb3 e9b9 4a68 f939 e2cb 0bba
000001e0: cfbe bf39 2420 d3b9 8c02 f7b9 f299 f839
000001f0: d8f5 0c3a 349f d739 1054 55ba ccbb 00ba

exp_avg_sq f4 [128]
4.2954172e-05 6.628223e-05 0.00011835112 0.00021956999 0.00063755637 1.5370617e-05 3.988154e-05 2.0016858e-05
0.00086458324 0.0002246327 0.00013065057 0.0002152924 1.2313196e-05 0.00026153246 0.00010096861 7.425893e-05
3.609227e-05 0.0002959359 0.0003446949 0.00032547745 8.411024e-05 8.9719884e-05 0.00028153686 0.00025881256
0.0003695475 2.008784e-05 0.00010738655 5.3708867e-05 0.00015924477 0.00010431591 0.00079461955 0.00031922566
0.00014148836 0.0002453829 0.00019460532 0.00015850093 5.9436312e-05 0.00018682258 0.00033523102 0.00031831718
0.00019848898 0.000121829646 0.00039781528 0.00013380632 0.00014114959 5.0525457e-05 0.00016489803 0.00018176332
0.00075347227 0.00021643347 0.0003216759 0.00026417972 0.00019607971 0.00021199284 4.8528404e-05 6.90119e-05
0.0003957214 0.000114484734 0.00025631848 0.0002925592 0.00014721425 0.0002341372 0.00029700494 0.00024780043
0.0007756861 0.0004810112 0.00018024129 7.941229e-05 8.7159955e-05 0.0007593005 8.292116e-05 2.8881981e-05
0.00020860544 0.00028841826 0.0005186169 0.00024432535 0.0020635016 0.00014775008 0.00018959571 0.00013638298
0.00012775046 8.075438e-05 0.00028924682 0.00037569806 0.00036094035 0.00018180285 9.112527e-05 0.0003346724
8.629413e-05 0.00019752482 9.828307e-05 5.6514153e-05 0.00023338424 8.172202e-09 0.00042036196 0.00012400415
0.00014436184 6.668394e-05 3.5252706e-05 0.0002287709 8.688326e-05 0.00014056172 0.00035667064 0.0002995684
0.00042023524 7.467364e-05 0.00021532945 0.00036236196 0.00027978836 0.00013751729 0.00011491083 7.679475e-05
7.008377e-05 0.00037613497 0.00016738052 7.489463e-05 0.0001566065 0.00012897032 0.00020415096 0.00023823373
0.000101819394 0.00011592048 0.0001807275 0.00021618542 0.0002798543 0.00018378677 0.00051056786 0.00021156129
00000000: b129 3438 0001 8b38 4633 f838 5f3c 6639
00000010: af21 273a 26f0 8037 7a46 2738 e0e9 a737
00000020: 33a5 623a 628b 6b39 3fff 0839 1dc0 6139
00000030: c694 4e37 4b1e 8939 1cbf d338 76bb 9b38
00000040: c861 1738 d827 9b39 2bb8 b439 d8a4 aa39
00000050: 5764 b038 ff27 bc38 3d9b 9339 3cb1 8739
00000060: d3bf c139 4f82 a837 b734 e138 7545 6138
00000070: f1fa 2639 2ec4 da38 044e 503a be5d a739
00000080: 7e5c 1439 bca6 8039 f80e 4c39 4533 2639
00000090: 414b 7938 cee5 4339 f2c1 af39 cfe3 a639
000000a0: 7b21 5039 cb7e ff38 dd91 d039 5c4e 0c39
000000b0: 8e01 1439 4ceb 5338 7ae8 2c39 b897 3e39
000000c0: ab84 453a 6bf2 6239 9ca6 a839 9a81 8a39
000000d0: bf9a 4d39 654a 5e39 fa8a 4b38 7bba 9038
000000e0: d478 cf39 8617 f038 7c62 8639 a262 9939
000000f0: 865d 1a39 ba82 7539 54b7 9b39 36eb 8139
00000100: 6a57 4b3a 3b30 fc39 27ff 3c39 268a a638
00000110: a5c9 b638 cb0b 473a f5e5 ad38 9547 f237
00000120: 19bd 5a39 d836 9739 caf3 073a cb18 8039
00000130: d03b 073b 5ced 1a39 36ce 4639 0702 0f39
00000140: c1f4 0539 ad5a a938 0da6 9739 57f9 c439
00000150: 983c bd39 55a2 3e39 821a bf38 f876 af39
00000160: cff8 b438 aa1e 4f39 521d ce38 9c09 6d38
00000170: 9bb8 7439 b965 0c32 0764 dc39 1c07 0239
00000180: d65f 1739 abd8 8b38 4edc 1338 39e2 6f39
00000190: 1835 b638 c063 1339 86ff ba39 640f 9d39
000001a0: 0553 dc39 1b9a 9c38 0fca 6139 66fb bd39
000001b0: 8fb0 9239 8432 1039 48fc f038 de0c a138
000001c0: f0f9 9238 fb33 c539 de82 2f39 c010 9d38
000001d0: bd36 2439 353c 0739 5b11 5639 61ce 7939
000001e0: df87 d538 551a f338 ab81 3d39 d5af 6239
000001f0: 69b9 9239 e3b6 4039 a1d7 053a 8dd6 5d39

exp_avg f4 [32, 128]
0.00011945197 4.401302e-05 1.3278201e-05 7.8018646e-05 7.345283e-05 7.602951e-06 2.0597776e-05 6.478253e-05
-0.00010490801 -0.00020772763 -1.8565564e-05 -6.551333e-05 -0.00012714864 -0.00010051705 -2.1972417e-05 -4.1013227e-05
4.3636974e-05 0.00010091985 8.684361e-05 -8.533806e-05 -0.00010514431 -0.00014491657 -7.279625e-05 1.0044877e-05
-0.00010952166 -6.176456e-05 -9.930609e-05 0.00019427946 6.5593136e-05 4.1169067e-05 9.907695e-05 -2.1861488e-05
0.00015674748 -2.8379862e-05 -3.9068123e-05 -9.919107e-05 -1.3843009e-05 -0.0002261771 7.472917e-05 6.1920724e-07
9.933408e-05 9.1068345e-05 -7.247507e-05 -3.9742194e-05 4.1151165e-05 2.4508226e-05 0.00013482674 7.4912285e-05
-8.5315296e-05 -3.2574986e-05 0.000104838764 6.311404e-05 -4.096303e-05 1.5751573e-05 0.000109593704 -1.3564144e-05
-0.00017947926 6.574759e-05 -8.72419e-05 1.02991635e-05 5.899036e-05 -0.00015674051 -8.682627e-05 -5.3776876e-05
3.2327713e-05 0.000105018335 -5.5868084e-05 2.1729358e-05 -3.1589574e-05 0.0001554283 -0.00017416044 -4.9830698e-05
0.00022876826 -2.1877462e-05 2.4547233e-05 -9.330805e-05 -1.2830895e-05 -9.6512675e-05 0.00015682512 -8.3841216e-05
0.0002573542 9.5384e-06 -6.305687e-05 -8.5291824e-05 -3.6102733e-06 7.822002e-05 6.797242e-05 0.00019487458
6.369111e-05 -0.00011404687 1.4279215e-05 -0.000104998275 0.00014605194 2.1624188e-05 0.00010504331 -4.7142825e-05
-8.610135e-05 -8.705729e-05 0.00013693562 -0.00014605014 -0.00015670888 7.745069e-05 4.1012296e-05 0.00011957129
9.251632e-06 8.391816e-05 -5.5247497e-06 -3.9891733e-05 -0.0001997477 0.000105041574 -0.0001640194 -4.0982228e-05
-0.00022142242 -4.0969644e-05 6.2911764e-05 -0.000119611956 0.00020817605 -4.6420686e-05 9.455233e-05 -9.10632e-05
7.2299067e-06 4.2069834e-05 4.409178e-05 -0.0001569701 7.002942e-05 0.00011956789 0.00016717621 -2.5727397e-05
4.123096e-05 -0.00015657849 6.314215e-05 -0.00021828177 -0.00015263149 -0.00014243904 -0.00011938604 -4.0916682e-05
6.913748e-05 -0.00019420004 -0.00014067597 -4.763458e-05 0.00015680083 6.318014e-05 1.4536692e-05 -0.00015660062
-6.881429e-05 0.000119841425 0.00015241657 -0.00015662296 0.00010174704 6.3229134e-05 5.602605e-06 0.00014430685
-7.0050555e-05 -7.2788636e-05 -6.292835e-05 -0.0001219416 -3.103418e-05 -4.820747e-05 0.00015139603 0.00020431278
0.00018400865 1.8091925e-05 0.00011327316 6.314123e-05 -0.0001564876 0.00010265375 8.1402024e-05 1.4624815e-05
-2.1613998e-05 4.125407e-05 5.8884983e-05 6.3319465e-05 4.117303e-06 -8.17872e-06 0.00014440969 0.00014487837
-0.00013406255 -2.1672548e-05 0.0001629689 6.6400156e-05 1.9924633e-05 -0.0001876126 2.1934482e-05 0.00018927763
0.00013417807 -0.00016220068 6.0752354e-05 0.00019124232 -0.00019948336 0.00015689245 -0.00019529022 0.000103603976
0.0001467478 -0.00015258593 5.716948e-05 -0.00013157626 2.4845021e-05 7.932313e-05 0.00013694576 -6.632079e-05
0.00010446938 0.00020776865 8.585246e-06 2.4821706e-05 4.11434e-05 -0.00017295421 -0.0002075179 2.1865666e-05
-4.443554e-05 -4.9620678e-05 -8.974299e-06 -8.118757e-05 -0.0001817271 3.3363787e-05 -0.00016727016 7.507035e-05
6.316154e-05 -8.698778e-05 -2.6531297e-05 -6.284516e-05 0.00013107645 -1.8547316e-05 6.3115534e-05 0.00015774327
5.646552e-06 -0.000119264114 -4.0877305e-05 6.313416e-05 -2.9801683e-06 -7.8860656e-05 -0.00010892483 -5.4363786e-06
8.536788e-05 9.660294e-05 4.1278035e-05 -0.00020751705 0.00012055578 4.4116066e-05 0.00016370905 4.117965e-05
-8.511698e-05 -0.00018374292 -0.00019526177 -0.00015660046 5.627365e-06 -8.40543e-05 3.813747e-05 -7.750609e-05
2.1981798e-05 -6.04167e-05 -1.44595415e-05 8.344471e-05 -3.4289427e-05 -4.088362e-05 4.7865935e-05 -0.0001047802
00000000: 4a82 fa38 9f9a 3838 70c5 5e37 f19d a338
00000010: b00a 9a38 da1c ff36 63c9 ac37 dbdb 8738
00000020: 0f02 dcb8 76d1 59b9 3fbd 9bb7 3464 89b8
00000030: 3453 05b9 aecc d2b8 6851 b8b7 9e05 2cb8
00000040: d806 3738 efa4 d338 cf1f b638 86f7 b2b8
00000050: ec80 dcb8 bff4 17b9 30aa 98b8 6b86 2837
00000060: feae e5b8 9887 81b8 8d42 d0b8 7fb7 4b39
00000070: 0c8f 8938 f3ac 2c38 88c7 cf38 3063 b7b7
00000080: 955c 2439 4a11 eeb7 14dd 23b8 cd04 d0b8
00000090: 453f 68b7 f429 6db9 ebb7 9c38 9937 2635
000000a0: 9451 d038 f2fb be38 c2fd 97b8 dbb0 26b8
000000b0: ba99 2c38 0497 cd37 4760 0d39 3a1a 9d38
000000c0: 4deb b2b8 20a1 08b8 e2dc db38 185c 8438
000000d0: b8cf 2bb8 3f22 8437 acd5 e538 8e91 63b7
000000e0: 9932 3cb9 f8e1 8938 a3f5 b6b8 92ca 2c37
000000f0: 6b6c 7738 b65a 24b9 8016 b6b8 7b8e 61b8
00000100: 9e97 0738 4a3d dc38 e653 6ab8 7147 b637
00000110: 0c7f 04b8 77fa 2239 d69e 36b9 4e01 51b8
00000120: 83e1 6f39 7e85 b7b7 c8ea cd37 61ae c3b8
00000130: 4644 57b7 d966 cab8 6c71 2439 e9d3 afb8
00000140: 7fed 8639 1e07 2037 663d 84b8 b3de b2b8
00000150: 0648 72b6 0e0a a438 6a8c 8e38 3f57 4c39
00000160: e891 8538 722c efb8 c390 6f37 8532 dcb8
00000170: 8525 1939 9765 b537 b34a dc38 39bb 45b8
00000180: 4f91 b4b8 8792 b6b8 6096 0f39 0925 19b9
00000190: 3852 24b9 066d a238 9e04 2c38 59c2 fa38
000001a0: 7537 1b37 38fd af38 3d61 b9b6 6c51 27b8
000001b0: 5d73 51b9 c449 dc38 9ffc 2bb9 55e4 2bb8
000001c0: a12d 68b9 d2d6 2bb8 7fef 8338 2ed8 fab8
000001d0: d549 5a39 d5b3 42b8 654a c638 2ff9 beb8
000001e0: 6d98 f236 2474 3038 30ef 3838 5798 24b9
000001f0: c2dc 9238 86c0 fa38 064c 2f39 2ad1 d7b7
00000200: 68ef 2c38 382f 24b9 2f6b 8438 91e2 64b9
00000210: b40b 20b9 b05b 15b9 e45e fab8 f49d 2bb8
00000220: e7fd 9038 2da2 4bb9 6b82 13b9 3ecb 47b8
00000230: e76a 2439 947f 8438 9ee2 7337 2935 24b9
00000240: 6450 90b8 6053 fb38 03d2 1f39 283b 24b9
00000250: 0761 d538 e299 8438 03fe bb36 1351 1739
00000260: 1be8 92b8 1aa6 98b8 67f8 83b8 e6ba ffb8
00000270: b22a 02b8 6032 4ab8 10c0 1e39 cb3c 5639
00000280: 72f2 4039 1dc4 9737 118d ed38 b16a 8438
00000290: d216 24b9 d047 d738 61b6 aa38 1a5d 7537
000002a0: b54f b5b7 3808 2d38 45fb 7638 61ca 8438
000002b0: 5d27 8a36 5637 09b7 ae6c 1739 7eea 1739
000002c0: 2493 0cb9 71cd b5b7 a2e2 2a39 5040 8b38
000002d0: d323 a737 e0b9 44b9 f1ff b737 d478 4639
000002e0: 27b2 0c39 6a14 2ab9 58d0 7e38 3888 4839
000002f0: 682c 51b9 7f83 2439 d2c6 4cb9 f645 d938
00000300: 50e0 1939 79ff 1fb9 43c9 6f38 bcf7 09b9
00000310: 476a d037 485a a638 1999 0f39 b415 8bb8
00000320: 9216 db38 79dc 5939 5a09 1037 3538 d037
00000330: 6491 2c38 0b5b 35b9 2a99 59b9 296c b737
00000340: 4c60 3ab8 cc1f 50b8 5290 16b7 3f43 aab8
00000350: ff8d 3eb9 18f0 0b38 3e65 2fb9 166f 9d38
00000360: 9875 8438 356d b6b8 878f deb7 bdcb 83b8
00000370: 9171 0939 0f96 9bb7 e55c 8438 e367 2539
00000380: 8377 bd36 6f1d fab8 ac73 2bb8 e566 8438
00000390: e7fe 47b6 fe61 a5b8 936e e4b8 236a b6b6
000003a0: 8807 b338 4f97 ca38 f421 2d38 ef98 59b9
000003b0: e4d2 fc38 4409 3938 50a9 2b39 50b8 2c38
000003c0: d580 b2b8 1dab 40b9 2fbf 4cb9 1e35 24b9
000003d0: b3d2 bc36 4f46 b0b8 ccf5 1f38 c48a a2b8
000003e0: 8d65 b837 f067 7db8 4297 72b7 0aff ae38
000003f0: fed1 0fb8 747a 2bb8 a8c3 4838 71bd dbb8
