our-vTR/10_fold_lightning_logs/dataset1/fold_0/version_4/checkpoints/epoch=14-step=524_fold0.ckpt (torch, 132434 bytes, 18 tensors)

conv1d.weight f4 [128, 4, 12]
00000000: 29fc c5bd 8fef 993d 7892 873c 6b79 f0bd
00000010: a5f8 303e 6c34 86bd e6f9 ec3d 019b 01be
00000020: 7c1e 7dbd 5618 1f3e f2fb 6c3d cb1a bebd
00000030: 3c21 e93d 2abb fabc 3a82 b63d 92d9 0cbd
00000040: bcbe 9abd 94d2 983b 73a9 1a3e f153 7b3d
00000050: 4ee9 92bd a2bf 893d 9ff0 efbd 6623 b4bd
00000060: 8256 07be 1577 103e c11d fcbb 0839 823d
00000070: ffe4 9a3d 0af2 01be 478d ac3d 2093 99bd
00000080: 442d 353e 5d3a 46bc 14d3 3c3c cace 0bbe
00000090: baa6 323d 69b2 b13d c792 14be 2060 90bd
000000a0: 940a 623d 8bec 09be c10d 86bc b7f1 b4bd
000000b0: c6ae ac3d f4e9 d5bd 1f78 f0bd 3b4c 6c3e
000000c0: 9c08 5c3d d7d1 3ebe 1870 933d 11ab ec3d
000000d0: 8221 ba3d 607b 6ebe db8c 34be c530 74bd
000000e0: 5a72 98bd eb0c 8fbe 567e 9f3d 66b5 96bd
000000f0: 3cc2 543e 915c 053d 230b 14bd 5039 98bd
00000100: 5231 173e b93f f33d ff0f f6bd cd60 723d
00000110: da1a 743e c520 20be 1909 79bd 2449 3bbd
00000120: c9fd 2bbe 9e01 27bd 2c5d c3bd 05ca 83be
00000130: a502 30be 5e68 10be a365 893d ff90 083e
00000140: 7ab2 a43d 71a7 63be b6db 44bd 6946 703d
00000150: 3bb7 31be 9b5f a03d bf6d 17be ca1c f43d
00000160: e12c 4ebe fa8d 033e df63 ffbd e101 49bd
00000170: 4cca 51bc 3869 fd3d 24a2 e3bd 1d22 4abd
00000180: 5372 63bd f445 36bd 3b29 a8bd 0906 283e
00000190: 00a3 a7bd e20e 8abd b9e3 adbd 7c95 abbd
000001a0: 41fd 083d 7fe7 e6bb ee19 7d3d e967 13be
000001b0: 559b 96bd 50eb a1bc f610 043e 3c64 78be
000001c0: 4ef5 84bd fb15 dfbd b47f 5e3e b887 2a3c
000001d0: 302b 44bd c95c 37be 660a a8be f5e1 a83d
000001e0: 0d0b df3d 4e03 8b3d ed8f f93d 8891 7abd
000001f0: 3d70 0b3e 27a5 283e f66a 11bd edda f8bd
00000200: abc7 f63c 39e2 c73d 92d7 d53d 4a1d 023e
00000210: bc3a ab3d 54d3 62be 4e2e 1bbc 8cd7 2cbe
00000220: 9503 d33d 26d3 4fbe d8c1 92bd 7799 ab3d
00000230: 0ae3 e7bd 364b 89bd e5c9 00bd 639e 38be
00000240: c3e2 9fbd e99a 6abd a4f6 3fbe 18ed 8dbc
00000250: 1c57 94be 00c8 083e ae1d f0bd 55d9 54bd
00000260: 6ffe 58be 4819 88bd 1918 22bd 4f13 e73d
00000270: 10f1 fabd 71da 11bb 2927 d53d c6ff 44be
00000280: 03ce 9cbd 6f5e 53be 5efa bebd 70a9 8eba
00000290: b8d1 233e c479 923d caf9 a53d 7e1a ba3c
000002a0: 4d25 943c 37f7 dd3d c467 a23d 4690 8c3e
000002b0: 2c03 6a3d e727 963d 2202 413e ef3f 773e
000002c0: bd93 e03d 4e87 493d a1ba c23c 28ec d6bd
000002d0: 808a 493e 1287 183e 751e 013d 9d00 0fbd
000002e0: 6f5f c83c e98e 48be eb62 8abe be89 f6bd
000002f0: f96d 34be 6b67 383e e009 a63d 1d84 443c
00000300: fd48 48bd 9c6f 03be 8521 83be b6e4 6c3d
00000310: 74ce 233c 312c 09be 4582 193e 47d9 c3bd
00000320: 03d6 20be ec7d 383c d9d5 623d e588 90bd
00000330: 0af5 85bd effc af3d 8d09 563e 47b7 18be
00000340: c3db 7b3e 496a d13d 0b19 92bd 5287 0bbe
00000350: b336 c9bd b35c 873c 84fd 43bd 5393 99bb
00000360: a0d8 6bbd 9564 9abc 64ea 8c3d 8595 cd3d
00000370: 6e15 f1bc 66ca 78be 7c30 6ebe 1a25 9cbb
00000380: 5cfc 083e 6564 49be 085e 5a3c c4e4 763d
00000390: 3b01 683e ff5f c43d 7594 5bbd bb30 663c
000003a0: cf81 be3c 925c 16bc 775b fcbd 7636 9f3d
000003b0: 5e98 63be 2c01 523e ebfd 5a3e c59f c1bd
000003c0: 5b2e 373c 51cf 2a3d 15ee 5abe 2758 39be
000003d0: 7e0a 2dbe 1d0d 48bd 4a47 1ebe fe6f a03d
000003e0: d654 2dbe abd8 bdbd 38de 53bd 985f c5bc
000003f0: 8aa6 43be 8c2b 14be a0e4 8a3c e4fc 80be
-0.09667236 0.07516395 0.016549334 -0.11741909 0.1728235 -0.065529674 0.11571102 -0.12656786
-0.06179665 0.15536627 0.05785746 -0.09282454 0.11383292 -0.030606825 0.089115575 -0.03438718
-0.07555911 0.0046637747 0.15103702 0.06135935 -0.071734056 0.06726004 -0.11715817 -0.08795814
-0.13216594 0.14107926 -0.0076939766 0.06358534 0.07563209 -0.12689987 0.08425384 -0.07498765
0.17693049 -0.012098876 0.011524934 -0.13653103 0.043616034 0.08676607 -0.14509116 -0.070495844
0.05518587 -0.1346914 -0.01636398 -0.08835166 0.08431773 -0.10445014 -0.11741661 0.23075955
0.053719148 -0.18634735 0.071991146 0.11556066 0.09088422 -0.23289251 -0.17631857 -0.059616823
-0.07443686 -0.27939543 0.077877685 -0.07358818 0.2077722 0.03255898 -0.036143433 -0.074328065
0.14764908 0.118773885 -0.1201477 0.059174348 0.23838368 -0.156375 -0.06079969 -0.04572405
-0.1679603 -0.040773027 -0.095392555 -0.25740066 -0.17188509 -0.14102313 0.06708839 0.13336562
0.08041854 -0.22231843 -0.048061095 0.0586609 -0.17355053 0.07830735 -0.14787959 0.119195536
-0.20134307 0.12847129 -0.12470221 -0.049074057 -0.012804579 0.123735845 -0.1111491 -0.04934894
-0.05552895 -0.044500306 -0.08210989 0.16408552 -0.08185387 -0.0674112 -0.084907 -0.08378121
0.033444647 -0.0070466395 0.061792307 -0.14395107 -0.07353846 -0.019765526 0.12897095 -0.24256986
-0.06492101 -0.10892864 0.21728402 0.010408334 -0.04789275 -0.17906488 -0.32820433 0.08246223
0.1089078 0.0678774 0.12185655 -0.061173946 0.13617034 0.1646925 -0.035502397 -0.12151132
0.030124506 0.097599454 0.104415074 0.12706485 0.08360812 -0.22150928 -0.009471489 -0.168791
0.103034176 -0.2029539 -0.07165879 0.083788805 -0.11322601 -0.067037985 -0.03144254 -0.1802917
-0.07806923 -0.05727664 -0.1874643 -0.01732497 -0.2897271 0.13357544 -0.11724411 -0.051965076
-0.21190809 -0.06645447 -0.039573763 0.1128298 -0.1225301 -0.0022255445 0.1040786 -0.19238195
-0.07656481 -0.20641492 -0.093250975 -0.0010884237 0.1599797 0.07152131 0.08104284 0.02271771
0.018084193 0.10838168 0.07929948 0.27453822 0.05713193 0.073318295 0.1884847 0.24145482
0.10965679 0.049201302 0.023770632 -0.10494262 0.1968174 0.14895275 0.031523187 -0.034912694
0.024459569 -0.19585766 -0.27028593 -0.12037991 -0.17620076 0.18008201 0.08107352 0.011994389
-0.048897732 -0.12835544 -0.2561151 0.057835303 0.009997953 -0.13395764 0.149911 -0.09562927
-0.15706639 0.011260491 0.055379722 -0.070573606 -0.06540878 0.08593165 0.20902081 -0.14913665
0.24595551 0.102253504 -0.07133683 -0.1362584 -0.09824886 0.016523695 -0.047849193 -0.004686752
-0.057579637 -0.01884679 0.06880644 0.10038284 -0.029429164 -0.24295959 -0.23260683 -0.004765165
0.13377517 -0.19667204 0.013328083 0.06027676 0.2265672 0.09588622 -0.053608377 0.014049704
0.023255257 -0.009177344 -0.12322133 0.077740595 -0.22226092 0.2050826 0.21385925 -0.09454302
0.011180486 0.04170162 -0.21379884 -0.18100034 -0.16898534 -0.04884063 -0.15456882 0.07833861
-0.16926894 -0.09269842 -0.051725596 -0.024093434 -0.19106498 -0.14469737 0.01695472 -0.2519294

conv1d.bias f4 [128]
00000000: 0811 953a 5d69 4fbd 39af ccbd 8fd8 0bbd
00000010: 7626 7b3d a544 b73d 612a f6bd 95b9 fc3d
00000020: e532 853d ae38 0e3d 8cad 24bc fa13 f6bc
00000030: bc01 ce3c 612c 133e 5282 af3b f00c aa3d
00000040: f20b 983c f971 dabc 8535 ce3d a4fd b53d
00000050: f4da 9dba 04ea 84bd 17c6 d03d b12b 963c
00000060: e5ef 01be ab7d 933c 292b 1c3e 6f5b f1bc
00000070: cbcb 533d b4fb 13bd 7536 02be c216 2b3d
00000080: ff57 9fbd 1be3 153d 3a39 443c e56a 66bb
00000090: 6820 debc 85c4 39bd 2f2e 933d d22f 05be
000000a0: d21a ba3d 4c5a 6abd 1585 1b3d ab61 9dbd
000000b0: 20d5 72bd 4152 173d c031 a43d 5345 85bc
000000c0: 938d 023d 235d 16be 19c3 aa3a 5228 a13d
000000d0: f8d6 703d 2ca0 b63d ea0e cbbc 8801 a739
000000e0: d3c8 a63d d27c ffbd fe80 363d 36d7 28be
000000f0: 1c32 983d 22ae 5bbd 87ad 2c3d 4f6f 193e
00000100: 8273 963d 4123 52bc 9380 26bd 5c52 c2bd
00000110: 4254 9cbd 4122 d0bd 3241 6ebd 34b1 8abc
00000120: 9ac5 41bd 50bd f33c 3be7 023e 2daa db3d
00000130: 1bde 8f3d 3581 71bd ff01 863d 3967 b93d
00000140: d70d 41bd 2d9c cb3d 9ca9 393d 4f2d 11bd
00000150: 6f2b eabd 8e90 883d 01ae 96bd 53a5 1abe
00000160: 59bd 00be 0fcf 38bd 40e5 38bd 52f4 cfbb
00000170: a7e1 393d 4437 b6bd e948 a6bd 1da7 b0bd
00000180: e752 29be fbfd c93c 1f7a 09be 8e9f ccbd
00000190: b0aa 2dbe 0f22 4b3d c606 f0bd 4606 89bc
000001a0: 3cfc d03a 3fc8 403d e16f 75bd 8252 d5bd
000001b0: 8dbc 493d d6f8 b2bd a98b ed3d c3f9 12be
000001c0: 397e 12bc 68e7 e0bd 6fcf eb3c d5ce 1cbd
000001d0: 7830 b13c b08d 7cbd 71d1 d53c 9263 debd
000001e0: 2f95 cdbd de89 f3bd 09a1 babd 8e04 0fbe
000001f0: 9aab 0a3e 7314 7b3d f821 113e 1cdd 4fba
0.0011372874 -0.05063759 -0.099943586 -0.034142073 0.061315976 0.0894864 -0.12019802 0.123400845
0.06503848 0.034722023 -0.010051142 -0.030038822 0.025147311 0.14372398 0.0053561116 0.08303249
0.018560383 -0.026665675 0.10068802 0.08886269 -0.0012043403 -0.064899474 0.10194033 0.01833138
-0.12689169 0.01800426 0.1525084 -0.029462544 0.051708024 -0.036128715 -0.12716086 0.04176975
-0.07780456 0.036593538 0.0119765345 -0.003515893 -0.027115062 -0.04535343 0.07186543 -0.13006523
0.09087147 -0.05721502 0.037968714 -0.07684644 -0.059285283 0.036943678 0.080173016 -0.016268408
0.031873297 -0.14683966 0.0013028114 0.078690186 0.05879876 0.08917269 -0.024787385 0.00031853863
0.08143773 -0.124749795 0.04455661 -0.16488346 0.074314326 -0.053632863 0.042157676 0.14983867
0.0734625 -0.012825788 -0.04064996 -0.09488365 -0.076332584 -0.101627834 -0.058167644 -0.0169302
-0.04730759 0.029753357 0.1278352 0.10725818 0.07024785 -0.058961112 0.065433495 0.09052891
-0.04713234 0.099418975 0.045327768 -0.0354436 -0.114340656 0.066681966 -0.07357407 -0.15102129
-0.1257223 -0.04511934 -0.045140505 -0.006346264 0.045381214 -0.0889726 -0.08119375 -0.08625624
-0.16535531 0.02465724 -0.13425492 -0.0999137 -0.16959643 0.049593028 -0.11720042 -0.016726624
0.0015944312 0.04706597 -0.05992115 -0.10416128 0.04925208 -0.08738868 0.11598904 -0.14353089
-0.008941227 -0.10981637 0.028785435 -0.038283188 0.021629557 -0.06165856 0.026100846 -0.10858835
-0.1003822 -0.118915305 -0.09112746 -0.13966581 0.13542023 0.0612988 0.14173114 -0.0007929371

linears.0.weight f4 [32, 128]
00000000: f156 94b8 a504 3e39 0e85 cdb8 8674 2138
00000010: ffc0 9bb8 393b 91b6 203f 4939 1a67 d537
00000020: 685d 8638 bfea c4b8 caea 82b7 63d0 c6b8
00000030: 2399 3eb8 e4fb f8b7 5f7e 2537 4c06 ceb8
00000040: 6f16 86b9 8755 0bb9 8623 28b8 fe24 72b8
00000050: 3b1a c338 bba7 e938 f441 c338 7848 8438
00000060: 1da2 58b7 7833 a9b8 99a3 77b9 c996 4ab9
00000070: 137b f2b8 918f b7b8 81bb 23b8 ce9a ce38
00000080: 8462 9f38 6e22 e538 bf33 8cb8 5be7 8ab8
00000090: a8b1 8038 d504 e137 8593 7338 0bf5 5bb9
000000a0: abc1 b6b7 9bb8 39b8 dd11 03b9 6e6d acb8
000000b0: 0c5a a7b8 bda9 b1b8 bb8b 00b8 3e60 4e38
000000c0: 5e01 4037 3e09 b536 8727 95b8 358a 5cb9
000000d0: ac4e b938 4124 9ab7 d10f d338 c28f 30b9
000000e0: f8a9 8338 9917 99b9 707d efb8 f00c 1938
000000f0: e7c2 b5b7 7744 c938 a2fb 3ab9 7056 4238
00000100: f049 c4b8 3d7c 1038 bcfb d0b7 be34 8db8
00000110: b2bd 9638 6f30 3539 d81d bb38 dfa4 01b9
00000120: e7fa 7b38 7380 97b8 e098 c1b8 e963 1f38
00000130: 4aa1 bbb7 5928 8fb7 84bd 3cb8 1c9d 5fb8
00000140: aeca e237 98e8 1938 43c5 5338 88fe 8138
00000150: 9f85 91b8 6392 b536 326e 17b8 99b0 d138
00000160: b6e5 b5b8 1e10 8a36 ecbb 1db9 bf9b deb8
00000170: 6893 4538 8904 7bb8 79fb 05b6 d3e9 8437
00000180: a11b 2339 fae4 f4b8 30a4 72b9 d088 0a39
00000190: 1ba3 00b8 6ddf 1f38 36c6 8cb8 d50f 8138
000001a0: 32d2 aab8 7a42 deb8 08f3 b5b8 95a9 9d37
000001b0: 72aa 7db8 1d0b a7b8 46be c238 217b 5c39
000001c0: 8df3 b7b6 b48d fd38 f891 7835 540e dbb7
000001d0: 326f 1038 6903 75b6 4561 e336 83e0 1c39
000001e0: eae2 acb8 8bdb 74b8 ebcf cab6 9dcb 8b38
000001f0: 62a9 f0b8 3535 fd37 1e9d 64b8 d143 b738
00000200: 7973 f0ba 2bf9 1bbc 39eb 73bb e05a 98bc
00000210: c789 b0bc acc9 33bc 7d08 c8bb 8929 a0bc
00000220: e1b6 0a3d eff6 10bd a57b 87bd 221f 02bc
00000230: 1c16 a13b 9f83 87bd 5d00 d1bb 9ce8 adba
00000240: c895 483c ec97 e7ba 18ef 48bc 0d74 adbb
00000250: 3c1e fb3c 8c3f b1bc 0542 d93c c57b 213d
00000260: 2606 da3a c0f2 093a a79f 16bd 5fee d5bc
00000270: 2b2b 223d 0e58 5dba 99c0 9b3c d3c9 76bc
00000280: 8bae 6139 2231 08bd 801f 5d3d e568 4b3c
00000290: b9d0 cabb 1507 d13d a18d d1bb 15ee 453d
000002a0: fc55 0e3c 9e44 e13d 2e32 313d 5ac0 fd3c
000002b0: 329b 88bc e6b0 393b c366 01bc 8599 0cbc
000002c0: c551 0f3a 291a 483d 14e5 a4bc 3262 2cbb
000002d0: b728 f83b 5171 c3b7 bed2 48bc 9041 ef3a
000002e0: e67a 6abc fd04 fcba d67c 85bc 57ad f3ba
000002f0: fcba 6c3a 59bb 4cbc c2c9 47bc 14f4 10bc
00000300: dfca ff3c 4cf3 383d 00a3 fdba 10de b63c
00000310: f74e 9b3a cb79 323b e6fe 613b 993c fabb
00000320: d79d acbc 6790 7d3b 2d13 99bc 0d4f 5e3d
00000330: 3e18 97ba 0228 143a 7f04 0d3d a6c9 0b39
00000340: e440 b1ba 2828 13bc 75c7 d2bb 4d7c 8fba
00000350: 8643 eebb 11cf 3d3d b137 213d 2382 d1ba
00000360: c052 7f3b 6bf4 ba3c 6e2b a43c 3757 a3bb
00000370: 15ce 533d 1418 e83a daaa 563d 581c 203d
00000380: 6e1d b53b de5e 66bb b9a6 f0bc f3c6 183d
00000390: f855 8a3d 26da 1bbb 3f98 06bc eab6 033d
000003a0: f9f3 803c a408 abbd a4c2 70bc 582b 073a
000003b0: 6c2c 393c e0f7 8e3c 4889 b23b 9358 6dbc
000003c0: adbd 993c 9302 873d 5bcd cd3b 6db7 caba
000003d0: 0f6f 9638 3fc3 793d 8b16 c5bb f777 63bc
000003e0: 6d35 ffbc eb5e dabc 19a4 033b 6f7f fb3c
000003f0: 552b 3fbc a882 f13b 5ada 29bc cb82 abbb
-7.073384e-05 0.00018121542 -9.799945e-05 3.8493912e-05 -7.426924e-05 -4.328231e-06 0.0001919237 2.5439589e-05
6.407016e-05 -9.389733e-05 -1.560654e-05 -9.480191e-05 -4.544215e-05 -2.96812e-05 9.864189e-06 -9.824018e-05
-0.00025575186 -0.00013287934 -4.0087405e-05 -5.7731748e-05 9.3032104e-05 0.00011141548 9.310609e-05 6.307749e-05
-1.2912348e-05 -8.068135e-05 -0.000236167 -0.00019320393 -0.000115623836 -8.752861e-05 -3.9036855e-05 9.85168e-05
7.600061e-05 0.00010925984 -6.685359e-05 -6.623446e-05 6.136607e-05 2.682434e-05 5.8073103e-05 -0.00020976753
-2.1786274e-05 -4.4279364e-05 -0.00012499788 -8.221982e-05 -7.979953e-05 -8.471634e-05 -3.0647712e-05 4.920386e-05
1.144441e-05 5.3952963e-06 -7.112236e-05 -0.00021032321 8.836141e-05 -1.8375113e-05 0.0001006421 -0.00016838222
6.278226e-05 -0.00029200016 -0.000114197726 3.649009e-05 -2.166764e-05 9.5971795e-05 -0.00017832083 4.6333706e-05
-9.35978e-05 3.444798e-05 -2.4912755e-05 -6.733228e-05 7.187891e-05 0.00017279548 8.922414e-05 -0.00012363818
6.0076734e-05 -7.2241666e-05 -9.231432e-05 3.8001603e-05 -2.2367243e-05 -1.7065717e-05 -4.4999193e-05 -5.3313663e-05
2.703568e-05 3.6694662e-05 5.0490034e-05 6.1986095e-05 -6.939028e-05 5.411262e-06 -3.6103833e-05 9.9987905e-05
-8.6735396e-05 4.114597e-06 -0.00015042693 -0.00010614795 4.7105743e-05 -5.9847287e-05 -1.996492e-06 1.584451e-05
0.00015555184 -0.00011677477 -0.00023140083 0.00013211672 -3.0669482e-05 3.8116636e-05 -6.71264e-05 6.154148e-05
-8.1453836e-05 -0.00010598167 -8.676021e-05 1.8794826e-05 -6.047864e-05 -7.9652506e-05 9.286082e-05 0.00021026704
-5.482178e-06 0.000120903744 9.259961e-07 -2.6113506e-05 3.4435834e-05 -3.650983e-06 6.776451e-06 0.00014960956
-8.243865e-05 -5.83786e-05 -6.044274e-06 6.6659624e-05 -0.00011475642 3.0184727e-05 -5.4505763e-05 8.738752e-05
-0.001834496 -0.0095198555 -0.003721906 -0.01859802 -0.021550072 -0.010973375 -0.0061045275 -0.019551056
0.033865813 -0.035391744 -0.0661538 -0.007941993 0.0049159657 -0.066169016 -0.006378217 -0.0013268176
0.012242742 -0.0017669178 -0.012264036 -0.0052933753 0.030654065 -0.021636747 0.026520738 0.039424676
0.0016633912 0.0005262308 -0.03677335 -0.02611464 0.03959195 -0.0008443602 0.019012736 -0.015062767
0.00021522694 -0.03324998 0.05398512 0.0124151455 -0.0061894325 0.10206429 -0.0063950573 0.048322756
0.008687492 0.10999416 0.043260746 0.03097551 -0.016675565 0.00283342 -0.007898035 -0.008581524
0.00054672017 0.048853073 -0.020128764 -0.0026303646 0.007573213 -2.3298579e-05 -0.012257276 0.0018253792
-0.014311528 -0.0019227561 -0.016294878 -0.0018591088 0.00090305484 -0.012495839 -0.012194099 -0.008847255
0.031224666 0.0451539 -0.0019350946 0.022322685 0.0011849095 0.0027233239 0.0034484207 -0.0076366183
-0.021071358 0.0038690807 -0.018685902 0.054274607 -0.001152761 0.00056517136 0.034428116 0.00013331193
-0.0013523367 -0.008981742 -0.0064324685 -0.0010947079 -0.007271233 0.046340052 0.039359752 -0.0015984218
0.0038959235 0.022821626 0.02004024 -0.004984762 0.051710207 0.0017707371 0.05240903 0.03908953
0.00552719 -0.003515176 -0.029376375 0.037299108 0.067546785 -0.002378115 -0.008215009 0.032156862
0.015741335 -0.083512574 -0.014694843 0.00051563 0.011302095 0.01745218 0.005448494 -0.01448645
0.018767202 0.06592288 0.006280584 -0.0015466042 7.173244e-05 0.060977217 -0.00601465 -0.013883582
-0.031153405 -0.026656589 0.0020086823 0.030700414 -0.011668046 0.0073703118 -0.0103670005 -0.0052340976

linears.0.bias f4 [32]
00000000: 90b5 8cb9 b8c6 6dba 028f 5b39 8267 d538
00000010: 4648 a939 c619 65ba baf1 0db9 da57 753a
00000020: 0d76 2ebc 978c 9638 81f0 96b8 0b4f 873c
00000030: 5beb 7fb7 2e0b ddb7 d548 65b8 aadb 8b3d
00000040: ef58 a0b8 8631 8a3a 4fb8 2a3d 3e01 bab8
00000050: bdcf 6637 894a c334 1afd 06b9 4a4d 90ba
00000060: dc39 0c39 12a1 29b9 213d e038 992c 4cba
00000070: 873c cc36 7816 0e39 e55a 7938 7600 b138
-0.00026838155 -0.0009070444 0.00020938742 0.00010175911 0.0003228804 -0.0008739497 -0.00013536858 0.0009359099
-0.010648263 7.178744e-05 -7.197355e-05 0.016517183 -1.5253982e-05 -2.6350459e-05 -5.4665685e-05 0.06829007
-7.64596e-05 0.0010543324 0.041679677 -8.8694025e-05 1.3757436e-05 3.6375812e-07 -0.00012873524 -0.0011009362
0.00013372995 -0.000161771 0.000106925385 -0.0007788628 6.08672e-06 0.00013550546 5.945088e-05 8.4401036e-05

linears.2.weight f4 [2, 32]
00000000: ae96 f936 b54e 79be af6e 2737 27e5 7c38
00000010: a4fa aebc 4b6b 71be 1952 aeb8 c797 693e
00000020: 9890 d3be ee07 2638 0f29 49b8 7b55 c83e
00000030: 3211 1d39 e250 2937 764c 89b7 7fbf ddbe
00000040: a7a3 27b9 8ae5 483e 2c6a cf3e 156f 8037
00000050: 661d e2b8 6753 c3b8 9fb7 db35 7bdb 52be
00000060: df6c 9d37 61d8 39bd 125a f438 36e5 8cbe
00000070: e690 6138 3ec6 6f38 d9e1 b038 d236 7839
00000080: 0d34 0538 87aa 033e 108e 2fb8 54c7 bcb8
00000090: 39da 123a 29e2 593e 0712 41b9 5944 97be
000000a0: 9f87 c23e 2bbf 95b9 902c fa38 8555 dbbe
000000b0: 4db9 2f38 fe04 8835 fb6d 8037 e4d1 e63e
000000c0: 0f67 5a38 b7ee 81be d41d eebe c22c 7237
000000d0: 9d2b b338 55c9 05b9 a23a ee36 17f7 6d3e
000000e0: a5e5 bfb8 0169 60b8 caad 2a38 8ab6 853e
000000f0: 92e3 e63b 6191 d837 8162 2238 8e9c 3139
7.4383197e-06 -0.2434643 9.979746e-06 6.0294897e-05 -0.02135975 -0.23576085 -8.3122584e-05 0.22811805
-0.41321254 3.958487e-05 -4.7960373e-05 0.39127716 0.00014979093 1.0092017e-05 -1.6367278e-05 -0.43310162
-0.00015987326 0.19618812 0.4051069 1.5310516e-05 -0.00010781996 -9.3138595e-05 1.6370212e-06 -0.20591538
1.8766556e-05 -0.04537237 0.000116516036 -0.27518624 5.3779127e-05 5.7166668e-05 8.4344014e-05 0.00023671545
3.1758147e-05 0.1285802 -4.1855557e-05 -9.001666e-05 0.0005601976 0.2127768 -0.0001841263 -0.29544333
0.37994096 -0.00028561926 0.000119292294 -0.42838684 4.1895826e-05 1.0134243e-06 1.5310003e-05 0.4508201
5.207123e-05 -0.25377437 -0.46507132 1.4434745e-05 8.543509e-05 -0.0001275887 7.0997785e-06 0.23238789
-9.150364e-05 -5.3503554e-05 4.0693012e-05 0.2611583 0.0070461715 2.5816904e-05 3.871555e-05 0.00016938357

linears.2.bias f4 [2]
00000000: dc02 353b 11bc ccbd
0.0027620113 -0.09996808

exp_avg f4 [128, 4, 12]
00000000: ec6f 2238 c699 953a 6367 8b3a 2d33 7339
00000010: d79c a4ba e863 393a f2b8 59bb bd5d 473a
00000020: 84f1 b639 51a2 423b f6f9 103b 6c1d c737
00000030: b3f7 03bb 5434 c138 d013 1ebb 5a09 50b8
00000040: 0c77 7639 66a1 523b db5e 073b 79bc deba
00000050: e69d b73a 45a7 903a ba0c 7539 3d9c e038
00000060: 4cc1 c239 1094 b43a 2091 723a 8611 48ba
00000070: 735c 383a 7747 97bb 7b8e 343a cb2d a039
00000080: fb33 3cbb 5252 87bb f95f 3dbb e909 cc39
00000090: 942b d23a 8d20 2bbb b4de dd39 4e45 183a
000000a0: f07e a639 3652 363a e2d9 143a 4f04 263a
000000b0: af0d 933a 51ac 6b38 bda9 e839 6651 08ba
000000c0: 6309 f43a c6a6 133a 6ebf 793b b52a 06bc
000000d0: 4f05 f43a 10a8 3fb8 5a8c a739 db3b 1b3b
000000e0: a008 303b 95f1 2039 eefa 8cbb addf 2dbc
000000f0: 9b7d 02bb e8ec aabb fafb 39bc 6659 a43a
00000100: d188 4abb 8a51 823b a709 1db9 7a8f 433b
00000110: 8c33 76bb 6255 033b 31d1 2c3b 71d6 9f3b
00000120: cda5 46b8 1345 3d3a f8c7 383b d066 9eb8
00000130: a3d1 823a e478 233a 7d67 1f3c c519 c2bb
00000140: bffb fd37 754f 3fb9 5825 8c3a 8bd9 933b
00000150: 0238 3939 6ccf 803b 3eb4 9a3b acb8 e53b
00000160: 94d5 7139 5741 95bb ba2f 22bc daa0 153a
00000170: ea5d 883a 856f 01bb fb47 1c3a 783d a03a
00000180: 1ae5 a93a e07a 8c3a 8cc2 383b 5761 59bb
00000190: ed7d 1aba 7c16 163a caea c5b7 ee5e d43a
000001a0: c34a a7bb ae9c 2f3b 1278 b8bb cf40 14b9
000001b0: fab6 f13a 1b27 dc3a fec2 d6bb 69da 8b39
000001c0: 0efb 4b3a fd25 23bc 882f 09bb c730 1abc
000001d0: 9eb5 f639 6c99 2bb9 b1c3 c939 0112 a93b
000001e0: 6495 ae3b a8e8 5bbb 5043 273b fd3f 033b
000001f0: 218e 27bb 2f6b 163c e6d8 2b3b e35e 0f3a
00000200: f288 763b d975 44bb 9406 823b 5fe6 a8bb
00000210: 35be 0abc a05e 1e3a 4200 9b3a 1d4c 893a
00000220: d82e 1b3b ad59 5639 2876 04ba f85d ed3b
00000230: 8ad7 643a 0396 fc39 0e55 a73a a3cc 0e39
00000240: e2db 06bc b89e 6d3a 4f57 d739 9316 543a
00000250: 5865 6d39 9288 c9bb 3dda 2f39 3220 0bba
00000260: 9832 4c3a 0b19 e238 b2f0 fe39 dfe3 983b
00000270: cd1e 7639 508c 503a fa8e 9c3b ff65 5a39
00000280: c340 983a fcb6 643a a05e 373a c1a0 273a
00000290: ffcc d73b 0876 7f3b 336b d5bb 2f97 933b
000002a0: c05b 3d3b 11e7 d3bb ccfb b73b 470e 23bb
000002b0: 6b65 0a3c a900 9f3b 0b65 95ba d149 8bba
000002c0: 9ec3 efbb c68c 7b3a 0122 5d3b c11e 3d38
000002d0: ed58 a73b b021 9c3b 1d00 31bc 84c4 c03a
000002e0: 1923 21bc 9810 df39 d1e9 8e39 1413 7a3a
000002f0: b2da 47b8 02b5 a2bb 50d6 2d3b a5fa 16bc
00000300: cb00 453a b806 5c3a e4ed e239 e754 ae3a
00000310: b0b8 f83a 0e80 d23a 47b5 143c 734e 953a
00000320: 5312 e739 23d1 a73a dc6a 17b9 4848 18bc
00000330: 7872 fd39 fd4a 803b 7237 3bbb d5ea b339
00000340: 85c0 a0bb 394a 28bb ef8e 17bc d075 b83a
00000350: f9ab 06bc 49dd 803a 7521 1ebc ed10 983b
00000360: 7402 98b9 9244 efbb a78e 3f3b c278 cabb
00000370: 9534 b039 e428 083a 23c9 1e39 b376 05bc
00000380: 3faf f03b ac76 fcb7 50d3 5a3b a040 ad3b
00000390: cbb8 77ba 7df1 263b c5d3 02ba d9a4 933b
000003a0: 211e 2f3b d0ff e739 2a09 bd37 557c b73b
000003b0: d578 e339 495e 12bb 9994 d33b f507 26ba
000003c0: 7433 6d3b 3ca1 09bc f928 9c39 0ff2 d63a
000003d0: becb 723a f320 2fba 07c2 693a 7902 1b3c
000003e0: 418c 5239 7835 3d3b ceb2 953a 268b 2f38
000003f0: 5f2b be3a 53d3 5d3a ada1 35bc d201 593a
3.8728045e-05 0.0011413626 0.001063567 0.0002319335 -0.0012558949 0.0007072077 -0.0033221808 0.00076052157
0.00034893688 0.00296988 0.0022121645 2.373635e-05 -0.0020136654 9.212704e-05 -0.0024120696 -4.9599774e-05
0.00023504737 0.0032139658 0.0020655903 -0.0016993425 0.0014008849 0.0011036178 0.00023369762 0.00010710254
0.0003714658 0.0013777036 0.00092531927 -0.0007632006 0.0007032819 -0.0046166736 0.00068876863 0.00030551697
-0.0028717506 -0.0041296864 -0.0028896315 0.00038917296 0.0016034716 -0.002611193 0.00042318332 0.0005808667
0.00031756563 0.00069549994 0.0005678219 0.00063330395 0.0011219288 5.618885e-05 0.00044376953 -0.00052001176
0.001861852 0.0005632456 0.0038108486 -0.008188893 0.0018617305 -4.569447e-05 0.00031957292 0.00236868
0.002686061 0.00015348785 -0.004302374 -0.0106124105 -0.0019911292 -0.0052162297 -0.01135158 0.001253885
-0.0030904303 0.0039770054 -0.00014976283 0.0029840157 -0.0037567345 0.0020039906 0.0026369805 0.0048778583
-4.7361293e-05 0.00072200707 0.0028195363 -7.5531774e-05 0.000998069 0.00062359706 0.009729263 -0.005923482
3.0277179e-05 -0.0001824478 0.0010692282 0.004512017 0.0001766384 0.0039309766 0.0047211936 0.00701054
0.00023063115 -0.0045549083 -0.009899074 0.00057078677 0.0010403965 -0.0019750309 0.00059616537 0.001222535
0.0012961954 0.0010717772 0.002819213 -0.0033169591 -0.0005893398 0.00057253963 -2.3593562e-05 0.0016202608
-0.005105348 0.002679627 -0.005629548 -0.00014138523 0.0018441372 0.0016796322 -0.0065540066 0.00026674874
0.00077812455 -0.009957788 -0.0020932872 -0.0094110435 0.00047056092 -0.00016364985 0.0003848351 0.005159617
0.0053278673 -0.0033555422 0.00255223 0.0020027154 -0.0025566893 0.009180828 0.002622181 0.00054691563
0.0037618247 -0.002997747 0.0039680693 -0.0051544155 -0.0084682 0.0006041322 0.0011825638 0.0010474954
0.0023679044 0.00020442037 -0.0005053007 0.007243868 0.00087296276 0.00048176953 0.0012766437 0.00013618408
-0.008231135 0.00090644835 0.00041073046 0.0008090522 0.00022639835 -0.0061503137 0.000167706 -0.00053072267
0.00077895215 0.000107811844 0.00048625987 0.004665836 0.00023471862 0.00079554785 0.0047777863 0.00020828097
0.001161598 0.00087247766 0.0006994996 0.00063944986 0.0065857167 0.0038980264 -0.0065130233 0.0045041065
0.0028893799 -0.0064667542 0.0056147333 -0.0024880336 0.0084470315 0.0048523736 -0.0011397911 -0.0010626857
-0.0073170206 0.0009595867 0.0033742192 4.5089753e-05 0.0051070363 0.004764758 -0.01080325 0.0014707004
-0.009835028 0.00042546238 0.00027258557 0.0009539586 -4.7648973e-05 -0.0049654255 0.0026525445 -0.009215032
0.0007515072 0.0008393335 0.0004328332 0.0013300449 0.001897594 0.0016059892 0.009076423 0.0011391178
0.00044073406 0.0012803416 -0.0001444029 -0.009294577 0.00048341206 0.0039151893 -0.0028566984 0.00034316504
-0.0049057626 -0.0025679006 -0.009250387 0.0014073197 -0.008219712 0.0009831573 -0.009651531 0.0046406896
-0.00028993527 -0.0073018754 0.0029229315 -0.0061789462 0.00033608513 0.00051940815 0.00015142983 -0.008145976
0.0073451097 -3.0096002e-05 0.0033390112 0.005287245 -0.00094498385 0.0025473528 -0.00049906626 0.0045057354
0.002672084 0.0004425035 2.2534823e-05 0.0055995383 0.0004338684 -0.002233403 0.006456923 -0.0006333583
0.0036193999 -0.008400258 0.00029785166 0.0016399043 0.00092619273 -0.000668063 0.0008917157 0.009461039
0.0002007941 0.0028870981 0.0011421086 4.1852843e-05 0.0014508775 0.0008461971 -0.01108591 0.00082781643

exp_avg_sq f4 [128, 4, 12]
00000000: b114 2f34 0cec 8135 d13d 6235 9528 0b35
00000010: 02ba 1e36 2ba7 7035 b0cf d635 0a21 2835
00000020: 9cb7 c333 563d 1536 3435 4236 5770 2634
00000030: 9470 2536 3254 8335 f8fd 0d36 f5d8 0d36
00000040: 2369 5834 b644 4136 e9ae 1736 b2e1 f835
00000050: c92d 5435 8882 be35 a5a6 8235 2d06 c934
00000060: 66f3 9e34 2eba 0736 a739 8135 37a3 0e36
00000070: 635a b035 527b 2236 798b 6435 d123 d335
00000080: fa0e 0736 af58 4836 bb85 6e36 b90e d834
00000090: 41bb f135 1427 3036 7d52 0234 3737 a634
000000a0: 6f13 f935 dbfc 7d35 f341 a734 de3b 5835
000000b0: 4f5c af35 d9de a533 1fd2 5e34 b0a8 6f35
000000c0: 4806 9436 16de ae35 a929 9837 2929 9437
000000d0: d914 3b37 9c4d e034 7243 9e36 da21 ce36
000000e0: 372f 4c36 1536 df34 28de 7437 2689 8037
000000f0: 0699 b436 3220 9f37 9dfb c337 c9d6 5837
00000100: b7f0 5237 0c1e 8337 8313 0937 8ee1 6d37
00000110: 0a69 5a37 9d25 ac36 7696 3837 7307 5b37
00000120: 5291 d034 191e 9436 27fe d136 458b 9034
00000130: 2219 7935 20d5 5736 ba4d b637 5a11 9737
00000140: 00ad e936 3979 4535 bf38 4237 6d73 9d37
00000150: ece1 5334 4147 8437 8264 2336 5046 7e37
00000160: ffb2 9e34 7236 6137 c7d5 b737 37e8 2f36
00000170: d302 b636 d2ae c836 1c17 4736 2dc6 8636
00000180: 1289 8436 515c c736 12cd 1936 08f3 2437
00000190: 4579 b835 cd51 0236 addd 7a35 df97 6e36
000001a0: 7bbc 6537 3cdd 1337 f0cb 5037 d962 be35
000001b0: 2950 0237 e55b f836 90c8 6d37 cb6a a435
000001c0: ac82 9136 b092 6637 a7c2 1e37 d254 8937
000001d0: 5d38 bc36 89e4 7835 d4cf 4f34 1e67 6737
000001e0: 0756 8337 3c5c 7737 1a51 5d37 cf4f 8236
000001f0: 1a64 8b37 9130 7237 d23c 0837 a386 8236
00000200: 8887 8537 eda7 5d37 4ce8 8e37 62dc 7937
00000210: 1904 6637 35be 7835 9cdc 9136 474e ad36
00000220: d5b1 1337 a836 d235 1d04 ab35 f8e4 8d37
00000230: 7ad4 1236 0d12 ea36 a771 a236 8870 1735
00000240: b166 1337 68f2 5835 70e1 1836 88c3 1836
00000250: 9e00 1b35 7418 2b37 b97d 6e35 cc1f 6635
00000260: ff46 a834 2c60 0236 774d c135 afd0 3f37
00000270: dbc7 ab35 32bc 1336 660c 1937 5d83 1f34
00000280: a288 4936 c765 8135 0d89 8835 16e3 3336
00000290: fa3d 8037 317f e536 7ee7 3337 c733 fe36
000002a0: c903 0437 8ffb 2b37 567f 6137 0d13 6236
000002b0: af56 5c37 46ad 2337 2ca4 1b36 84f1 4136
000002c0: 82b2 8637 e8e3 b936 6092 2a37 a2b0 1937
000002d0: fd1b 7e37 cdd3 1037 b5fc 7937 6835 9435
000002e0: 8bb9 6d37 9108 f535 047f ee33 368c bc35
000002f0: f51a e834 2272 4237 d5eb 0037 7db4 8b37
00000300: 50c8 a835 159a 5f35 066b be33 de35 1137
00000310: 5ee4 a136 3204 b035 3499 c737 1e49 b536
00000320: efbf ec34 f8f9 9336 4104 2536 6c2a 3f37
00000330: 463b 3736 ba71 2537 bc53 1c37 51b4 aa36
00000340: 1480 3e37 69ca e936 8939 b737 630c 0937
00000350: bdfe 8137 fd60 1c37 f5b2 7337 24d0 4537
00000360: 69ee f336 4078 8137 4c70 ed36 1ef5 6e37
00000370: 3840 3d36 413c 1435 dcb3 1636 1ea0 7237
00000380: 5dbc 7f37 1ac7 1135 4b74 df36 baba 4637
00000390: 421a 1f37 d7a7 2237 6a54 0836 53e8 f636
000003a0: 9165 6236 2eb3 9536 b480 ec35 bed8 8a37
000003b0: 6a8c 7d35 1afa 3337 8c44 5637 78a4 5f36
000003c0: 7a1e 2037 dec7 ec37 ba05 8b34 14de 5237
000003d0: d5b6 ee35 35de 5636 0ec7 4a36 1a0b f837
000003e0: cfb7 2836 2543 7d37 f756 3c36 24ad 5037
000003f0: 2990 8336 711b b335 d3d8 a537 92c6 9a36
1.6305673e-07 9.679948e-07 8.4281515e-07 5.184059e-07 2.3652105e-06 8.965023e-07 1.6004687e-06 6.2632955e-07
9.1137935e-08 2.2238432e-06 2.893922e-06 1.5500824e-07 2.4652445e-06 9.784765e-07 2.1158467e-06 2.1136923e-06
2.0154816e-07 2.8799236e-06 2.2602565e-06 1.8543126e-06 7.904278e-07 1.4194093e-06 9.734255e-07 3.744366e-07
2.960689e-07 2.0224938e-06 9.628028e-07 2.1254652e-06 1.3139328e-06 2.4211663e-06 8.513958e-07 1.5731149e-06
2.0125285e-06 2.9853943e-06 3.5542605e-06 4.0243847e-07 1.8010397e-06 2.624879e-06 1.2137203e-07 3.0960084e-07
1.8557602e-06 9.46178e-07 3.1154158e-07 8.055339e-07 1.3065381e-06 7.723947e-08 2.0751803e-07 8.927991e-07
4.411475e-06 1.3028646e-06 1.8139212e-05 1.7662142e-05 1.1150923e-05 4.177972e-07 4.7166186e-06 6.1432193e-06
3.0425851e-06 4.1576337e-07 1.4595258e-05 1.5322654e-05 5.3822323e-06 1.896927e-05 2.3362978e-05 1.2924612e-05
1.2573021e-05 1.5630409e-05 8.170379e-06 1.4178817e-05 1.3018269e-05 5.130378e-06 1.1002287e-05 1.3055152e-05
3.8848754e-07 4.4142475e-06 6.2582726e-06 2.6923422e-07 9.27963e-07 3.2161552e-06 2.1732285e-05 1.8008683e-05
6.964081e-06 7.356462e-07 1.1576513e-05 1.8769608e-05 1.9733096e-07 1.5768806e-05 2.4347396e-06 1.5155951e-05
2.956003e-07 1.3423722e-05 2.1914848e-05 2.62122e-06 5.4243515e-06 5.9808162e-06 2.9666762e-06 4.016582e-06
3.9498636e-06 5.941409e-06 2.2918143e-06 9.831747e-06 1.3744362e-06 1.9419124e-06 9.345484e-07 3.5553164e-06
1.3693348e-05 8.813393e-06 1.2445249e-05 1.4184872e-06 7.767268e-06 7.401674e-06 1.4172998e-05 1.2250033e-06
4.336549e-06 1.3743222e-05 9.462855e-06 1.637117e-05 5.609398e-06 9.271976e-07 1.9353985e-07 1.3792682e-05
1.5656477e-05 1.4743822e-05 1.3191509e-05 3.883593e-06 1.6616705e-05 1.4435632e-05 8.1203925e-06 3.8899757e-06
1.5917947e-05 1.3211725e-05 1.703589e-05 1.4892868e-05 1.3710022e-05 9.2663987e-07 4.347019e-06 5.1649145e-06
8.8032875e-06 1.5662126e-06 1.274169e-06 1.6915132e-05 2.1879373e-06 6.975845e-06 4.841207e-06 5.641564e-07
8.7857925e-06 8.081902e-07 2.2780987e-06 2.276358e-06 5.77429e-07 1.0198088e-05 8.884486e-07 8.572795e-07
3.1344095e-07 1.942749e-06 1.4402166e-06 1.1433075e-05 1.2798658e-06 2.201425e-06 9.122397e-06 1.4855819e-07
3.0030865e-06 9.64087e-07 1.0172677e-06 2.680526e-06 1.528765e-05 6.839539e-06 1.072313e-05 7.5758176e-06
7.868694e-06 1.0250965e-05 1.3440693e-05 3.3687713e-06 1.3133204e-05 9.7559005e-06 2.319236e-06 2.8899822e-06
1.6057169e-05 5.5399614e-06 1.016687e-05 9.160636e-06 1.5146096e-05 8.632383e-06 1.49003945e-05 1.1042403e-06
1.4169501e-05 1.8256416e-06 1.1105843e-07 1.4047898e-06 4.323298e-07 1.1589875e-05 7.6843035e-06 1.6654138e-05
1.2575274e-06 8.329819e-07 8.867032e-08 8.655215e-06 4.8247593e-06 1.3114243e-06 2.379399e-05 5.4027323e-06
4.4098076e-07 4.4100416e-06 2.4589392e-06 1.1394364e-05 2.7303627e-06 9.861245e-06 9.3178205e-06 5.0873864e-06
1.1354703e-05 6.9675048e-06 2.1842092e-05 8.16872e-06 1.549662e-05 9.320906e-06 1.4525595e-05 1.17905765e-05
7.269719e-06 1.5433994e-05 7.0762235e-06 1.4242976e-05 2.8200575e-06 5.522198e-07 2.2456434e-06 1.4461604e-05
1.5243041e-05 5.430644e-07 6.659456e-06 1.1845195e-05 9.483252e-06 9.695031e-06 2.0314715e-06 7.3584174e-06
3.3735744e-06 4.4614053e-06 1.7620828e-06 1.655181e-05 9.4454174e-07 1.0727463e-05 1.2771354e-05 3.3325323e-06
9.543839e-06 2.8226463e-05 2.5894934e-07 1.2568682e-05 1.7785593e-06 3.2017826e-06 3.021621e-06 2.9569073e-05
2.5140941e-06 1.5095608e-05 2.8064803e-06 1.2438079e-05 3.9208867e-06 1.3344526e-06 1.97705e-05 4.6126743e-06

exp_avg f4 [128]
00000000: b304 62bb fecb 10bc 359b ffbb 8dba 06bc
00000010: 1aa4 02bc f40b 25bc 7225 cdbb 8012 6ebb
00000020: 6b7c ce3b c5cd f5bb 15ea 4fbc f004 0dbc
00000030: 9c7f 503b 2d38 22bc a54b 9bbb acd5 74bb
00000040: 376c ac3b dd6a a4bb a965 e6bb 04e6 b8bb
00000050: 37c1 983b 42e7 1dbc 8d02 113c 13d3 b23b
00000060: b1c9 1c3b 342e 763b f44a 1bbc c3e4 22bc
00000070: 057b eb3b d07b 26bb 805e d53b f53f 40bc
00000080: f314 863b aa8d 2abc a406 883c ce53 cf3b
00000090: ae36 a8bb 48ce b43c 3c73 c8bb ed38 593c
000000a0: 9ced 143c cfff be3c eb6f 163c a1bd 2c3c
000000b0: 1600 15bc c4ef 9f3b a445 06bc c445 bebb
000000c0: b712 423b 63bc 213c cc19 8ebb a53d dbbb
000000d0: bbea d63b ce2d d13a 4358 e8bb 7220 8c3b
000000e0: e2a4 ecbb 6e5e eebb 8df1 0fbc 2d3d 5cbb
000000f0: b933 0f3b 605c 12bc 4bbb f1bb b609 2fbc
00000100: 2f0c fe3b e317 cf3b 09c0 b0bb 0025 1b3c
00000110: df4b 883b f644 993b e6e8 9e3b 7306 ecbb
00000120: 7553 10bc f827 883b 6e15 25bc b0c7 343c
00000130: f9a6 81bb 018c 013b 3528 4e3c 661e 103b
00000140: 1d3c 87bb 2e66 aebb ffed c0bb ab8a d4bb
00000150: 0f01 ecbb 168b 4f3c 61a6 923b a27a afbb
00000160: d725 e63b bbb2 553c 090c 123c 2139 d5bb
00000170: 4b7e 0d3c 45a3 e53a aa95 6d3c fd94 3b3c
00000180: 9bc5 043c 1a53 63bb 6270 40bc 03a1 573c
00000190: 3f32 833c 77ac 0ebc d3b6 c4bb c6ca 3b3c
000001a0: 7d5a d53b 05cb 8dbc d066 0fbc ff37 aa3b
000001b0: 679f eb3b 5bee 1d3c 2cfe ec3b 3a83 52bc
000001c0: 6099 f53b 1be7 883c 21a1 ba3b ad0c d9bb
000001d0: fb9c 9c3b 2d27 2e3c 918e cfbb 2573 49bc
000001e0: 5662 ebbb a031 25bc c02e 9a3b fa64 4b3c
000001f0: d732 fabb 267b d93b 695f dabb e62b 35bb
-0.0034487664 -0.008837698 -0.0078004845 -0.008223188 -0.007973695 -0.010073651 -0.0062605673 -0.0036326945
0.006301453 -0.0075013363 -0.012690087 -0.008607134 0.0031814342 -0.009901089 -0.004739242 -0.0037358804
0.0052619237 -0.005017622 -0.007031162 -0.0056426544 0.004661705 -0.009637656 0.008850706 0.005457291
0.0023923928 0.003756416 -0.009478319 -0.009942236 0.007186296 -0.0025403388 0.0065115094 -0.011733999
0.004091853 -0.010409752 0.016604729 0.006327129 -0.0051334715 0.022071019 -0.0061172526 0.013258201
0.009089854 0.023315338 0.009181957 0.010543258 -0.009094259 0.004880877 -0.008195315 -0.0058066566
0.0029613206 0.009871575 -0.0043365713 -0.006690698 0.006558744 0.0015959085 -0.0070905997 0.0042763287
-0.007221804 -0.0072744405 -0.008785618 -0.00336058 0.0021850897 -0.008933157 -0.0073770634 -0.010683468
0.0077529172 0.006319986 -0.005393986 0.009469271 0.004159435 0.0046774102 0.004849541 -0.0072029172
-0.00880896 0.0041551553 -0.01007591 0.011033937 -0.0039566723 0.0019767287 0.012582828 0.0021990775
-0.004127039 -0.0053222394 -0.0058877463 -0.006486257 -0.0072022746 0.012667438 0.0044754003 -0.005355195
0.007023554 0.013043101 0.008914002 -0.0065070544 0.008636068 0.0017519972 0.014501015 0.011449096
0.008103753 -0.0034686984 -0.011745544 0.013160947 0.01601517 -0.008708111 -0.0060032397 0.011461919
0.006511031 -0.017308721 -0.00875254 0.0051946635 0.007190633 0.009639348 0.007232448 -0.01284867
0.0074950904 0.016711762 0.0056954776 -0.0066238255 0.0047794557 0.010629457 -0.006334134 -0.012295519
-0.0071833534 -0.010082632 0.00470528 0.012414211 -0.007635455 0.006636995 -0.006664206 -0.0027644574

exp_avg_sq f4 [128]
00000000: ab82 6037 c5ee b538 4616 a938 8aa7 8338
00000010: 2ec8 8e38 7ea8 0939 66dd 2c38 b1b9 5437
00000020: 3846 5038 3352 6338 0728 7239 0b44 c038
00000030: c0d7 f636 4678 f038 88f3 aa37 fd0c 9537
00000040: 99b6 1038 4615 1a38 3c2e 6638 814f 1e38
00000050: bd83 d437 68fa d238 2833 df38 5289 0b38
00000060: 610a 7036 f84c b137 167c 0839 37a5 df38
00000070: b186 7838 5ee6 3c37 19da 6138 c29b 3e39
00000080: d351 af37 5d44 ea38 725e 8539 bb0e 0d38
00000090: 7337 fd37 0f9d 063a 3563 3438 b9ee 2d39
000000a0: b509 fa38 c6f0 fc39 b234 9b38 4e46 c438
000000b0: 36bc a538 71cf fd37 a06d bb38 8b73 0b38
000000c0: ef6f 3437 2bb0 dc38 d2f6 b537 96e0 7638
000000d0: 5ace 5c38 ef6e 4336 34d3 4e38 2f01 b937
000000e0: f276 7138 ee86 8a38 dfb2 bd38 c713 2237
000000f0: 7edf b436 615c b838 20bc 7538 e5ea 2a39
00000100: c6d8 6f38 4077 6838 76c7 0f38 ee30 a638
00000110: 22d2 9e37 eb21 ba37 905c c837 753f 8138
00000120: 8a3a a138 e696 8d37 f022 fe38 9c19 e738
00000130: 76c2 f137 f7f0 7f36 1e99 3439 a418 8f36
00000140: b387 f237 3c15 dc37 8907 1c38 c36d 7338
00000150: c482 6838 2db1 5539 da2c b037 e830 1c38
00000160: 7759 6338 3919 6c39 a015 b938 3b50 5f38
00000170: cce7 d238 2e7b 0036 f8d7 7c39 1ab2 0939
00000180: 5f07 b138 3565 4d37 2435 2539 9698 2a39
00000190: 5170 5539 bd9f e938 2bab 1638 a301 1d39
000001a0: beb0 5938 43a3 c539 a393 9638 2640 1c38
000001b0: 8906 6038 7ab0 d438 aadb 8138 29f9 4639
000001c0: 5490 4c38 b650 6939 bd60 1738 3ddd 7c38
000001d0: 7d2b 1038 c726 0f39 cae4 2a38 187b 4c39
000001e0: 1648 5338 7be9 b938 300b e237 e31b 5939
000001f0: f020 8738 6b9a 5238 c21c 4d38 5411 d536
1.3381864e-05 8.675227e-05 8.062697e-05 6.277773e-05 6.808374e-05 0.00013128106 4.121419e-05 1.2679419e-05
4.965646e-05 5.419757e-05 0.0002309383 9.1679474e-05 7.356488e-06 0.000114664945 2.0378982e-05 1.7768232e-05
3.4502333e-05 3.6736274e-05 5.4879332e-05 3.774418e-05 2.5333715e-05 0.00010060222 0.00010642997 3.3268072e-05
3.5768828e-06 2.1135886e-05 0.00013016196 0.00010664242 5.925325e-05 1.125931e-05 5.38473e-05 0.00018177836
2.0899728e-05 0.00011170723 0.00025438104 3.363074e-05 3.018577e-05 0.0005135098 4.3007738e-05 0.00016587497
0.00011922737 0.00048244576 7.400791e-05 9.3591036e-05 7.90287e-05 3.0256548e-05 8.937274e-05 3.324779e-05
1.0754898e-05 0.00010523231 2.1691816e-05 5.8860132e-05 5.2644267e-05 2.9121836e-06 4.9310926e-05 2.205427e-05
5.7569654e-05 6.6054854e-05 9.0455396e-05 9.660557e-06 5.390436e-06 8.7910106e-05 5.8587757e-05 0.00016299968
5.7183926e-05 5.542417e-05 3.427962e-05 7.924611e-05 1.8932918e-05 2.2188722e-05 2.388496e-05 6.163019e-05
7.687982e-05 1.6878777e-05 0.000121181714 0.000110197085 2.8819992e-05 3.813822e-06 0.00017223178 4.2646006e-06
2.8911838e-05 2.6235932e-05 3.7200316e-05 5.803794e-05 5.5434895e-05 0.00020379266 2.100172e-05 3.7238846e-05
5.4204338e-05 0.0002251611 8.8255154e-05 5.3242064e-05 0.00010056756 1.9145186e-06 0.00024113047 0.00013131686
8.441391e-05 1.2242516e-05 0.00015755423 0.00016269306 0.00020355104 0.00011140059 3.59222e-05 0.00014973296
5.1901436e-05 0.00037696408 7.180057e-05 3.725304e-05 5.3411848e-05 0.00010141819 6.192115e-05 0.00018975571
4.8771806e-05 0.00022250679 3.60913e-05 6.0287526e-05 3.4372777e-05 0.00013651988 4.0744235e-05 0.00019500812
5.0373455e-05 8.8649766e-05 2.6946509e-05 0.00020705121 6.443437e-05 5.0211715e-05 4.890259e-05 6.349912e-06

exp_avg f4 [32, 128]
00000000: c248 8238 c3d6 8fb9 042f 3839 a1df 4eb9
00000010: 7992 efb7 0c3b 0ab8 75b4 b737 7183 e937
00000020: 3d11 fb38 10e6 83b8 fc69 dc38 6be6 5939
00000030: e4c8 5939 dc4c dc38 7f06 b6b8 e7bd d937
00000040: 1c8f 94b8 fe84 b638 1174 2439 b65d 9d38
00000050: 3fed 2bb9 c29b 59b9 aed5 5c38 209c e1b8
00000060: e321 b5b6 ad37 8c36 503d 0838 4e89 b638
00000070: 2d64 2db9 ed28 45b8 8993 f338 973e 24b9
00000080: 169e a2b8 9603 23b7 b6cb 5939 9c8a 9f38
00000090: 5de9 f5b6 d502 1039 7b0a 88b7 ae1d d938
000000a0: 7ec4 9c38 6f72 aab8 7cdf 5939 e874 2c38
000000b0: 4574 2439 a7a8 fab8 33d2 9038 5527 5f38
000000c0: 466f 25b7 b126 fb38 f379 84b6 7e64 c038
000000d0: 341d 4938 1759 0539 7f9b acb7 dc99 8938
000000e0: 86fb ddb8 c742 9c37 8b5b 2db9 e7ec 4eb9
000000f0: 5c48 dc38 f78b 7238 d99b b5b7 11aa 6438
00000100: 7716 c937 bfcc 19b9 7e14 2837 7369 0ab9
00000110: c44b 2cb8 2047 8fb8 baf0 a2b8 0dfd b5b7
00000120: b32a 31b9 82cc 5939 e3a6 3db8 f766 f3b8
00000130: 8655 6637 d4ba 9838 7fd3 a4b8 54cd 1c38
00000140: db4b 99b8 e18d 06b9 2f29 fb38 6d91 59b9
00000150: 54b3 3039 6e93 1eb9 8d5a 8536 29ea 3238
00000160: 105f 2c38 6001 96b8 55c2 b5b7 af09 e537
00000170: e071 8438 e01a ed38 bf76 39b8 5941 8db8
00000180: d4a3 4438 4e5f 3c39 2d85 92b7 684d 6ab8
00000190: 61b4 deb7 7fac a6b8 d8b5 0a38 ca83 3739
000001a0: 345c af38 55da 47b8 ee98 5b37 6ca8 c338
000001b0: f464 0b39 3b04 84b8 51dd 4838 1a2e 89b8
000001c0: 9ceb 03b9 e2e3 40b9 bae6 2f38 690a 84b8
000001d0: c4b9 19b9 181d 1138 d9dd 10b9 fec8 1a38
000001e0: 2ef0 3e39 a0b6 2c38 1685 4bb8 12e8 dbb8
000001f0: 003a 3738 b295 0538 f371 b3b6 993a 24b9
00000200: 22b2 a83b 7815 b33b e11d 943b 17ba 733b
00000210: de55 033b bb2b 813b 5ea7 373b eae7 d53b
00000220: c8ed 9c3b c118 d03b 59c8 b83b 1ac5 703b
00000230: 3e7f af3b a689 683b 205d ea3b 84d3 b43b
00000240: cb46 803b 1166 cc3b 065b f23b be03 fe3b
00000250: ca22 993b 2424 543b 229c ce3b 84e7 9c3b
00000260: e6ed 083b 9862 143b 5a36 943b 97a5 fc3a
00000270: 4360 123b ac62 8f3b e65e 1e3b f508 9a3b
00000280: b4a1 a23b 0391 873b e7da 863b 4920 883b
00000290: 561e 293c c8d1 683b d783 853b fdfd 163b
000002a0: 59ce f33b ccc5 a73b 6ca0 863b feec 473b
000002b0: 98b5 6c3b 90f5 b73b 30c5 0f3c 5a55 733b
000002c0: ce10 cf3b b740 5e3b 94dd 493b d796 873b
000002d0: 9408 b83b 0326 b43b 160f a73b 9ab9 b63b
000002e0: 6f70 223c 4477 a13b 5cc1 d03b 2659 973a
000002f0: 8782 a33b 6aa0 003b 3657 8e3b 8a83 0c3c
00000300: d698 133c aae6 a63b 15cf 943a a3e1 113a
00000310: a29d 813b 1fce 993b 86bf 3c3b d5eb dd3b
00000320: ae6d 823b bcf7 d23b c200 cf3b c583 693b
00000330: 7469 bd3b a942 8f3b dff9 1c3b fad4 d73b
00000340: d361 5e3b 0780 d33b 8b1e 803b 1230 573b
00000350: 604c f03b 0dc5 b13b ca09 143c 58c8 613b
00000360: 0788 e23a f40e a53b be43 e73b cdab b03b
00000370: 8c2c 073c cf4b 803b 13be f53b d706 833b
00000380: 9b93 c13b 523e 8a3b bf85 9b39 38c1 ea3a
00000390: a997 413b 1659 823b 3156 433b 7586 a43b
000003a0: 1b5a e73b f14c a03b cb3d 153b a5c4 7d3b
000003b0: a638 9b3b 0091 043c 86a1 913b e2fa 5a3b
000003c0: c20f 3e3b 2a8f 8d3b e858 9b3b 08f4 1b3b
000003d0: e766 e93b 14c4 a93b cbb7 e03b 0c11 343b
000003e0: 422f 2d3b c1b0 e43b 51d8 3d3b 1a46 5b3b
000003f0: 4db1 943b d073 843b a728 043c 391a ac3b
6.212435e-05 -0.00027435095 0.00017565122 -0.00019728999 -2.8559227e-05 -3.2956756e-05 2.1899332e-05 2.7836972e-05
0.000119718236 -6.289419e-05 0.000105101586 0.0002078057 0.0002076957 0.00010504734 -8.679646e-05 2.5956846e-05
-7.083846e-05 8.703208e-05 0.00015683497 7.5037984e-05 -0.00016396212 -0.00020752757 5.2651092e-05 -0.000107579166
-5.3981653e-06 4.1788066e-06 3.248203e-05 8.704011e-05 -0.00016535884 -4.7006575e-05 0.000116146235 -0.00015663575
-7.754208e-05 -9.716392e-06 0.00020770621 7.607529e-05 -7.328736e-06 0.00013733965 -1.6217344e-05 0.000103528946
7.475259e-05 -8.1275466e-05 0.00020777987 4.1116873e-05 0.00015683573 -0.00011952343 6.905608e-05 5.3203974e-05
-9.860674e-06 0.000119758195 -3.9481033e-06 9.1739916e-05 4.7949332e-05 0.00012717057 -2.0576406e-05 6.5613276e-05
-0.00010584951 1.8627745e-05 -0.00016532668 -0.00019733944 0.000105038955 5.782765e-05 -2.1649454e-05 5.4517823e-05
2.3971528e-05 -0.00014667491 1.00183515e-05 -0.00013199988 -4.1078558e-05 -6.8320194e-05 -7.769601e-05 -2.1694717e-05
-0.00016895942 0.00020770918 -4.5216537e-05 -0.00011606322 1.3728981e-05 7.282724e-05 -7.8595236e-05 3.7384525e-05
-7.309738e-05 -0.0001283209 0.00011976284 -0.00020748908 0.00016851473 -0.00015122976 3.9742504e-06 4.2656586e-05
4.109653e-05 -7.1528135e-05 -2.1667374e-05 2.7303437e-05 6.315461e-05 0.000113060465 -4.4218028e-05 -6.735576e-05
4.688262e-05 0.00017964581 -1.7466571e-05 -5.5862038e-05 -2.6548458e-05 -7.947627e-05 3.307112e-05 0.00017501335
8.3618244e-05 -4.7648635e-05 1.3089024e-05 9.3296956e-05 0.00013293681 -6.2950385e-05 4.7889833e-05 -6.541256e-05
-0.00012580905 -0.0001839544 4.1938132e-05 -6.2961895e-05 -0.0001466042 3.459779e-05 -0.00013815555 3.690365e-05
0.00018209286 4.117808e-05 -4.8522917e-05 -0.0001048596 4.3684617e-05 3.1849086e-05 -5.347881e-06 -0.00015662088
0.005148188 0.0054652058 0.0045201634 0.0037189776 0.0020040195 0.0039419807 0.0028023343 0.0065278905
0.004789088 0.006350607 0.0056391177 0.0036738575 0.0053557446 0.0035482435 0.0071522146 0.0055183787
0.003914689 0.006237753 0.0073961047 0.007751911 0.0046733366 0.0032370174 0.0063052336 0.004788341
0.0020893752 0.0022641774 0.004523081 0.0019275424 0.0022335208 0.0043757763 0.002416545 0.004700775
0.004963124 0.00413716 0.0041154507 0.0041542393 0.010322174 0.003552543 0.0040745544 0.0023039572
0.00744037 0.005120015 0.0041084792 0.0030506249 0.003611898 0.00561399 0.0087750405 0.003712973
0.006319142 0.0033913085 0.0030802237 0.0041378546 0.005616257 0.0054976954 0.005098234 0.0055763246
0.009914502 0.0049275476 0.0063707065 0.0011546954 0.0049899253 0.0019626864 0.0043438924 0.008576283
0.009008607 0.0050934153 0.0011353219 0.00055649335 0.003955559 0.004693761 0.002880068 0.006772498
0.00398036 0.0064382236 0.006317229 0.003563152 0.0057803933 0.00437196 0.0023952646 0.006586668
0.003393282 0.006454471 0.003909891 0.0032835049 0.0073333234 0.0054251016 0.009035537 0.003445169
0.0017282971 0.005037183 0.007057636 0.005391574 0.008250367 0.003915287 0.0074994653 0.003998618
0.0059074885 0.004218855 0.00029663552 0.0017910367 0.002953986 0.003977905 0.0029806013 0.0050209113
0.007060302 0.0048919846 0.0022772427 0.0038721946 0.0047369776 0.008091211 0.004444304 0.0033413698
0.0029001092 0.004320045 0.004740823 0.0023796577 0.0071228626 0.005180845 0.0068578473 0.002747598
0.0026425873 0.0069790785 0.0028968046 0.0033458532 0.0045377375 0.0040421262 0.008066333 0.0052521494
