our-vTR/10_fold_lightning_logs/dataset1/fold_8/version_0/checkpoints/epoch=29-step=1049_fold8.ckpt (torch, 132433 bytes, 18 tensors)

conv1d.weight f4 [128, 4, 12]
0	0x3c3af764	0.011411522
1	0x3aab74f9	0.0013081125
2	0xbe0b15dc	-0.13582557
3	0x3e1a0d65	0.15044172
4	0x3e4f1e9c	0.2022652
5	0x3e813d0a	0.25241882
6	0xbe9e1e27	-0.3088238
7	0x3b58edd8	0.003310075
8	0xbe697c54	-0.22801334
9	0xbe91b42c	-0.28457773
10	0xbddc58d1	-0.10759128
11	0xbf1f411a	-0.6220871
12	0x3dbefc43	0.09325459
13	0xbd194222	-0.037416585
14	0x3dc91208	0.09817892
15	0x3e12ebe2	0.14347795
16	0xbee8e7a9	-0.45489243
17	0xbe60e4d9	-0.21962298
18	0xbe2310ec	-0.15924424
19	0xbea9f0db	-0.3319157
20	0xbe4f1947	-0.20224486
21	0xbe455bd3	-0.1927331
22	0xbe495833	-0.19662552
23	0x3de86299	0.11346931
24	0x3b6647e6	0.003513807
25	0xbd199c47	-0.037502553
26	0xbd90cc99	-0.07070274
27	0xbe5acc16	-0.21366915
28	0xbe377ba3	-0.17918257
29	0xbece8c8e	-0.4034161
30	0x3dee2cb3	0.116296194
31	0x3da16d44	0.07882169
32	0x3e83ee48	0.25767732
33	0xbef74f71	-0.48302796
34	0x3e635fcb	0.22204511
35	0xbe58db31	-0.21177365
36	0xbd837ab0	-0.06419885
37	0xbdc3020c	-0.09521875
38	0xbda39a70	-0.07988441
39	0xbe9ed121	-0.31018928
40	0xbe467e81	-0.19384195
41	0xbe264467	-0.16237031
42	0x3d932967	0.07185631
43	0xbc87d452	-0.016580734
44	0xbe80f572	-0.2518726
45	0x3e4934e2	0.1964908
46	0xbe96c6f3	-0.2944866
47	0x3cea8775	0.028629044
48	0xbdba2509	-0.09089095
49	0x3e237365	0.15961988
50	0xbed18d1c	-0.4092797
51	0xbd24a637	-0.040197577
52	0xbe54022d	-0.20703955
53	0x3e058239	0.13037957
54	0x3df8793f	0.12132501
55	0xbe233e87	-0.15941821
56	0xbe290432	-0.16505507
57	0xbe663202	-0.22480014
58	0xbd5ddeb2	-0.054167457
59	0xbe2cc9ea	-0.16873899
60	0x3e2215c3	0.15828614
61	0xbcb028d8	-0.02150385
62	0x3c988b45	0.018621096
63	0xbe97957b	-0.29606232
64	0x3d4a4e8b	0.04939131
65	0xbe79cdac	-0.24394864
66	0x3d84adb7	0.06478446
67	0x3db4c637	0.08826869
68	0xbdb9d95a	-0.0907466
69	0x3e16ab84	0.14713866
70	0xbc88ea27	-0.016713215
71	0x3c69f4b3	0.014279532
72	0xbcbcf777	-0.02306722
73	0x3d202db9	0.039106105
74	0x3dc02ba2	0.09383322
75	0x3dc81bb0	0.09770906
76	0xbde0d2d5	-0.10977713
77	0x3e18975d	0.1490149
78	0xbe8ea42e	-0.27859634
79	0xbe7e7f4e	-0.2485325
80	0xbe4d1f09	-0.2003137
81	0xbe7aa031	-0.2447517
82	0xbd29e308	-0.04147628
83	0x3e3b7ee5	0.18310125
84	0xbbfdce28	-0.007745523
85	0x3d9f5bc3	0.07781174
86	0xbe79c2d7	-0.24390732
87	0x3e1453ae	0.14485046
88	0xbd78b0f5	-0.060715634
89	0x3da132f3	0.07871046
90	0xbd401519	-0.04689512
91	0x3e00d215	0.1258014
92	0x3e4b7e6d	0.19872446
93	0xbe7811ed	-0.24225588
94	0xbbc3f349	-0.0059799296
95	0x3c8c8a9c	0.017155938
96	0x3ddcb410	0.10776532
97	0xbda9d412	-0.08292402
98	0x3e4ac299	0.19800796
99	0xbe8d77d7	-0.27630493
100	0x3dc679f6	0.09691231
101	0x3dbc57f5	0.09196464
102	0xbc56263d	-0.01307064
103	0xbe1517b2	-0.1455982
104	0xbc2dc0b1	-0.010605023
105	0xbe3a1b89	-0.18174566
106	0x3e2e6a3e	0.17032716
107	0xbe8fbfc5	-0.28075996
108	0xbe5e3e54	-0.21703464
109	0x3b7fd7c2	0.0039038514
110	0xbeb6f531	-0.3573394
111	0xbe98f60c	-0.2987522
112	0x3de02d73	0.10946169
113	0x3d909aac	0.07060751
114	0xbe3a4486	-0.18190202
115	0xbe20cfa3	-0.15704207
116	0xbc753f8a	-0.014968762
117	0x3ddde727	0.108351044
118	0xbe2b231c	-0.16712612
119	0x3cd0e9c9	0.025502102
120	0x3d019ed4	0.03164561
121	0x3c491da0	0.01227513
122	0xbe9a8fc5	-0.30187812
123	0x3e0865b7	0.13320051
124	0x3e1d7653	0.15377168
125	0xbd68583f	-0.056724783
126	0xbd3d997f	-0.046288963
127	0x3dbdd030	0.09268224
128	0x3e419642	0.18904975
129	0x3c932fad	0.01796707
130	0xbe789b99	-0.24278106
131	0xbd90bd37	-0.0706734
132	0xbdde9043	-0.108673595
133	0x3d8b4f77	0.06802266
134	0xbdbfab0a	-0.09358795
135	0x3d3daeeb	0.046309393
136	0xbe4e21b4	-0.20130044
137	0x3e065b07	0.13120662
138	0x3d7cca2e	0.06171625
139	0x3cf0a582	0.029375795
140	0xbe1b1e3f	-0.15148257
141	0xbe83a95b	-0.25715145
142	0x3bb5659d	0.005535795
143	0x3e95eb84	0.29281247
144	0xbda61aba	-0.081105664
145	0xbdd6aa30	-0.104816794
146	0x3e164958	0.14676416
147	0x3c14c54c	0.009080242
148	0x3e3622b8	0.17786682
149	0xbeb60b44	-0.3555547
150	0xbe0db84b	-0.13839833
151	0xbe407bfe	-0.187973
152	0xbe3be62f	-0.18349527
153	0xbea00f41	-0.31261638
154	0xbd5d1cac	-0.05398242
155	0x3d93a6e6	0.07209568
156	0x3d9cdcee	0.076593265
157	0x3caed1f7	0.021340353
158	0xbe690b56	-0.2275823
159	0x3d391069	0.045181666
160	0xbeb04b34	-0.34432375
161	0x3e9148ea	0.28375942
162	0x3da5dbb4	0.08098546
163	0x3df515ed	0.11967073
164	0xbed9ef52	-0.425654
165	0xbe0a07b3	-0.134795
166	0xbebb1935	-0.3654267
167	0xbdd7a0c1	-0.10528708
168	0xbd0ef739	-0.03490374
169	0x3e359ae8	0.17734873
170	0x3e109b22	0.14121678
171	0xbe45c1b0	-0.19312167
172	0xbf00b6d2	-0.5027896
173	0xbe74744c	-0.23872489
174	0xbe9e677d	-0.3093833
175	0xbe8c3dd6	-0.27390927
176	0xbe9c8db8	-0.30576873
177	0xbe1071fd	-0.14105983
178	0x3e512d68	0.20427477
179	0xbd8cad9c	-0.06869051
180	0xbe135aa2	-0.14390042
181	0xbc28daca	-0.01030607
182	0xbe8f7bbf	-0.28024098
183	0xbcb01ac9	-0.021497147
184	0xbe21c6fe	-0.15798566
185	0xbeb3b556	-0.35099286
186	0x3da7bcf4	0.08190337
187	0xbdfa80ae	-0.12231575
188	0x3e7f90b4	0.24957544
189	0x3e16e1b9	0.14734544
190	0x3da66cce	0.081262216
191	0xbe2b36f2	-0.16720179
192	0xbe48ca96	-0.1960853
193	0xbcf585b6	-0.029970985
194	0x3ddd1544	0.10795072
195	0xbd8a69e2	-0.06758477
196	0x3ddbcb9f	0.10732197
197	0x3df85a0e	0.121265516
198	0x3e1cd24b	0.15314595
199	0xbcd106cc	-0.025515936
200	0x3d1bc3b0	0.03802842
201	0x3d8cd3f8	0.06876367
202	0xbe6774da	-0.22603169
203	0xbda4e520	-0.080515146
204	0x3e4ce236	0.20008168
205	0xbd242757	-0.04007658
206	0xbe215f94	-0.15759116
207	0xbe078188	-0.13233006
208	0xbe20b2cc	-0.15693206
209	0xbb16efd3	-0.002303113
210	0xbe55f781	-0.20895196
211	0x3e269b5b	0.16270201
212	0x3e6aa518	0.22914541
213	0x3d3bc6a7	0.045843747
214	0x3df006e3	0.117200635
215	0x3cf76ba9	0.030202704
216	0xbe28de0f	-0.16490959
217	0xbd499de3	-0.049222838
218	0x3c08377c	0.00831401
219	0x3e6c0fc3	0.23052888
220	0x3e07059f	0.13185738
221	0x3dfcc581	0.123423584
222	0xbe47677c	-0.1947307
223	0xbe0d6b02	-0.13810351
224	0xbe8ef861	-0.27923873
225	0xbe25623d	-0.16150756
226	0xbe22702b	-0.15863101
227	0xbc1b9355	-0.009495576
228	0xbe0cc4da	-0.13746968
229	0xbe7f3d14	-0.24925643
230	0xbe92ee5e	-0.28697485
231	0xbd70ea40	-0.05881715
232	0xbd94e78d	-0.07270727
233	0xbee6d187	-0.45081732
234	0xbe928a97	-0.2862136
235	0xbe474f00	-0.1946373
236	0xbd85cad1	-0.06532825
237	0xbddeba4e	-0.108753785
238	0xbddb18a3	-0.106980585
239	0x3e572796	0.21011195
240	0x3e2c28d2	0.16812447
241	0xbe6d4bdf	-0.23173474
242	0xbc8c3517	-0.017115159
243	0xbdf57461	-0.11985088
244	0xbe271465	-0.16316374
245	0x3e167880	0.14694405
246	0xbd4fd692	-0.05074174
247	0xbbdb252f	-0.0066877822
248	0x3db18d37	0.08669513
249	0x3d3372ba	0.043810584
250	0x3ccdabfc	0.025106423
251	0x3d7a45d8	0.061101764
252	0xbdcf223e	-0.10113953
253	0xbe0fea81	-0.140543
254	0x3e46f6b0	0.19430041
255	0x3e206d04	0.15666586

conv1d.bias f4 [128]
0	0xbe1eb7b3	-0.15499763
1	0xbc8e67b1	-0.017383428
2	0xbd6a5760	-0.057212234
3	0x3ccff2d8	0.025384352
4	0xbd106cc5	-0.03525998
5	0x3a3662ad	0.0006957453
6	0xbd9c7722	-0.0763991
7	0x3de21fa1	0.11041189
8	0x3c9be0df	0.019028125
9	0xbced1d68	-0.028944686
10	0x3a7fdbff	0.000976026
11	0x3d8d4e72	0.06899728
12	0x3db8bef9	0.090208
13	0xbccab8ba	-0.024746288
14	0x3d8bc2a1	0.06824232
15	0xbc51b2a6	-0.012798941
16	0x3d226906	0.03965094
17	0x3dd1134d	0.102087595
18	0xbd8052c6	-0.06265788
19	0xbdae14bf	-0.08500051
20	0xbdedbec2	-0.1160865
21	0xbe141267	-0.14460145
22	0xbe0399fb	-0.12851708
23	0x3db48b69	0.08815653
24	0xbb8acfb5	-0.0042361864
25	0xbdf6410d	-0.12024126
26	0xbdf23f6a	-0.118285015
27	0x3ca5f17e	0.020256754
28	0x3dccbf6f	0.099974506
29	0xbe2453e4	-0.16047627
30	0xbdfd1ee0	-0.123594046
31	0xbd311b37	-0.043238845
32	0xbdb52c70	-0.088463664
33	0xbd4dcd48	-0.0502446
34	0x3d60823e	0.05481171
35	0xbe1cf8c3	-0.1532927
36	0xbd74e567	-0.059789088
37	0xbe054b6b	-0.13017051
38	0x3d06a459	0.032871578
39	0x3d40dd0c	0.047085807
40	0xbc900420	-0.017580092
41	0xbd8966ac	-0.06709036
42	0xbd94e68a	-0.07270534
43	0x3d71f9c8	0.0590761
44	0xbda5a6a0	-0.08088422
45	0xbbd4f548	-0.0064989664
46	0xbd517f73	-0.051146936
47	0x3e10ed31	0.14152981
48	0xbcc27370	-0.023736686
49	0xbbbd7c78	-0.00578266
50	0x3c83f48b	0.016107818
51	0xbe0a6dc8	-0.1351844
52	0xbda4a370	-0.08038986
53	0x3cf62bed	0.030050242
54	0x3d199bf4	0.037502244
55	0xbd1e00d5	-0.038575012
56	0xbc27dfd1	-0.010246233
57	0xbdbe311b	-0.0928671
58	0xbbd825de	-0.006596311
59	0x3de61db3	0.112361334
60	0x3da4d4b5	0.08048383
61	0xbc9e1621	-0.019297661
62	0x3dad5a8c	0.08464536
63	0xbe121006	-0.14263925
64	0xbd6ae2b8	-0.057345122
65	0xbe03a532	-0.12855986
66	0xbda1410d	-0.078737356
67	0x3d81d247	0.06338935
68	0xbe1a8e97	-0.15093456
69	0x3c04473b	0.008073623
70	0xbc1f6cde	-0.009730546
71	0xbe17f14f	-0.14838146
72	0x3dc5a4c4	0.09650567
73	0xbe25cfce	-0.16192552
74	0x3d98c5a9	0.07459576
75	0xbd50cf08	-0.05097869
76	0xbd43a8ef	-0.04776853
77	0x3aa3590a	0.0012462449
78	0xbd267de1	-0.04064739
79	0x3d2fb7a0	0.042899728
80	0xbe165627	-0.14681302
81	0xbd0921b2	-0.0334794
82	0x3c9ed0e9	0.019386726
83	0x3db9aba6	0.090659425
84	0xbc3260a7	-0.0108873015
85	0x3dac20ed	0.084047176
86	0x3ce44aec	0.027867757
87	0x3da14584	0.07874587
88	0xbe0c2fa9	-0.13690056
89	0xbd7c9403	-0.061664592
90	0xbc5e223b	-0.013557966
91	0xbde424b8	-0.11139816
92	0xbe013c99	-0.12620772
93	0x3d075c39	0.033046935
94	0xbddfe7bb	-0.10932871
95	0xbe26f5e1	-0.16304733
96	0xbd36897f	-0.04456472
97	0xbcb99fa1	-0.022659125
98	0xbd5e06f9	-0.05420587
99	0x3d49d697	0.049276914
100	0xbd9f8db8	-0.077907026
101	0x3c0bc202	0.008530142
102	0x3db24967	0.08705407
103	0xbd816b37	-0.06319278
104	0x3cd3a7a1	0.025836768
105	0xbd4f22fc	-0.050570473
106	0x3d8eb5e9	0.0696829
107	0x3d8974e5	0.06711749
108	0xbe0312c5	-0.12800129
109	0xbd1a5bc0	-0.037685156
110	0xbcfda63a	-0.030963052
111	0xbd70db94	-0.058803156
112	0xbdfd40d3	-0.1236588
113	0x3df1900e	0.117950544
114	0xbc8672c6	-0.01641215
115	0xbd763081	-0.06010485
116	0x3ba44513	0.005013117
117	0x3d5673d5	0.05235656
118	0x3dd73a86	0.10509209
119	0xbe0a7d91	-0.13524462
120	0xbda21faf	-0.079161994
121	0x3da694d2	0.08133854
122	0xbde03b98	-0.109488666
123	0x3e06cf2c	0.13164967
124	0xbc24faa4	-0.010069523
125	0xbe1ac26e	-0.15113232
126	0x3dfe9e48	0.124325335
127	0xbb905545	-0.004404696

linears.0.weight f4 [32, 128]
0	0x391e7900	0.0001511313
1	0x388d1447	6.727181e-05
2	0xb922f95c	-0.00015542418
3	0xb5edb050	-1.770919e-06
4	0xb70d386c	-8.417392e-06
5	0x38556564	5.0877585e-05
6	0x3920227e	0.00015271638
7	0xb8c7995c	-9.517625e-05
8	0x390ce40d	0.00013436396
9	0x39407c9f	0.00018356972
10	0x3813da0a	3.5250596e-05
11	0x3944565b	0.00018724187
12	0xb8d4e874	-0.000101522455
13	0x3905d6bc	0.00012763863
14	0x38ba1391	8.872816e-05
15	0x3910ccd6	0.00013809217
16	0xb77daf53	-1.5120796e-05
17	0xb80c60d0	-3.3468765e-05
18	0xb6096da0	-2.04784e-06
19	0x395c5d66	0.00021015629
20	0x38d2bf37	0.00010049197
21	0xb961bbb2	-0.00021527594
22	0xb8f19eb1	-0.00011521334
23	0xb93c9fbf	-0.00017988587
24	0xb937e488	-0.00017537375
25	0x388fd3b2	6.858203e-05
26	0x38c63ae8	9.452348e-05
27	0xb914a1d4	-0.00014174666
28	0x36cc8960	6.0956663e-06
29	0xb93b1675	-0.00017842076
30	0x3891d9be	6.9546964e-05
31	0x38cbf345	9.725107e-05
32	0x3899fbe8	7.34253e-05
33	0xb990c497	-0.0002761229
34	0x3845e0d4	4.7177848e-05
35	0x38fea24e	0.000121418954
36	0x388a0ce3	6.582753e-05
37	0xb8f5266e	-0.000116896685
38	0x377b6649	1.4984581e-05
39	0x3963e702	0.00021734464
40	0x38be2aca	9.067876e-05
41	0xb8b36fdd	-8.556221e-05
42	0x392d78e6	0.00016543604
43	0xb92c258d	-0.00016417187
44	0x39595d6d	0.00020729536
45	0x37893511	1.6356384e-05
46	0x377033d6	1.4317184e-05
47	0xb8c654b0	-9.45715e-05
48	0x3960b0fc	0.00021428237
49	0xb83c3d11	-4.4879565e-05
50	0xb926bde7	-0.00015901738
51	0x38f976cf	0.00011895375
52	0xb832784f	-4.2550553e-05
53	0xb840f14d	-4.6001096e-05
54	0x38771092	5.890482e-05
55	0x39580eaa	0.00020604828
56	0xb7e338c5	-2.7086944e-05
57	0x36ba3a0c	5.5499895e-06
58	0xb891b74e	-6.948282e-05
59	0x38e395c5	0.000108521
60	0xb84eabd2	-4.9274247e-05
61	0x3931986a	0.00016936814
62	0x39099057	0.00013119109
63	0xb93898b1	-0.0001760449
64	0x38de5ccb	0.00010603069
65	0x381ecb47	3.7859452e-05
66	0xb9ac5d3d	-0.00032875864
67	0xb9372472	-0.00017465817
68	0xb98a0637	-0.00026326042
69	0x37bf524a	2.2807293e-05
70	0x37202805	9.546061e-06
71	0x387f8d39	6.092826e-05
72	0x383df205	4.528651e-05
73	0x393f9e37	0.00018274119
74	0xb90c34da	-0.00013371129
75	0x39418504	0.00018455466
76	0xb8ea3f25	-0.00011169751
77	0xb8b5ce0d	-8.6691325e-05
78	0x3754a09d	1.267358e-05
79	0x3949c03b	0.00019240465
80	0x390aa971	0.00013223827
81	0xb8986faf	-7.2687275e-05
82	0x392711d7	0.00015933007
83	0xb914a51c	-0.00014175888
84	0x390a139d	0.00013168012
85	0xb9310650	-0.00016882387
86	0xb9208460	-0.00015308103
87	0xb975bda6	-0.0002343567
88	0x3736bb0c	1.0891596e-05
89	0xb90f5819	-0.00013670362
90	0x38e9099d	0.000111120964
91	0xb8935aa4	-7.026389e-05
92	0x39832aba	0.000250181
93	0xb918d7af	-0.00014576198
94	0xb80e549a	-3.393423e-05
95	0xb89de378	-7.528713e-05
96	0xb8a0993b	-7.657936e-05
97	0xb7923336	-1.7428403e-05
98	0x38a7c68b	8.000162e-05
99	0xb8388f83	-4.4002674e-05
100	0xb957c86c	-0.00020578661
101	0xb9af92ab	-0.00033487877
102	0xb914b8c9	-0.00014183218
103	0x39345a05	0.00017199673
104	0x3918af50	0.00014561159
105	0x39ab01b0	0.0003261692
106	0x3936a9ef	0.00017420178
107	0xb86e814e	-5.6864046e-05
108	0x39241dc9	0.00015651355
109	0x378b6b15	1.6619955e-05
110	0xb874e025	-5.8382884e-05
111	0x3879c9e1	5.955424e-05
112	0xb8cc0aa5	-9.729461e-05
113	0xb8939de8	-7.0389186e-05
114	0xb9088db4	-0.00013022759
115	0x392aab9a	0.0001627639
116	0x39117ddd	0.00013875165
117	0x3936baa8	0.00017426407
118	0x379487c0	1.7706188e-05
119	0xb8e750fb	-0.00011030022
120	0xb91edf24	-0.0001515118
121	0x38c97ed0	9.6080475e-05
122	0x38c019f2	9.160106e-05
123	0xb916c565	-0.0001437865
124	0xb665d6a6	-3.42486e-06
125	0x381c9415	3.733121e-05
126	0xb778b80a	-1.4824802e-05
127	0xb893a215	-7.039696e-05
128	0xb918b7a7	-0.00014564265
129	0xb8cd9847	-9.8035256e-05
130	0x38ea5661	0.00011174079
131	0xb912e3eb	-0.00014008551
132	0x39415fcd	0.00018441603
133	0xb92828b5	-0.00016036893
134	0x39a8a89c	0.0003216908
135	0xb7cb6557	-2.4246676e-05
136	0xb84a8952	-4.8288442e-05
137	0x3905b89a	0.00012752638
138	0xb6cc23c2	-6.0838365e-06
139	0xb8de9b7b	-0.000106147454
140	0x39045a28	0.00012622087
141	0x37ba391f	2.2199527e-05
142	0x3904bee9	0.0001265962
143	0x38116ff2	3.467495e-05
144	0x37a62bd1	1.9809146e-05
145	0x38c5c68f	9.4306764e-05
146	0xb8c71616	-9.493173e-05
147	0xb6ef82a2	-7.1379627e-06
148	0xb88306eb	-6.247855e-05
149	0x38cb8838	9.705167e-05
150	0x391d52f4	0.00015003589
151	0x39106813	0.00013771681
152	0xb9137ec7	-0.0001406624
153	0xb88204d0	-6.1997795e-05
154	0x38631d01	5.414803e-05
155	0x37208dde	9.569774e-06
156	0x38b46da7	8.603493e-05
157	0xb7de4265	-2.649538e-05
158	0xb88c5fc2	-6.6935565e-05
159	0xb84fcb6b	-4.9542094e-05
160	0xb7bb99cc	-2.2363754e-05
161	0xb89f39a2	-7.592446e-05
162	0xb98aa893	-0.0002644701
163	0xb96e643a	-0.00022734786
164	0x3985b1aa	0.00025500107
165	0x37d26947	2.5082974e-05
166	0x37eadb65	2.7997137e-05
167	0x393de04b	0.00018108
168	0x37f6c87a	2.941884e-05
169	0x38839e5c	6.2760635e-05
170	0x37dc3e42	2.6255035e-05
171	0xb65a6f26	-3.2549228e-06
172	0x38f43c69	0.00011646079
173	0x38652063	5.4628017e-05
174	0x3741e937	1.1557996e-05
175	0xb8c126cb	-9.210183e-05
176	0x393df3bb	0.00018115241
177	0x370f77fd	8.551401e-06
178	0xb828649b	-4.0148017e-05
179	0x3746a91a	1.1841092e-05
180	0x37a17c75	1.925065e-05
181	0x39612257	0.00021470465
182	0xb8488c32	-4.7814283e-05
183	0xb8d9f222	-0.00010392467
184	0xb8dd917d	-0.000105652005
185	0xb935dee0	-0.00017344533
186	0xb973c3b8	-0.00023247197
187	0xb9079ffd	-0.00012934204
188	0x38f67166	0.00011751316
189	0xb8be86b5	-9.084997e-05
190	0xb8929432	-6.989426e-05
191	0xb96f39de	-0.00022814373
192	0x38bf746c	9.129275e-05
193	0xb8d8dd02	-0.000103408485
194	0xb9601507	-0.00021370138
195	0x3885707f	6.362888e-05
196	0x38db9aa9	0.000104715415
197	0xb8ac365d	-8.211725e-05
198	0x387ddbe1	6.052468e-05
199	0xb786bfa0	-1.6063277e-05
200	0x39915582	0.00027720263
201	0x3908eb5f	0.00013057653
202	0x395d7d7d	0.0002112295
203	0x383c61df	4.4913842e-05
204	0x396bb6e1	0.00022479474
205	0xb8a74e5f	-7.977778e-05
206	0xb7adfd34	-2.0741114e-05
207	0xb8b01364	-8.395946e-05
208	0xb8a5456c	-7.880744e-05
209	0x375eafa2	1.3273124e-05
210	0xb912f847	-0.00014016136
211	0x375213df	1.2521602e-05
212	0xb8152bd7	-3.5565197e-05
213	0x385119c9	4.9853497e-05
214	0xb80314dd	-3.1252264e-05
215	0xb91239ec	-0.00013945223
216	0xb828a299	-4.0205752e-05
217	0x384726f7	4.7481586e-05
218	0x38b63b69	8.689502e-05
219	0x3910230d	0.00013745968
220	0xb8861fa9	-6.395515e-05
221	0x389afe63	7.3906755e-05
222	0xb9614e5e	-0.00021486866
223	0x38109150	3.446761e-05
224	0x398020fe	0.00024438644
225	0xb828b06e	-4.0218634e-05
226	0xb8f97479	-0.0001189494
227	0x37f61d2c	2.933907e-05
228	0xb8999e3c	-7.325082e-05
229	0x38ab1550	8.157885e-05
230	0x38db2fbe	0.000104516264
231	0x3788aa36	1.6291724e-05
232	0x39904c18	0.00027522515
233	0xb8a8f028	-8.055597e-05
234	0x3960a706	0.00021424526
235	0xb8a26c11	-7.744891e-05
236	0x38a554ef	7.883633e-05
237	0x38bd3edc	9.023931e-05
238	0xb91109fa	-0.00013831994
239	0xb901bd83	-0.00012372997
240	0x39819d05	0.00024721786
241	0xb89d54b8	-7.5021235e-05
242	0xb883b254	-6.279783e-05
243	0x390bf512	0.00013347369
244	0xb86244b8	-5.39466e-05
245	0xb936ccae	-0.00017433122
246	0xb8d69417	-0.00010231899
247	0xb89a785e	-7.3657124e-05
248	0xb8bb04b0	-8.917728e-05
249	0x373af2d7	1.11430045e-05
250	0x390535fc	0.00012703979
251	0x3916cbd0	0.00014381041
252	0xb9213e8a	-0.00015377454
253	0x392aaabe	0.0001627607
254	0xb91732a8	-0.00014419353
255	0xb8aba494	-8.1845705e-05

linears.0.bias f4 [32]
0	0x38f9e3fe	0.00011915712
1	0xb8614fbe	-5.3718446e-05
2	0x39a87f1b	0.00032138158
3	0xb92e3924	-0.0001661522
4	0xb8a956f4	-8.074744e-05
5	0x3973f529	0.00023265615
6	0xb8273440	-3.9864564e-05
7	0x38eec323	0.000113850714
8	0xb8d18b1e	-9.991809e-05
9	0xb8722be2	-5.7738165e-05
10	0xba2e6301	-0.0006652326
11	0x3baae392	0.005215117
12	0x3d509c30	0.050930202
13	0x383fda47	4.5741235e-05
14	0x369e8b08	4.7249523e-06
15	0xba0dd562	-0.00054105197
16	0xb8b70313	-8.7266926e-05
17	0x39129a8d	0.0001398122
18	0xba1bb7fb	-0.0005940196
19	0x38dd3dea	0.000105496336
20	0x3c9bffa1	0.019042792
21	0x38a514fd	7.8717225e-05
22	0x3994d34e	0.00028386194
23	0xb6b82f79	-5.489154e-06
24	0xb8737206	-5.8041907e-05
25	0xb892020d	-6.9622045e-05
26	0x38852ce2	6.350294e-05
27	0x398d980f	0.00027006908
28	0x37d4c5c7	2.5364467e-05
29	0x389ab748	7.377431e-05
30	0x38b69959	8.7069995e-05
31	0x383013e0	4.198018e-05

linears.2.weight f4 [2, 32]
0	0x378d6300	1.685461e-05
1	0x39238fac	0.00015598413
2	0xb936a1e1	-0.00017417177
3	0x399ae9a9	0.0002954726
4	0xb8fed2aa	-0.00012150903
5	0x37ce9be4	2.4629706e-05
6	0xb925527f	-0.00015766358
7	0x387133ff	5.7507303e-05
8	0x3906177a	0.00012787982
9	0xb9134bf6	-0.0001404731
10	0x3e967cba	0.29392034
11	0xbf19564b	-0.598973
12	0x3ec90a28	0.3926556
13	0xbd78cab9	-0.060740206
14	0x38f21927	0.00011544144
15	0x3e9b1c61	0.3029509
16	0xb924b313	-0.00015706969
17	0x380ed548	3.4054072e-05
18	0x3eb211bf	0.34779164
19	0xb51efafd	-5.922482e-07
20	0xbf25eb58	-0.6481223
21	0xb8816357	-6.169703e-05
22	0x37ea020b	2.7895925e-05
23	0xb636c062	-2.7232095e-06
24	0x3c9bb489	0.019006984
25	0xb8037b70	-3.1347794e-05
26	0x374ceb64	1.2214154e-05
27	0x390aef92	0.00013249952
28	0x35c04808	1.4326079e-06
29	0xb81aefbd	-3.6939735e-05
30	0xb8944b65	-7.071233e-05
31	0xb9360791	-0.00017359691
32	0xb93afae7	-0.0001783181
33	0xb7884986	-1.62467e-05
34	0x39f7d973	0.00047273524
35	0xb8be86c5	-9.085009e-05
36	0xb831d808	-4.2401283e-05
37	0x39038221	0.0001254161
38	0xba0630c0	-0.00051189587
39	0xb7c1d19f	-2.3105005e-05
40	0x38cb7674	9.701858e-05
41	0x380d6ab3	3.371639e-05
42	0xbe812e60	-0.25230694
43	0x3f24fdc0	0.6444969
44	0xbf188a52	-0.5958606
45	0xbd657a10	-0.05602461
46	0xb8b04474	-8.4050844e-05
47	0xbe34ad6b	-0.17644279
48	0xb99e1b79	-0.00030156577
49	0x38abbf8d	8.1895945e-05
50	0xbea09643	-0.3136464
51	0x37997fe4	1.8298575e-05
52	0x3f13fa72	0.57804024
53	0x3816c579	3.5946698e-05
54	0xb908a412	-0.00013031092
55	0xb500db12	-4.8002505e-07
56	0x3cf3cf9e	0.029762086
57	0xb8103a0c	-3.4386336e-05
58	0x3c2afbbf	0.0104359975
59	0x3919d699	0.00014671161
60	0x37ca9de9	2.415381e-05
61	0x3747dda4	1.1912929e-05
62	0x36f7e29e	7.3875553e-06
63	0xb8a8cf6f	-8.049502e-05

linears.2.bias f4 [2]
0	0xbc0ca1ea	-0.008583525
1	0x3cef07ed	0.029178584

exp_avg f4 [128, 4, 12]
0	0xbc024035	-0.007949878
1	0xbbb5dd41	-0.005550057
2	0xbad5e05e	-0.0016317477
3	0xbbcb2558	-0.00619952
4	0xbc4c94d8	-0.012486659
5	0xbc41510c	-0.011799108
6	0xba2c4b7f	-0.0006572529
7	0xbc42e9cc	-0.011896562
8	0xb9ceefb7	-0.00039469983
9	0xba363a1e	-0.0006951409
10	0x3a0c4457	0.00053507596
11	0x3a87d373	0.0010362699
12	0xbb518c31	-0.003197443
13	0xbb2c0ce9	-0.0026252812
14	0xbbb9eb47	-0.005673799
15	0xbb664916	-0.0035138777
16	0x3aa8419f	0.001283694
17	0xb9bdfecf	-0.00036238736
18	0xba982b04	-0.0011609499
19	0x3a41c58f	0.0007391804
20	0xbbe59f71	-0.0070075323
21	0xbbf38df7	-0.007432695
22	0x3b6efcd8	0.0036466625
23	0xbbdfc2e6	-0.0068286536
24	0xba1979c2	-0.000585463
25	0xb91975ba	-0.00014635074
26	0xba3a3e4b	-0.0007104619
27	0x3902e4b7	0.00012482969
28	0xba5cdab2	-0.0008424922
29	0xb9944b3d	-0.00028284817
30	0xbc42a669	-0.011880496
31	0x3b199808	0.0023436565
32	0xbba935bc	-0.0051638763
33	0x36d35369	6.2980002e-06
34	0xbc755eaa	-0.014976183
35	0x391d3e0e	0.00014995804
36	0x39339a3b	0.00017128226
37	0xbb545304	-0.0032398114
38	0xbb685b7b	-0.0035454917
39	0xbb014c53	-0.001972933
40	0x39a5ebfb	0.00031647072
41	0x3a327bf2	0.00068086304
42	0x3a8659ab	0.0010250112
43	0xbb43cab7	-0.0029875466
44	0x3a79746d	0.0009515945
45	0xbb5e281e	-0.0033898423
46	0xba677eba	-0.00088308344
47	0xbbc2377d	-0.005927025
48	0xba1dce0a	-0.0006019777
49	0xba0c5304	-0.00053529465
50	0x3901a6f8	0.000123646
51	0xb8bc5814	-8.9809444e-05
52	0x38bb3ba1	8.9279616e-05
53	0xbb05c2af	-0.002041023
54	0xba635d45	-0.0008673261
55	0x39724ff1	0.00023108699
56	0x37b340c2	2.1368618e-05
57	0x3840ca6c	4.5964887e-05
58	0x38befa96	9.106581e-05
59	0x3986d62f	0.0002571805
60	0xb99ee139	-0.00030303912
61	0xba1a962c	-0.0005897011
62	0x3764ed55	1.3645117e-05
63	0x37947bc2	1.7700604e-05
64	0xbb40346f	-0.0029328128
65	0x396ce04a	0.00022590268
66	0xbadf7abd	-0.0017050129
67	0xba2ebffa	-0.000666618
68	0xb662cc14	-3.3795413e-06
69	0xbb337542	-0.0027383124
70	0xbb11bf6c	-0.002223934
71	0xbaf1a7ae	-0.0018436813
72	0xb9d02c66	-0.0003970593
73	0xbb0b258c	-0.0021232096
74	0xbb33cf40	-0.0027436763
75	0xbb0f87b5	-0.0021900956
76	0xb9f8229f	-0.0004732804
77	0xb8d04461	-9.9309495e-05
78	0x393675c6	0.00017400747
79	0x389c4472	7.4514086e-05
80	0xb846e9f8	-4.742478e-05
81	0x37c0bc92	2.2975993e-05
82	0xb9fd4649	-0.00048308287
83	0xba8500a2	-0.0010147283
84	0xbaa7a9b2	-0.0012791662
85	0x3a2ed723	0.0006669631
86	0x37d2e9c4	2.5142806e-05
87	0xb9a74489	-0.00031903785
88	0x3a40d35a	0.00073557126
89	0xba2ecd0a	-0.00066681264
90	0xb93fcbd2	-0.00018291108
91	0xbb118134	-0.0022202255
92	0xbb2a2ff0	-0.0025968514
93	0x38112404	3.4604236e-05
94	0xb9685c9b	-0.00022159742
95	0xb972c42b	-0.00023151997
96	0x3a0ab1e2	0.0005290789
97	0x3a47bb38	0.00076191453
98	0x3b28ecba	0.0025775866
99	0x398cfe45	0.00026892326
100	0x3af5c061	0.001874935
101	0x3a1d6da9	0.00060054153
102	0x3ac9947d	0.0015379336
103	0x3a77ca88	0.0009452482
104	0x3a23997f	0.0006240829
105	0x3a7400b0	0.0009307964
106	0x3b8e8166	0.0043489216
107	0x380a6783	3.2998167e-05
108	0x3b32ef43	0.0027303256
109	0x370c169d	8.349915e-06
110	0xb4e1ec2d	-4.2081356e-07
111	0x3889609e	6.5506654e-05
112	0xb9c90814	-0.00038343726
113	0xb9072b37	-0.00012890702
114	0xb9368970	-0.00017408072
115	0x39f7ae96	0.00047241588
116	0x3952c51d	0.00020100591
117	0x3b11bb4b	0.002223688
118	0xb99e586e	-0.00030201994
119	0x39959df0	0.00028537167
120	0x397e84be	0.00024272778
121	0x3a87a1a3	0.0010347854
122	0x3b01e19d	0.0019818314
123	0x3aabeee4	0.001311746
124	0x3b0ed1f0	0.0021792613
125	0x3a999a52	0.0011718965
126	0x3b1138e5	0.0022159156
127	0x3b540431	0.003235113
128	0x3b28256e	0.0025657075
129	0x3a36e58e	0.00069769553
130	0xb844d5d7	-4.6929195e-05
131	0x3a7ca4c3	0.00096375885
132	0x39b2c92d	0.00034100693
133	0x3b059179	0.0020380898
134	0xba3ba86e	-0.0007158582
135	0x3b0ffaee	0.0021969634
136	0x3934c103	0.0001723804
137	0x3b10274f	0.0021996086
138	0x398a151b	0.00026337136
139	0xba5d0896	-0.00084317604
140	0x39db92ff	0.00041880456
141	0xb9269790	-0.00015887455
142	0xb9bab0a9	-0.00035608307
143	0x3b1adfd8	0.0023631956
144	0xbaac269a	-0.0013134063
145	0xba28ebdc	-0.0006443837
146	0x3a9b17af	0.001183262
147	0xb8056911	-3.180752e-05
148	0xbbcb5d36	-0.00620618
149	0x37670e25	1.3771966e-05
150	0xbaa416d6	-0.0012519013
151	0xb95d3a67	-0.00021097959
152	0xb9656bad	-0.00021879254
153	0x39930c62	0.0002804725
154	0x3742c3c2	1.16088795e-05
155	0xbb1e9e37	-0.002420319
156	0x3af10974	0.0018389658
157	0x3b3507a1	0.0027622955
158	0xba3aa1ac	-0.0007119428
159	0xbbdc2a94	-0.006718943
160	0xb8bf483e	-9.121046e-05
161	0xbc21cef7	-0.009876004
162	0xbbd31c5e	-0.0064425906
163	0xbb5b8bfa	-0.003350018
164	0xb9f4ac7f	-0.00046667826
165	0x37ff1c26	3.0411476e-05
166	0xb9aa1b21	-0.0003244514
167	0xb9285113	-0.00016051931
168	0xbb9728e4	-0.004613029
169	0xbc1404d1	-0.009034351
170	0xbc256427	-0.010094679
171	0x3a6d0110	0.0009040991
172	0x39def024	0.00042522058
173	0x398d4d8e	0.00026951398
174	0xb919862d	-0.00014641201
175	0xba86591d	-0.0010249946
176	0x3aa15c1a	0.0012310774
177	0xbae11c7c	-0.0017174627
178	0xbb28ea16	-0.0025774292
179	0xbb1af6de	-0.002364568
180	0xbb9dc5d9	-0.004814845
181	0xbb02256f	-0.0019858738
182	0x3a3d0496	0.0007210461
183	0xbb4ba875	-0.003107575
184	0xbb49fcd1	-0.0030820856
185	0x39a9bb82	0.00032373896
186	0xbac95be2	-0.0015362466
187	0xb9831aa4	-0.00025006116
188	0xbba2c954	-0.004967848
189	0xbb6cf3fc	-0.0036156168
190	0xbb0dee03	-0.0021656759
191	0xba166e58	-0.00057384884
192	0x398a1733	0.00026338696
193	0xbb047b31	-0.002021503
194	0xbba10408	-0.0049138106
195	0xba436691	-0.0007453943
196	0xbbcd227f	-0.006260216
197	0x3a03fd73	0.00050350203
198	0xbbf880fc	-0.0075837355
199	0xb9a9ebfc	-0.00032410014
200	0xbb558b81	-0.0032584372
201	0xba2f4c05	-0.0006687048
202	0x39fa8423	0.00047782165
203	0x3a146b0e	0.00056617043
204	0xbbd840c2	-0.0065995166
205	0xba052d22	-0.00050802727
206	0xb6480ece	-2.981094e-06
207	0x39a9069a	0.0003223911
208	0xb6990eb6	-4.561468e-06
209	0xbad9f408	-0.0016628513
210	0xb75a2745	-1.3002956e-05
211	0xbbf01ca4	-0.007327633
212	0xbb39dc1c	-0.0028359955
213	0xbbb85542	-0.005625398
214	0xbb42cc68	-0.0029723886
215	0xbac937f4	-0.0015351758
216	0xb9897399	-0.00026216803
217	0xbb6acabd	-0.0035826408
218	0xbaaff303	-0.0013423864
219	0xbbb390c5	-0.0054799044
220	0xb867f6c0	-5.5304496e-05
221	0xbba25315	-0.004953752
222	0x3aa267ca	0.0012390551
223	0x3a4733f0	0.0007598987
224	0xb89c31f8	-7.447967e-05
225	0x3a7cf07d	0.00096488727
226	0xbb884b16	-0.0041593416
227	0x39f24e1d	0.00046216036
228	0x3a1bf259	0.00059488934
229	0x38e41782	0.00010876266
230	0x398618d8	0.00025576982
231	0xb8d2c3a8	-0.00010050024
232	0x39a60724	0.00031667307
233	0x38e60abc	0.00010969254
234	0x395ca9e9	0.00021044131
235	0x3a42e09f	0.0007433984
236	0xb83bdb1b	-4.4788332e-05
237	0xba6630d6	-0.0008781081
238	0x39d6f786	0.0004100168
239	0xbbbd0b45	-0.0057691657
240	0x3af5e8a6	0.0018761351
241	0x3858e971	5.1715822e-05
242	0x3ae1653a	0.0017196306
243	0x3ab17dd5	0.0013541529
244	0x3a55d88a	0.0008157572
245	0x3bd3f3ca	0.006468271
246	0x3a8d91a5	0.0010800852
247	0x3b94d6c1	0.004542202
248	0x3b5989c0	0.0033193678
249	0xbaa2b228	-0.0012412714
250	0x3aae4e38	0.0013298457
251	0x3a94127d	0.0011297014
252	0x3b883335	0.004156495
253	0xba17c352	-0.0005789298
254	0x3bc0afeb	0.005880346
255	0x3bc47db4	0.0059964303

exp_avg_sq f4 [128, 4, 12]
0	0x39076e90	0.00012915791
1	0x391037a7	0.00013753642
2	0x38af57d8	8.3610124e-05
3	0x39a15fb5	0.0003077962
4	0x3a598505	0.00082977145
5	0x3a5e1a0d	0.000847251
6	0x378960ed	1.6376807e-05
7	0x39306107	0.00016820813
8	0x3702fa71	7.806914e-06
9	0x37ada805	2.0701447e-05
10	0x383dec9c	4.528147e-05
11	0x3752a58c	1.255552e-05
12	0x397b59e7	0.00023970717
13	0x3934a9ab	0.00017229344
14	0x3992fbcf	0.00028034902
15	0x39af42d9	0.00033428406
16	0x3781d3e7	1.5476673e-05
17	0x3784b355	1.5819134e-05
18	0x38c7c23a	9.525237e-05
19	0x36facca5	7.4744044e-06
20	0x37a94aba	2.0181167e-05
21	0x37d16abe	2.4964447e-05
22	0x38a6c7c7	7.952708e-05
23	0x39b72bed	0.00034937207
24	0x3915d6d2	0.00014289774
25	0x3914855d	0.00014164062
26	0x393010e1	0.00016790956
27	0x3881b3f5	6.184719e-05
28	0x385e8aae	5.305808e-05
29	0x3800ba8e	3.069132e-05
30	0x3a281e93	0.00064132473
31	0x39d8ecb4	0.00041375088
32	0x3a706f8c	0.0009171895
33	0x377d4363	1.5095665e-05
34	0x3a1c41a3	0.00059607084
35	0x386ee2b9	5.6954774e-05
36	0x390bbd01	0.00013326482
37	0x393c2de9	0.0001794618
38	0x38e7b51e	0.00011048674
39	0x371e3e5d	9.432054e-06
40	0x3784bfb7	1.58249e-05
41	0x3829ef1e	4.0515435e-05
42	0x38aff54e	8.390342e-05
43	0x38e234f5	0.00010786384
44	0x37fd9ba9	3.0232435e-05
45	0x3a6e345d	0.0009086782
46	0x3854b90e	5.0717084e-05
47	0x3984c7ce	0.00025325868
48	0x3590c4ff	1.078617e-06
49	0x3772dfc4	1.44764235e-05
50	0x329aecee	1.8035703e-08
51	0x368d0672	4.202878e-06
52	0x350c47ab	5.2258355e-07
53	0x3725984b	9.870225e-06
54	0x370374f4	7.835439e-06
55	0x34a7626b	3.1177782e-07
56	0x34c361f6	3.6392856e-07
57	0x338eb863	6.64593e-08
58	0x36571acf	3.2053101e-06
59	0x3420d133	1.4977267e-07
60	0x37bdfacd	2.2647344e-05
61	0x360f755f	2.137698e-06
62	0x373a0a45	1.1088855e-05
63	0x333ad27a	4.3497927e-08
64	0x379785e4	1.806295e-05
65	0x34c334dd	3.6360044e-07
66	0x37b91a12	2.2065859e-05
67	0x37933ba9	1.7551547e-05
68	0x361864fd	2.2708548e-06
69	0x383aa517	4.4499608e-05
70	0x3718f84c	9.117717e-06
71	0x3719fcf0	9.178402e-06
72	0x36a2fe64	4.857591e-06
73	0x364870b3	2.9867922e-06
74	0x37bdcd39	2.262612e-05
75	0x37228a9d	9.688226e-06
76	0x36bf087c	5.6932313e-06
77	0x3713ab17	8.801718e-06
78	0x34f1afd4	4.501768e-07
79	0x3489034f	2.5520646e-07
80	0x3385faa8	6.238889e-08
81	0x3407c303	1.26438e-07
82	0x365a6bb8	3.2547232e-06
83	0x379eaa95	1.8914501e-05
84	0x3620420c	2.3880302e-06
85	0x370b4c46	8.302804e-06
86	0x34bd20ac	3.5227765e-07
87	0x3794be45	1.7731576e-05
88	0x36d05d2a	6.209729e-06
89	0x3719810b	9.149556e-06
90	0x35d19cd1	1.5617353e-06
91	0x37701bec	1.4311616e-05
92	0x3819fa69	3.6711255e-05
93	0x3449cca6	1.8794034e-07
94	0x3746e1cd	1.1854293e-05
95	0x366f42ba	3.5652615e-06
96	0x380c9d8d	3.352533e-05
97	0x36e80d47	6.9156845e-06
98	0x38d42c7d	0.00010117234
99	0x34e8a5cc	4.3334e-07
100	0x378511bd	1.5863096e-05
101	0x3778c828	1.4828554e-05
102	0x379a19e0	1.837028e-05
103	0x365a5041	3.2531245e-06
104	0x36f35f00	7.253024e-06
105	0x364dd3fa	3.0670767e-06
106	0x386a44d4	5.585405e-05
107	0x3262ca56	1.3200937e-08
108	0x361a694a	2.3009075e-06
109	0x378ef8e1	1.7043612e-05
110	0x33b1629a	8.26014e-08
111	0x349056b8	2.6885186e-07
112	0x3799cc24	1.8334082e-05
113	0x37961bb7	1.78943e-05
114	0x369fe3dd	4.765096e-06
115	0x358a63bc	1.0310828e-06
116	0x36b35a23	5.345109e-06
117	0x3817e364	3.621298e-05
118	0x3697b245	4.520904e-06
119	0x36fc2d63	7.515469e-06
120	0x37ccfa12	2.4435143e-05
121	0x38126078	3.4898956e-05
122	0x353bf191	7.0014454e-07
123	0x3892c6ce	6.998853e-05
124	0x381e9523	3.780903e-05
125	0x36818094	3.859468e-06
126	0x37c09051	2.2955386e-05
127	0x3872f251	5.792297e-05
128	0x3888ffd7	6.532639e-05
129	0x3808f887	3.2656386e-05
130	0x3584456d	9.854972e-07
131	0x36fa94f6	7.467922e-06
132	0x370e905c	8.497471e-06
133	0x3738214c	1.0975007e-05
134	0x364d0abd	3.055363e-06
135	0x376f1271	1.4249804e-05
136	0x356332c8	8.4637986e-07
137	0x37fdfa21	3.0276426e-05
138	0x37bf6d0b	2.2819751e-05
139	0x379474bb	1.7697332e-05
140	0x36959e7d	4.4589965e-06
141	0x35ccc1f1	1.5255629e-06
142	0x379971be	1.8291987e-05
143	0x388c070f	6.677035e-05
144	0x3893c6ad	7.0465125e-05
145	0x37ec7b4f	2.8190812e-05
146	0x396bdf95	0.00022494637
147	0x38b408e8	8.584728e-05
148	0x3a14aae2	0.00056712155
149	0x3593b6fe	1.1005611e-06
150	0x37deafd3	2.6546337e-05
151	0x3711763a	8.6702e-06
152	0x37653d7e	1.3663781e-05
153	0x36b0a2cf	5.264162e-06
154	0x3816b211	3.5928624e-05
155	0x391219b9	0.00013933227
156	0x395fe580	0.00021352433
157	0x38eac4f9	0.000111946785
158	0x3785cd6a	1.5950489e-05
159	0x3980e03a	0.00024581124
160	0x37da8567	2.6049745e-05
161	0x3a33f319	0.00068645325
162	0x399585e7	0.0002851926
163	0x3a0888dd	0.00052083825
164	0x369f2cfc	4.743806e-06
165	0x38807371	6.125018e-05
166	0x37b66f88	2.1748026e-05
167	0x3872c576	5.7881196e-05
168	0x38fcde9d	0.00012057761
169	0x398a1baa	0.00026342022
170	0x3979f019	0.00023835934
171	0x387e241f	6.059196e-05
172	0x36123acf	2.1789926e-06
173	0x378818e3	1.6224052e-05
174	0x371c951b	9.333041e-06
175	0x374bca0f	1.2146788e-05
176	0x3697dee5	4.526099e-06
177	0x384aced4	4.8353177e-05
178	0x39a1d3dd	0.00030866163
179	0x39021b39	0.00012407907
180	0x3826a3fd	3.973021e-05
181	0x3883c5b2	6.2833904e-05
182	0x3764f007	1.3645745e-05
183	0x38767b3e	5.876575e-05
184	0x38134b0a	3.5117417e-05
185	0x3667a778	3.4519162e-06
186	0x39339937	0.00017127847
187	0x382de202	4.14569e-05
188	0x3a24ef03	0.0006291719
189	0x39cc3698	0.00038950588
190	0x390375f3	0.00012537073
191	0x3885331e	6.3514555e-05
192	0x37ad9874	2.0694199e-05
193	0x3855d7a8	5.0984003e-05
194	0x3906989b	0.00012836086
195	0x370552bd	7.946682e-06
196	0x38ca1afe	9.637138e-05
197	0x38823ed0	6.210583e-05
198	0x3976c764	0.00023534667
199	0x37914d8f	1.7321463e-05
200	0x379d82ac	1.8776707e-05
201	0x38ad1774	8.253651e-05
202	0x378b14b6	1.6579736e-05
203	0x379d22a1	1.8731984e-05
204	0x39809455	0.00024524578
205	0x38c7a556	9.519856e-05
206	0x3799f53b	1.8353216e-05
207	0x37411d13	1.1510466e-05
208	0x360f33a5	2.1338722e-06
209	0x38319495	4.2338466e-05
210	0x36d7985a	6.4252354e-06
211	0x3985f5de	0.00025550922
212	0x397c4422	0.00024057974
213	0x3901d973	0.00012383405
214	0x396daf9c	0.00022667501
215	0x380a2343	3.2934604e-05
216	0x370e18fa	8.469675e-06
217	0x387e98d0	6.0700637e-05
218	0x38b91453	8.825273e-05
219	0x39954d0f	0.00028476908
220	0x38fadba0	0.00011961837
221	0x38efd3c6	0.00011435854
222	0x378f1369	1.7055967e-05
223	0x370c820b	8.374928e-06
224	0x34d28169	3.9209706e-07
225	0x369ff45d	4.767017e-06
226	0x379eff6d	1.895401e-05
227	0x37ce6a61	2.460665e-05
228	0x37236f4c	9.74147e-06
229	0x36f6dee6	7.35732e-06
230	0x3640984c	2.8698878e-06
231	0x36b54050	5.4017073e-06
232	0x37a3dfd8	1.953535e-05
233	0x35489d9e	7.473517e-07
234	0x36e84978	6.9226917e-06
235	0x3688b796	4.074488e-06
236	0x37abffb3	2.0503858e-05
237	0x3753581d	1.25970955e-05
238	0x37832dab	1.5637683e-05
239	0x392337da	0.00015565698
240	0x399a2370	0.00029399572
241	0x3731fcf1	1.0608915e-05
242	0x38004f05	3.059117e-05
243	0x37dd6025	2.6390024e-05
244	0x37c3b1e7	2.3328654e-05
245	0x39b00574	0.000335734
246	0x3834e4ad	4.3128315e-05
247	0x388ef195	6.816086e-05
248	0x3919f01c	0.00014680665
249	0x392a39f2	0.0001623405
250	0x38dc5cb1	0.000105076826
251	0x38bd72ef	9.03363e-05
252	0x38838983	6.27218e-05
253	0x378fd140	1.7144368e-05
254	0x39a18e30	0.0003081425
255	0x39d5558a	0.00040690257

exp_avg f4 [128]
0	0xbc3d6c72	-0.0115615
1	0xbb292a0f	-0.0025812422
2	0x3b7bdd2e	0.0038431394
3	0xbc11db04	-0.008902315
4	0xbbc4b83d	-0.006003408
5	0x3bf4ca13	0.007470378
6	0x3baf9de2	0.0053593973
7	0xbb394a47	-0.0028273033
8	0xbb47c011	-0.003047947
9	0x3bb02baa	0.005376299
10	0xbc2b71e1	-0.010464163
11	0x3b4bd7ff	0.0031104086
12	0x3af2f055	0.0018534759
13	0xbb8fa315	-0.0043834546
14	0x3b6dc334	0.003627968
15	0x3b9bc7b7	0.0047540325
16	0xba791379	-0.0009501498
17	0xbb2d8f50	-0.0026483126
18	0x3b20744e	0.0024483385
19	0x3b8fc34e	0.004387296
20	0xbb9d1ede	-0.0047949394
21	0xbaecd244	-0.0018068035
22	0xbab4b2d0	-0.00137862
23	0xbbb976d7	-0.0056599188
24	0x3b97c21a	0.004631293
25	0xbbcb358a	-0.0062014507
26	0xbb8c605c	-0.004283948
27	0xbb0d9b26	-0.0021607368
28	0x3b1d245e	0.0023977975
29	0xbbad1595	-0.005282114
30	0x3bb5e996	0.0055515273
31	0x3b91367f	0.0044315453
32	0xbb264508	-0.0025370736
33	0x3b27796b	0.0025554548
34	0x3b92291e	0.004460468
35	0xbb69775d	-0.0035624125
36	0x3bbd4b25	0.00577678
37	0xbb7aef30	-0.003828954
38	0x3bdaacaf	0.0066734175
39	0x3ba9a4bb	0.005177108
40	0xbb4ffc4d	-0.0031736076
41	0x3bb7aeb6	0.005605544
42	0xbbd9236b	-0.0066265366
43	0x3ba31895	0.0049772956
44	0x3b99f4fc	0.004698394
45	0xbbb648fc	-0.0055628996
46	0xbb9d2ca8	-0.004796583
47	0x3bae5470	0.0053201243
48	0x3b85da8c	0.0040848907
49	0x3b8a4d37	0.0042206305
50	0x3bcb8b24	0.006211655
51	0xbc12ed59	-0.008967721
52	0xbbc2572e	-0.005930803
53	0x3b852cd2	0.004064181
54	0xbba388a3	-0.0049906536
55	0xbb8ecff8	-0.004358288
56	0x3b4ea628	0.0031532142
57	0x3c0a55a5	0.008443271
58	0xbbd20745	-0.006409558
59	0xbbc8b474	-0.0061250273
60	0x3bd0f6e8	0.00637709
61	0x3b97bd81	0.004630745
62	0xbb13a5d7	-0.0022529268
63	0x3b9b48bd	0.0047388957
64	0xbb8b7fce	-0.004257179
65	0x3b5b391f	0.0033450795
66	0x3bf44437	0.007454421
67	0x3b62549d	0.0034535297
68	0x3b04eb61	0.0020281898
69	0x3b883ae9	0.0041574133
70	0x3bba9fc2	0.005695314
71	0xbb87e025	-0.004146593
72	0x3ba91b6e	0.0051607406
73	0x3b72a4f2	0.0037024585
74	0xbc02b527	-0.00797776
75	0xbbb87e80	-0.0056303144
76	0xbb981a72	-0.0046418244
77	0xbb920d23	-0.0044571324
78	0x3bb51f1a	0.0055273892
79	0xbb3f06bc	-0.00291483
80	0xbc0ce903	-0.008600476
81	0xbb103229	-0.0022002554
82	0xbb3c446b	-0.0028727304
83	0xbba189e4	-0.004929768
84	0xbba8db3e	-0.005153089
85	0x3b8995e2	0.0041987756
86	0x3b4fbeb1	0.0031699354
87	0xbc044b59	-0.008074605
88	0x3b8f958f	0.0043818424
89	0x3bb905dd	0.005646451
90	0xbb58f2f7	-0.0033103803
91	0xbbd9e80c	-0.0066499766
92	0x3b996f54	0.004682461
93	0xbb7bbbca	-0.0038411492
94	0xbbe1e908	-0.0068942346
95	0xbc274915	-0.010210295
96	0xbbd083d3	-0.006363371
97	0xbb28f824	-0.002578267
98	0x3bbe07a1	0.0057992493
99	0x3b832581	0.0040022735
100	0xbbc50eae	-0.006013713
101	0x3c0e3318	0.008679174
102	0x3b967958	0.004592102
103	0xbbcf5d2d	-0.006328246
104	0xbbb33142	-0.0054685185
105	0xbb6bf6b8	-0.003600521
106	0x3ba76b1f	0.0051092054
107	0x3b869581	0.0041071777
108	0x3b64ec21	0.0034930783
109	0x3bbc8799	0.005753469
110	0xbbf02a59	-0.007329267
111	0x3b7178df	0.0036845726
112	0xbb0d22fb	-0.0021535743
113	0xbbbe9c81	-0.0058169966
114	0xbad0825f	-0.0015907994
115	0x3be6fd79	0.0070492593
116	0xbbad7ff1	-0.005294793
117	0xbc3040bc	-0.010757621
118	0x3b69dc41	0.003568426
119	0xbb7b3f67	-0.0038337351
120	0xbba7510b	-0.0051060966
121	0x3ba407d5	0.0050058165
122	0x3b9cb549	0.004782353
123	0x3bc5bc5f	0.0060344185
124	0xbb83ed30	-0.0040260777
125	0x3b04b2a7	0.0020248087
126	0x3bb456b7	0.0055035013
127	0x3bb184a7	0.0054174247

exp_avg_sq f4 [128]
0	0x3a958b3b	0.0011409292
1	0x384494b3	4.686853e-05
2	0x38efcfe3	0.0001143513
3	0x3a491e70	0.0007672077
4	0x39bc1a62	0.0003587781
5	0x3a05e247	0.00051072653
6	0x398c3004	0.00026738655
7	0x3886d0db	6.42852e-05
8	0x383c4438	4.4886227e-05
9	0x3990b6ef	0.00027602116
10	0x3a93a8d7	0.0011265528
11	0x3855ea21	5.1001207e-05
12	0x37b5c44a	2.1668286e-05
13	0x3963bce0	0.00021718768
14	0x38bea461	9.090524e-05
15	0x3917ac21	0.00014464605
16	0x36f35c6e	7.2527246e-06
17	0x3893c601	7.046387e-05
18	0x3843cf16	4.6684487e-05
19	0x3923f407	0.00015635799
20	0x38c3451f	9.3111994e-05
21	0x37cee1d2	2.466227e-05
22	0x375e5965	1.3253045e-05
23	0x39855730	0.00025432697
24	0x38ca33d9	9.641768e-05
25	0x3976fe4e	0.00023555124
26	0x3933ca6a	0.00017146175
27	0x38173975	3.6054716e-05
28	0x384bc888	4.858573e-05
29	0x395f57e4	0.00021299679
30	0x3998db7d	0.0002915523
31	0x393ef2f0	0.00018210313
32	0x388d22ab	6.729861e-05
33	0x3855ecf7	5.1003848e-05
34	0x395b47f8	0.00020912278
35	0x38960592	7.153595e-05
36	0x39985a44	0.00029058952
37	0x38ce6d94	9.843256e-05
38	0x39c5ebb0	0.0003775037
39	0x39a9e8aa	0.0003240754
40	0x38879462	6.46494e-05
41	0x3988829d	0.00026037256
42	0x3a029e2c	0.0004982676
43	0x39754b6c	0.00023393118
44	0x393ff3fe	0.00018306074
45	0x396dd17e	0.00022680123
46	0x39572db0	0.00020521018
47	0x39956356	0.00028493506
48	0x391bd6f2	0.00014862025
49	0x39049c2c	0.0001264668
50	0x39c71529	0.00037972003
51	0x3a5107e3	0.00079738925
52	0x39a100f0	0.00030709011
53	0x3912d060	0.00014001271
54	0x399586ec	0.0002852002
55	0x3942df9a	0.0001858458
56	0x38c8aba7	9.568716e-05
57	0x39efe1f6	0.00045753986
58	0x39b7f5ce	0.0003508762
59	0x399c8663	0.00029854765
60	0x39973c76	0.0002884601
61	0x3945ac7e	0.00018851642
62	0x388b35ef	6.6380824e-05
63	0x390a780d	0.00013205428
64	0x38dc67d4	0.00010509757
65	0x38a85aeb	8.027799e-05
66	0x3a1ea12c	0.0006051238
67	0x38f79278	0.0001180516
68	0x37c98884	2.4024637e-05
69	0x394f765e	0.00019785154
70	0x39915a5c	0.00027723878
71	0x39281493	0.00016029393
72	0x3999ad40	0.00029311515
73	0x389ad396	7.382703e-05
74	0x3a23fe43	0.00062558445
75	0x39516e0b	0.00019972787
76	0x398a183b	0.00026339464
77	0x3923e15c	0.00015628844
78	0x39aae35c	0.00032594323
79	0x38a5e5ae	7.910594e-05
80	0x3a59dd8f	0.0008310908
81	0x3818958e	3.6378908e-05
82	0x3895987a	7.1332746e-05
83	0x394dc01c	0.0001962189
84	0x39893ffb	0.00026178345
85	0x39170b98	0.00014404801
86	0x38946424	7.0758426e-05
87	0x3a25e006	0.00063276326
88	0x3934ccf6	0.00017242492
89	0x39586267	0.00020636023
90	0x38a89091	8.037792e-05
91	0x39d1a840	0.00039988942
92	0x3905f8fe	0.00012776625
93	0x38dbfa75	0.00010489385
94	0x3902ae31	0.00012462657
95	0x3a6c24df	0.000900818
96	0x39cf6d73	0.00039563663
97	0x3806320c	3.19947e-05
98	0x3998a896	0.00029117306
99	0x39135465	0.00014050452
100	0x39899dbc	0.00026248198
101	0x3a5b57c1	0.00083672634
102	0x39357cad	0.0001730795
103	0x39bf964a	0.00036542333
104	0x397dad3f	0.000241925
105	0x38bec99a	9.097457e-05
106	0x395a3357	0.00020809226
107	0x3908bf38	0.00013041205
108	0x38c0bab4	9.1900496e-05
109	0x39b20578	0.0003395488
110	0x39ceedb7	0.00039468493
111	0x38d4764b	0.000101309815
112	0x3810da16	3.4535384e-05
113	0x398f6c88	0.00027355948
114	0x37b5faee	2.169373e-05
115	0x3a009895	0.0004905549
116	0x398511f2	0.00025381107
117	0x3a87fddf	0.0010375342
118	0x38e55a39	0.00010936376
119	0x38e561b0	0.00010937767
120	0x3969bdbf	0.00022291298
121	0x396fce67	0.00022869707
122	0x39597213	0.00020737229
123	0x39bb0ddf	0.00035677754
124	0x39305443	0.00016816058
125	0x38007ac8	3.0631927e-05
126	0x399307d1	0.0002804385
127	0x398cb7b4	0.0002683975

exp_avg f4 [32, 128]
0	0xb861bfe0	-5.3822878e-05
1	0x37a13811	1.9218804e-05
2	0xb86cc2a0	-5.6448043e-05
3	0x3885dda9	6.3832216e-05
4	0x388800d5	6.48514e-05
5	0xb8763196	-5.869715e-05
6	0x393699f2	0.00017414222
7	0x373d3e7e	1.1279828e-05
8	0xb92476b1	-0.00015684475
9	0xb875e34c	-5.862424e-05
10	0xb8ee64cf	-0.000113675014
11	0x392bd049	0.00016385423
12	0x38dd6a2e	0.00010557879
13	0xb924d7ca	-0.00015720646
14	0xb8826b42	-6.2188614e-05
15	0xb92b153f	-0.00016315746
16	0xb805a8fa	-3.1867043e-05
17	0x39241ba0	0.0001565055
18	0xb8c48b90	-9.372004e-05
19	0xb8b7901e	-8.752964e-05
20	0x37fcf921	3.015675e-05
21	0x38b5dddc	8.672077e-05
22	0x382bf040	4.0993327e-05
23	0x382b7da0	4.0886574e-05
24	0x3969f41f	0.00022311554
25	0xb924ce1b	-0.00015717039
26	0xb81f2834	-3.7945996e-05
27	0x3924f97c	0.00015733199
28	0xb7340e32	-1.0732141e-05
29	0x3940daf9	0.0001839212
30	0xb91bacfe	-0.00014846397
31	0xb95a7818	-0.00020834839
32	0xb92f3e6f	-0.00016712559
33	0xb6f47903	-7.2858543e-06
34	0xb94fa27d	-0.0001980159
35	0x38fa6820	0.00011940324
36	0xb906d300	-0.0001285784
37	0x38a23f08	7.7365024e-05
38	0x36e43313	6.8008753e-06
39	0x37aef17d	2.0854868e-05
40	0x389a9772	7.371501e-05
41	0x3828feb4	4.0291532e-05
42	0xb86ad3c8	-5.5987184e-05
43	0x39310b6f	0.00016884295
44	0xb95f82a5	-0.00021315606
45	0x38fa68e4	0.00011940466
46	0x36d91aa3	6.470205e-06
47	0xb88093db	-6.131056e-05
48	0xb888e42c	-6.527486e-05
49	0x385d44ff	5.2754764e-05
50	0x392bce8e	0.00016384778
51	0xb924f97f	-0.00015733203
52	0x3886e8d0	6.4329826e-05
53	0xb885bac7	-6.376724e-05
54	0xb8888617	-6.5099615e-05
55	0xb8b732be	-8.7355715e-05
56	0x38da4e50	0.00010409637
57	0x36d610d3	6.3796556e-06
58	0x3923d3d0	0.00015623798
59	0x384fc9d3	4.954061e-05
60	0x38813320	6.160722e-05
61	0xb7efcfcf	-2.8587789e-05
62	0xb7a90c9b	-2.015224e-05
63	0xb7bc203d	-2.2426359e-05
64	0xb983076e	-0.00024991803
65	0x39028dcc	0.0001245059
66	0xb68a49d3	-4.1213148e-06
67	0x382faf4c	4.188651e-05
68	0xb795b831	-1.7847955e-05
69	0xb881afe1	-6.183959e-05
70	0x38a1a057	7.706944e-05
71	0xb920c258	-0.00015331188
72	0xb982089f	-0.00024801955
73	0xb944f25e	-0.00018782305
74	0x382acbc0	4.0720915e-05
75	0x382d599b	4.1329866e-05
76	0xb8fb5842	-0.00011985052
77	0x38eb2414	0.00011212393
78	0x37293be2	1.00871275e-05
79	0xb846c1b8	-4.7387293e-05
80	0x38837fd9	6.27038e-05
81	0x34f516cc	4.5651393e-07
82	0xb92bc8cb	-0.00016382632
83	0x392bdcdf	0.00016390112
84	0xb8581a40	-5.152286e-05
85	0x3969be54	0.00022291514
86	0x382a329c	4.0578292e-05
87	0x388953bc	6.548266e-05
88	0xb91f142f	-0.0001517094
89	0x3915263c	0.00014223991
90	0xb9248886	-0.00015691118
91	0x39591bbb	0.00020705063
92	0xb8d1ed7a	-0.0001001013
93	0x382b1a38	4.0793995e-05
94	0xb9375e97	-0.00017487477
95	0x370c9b26	8.380774e-06
96	0xb884737e	-6.3157626e-05
97	0xb7754a72	-1.4620471e-05
98	0x38026ef0	3.1097734e-05
99	0x39235f6c	0.00015580439
100	0xb7b87311	-2.1988091e-05
101	0x38e4a008	0.00010901695
102	0x38a58cbc	7.894027e-05
103	0xb84389b8	-4.6619884e-05
104	0xb92b6d0a	-0.00016348451
105	0x369c2483	4.653413e-06
106	0xb8b698f4	-8.706926e-05
107	0xb946af0e	-0.00018947964
108	0xb92ba8e4	-0.00016370747
109	0xb79b1fb1	-1.8492197e-05
110	0x37ffefe7	3.0510082e-05
111	0x3882d090	6.237731e-05
112	0x38eb4ac4	0.000112195994
113	0x39120919	0.00013927034
114	0x392b0136	0.00016308282
115	0xb8849f4e	-6.323923e-05
116	0xb92ad271	-0.00016290859
117	0xb93a4941	-0.00017765631
118	0xb80122fe	-3.0788586e-05
119	0xb8844736	-6.3075146e-05
120	0x39243cc0	0.0001566289
121	0xb9251fcb	-0.0001574747
122	0x35dc9b4d	1.6436476e-06
123	0x3925b2f4	0.00015802291
124	0xb903e91d	-0.00012579975
125	0x38833b33	6.2575935e-05
126	0xb7b623b5	-2.1712718e-05
127	0x393d6432	0.0001806177
128	0x38a508e5	7.86947e-05
129	0xb8fa7252	-0.00011942223
130	0x38fb9df0	0.00011998031
131	0xb8e66097	-0.00010985246
132	0x382c36e6	4.1059124e-05
133	0x38b60784	8.679836e-05
134	0x36ab61da	5.1075885e-06
135	0xb8116a18	-3.46695e-05
136	0x39234885	0.00015571907
137	0xb908f1b8	-0.00013060018
138	0xb8883825	-6.495443e-05
139	0xb85772a5	-5.1366766e-05
140	0xb9101cce	-0.00013743641
141	0xb83bf581	-4.4812918e-05
142	0xb911e4f7	-0.00013913574
143	0xb923d414	-0.00015623897
144	0xb8dc80eb	-0.0001051443
145	0x35bdbd34	1.4136663e-06
146	0x38fb00e3	0.00011968778
147	0xb9158949	-0.0001426089
148	0xb88469a5	-6.313928e-05
149	0x38ea37b8	0.00011168368
150	0x38f2908b	0.000115663825
151	0xb924b184	-0.00015706389
152	0x37751ff6	1.46105795e-05
153	0x38be5a37	9.07671e-05
154	0x38b25aa0	8.504582e-05
155	0x38fb220d	0.00011974955
156	0x385bbbcc	5.238857e-05
157	0xb8846c6e	-6.314447e-05
158	0xb8f98c9a	-0.00011899434
159	0x3923d101	0.00015622751
160	0x3810a3ff	3.448501e-05
161	0xb802c045	-3.117348e-05
162	0xb7b0c51d	-2.1072623e-05
163	0x388824df	6.491853e-05
164	0xb8966641	-7.171604e-05
165	0xb917f42d	-0.00014491445
166	0x394912c8	0.0001917585
167	0x384568f6	4.7066213e-05
168	0x36b5b3e6	5.4151633e-06
169	0x378e2ad7	1.6947668e-05
170	0x3902e585	0.00012483269
171	0xb91e96cc	-0.0001512423
172	0xb792bb70	-1.7491839e-05
173	0xb8f3c3b4	-0.000116235955
174	0xb8dc3c7e	-0.00010501685
175	0xb6aba3f0	-5.115282e-06
176	0xb946059e	-0.00018884844
177	0xb917037a	-0.00014401777
178	0x39249f3b	0.00015699577
179	0x3884cb40	6.332109e-05
180	0xb8818a6f	-6.1769846e-05
181	0x38dc2925	0.00010498081
182	0x3924149e	0.0001564794
183	0x36f4b540	7.292867e-06
184	0xb832e0d7	-4.2647906e-05
185	0x396cd1fe	0.00022584942
186	0x388e985d	6.7994675e-05
187	0x3908c8ab	0.00013044725
188	0xb9357a2d	-0.00017307019
189	0x38fb871a	0.00011993777
190	0xb6b63b73	-5.4309435e-06
191	0x38b6ff85	8.7260305e-05
192	0xb8c18b1c	-9.228868e-05
193	0x395a051a	0.00020792
194	0x38c83228	9.5460855e-05
195	0xb88958a5	-6.5491804e-05
196	0xb8faf391	-0.00011966297
197	0x3903495b	0.0001252046
198	0x378a6afb	1.6500699e-05
199	0x388c8e31	6.7022054e-05
200	0xb8da4909	-0.00010408654
201	0xb91001f3	-0.00013733636
202	0xb98dcc67	-0.00027045907
203	0xb80ad0c0	-3.3096178e-05
204	0xb96f1d5b	-0.00022803752
205	0x38bf0f57	9.110447e-05
206	0xb7afdc96	-2.0964344e-05
207	0xb6ba0990	-5.544345e-06
208	0x39512052	0.00019943833
209	0x38cfa906	9.902012e-05
210	0x385fd35e	5.3364194e-05
211	0x372f4162	1.0446036e-05
212	0xb6bce046	-5.6289455e-06
213	0xb821f268	-3.861115e-05
214	0xb88410e0	-6.297394e-05
215	0x3857b094	5.1424446e-05
216	0xb7d9d381	-2.5966905e-05
217	0xb7ccbb11	-2.4405805e-05
218	0xb8b7afa0	-8.758833e-05
219	0xb91284d4	-0.00013973127
220	0xb80574fd	-3.1818625e-05
221	0xb8dbba05	-0.000104773826
222	0x396d6ee3	0.0002264339
223	0xb9246a8b	-0.00015679949
224	0x371cf7e8	9.356045e-06
225	0x38dc01bb	0.0001049074
226	0x3924c307	0.00015712912
227	0xb81091b6	-3.446798e-05
228	0x395996a8	0.00020750856
229	0xb923c1ec	-0.00015617133
230	0x35ed589a	1.7683662e-06
231	0xb915e647	-0.00014295532
232	0x36def190	6.644237e-06
233	0x38f97a82	0.00011896064
234	0xb8b5db75	-8.6716296e-05
235	0x378694e2	1.6043374e-05
236	0x38a258b1	7.741282e-05
237	0x3885881d	6.367287e-05
238	0x376e9472	1.4220468e-05
239	0x382dade1	4.140835e-05
240	0x38cec556	9.859602e-05
241	0xb8017c39	-3.0871688e-05
242	0xb8b0730f	-8.413765e-05
243	0x38719e71	5.7606438e-05
244	0x390543c6	0.00012709116
245	0x38736446	5.80291e-05
246	0x389e923d	7.561266e-05
247	0x38b0062a	8.393482e-05
248	0x38232b9e	3.890285e-05
249	0xb8db35e1	-0.000104527695
250	0x38fbd08e	0.00012007459
251	0xb8b5b0e9	-8.663705e-05
252	0xb82fc425	-4.1905925e-05
253	0xb940620a	-0.00018347069
254	0xb8471e11	-4.74733e-05
255	0x35881073	1.0137577e-06
