our-vTR/10_fold_lightning_logs/dataset1/fold_5/version_3/checkpoints/epoch=13-step=489_fold5.ckpt (torch, 132433 bytes, 18 tensors)

conv1d.weight f4 [128, 4, 12]
000000 70 88 1f be ff 0c 2f 3e 93 b4 a6 3d b8 f8 12 be
       -0.1557939 0.17094801 0.081399105 -0.14352691
000010 db 61 17 3e ba 9d 14 bd 48 1a c9 3d 87 a1 27 be
       0.14783423 -0.036283232 0.09819466 -0.16370212
000020 34 d8 18 be 80 b3 24 3e e6 9e 67 3d aa 4b b0 bd
       -0.14926225 0.16084099 0.05654802 -0.08608182
000030 b0 02 9d 3d cb 3d 45 bd 2e 4f 21 3d 6f 4d c9 bc
       0.07666528 -0.048154633 0.039382152 -0.024573056
000040 0e 9c c8 bd b5 cf 66 bd 0b a0 1f 3e f6 a1 97 3d
       -0.0979539 -0.05635043 0.15588395 0.074039385
000050 4a d8 25 bd 44 e1 9b 3d 68 52 89 bd d5 c7 98 bd
       -0.040489472 0.076113254 -0.06705171 -0.0745999
000060 52 54 8e bd 1e e0 ad 3d 2c 5e 28 bc ea 0a 87 3d
       -0.069496766 0.084900126 -0.010276359 0.065938786
000070 6b 5a cb 3d 98 26 43 be 19 7b 8d 3d 3d 47 a9 bd
       0.09929355 -0.19057691 0.06908245 -0.08265541
000080 f2 75 1b 3e 27 57 9f bc 22 99 0a bd 65 82 f5 bd
       0.15181711 -0.019450737 -0.033837445 -0.119877614
000090 6f 2b 5c 3d b2 f2 5f 3d a9 9e 4d be 43 20 cc bd
       0.05375236 0.05467481 -0.20080055 -0.09967091
0000a0 9c f4 38 3d 7f 5a 2a bd 57 e0 62 bd a5 f5 69 bd
       0.045155153 -0.04159021 -0.05538973 -0.05711903
0000b0 69 81 c7 3d fe 46 b4 bd 63 95 18 be 9b c7 49 3e
       0.0974148 -0.08802603 -0.14900737 0.1970505
0000c0 d9 f6 b7 3d e0 28 b4 bd 34 ab 3b 3d 44 de 25 3c
       0.08982629 -0.08796859 0.04581757 0.010123793
0000d0 4c 52 d4 3d da 6e 2f be 25 30 2c be f5 40 8a bc
       0.103672594 -0.1713213 -0.1681524 -0.016876677
0000e0 3f 40 06 3d 6e e3 8f be 28 ab 84 3d 52 61 74 bc
       0.032776114 -0.28103203 0.06477958 -0.014915781
0000f0 89 68 34 3e 12 fa 2d 3d d2 e0 d4 bc 76 90 ac bd
       0.17618002 0.042474814 -0.025986109 -0.08425991
000100 a5 ac f2 3d 2b df 34 3e 8c e5 b3 bd eb ce df 3d
       0.118493356 0.17663257 -0.08784017 0.10928138
000110 35 c5 5d 3e 99 aa 3d be f9 e4 3a 3c 67 ad 8a bd
       0.2165726 -0.18522109 0.01140713 -0.06771355
000120 a4 8f 3b be 0e 0f 54 3c 45 b9 5c bd b8 d1 92 be
       -0.18316513 0.012943042 -0.053887624 -0.28675628
000130 08 dd 26 be 83 a7 02 be 5d ab ef 3a 7f 45 df bb
       -0.16295254 -0.12759213 0.0018285323 -0.0068137045
000140 86 f3 97 3d 0b 16 72 be 12 f4 4b bd b8 79 08 3d
       0.07419495 -0.23641221 -0.04979331 0.033319205
000150 ee 90 34 be 84 31 c1 bc 86 77 28 be 45 bd 6a 3e
       -0.17633411 -0.023583181 -0.16451845 0.22923763
000160 ae cd ff bd ae c7 0d 3d b5 c5 f1 bd 7c da 39 3d
       -0.12490402 0.034614258 -0.11805288 0.04537438
000170 23 5f c2 bc a7 a8 22 3e cd b7 4b be 29 ad 8a 3b
       -0.023727005 0.15884648 -0.19894333 0.004232068
000180 16 fa 9a bd 77 31 b8 bd 23 66 00 bd 79 c6 45 3e
       -0.07567231 -0.0899381 -0.031347405 0.19313993
000190 19 44 aa bc 2a a9 22 bd 0d cc 10 be 6e a6 37 be
       -0.020784425 -0.03971211 -0.14140339 -0.17934582
0001a0 58 1d 7a bb 9e 66 cd ba d0 60 dd 3d ac f5 f0 bd
       -0.0038164463 -0.0015670841 0.10809481 -0.11765608
0001b0 ed 55 a2 bd 06 53 3e bd cc 0c c7 3d 86 19 6c be
       -0.07926545 -0.046465896 0.09719238 -0.23056611
0001c0 31 71 11 be a5 62 e6 bd b7 15 85 3e 97 52 a4 bc
       -0.14203335 -0.11249284 0.2599313 -0.020058913
0001d0 a6 c7 d8 bc 9c 33 67 be 98 5d 9a be e3 63 aa 3d
       -0.026462387 -0.22578281 -0.3014953 0.08319833
0001e0 8a a9 cf 3d 8c 63 db 3d 61 f5 09 3e 0a 80 ef bd
       0.10139759 0.107123464 0.13472511 -0.116943434
0001f0 63 88 00 3e 84 56 12 3e 54 6a 28 bc f1 d1 f5 bd
       0.12552027 0.14290816 -0.010279257 -0.12002934
000200 74 95 73 3d e1 c1 ce 3d 1b bd 89 3d ac 93 e7 3d
       0.0594687 0.10095573 0.06725522 0.11307463
000210 4d 2f b8 3d 95 4c 80 be d2 54 83 bc 7f e1 38 be
       0.08993397 -0.25058427 -0.016031656 -0.1805477
000220 01 57 02 3e ea 0b 73 be b6 4b 71 be fa a7 1b 3e
       0.12728502 -0.23735014 -0.23564038 0.15200797
000230 84 6c b4 bd 97 2a 8f bd 20 bf e1 bc 74 20 2c be
       -0.0880976 -0.06990545 -0.027556956 -0.16809255
000240 b9 cc 19 bd 17 e4 87 bd e1 16 7d be 76 0f f1 bd
       -0.037548754 -0.066353016 -0.24715759 -0.11770527
000250 5f d6 7a be fb bb 29 3e 85 53 15 be f9 c5 d3 bd
       -0.24495839 0.16575615 -0.14582641 -0.10340495
000260 59 a1 ad bd 28 fc 22 bd 09 a7 c2 bd 74 8e 32 3e
       -0.0847804 -0.039791256 -0.09504516 0.17437154
000270 7b 02 d8 bd 2c 77 8e bc 0b 21 85 3d 83 32 d9 bd
       -0.10547348 -0.01739081 0.06500443 -0.106053375
000280 cd b3 c4 bd ec f4 20 be 15 29 36 bd e2 0e 41 3d
       -0.09604607 -0.1571843 -0.044472773 0.047133334
000290 00 4a 11 3e 12 5d 05 3e 5a f1 88 3d 0a 9f ae bd
       0.14188385 0.13023785 0.06686659 -0.08526428
0002a0 73 31 67 3d 1b e1 fc 3d 87 63 d3 3d 4e cb 8a 3e
       0.056443643 0.12347623 0.10321718 0.27108234
0002b0 88 39 79 3d cf d3 9f bc 57 bd 04 3e 69 18 56 3e
       0.06084588 -0.019510178 0.12962852 0.20907749
0002c0 8e ad e1 3d 28 94 10 3d 31 45 20 3d 67 ba 31 be
       0.11019431 0.035297543 0.039128486 -0.17356263
0002d0 ee 4a 15 3e 4e 3b 1f 3e 05 42 4d 3d a0 77 71 3c
       0.14579365 0.15549967 0.05011179 0.0147379935
0002e0 1a d8 dd 3c 78 4a 39 be 27 af 31 be 53 60 43 be
       0.027080584 -0.18094814 -0.17351972 -0.19079714
0002f0 6a 87 28 be be ed 03 3e 63 0f ce 3d 53 83 97 3d
       -0.16457906 0.1288366 0.100615285 0.07398095
000300 e2 2c 5d 3d 50 a8 c7 bd e0 74 bd bd 65 b4 7e 3d
       0.05399788 -0.097489 -0.09250808 0.062183756
000310 08 a3 55 3e 74 4d 9a 3d 03 a0 d9 3d b5 46 50 bc
       0.20862973 0.07534304 0.10626223 -0.01271217
000320 2c 80 0a be 4b 56 c3 bd 88 35 3e 3e f8 de c4 bd
       -0.13525456 -0.095379435 0.18575108 -0.096128404
000330 33 ed 0d be e1 52 00 bd 46 96 32 3e d0 be df bd
       -0.13860016 -0.03132904 0.17440137 -0.109250665
000340 2d f6 bd 3d 75 84 d7 bd a8 0e b6 bd 6e c2 8e bd
       0.0927547 -0.10523311 -0.08889514 -0.06970678
000350 af 05 1b be c7 57 69 3e 7f 6f b2 bc 77 67 65 3d
       -0.15138887 0.2278739 -0.021781681 0.056006875
000360 6f 1b 66 bd b2 1c 47 3e 8d 12 b1 3d 96 29 2e 3e
       -0.056178506 0.1944454 0.086461164 0.17008051
000370 59 a8 dd bd 57 20 e2 bd ae ae e9 bd 81 49 15 be
       -0.108231254 -0.110413246 -0.11410271 -0.14578821
000380 75 57 e7 3d f9 84 99 bd e0 0a 81 bd 08 05 90 3d
       0.11295978 -0.07496066 -0.06300902 0.0703221
000390 d2 c0 44 3e d0 b4 c6 bd d5 0f 0b bd 3f 92 04 be
       0.1921418 -0.09702456 -0.033950645 -0.12946413
0003a0 5c 5d d4 3d 43 28 d3 3c d1 e0 89 bd a9 66 4d 3d
       0.103693694 0.025776034 -0.067323335 0.050146732
0003b0 aa 7d ff bd 83 33 5e 3b b4 bb e6 3d 88 3e 4a be
       -0.124751404 0.0033905215 0.1126627 -0.19750416
0003c0 95 e1 20 3d 14 9e e5 3c 43 b9 68 be c9 54 28 be
       0.03927763 0.02802948 -0.22726922 -0.16438593
0003d0 ce 34 27 be 41 c5 72 bd 67 62 2e be 26 75 90 3d
       -0.16328737 -0.059270147 -0.17029725 0.07053594
0003e0 c6 9b 33 be e9 fe 19 be 68 af ad bd ed 62 74 3d
       -0.17539892 -0.15038647 -0.08480722 0.059664655
0003f0 55 de 54 be c8 03 c3 bd d5 d4 78 bc c0 20 85 be
       -0.20787938 -0.095222056 -0.015187462 -0.2600155

conv1d.bias f4 [128]
000000 94 68 6e 3b 6a 68 63 bd a7 dc c1 bd 3e 82 03 bd
       0.0036378251 -0.0555195 -0.09465914 -0.03210663
000010 dc 2b c3 3c eb 08 cc 3d b8 4b 66 be 85 86 0b 3e
       0.023824625 0.099626385 -0.22489822 0.13625534
000020 cf e3 52 3d 45 8e 38 3d d8 94 43 3a c2 9a ad bc
       0.051486786 0.045057554 0.0007460839 -0.021191958
000030 5f c5 93 3d 1a 13 11 3e d1 dd 98 3c 56 3b cb 3d
       0.0721538 0.14167443 0.018660458 0.09923427
000040 87 ab a1 3c 45 1f 5b bc 70 f8 e0 3d 89 78 d8 3d
       0.01973511 -0.013374154 0.10984886 0.10569865
000050 41 83 f7 3c c6 88 3b bd c1 89 a9 3d c6 93 9e 3c
       0.030213954 -0.045784734 0.082782276 0.019357573
000060 af e5 d6 bc 3c 37 cd bb 91 56 26 3e b1 e3 dd bc
       -0.026232569 -0.006262688 0.1624396 -0.02708611
000070 d6 b5 07 3d 03 b3 f6 bc 86 c1 15 be 23 6d 53 3d
       0.033132397 -0.030114656 -0.14624605 0.051617753
000080 27 be 89 bd 17 8b 39 3d 84 7e 0b bc f8 bf ba 3c
       -0.06725722 0.045298662 -0.00851405 0.022796616
000090 60 69 49 bc c5 69 7a bd f6 1d a6 3d 40 fd 03 be
       -0.01229319 -0.061136026 0.08111183 -0.12889576
0000a0 46 93 92 3d 7d a0 80 bd e7 ed 8f 3d 37 5f be bd
       0.071569964 -0.06280611 0.07027798 -0.092955045
0000b0 d0 17 a9 bd c9 34 b4 3c 26 7d 67 3d 21 c2 35 39
       -0.08256495 0.021997826 0.056515835 0.00017333824
0000c0 f5 ad 95 3c 14 e3 1f be dc 74 4b bc fe f6 bd 3d
       0.018271426 -0.15613967 -0.012417998 0.09275626
0000d0 e3 92 0c 3d 5e ca 81 3d 1f f3 49 3c 71 e9 2c bc
       0.03431977 0.063374266 0.012326031 -0.010553704
0000e0 c6 1e c7 3d 9f 60 24 be 46 ef 07 bc de 2d 2a be
       0.097226664 -0.16052483 -0.008296793 -0.1661906
0000f0 c0 bc 8c 3d b7 d8 df bd f5 40 e6 3b 54 4d 21 3e
       0.06871939 -0.10930007 0.0070267865 0.15752155
000100 e2 f2 e9 3d b2 7c c2 bc e3 dc c5 bc be cb bc bd
       0.11423279 -0.0237411 -0.024153179 -0.09218548
000110 51 8e d8 bd d2 4b e9 bd 23 fb 5b bd 9a 73 be bb
       -0.1057402 -0.11391415 -0.0537063 -0.0058121206
000120 a7 d9 04 bd 76 ad 28 bc 84 2f c3 3d a6 9e 9e 3c
       -0.032434132 -0.010295263 0.09530547 0.019362759
000130 36 45 b2 3d fb 81 5f bc 53 46 8c 3d c5 d6 e3 3d
       0.08704607 -0.01364183 0.06849351 0.111249484
000140 7c 10 e1 bc 7d 64 bf 3d d8 47 36 bd 7d 11 17 bd
       -0.02747368 0.093453385 -0.04450211 -0.036881912
000150 e0 bb d0 bd ee a4 7d 3d ae b3 c3 bc 6c 72 31 be
       -0.10192084 0.061924867 -0.023889389 -0.17328805
000160 7e 70 3c be ff d6 77 bd 35 a0 b0 bc 3d 6d fb 3b
       -0.18402287 -0.06050777 -0.021560768 0.0076729343
000170 e4 62 e4 3c a2 44 cd bc 72 b1 bd bd 5e 31 c3 bd
       0.027879186 -0.02505714 -0.09262361 -0.095309004
000180 eb 63 28 be 60 57 28 3d 4d 0f 59 be 92 8d bf bd
       -0.16444366 0.041098952 -0.21197243 -0.09353174
000190 a3 e3 2e be 2b ee 81 3d f4 48 ce bd ba c4 ed bc
       -0.17079024 0.06344255 -0.100725085 -0.02902447
0001a0 52 c7 0c bc c6 e7 51 3d c7 b7 73 bd dd 5e e0 bd
       -0.008592444 0.051246427 -0.059501436 -0.10955594
0001b0 26 0f 3a 3d 4f 93 b7 bd fe 0c ec 3d 25 8f 0e be
       0.045424603 -0.08963644 0.115259156 -0.13921793
0001c0 5d 50 81 bc 41 cb e3 bd 7f 9d 95 3c 6f 46 d6 bc
       -0.01578539 -0.11122752 0.018263577 -0.026156632
0001d0 e0 e4 bd 3c b3 4c 87 bd 98 9e 8a 3c 0f 7a ce bd
       0.023180425 -0.06606426 0.016921327 -0.100818746
0001e0 22 9d 00 be 79 72 f7 bd ee 0a c6 bd f7 5d 1b be
       -0.12559941 -0.12082381 -0.096700534 -0.15172563
0001f0 3d 9e 13 3e 06 55 08 3d 86 05 11 3e 77 f5 b2 3c
       0.14415832 0.03328421 0.14162263 0.021845562

linears.0.weight f4 [32, 128]
000000 39 cb 07 39 95 1e 30 39 9b 20 40 b8 3d 92 c1 38
       0.0001295031 0.0001679606 -4.5806733e-05 9.230196e-05
000010 7a 1c 26 b9 30 c2 50 39 18 86 7e 39 8e 80 08 39
       -0.00015841602 0.00019908766 0.00024273281 0.00013017861
000020 9a 46 39 b9 73 bf df 37 15 ae 86 37 81 af ef b7
       -0.00017669276 2.6672822e-05 1.6055108e-05 -2.8572746e-05
000030 2d a8 01 39 1a 3b b5 38 b7 9c 90 38 46 ee 34 b9
       0.00012365049 8.641761e-05 6.8956455e-05 -0.00017254901
000040 4b a1 d5 b8 20 95 16 39 24 70 27 b9 a5 2f 5a b8
       -0.000101866746 0.00014360668 -0.00015968137 -5.2019623e-05
000050 0d 69 b0 b7 2f af 61 38 4c fd 35 b8 32 fe 3b 37
       -2.1029753e-05 5.3807333e-05 -4.3389664e-05 1.1205253e-05
000060 6f 5f 00 b9 49 73 22 39 90 ba 03 37 53 23 03 b9
       -0.00012242583 0.00015492471 7.851646e-06 -0.00012506293
000070 9b 50 5e 35 18 2b 32 37 92 22 02 b9 f7 97 79 b8
       8.281874e-07 1.061966e-05 -0.00012410645 -5.9507754e-05
000080 c5 2c ce b8 33 73 1e b9 ff 55 e5 35 f4 13 e6 38
       -9.8311844e-05 -0.00015110969 1.7086858e-06 0.00010970971
000090 01 27 70 38 e1 37 2a b9 ac 63 20 b9 37 8a ec 38
       5.7256784e-05 -0.0001623328 -0.0001529592 0.000112791015
0000a0 7d 8d 05 b9 df 2b e5 38 60 43 9e b8 8b 21 8c 38
       -0.00012736577 0.000109277426 -7.546577e-05 6.681968e-05
0000b0 0f b8 65 38 25 de 73 b7 71 ba 4b b8 63 fd 0e 39
       5.4769273e-05 -1.4535651e-05 -4.857261e-05 0.00013636569
0000c0 9b 55 6a b8 bb cd c0 38 e5 a2 d4 38 3d f9 4d 38
       -5.5869674e-05 9.193594e-05 0.00010139289 4.910793e-05
0000d0 5b 22 0f 38 83 e7 1b 39 79 bb 2e b9 b0 8a a2 b8
       3.4125853e-05 0.00014868197 -0.00016663772 -7.7505945e-05
0000e0 98 91 f9 b7 94 3a cc b7 6c 38 5b 39 78 e4 15 39
       -2.975091e-05 -2.4345973e-05 0.00020906486 0.00014294859
0000f0 79 3c ae b8 20 66 c0 b8 ad 49 e8 b7 53 39 13 39
       -8.3082305e-05 -9.174296e-05 -2.7690863e-05 0.00014040367
000100 4b 10 04 b9 37 8b 8b 38 a7 98 09 b7 0c 94 19 b9
       -0.0001259457 6.653967e-05 -8.2013785e-06 -0.00014646369
000110 11 4c f9 b8 2f 27 48 39 5d c9 e0 b8 9f 3f aa 37
       -0.00011887414 0.00019088083 -0.00010718659 2.0295205e-05
000120 9a 56 84 38 f6 80 3f b9 e6 88 17 38 63 8d 45 b9
       6.310381e-05 -0.00018263221 3.6128702e-05 -0.00018840055
000130 2d a2 90 38 35 e4 c7 b8 38 3a af b7 ba 54 d5 b5
       6.896663e-05 -9.531566e-05 -2.0888736e-05 -1.5894395e-06
000140 68 26 bf b7 35 85 ec b8 3b 41 4e b8 ff 87 9b b8
       -2.2786859e-05 -0.00011278169 -4.9174978e-05 -7.416307e-05
000150 70 76 1a b9 14 86 6b 38 96 3d d4 b8 7c f7 ad 38
       -0.00014730706 5.6153236e-05 -0.00010120419 8.2953804e-05
000160 18 35 a0 38 01 a1 fd 36 a3 e0 2b b8 37 c1 bb 38
       7.639284e-05 7.558731e-06 -4.0978786e-05 8.952844e-05
000170 18 6b ce 38 45 49 43 b8 0d c8 fa b7 da 25 ac 39
       9.842793e-05 -4.655986e-05 -2.9895478e-05 0.00032834598
000180 85 a1 81 38 d2 c9 0a 35 d1 1c 3a 38 9d 5a 3c b8
       6.181285e-05 5.1702693e-07 4.4372693e-05 -4.4907083e-05
000190 75 98 14 b9 eb 34 54 39 06 3d 97 b8 dd 03 81 38
       -0.00014171175 0.00020237609 -7.2116076e-05 6.151919e-05
0001a0 24 7d 6f 39 8c fa 1d 39 94 ab 86 37 b2 58 f0 37
       0.00022839435 0.00015066023 1.6053942e-05 2.8651531e-05
0001b0 b3 b2 9b b8 35 8e f2 38 4f 58 57 39 51 9b 01 b9
       -7.424261e-05 0.00011565947 0.00020536895 -0.00012360259
0001c0 d3 f2 f5 36 34 be 3d 39 0f 2a e6 b8 ff c4 3e b9
       7.3298374e-06 0.00018095301 -0.00010975089 -0.00018193199
0001d0 83 be 78 b9 ae 38 69 b9 1f 78 c2 38 a9 7f fd b8
       -0.00023722094 -0.00022241726 9.273015e-05 -0.00012087759
0001e0 00 92 3a 37 a5 2f b8 b8 92 76 08 b9 28 b5 af 36
       1.1120457e-05 -8.782678e-05 -0.00013014142 5.236496e-06
0001f0 3e 05 43 b8 34 4d 59 b8 da 0b 2c b8 6d 9b 23 b9
       -4.6496505e-05 -5.1808733e-05 -4.1019033e-05 -0.00015602792
000200 53 a4 45 bb 4b 2f 22 bc e7 d8 85 bc f0 96 71 bc
       -0.003015776 -0.009898971 -0.016338779 -0.014745459
000210 b4 65 46 3c 7d d9 78 bc 9c 13 43 ba a3 e9 18 bd
       0.012109209 -0.015188572 -0.00074415817 -0.03733219
000220 66 11 4b 3d cd 50 83 bd 64 9a a2 bd 01 1c 81 bc
       0.04957714 -0.06411896 -0.07939604 -0.015760424
000230 84 f5 d7 bb 95 98 80 bd a8 04 e0 bb ec 5f 2a 3c
       -0.006590547 -0.06279103 -0.0068364926 0.010398846
000240 c9 6c cc 3c f9 8f 6d bc d8 db c8 ba 63 5c aa bc
       0.024954217 -0.014499658 -0.0015324308 -0.020796007
000250 26 b5 b4 3d 2b d0 60 bc ff bc 6b 3d 41 56 75 3d
       0.08823614 -0.013721506 0.057553288 0.05989671
000260 c4 c9 9a bc f8 60 45 3a e6 f0 55 bd 9b 7f 04 bd
       -0.018895037 0.0007529403 -0.05223169 -0.032348257
000270 cc a5 1d 3d b4 b7 82 bb c6 d3 8b 3d 0a 56 4f bc
       0.038488194 -0.0039891843 0.06827502 -0.012654791
000280 0c 7d cd bb e4 3f 5f bd db b4 1d 3c c7 71 73 3c
       -0.0062710103 -0.05450429 0.009625639 0.01485867
000290 f1 91 18 bb 8c 15 a9 3d 97 de 4d bc 64 ee 81 3d
       -0.0023280347 0.08256063 -0.012565277 0.063442975
0002a0 fb 20 9e 3c 4d 32 b8 3d 4f a3 b6 bb 6c 27 34 3d
       0.019302836 0.08993969 -0.005573667 0.043982908
0002b0 67 74 fa 3c 1e 38 21 3c 69 7e 9d 3d 55 26 93 bc
       0.030573083 0.00984004 0.076901264 -0.017962614
0002c0 55 d3 e5 3a 7b 1a 70 3d eb 97 1e bd c3 39 08 bd
       0.0017534295 0.058619004 -0.0387191 -0.03325821
0002d0 92 a3 17 3d 45 2a 73 3a 56 f6 32 bc 05 81 02 3b
       0.037021227 0.0009276013 -0.010922989 0.0019913327
0002e0 bd 5a 42 bc 99 aa aa 3d 36 e1 cb 3b f4 cf 3b 3c
       -0.011862454 0.0833332 0.0062219156 0.011463154
0002f0 3f a9 6c bc 76 aa 0f bc 10 84 8a bb ac 3c 12 bc
       -0.014444648 -0.008768668 -0.004227169 -0.008925598
000300 9f d7 37 bc b5 b2 72 3d 9b 2d 3b bc 77 cd 13 3c
       -0.011220842 0.05925246 -0.011424447 0.009021155
000310 cf 91 2c 39 2e 64 30 3a dc 7f ea 3a 14 7f d1 bc
       0.00016457516 0.0006728795 0.0017890888 -0.02557329
000320 89 dc de bc e6 21 d6 3b d2 a1 cd 3c 9a 0f 1a 3c
       -0.027204769 0.0065348027 0.025101576 0.009403134
000330 29 2e d0 ba 0c 0f 5b bc 73 f9 0c 3d 6a eb 68 3c
       -0.0015882897 -0.013370287 0.03441758 0.014216283
000340 73 9c 8b bc d4 00 50 3d 69 e2 56 b9 d8 90 23 bc
       -0.017042374 0.05078204 -0.00020492975 -0.009983264
000350 ff ea 76 bb 27 ca 3a 3d 34 ef 55 bc 1b 91 cf 3c
       -0.003767669 0.045602944 -0.013057519 0.025337746
000360 da fe 0e 3b df cd 33 3d d8 4d a8 3c ae 63 89 bb
       0.0021819384 0.043897506 0.020544931 -0.004192791
000370 7e 63 84 3d dc 18 e4 bb 2c 6a 7b 3c c5 36 52 3d
       0.06464289 -0.0069609713 0.015345138 0.051321764
000380 bc 70 07 3c a0 24 c4 ba 52 da 01 3b 1e 35 98 3d
       0.008266624 -0.0014964528 0.0019813967 0.07432006
000390 ff d0 53 3d bc f0 5e bc 74 1f 34 bc e9 cc 22 3c
       0.051712986 -0.0136072 -0.010993827 0.00993655
0003a0 cb b8 b2 3c 4b 62 d9 bd 9b b4 8d bc 04 1c 74 3c
       0.021816632 -0.10614451 -0.017298033 0.014899258
0003b0 bc fb 90 3c 9d d2 54 3c a2 c2 19 3b 51 be 6b bc
       0.017698161 0.012989667 0.0023461957 -0.014388637
0003c0 4e fb 1a 3d 44 6b 5b 3d 20 a3 1c 3c 4d fe 71 bb
       0.03783732 0.053569093 0.009560376 -0.0036925257
0003d0 8f f4 c5 39 2e be 35 3d e6 ca 23 bb 30 54 0b bd
       0.00037756978 0.044370823 -0.0024992763 -0.034015834
0003e0 b8 62 4d 3c c4 f0 9c bc 34 13 07 3a d3 fa 27 3d
       0.012535743 -0.019157775 0.0005152703 0.04101069
0003f0 47 3d b2 bc 55 8e 44 3a 6d 15 72 bb e2 65 97 3c
       -0.021757735 0.0007498016 -0.003693904 0.018481199

linears.0.bias f4 [32]
000000 95 43 ee 38 3a 9e ae b9 0e 2d 06 b9 98 bc e1 b6
       0.000113613125 -0.00033305754 -0.0001279602 -6.7274777e-06
000010 f6 cb 36 39 80 1f ed b9 56 c6 08 b9 48 be 6a 3b
       0.00017432854 -0.00045227632 -0.00013043857 0.0035818983
000020 f3 32 93 bc 69 b3 90 39 e8 64 1b b9 8a 92 bb 3c
       -0.01796863 0.0002759949 -0.00014819542 0.022897024
000030 9f dd 48 38 df f0 4a b9 e7 e1 72 39 90 91 00 39
       4.7890117e-05 -0.00019353953 0.00023163074 0.00012261258
000040 07 62 07 39 6d 29 49 b9 cc e1 51 3d 77 11 1b b9
       0.00012911121 -0.00019184286 0.051240727 -0.00014788458
000050 d1 8b 1c b9 f5 24 52 38 33 1c b3 b5 83 42 21 ba
       -0.00014929405 5.010232e-05 -1.3344746e-06 -0.00061515736
000060 fb 18 2c 38 09 65 1b bd 00 30 2a 3d c7 08 09 ba
       4.103126e-05 -0.03793815 0.041549683 -0.0005227443
000070 60 46 b2 37 b3 d2 bb b8 be 40 1b ba 9c c7 09 b8
       2.1252024e-05 -8.956101e-05 -0.0005922428 -3.2849246e-05

linears.2.weight f4 [2, 32]
000000 c3 fa f8 38 d0 bd 80 be 31 3f d1 37 73 33 59 b8
       0.000118722695 -0.25144815 2.4944167e-05 -5.1784747e-05
000010 92 8e 89 b7 b4 0d 5e be 8b 80 13 38 fe a6 68 3e
       -1.6398062e-05 -0.21684915 3.5167246e-05 0.22719952
000020 2c de ba be 12 4b 1d 39 09 f9 83 38 90 f8 c5 3e
       -0.3649763 0.00015000653 6.292953e-05 0.386662
000030 96 50 89 b9 40 04 96 b7 0d d5 9d 38 8c d1 22 39
       -0.00026190717 -1.7883372e-05 7.526027e-05 0.00015527586
000040 6a 2c 8a b8 2d 8c ce b7 b1 49 f0 3e 0b 0a f1 38
       -6.5886255e-05 -2.4622388e-05 0.46931222 0.00011493646
000050 32 87 e8 b8 05 e2 07 b8 34 e3 16 b9 20 95 43 be
       -0.00011087804 -3.2397005e-05 -0.00014389755 -0.19099855
000060 c6 b3 4b 38 f6 36 8d be 64 dc 9a be 6d ed 84 be
       4.85664e-05 -0.27580994 -0.3024627 -0.25962391
000070 7a 2b ec b6 ba 3a 14 b8 26 02 7a 3d f2 50 08 37
       -7.0384094e-06 -3.5340643e-05 0.061037205 8.125078e-06
000080 c3 a7 32 38 c2 31 02 3e 61 be 7b b8 4f 5b dd 38
       4.2594747e-05 0.12714294 -6.0020368e-05 0.00010555109
000090 05 65 5d 39 95 84 46 3e b1 27 0b b8 f8 cb 96 be
       0.00021113835 0.19386514 -3.3177148e-05 -0.2945249
0000a0 31 d5 a9 3e 6f 25 dc 38 37 77 36 b9 9e f8 d8 be
       0.33170465 0.0001049739 -0.00017401284 -0.4237718
0000b0 0b a9 1e b8 ad 76 80 37 f6 e9 84 39 10 6b db 38
       -3.782757e-05 1.5314052e-05 0.00025351316 0.00010462676
0000c0 c8 e2 12 b9 07 84 25 39 ab 7e 07 bf 66 8f 76 b5
       -0.00014008128 0.0001578481 -0.52927655 -9.1850814e-07
0000d0 11 13 73 b8 6d a5 e6 37 63 5e 8e 39 bd b0 5e 3e
       -5.795347e-05 2.7495169e-05 0.00027154674 0.21747108
0000e0 46 97 0f b9 b5 db 19 3e fa 32 9a 3e 85 7d 7b 3e
       -0.00013693896 0.15025218 0.30117017 0.245596
0000f0 65 27 43 38 5c 36 e0 b7 02 6d ab 38 cd 82 84 38
       4.6528312e-05 -2.6728194e-05 8.17422e-05 6.318614e-05

linears.2.bias f4 [2]
000000 82 3b 87 3a 52 20 c9 bd
       0.0010317417 -0.09820618

exp_avg f4 [128, 4, 12]
000000 57 dd 63 b9 eb e0 2e ba 3c 42 75 3a 7c ff 62 b9
       -0.00021730862 -0.00066710886 0.0009355878 -0.00021648215
000010 7c 1b 17 bb 91 d0 a9 ba a6 81 ce 39 3b b4 ed b8
       -0.0023057153 -0.0012955834 0.00039387977 -0.00011334611
000020 65 a9 ba b4 0d 94 10 ba 13 d9 87 b8 05 b3 08 b9
       -3.476845e-07 -0.00055152253 -6.477735e-05 -0.0001303666
000030 16 f0 06 3b d2 14 f1 3a b6 dd 44 ba 38 e3 24 ba
       0.002058988 0.0018393046 -0.0007509844 -0.0006289962
000040 ac 1d 03 b9 da 41 61 ba cd 5d ec 39 10 62 03 bb
       -0.00012504187 -0.00085928815 0.00045083315 -0.0020047463
000050 2a a7 96 b9 d2 c7 99 3a 1f f4 2d ba 9c d1 1d 39
       -0.00028734776 0.0011732525 -0.0006635803 0.00015050772
000060 81 c5 c3 b9 00 23 68 ba 0e 63 b9 b8 53 9b b5 3a
       -0.0003734045 -0.0008855313 -8.839938e-05 0.0013855494
000070 c9 9b 1a 3b b6 40 22 3a 29 f0 61 ba ea c2 e4 39
       0.002359139 0.0006189452 -0.00086188555 0.0004363277
000080 45 c2 55 ba 9f bc 12 ba 72 9e 5c 3a de e3 59 39
       -0.00081542536 -0.0005597565 0.0008415944 0.0002077962
000090 1f 73 c0 ba 7a 4b 96 b9 31 c1 c9 b8 8e 93 0d ba
       -0.0014682746 -0.00028666464 -9.6204116e-05 -0.00054007105
0000a0 d0 31 96 38 22 51 c9 3a 26 0e 90 37 aa 6e dc 3a
       7.161836e-05 0.0015359262 1.7172726e-05 0.0016817648
0000b0 97 96 90 3a b4 f7 81 b8 a8 79 ed b8 76 02 6f b9
       0.0011031207 -6.197338e-05 -0.00011323701 -0.00022793733
0000c0 36 1b 67 3b a0 a5 fd ba f6 fe e3 bb da bd 51 3b
       0.0035264022 -0.0019351728 -0.006957884 0.003200403
0000d0 ce 42 04 3b 07 3f ad b9 43 2f 53 ba 5c 7c 10 ba
       0.002018142 -0.0003304409 -0.0008056054 -0.0005511695
0000e0 6f fd cb ba f5 6d f0 38 b9 c3 88 3b 91 0a 66 bb
       -0.00155632 0.00011464573 0.0041737226 -0.0035101513
0000f0 32 96 3f bb 3e 3a b0 3a 6a 65 1c b9 99 d8 24 3a
       -0.002923381 0.0013445092 -0.00014915099 0.0006288379
000100 93 2a 0b bb 52 99 98 bb ed a4 8e 3a 51 f9 83 bb
       -0.0021235093 -0.004656949 0.0010882892 -0.0040275236
000110 cd 05 8f 3b f1 42 2f b8 62 c9 3d bb aa ed 9a 3b
       0.004364705 -4.1785595e-05 -0.0028959145 0.004728039
000120 88 70 1d ba f8 d7 ba 3a 33 11 c8 3b 3b 2a 80 b7
       -0.0006005843 0.0014255038 0.006105566 -1.5278454e-05
000130 28 e7 1b 3a bd e1 2e b9 8e b8 85 3a e5 6a 1c bb
       0.0005947226 -0.00016678027 0.0010202096 -0.0023867425
000140 f0 9f 1e bb 27 18 f9 38 d2 c7 3e ba 15 72 0b 3b
       -0.0024204217 0.00011877744 -0.00072777004 0.0021277715
000150 cf 91 23 b6 2d d9 5a ba b3 43 83 3a ad f3 79 bb
       -2.4373765e-06 -0.0008348402 0.0010014683 -0.0038139627
000160 15 48 00 ba 50 e4 a8 3b da c5 aa ba 4f 3e e4 3b
       -0.00048935536 0.00515417 -0.0013028935 0.0069654356
000170 98 67 cb b9 56 f2 48 b9 6a 30 10 ba d6 42 5b bb
       -0.0003879636 -0.00019163763 -0.00055003783 -0.0033456585
000180 83 83 ac ba df b5 0b 3b 7e cd 9d ba 79 bc 63 ba
       -0.0013161752 0.002131812 -0.0012039391 -0.00086874474
000190 5d 18 aa ba 0f 08 fb ba d9 99 06 ba 86 e4 41 ba
       -0.0012977232 -0.0019152182 -0.00051346194 -0.00073964184
0001a0 8e e8 16 bb 7e ab b0 3a 76 7c 06 bc c9 ae ef b8
       -0.0023026797 0.0013478843 -0.008208385 -0.00011428964
0001b0 33 78 41 3a c6 27 88 ba aa a9 92 ba ab 90 10 ba
       0.0007380277 -0.001038783 -0.001118948 -0.0005514721
0001c0 8d 64 15 38 d4 ad ad ba 9c b4 e9 bb ae b3 83 ba
       3.5618013e-05 -0.0013250657 -0.007132126 -0.0010048056
0001d0 71 4c ac 39 84 ab ed b9 8b 1e cc 39 ef 4c e3 3a
       0.0003286335 -0.00045331952 0.00038932668 0.0017341654
0001e0 ef c2 e8 3b e7 57 e1 ba c2 44 96 3b 4d 8e 0d 3a
       0.007103316 -0.0017192335 0.0045858333 0.00053999276
0001f0 94 89 a1 3b ae da 5c 3b f4 d4 00 3c 50 c9 fe 3b
       0.0049297307 0.003369968 0.007863272 0.007775463
000200 df 6e 9b bb 0a 87 08 3b 98 59 07 3c 96 96 b3 bb
       -0.0047434415 0.0020832443 0.008261107 -0.0054805977
000210 15 d1 d5 bb e8 27 24 3a f0 4d 14 bb d4 be 66 3a
       -0.0065251687 0.000626205 -0.0022629462 0.00088022393
000220 8d 5c 70 bb c5 fb 07 b9 ea 41 64 b9 d4 9f c5 bb
       -0.0036676258 -0.00012968395 -0.0002176833 -0.006031016
000230 5e 1e dc 3b 5a 27 43 bb ba c2 e7 b9 2a 04 7d 3b
       0.0067174872 -0.0029778094 -0.00044204836 0.0038607218
000240 c3 23 22 3c 99 0e 29 ba 4c 6e 9e 39 f6 4a 3f b8
       0.009896222 -0.00064490136 0.00030218286 -4.560776e-05
000250 c4 80 fa b7 50 e3 98 bb e9 c0 45 39 73 67 24 3b
       -2.9862284e-05 -0.0046657696 0.00018859249 0.0025086075
000260 9c 7f 38 b9 da 3f 95 ba 0b d0 75 b9 4c 5c 0b ba
       -0.00017595146 -0.0011386827 -0.00023442523 -0.00053161825
000270 6c 9c fd 39 cf 9a cc 3b 42 ea 7e 3b 1a 1a ca b9
       0.00048372464 0.0062440406 0.0038896953 -0.0003854789
000280 9f 55 c8 ba 20 fc c0 b9 0a 17 21 3a b0 9f 89 ba
       -0.0015284306 -0.00036808942 0.00061450957 -0.0010499861
000290 25 b0 b4 ba ad 1f 59 3b 05 a8 b9 3b c3 8e 87 ba
       -0.0013785405 0.0033130453 0.0056657814 -0.0010342229
0002a0 26 b4 f7 ba e0 e6 a7 bb 16 77 6b bb 69 d5 a1 3a
       -0.0018898293 -0.005123958 -0.0035929135 0.0012346926
0002b0 48 34 c0 39 0f 53 b0 3b b3 58 f4 b8 a0 45 db ba
       0.00036660046 0.005380995 -0.00011651348 -0.0016729124
0002c0 90 c0 12 3b 86 e6 0c bb 0a 6c 87 ba 55 c6 b4 39
       0.0022392608 -0.0021499707 -0.0010331881 0.00034480044
0002d0 22 1a 0b bc c3 21 f9 b9 dc 03 1d ba 13 a9 52 ba
       -0.008490117 -0.00047518135 -0.000598965 -0.0008036058
0002e0 95 32 9c 3a db ff b5 b9 2e fc 33 ba 53 b3 60 39
       0.001191693 -0.00034713637 -0.0006865886 0.00021429108
0002f0 0f 82 33 ba 3a 9d cc b7 82 1e 90 bb 54 0b a0 3a
       -0.00068476883 -2.439191e-05 -0.004398168 0.0012210407
000300 22 99 36 3a cf 82 09 3a 23 11 17 3a 48 e9 0e bb
       0.00069655676 0.0005245627 0.00057627464 -0.0021806527
000310 b0 1d 8a 3a 79 87 42 3b e7 9b cd 3a 10 b7 a3 3a
       0.0010537412 0.0029682799 0.0015686721 0.001249047
000320 ef ca 22 bb b6 3a 5b 39 d4 69 4e ba 1f 2f 81 39
       -0.0024840196 0.00020907339 -0.0007874046 0.00024639905
000330 10 1f d3 38 fc aa 24 3a d6 72 16 3b 48 c2 16 3a
       0.0001006705 0.0006281582 0.002295663 0.0005750996
000340 55 73 06 bb 76 56 0c 39 b4 3a c5 39 86 40 37 3a
       -0.002051552 0.0001338365 0.00037618505 0.0006990511
000350 c0 e8 fa 39 7d 9a 12 ba eb 9f f7 39 66 1b 91 3a
       0.00047857128 -0.00055924786 0.0004723066 0.0011070787
000360 b8 cb 0c b9 d8 5f f2 ba 6c f3 57 bb 80 99 9e 3a
       -0.00013427332 -0.0018491698 -0.0032951487 0.001210019
000370 5b 0e 6b b9 fd 50 bc ba 5b ea 55 bb 2c 0a 11 3a
       -0.00022416694 -0.0014367398 -0.0032640907 0.0005532827
000380 1c 8d bf 3a 26 53 25 38 2f ea 25 39 77 6a 02 bb
       0.0014614197 3.9416504e-05 0.00015822866 -0.0019899884
000390 18 ca 2d ba e6 91 36 3a 67 e2 dd 39 b6 5f cf 39
       -0.00066295406 0.00069644896 0.00042321088 0.00039553427
0003a0 c6 2a a0 3a c5 48 da ba 20 ea ac 3a 34 ee 23 bb
       0.0012219779 -0.0016653767 0.0013192333 -0.0025013806
0003b0 22 9d 0e 3a 36 ed a2 39 46 7d 24 39 7e db 26 3a
       0.0005440285 0.00031075784 0.00015686927 0.00063651043
0003c0 e8 0e 96 3b 19 a3 49 bb 6c c7 bd b6 71 69 87 39
       0.0045794137 -0.003076738 -5.6558547e-06 0.00025827767
0003d0 5a 77 86 b9 db 83 5c 3b 3b 1d 0c 3a 8e 36 8a 3b
       -0.00025647396 0.0033647928 0.0005344932 0.004217929
0003e0 ff d3 7b 39 24 e2 9a ba 6d 61 83 b9 29 a8 8a b9
       0.000240162 -0.0011816663 -0.00025058855 -0.000264467
0003f0 3f d1 fb 39 0c 39 18 ba bb 3c 86 ba 5c a6 1b ba
       0.0004803035 -0.00058068405 -0.0010241488 -0.000593757

exp_avg_sq f4 [128, 4, 12]
000000 87 e5 ea 32 66 ba 1a 35 0c 8d 3f 35 86 3a 4f 33
       2.7345562e-08 5.7640716e-07 7.1358295e-07 4.824917e-08
000010 ba 5f 7c 35 3c 15 1e 35 58 32 cc 34 3e c5 6a 33
       9.4016616e-07 5.8890487e-07 3.803459e-07 5.466176e-08
000020 d6 e2 4d 32 0e 9a 1c 35 97 5d 2f 35 f3 6b 88 33
       1.1984147e-08 5.833871e-07 6.532877e-07 6.3526294e-08
000030 02 2e 88 35 25 54 1d 35 77 ec 08 35 b4 c3 e2 34
       1.014618e-06 5.8609504e-07 5.100805e-07 4.2238173e-07
000040 25 19 e4 32 96 3b 1f 35 75 9d 5c 35 d2 ae 80 35
       2.6554128e-08 5.9318825e-07 8.2185517e-07 9.587623e-07
000050 9b a3 5a 34 5f c0 11 35 cf 01 2d 35 5a 22 0e 34
       2.0362351e-07 5.4296646e-07 6.4450154e-07 1.3237278e-07
000060 02 9b 60 34 a3 72 f4 34 f3 6c da 34 c0 04 36 35
       2.0918017e-07 4.553195e-07 4.0684935e-07 6.7807196e-07
000070 e5 ca 9a 35 e1 69 33 34 28 54 c5 34 7e 72 d6 34
       1.1532944e-06 1.6709193e-07 3.675534e-07 3.994391e-07
000080 30 9b 0d 35 0d 33 71 34 74 00 1f 35 dd e4 24 34
       5.275242e-07 2.2463446e-07 5.9232775e-07 1.535695e-07
000090 f9 0a 4f 35 d0 82 88 34 77 e6 76 32 36 99 bb 33
       7.7129476e-07 2.5427153e-07 1.4371486e-08 8.735735e-08
0000a0 d5 f1 8d 34 fa 8f 1d 35 0f f6 46 33 46 c3 20 35
       2.6439253e-07 5.869657e-07 4.6324256e-08 5.9888805e-07
0000b0 64 e9 fa 34 ff b0 fb 32 5e 68 2c 33 e9 1e be 34
       4.6735943e-07 2.9300734e-08 4.0141792e-08 3.5412748e-07
0000c0 80 30 14 37 49 fd 37 36 d9 f8 96 37 0b 43 b3 36
       8.83278e-06 2.7416556e-06 1.7997272e-05 5.3424205e-06
0000d0 d2 a7 6b 37 d4 f0 f3 34 8e 0a 9b 36 a6 c8 d0 36
       1.4046165e-05 4.5437503e-07 4.6205887e-06 6.2222416e-06
0000e0 a5 32 91 35 64 81 b8 34 bf 43 83 37 99 9c d8 36
       1.0818081e-06 3.4366815e-07 1.5647964e-05 6.455532e-06
0000f0 7f 2f 22 37 29 cb 80 37 ef 39 8a 37 88 cd a3 36
       9.667011e-06 1.5353393e-05 1.647786e-05 4.8817055e-06
000100 9a 8d 91 37 90 d2 30 37 ef 0c 22 37 5f c1 50 37
       1.7351285e-05 1.0539443e-05 9.658964e-06 1.2442789e-05
000110 02 aa 3f 37 e0 35 70 36 19 77 91 37 9b 50 3c 37
       1.142407e-05 3.5794146e-06 1.7340806e-05 1.1224441e-05
000120 c6 24 a0 34 5e 8a ee 36 f0 c5 27 37 06 a1 9e 34
       2.982908e-07 7.109061e-06 1.0000062e-05 2.9546953e-07
000130 3b 15 3f 36 34 35 45 36 8b e0 35 37 b3 4f b0 36
       2.8473576e-06 2.9386256e-06 1.0840721e-05 5.254487e-06
000140 96 b0 e4 36 b1 b0 9a 35 29 d4 cd 36 a6 5e 3a 37
       6.815487e-06 1.1525318e-06 6.134175e-06 1.1108501e-05
000150 e3 57 bc 34 74 b8 15 37 3e cc 1c 36 22 6e 0d 37
       3.5081675e-07 8.924038e-06 2.3364696e-06 8.429897e-06
000160 76 4b 88 35 87 87 2b 37 24 eb 0f 37 8d b1 64 37
       1.0154752e-06 1.0223949e-05 8.578212e-06 1.3631198e-05
000170 6f ee f3 35 9b e0 98 36 63 25 c1 35 26 4c 00 37
       1.8174304e-06 4.5561005e-06 1.4390502e-06 7.647124e-06
000180 c4 db 24 36 52 38 b9 36 ee f4 75 36 a2 7c cc 36
       2.4565825e-06 5.519986e-06 3.6650413e-06 6.094183e-06
000190 3a 85 ba 36 4d c5 89 36 16 9c b6 35 ec 91 01 36
       5.5587416e-06 4.105887e-06 1.3605484e-06 1.9307436e-06
0001a0 50 fb 0c 37 66 1d 1b 37 f6 38 8f 37 cd e6 eb 35
       8.4031635e-06 9.245565e-06 1.7073453e-05 1.7576036e-06
0001b0 ec 81 a5 36 51 66 01 37 4a b1 4a 37 14 c4 67 35
       4.932508e-06 7.712822e-06 1.2081417e-05 8.6339537e-07
0001c0 78 11 fe 35 6f 0a a4 36 55 6b 36 37 de ac 3c 37
       1.8929559e-06 4.8887955e-06 1.08730355e-05 1.1245922e-05
0001d0 5e e2 be 36 77 e4 a1 35 c2 e8 c7 34 36 9a 35 37
       5.688794e-06 1.2061927e-06 3.7235992e-07 1.0824346e-05
0001e0 49 48 b5 37 d2 f3 24 37 e0 2a 9c 37 93 b5 86 36
       2.1610542e-05 9.831931e-06 1.8616614e-05 4.014649e-06
0001f0 9f d7 86 37 d6 ad 29 37 7b f7 3f 37 fc 2e 10 37
       1.6074451e-05 1.0113659e-05 1.1442108e-05 8.594008e-06
000200 85 4c 94 37 da 53 4e 37 b0 be b1 37 5e 4a 85 37
       1.7678607e-05 1.229808e-05 2.118884e-05 1.5889465e-05
000210 48 55 88 37 8b 05 af 35 0f d1 8e 36 1a 31 bc 35
       1.6252176e-05 1.3040129e-06 4.2562674e-06 1.4021382e-06
000220 d1 a5 58 37 d9 df 15 36 d5 0d e7 34 00 a0 84 37
       1.291321e-05 2.2333027e-06 4.3037167e-07 1.5810132e-05
000230 19 3b 13 37 a4 bb a8 36 b5 3d c7 36 d3 f0 10 36
       8.7756425e-06 5.0286344e-06 5.937846e-06 2.159785e-06
000240 f7 39 77 37 56 4c f3 35 e2 b4 e9 34 37 24 2a 35
       1.4735843e-05 1.8127128e-06 4.3531242e-07 6.3382635e-07
000250 59 87 23 35 0c 38 0e 37 07 5b f7 35 d5 04 d7 35
       6.091919e-07 8.476909e-06 1.8429427e-06 1.6020155e-06
000260 12 de e7 35 90 37 4f 36 85 d3 5a 35 e0 29 07 37
       1.7275472e-06 3.0877745e-06 8.151913e-07 8.056377e-06
000270 ed 7b 88 36 a3 40 ef 36 d9 a5 2d 37 9d c0 a6 34
       4.0675427e-06 7.1302798e-06 1.0350218e-05 3.1060054e-07
000280 6a c6 4d 36 46 c9 4e 35 13 c0 a1 36 99 a8 bb 36
       3.0662873e-06 7.703387e-07 4.8205343e-06 5.5926616e-06
000290 5e f3 1e 37 28 8a 2b 37 11 5e 7b 37 7d 3a 3c 36
       9.474197e-06 1.0224561e-05 1.4982667e-05 2.8048228e-06
0002a0 27 79 7b 37 6f 9d 2e 37 b3 1a 47 37 6e de 77 36
       1.4988974e-05 1.0407864e-05 1.1867541e-05 3.693534e-06
0002b0 fa dd 2a 37 f8 12 0b 37 70 59 f8 36 76 1c d3 36
       1.0184473e-05 8.289462e-06 7.401388e-06 6.2916033e-06
0002c0 d7 00 2a 37 bd 0c ed 36 c6 f2 27 37 3b 87 54 36
       1.0132985e-05 7.0646333e-06 1.0010501e-05 3.1669176e-06
0002d0 cc 3a 85 37 cc b8 2c 37 58 41 b4 36 8c 07 24 36
       1.5882215e-05 1.0295025e-05 5.372025e-06 2.4442297e-06
0002e0 33 78 04 37 02 d7 97 35 6b 3d f7 35 c5 3e da 34
       7.895799e-06 1.1312952e-06 1.8420809e-06 4.0651335e-07
0002f0 7e 67 28 35 5b 20 0e 37 17 9f 2b 37 56 95 c8 36
       6.273548e-07 8.471393e-06 1.0229435e-05 5.9778495e-06
000300 d4 18 94 35 a5 2d 05 34 17 ed 17 34 43 bf aa 35
       1.1034085e-06 1.2403196e-07 1.4149224e-07 1.2721652e-06
000310 19 4f e7 35 01 19 0a 36 55 3e 11 36 4e 6b 76 35
       1.7233862e-06 2.0578157e-06 2.1642966e-06 9.179829e-07
000320 f1 8e 8f 35 7a 56 1c 34 33 7a c6 35 4b be 4d 34
       1.0695932e-06 1.4560092e-07 1.4787714e-06 1.9161341e-07
000330 b3 e9 fa 33 bb 4c 00 35 21 56 0e 36 86 bb 0b 35
       1.1684042e-07 4.7795373e-07 2.1209783e-06 5.205442e-07
000340 4d 13 0e 36 23 60 a8 35 01 13 8b 35 07 1e 40 35
       2.1170883e-06 1.2544955e-06 1.0361838e-06 7.156927e-07
000350 c0 2a f6 34 92 2e 28 35 06 81 0d 35 5e 17 96 35
       4.5852175e-07 6.2652646e-07 5.2714347e-07 1.1182672e-06
000360 2f 09 46 35 cd 2c 93 35 c2 01 29 36 50 74 bc 35
       7.377411e-07 1.0965392e-06 2.5183986e-06 1.4040943e-06
000370 9c 47 95 34 61 09 4e 35 86 1d e5 35 a1 8d f7 34
       2.7805515e-07 7.675463e-07 1.7070422e-06 4.6110384e-07
000380 5b d7 bb 35 1d ef ab 34 d2 4f 5a 34 a8 e9 ae 35
       1.3995262e-06 3.202521e-07 2.033187e-07 1.3032013e-06
000390 df 3c ef 35 84 bc 92 34 d3 47 9c 34 25 a7 26 34
       1.7824603e-06 2.7331782e-07 2.9109523e-07 1.5520762e-07
0003a0 0e dd 43 35 96 1e a7 35 c6 9a 31 35 94 40 eb 35
       7.296484e-07 1.2451371e-06 6.6162863e-07 1.7527659e-06
0003b0 66 c3 b9 34 4e 94 8a 34 a7 df 9b 35 3c 4c 29 34
       3.4601106e-07 2.581241e-07 1.1613491e-06 1.5767085e-07
0003c0 3d 44 12 37 17 d0 28 37 e2 eb 16 33 4e 79 7e 36
       8.718166e-06 1.006203e-05 3.513913e-08 3.7919558e-06
0003d0 6f cc 1a 36 b3 2c 54 36 10 56 04 35 d8 57 43 37
       2.3066784e-06 3.161648e-06 4.929907e-07 1.1643358e-05
0003e0 8e 06 98 35 4b 53 93 36 dd 2e d0 35 1f d6 12 37
       1.132679e-06 4.390638e-06 1.5510847e-06 8.752132e-06
0003f0 60 0e 86 35 e2 2c 33 36 d1 82 0a 36 61 a8 14 36
       9.987962e-07 2.6699204e-06 2.0639748e-06 2.2151728e-06

exp_avg f4 [128]
000000 60 98 4b 3b 84 3c 22 3c 7b b2 2e 3c b3 de 18 3c
       0.0031066164 0.009902123 0.01066267 0.009330439
000010 96 ed 86 bb 17 1b 1f 3c 7a 3c da b7 2c 4c 95 3b
       -0.004117678 0.009711049 -2.6015787e-05 0.0045561995
000020 cd c4 b8 bb e0 af 21 3c 17 2c 43 3c e4 ba 24 3c
       -0.005638695 0.009868592 0.011912367 0.010054324
000030 20 48 b5 3b 1e 4b 0b 3c 01 11 cd 3b e4 23 ad bb
       0.0055322796 0.008501796 0.0062581305 -0.0052838195
000040 25 58 a3 bb 20 7a 12 3c 7f cc b1 3b e5 d7 12 3c
       -0.004984873 0.00894025 0.005425989 0.008962606
000050 b9 8b 43 bc 01 77 09 3c fe da 16 bc e1 ab ba bb
       -0.011935168 0.008390189 -0.009207485 -0.005696759
000060 c3 12 01 3c 19 72 09 bb 43 25 20 3c 3d 68 1b 3c
       0.007878008 -0.0020972549 0.009774509 0.009485302
000070 36 86 75 bb ce 45 98 3b d6 50 1a bc 78 6b 2b 3c
       -0.003746403 0.0046469932 -0.009418687 0.010462634
000080 e4 a4 6f 3b 2d dc 47 3c c9 47 d1 bb db 67 d9 bb
       0.0036566788 0.01219849 -0.0063867313 -0.006634695
000090 1a a4 9a 3b 4a 54 80 bc b9 cd e3 3b 19 a9 79 bc
       0.0047192695 -0.015665192 0.0069520143 -0.01523807
0000a0 f4 80 d6 bb 29 8c 97 bc e6 63 c5 3b a6 5e 35 bc
       -0.006546134 -0.01849945 0.0060238717 -0.011069929
0000b0 d7 76 16 bc a2 e8 9c bb 83 38 19 bc 6e 8f 19 3c
       -0.009183607 -0.004788474 -0.009351852 0.009372575
0000c0 2f 7a 05 bb 37 df 01 bc e8 55 a6 3b be 64 33 3c
       -0.0020367017 -0.007926754 0.005076159 0.010949312
0000d0 ac d7 01 bc e2 76 5f ba 54 02 d6 3b 4d f8 59 bb
       -0.007924955 -0.000852449 0.0065310393 -0.003325957
0000e0 37 53 de 3b 37 4e 44 bc c6 ab 2f bb 0d 8c a8 bb
       0.0067848223 -0.0119815385 -0.0026805266 -0.0051436485
0000f0 42 2c dd 3b b0 c2 9f 3b ca 93 80 3b 7b 50 33 3c
       0.0067496607 0.0048755035 0.003923868 0.010944481
000100 8c 6d d2 3b c5 fc ae bb 9a 73 01 3c ee 68 c5 bb
       0.0064217504 -0.005340191 0.007901097 -0.0060244715
000110 c9 f5 35 b8 cc e7 63 bb c6 fa 3f bb 2d 60 13 3c
       -4.3382668e-05 -0.0034775613 -0.002929376 0.008995098
000120 f4 11 1e 3c 76 7e 68 bb 7a 28 71 bb 82 43 32 bb
       0.009647835 -0.0035475767 -0.0036797808 -0.0027200882
000130 53 09 96 3b fb 1d fe 3b 42 ae 3a bc 97 35 83 bb
       0.0045787483 0.007755039 -0.011394085 -0.004004191
000140 0b a4 cd 3b 23 2e 2b bc 57 07 6c b8 08 04 03 3c
       0.006275659 -0.010448012 -5.627362e-05 0.007996567
000150 2c 8a f0 3b 23 f1 29 bc e2 ab e9 3b 36 9f 0a bc
       0.00734069 -0.010372433 0.0071310857 -0.00846081
000160 4e 96 22 bb 03 ce 48 bc be 83 17 bc 8c 3a e1 3b
       -0.0024808827 -0.012256148 -0.009247718 0.0068734344
000170 f9 84 ec bb bf 76 cd 3b 81 79 cb bb 70 62 1f bc
       -0.007218 0.006270259 -0.0062095528 -0.009728059
000180 68 72 f9 bb 0e 93 54 3b ca 4d 02 bb 8c bf 95 bc
       -0.0076125152 0.0032436284 -0.0019882792 -0.018279813
000190 09 e3 3b bc de 72 1b 3c ec b6 fb 3b 07 b5 c6 bb
       -0.011467704 0.009487836 0.007681718 -0.0060640606
0001a0 1c da 7e bb cf 34 9d 3c 52 a6 25 3c c0 d9 c9 bb
       -0.0038887328 0.01919022 0.010110455 -0.006159991
0001b0 c4 e3 c4 bb dc 5b fb bb 58 e2 cd bb 68 7c 03 3c
       -0.006008597 -0.0076708626 -0.006283086 0.008025266
0001c0 5a 9b 17 bc a4 2e 53 bc 9e 89 89 bb 55 1f da 3b
       -0.009253347 -0.012889538 -0.0041973135 0.006656567
0001d0 fe 99 4f bb a0 69 c6 bb bf b3 09 3c 05 fa 48 3c
       -0.003167748 -0.006055072 0.008404671 0.012266641
0001e0 10 53 b3 bb 83 91 17 3c f9 dc a1 bb 94 06 27 bc
       -0.0054725483 0.009251001 -0.004939672 -0.010194439
0001f0 f4 d9 01 3c bf a7 48 bb 59 de c5 3b 1d 31 66 bb
       0.007925499 -0.0030617563 0.006038469 -0.0035124489

exp_avg_sq f4 [128]
000000 5a 70 99 36 14 1b b7 38 32 3d c8 38 30 f4 92 38
       4.5728348e-06 8.731164e-05 9.548142e-05 7.007306e-05
000010 89 21 40 37 a5 56 ab 38 7a f2 a2 33 f3 16 59 37
       1.14519e-05 8.170054e-05 7.587819e-08 1.2939551e-05
000020 9c a1 06 38 84 2e 8a 38 bc cc 0a 39 0b b9 b8 38
       3.20986e-05 6.589017e-05 0.00013236975 8.808271e-05
000030 eb 0d a9 37 5b 12 8d 38 c7 58 d9 37 b8 d7 b7 37
       2.0152851e-05 6.726823e-05 2.5909756e-05 2.1915752e-05
000040 ee 7d d6 37 42 5f 74 38 07 9d c2 37 af f3 5b 38
       2.5569429e-05 5.826285e-05 2.3199724e-05 5.2440617e-05
000050 7b 26 14 39 19 6c 4e 38 f9 98 99 38 4b 3e 14 38
       0.00014128715 4.92149e-05 7.324102e-05 3.5343965e-05
000060 f2 4a 2b 38 17 e5 c6 36 8a 7c b7 38 de b5 a5 38
       4.0839375e-05 5.9275294e-06 8.749317e-05 7.9016885e-05
000070 39 a5 80 37 85 1a 76 37 47 16 99 38 e5 4c d6 38
       1.5335727e-05 1.4668917e-05 7.299758e-05 0.00010218638
000080 71 5a 9e 36 2b 72 d7 38 58 15 22 38 26 df 1c 38
       4.7192957e-06 0.00010273264 3.8643688e-05 3.740112e-05
000090 f7 8c 84 37 61 e8 32 39 8a e1 01 38 44 de 29 39
       1.5801268e-05 0.0001706197 3.0966046e-05 0.00016199896
0000a0 7e 87 2f 38 c3 04 7a 39 62 dd d6 37 21 1c b1 38
       4.184944e-05 0.00023843632 2.5613877e-05 8.445257e-05
0000b0 49 de 86 38 26 df b4 37 01 05 8c 38 25 bb 7d 38
       6.431022e-05 2.1561584e-05 6.676652e-05 6.0494192e-05
0000c0 7e 42 a9 36 71 44 54 38 ae df 2c 37 bf dd a2 38
       5.044333e-06 5.060848e-05 1.0304078e-05 7.7660654e-05
0000d0 ce b5 3b 38 47 cd 81 35 69 18 d3 37 9c be 5a 37
       4.4753593e-05 9.670993e-07 2.5164527e-05 1.3038192e-05
0000e0 6b d1 ef 37 78 8c b3 38 4a 6a b3 36 7a 76 a1 37
       2.8588538e-05 8.5615495e-05 5.3469894e-06 1.9247866e-05
0000f0 3b e7 d9 37 91 74 27 37 b7 78 06 37 89 bf f3 38
       2.5976091e-05 9.981116e-06 8.0151285e-06 0.00011622819
000100 d2 91 e7 37 a2 11 05 38 f9 74 35 38 0a bb fd 37
       2.7605249e-05 3.1726093e-05 4.3262702e-05 3.0247047e-05
000110 eb 1a bc 34 50 5f 70 37 3e c9 29 37 7f b6 85 38
       3.5037314e-07 1.4327306e-05 1.012004e-05 6.375927e-05
000120 fd 1e 7e 38 70 63 19 37 e3 f0 30 37 84 d3 82 36
       6.058718e-05 9.142663e-06 1.0546503e-05 3.8989256e-06
000130 6a be 83 37 4c 69 26 38 05 13 f5 38 65 2c 9c 37
       1.5705085e-05 3.967555e-05 0.00011686053 1.8617322e-05
000140 ca c1 dd 37 07 09 80 38 e8 2d 77 33 b8 dc 4f 38
       2.6435493e-05 6.105197e-05 5.755092e-08 4.9558206e-05
000150 ca 96 34 38 3e 76 db 38 c5 9a 09 38 07 09 66 38
       4.3055777e-05 0.00010464758 3.2807486e-05 5.484468e-05
000160 dc b3 a2 36 ce ae 01 39 d2 20 c0 38 38 26 25 38
       4.8489146e-06 0.00012367519 9.161387e-05 3.937466e-05
000170 a0 5b 2c 38 5b 5b 04 38 c4 46 22 38 25 00 a1 38
       4.1093328e-05 3.1556334e-05 3.8689715e-05 7.677105e-05
000180 03 62 94 38 0b b0 ea 36 b8 5d 68 36 05 9c 84 39
       7.075446e-05 6.9942375e-06 3.4625245e-06 0.00025293246
000190 a6 d1 9c 38 ea 85 9d 38 70 9f 2c 38 da e6 1a 38
       7.47771e-05 7.511287e-05 4.1156483e-05 3.693146e-05
0001a0 14 c0 a1 37 ad 56 a8 39 df d0 96 38 df fc 24 38
       1.9282139e-05 0.00032108036 7.191463e-05 3.933615e-05
0001b0 75 a0 f3 37 b4 5d 70 38 5b 9f 43 38 6a 54 0b 38
       2.9042576e-05 5.7307727e-05 4.6640034e-05 3.32188e-05
0001c0 4d 97 86 38 fa 14 e1 38 57 15 6a 37 15 14 13 38
       6.4178e-05 0.00010732743 1.3952455e-05 3.5066234e-05
0001d0 fa 3b 83 37 f1 e4 03 38 17 ba 86 38 14 0a de 38
       1.5644346e-05 3.1446052e-05 6.42428e-05 0.00010587662
0001e0 10 c3 d1 37 5e 57 5b 38 9d 8a fc 37 c6 c0 c9 38
       2.5005575e-05 5.2295036e-05 3.0105288e-05 9.620334e-05
0001f0 b9 02 31 38 9e eb 3d 37 89 7e da 37 d8 9d 95 37
       4.2202624e-05 1.1320137e-05 2.6046548e-05 1.7835686e-05
