our-vTR/2_fold_lightning_logs/dataset1/fold_1/version_5/checkpoints/epoch=0-step=20_fold1.ckpt (torch, 132113 bytes, 18 tensors)

conv1d.weight f4 [128, 4, 12]
00000000: 8b16 efbd fd29 73bd 04cb 8c3c d57e 033e
00000010: b882 ffbd 5b2d a6bd 4a34 9a3d 1a04 1f3c
00000020: 0b4b a53d fa06 08bd 0bc9 163d 2026 003e
00000030: 536a b4bd f2d2 893d 4b12 77bd 56fe ec3b
00000040: 4082 f83c 8559 40bd d700 c33d c8e6 953d
00000050: d3fd eebd 71ae cf3d a493 b73d e57a 1e3d
00000060: 8bce 51bd 1175 a43d bd2e e73d 7532 ebbd
00000070: 513c 25bd 7470 3dbd 4f27 b83d fa17 09be
00000080: 692a b5bd 2125 adbd bc27 35bc 6acd 6a3d
00000090: fdc4 83bd f5f5 633d 5a23 10be 9603 523d
000000a0: 7099 e63b ea2a a5bd de46 94bd 4aa1 debd
000000b0: f1e6 98bd 5fb8 863d 4207 813d 7155 3c3d
000000c0: 4b24 083e 5ba1 ff3d 3e90 cbbd b902 0b3e
000000d0: 2dea 0d3e 7de3 2b3c bdf2 97bd 6c63 d0bd
000000e0: 80da eb3c f598 ac3d 9e62 ce3d 7bef c9bc
000000f0: 0506 c93c d147 8cbd 1a69 08be 9b7d dd3d
00000100: d038 d23d 4e34 f13d a6fe 053d 06b2 be3d
00000110: 1433 6bbd 8df4 af3d d5f8 c03d d436 53bd
00000120: d7d5 e93b 2796 cebd f2b6 aabd 6def 933c
00000130: 7268 053e e4a8 a63d a71e 13be d6f9 e83d
00000140: 3339 d03d c268 cebd c567 babd 1259 51bd
00000150: cee5 d83d 08e9 8f3d 37c5 e1bd 8ef6 da3d
00000160: e8e7 0d3e dc79 e93d 44be a1bd abfd aa3d
00000170: 023f 883c 7eba 0bbe 19dc 58bd 6552 c73d
00000180: 1a9d febd ad40 08be 03e5 15be 8a80 b53d
00000190: d2c3 083e 4fde eebd 96b4 2a3b 8076 1cbd
000001a0: 8175 00bd 7b50 18bd 472a 473d 9ce9 d03d
000001b0: 8498 a6bd f4fd f43d 518f 943d 3de4 cabd
000001c0: 8f17 7abd deac f03c 1e50 c53d 342a 0bbe
000001d0: eb5c 35bd c791 f73d 0d12 b6bd 653f 323c
000001e0: 613d 94bc c4c3 62bd 6a5f 913d d161 883c
000001f0: 02a4 883d 1593 b13d b16f 513d cb7c 85bd
00000200: c524 f83d 3ab7 893d 2870 5e3d 9934 22bd
00000210: 87c1 10be 9184 2ebd 815b 683d 6cf8 afbc
00000220: 5630 f4bd f7a7 4cbd 73c2 1cbc 1a28 97bd
00000230: 638b 9cbd 38fa 20bc c66a 57bd ae4e 9ebd
00000240: 6d4f f73d 6836 723c 3fa0 ea3d 033f fa3c
00000250: e075 8e3c f8b4 4abd cbeb cf3b 4814 0a3e
00000260: 4bd5 6dbd d160 0f3e c8c3 083e 6996 893d
00000270: edb1 ffbd 7f9d 93bd 0fdf d13d 0f80 91bd
00000280: e0a0 babd 12f6 14be e4c8 913d 3c99 b7bd
00000290: 8161 0bbe d558 03be 7c88 883a 1c02 b23c
000002a0: 2ffa cfbd e061 5d3d 287d af3d b8b6 0c3e
000002b0: efd3 d53d ce9c 79bc 3209 9abd e51d bfbd
000002c0: 61d7 8c3c b548 f43d 04c9 14be 645f f7bd
000002d0: dd0f 4abb 6c61 d53c 8e6d 713d df3d 4f3b
000002e0: 0c7b 7cbd 465d 103d 7bbc 10bd 0593 b4bd
000002f0: 2933 f8b9 6d3f 9c3c f6f7 b53b f072 ecbc
00000300: 7b98 78bb 3812 0abe 9daa a0bd 654e 063e
00000310: e7ac c8bc 6946 c8bd b3c4 073e 4737 29bd
00000320: 9651 e8bc 3d14 ec3d 41bd 10bd 55d4 ebbd
00000330: 516f 03bd 903b edbd 3626 893d f9ff 953a
00000340: 3397 f63d 404c 83bc 99d2 f53d 61f4 aebd
00000350: feab a2bc bbe9 09bd 4b73 dbbd 3832 90bd
00000360: 0401 033e a759 813d fa56 b43d cac1 d63d
00000370: fe2f 4ebd f428 073c cf35 9c3d 1ae2 bd3d
00000380: e5f6 2bbc ec78 e2bc 05b1 3d3d bc15 1dbe
00000390: d514 05be e7ae 9b3d 4df4 d2bc ab2e de3c
000003a0: 14d3 ec3d 8b9d 203c d237 88bd e7e6 17bd
000003b0: 27b3 9c3d cc84 aabd 7d18 0abd 7587 fbbb
000003c0: 5464 143e 25ef d0bd 1e1f 913d bd13 d63d
000003d0: f376 a93d e3ce 62bd a085 6fbc ed18 78bd
000003e0: df72 b8bd b8ee 1cbd cc24 073d 1045 dc3c
000003f0: e400 02bd 5440 b4bd 0ee8 a13c 5006 c6bd
-0.116742216 -0.059366215 0.01718665 0.12841351 -0.124761045 -0.081141196 0.075295046 0.009705568
0.08070954 -0.03320978 0.036812823 0.12514544 -0.08809342 0.06729688 -0.06032018 0.0072324676
0.030335546 -0.046960372 0.095216446 0.07319409 -0.11669507 0.10140694 0.08963707 0.03869142
-0.051222365 0.08030141 0.112882115 -0.11484233 -0.040340725 -0.04624982 0.089918725 -0.13388053
-0.0884598 -0.084543474 -0.011056837 0.057324804 -0.06434057 0.055654485 -0.14075986 0.05127295
0.007037334 -0.08064826 -0.07240079 -0.10870607 -0.074659236 0.06578135 0.063002124 0.04597992
0.13295095 0.12481948 -0.099396214 0.13575257 0.13858862 0.010491249 -0.074193455 -0.10175213
0.028790712 0.08427612 0.100774035 -0.024650326 0.024539003 -0.068496354 -0.13321343 0.10814973
0.102647424 0.117775545 0.032713555 0.09311299 -0.05742176 0.08591566 0.09422461 -0.05156596
0.0071360874 -0.10087233 -0.08335675 0.018058503 0.13028124 0.08137682 -0.14367162 0.113757774
0.1016716 -0.10078575 -0.09101824 -0.051110335 0.10590707 0.07026869 -0.11023944 0.10691558
0.13857996 0.11400196 -0.078976184 0.083491646 0.016631607 -0.1364536 -0.052944276 0.097325124
-0.124323085 -0.13305922 -0.14638142 0.088624075 0.1335595 -0.11663496 0.002604758 -0.038198948
-0.03136206 -0.037186127 0.048624303 0.102008075 -0.08134559 0.119625 0.07253898 -0.09906814
-0.061057623 0.029379304 0.09634422 -0.13590318 -0.044278067 0.12088352 -0.08890162 0.010879372
-0.018095674 -0.055362478 0.07098277 0.016648205 0.06671907 0.08670632 0.051131908 -0.06517943
0.12116388 0.06724401 0.05430618 -0.039600942 -0.14136325 -0.042606894 0.05672789 -0.021480761
-0.11923282 -0.04996487 -0.009567845 -0.07380696 -0.076437734 -0.009825282 -0.05259206 -0.07729851
0.12075696 0.014783479 0.11456346 0.030547624 0.017390192 -0.04948899 0.0063452474 0.13484299
-0.05806474 0.14001776 0.13355935 0.067181416 -0.124851085 -0.07207774 0.10247623 -0.07104503
-0.09112716 -0.14546993 0.07118395 -0.08964774 -0.13611414 -0.12826855 0.0010416652 0.021729521
-0.101551406 0.05404842 0.085687935 0.13741577 0.10440814 -0.015235139 -0.07521285 -0.09331874
0.017192544 0.1192793 -0.14529806 -0.12078741 -0.003083221 0.026047431 0.05894237 0.0031622571
-0.061640784 0.035245202 -0.035336 -0.08817104 -0.00047340363 0.019073213 0.005553241 -0.0288634
-0.0037932682 -0.13483512 -0.07845042 0.13115843 -0.024496509 -0.09779055 0.13258629 -0.041312482
-0.028359216 0.11527298 -0.035336737 -0.115151085 -0.03208858 -0.11583626 0.06696741 0.0011444084
0.12040558 -0.01602757 0.12003059 -0.08542705 -0.019857403 -0.03367017 -0.1071535 -0.070408285
0.12793356 0.06315928 0.08805652 0.10486181 -0.050338738 0.00824951 0.07627451 0.09271641
-0.010495876 -0.02764555 0.046311397 -0.15340322 -0.12996228 0.07601719 -0.025751257 0.027121862
0.115636975 0.009803186 -0.06651272 -0.03708544 0.07651358 -0.0832611 -0.03371476 -0.00767606
0.14491397 -0.10201863 0.07086013 0.104529835 0.08274641 -0.055373084 -0.014619261 -0.060570646
-0.09006285 -0.038313597 0.032994077 0.0268884 -0.03173913 -0.08801332 0.019763973 -0.09669173

conv1d.bias f4 [128]
00000000: 1445 d73b 2d91 08be 4fec d53d f3b9 76bd
00000010: 97ee 003e b1e8 b63d 03ff c0bd 5ad5 b9bd
00000020: 6533 dabc 0d5b 913c ac9d 0b3d 1e3b f33d
00000030: 6ec2 be3d fc78 18be 3dba ecbd bbcd b7bd
00000040: 556f 603d 2ec8 a83d 8834 9cbd 9c96 be3d
00000050: df56 ab3d 1519 e23d 4218 4a3d 480f 843d
00000060: 1938 4fb9 9644 0c3e 4ba8 04be 8d48 b73d
00000070: 7cce a33d ecc8 bbbd 37f6 05be f267 0cbe
00000080: c2f8 35bb 938c 063d d1e7 7d3b 669f d73b
00000090: 51c8 9fbc a154 973d b983 043b 2108 373d
000000a0: c80d d03d 4591 f8bd 06ce 02be dbe7 803d
000000b0: 2743 833c b83e bd3d 4826 dfbd fb04 023e
000000c0: 1947 543d ad15 7f3d dd15 e23d 03ce 1bbd
000000d0: 310d 82bd 0c29 0a3d a18d 203d b576 17be
000000e0: 213c cc3d db6c 853d 1d6a 8b3d 5d0b d03d
000000f0: 2c30 e03d 9175 103c df44 0abe ab70 c63d
00000100: dacf c63d 1e60 113e da6f 8a3d 611c b43c
00000110: b9a3 893d 4b7f d03c 6227 fd3d 278b 6e3d
00000120: 7557 80bd b424 563a 7333 fbbd c32e e13d
00000130: 1cee 85bd 443a 0abd ad6b efbd dbaa 12be
00000140: fa28 11bd 817d b5bd 56f0 2c3b 01f9 ecbd
00000150: 6ee2 f7bd 8b37 e4bd 9227 41bd af6f 6e3d
00000160: 3247 a33d 1a3e 563c 2895 96bd aa1d 09be
00000170: d8dd f43d cd2c b3bd a9dc 833d 0ba1 ba3d
00000180: 1f3b 0fbe f33b d2bd 4293 06be 70bd a33c
00000190: 4b8b ef3c 8b05 0c3d b4a6 7bbd f038 9cbd
000001a0: ad05 d63d bb05 ad3d f342 873d 08f3 273c
000001b0: 0b7f a33d 9300 acbd 7b77 b03d cf84 8b3d
000001c0: 3476 aabd 6ac6 573d 4454 c3bd 24be ad3d
000001d0: ff2d d03d 2b60 ebbd 5b10 a2bc 64dd be3d
000001e0: ca6b 06be 7d0e 473d f18d e1bc 3c2c 85bd
000001f0: ba5f 903c 344d 5f3d aa8b d3bd 3682 0cbe
0.006569514 -0.1333663 0.10445463 -0.06023593 0.12591015 0.08931101 -0.094236396 -0.09073897
-0.026635835 0.017743612 0.034085914 0.1187651 0.09314428 -0.14889902 -0.1155896 -0.08974787
0.054793674 0.08241306 -0.07627207 0.0930607 0.08366179 0.1103994 0.04933954 0.06448227
-0.00019761956 0.13698038 -0.12954824 0.08949385 0.07998368 -0.09169182 -0.13082205 -0.13711527
-0.002776668 0.032848906 0.003874291 0.006580281 -0.019504698 0.073891886 0.0020220114 0.044685487
0.101588786 -0.12137083 -0.12773904 0.06294223 0.016023232 0.09240478 -0.108959734 0.12697212
0.051825617 0.06227653 0.11039326 -0.038038265 -0.06350172 0.03373055 0.039197568 -0.14791377
0.09972406 0.06514903 0.06807349 0.101584174 0.10946688 0.0088170925 -0.13502835 0.096894585
0.09707613 0.14196822 0.06759615 0.021986188 0.06720681 0.025451323 0.12361027 0.058238175
-0.06266681 0.00081689213 -0.122656725 0.10995247 -0.065395564 -0.033746973 -0.116904594 -0.14322989
-0.03543947 -0.088618286 0.0026388369 -0.11570931 -0.12103735 -0.111434065 -0.047156878 0.05821198
0.07972564 0.01307633 -0.07352668 -0.13390222 0.11956376 -0.087487794 0.06438572 0.09112748
-0.13987397 -0.10265341 -0.13142112 0.019987792 0.029241225 0.034184974 -0.061438277 -0.076280475
0.10450301 0.084483586 0.066045664 0.010250814 0.07983216 -0.08398547 0.08616539 0.068124406
-0.08323327 0.052679457 -0.09537557 0.08483532 0.10165023 -0.11492952 -0.01978319 0.09319571
-0.13127056 0.0485978 -0.027533503 -0.06502578 0.017623771 0.054516986 -0.10329373 -0.13721547

linears.0.weight f4 [32, 128]
00000000: 4eb4 ae39 c397 95bc 23d6 b3bc 9741 5d3d
00000010: 84fb 2b3c d28c 9b3a f031 62bd 4e60 61bd
00000020: 6fa9 01bd 7e09 4a3d 6be7 5abc 375e 6cbd
00000030: 0974 bb39 9213 bfbc 4964 3dbc f1ef 643d
00000040: aaec 6a3d 39fe 2dbd 53b5 b33c f9da 01bd
00000050: 7c5b 123d c252 9539 31f7 013d 6bbe 1c3a
00000060: 0c81 6bbd fee5 8ab9 d2b4 67bd a4f9 01b8
00000070: 013b 0d3d 6b68 9f3c ee72 693d 77d5 ee3a
00000080: d0d6 1a39 2ed4 4c3c 91b7 d7bc 0bb0 b6bc
00000090: dc91 763a 0ad0 1bbb 02fa 1f3b ec98 50bd
000000a0: e24f 633d 4300 5dbd 6665 65b9 9c73 213a
000000b0: 3076 1fbb 6874 6b3d eedf 62bd a93f 84bd
000000c0: 4b85 16bd 02f0 e7bb 53af 803c 7917 fa3c
000000d0: 2a21 f43b a2d7 ad3a f43c c3ba 4462 dbb9
000000e0: 9ebb 243a 3799 0f3a 8a94 3ebd b886 91bb
000000f0: 2139 4b3d 8a1d c53a 81c6 54bd b236 3f3b
00000100: c6bb 1cba ef56 ec3c 5b23 363d a627 c13c
00000110: 7c78 733d ebbc cc3c 4daa 253b b942 b6b9
00000120: 84d7 fe3b c674 04bb 163e 6bbd 23aa 5cbd
00000130: 7b5f 9e3a 092e d8bc ba19 8aba 6d8b 96bc
00000140: 927b 473c 4c1b 2c3c 5fd3 8f3c e241 5e3a
00000150: 2af1 513d 0ac5 09b8 f3ff 58bc 000d 00bd
00000160: 1cdd 04ba 07a3 a039 d449 82bd d027 6b3c
00000170: 4faf 01bd 6449 babb 7a61 0d3d 3ab8 0ebd
00000180: d2e8 daba ca5d f73c 289b 0bbb 5254 26bd
00000190: 7f98 3dbd 755a 433d b6c8 12bb 3914 a3ba
000001a0: dfff 15bd 7435 c1bc 4952 b539 be14 01bd
000001b0: a4d4 673d 9786 a1bc 6774 5b3d 7536 8b3a
000001c0: 811c 44bd 1630 93b9 1ff4 12bc 104f 87bd
000001d0: 0003 d23c 07e4 2bbd 3119 3bbd 7929 263b
000001e0: ba52 f03c af70 1dbc 8def a23c d02a 21bd
000001f0: d505 37bc aa14 79bd ce5e 75b9 1355 18bb
00000200: 0874 8f3d ec0b f83b 8d68 f7bb f893 97bd
00000210: b868 473c 560a 193d a5d3 923d c40d a2bd
00000220: a52d 9b3c ec81 c8bb 46ac 013c dc4e 07bd
00000230: 6941 22bb 6fce 693d fa22 033d df18 c63c
00000240: 73db a7bd 3c28 1cbd 1058 10bd b854 7bbc
00000250: ce35 3abd f2aa 04bd 110f 023d bf44 5bbb
00000260: f5b5 13bd 96c8 5a3d 57ef 053d 0c8a fd3b
00000270: 7839 5c3d c100 83bd 3aa8 7a3d c9f1 8ebd
00000280: 81ef f5bc 037e 2dbd f2ad 743d 84a2 f33c
00000290: 8951 87bc 3cce 303d 9094 d33c bc7c 153d
000002a0: 9b0a 873d 7e03 12bd 2b01 adb9 8744 c83c
000002b0: 93a2 a63d 8251 19bb c61d 263d 617e 453d
000002c0: e61f 783c 488b f9ba 16e1 e9bc a519 85bd
000002d0: 283a d8bc 071d ceba d939 27bd 5e4f 05bd
000002e0: ea65 4fbd b008 7d3d 600a 893d e991 503d
000002f0: 775d 96bd e941 9e3d 34b4 4d3d 0d3b 023c
00000300: c0ec 2bbc 849a 80bd bbf8 0abd 64b2 513d
00000310: 1741 863d 7baf 703d c4ef 9a3c 2cb7 f2bc
00000320: a499 3fbd 6130 bc3c 0613 1bbb c773 9d3c
00000330: 316b 1cbd ad40 2b3d 6d34 803d da01 3e3d
00000340: aa46 8abd bcdc 8ebd 5e89 a73b 46c2 243b
00000350: d9a8 6e3d 07dc c5ba caf1 febc e2e5 0bbb
00000360: ce38 5cbd 55ac 91bc d4c1 cd3c fec0 843d
00000370: f548 67bd 8e10 1b3c 94fc 223d 7eb7 89bb
00000380: 3545 82ba 0b67 763d c656 fd3c f42f 023d
00000390: 13a7 9b3d d01d 99bd da53 29bd 6961 ce3c
000003a0: 1576 ffbc 400d 913d 882a e5ba 7a84 c7bb
000003b0: 2ee6 d1bc c0f7 433d 5e8c c33c 4fb5 943d
000003c0: 7fef 433c e5e3 993d edfd 12bd 61f5 5f3d
000003d0: 81da 64bd 7acd 433d aada cc3c 8942 6f3c
000003e0: 59b4 9ebd 2e74 61bc 98a6 20bb 946a b6bc
000003f0: 8b1e daba c97d e5bb 4102 833d cfac 373d
0.00033322204 -0.018260842 -0.021952694 0.05401763 0.010496978 0.0011867529 -0.055223405 -0.055023484
-0.031655725 0.04932546 -0.013360838 -0.057707038 0.00035753872 -0.023324762 -0.011559554 0.05589289
0.057354607 -0.042478774 0.021937048 -0.03170297 0.035731778 0.00028481154 0.03172988 0.0005979302
-0.057496116 -0.0002649277 -0.056568928 -3.0988493e-05 0.0344801 0.01945897 0.05699437 0.0018221576
0.00014766608 0.012501759 -0.026332648 -0.02230074 0.000940589 -0.0023775124 0.002441049 -0.050927088
0.055496104 -0.053955328 -0.00021876916 0.000615889 -0.002433192 0.05748406 -0.055389337 -0.06457455
-0.03674821 -0.0070781717 0.015708601 0.03052877 0.0074502425 0.0013263116 -0.0014895485 -0.0004184415
0.00062840607 0.0005477848 -0.046528377 -0.0044411086 0.04961503 0.001503871 -0.05194712 0.0029176888
-0.0005978908 0.028850047 0.04446731 0.023578476 0.059441075 0.024992427 0.002527851 -0.00034763457
0.0077771563 -0.0020211204 -0.057432257 -0.053873193 0.0012082899 -0.026389139 -0.0010536232 -0.01837703
0.012175458 0.010504555 0.017556844 0.0008478445 0.051255383 -3.2846852e-05 -0.013244617 -0.031262398
-0.0005068348 0.00030639043 -0.06361738 0.014352754 -0.031661328 -0.0056850184 0.03451679 -0.03484366
-0.0016701466 0.03019609 -0.0021302197 -0.040607758 -0.04628801 0.04769369 -0.0022397465 -0.001244194
-0.03662097 -0.023585059 0.00034584317 -0.031513922 0.056599274 -0.019717498 0.053577807 0.0010621088
-0.047878746 -0.00028073852 -0.008969336 -0.06606877 0.025636196 -0.04196551 -0.04567832 0.002535431
0.029336322 -0.009609385 0.019889617 -0.03934747 -0.011170824 -0.060810722 -0.00023400338 -0.0023244068
0.07004553 0.0075697806 -0.007550305 -0.0740127 0.012170963 0.037363373 0.07169274 -0.07912782
0.018942663 -0.0061190035 0.007914608 -0.03303419 -0.0024758226 0.057081636 0.032015778 0.024181781
-0.081961535 -0.038124308 -0.035240233 -0.015340023 -0.04546147 -0.03238959 0.03175265 -0.0033457724
-0.0360622 0.05341395 0.032698955 0.0077374037 0.053765744 -0.06396628 0.06119559 -0.069797106
-0.03002143 -0.042356502 0.0597362 0.02974058 -0.016518371 0.04316543 0.025827676 0.03649591
0.0659382 -0.03564786 -0.00032998002 0.024446739 0.08136477 -0.002339453 0.040555738 0.048216227
0.015144324 -0.0019038701 -0.028549712 -0.06499032 -0.026394919 -0.0015725204 -0.040826652 -0.032546394
-0.050634302 0.061775863 0.06691432 0.0509204 -0.07342046 0.07727415 0.050220683 0.007948649
-0.010493457 -0.062794715 -0.033928614 0.051195517 0.06555384 0.0587611 0.018913157 -0.029628359
-0.046777382 0.022972288 -0.0023662462 0.019220246 -0.038188163 0.041809727 0.062599994 0.046388485
-0.06751759 -0.069756955 0.005112811 0.002514021 0.058266494 -0.001509548 -0.031121153 -0.0021346738
-0.05376511 -0.01778237 0.025116839 0.06482123 -0.05646606 0.009464396 0.03979166 -0.004202782
-0.0009938838 0.060156863 0.030925166 0.031784013 0.07600226 -0.074763894 -0.041339733 0.025192933
-0.031184236 0.07082605 -0.0017483989 -0.0060887905 -0.025622454 0.047843695 0.023870643 0.07261144
0.011958956 0.075141706 -0.035886694 0.05467737 -0.055872444 0.04780338 0.02500661 0.014603266
-0.07749242 -0.01376061 -0.002451336 -0.022267617 -0.0016641183 -0.00700352 0.06396914 0.044842537

linears.0.bias f4 [32]
00000000: d07d 40bd d932 acbc a777 39bd f606 883d
00000010: b262 96bd d105 bdbc 7054 a0bd 3ee8 df3b
00000020: b5e6 71bc 2871 91bb 48cb 9ab9 98dd f63b
00000030: c179 20ba c0a5 f738 6f1f 0a3d 7ce1 2dba
00000040: a031 8d3d 643a 743d aea6 b53c 9353 0d3b
00000050: b87b 683d dba5 aabd ab96 7ebd 1695 863d
00000060: a69c 1fba 606a 683c be90 3d3d f2d0 edbc
00000070: aecb 21bc 6979 8a3d 19c0 31bc 361f 063d
-0.046994984 -0.02102034 -0.045280125 0.06641953 -0.073430434 -0.023074063 -0.07828605 0.0068331053
-0.0147644775 -0.004438538 -0.00029524625 0.0075337403 -0.00061216584 0.00011808751 0.033721384 -0.0006633026
0.06894231 0.059626 0.022174206 0.0021564707 0.056758612 -0.08332416 -0.062155407 0.06571405
-0.0006088711 0.014185518 0.046280615 -0.029030297 -0.009875221 0.067614384 -0.010849022 0.03274461

linears.2.weight f4 [2, 32]
00000000: 5ba0 c0bd 11ba 2e3d 6bd9 f13c 507a 6a3d
00000010: c05c b63c fb03 9dbd 9eba 043e 9169 083e
00000020: 5cdb ef3c b852 e1b9 8f18 0bbe 86d7 ffbc
00000030: 1cb5 67bb 49f9 083b dbe2 4fbd 0834 aa3d
00000040: 1ea6 dd3d f764 e93d 95bc a23c 5e68 ed3d
00000050: 5fb5 2a3d e52a 4fbd a87c 9c3d 38e8 1d3e
00000060: 35b7 343d 5233 133e ee74 d8bb 6cc3 183e
00000070: df9a 20be e031 653d efd6 bbbc b1c9 a1b9
00000080: 9f5b 963d 20c0 af3d 7a12 f53d dd5a 6cbd
00000090: d306 0cbe 641d bdbd 5923 ad3c f651 d23d
000000a0: ad1e 90bc fa98 8b3a ca17 8fbd 9040 e3bb
000000b0: 8ba3 b4bb 754f f8bc 6f65 923d c0db 52bc
000000c0: 0087 1f3d d742 d83d 1a7c 9fbd 2aa6 9fbd
000000d0: 0a63 e5bc 5585 963c c7c3 65bd 8632 d8bc
000000e0: 0b65 9d3d bf8a c6bd 7621 8fbd 6208 51bd
000000f0: dc90 dabd 5612 d53c 9f89 d2bd 2062 d43d
-0.094055854 0.042657916 0.029522618 0.057245553 0.022261024 -0.07666775 0.12961814 0.1332152
0.029279403 -0.00042976975 -0.13583587 -0.0312307 -0.0035355752 0.0020900539 -0.050753456 0.083107054
0.108227 0.11396211 0.019865314 0.11592172 0.041676875 -0.050578017 0.07640964 0.15420616
0.044120032 0.14375046 -0.006605736 0.14918298 -0.15684079 0.055955768 -0.022929637 -0.00030858585
0.07341694 0.08581567 0.11966415 -0.05770384 -0.13674478 -0.092341214 0.02113502 0.10269539
-0.017592752 0.0010650449 -0.06986959 -0.0069351867 -0.00551266 -0.030311326 0.07148253 -0.012869775
0.038947105 0.10559624 -0.07787342 -0.07795365 -0.028001327 0.018374125 -0.05609491 -0.026391279
0.07685288 -0.096944325 -0.06988804 -0.051033385 -0.10672161 0.02600972 -0.102801554 0.10370278

linears.2.bias f4 [2]
00000000: e753 163e 89a8 7bbd
0.14680444 -0.061440025

exp_avg f4 [128, 4, 12]
00000000: f734 ea37 a1e2 1a37 3770 1b38 fb67 ab38
00000010: be4c 6936 6d08 0236 4981 3d38 2420 cc37
00000020: b153 bb38 57b5 9a36 f3d9 3838 cc7e be38
00000030: c17b e637 6c60 5f37 78b5 c9b6 6f46 43b7
00000040: 4d9c 0438 f696 2538 13e0 cb37 5e89 e338
00000050: 5539 dd34 e132 0039 b568 8138 a452 1736
00000060: a6b5 4438 733b a538 f5c9 c738 9141 14b5
00000070: d11a 2638 f562 7e38 fbbf 7738 fb92 1e36
00000080: de42 c5b6 adba b036 c1bd 8937 fbf3 d637
00000090: 8c9b d337 59a8 db37 b6ca a135 812e 7338
000000a0: df8f 5d38 b582 d537 b8af 8ab5 ccc0 00b7
000000b0: 5522 3738 b2ed 9ab6 7d8c b236 87a2 1e37
000000c0: f49f d439 f198 2239 0771 3039 26b7 4a39
000000d0: 0919 0139 b7b9 a137 3322 7db8 5314 1737
000000e0: db2b f937 7680 6038 50cc 0439 21e8 3b38
000000f0: e73c 03b8 27a8 0838 21d8 4238 19cb 1339
00000100: 8203 6939 b8ca f038 74b7 d939 c08c 8d39
00000110: 15dc 4d38 b987 8e39 bbde 8739 d5df 34b7
00000120: 1fd9 95b7 bee0 2437 c33c c836 e201 c0b8
00000130: 31a1 9237 3d60 a5b8 c1aa 7d37 8dcb c2b8
00000140: b9cb 9239 a7f2 fbb4 a721 2b37 b6e4 1c37
00000150: 8dbe 8cb6 8d3e 2239 a1e6 0939 8b9c e538
00000160: a511 32b7 91b1 9b39 9d8b 95b7 942a 2e39
00000170: bf8b dcb6 06f0 e437 3dc4 42b8 1a1d 9e39
00000180: 8106 c736 d82f 04b5 32da c436 917f 6238
00000190: 25ec 8838 c69c c8b4 f1d4 5bb7 6857 ac38
000001a0: f013 6036 1d5e a137 4775 7e38 14a9 3238
000001b0: 1155 f837 4a50 0d39 8705 9038 c166 1b36
000001c0: dd8c 0eb7 31cf 4138 1e21 7638 5eec 0c37
000001d0: 7353 c136 1854 4338 2942 a437 d48c ad38
000001e0: dc2b c638 21aa 9536 1214 8a38 4e4d 9b38
000001f0: 1b94 c538 aa0a c738 f0bd cd38 fd89 f437
00000200: 24e5 0d39 9f68 7e38 2a8b 0338 55cf 8437
00000210: 3705 8937 edff ff36 aab9 c836 292a 8637
00000220: 1dbd 9bb6 1393 bc36 44de 3336 8d6d df37
00000230: 1857 0236 4406 ab37 5ecd 1338 c1db a536
00000240: 5b51 6b39 3e00 2a39 d6fc 8339 6e62 5fb8
00000250: 9bd2 0139 a218 3d37 e20e a538 b8c9 5439
00000260: 94ff f038 aae3 4339 0175 4239 95d2 6939
00000270: 6312 c036 2a4b a2b7 8361 7a38 7d10 39b7
00000280: b8ef fe36 0915 0736 4e89 0039 58d5 2d37
00000290: 43b2 d634 4050 0bb6 885a 6438 6859 8bb8
000002a0: 84cf edb7 ff56 d138 c7f7 8eb8 dfda ad39
000002b0: 35e4 1239 23f5 af38 c4da 70b7 7a78 3937
000002c0: 8d80 9f38 cb7a 3538 64b3 9d37 2485 8136
000002d0: 8601 9038 5cb3 e937 c114 e437 ad29 5336
000002e0: a2c6 8ab5 51b0 3539 612b af38 b868 4138
000002f0: f942 9838 33df 1638 0550 4237 5536 d038
00000300: 8940 42b7 f481 5eb7 413f 93b7 3d00 fa38
00000310: a0ba 0d36 bff7 db36 12d7 ffb6 9fb6 e537
00000320: 3ffe b037 6229 4538 f6f7 4e38 bbbe 6337
00000330: a200 46b7 3dda 3c35 b2ba 3b38 b915 71b7
00000340: 9926 bf38 3273 a138 b01e 8338 7503 d037
00000350: ce91 8238 b607 d737 ea33 9837 f18f 5c38
00000360: 786c 0939 7b01 2f38 d122 9238 a479 4138
00000370: c89c 44b7 2306 9db7 5194 8538 e2e5 7438
00000380: 3f3b 4f37 0156 2438 0619 0e38 19c1 0f38
00000390: 3b6f be36 8e8d b038 881d 8a37 35c5 1db8
000003a0: d66d 0538 338d 4b38 eddc afb6 d772 1436
000003b0: bbd4 9437 b752 53b5 d7c8 fb36 0027 8837
000003c0: 9088 9ab4 6fa7 b636 9bf5 6d37 f91f dc37
000003d0: 0282 29b7 e99d cbb7 55bc 12b5 7a53 9f37
000003e0: 6799 4037 1e0b 19b7 2217 bd37 c60a 3735
000003f0: 6963 9d36 56d0 cf36 92ec 4d37 476f 90b6
2.7919637e-05 9.231881e-06 3.7059388e-05 8.173283e-05 3.4764375e-06 1.9376414e-06 4.5181518e-05 2.4333662e-05
8.9324436e-05 4.6106684e-06 4.4072e-05 9.083524e-05 2.7475764e-05 1.3314286e-05 -6.0113925e-06 -1.1639305e-05
3.161682e-05 3.947966e-05 2.4303828e-05 0.0001084979 4.1206172e-07 0.00012225985 6.1707025e-05 2.2548857e-06
4.6899215e-05 7.8788864e-05 9.526677e-05 -5.522971e-07 3.960246e-05 6.065048e-05 5.9068185e-05 2.3629389e-06
-5.878842e-06 5.2669407e-06 1.6420034e-05 2.56244e-05 2.5225592e-05 2.6185227e-05 1.2054431e-06 5.7979025e-05
5.2824496e-05 2.5452444e-05 -1.0332942e-06 -7.674284e-06 4.3662574e-05 -4.617229e-06 5.3211684e-06 9.455375e-06
0.00040554965 0.00015506499 0.00016826774 0.0001933245 0.00012311725 1.9279176e-05 -6.035175e-05 9.0050335e-06
2.9703535e-05 5.35254e-05 0.00012664613 4.480046e-05 -3.1289554e-05 3.258153e-05 4.645449e-05 0.00014094672
0.00022221918 0.00011481851 0.0004152615 0.00026998483 4.9080776e-05 0.00027185472 0.00025915154 -1.0780951e-05
-1.7863289e-05 9.827489e-06 5.967538e-06 -9.155624e-05 1.7479617e-05 -7.885739e-05 1.5119732e-05 -9.288555e-05
0.00027999075 -4.6928946e-07 1.020023e-05 9.3515755e-06 -4.194508e-06 0.00015472826 0.00013151254 0.00010948729
-1.0613735e-05 0.000296962 -1.7827197e-05 0.00016609795 -6.5727795e-06 2.7291488e-05 -4.6435965e-05 0.0003015779
5.9314193e-06 -4.9243454e-07 5.8666565e-06 5.4001404e-05 6.528971e-05 -3.736697e-07 -1.31029965e-05 8.21788e-05
3.3390206e-06 1.923652e-05 6.0667542e-05 4.2595973e-05 2.9603516e-05 0.00013476718 6.8674846e-05 2.315661e-06
-8.496657e-06 4.6207748e-05 5.8681813e-05 8.399684e-06 5.761563e-06 4.656994e-05 1.9581132e-05 8.275514e-05
9.449545e-05 4.4603516e-06 6.584091e-05 7.405375e-05 9.421279e-05 9.491046e-05 9.81054e-05 2.9151322e-05
0.0001353217 6.0655755e-05 3.136244e-05 1.5832173e-05 1.6334101e-05 7.629386e-06 5.9820786e-06 1.5993677e-05
-4.6413757e-06 5.6199583e-06 2.6802454e-06 2.6634685e-05 1.9422205e-06 2.0387706e-05 3.5238794e-05 4.942966e-06
0.00022441654 0.00016212554 0.00025174645 -5.3259013e-05 0.00012380855 1.1271013e-05 7.870585e-05 0.00020293042
0.00011491697 0.0001868146 0.00018544869 0.0002229906 5.7241864e-06 -1.9346906e-05 5.969546e-05 -1.1030698e-05
7.597697e-06 2.0128812e-06 0.00012258181 1.03612765e-05 3.999031e-07 -2.0759326e-06 5.444375e-05 -6.64469e-05
-2.8349234e-05 9.982101e-05 -6.81724e-05 0.00033160203 0.00014008659 8.3903105e-05 -1.435605e-05 1.105491e-05
7.605655e-05 4.3268123e-05 1.8799394e-05 3.859999e-06 6.866739e-05 2.7859285e-05 2.7189382e-05 3.1465709e-06
-1.0339611e-06 0.00017327188 8.35273e-05 4.6112313e-05 7.2603994e-05 3.5970657e-05 1.1581932e-05 9.928333e-05
-1.1578327e-05 -1.3262488e-05 -1.755322e-05 0.00011920973 2.1119267e-06 6.55555e-06 -7.6246297e-06 2.7383967e-05
2.1099228e-05 4.7007e-05 4.934516e-05 1.3574662e-05 -1.1801867e-05 7.0353036e-07 4.4758148e-05 -1.4369777e-05
9.114779e-05 7.698535e-05 6.252283e-05 2.4797142e-05 6.226041e-05 2.5633588e-05 1.8143986e-05 5.2586143e-05
0.00013105746 4.172463e-05 6.9683076e-05 4.6128072e-05 -1.1719014e-05 -1.8718716e-05 6.36956e-05 5.838823e-05
1.2351956e-05 3.9180744e-05 3.3878743e-05 3.4273693e-05 5.67539e-06 8.4187006e-05 1.6464634e-05 -3.761538e-05
3.1811964e-05 4.8530474e-05 -5.2411256e-06 2.2120564e-06 1.7742035e-05 -7.872399e-07 7.5037638e-06 1.6230624e-05
-2.8784098e-07 5.4435145e-06 1.4183485e-05 2.6240932e-05 -1.0103455e-05 -2.4273018e-05 -5.46633e-07 1.8993149e-05
1.1479809e-05 -9.122099e-06 2.2541328e-05 6.818849e-07 4.6905375e-06 6.1933342e-06 1.2274033e-05 -4.304489e-06

exp_avg_sq f4 [128, 4, 12]
00000000: b12e 052f 350c 412f 2c2d cb2f 56fa e131
00000010: 8a3f 912e aaea 8e2f e6cc 1231 de78 9930
00000020: 270e 4931 abe2 fc2e adfe 1d30 08fd 1030
00000030: ac1f 1630 4bb0 d930 e1b7 952f cf77 1c30
00000040: d562 4431 3312 1031 f260 b330 0d54 a131
00000050: eda4 7d2e 1e5c 7b31 43ad 5e31 7d4a 1331
00000060: b40f 2131 3ae7 2531 ea68 bf31 2ee6 d62d
00000070: 6cb7 ed30 dde0 c030 f8c7 1931 b25e 462f
00000080: 6a39 772f 9a81 762f 51be 1a2f 8681 6e30
00000090: 1476 9730 87f1 3631 6c65 042d 6ca5 6e30
000000a0: f77a 0730 02d6 d32f 5844 4a2e f561 f82e
000000b0: 92d4 8430 23f0 8630 6f02 6730 c1dd 4b30
000000c0: ea8d 8c32 759c 7e32 d898 a931 3735 ab31
000000d0: 2104 a231 fe27 1a30 6886 9430 a9f7 a32e
000000e0: 43f2 a831 9204 ad31 ad2b db31 baa0 9b30
000000f0: d79a c830 877d 2d2f c3b9 b131 375f 1932
00000100: cba0 9131 cbf4 3232 eec2 ad32 a6ff b731
00000110: f509 e12f c437 9c32 f561 7732 fa9b f830
00000120: 4626 2730 8bdb 012f 5b3c f531 f826 3230
00000130: e12f 1d31 582b ee30 f9ad 0230 bb09 1b32
00000140: defd 7732 e6f0 ea2e 77f7 1f2f d466 6c30
00000150: 6744 b131 c300 ae31 8a5e 3b31 7e46 a631
00000160: b144 d431 1961 0832 3cd7 de30 3c60 ca31
00000170: 745f 7630 a244 082f 4822 692f 8383 8732
00000180: 796c 6530 d8d5 b02e 7f73 ac2e fc43 b531
00000190: 8558 0332 f264 a82d 5f13 8c2f ca4e ab31
000001a0: 3d14 3f2f 6a8e d730 5281 3431 0fc3 a131
000001b0: 424e 0930 fc8b 0c32 90ad 1231 cbd3 522f
000001c0: b960 392f 8c9a 8a30 b239 6b31 4411 2830
000001d0: 9d0f a12f 8fdf d831 5e47 d52f d0b0 ea31
000001e0: f6ad 2932 68c5 3730 90b8 3332 1982 7731
000001f0: f359 5731 0689 5e32 da50 6632 e283 3231
00000200: e56a 4132 9471 0831 ab63 9931 3848 db2f
00000210: 3847 bf2f 0c45 ec2f 0836 5a30 0ecc 682f
00000220: a17f b22d 0057 202f 0ce7 fa2f 468a 0931
00000230: 122b 952f e766 fd30 f8f4 cd30 8a87 992e
00000240: 4094 0f32 67d5 4031 1ae3 f831 ec9c 9230
00000250: 477d ca30 e57a 2431 dbbb 2531 833f 1e32
00000260: 48cb 9a30 d40c 9a31 3be2 2732 d999 b631
00000270: 442a 182f 542f 6f30 7c99 ab30 ae11 fb2e
00000280: f3e6 b02f bd62 a72f bf55 9331 1c8b 0a30
00000290: b525 1430 1f5b 9a2e 52d2 5130 5286 4f31
000002a0: 64b8 fd2f 43c6 a731 37c2 4e31 af45 4732
000002b0: f054 2732 899e 5431 8379 1730 53e1 e32f
000002c0: b237 e831 a809 a931 9858 c22f 4351 0030
000002d0: fcb8 1331 e8dc c130 e9f2 7e30 01ae 7630
000002e0: d5dd 6f2f 8d61 a431 f59a 9b30 0770 492f
000002f0: 1c68 0031 c818 4030 6272 0630 72a5 5030
00000300: e65d 1830 8619 862f 75de 0930 d673 8b32
00000310: c078 f02e c3f6 b32f 2993 ff30 c464 6730
00000320: 731a 3b31 c916 bd31 1fb4 1631 7267 ae30
00000330: 1538 c12f 8966 b92e 1ad0 e831 6bf6 d82f
00000340: 1ca3 1d32 aa0c c631 70d8 5b31 4bca 1d30
00000350: 85b4 8f31 dd76 d530 9e19 6c30 12f1 8231
00000360: 54d4 ec32 4cad 0732 e45e 5332 f265 b632
00000370: 7a8c 7c2f 810f 6331 afec 3f32 e801 0933
00000380: 1c95 0c31 ee35 ae31 908c ba31 d50b f830
00000390: 47a2 a92e 8248 5532 894e 9230 5536 6531
000003a0: 5c17 f431 328a 6631 b62e ed2e 1f5d ff30
000003b0: b4e0 2532 5c2c 0830 0e0e c030 07eb 9131
000003c0: e214 6230 d9ad 972d e495 0930 892c 1a30
000003d0: f6c6 0031 a217 6f2f ab30 a42e 5c1c 4530
000003e0: 0f3e b22e 7426 382e 3b44 032f 91e8 d72e
000003f0: 488d 3d2e 2b36 612e 8f66 882e 8f17 182e
1.2112868e-10 1.7557585e-10 3.6957581e-10 6.5768218e-09 6.6051234e-11 2.5996388e-10 2.1362268e-09 1.1166568e-09
2.9257394e-09 1.14998976e-10 5.7478183e-10 5.2746474e-10 5.461469e-10 1.5838933e-09 2.7233596e-10 5.692273e-10
2.8577933e-09 2.0965103e-09 1.3051518e-09 4.695272e-09 5.7672023e-11 3.657767e-09 3.240374e-09 2.1433657e-09
2.343751e-09 2.4142097e-09 5.570759e-09 2.4431204e-11 1.7296151e-09 1.4033749e-09 2.23781e-09 1.8041638e-10
2.2484917e-10 2.2419613e-10 1.4073832e-10 8.676796e-10 1.1020256e-09 2.6621778e-09 7.5258515e-12 8.6818974e-10
4.928746e-10 3.8532738e-10 4.5990184e-11 1.1295135e-10 9.66468e-10 9.818034e-10 8.404077e-10 7.41661e-10
1.636268e-08 1.482032e-08 4.9359237e-09 4.982805e-09 4.71529e-09 5.6081706e-10 1.0806618e-09 7.456375e-11
4.9169855e-09 5.0354823e-09 6.3787042e-09 1.1323416e-09 1.4595923e-09 1.5778855e-10 5.1724967e-09 8.9274215e-09
4.2383355e-09 1.0416623e-08 2.0228494e-08 5.355065e-09 4.0934336e-10 1.818615e-08 1.4399565e-08 1.8088706e-09
6.0808636e-10 1.1810479e-10 7.1373e-09 6.48114e-10 2.2873723e-09 1.7329098e-09 4.7540955e-10 9.0244e-09
1.4435015e-08 1.068388e-10 1.4548883e-10 8.600243e-10 5.1591544e-09 5.064153e-09 2.726582e-09 4.83925e-09
6.1778214e-09 7.938319e-09 1.6213799e-09 5.8899143e-09 8.9629926e-10 1.2393511e-10 2.1203406e-10 1.5775873e-08
8.3463864e-10 8.04154e-11 7.842171e-11 5.2755222e-09 7.645331e-09 1.9144217e-11 2.5479616e-10 4.9857123e-09
1.7378539e-10 1.5683785e-09 2.6266957e-09 4.7078923e-09 4.995152e-10 8.180901e-09 2.1344455e-09 1.9174633e-10
1.6860015e-10 1.0084746e-09 3.4229797e-09 6.114258e-10 2.9296823e-10 6.311843e-09 3.8795184e-10 6.8303976e-09
9.876649e-09 6.6855543e-10 1.0461136e-08 3.6017183e-09 3.1337748e-09 1.2953256e-08 1.34061455e-08 2.5977376e-09
1.1258384e-08 1.9855166e-09 4.464217e-09 3.9887182e-10 3.4793302e-10 4.297721e-10 7.938472e-10 2.1172772e-10
2.0292936e-11 1.4582824e-10 4.5638904e-10 2.0014723e-09 2.7133545e-10 1.8437419e-09 1.4985337e-09 6.981711e-11
8.357404e-09 2.8060982e-09 7.2435684e-09 1.0667498e-09 1.473304e-09 2.3934998e-09 2.4117444e-09 9.211251e-09
1.1262751e-09 4.4834483e-09 9.772118e-09 5.3143876e-09 1.3839335e-10 8.701495e-10 1.248551e-09 1.1417299e-10
3.2178313e-10 3.044728e-10 4.2880113e-09 5.0401794e-10 5.389567e-10 7.0192956e-11 7.633264e-10 3.0198817e-09
4.615145e-10 4.8828794e-09 3.0087344e-09 1.1599169e-08 9.739992e-09 3.0940177e-09 5.510616e-10 4.1451162e-10
6.7584205e-09 4.919645e-09 3.5351344e-10 4.668161e-10 2.1496467e-09 1.4105384e-09 9.274986e-10 8.9741553e-10
2.1815734e-10 4.7841184e-09 1.1321776e-09 1.8320644e-10 1.868563e-09 6.988441e-10 4.8911464e-10 7.590507e-10
5.5430716e-10 2.4392594e-10 5.015644e-10 1.6234406e-08 1.0935386e-10 3.2735245e-10 1.8595517e-09 8.4180507e-10
2.7227116e-09 5.5032143e-09 2.193026e-09 1.2689567e-09 3.5146344e-10 8.43104e-11 6.775747e-09 3.9465262e-10
9.1756895e-09 5.763998e-09 3.1991725e-09 5.7403743e-10 4.1823704e-09 1.5531573e-09 8.5892704e-10 3.8109045e-09
2.7570572e-08 7.897437e-09 1.2303392e-08 2.1233948e-08 2.2969174e-10 3.304166e-09 1.1171479e-08 3.1899532e-08
2.045744e-09 5.0701976e-09 5.4292926e-09 1.8047738e-09 7.7140565e-11 1.2414718e-08 1.0645219e-09 3.335477e-09
7.1039903e-09 3.354796e-09 1.078581e-10 1.8580159e-09 9.655356e-09 4.953955e-10 1.3973833e-09 4.246775e-09
8.2248e-10 1.7243916e-11 5.0053317e-10 5.608816e-10 1.8739548e-09 2.174532e-10 7.466502e-11 7.1708484e-10
8.105527e-11 4.187091e-11 1.1938621e-10 9.81838e-11 4.3099108e-11 5.1207188e-11 6.202782e-11 3.4581723e-11

exp_avg f4 [128]
00000000: f4b6 0539 cba7 b839 6a79 1939 61cc 8d39
00000010: c0b7 ed38 4380 f637 86cd 4eb9 95be c539
00000020: 5a7f d439 d1d8 f5b8 996d d238 e083 8439
00000030: 20e1 8738 a71a c039 46ee 2938 73fa 8b38
00000040: fe15 c239 37e4 5739 afe0 cc38 1923 9db9
00000050: 79c4 a739 cd44 8ab9 20ba 9cb8 92dc 7db8
00000060: 9756 ea38 dd49 ee39 962d f5b8 3468 af39
00000070: 8a4a 9e38 78da 2eb8 eda7 68b8 d980 5c38
00000080: 6e8f 79b9 461c b9b8 19c0 3d37 2393 6039
00000090: 6499 cfb8 cc86 1eb9 80c3 b339 2cc4 a138
000000a0: 30cd 2239 6991 3639 8f73 b337 eba5 95b7
000000b0: 69cb f3b8 d2bd 16b9 e1cc b339 1b77 ab39
000000c0: b0ae 9ab8 cb20 d1b9 b79f 8eb8 a93a 7a39
000000d0: b571 b739 44ca 95b8 1daf 94b8 bf49 96b9
000000e0: b72c ae39 839e e339 936b 1eb9 6689 6db7
000000f0: 019e 9339 7081 5cb9 2827 a838 0085 f539
00000100: edeb 5739 1b75 1338 170c 9639 4fa1 17b8
00000110: 20c2 88b9 e313 5838 5745 22b8 d660 8939
00000120: e8e6 9138 8fe8 c4b9 4b4e 5cb9 6e69 f8b8
00000130: aa35 e038 8cb5 2ab9 2c69 1939 308a 9b39
00000140: f479 0139 3d95 f6b9 1d33 0d3a 3d76 df39
00000150: 383b 9539 5e1e 053a 7ea2 6f38 dbfa 5839
00000160: e2af 9738 f542 e938 1a25 a8b9 4c9e 8739
00000170: 29fb 2838 8ccc c8b9 238e 9339 17f9 4cb7
00000180: a5ba 9439 9699 09b9 d021 16b8 ec22 21b9
00000190: 951a af39 395b 3e37 f593 bc39 4af0 ef38
000001a0: 9157 b336 dd16 a639 bda9 80b4 f5a2 1ab9
000001b0: fe19 3ab7 7c43 be39 2ed8 b539 464b fb39
000001c0: 2d4d 35b8 e31e c939 00cf 0939 01ff 2238
000001d0: 2fbe 91b8 71a2 a1b8 e595 0b39 9f1c 0b37
000001e0: 9dfe 6339 b7f0 4e38 c237 1839 6d6d 9cb8
000001f0: d49c c038 93af 14b9 30b6 bd39 2f00 0c38
0.00012752024 0.0003522023 0.00014636447 0.0002704589 0.00011335267 2.9385212e-05 -0.00019722254 0.00037716763
0.00040530675 -0.000117228956 0.000100339945 0.00025275256 6.4792344e-05 0.0003664095 4.051465e-05 6.674686e-05
0.0003701895 0.00020589014 9.7693286e-05 -0.00029971523 0.00031999106 -0.00026372672 -7.473328e-05 -6.0525323e-05
0.00011174118 0.0004544993 -0.000116910014 0.00033456238 7.547911e-05 -4.1688298e-05 -5.5469503e-05 5.2572086e-05
-0.00023799922 -8.826754e-05 1.1310004e-05 0.00021417117 -9.8991004e-05 -0.0001511827 0.000342872 7.713618e-05
0.00015525962 0.00017411042 2.1392274e-05 -1.7839446e-05 -0.00011625031 -0.00014375828 0.00034294187 0.00032704402
-7.37583e-05 -0.0003988802 -6.800837e-05 0.0002386371 0.00034989198 -7.1425486e-05 -7.089807e-05 -0.00028665175
0.0003322118 0.00043414914 -0.00015108129 -1.4158291e-05 0.00028155747 -0.00021029054 8.018158e-05 0.00046829134
0.00020591887 3.5156594e-05 0.00028619237 -3.6151436e-05 -0.00026084576 5.1516934e-05 -3.8688388e-05 0.00026202825
6.9571484e-05 -0.00037557303 -0.00021010001 -0.00011845199 0.00010691148 -0.00016280095 0.00014630397 0.00029666862
0.0001234783 -0.00047031968 0.00053863396 0.0004262197 0.00028463616 0.00050780724 5.7133373e-05 0.00020692816
7.233002e-05 0.000111227775 -0.000320711 0.00025867147 4.0288232e-05 -0.00038299372 0.00028143925 -1.2217343e-05
0.0002836782 -0.00013122553 -3.5794277e-05 -0.00015367166 0.00033398406 1.1346122e-05 0.0003596839 0.000114411654
5.34481e-06 0.00031679022 -2.396536e-07 -0.0001474729 -1.1092516e-05 0.00036289904 0.00034684077 0.00047930534
-4.322564e-05 0.0003836072 0.00013142452 3.88613e-05 -6.949563e-05 -7.707335e-05 0.00013311913 8.2917095e-06
0.00021743258 4.933841e-05 0.00014516621 -7.459042e-05 9.184485e-05 -0.00014179786 0.0003618463 3.3378772e-05

exp_avg_sq f4 [128]
00000000: 75fe c931 ef65 e232 0059 8b32 731f 7b32
00000010: 0a6c f232 b2bb e930 79e9 2d32 3758 f432
00000020: 191f 0133 c501 8d32 9e3b 8231 246c 7532
00000030: ef75 2e32 dd4c fe32 ac66 af31 c9ac 2431
00000040: 569a e232 b71d c831 beac 7a31 be0f e933
00000050: bcd7 d932 6a58 b932 c36d 1f31 4687 8931
00000060: ad80 7b32 4e00 3c33 dee3 1332 2a42 b132
00000070: a903 1032 c4a0 7232 67ab c831 509e d631
00000080: d846 1632 f3f0 e631 1c8e 0e31 09c3 4132
00000090: 4e68 fa32 ca13 5932 afaf 1933 c06b 9131
000000a0: f4b7 8032 ecd7 3233 97ad be32 ebae e331
000000b0: 68cf 5932 63db 3a32 4c95 0533 220c 6033
000000c0: 069b c031 42fd 4833 7a5f d632 1b7e 4632
000000d0: c6c7 b232 5dc0 6531 8ea5 0732 07bd 1b33
000000e0: 9f9a 6e33 a367 3933 f292 7832 960d 1c32
000000f0: 72e8 c632 6f68 ae32 9dc7 5b31 a032 e933
00000100: 0d64 7b32 3cbe ac31 07e3 8f33 cb05 c730
00000110: af41 6333 67b4 a931 fcf2 0232 a7af 8832
00000120: 19d0 4532 13c7 3e33 2ae0 0d33 7fb0 a532
00000130: 3c15 e231 961c 2732 c68e fb31 e47c 6e32
00000140: 9721 8331 6eb4 2f33 48f7 9633 40de 7b33
00000150: 96b0 9e32 0f95 7f33 52bd cb31 2e8a 8932
00000160: fbbc 1a31 87a3 7232 0bcd 8d32 af1e 3b32
00000170: 363c 2132 5cdd b332 5f1a 8332 c0c3 5b31
00000180: c209 c033 0987 a631 ccea 9b32 f25a b632
00000190: 262e 8a32 a0f3 3932 3a69 0133 d7a4 0133
000001a0: e72b 0f32 97d9 ab33 ae32 7631 43c3 3633
000001b0: 2c07 f932 eb26 1633 3b5b 1533 e86f ac33
000001c0: bceb 2732 deb9 1233 04a1 7931 3d54 ad32
000001d0: d064 1632 cebe a432 cc46 0733 64d2 4f30
000001e0: de8d 7632 6105 f931 e0e1 1033 14f7 da31
000001f0: 0170 d132 dfc8 2532 1889 ac32 6bd4 2d32
5.8787983e-09 2.6356217e-08 1.6222202e-08 1.4617274e-08 2.8221638e-08 1.7006327e-09 1.0123011e-08 2.8445454e-08
3.0063436e-08 1.6415365e-08 3.7902756e-09 1.4285465e-08 1.0154948e-08 2.9604445e-08 5.1048428e-09 2.3963358e-09
2.6380047e-08 5.8241443e-09 3.647798e-09 1.08527715e-07 2.536023e-08 2.157704e-08 2.3199938e-09 4.0026036e-09
1.463938e-08 4.3772438e-08 8.608337e-09 2.06356e-08 8.382735e-09 1.4122808e-08 5.8402523e-09 6.2462178e-09
8.747257e-09 6.7212738e-09 2.07445e-09 1.1278424e-08 2.9151263e-08 1.2635562e-08 3.5782872e-08 4.232305e-09
1.4984813e-08 4.1640234e-08 2.219785e-08 6.6264554e-09 1.2678221e-08 1.0876508e-08 3.110226e-08 5.21651e-08
5.6055596e-09 4.6796465e-08 2.4956297e-08 1.155379e-08 2.0812774e-08 3.3433232e-09 7.895677e-09 3.626067e-08
5.555432e-08 4.3167926e-08 1.4468911e-08 9.083484e-09 2.3155938e-08 2.0303757e-08 3.1982161e-09 1.08591166e-07
1.4632872e-08 5.027486e-09 6.7002524e-08 1.4480802e-09 5.2912295e-08 4.9390567e-09 7.622244e-09 1.5912361e-08
1.1514225e-08 4.441888e-08 3.3032997e-08 1.928879e-08 6.5798798e-09 9.727179e-09 7.321293e-09 1.388182e-08
3.8164205e-09 4.0909462e-08 7.0298995e-08 5.8642627e-08 1.8473923e-08 5.9507382e-08 5.929601e-09 1.6011736e-08
2.2517372e-09 1.4123436e-08 1.6507803e-08 1.0891809e-08 9.385124e-09 2.0939005e-08 1.52624e-08 3.1979965e-09
8.942472e-08 4.8465876e-09 1.8151148e-08 2.1228946e-08 1.60863e-08 1.0823811e-08 3.0130856e-08 3.0185074e-08
8.333678e-09 8.0023874e-08 3.582652e-09 4.2552767e-08 2.8990677e-08 3.4959992e-08 3.477474e-08 8.02973e-08
9.774279e-09 3.416232e-08 3.6325796e-09 2.0178158e-08 8.754071e-09 1.917888e-08 3.1496526e-08 7.5605144e-10
1.43513414e-08 7.2474653e-09 3.3733045e-08 6.3727246e-09 2.4381736e-08 9.649937e-09 2.0085778e-08 1.0118224e-08

exp_avg f4 [32, 128]
00000000: 7829 a3b9 df75 69ba df75 69ba df75 693a
00000010: df75 693a 1908 35ba df75 69ba df75 69ba
00000020: df75 69ba df75 693a df75 69ba df75 69ba
00000030: 7941 2f39 df75 69ba df75 69ba df75 693a
00000040: df75 693a df75 69ba df75 693a df75 69ba
00000050: df75 693a b2d9 18b9 df75 693a 44d4 8db8
00000060: df75 69ba bdd6 9039 df75 69ba 26dc ff38
00000070: df75 693a df75 693a df75 693a b83f 2039
00000080: 8f8d 0239 df75 693a df75 69ba df75 69ba
00000090: df75 69ba 92a1 5439 92a1 54b9 df75 69ba
000000a0: df75 693a df75 69ba 5a0a 8938 df75 69ba
000000b0: b83f 20b9 df75 693a df75 69ba df75 69ba
000000c0: df75 69ba df75 69ba df75 693a df75 693a
000000d0: df75 693a df75 693a 0b47 82b9 8db1 9fb9
000000e0: 7941 2f39 9c40 6ab8 df75 69ba df75 69ba
000000f0: df75 693a 4f6a af39 df75 69ba 92a1 54b9
00000100: 451d 7bb9 df75 693a df75 693a df75 693a
00000110: df75 693a df75 693a df75 693a 7941 2fb9
00000120: df75 693a 92a1 5439 df75 69ba df75 69ba
00000130: 88c8 67b9 df75 69ba 1908 353a df75 69ba
00000140: df75 693a df75 693a df75 693a 4f6a af39
00000150: df75 693a 11e0 da38 df75 69ba df75 69ba
00000160: df75 693a 0d0a d839 df75 69ba df75 693a
00000170: df75 69ba df75 69ba df75 693a df75 69ba
00000180: 1908 353a df75 693a b83f 20b9 df75 69ba
00000190: df75 69ba df75 693a 92a1 5439 4f6a afb9
000001a0: df75 69ba df75 69ba 7941 2f39 df75 69ba
000001b0: df75 693a df75 69ba df75 693a f8a7 77b8
000001c0: df75 69ba 7829 a339 df75 69ba df75 69ba
000001d0: df75 693a df75 69ba df75 69ba d430 4338
000001e0: df75 693a df75 69ba df75 693a df75 69ba
000001f0: df75 69ba df75 69ba 0d0a d8b9 bcc1 b639
00000200: 9078 c73a b786 f73a e271 29b9 10b8 15b7
00000210: c49e e93a 0815 d63a cd7d be3a 2d6c b0b8
00000220: 5b62 c73a 87a1 a0b8 1dce b43a ac58 90b8
00000230: 0f19 fb39 a4fc c53a d90f f13a ddf1 e33a
00000240: f9c5 a439 4a3c d6b7 3fa6 e8b9 ca5b 0cb9
00000250: 6e35 9138 e342 ae38 658c da3a 4bca ce37
00000260: b207 22b9 19c4 083b 8094 d03a a0ac 033b
00000270: 979c e13a d5b6 6f38 3d28 e73a 1019 a1b8
00000280: 06dd f0b8 8c3a 3fb9 3837 ba3a d9b9 e13a
00000290: 94b4 4539 7042 f33a c2c9 dc3a 4334 cf3a
000002a0: 8bd2 073b 4da3 0539 dee8 c1b9 8a38 d03a
000002b0: 1d88 d83a 4522 263a d88c de3a 747a 0a3b
000002c0: 822d d13a 0630 9339 7246 5eb9 45db 37b9
000002d0: 1209 35b9 e421 09ba fc75 8db8 3de3 f4b8
000002e0: 48fc ba39 5083 ab3a 19fa ed3a f1f1 d23a
000002f0: 54d3 0639 d162 d13a 5859 e03a 1f6d cf3a
00000300: c70d 37b9 732b 90b9 6f91 96b6 7f02 f03a
00000310: e4b2 d93a 9567 eb3a 4ace b93a 8623 0639
00000320: e044 bd38 26e0 c03a bb93 793a 8cd9 e93a
00000330: c022 b838 5858 bf3a 2013 b63a d42c b93a
00000340: 595d 92b9 540a fcb9 b2ed ee3a 8879 b63a
00000350: 02f7 e63a 8098 bb38 8bc2 58b8 bc03 c439
00000360: a21e 9039 e926 0d39 7871 e33a e3f1 de3a
00000370: da9e fdb8 b800 ad3a 1d14 e73a 2e43 7339
00000380: 7afd 34b9 c573 c13a 0270 cc3a 0392 e03a
00000390: 1820 c03a 1338 adb9 56a6 98b9 575c d03a
000003a0: 7ea5 24b9 c05e 033b 385d 233a f812 a8b5
000003b0: 92c5 6cb8 d998 cb3a ab9a 0c3b 7c63 123b
000003c0: ed1d ef3a eaef ee3a 0f74 edb9 d287 ee3a
000003d0: 2945 c7b8 e07d a43a ea95 da3a 25fb 023b
000003e0: 45d7 68b9 fe18 8439 f028 b039 2e95 f8b8
000003f0: e985 91b9 7f22 d7b7 85bf b13a c4e1 c53a
-0.0003112068 -0.0008905809 -0.0008905809 0.0008905809 0.0008905809 -0.00069058087 -0.0008905809 -0.0008905809
-0.0008905809 0.0008905809 -0.0008905809 -0.0008905809 0.00016713691 -0.0008905809 -0.0008905809 0.0008905809
0.0008905809 -0.0008905809 0.0008905809 -0.0008905809 0.0008905809 -0.00014576947 0.0008905809 -6.7629415e-05
-0.0008905809 0.00027625813 -0.0008905809 0.000122003534 0.0008905809 0.0008905809 0.0008905809 0.00015282526
0.00012450501 0.0008905809 -0.0008905809 -0.0008905809 -0.0008905809 0.00020278085 -0.00020278085 -0.0008905809
0.0008905809 -0.0008905809 6.534597e-05 -0.0008905809 -0.00015282526 0.0008905809 -0.0008905809 -0.0008905809
-0.0008905809 -0.0008905809 0.0008905809 0.0008905809 0.0008905809 0.0008905809 -0.00024848463 -0.0003045913
0.00016713691 -5.585012e-05 -0.0008905809 -0.0008905809 0.0008905809 0.00033457807 -0.0008905809 -0.00020278085
-0.00023948129 0.0008905809 0.0008905809 0.0008905809 0.0008905809 0.0008905809 0.0008905809 -0.00016713691
0.0008905809 0.00020278085 -0.0008905809 -0.0008905809 -0.0002210458 -0.0008905809 0.00069058087 -0.0008905809
0.0008905809 0.0008905809 0.0008905809 0.00033457807 0.0008905809 0.00010436786 -0.0008905809 -0.0008905809
0.0008905809 0.0004120622 -0.0008905809 0.0008905809 -0.0008905809 -0.0008905809 0.0008905809 -0.0008905809
0.00069058087 0.0008905809 -0.00015282526 -0.0008905809 -0.0008905809 0.0008905809 0.00020278085 -0.00033457807
-0.0008905809 -0.0008905809 0.00016713691 -0.0008905809 0.0008905809 -0.0008905809 0.0008905809 -5.9045822e-05
-0.0008905809 0.0003112068 -0.0008905809 -0.0008905809 0.0008905809 -0.0008905809 -0.0008905809 4.6537098e-05
0.0008905809 -0.0008905809 0.0008905809 -0.0008905809 -0.0008905809 -0.0008905809 -0.0004120622 0.00034858088
0.0015218426 0.0018884753 -0.0001615952 -8.9239475e-06 0.0017823805 0.0016333172 0.0014533341 -8.412483e-05
0.0015211807 -7.659481e-05 0.0013794337 -6.8829715e-05 0.0004789312 0.00151052 0.0018391564 0.0017390806
0.0003142802 -2.5538862e-05 -0.0004437435 -0.00013385635 6.924091e-05 8.309425e-05 0.0016673921 2.4651314e-05
-0.0001545239 0.0020868836 0.0015913397 0.0020091906 0.0017212805 5.7152316e-05 0.0017635893 -7.6817465e-05
-0.000114852606 -0.0001823699 0.001420713 0.0017221525 0.00018854655 0.0018559229 0.0016844796 0.0015808422
0.0020724859 0.00012744703 -0.00036985328 0.001588599 0.0016520057 0.0006337504 0.001697923 0.0021130117
0.0015958997 0.00028073805 -0.00021197813 -0.00017533924 -0.00017264884 -0.00052311854 -6.74538e-05 -0.00011677153
0.0003566465 0.0013085399 0.00181562 0.0016093833 0.00012857962 0.0015974884 0.001711647 0.0015825367
-0.00017457372 -0.00027498193 -4.487279e-06 0.0018311291 0.00166091 0.0017959947 0.0014175859 0.0001279247
9.025051e-05 0.0014715239 0.000952061 0.0017841323 8.7802764e-05 0.0014598472 0.0013891198 0.001412774
-0.0002791684 -0.0004807288 0.0018228798 0.0013921717 0.0017621221 8.94526e-05 -5.1679595e-05 0.00037386816
0.00027488644 0.00013461303 0.0017352542 0.0017009344 -0.000120935685 0.0013199067 0.0017629896 0.00023199312
-0.00017260565 0.0014759233 0.0015597346 0.0017133359 0.0014658002 -0.0003303891 -0.0002911563 0.001589666
-0.0001570191 0.002004549 0.0006231847 -1.2522496e-06 -5.6450786e-05 0.0015533223 0.0021454494 0.002233713
0.0018243172 0.0018229459 -0.00045290633 0.0018198437 -9.5019415e-05 0.0012549721 0.0016676758 0.001998612
-0.00022205438 0.00025195623 0.00033599837 -0.000118533484 -0.00027756326 -2.564606e-05 0.0013561106 0.0015097191
